ML-Agents/backup/results/v3.0.3-colliders-penalty/Volleyball/Volleyball-8499990.onnx (onnx, 333204 bytes, 15 tensors)

discrete_action_output_shape f4 [1, 4]
00000000: 0000 4040 0000 4040 0000 4040 0000 0040
3.0 3.0 3.0 2.0

network_body.observation_encoder.processors.0.normalizer.running_mean f4 [51]
00000000: 6c24 873c de3e 5dbd 1126 c93e e67e 023f
00000010: de3e 5dbd 1126 c93e e67e 023f 468c 4b41
00000020: 2bb6 8fc0 2941 0e38 5c37 5cb6 4462 19c1
00000030: c5c6 d83f c157 cd41 a5bb 6fbf 44c1 b13e
00000040: ecd9 133e 0000 0000 d8ce bc3c 0000 0000
00000050: ef06 6e3f 0aae 1ac1 82a1 d83f 6b6c cc41
00000060: 5287 82bf a13a af3e b840 db3d 0000 0000
00000070: 4499 803c 0000 0000 68a9 6b3f f13c 1ec1
00000080: 1198 cf3f 3f61 0541 5479 6d3f 8280 a63e
00000090: c741 bb3c 0000 0000 fbd4 e53c 0000 0000
000000a0: 5732 6a3f f179 1bc1 a50c d13f 6045 0441
000000b0: 4598 5e3f fa33 a63e 9752 19be 0000 0000
000000c0: 2a9f 00ba 0000 0000 7e61 733f
0.01649686 -0.054015033 0.39286855 0.5097488 -0.054015033 0.39286855 0.5097488 12.721746
-4.4909873 3.3916123e-05 -3.2814778e-06 -9.586491 1.693566 25.667849 -0.936457 0.34717762
0.144386 0.0 0.02304785 0.0 0.9297933 -9.66749 1.6924288 25.552938
-1.0197546 0.34224418 0.107057035 0.0 0.015698083 0.0 0.9205537 -9.889878
1.6218282 8.336242 0.9276326 0.3251992 0.022858514 0.0 0.028055659 0.0
0.9148306 -9.717271 1.6331984 8.266937 0.86951095 0.3246153 -0.14972912 0.0
-0.000490653 0.0 0.95070636

network_body._body_endoder.seq_layers.0.weight f4 [256, 51]
00000000: f737 9c3e 7080 86be 6fe2 cf3e 7567 aebe
00000010: 2d34 46be 890d ad3e ae4a 09bf 72e8 553e
00000020: 5c10 833e 5c00 483e 4ad1 593e 4e9d c33d
00000030: 9892 34bd 9314 f1bd e601 1d3e 4127 de3d
00000040: 3459 863c 6e51 91bd bff7 ac3c 5b76 14be
00000050: cb7e 373e 87f4 2c3e 4419 fabc e6f9 f13c
00000060: 74e1 a7bd a7b4 8fbd 318f b0bd 7b8f f33d
00000070: 101f a53d 4cb7 ffbc 636f 543b f10b c23d
00000080: 0409 bb3b 5173 2e3e 2d4f 1ebd a8eb 8c3e
00000090: 8d42 96bd b401 23be ba9b 503e eb06 e33c
000000a0: 2c0d 6d3d e19e f2bd cebf fe3d 4c66 aebd
000000b0: 30bd 273e 51fb 533d 5d99 913c 0234 263d
000000c0: 8e2a 723d c168 723e e954 233e 258e 77bd
000000d0: 7fcd 563e de54 e7be 4c30 9e3e 0ddf 573e
000000e0: 1d03 3cbe bce9 c13e 030a 2f3d 1018 51be
000000f0: 9268 6ebd 2001 03bc 870a 7dbe 6183 f1bd
00000100: d31c e03c 2af3 1f3e bb0a e1bc 1e74 333e
00000110: 3356 5ebe 9ddb a33d 66e8 89bd 118a e73d
00000120: 5001 d53d 7976 d63d 3073 21be 4a04 563e
00000130: 12d8 163e 3548 83bc 178c 05bd 48f3 3b3e
00000140: d5ee 35bc e1f1 c0bd 4925 25be 4e9c e4ba
00000150: 2515 f5bc 8d8a 3ebe aa35 5b3d 7d3e 33bd
00000160: cd89 043d 4665 113b 5fac 393c fd0a f23d
00000170: 1c64 ed3d c06d 34bd 6b20 593c e92b 2dbe
00000180: 8706 d9bc 76fc 50bc 1c36 b33d 1604 9c3e
00000190: 1096 3cbc f39a ecbd 9aad f2bd 7d7b 8b3d
000001a0: ee1b 473e aa6e 1c3d 8698 39bd 5355 9c3e
000001b0: b25a 4abe 3127 bfbd fcac 5abe 7e4a b33d
000001c0: 53c6 5ebd 62f9 5f3e 5f08 9bbd 9d18 bbbc
000001d0: a1c4 023e 3c98 2ebd b7ca 793c bef9 443e
000001e0: 659d 0f3e 8f0a 323d 1a80 943d 7674 5bbd
000001f0: c8dc d0bd 68a1 23be e416 65be 8fea b4bd
00000200: 1fb3 413e 37ea fabd 3d13 72be 31d7 393e
00000210: 5c54 323e 617c f73b aad9 5dbb 52c4 1abd
00000220: 7df3 7abd 0f8d d9bc fbd1 aebc f77f 1c3e
00000230: 3740 003d 8ca8 17be baee 2d3d 2226 8ebd
00000240: 0e0d 42be 615a af3c c16f 31be 1402 cd3c
00000250: 56ad 5abe 92fb ccbc 5a3c 1fbd b814 1f3d
00000260: fb6d 253e 1f0d d13e ce85 dcbe 0fb8 cc3c
00000270: 0d57 38be ba2a 53be 9930 3bbc ea3d d2be
00000280: 30b5 ec38 c13b b93e 249b 2cbe 4aea ab3d
00000290: d055 abbd 8b6a 9abc c9d4 72bd 0199 a9be
000002a0: 2fb4 923e f4b1 3b3e ebed 373e 6dd7 333e
000002b0: 97eb 10be fb15 a5be fdb9 3f3e 4286 06bc
000002c0: f241 eebc 00dd a6bd 88a1 3a3e 90aa ab3d
000002d0: df46 113d 32e2 f03d 9774 f5bc 3f96 373e
000002e0: 14d7 213e f6f8 ccbd e686 023d 9dc7 e4bd
000002f0: d99f 553e 2004 54be f747 afba aa2c 03be
00000300: d619 fd3d 50c0 4abd 4ade 063e 68d5 cdbd
00000310: dd54 be3c f0f4 48be 3a7e f63d 7575 063e
00000320: 83de 0e3e 7301 3d3c e241 223c 4b45 8bbe
00000330: 6474 74bd 5ad0 ab3e 5a28 0cbd 84db 9d3e
00000340: 6bff 403e 8496 913d dc5e 04bd b203 dfbe
00000350: 8762 c5be 2ba6 83bc 6f3e b3bd 05f4 253d
00000360: bf48 8b3e 8ca1 e73d 7526 153e b6b0 8bbe
00000370: c270 523c eb99 20be 6d75 aa3d bc30 9f3e
00000380: 12e0 653e ebff 6fbe 7d74 4b3c fa31 04be
00000390: 5f0b ac3d e3b9 93be 26a4 1abb fe87 6b3e
000003a0: 6cbf 95bd 4b9d 3cbe 64eb 673e 275b 2bbd
000003b0: 8edf febd 1b87 d73d 4505 cebe e979 0a3e
000003c0: 34fc c63d bd6d dcbd 601c 99bd c0e4 6cbd
000003d0: bccb dd3d 29a5 7ebd 59b8 31be bfc4 a1bd
000003e0: d4ca af3d 94d5 debd 4ed2 1dbe 9a1c 1f3e
000003f0: aa7b 183e 376d 413e 390e c0bd 3e57 393c
0.30511448 -0.26269865 0.40602443 -0.34063306 -0.19355841 0.3379939 -0.5362958 0.20889452
0.2559842 0.19531387 0.21271244 0.09551488 -0.044085115 -0.11771502 0.15332755 0.10847331
0.016399957 -0.070956096 0.021114228 -0.14498274 0.17919461 0.16890155 -0.030529626 0.029538106
-0.08197299 -0.070168786 -0.086210616 0.11892601 0.08062565 -0.031215332 0.0032415024 0.09474934
0.005707862 0.17036177 -0.038649727 0.2752354 -0.07336912 -0.15918618 0.20371905 0.02771326
0.05787389 -0.1184671 0.124389276 -0.08515605 0.16380763 0.051753346 0.017773325 0.040576942
0.059122615 0.23672773 0.1595036 -0.060438294 0.20976828 -0.45181936 0.30896223 0.21081181
-0.18360563 0.37873638 0.042734157 -0.20419335 -0.058205195 -0.007995874 -0.24711047 -0.11792637
0.027357494 0.15620103 -0.027470937 0.17524764 -0.2171257 0.08000872 -0.067337796 0.11305631
0.10400641 0.104718156 -0.15766597 0.20900074 0.14730862 -0.016025642 -0.032604303 0.18354523
-0.011104305 -0.09421135 -0.16127504 -0.0017441602 -0.029917309 -0.1860754 0.053517975 -0.043760765
0.03235798 0.0022185608 0.0113326 0.11818502 0.1159136 -0.04404998 0.013252358 -0.16911282
-0.02649237 -0.012755504 0.08750555 0.30471867 -0.011510387 -0.11552992 -0.11849518 0.06810663
0.19444248 0.038191475 -0.045311473 0.30533847 -0.1976116 -0.09333647 -0.21355051 0.08754443
-0.054388355 0.21872476 -0.07569956 -0.022838885 0.1277032 -0.04262565 0.015246085 0.19235894
0.14024885 0.0434671 0.07250996 -0.053577863 -0.10198361 -0.1597954 -0.22372013 -0.08833801
0.18915986 -0.12251704 -0.23640151 0.18148495 0.17414993 0.007552669 -0.0033851662 -0.037784882
-0.061267365 -0.02655652 -0.02134036 0.1528319 0.03131124 -0.1481039 0.042463996 -0.06940867
-0.18950292 0.0214054 -0.17327787 0.025025405 -0.21355185 -0.025022302 -0.038875915 0.03883812
0.16155235 0.40830323 -0.43070835 0.02499011 -0.18001957 -0.20621768 -0.011425161 -0.41062862
0.00011287106 0.361784 -0.16856056 0.083942965 -0.08365977 -0.018849632 -0.05928496 -0.33124545
0.28653094 0.18329602 0.17961852 0.17562647 -0.1415237 -0.32243332 0.18723293 -0.0082107205
-0.02908418 -0.08147621 0.18225682 0.083821416 0.03546798 0.11761893 -0.029962821 0.17928408
0.15804702 -0.10008423 0.03186693 -0.11170886 0.20861758 -0.20704699 -0.0013372888 -0.12810007
0.123584434 -0.04949981 0.13170734 -0.1005047 0.023233825 -0.19624686 0.120357946 0.13130744
0.13952069 0.01153599 0.009903403 -0.27201304 -0.05968131 0.33557397 -0.03421817 0.3083154
0.18847434 0.07108787 -0.032317027 -0.43557507 -0.38551733 -0.016070446 -0.08752143 0.04051592
0.27203938 0.113101095 0.14565451 -0.27283257 0.012844266 -0.15683715 0.083231784 0.3109187
0.22448757 -0.23437469 0.01241791 -0.1290969 0.08400606 -0.28852758 -0.0023596375 0.23001096
-0.073119015 -0.18419378 0.22648388 -0.041834977 -0.124449834 0.10523816 -0.40238395 0.13523068
0.09716073 -0.107631184 -0.07476115 -0.05783534 0.10829875 -0.062169228 -0.1735548 -0.078988545
0.08583608 -0.108805805 -0.15412256 0.15538254 0.14890924 0.18889318 -0.09377713 0.011312304

network_body._body_endoder.seq_layers.0.bias f4 [256]
00000000: 8af8 063e cf12 e73d 6e42 36bc 0730 123e
00000010: 2d63 fd3c 327d 0d3d ef53 573b c7ce 2d3d
00000020: 354d 5f3d d231 74bd 29a8 8d3d 6eb8 b73d
00000030: 658b 05bb d89b 24bd e646 5bbc 3c67 803d
00000040: c9f6 c73d ebcb 103e 0d74 ea3d 8527 3f3d
00000050: 885a 053e 90f8 8f3c 2288 d73c c5fb 163d
00000060: 8670 283d 1e8c 963d 4067 553d 6968 af3c
00000070: 1fee 043d 5af5 ceba 494b 963d c4c6 9d3c
00000080: 6e81 dfba 560e 813d ce80 9a3c a7c5 b53d
00000090: 434c c83c 604d c33d 1e87 4c3d 792b 9fbc
000000a0: 0f00 d73c db7c c73c c28a 853d 64de 0f3d
000000b0: b141 873c e6c8 943d 4725 f9bc 24a4 babc
000000c0: f42b d03d 898d 8e3d 1e34 ec3c 8a70 a03d
000000d0: a5da e33d 012e 843d 57f5 d73c 0c89 eb3d
000000e0: 1a96 133c 4ac4 da3d ac94 e33d ba59 633d
000000f0: 14b7 183e ad46 613d 31ea 803c 595f 423d
00000100: c3f1 c93d 3db6 b83d c3eb 4d3c fbac e6b9
00000110: 5471 983d 4cf8 a4bc f3e2 eb3c fb59 253d
00000120: 1ce8 0cbc 6c69 e03d 504a dc3d 4736 e33d
00000130: d9d9 013d 6926 f73c 9a85 b33d d755 283d
00000140: 474a cc3d d637 9b3d d231 7d3d f2da a63d
00000150: 8bf4 f0bb caea 7a3d afee 053d 0df5 793c
00000160: 8eda c8ba cf82 803d 1ea5 e93c 112b a8bb
00000170: 7388 f03a e1f6 0d3e 2f52 12bc 8a46 8c3d
00000180: 6203 2cbb 9cbf 6d3d 61e4 883d 3f4e b73d
00000190: 5909 0e3d e931 103e 8b2d 1c3d 3744 bb3b
000001a0: b31c c5bb 6455 093e 1cd5 963d 024f b9bc
000001b0: 903d b43c b2fc 393d d9c9 0e3e 365f e73d
000001c0: ed4e 583d 5e28 ef3d 0f75 e73b dd5e 513d
000001d0: 179e e83c 62b0 003e 1556 a53c 4ca1 ba3d
000001e0: b781 773d a6a7 8a39 2601 6b3c 12e9 8e3d
000001f0: 4b2b 203e ad07 f53c 3512 2abd 716e 563d
00000200: ba20 6f3d 04f6 e03c 1dd1 8ebb 4db6 e33c
00000210: a574 ce3d 36cf 393e 103f df3b 4afd 103d
00000220: c9af 943d fa3f d03c 4dfe 833d 5649 c13d
00000230: 77f8 a73d 7d28 353d 8eee 353c 4f57 003e
00000240: e40e 0bbd f207 793d 32c7 a83d 507e babc
00000250: eaee 9b3d 0b74 e23d e776 7c3c 6927 113e
00000260: a6a2 b23d 1c2c 903d dead 663c fa0c b03d
00000270: 97e4 823d fb81 bb3d 002b ad3d 0ca7 913d
00000280: a1df c73d 7550 9e3d 0a0e 193d f20e 773d
00000290: 5405 a13c ebf5 033e 5cf5 e23d 98db 883d
000002a0: 779e b63b 43f6 bc3d a264 a23d 6cb9 cc3d
000002b0: 4ea3 663d f911 5bbc b055 303d 83d9 793d
000002c0: f2bd 4c3d 0d95 e2bc da0d e93d 9b07 23bc
000002d0: dfc7 cc3d b54d be39 539d 943d 0ba0 f93c
000002e0: 4450 f33c 6c63 9d3d 312a 8d3d 4b5a 963d
000002f0: 2c60 073d 5909 ac3d 47a1 453d ccad e63c
00000300: 99cf 7b3d 0a41 af3d cd9f 833d 0458 903c
00000310: cbda 933d 6f34 a13d 70a1 fb3d aeaf 3f3b
00000320: 7967 963c 4aff 4f3d c9be 773b 7011 213d
00000330: 2e61 83bc 3196 583b 4675 e33c a1f5 613d
00000340: 633b 383c 938a aa3d 6c67 e03d 3221 843d
00000350: 2264 aaba ca4d 9aba a93e db3c 22fa 573a
00000360: ca9e 403e 04f1 983d 4d36 753d 0e07 8d3b
00000370: d1d4 993d 03c4 5e3d 3590 683d 533a 0b3d
00000380: 6013 0e3e fccd f33c 912d d23a 3b84 973d
00000390: 5dfc f93b 5ced 983d 9cdc b13d b74b f53d
000003a0: 31a0 573d 2d8e 993d e547 26bd 2069 083d
000003b0: 667c 0a3e f564 ad3c 19e0 313a 9bcc 013e
000003c0: 902e 7b3d baa3 8b3c 1bc5 9a3d 8341 b23d
000003d0: 3e2b d63c 15a6 08bb df0c ef3c a0cb 293d
000003e0: 9eb0 30bd 4673 d73d 099a 693d 801f 7d3d
000003f0: 7c32 453d 9a6c d93d 2e5a a13d 7dad f33d
0.13180748 0.11282884 -0.0111242365 0.14276133 0.03093108 0.034543224 0.0032856425 0.042433526
0.05451699 -0.059617825 0.0691684 0.08970724 -0.0020377275 -0.040187687 -0.013383603 0.062696904
0.097638674 0.14140289 0.11447916 0.046668548 0.13022816 0.017574579 0.02631003 0.0368612
0.041122936 0.07350944 0.05210042 0.021412091 0.032453652 -0.0015789673 0.07338578 0.019259818
-0.0017052123 0.063015625 0.018860247 0.0887559 0.024450427 0.095362425 0.049933545 -0.019429909
0.026245145 0.024351528 0.065206066 0.035124198 0.016510816 0.07264881 -0.030413283 -0.022783346
0.101646334 0.069605894 0.028833445 0.07833965 0.111256875 0.06454087 0.026362104 0.11500749
0.009007955 0.106819704 0.11112341 0.05550549 0.14913589 0.054999042 0.015736671 0.04745421
0.098605655 0.09019134 0.012568417 -0.000439979 0.074434906 -0.020137928 0.028794741 0.040369015
-0.008600261 0.109576076 0.107563615 0.11094337 0.031701896 0.030169683 0.08765717 0.04109749
0.09975105 0.07579009 0.06181509 0.08147229 -0.0073533705 0.06125907 0.03269833 0.015256179
-0.0015323923 0.0627495 0.028521117 -0.005132087 0.0018351212 0.13863708 -0.008930727 0.06849392
-0.0026247134 0.05804406 0.06684185 0.08950471 0.034676883 0.14081539 0.03812937 0.005714919
-0.006015384 0.1341148 0.07364866 -0.022620682 0.022002012 0.045407005 0.13944186 0.11297457
0.052809644 0.11677621 0.007063515 0.05111586 0.028395696 0.12567285 0.020182649 0.09112796
0.06042644 0.0002644632 0.0143435355 0.069780484 0.15641515 0.029910887 -0.04152127 0.05235142
0.05838082 0.02746106 -0.0043584243 0.027796889 0.10080842 0.18145451 0.0068129376 0.035397805
0.07260091 0.025421131 0.064449884 0.09437816 0.08201688 0.044228066 0.011104239 0.12533306
-0.033949748 0.060798593 0.082411185 -0.022765309 0.076139286 0.1105729 0.015409208 0.1417519
0.08722429 0.07039663 0.014079539 0.08596225 0.06391256 0.09155651 0.08455467 0.0711194
0.09759451 0.0773019 0.037366904 0.060316987 0.019655861 0.12886779 0.11081955 0.06682509
0.0055730897 0.09226658 0.079293504 0.09996304 0.056308083 -0.013370984 0.043050468 0.06099845
0.049985833 -0.027658964 0.11379595 -0.009950544 0.0999906 0.0003629752 0.0725657 0.030471822
0.02970136 0.07684979 0.06892813 0.07341441 0.0330507 0.084002204 0.04824951 0.028159045
0.061477277 0.08557327 0.06426964 0.017620094 0.07219466 0.07871329 0.12286651 0.0029249
0.018359886 0.050780572 0.0037802926 0.03932327 -0.01603755 0.0033048505 0.027765881 0.05516589
0.011244628 0.08327212 0.10957226 0.06451644 -0.0012999813 -0.001177245 0.026763277 0.0008238872
0.18810573 0.07467845 0.05986624 0.0043038195 0.07511295 0.05438615 0.05677815 0.03399117
0.13874578 0.029761307 0.0016035308 0.07398268 0.007628961 0.07467148 0.08684656 0.11977332
0.052643005 0.07497821 -0.040595908 0.03330338 0.13524017 0.021166304 0.00067854073 0.12675707
0.061323702 0.017045844 0.07557126 0.087039016 0.026143666 -0.0020850946 0.029180942 0.041453958
-0.043137185 0.105200335 0.057031665 0.06179762 0.04814385 0.10616417 0.078785285 0.11898325

network_body._body_endoder.seq_layers.2.weight f4 [256, 256]
00000000: b150 913d 5ded 04be 110b 943d 9ef6 3dbd
00000010: 39f5 85be 62ce 193d 7ac4 503d e3af d7bd
00000020: edb5 a2bc 8654 f53c f2ad cf3d 1828 483d
00000030: bb7c ef3c 3e89 183d f267 053e 26df 093e
00000040: 5d2a 153e 0965 0bbe bdeb 783d 20df ff3d
00000050: eaf8 b6bd 997b 113d 7bb1 89bd bd73 03be
00000060: 828d 0bbe dd07 003e ad23 37bd debf debd
00000070: 7a8c a03d 3cbc 8bbc 15a5 0fbd 0f19 493d
00000080: 0061 5e3d 2fa0 733d 7303 7e3c 9aba 1d3e
00000090: b693 7bbe 08ed 1d3c 9e16 613d c97e b83d
000000a0: de6a afbd 7ec0 08be 23aa 2cbd 8274 06be
000000b0: e822 093c fc19 d83d 1cdb d03d 5a5f 19be
000000c0: d3ef d6bd bd74 b2bd e393 2b3c a198 e23b
000000d0: d4d0 14bd 81ac b03c ac6b 64be 16af 9fbd
000000e0: 4a22 88bd fa81 b43d 31de 103c 8435 ddbc
000000f0: 2535 51bd a983 e73b 8f0a f83c 9622 ca3d
00000100: 9d9a e1bd 41e6 433d f51a 793c e0c9 c4bd
00000110: 8dc0 b4bc 9a17 073e fc76 3f3e 6d65 053d
00000120: bb2a 743d 1049 8dbc 2ec8 59bc 6edc 003d
00000130: 944b 8b3c 3869 f83c ba2e b23d 0f87 2c3e
00000140: f2b4 8a3d 609b 04bb b078 923b c874 183e
00000150: 10bc 543c 01b9 45bd 03d1 813b d3d5 293d
00000160: 98e3 fd3d 38d4 853d b180 70bd 48ae 093d
00000170: 9d4f 84bd 5706 d7bd bdcb 4e3d 10b8 17be
00000180: 8fe1 093d 6903 90bc ca5c 16be 3b78 0c3e
00000190: bcd5 0b3e 734f fabd 46c3 0a3d 5210 833d
000001a0: 3190 1b3c 1624 a3bc ff6a 40be 70f4 89bc
000001b0: 8cd2 81bd 2c8f a5bd 5a58 6c3c c2c6 85bc
000001c0: c56d 8a3c a0e5 93bc c5fd d8bc f048 d43d
000001d0: a522 463d 4e49 00be 436c 833c a0ac 41be
000001e0: 5d78 dc3d eeeb 23be 2e52 93bd 26e6 35be
000001f0: 486c 25bd a7c1 173e 13f4 09be 99f2 f9bd
00000200: 41bc 453e f472 aebc 65d8 8f3d b1af 9abd
00000210: c64a 4abe 78cf 25be 3fcb 0a3e 7b0f a3bc
00000220: 920f 073d fc88 723c 306d 4d3e ee48 73be
00000230: b0ab 733d d897 ce3c 1c99 a83d e114 263c
00000240: a593 08be 5e05 21be 69fd 783d 892c 95bd
00000250: 811c 94bd 6bc5 683d 51e1 3f3d 98c1 4bbe
00000260: 3dd4 88bc 8213 a5bd dac3 d3bd fc66 973d
00000270: 6145 a13d ab1b f33c 2a6c 353d e7c4 323d
00000280: c9e0 0ebd 7380 7339 f244 0dbe 2b9d c4bc
00000290: bea9 323d cddf 413c 2dc8 0cbe 24a9 dfbc
000002a0: 61c1 c6bd 1891 5fbc 08f0 35bd a5c2 33be
000002b0: 2b04 853d bef0 a8bd be83 5d3c ae47 0cbd
000002c0: a3c4 183c 5ee0 a3bc 7120 813c 87cd 193e
000002d0: 94d2 41bd b575 243d fb6a 3fbd 52f5 9fbb
000002e0: 4c94 81bd 5d39 15bb 03c0 c03d 2c0f 8c3c
000002f0: cc37 cf3d fa4f 0bbe 2b78 b0bd 6603 03be
00000300: 4020 433d 183b aebd 7bee 793d 3263 4f3c
00000310: 8002 d1bd 268b fdbc ac4d e93d 3793 903d
00000320: e21a 5ebe 365e 14bd 41e7 55bd bc34 0ebd
00000330: 48e4 d13d 04a9 e13d 40e3 16bd da52 ae3c
00000340: 9ab6 27bc ff77 2a3c d65d e5bd bde8 3b3d
00000350: 39b9 52bd 886f 533d d92c ffbd c697 61bc
00000360: a402 e3bc a5e5 12bd 2308 1e3e e7df c83c
00000370: 3fc2 f7bd 49cd b6bc 941b 1fbe 2649 f63d
00000380: 2fb9 b8bd 5edf 57bd 86ba 633d 1d33 35bd
00000390: 5e24 d93c f8a4 06bd ecf0 c33d 0481 23be
000003a0: 139e 16be 3f9a 74be 4acd 0e3d 86d5 99bd
000003b0: ff7e 2dbe d60e 923d cf2e da3d fb7e 93be
000003c0: 1715 e2bd 061e 073d d21a 83bb 9974 113e
000003d0: 2528 113d 2610 303d 0b5e 8b3d 6f08 90bd
000003e0: 3f6a a63d 37e0 09be e8b5 4e3e 7128 76bd
000003f0: be45 25be 8b9b 30bd 82dc febc db72 28be
0.07095469 -0.12981172 0.07228673 -0.04637777 -0.26163653 0.037550338 0.050968625 -0.105315946
-0.01986214 0.02994753 0.10140599 0.04886636 0.02923428 0.03724026 0.13027933 0.1346403
0.14566942 -0.1361276 0.060771693 0.124937296 -0.08934195 0.035518263 -0.06723305 -0.1283712
-0.136282 0.12503 -0.044711757 -0.108764395 0.07839294 -0.01705753 -0.035069544 0.049096163
0.054291725 0.059478935 0.015503752 0.15403214 -0.24568066 0.009639032 0.05495321 0.09008557
-0.08565305 -0.1335468 -0.042154443 -0.13130382 0.008370139 0.10551831 0.10198042 -0.1497778
-0.104949616 -0.08713672 0.010472271 0.0069151674 -0.036331967 0.021566631 -0.22306699 -0.07797067
-0.06647165 0.088138536 0.008842037 -0.027003057 -0.051076073 0.0070652557 0.030278472 0.09869878
-0.11015818 0.04782701 0.015204181 -0.09608817 -0.022064472 0.13192597 0.18697733 0.03256743
0.059611063 -0.017246753 -0.013292355 0.031460218 0.017003812 0.03032361 0.08700319 0.16848396
0.06772794 -0.0020234212 0.0044699535 0.14888299 0.012984291 -0.048272137 0.0039616837 0.041463684
0.12396926 0.06534618 -0.05871648 0.033613473 -0.064604975 -0.10499256 0.05048727 -0.14816308
0.033662375 -0.017579751 -0.14683834 0.1371774 0.13655752 -0.12222185 0.033877634 0.06399597
0.009494827 -0.019914668 -0.18790816 -0.01684019 -0.06338987 -0.080839485 0.0144253615 -0.016330127
0.016898045 -0.01805383 -0.026488194 0.10365474 0.048372883 -0.12527964 0.016042834 -0.18913507
0.10765145 -0.16007969 -0.07193409 -0.17763576 -0.04038647 0.14819966 -0.13472013 -0.12204475
0.19310094 -0.021295048 0.07023696 -0.07553042 -0.19755086 -0.16192424 0.13554095 -0.019904843
0.032973833 0.014803167 0.20061183 -0.23758289 0.059489906 0.02521889 0.08232328 0.010136814
-0.13337572 -0.15724704 0.060788546 -0.07283885 -0.07231999 0.056828897 0.046845738 -0.19898069
-0.016702766 -0.080603614 -0.1034009 0.073926896 0.07874561 0.029676279 0.044292606 0.043644812
-0.03488234 0.00023222137 -0.13795832 -0.024000725 0.04361891 0.011833143 -0.13748236 -0.027302332
-0.09704853 -0.013645433 -0.044418365 -0.1755472 0.064949356 -0.08249043 0.013520179 -0.034248047
0.009324226 -0.020004448 0.01576254 0.15019809 -0.047319964 0.040151317 -0.046732884 -0.0048815394
-0.063271135 -0.0022769787 0.09411623 0.017097078 0.10118064 -0.13604727 -0.0861667 -0.12794265
0.047638178 -0.08507365 0.06101845 0.012657927 -0.10205555 -0.03095014 0.11391768 0.07059329
-0.21689942 -0.03622266 -0.052222494 -0.03471826 0.10248619 0.11018565 -0.036837816 0.021279741
-0.010236407 0.010404586 -0.111995384 0.045876253 -0.051446173 0.051620036 -0.12459726 -0.013769096
-0.02771122 -0.035863537 0.15432791 0.024520827 -0.120975964 -0.022314684 -0.15537864 0.12025671
-0.09019696 -0.052703254 0.055597804 -0.0442382 0.026506599 -0.03287217 0.095674366 -0.15967184
-0.14708738 -0.23886965 0.034863748 -0.075114295 -0.16942976 0.07131736 0.10653459 -0.28807816
-0.11039179 0.032987617 -0.004001 0.14204635 0.035438675 0.04298415 0.06805047 -0.070328586
0.081257336 -0.13464437 0.20186579 -0.06009716 -0.16139886 -0.043117087 -0.031111006 -0.16450064

network_body._body_endoder.seq_layers.2.bias f4 [256]
00000000: fc67 0a3d e2a6 70ba 3d75 a8bb 0314 cebc
00000010: 79c4 393c 470a 46bd 9699 94ba fbfe ac3b
00000020: 1d5e eabc af51 bf3a 0041 cb3c 5df0 b7bc
00000030: e3b1 e93c 1281 72bc e2a2 0fbd 414e 0c3d
00000040: a40e e9bb a962 f03c a66f a83b 7621 1d3d
00000050: e680 95bd a936 85bc 0150 a1bb 1fb1 3abd
00000060: 3942 9ebc a25f dabc e68b 843c b4cb 813c
00000070: 6d58 1bbd a288 b9bc b1d0 77bc d72f a7bc
00000080: fd9c ac3c 3107 00bd 59e7 20bd d434 423d
00000090: 5aeb 65bd 03fc 943c 4c94 20bd c2c8 31bc
000000a0: c157 563c 1895 543c ec5f ee3c c772 103c
000000b0: 3d76 d3bc 57a2 e23c 7856 a53b 56a0 783d
000000c0: 2c64 66bc 2442 85bc a1b1 87bc e647 85bc
000000d0: 7ab1 ef3c 1f08 21bc ceec babc af76 80bc
000000e0: 251e 313d 5d4c 223d e459 103c 2637 f83b
000000f0: f2a0 b93b fd6d 77ba 98ed 233d 3415 3a3b
00000100: 36b3 a83c 92ec 20bd 7f89 b63a 8d33 f4bc
00000110: df86 2cbb cfb9 debc 74aa 733d 9e67 7abb
00000120: e6c4 a93c 1a20 69ba 056d 56ba fc27 82ba
00000130: c14d ba3c 82f0 a53c 0072 943c 1aba 993c
00000140: fe78 acbc a645 14bd d8b6 8a3d 5d14 a1bc
00000150: d2dc 813b a2f0 1dbc aabb 303c b2ef 86bd
00000160: 4208 633c 593b 483c 7cfc b63c 6e0b 94bc
00000170: daff 0f3d fb5a babc 4671 cb3c d382 69bd
00000180: 76c3 033c 1b5c 16bd b5d2 8a3d ef23 b53a
00000190: 3098 9f3c 01ff 02bd a0d7 eebc 3da4 04bd
000001a0: 5f0d a9bc 0a00 17bc bd5f 8cbd e5b3 9ebd
000001b0: 544b bf3b 1b75 0a3c 4e9a ca3c be33 613d
000001c0: 67a6 bb3b 2b8b 583b 263d 103d 4e88 dc3c
000001d0: 2f7c a8bb 035f 1a3c 8610 6d3c 075f 12bd
000001e0: b3d2 a53b adce 233c ca74 dc3c 7c31 9dba
000001f0: d2ac 943c 4efa 21bd 5134 0e3d eb58 23bc
00000200: ec98 0f3c a8d5 47bc aae6 5ebc 0b54 c13a
00000210: a986 08bc e590 03bc 499a 3e3c 23d6 b93c
00000220: 6816 a5bc 6777 d7bc 52c6 8fbb 93c1 513c
00000230: 6616 09bd 6bf1 debb 47ca 80bd 60cc debc
00000240: 6f28 00bc b80f 9dbc 43f9 853d 9590 94bd
00000250: 2d13 72bc 1794 f53b 12eb b8bc 7717 a4bc
00000260: 0101 1f3c d840 173c de78 b63c 36c3 cfbc
00000270: df17 6c3c c2c1 c43c bc34 2b3d bcf8 7ebc
00000280: ca7c 29bd ee52 e0bc 9ded 09bd 5a89 3fbc
00000290: 7c34 133c 11c8 ccbc 0796 3ebc af5a 57bb
000002a0: 8ae2 64bd 2cd9 6cbc e06f 333d 7f64 ccba
000002b0: b241 2ebd 997d c83c b219 b9bc 4072 983c
000002c0: 8ef1 a83c b3a7 423b b4d0 94bc 32e9 8c3c
000002d0: fc99 ad3c 31c4 5ebb 878a 463d 39cf 273c
000002e0: 81af 6d3c 0bb8 a4bd b7ba f9bb d344 c83c
000002f0: eac6 e2bc 5ee4 d03c e2bc 2abc 3e47 9e3c
00000300: 0557 26bd 9340 ffbc 88fe 293c f6bb 903c
00000310: dc63 a1bb 744f fdbc 8697 80bd 30f2 ed3c
00000320: b388 4fbc be84 463d e305 27bc a484 37bb
00000330: dec0 743c eea1 92bd 04c8 0e3d f820 543c
00000340: bbf5 003c 1b92 54bd 96b6 3cbd 7a75 ebbc
00000350: 0da6 1ebd c51c 91bc e860 153d 9cac 2a3d
00000360: 2970 e53b 2594 23bd 9cc8 64bd e692 cc3a
00000370: 5bc2 96ba ded6 98bc 7d88 6ebc 3582 b5bc
00000380: 2698 153b 520e 48bc 1ee9 bd3c 7e72 1bbc
00000390: c45e 65bc 8d7e 8b3d 8fcd 1cbb da8a 403c
000003a0: 18ae 3dbc e1cc 43bc 0f90 b9bd dad8 333c
000003b0: a97a 61bc 0149 a93c 0edb b0bb f418 83bd
000003c0: ebbe 33bd 79f4 103d f266 07bc f977 25bd
000003d0: 8115 333d 7934 38bd 4dc6 4f3c 81c6 26bc
000003e0: 90ca 853c 150a 893c dbd8 f33c 7be1 53bd
000003f0: 55a8 97bd 54a8 153d 3481 0f3c b3f2 3c3c
0.033790573 -0.0009180141 -0.005140929 -0.025156027 0.011338347 -0.048349645 -0.0011337276 0.0052794195
-0.02860933 0.0014596487 0.024811268 -0.022453481 0.028527206 -0.014801281 -0.035067447 0.034254316
-0.007112341 0.02934392 0.0051402627 0.03836199 -0.07299976 -0.016261416 -0.0049228673 -0.045579072
-0.019318687 -0.02665693 0.01617999 0.015844204 -0.037926126 -0.02264816 -0.0151254395 -0.020408554
0.021070952 -0.03125686 -0.03928313 0.047413662 -0.056132652 0.018186575 -0.039203927 -0.010851087
0.013082446 0.012975 0.029098473 0.008816428 -0.025813216 0.0276653 0.0050457083 0.060699783
-0.014061969 -0.01626689 -0.016564192 -0.016269635 0.029259432 -0.009828596 -0.022817995 -0.015681593
0.04324164 0.039623607 0.008810494 0.0075749336 0.005664938 -0.0009438692 0.04002151 0.0028393986
0.020593267 -0.03928811 0.0013926475 -0.029809738 -0.0026325507 -0.02718821 0.05948873 -0.0038208733
0.020723771 -0.0008893028 -0.00081796973 -0.0009930129 0.022742154 0.020256285 0.018120766 0.018765498
-0.021053787 -0.036199234 0.06773156 -0.01966303 0.0039630914 -0.009639891 0.01078693 -0.06588687
0.013856949 0.012221181 0.02233719 -0.018071856 0.03515611 -0.022748461 0.024834286 -0.05700953
0.008042207 -0.036708932 0.067784704 0.0013819913 0.019481748 -0.031981472 -0.029155552 -0.032383192
-0.020636259 -0.009216318 -0.06854198 -0.07749156 0.0058378372 0.008450772 0.024731781 0.054980986
0.005726624 0.0033041935 0.035214566 0.026920464 -0.005141757 0.009422067 0.0144692715 -0.035735156
0.0050605177 0.009998006 0.026911158 -0.0011992897 0.018148813 -0.03954535 0.03471786 -0.00996993
0.008764487 -0.012196936 -0.013604799 0.0014749778 -0.008332887 -0.008030151 0.011633464 0.022685116
-0.020152286 -0.026302053 -0.0043876553 0.012802499 -0.033468626 -0.0068036816 -0.06288581 -0.027197063
-0.00782214 -0.019172534 0.065416835 -0.07254139 -0.01477508 0.0074944603 -0.022573028 -0.02003072
0.009704829 0.009231769 0.02227443 -0.025361639 0.014409988 0.024018172 0.04179834 -0.015562233
-0.041378774 -0.027383294 -0.03367387 -0.011690462 0.008984681 -0.024997743 -0.011632449 -0.0032860448
-0.055880107 -0.014456075 0.043807864 -0.0015593915 -0.04254312 0.024473952 -0.02259526 0.018609166
0.020622995 0.0029702007 -0.018165924 0.01720104 0.02119159 -0.003399145 0.048471954 0.010242277
0.014507175 -0.08042916 -0.007621135 0.02444688 -0.02768274 0.025499519 -0.01042101 0.01932108
-0.040610332 -0.031158721 0.010375626 0.017667752 -0.0049252342 -0.030921675 -0.06278901 0.029046148
-0.012666869 0.048466437 -0.010194275 -0.0028002644 0.014938561 -0.07159792 0.03485872 0.0129473135
0.007871087 -0.05189715 -0.046072565 -0.02874254 -0.038732577 -0.017713914 0.03646937 0.04166852
0.007001896 -0.039936204 -0.05585538 0.0015607744 -0.0011502014 -0.018657144 -0.0145589085 -0.022156814
0.0022826283 -0.0122104455 0.023182448 -0.009487746 -0.013999645 0.06811247 -0.0023926233 0.011751855
-0.011577152 -0.011950702 -0.0906068 0.010976994 -0.013762155 0.020664694 -0.005397207 -0.06401244
-0.043883245 0.035389397 -0.00826429 -0.040397618 0.04372168 -0.044971917 0.012681556 -0.010179163
0.01633194 0.01672844 0.02976649 -0.051728707 -0.07405154 0.036537483 0.008758832 0.011532473

action_model._discrete_distribution.branches.0.weight f4 [3, 256]
00000000: 3e5f 5c3d 3ee4 973c 2f01 cc3d aeaa 903c
00000010: c7e4 123c 04c3 a03d 4abc abbd 405f 893b
00000020: d2c6 86bc 0fa5 2d3d 4fc3 a53c 3ac2 dc3b
00000030: 3f02 6dbc 8114 98be ef5e cfbc 4606 73bd
00000040: c7fc 86be b8e6 3d3d abc2 e83c 4459 b73c
00000050: 2267 1a3d 0c25 1e3c 8ea3 7b3d fe85 013d
00000060: bf65 36bd 9c80 6fbe 4bed b3bc adfc bdbc
00000070: 6270 053e 6b35 823d 463e fbbd 40a6 9a3d
00000080: f626 e3b8 b2d9 9a3d fc3a 1a3d e1a8 f5bc
00000090: 2b83 b6bd 1989 ffbb a97b 85bd 7d73 8e3d
000000a0: c72c e9bc 6f6f ba3c a457 c6bd 9e3b e0bb
000000b0: 49ce e03d bd4d 39bd d168 e23b 2729 70bb
000000c0: 7230 683d 5c70 a6be 663c 613d c5e5 8dbd
000000d0: 6072 72b9 599c 00bd 4322 20bd 51f0 073d
000000e0: 3f46 343d 42c3 223a 0b83 b13c a73a 49bb
000000f0: 0e3c 8e3d f3e1 0bbd 1c74 93bc 7bab 273c
00000100: fa25 51bb 5754 cb3b d552 e9bc 27e5 abbc
00000110: 5c70 debc 7d3a 103d 77ba 07bd e980 59bd
00000120: 7212 d13c d195 843c c258 043d af99 ae3b
00000130: bd73 493c 4c12 f43b ef6c c23b dd5d 14bd
00000140: 77a6 383d 96c1 5d3c bac7 21bd 3f75 593d
00000150: 74b7 97bc 3685 23ba 3c4c f03c 175b 3bbd
00000160: 7aba 0d3d dd7a be3b 0206 a7bd 23aa fd3c
00000170: f40e e3bc d041 bebc 1d81 86bc d661 043e
00000180: ae72 6a3c d84c d23c 5581 cc3c dde1 d63c
00000190: 55b0 45bd 4e4d f4bc 35a1 3c3d cc87 173d
000001a0: 0512 19bd 7679 48bd cf61 833c ca7e 643d
000001b0: fad9 833d 6dd8 11bd f325 83bc e740 bbbc
000001c0: 615f 763d 42f7 d4bd fc11 0fbd 2514 80bb
000001d0: 24cd 553c 2e9d edbc cc1f 503c 5a26 91bb
000001e0: e04b 2d3b 4adb 27bc 4fa0 003d 1cd0 83bc
000001f0: 4961 0e3b 403a 183c 1666 dfbb 051e b83c
00000200: d993 e4bb 28c8 0a3d 711e 23bd 5896 e9b9
00000210: 6111 21bd eed0 b73c f03f eabc d8ed 0e3d
00000220: d227 42bd 5c0f 253d 7954 4cbc 9c31 d33c
00000230: aa7c df3d 359b 283d 9f2c 0fbe bc45 a63d
00000240: 2b76 d0bd 3fa8 963d 2831 fdbc d370 513d
00000250: 31b5 9cbd 9fa7 163d 8f37 b7bd 482e 92bc
00000260: e5ce 39bc 8dd5 203d 4378 56bc 6c0a 213d
00000270: 317f d23c bbc7 213c 8761 f6bc f496 b0bd
00000280: f1de 343e 40f5 bc3b 233f 333c 9549 9d3d
00000290: 1072 90bc 5e39 1a3b cc49 40bc 658f 13bd
000002a0: 00d0 aa3d 0c72 e8bc cf70 6cbc bdfe 863d
000002b0: 7bad e53d dd85 8bbc 1ae0 d43d f983 41bd
000002c0: 5665 d4bc 2fa0 0d3c 3e77 1c3b 31be 82bd
000002d0: 989b 1ebd 61e4 8c3c 7fbb 51bc 385d 983c
000002e0: ec30 aabb 6d51 653d 151b 56bc 3a34 9cbb
000002f0: 257c e0bb 5752 7ebc cd8c 4e3d 76c3 41bd
00000300: 2ab2 17bd f1de 7d39 beb1 e9bc 9f72 6abd
00000310: 639e bc3b 587a de3c b6e7 3c3d a230 8cbb
00000320: a1ab 05bd 2a88 1fbc 2b32 553d 8f9e 7dbd
00000330: 7708 0a3d b095 fe3d 7e29 60be 78bf 0abc
00000340: 07c7 8c3d e6dc fbbd 3a22 48bc c9e5 26bc
00000350: 6b06 cdbd 7855 91bd 429d 9a3a fe41 26bd
00000360: 84f6 1e3d e695 2d3d a56f e33b 6a6e 41bd
00000370: 158f 1abd 0a96 023d 590c b73c 918b 2ebc
00000380: 0d07 223c d124 063d cc5b dabd 2520 f3bc
00000390: 6b7b babb c764 4ebd 9ac1 fdbc 1d62 12bc
000003a0: 082f 11bc 2058 4b3c 8880 4d3d 282d 233d
000003b0: dfd2 143d dc54 37bd e699 58bc 9c87 1ebb
000003c0: 2d44 523d 418f 28bc 3a82 473d 995f 83bd
000003d0: 7d10 483b 275e 073d 4016 013d 338f 733d
000003e0: c229 3b3d f075 bb3c 3841 e43c 15d9 17bd
000003f0: 6019 543c 4f23 fa3c a0a2 46bc 84a0 613d
0.053801768 0.018541452 0.09961163 0.017659511 0.008965678 0.07849696 -0.08385523 0.004192263
-0.016452227 0.04239374 0.020234732 0.006737021 -0.014465868 -0.29703143 -0.025313823 -0.059332155
-0.2636473 0.04636261 0.028413137 0.022381432 0.03769601 0.009652387 0.061435275 0.031621926
-0.044530626 -0.23388904 -0.021963736 -0.023191774 0.13031152 0.06357845 -0.12267737 0.07551241
-0.000108314605 0.07561053 0.037653908 -0.029987754 -0.08911737 -0.0077983257 -0.06517727 0.069556214
-0.028463734 0.022758214 -0.09684685 -0.0068430444 0.10976846 -0.045240153 0.0069094677 -0.0036645622
0.056686826 -0.32507598 0.05498924 -0.06928591 -0.00023121526 -0.031399105 -0.039095175 0.033188168
0.044012304 0.0006208905 0.021668931 -0.0030705126 0.06945048 -0.03415103 -0.017999701 0.010233755
-0.0031913505 0.0062051225 -0.02848188 -0.020983292 -0.027153187 0.03521203 -0.03313681 -0.053101454
0.02552149 0.01618472 0.03231121 0.005328379 0.012295661 0.00744847 0.005933396 -0.036222328
0.04508063 0.013534924 -0.039497115 0.05309033 -0.018520094 -0.00062378065 0.029333226 -0.045741167
0.034601666 0.0058129863 -0.08155443 0.030964917 -0.027717091 -0.023224741 -0.016418988 0.12927946
0.014309568 0.025671408 0.024964014 0.026230747 -0.048263866 -0.029822018 0.046052177 0.03699474
-0.0373707 -0.04894396 0.01603785 0.055784978 0.0643806 -0.03560679 -0.016009307 -0.022858096
0.060149554 -0.10398723 -0.03492926 -0.0039086514 0.013049398 -0.029005613 0.0127028935 -0.0044296207
0.002644293 -0.010245154 0.031402882 -0.016090445 0.0021725467 0.009291232 -0.0068175895 0.022475252
-0.0069756326 0.03388229 -0.039823953 -0.00044553238 -0.039323214 0.022438493 -0.02859494 0.034894794
-0.047401257 0.04029785 -0.012471312 0.025780492 0.1091245 0.041163642 -0.13981865 0.081187695
-0.10178789 0.07356309 -0.030907229 0.05113299 -0.07651747 0.03678095 -0.08946144 -0.017844334
-0.011340831 0.039266158 -0.013090196 0.03931658 0.025695415 0.00987428 -0.030075802 -0.08622542
0.1766317 0.0057665408 0.010940346 0.0768005 -0.017632514 0.0023532729 -0.011736345 -0.036025424
0.08340454 -0.028374694 -0.014431193 0.06591556 0.112147294 -0.017031604 0.103943065 -0.047245
-0.025927227 0.008644148 0.0023874785 -0.063839324 -0.038722605 0.017198743 -0.01280105 0.018599138
-0.00519382 0.055985857 -0.01306798 -0.004766968 -0.0068507367 -0.015522561 0.050427247 -0.047305547
-0.037035145 0.00024211012 -0.028527137 -0.057238217 0.005756186 0.027157947 0.046119414 -0.0042782584
-0.03263438 -0.009737054 0.052049797 -0.06191879 0.03369948 0.124308944 -0.21890828 -0.008468501
0.06873899 -0.122979924 -0.0122151915 -0.010186621 -0.1001099 -0.0709638 0.0011796134 -0.04059028
0.038809314 0.042379282 0.0069407993 -0.04722444 -0.03773411 0.03188137 0.022344755 -0.010653392
0.009889376 0.032749955 -0.1066204 -0.029678414 -0.005690982 -0.050389078 -0.030976105 -0.008934525
-0.008861311 0.012411147 0.050171405 0.039837986 0.036333915 -0.044758663 -0.013220286 -0.0024189716
0.05133455 -0.010288061 0.048708178 -0.06414718 0.0030527406 0.033048775 0.03151536 0.059462737
0.04569412 0.022883385 0.02786313 -0.03707226 0.012945503 0.030534415 -0.012123734 0.05508472

action_model._discrete_distribution.branches.0.bias f4 [3]
00000000: 21fc 963b 81c8 7e3b c096 05bc
0.004607693 0.0038876834 -0.008153617

action_model._discrete_distribution.branches.1.weight f4 [3, 256]
00000000: db5b 683d 49af 5a3d 4946 943d 17c4 943c
00000010: c538 ee3c 1acc b33a b3d7 d13c 2c5c 9c3c
00000020: 241d 67bd 8b16 84bc 48f6 84bc 55e4 3abc
00000030: a079 163c 1ca2 18bd 23c8 e33b e4b4 90bc
00000040: 1958 dd3c 6461 2c3d 7ec8 74bc 0fa0 423d
00000050: 37c2 83bd 2961 f8bb 4afa 9b3c ee1a 033d
00000060: 0c63 4dbc c0eb 8cbd 8c1e 0d3c c9b5 003d
00000070: 6dd6 de3c 7b1b e33c 50eb bfbb 6355 2ebc
00000080: 7da0 35bd 0b1f 623b cc71 2ebd 8bb1 b8bc
00000090: 2047 e4bd 6fbf 54bc c5e0 f53c a512 9d3c
000000a0: 1ebb 953c 18fa 87bd db1b 413a bb5f 923d
000000b0: f8ca d73b 039d b2bc 8e6c b2bc 5716 993d
000000c0: a2e1 3b3d 1648 17bc 3bc4 9cbb d193 653d
000000d0: d699 683d 6a60 bf3c e39a 363d ba73 bd3c
000000e0: 2f67 bf3c c9da c4bd 6f3f be3c 298f b9bc
000000f0: 6a14 aa3c e388 433d 81d6 1f3d b317 283d
00000100: 1428 20bc 96b4 4fbd 7a97 f8ba ac76 093c
00000110: 9287 f63c a942 34bd c194 383d 7727 993b
00000120: 83ab 143d 2769 813c 4c7f e13c 92cd 163b
00000130: b98a 903c a125 5abc aa9f 6f3d 9591 843c
00000140: 9779 543c b999 a5bd 2857 a4bc 56a2 e7bb
00000150: 3506 583d 87f8 383d 0f96 2d3d 0614 febc
00000160: 5831 4e3d e8b7 1a3a bdfd dbba 70e7 b0bc
00000170: f733 05bd 1760 273d 0b44 e83b c269 2abd
00000180: f4e9 143d 274c e6bc ac88 893d e2ba febc
00000190: b1ab 3e3d 57b1 1abd b290 2b3c 1c94 283d
000001a0: a981 80bd e48d b43c cc52 0b3a dd50 7ebd
000001b0: abff 5a3c 831f 59bd 60ee 343c 5c4f 383d
000001c0: 584b 6c3d 88de 263d ea84 813d 9537 69bd
000001d0: a99f 7dbc d244 193d bd8f 51bd 56af 333b
000001e0: 92f3 3c3d 9072 0aba 0dee 713d fc53 20bd
000001f0: b369 fe3b 49f6 a53b 364a a73b d02b 403d
00000200: 72b7 5e3d 3a9f 903c d790 003c 7732 c2bb
00000210: af9d 5bbd 7047 453d bb48 cebc 8641 04bc
00000220: 1972 5bbc 3c85 68bd f4ee bb3c b4e3 ab3c
00000230: efa5 ad3c e230 8a3a aa9c d3bd ad4c 453d
00000240: 4808 883c 6ff6 3b3b babd 75bd 07e8 adbd
00000250: e8d3 93bd d726 aa3c 87df d0bd 3e7b ed3c
00000260: 75f2 ef3c b308 05bd 9554 ef3c cf04 2bbd
00000270: 449a 07bd 3f5f 9b3c cdd1 8d3a 3bd8 f8bc
00000280: 3d4a b139 b929 b23c b15a 20bd 1665 e83a
00000290: 79cc 543d 5891 0e3c ba5b 663d b449 f8ba
000002a0: 7bfc b9bd 9c43 05bd b87a c33c 5b15 9e3c
000002b0: 5412 2e3b 5620 db3c db83 89bc 4e46 103d
000002c0: 3a0d 213d d9be 3fbc 72c7 ac3d 194c 623d
000002d0: f98f abbb dd76 1f3d 0662 233d 4ec7 f83c
000002e0: 91af a53c 75bb 1fbe 4449 4f3b 77f3 613d
000002f0: 3f04 5e3c fafc 8b3c 94f4 fabc f191 04bc
00000300: e7e7 823c eed6 453c 5314 313c 8b8e 5cbc
00000310: cbfb 023d 4dd0 ea3c 9281 6f3b 0261 453d
00000320: daad e23c eb38 ef3c 5e4a 29bd dd8c 03bd
00000330: c39d 39bc b556 a23c a17a 97bc d65b 7dbc
00000340: f8eb 323d 95ff efbd 8299 abbd ee87 adbd
00000350: 431f 53bc dc24 60bd 9e7e a63c 1a67 f2bc
00000360: 8ef1 4d3c d527 3cbd 03bb 7bbd 6fb0 643a
00000370: 1735 d8bc 9033 513d f501 75bc a087 26bb
00000380: 5475 2c3c 87b7 ad3c 6c23 203d 6f13 d139
00000390: 92d3 373d d9f3 443d 7bb9 94bd 1715 2b3d
000003a0: 6b15 003d 4f53 efbb 3cf7 d2bd 2943 a23b
000003b0: b0fb f03c d670 153d 357a ecbc ee13 dabd
000003c0: 0555 2cbc 9cac 0f3d e730 1abd f142 d33b
000003d0: 608a 663d 893d 553d cb8b a9bd 1507 763d
000003e0: e690 b53c 7af7 023d 62e4 883d c7f8 4dbd
000003f0: a508 0abd 84f2 273d 0aab 76bd bb56 163d
0.056728225 0.05338982 0.07239968 0.01815991 0.029079804 0.0013717443 0.025615549 0.01908692
-0.056424275 -0.01612403 -0.016230717 -0.011406978 0.009184271 -0.037263975 0.0069513484 -0.01766438
0.027019547 0.042085066 -0.014940379 0.047515925 -0.06433528 -0.007579942 0.019040246 0.032008104
-0.012535822 -0.06880903 0.00861324 0.031423364 0.027201856 0.027723065 -0.005856909 -0.010640475
-0.044342507 0.0034503366 -0.042588994 -0.022545597 -0.111463785 -0.012985094 0.030014405 0.01917393
0.018277701 -0.066394985 0.00073665165 0.071471654 0.006585475 -0.021803385 -0.021780279 0.07474964
0.045869477 -0.009233495 -0.0047841347 0.05604917 0.056787334 0.023361403 0.044581305 0.023126472
0.023364631 -0.096120425 0.023223607 -0.022651272 0.020761687 0.047737967 0.039022926 0.041038226
-0.00977518 -0.05070933 -0.0018966042 0.00839011 0.030093942 -0.044008885 0.045063738 0.004673894
0.03629638 0.01579721 0.02752652 0.0023010713 0.017644273 -0.0133146355 0.058501877 0.0161827
0.012968442 -0.08085961 -0.02006109 -0.0070689125 0.052740294 0.04515889 0.042379435 -0.031015407
0.050340027 0.0005902038 -0.0016783994 -0.021594733 -0.03252026 0.040863123 0.0070881895 -0.041604765
0.036355928 -0.028112484 0.06715521 -0.031094972 0.046550456 -0.03776678 0.01047151 0.041156873
-0.06274731 0.022040315 0.0005314767 -0.062088836 0.01336662 -0.053008568 0.011043161 0.044997558
0.05768904 0.040739566 0.063241795 -0.056937773 -0.0154799605 0.037419148 -0.05116247 0.002741774
0.046130724 -0.00052813534 0.059064914 -0.039142594 0.007764065 0.00506476 0.005105282 0.046916783
0.054374166 0.01765405 0.0078470325 -0.005926426 -0.053617176 0.04816383 -0.025181165 -0.008072263
-0.013393902 -0.056767687 0.02294109 0.0209826 0.021197287 0.0010543133 -0.10332616 0.048168827
0.016605511 0.0028680821 -0.05999539 -0.08491521 -0.07218152 0.020770473 -0.101988845 0.02898943
0.029290417 -0.032479 0.029215137 -0.041752633 -0.033106104 0.018966315 0.0010819972 -0.030376544
0.00033815383 0.02174841 -0.03914899 0.0017730321 0.051952813 0.008701645 0.05623982 -0.0018942864
-0.0908136 -0.03253518 0.023862228 0.019297292 0.0026561217 0.026748817 -0.016786506 0.035223298
0.039319254 -0.0117032165 0.08436479 0.055248354 -0.0052356687 0.038931716 0.039888404 0.030368473
0.020225318 -0.15598853 0.0031629363 0.055163827 0.013550817 0.017088402 -0.030634202 -0.008091436
0.01597972 0.012075169 0.010808068 -0.013461719 0.03197841 0.028663779 0.0036545736 0.048188217
0.02767079 0.029201945 -0.041330688 -0.03211676 -0.011329117 0.019816736 -0.018491091 -0.01546379
0.04368207 -0.1171867 -0.08378889 -0.08473192 -0.012885871 -0.05472265 0.020324048 -0.029590178
0.012569798 -0.045936424 -0.061457645 0.00087238004 -0.026392503 0.051074564 -0.01495408 -0.0025410429
0.01052602 0.021205677 0.03909628 0.00039878066 0.044879504 0.048084114 -0.0726194 0.04176816
0.031270426 -0.0073036323 -0.103010625 0.004951854 0.029416889 0.03648456 -0.028866867 -0.106483325
-0.010518317 0.035076723 -0.037644293 0.006447189 0.05628431 0.052060638 -0.082786165 0.060065348
0.02216382 0.031974293 0.066841856 -0.05028608 -0.03369965 0.041002765 -0.06022171 0.036703806

action_model._discrete_distribution.branches.1.bias f4 [3]
00000000: 0680 393d 8c4d ff3b f8eb 60bd
0.04528811 0.0077912267 -0.054912537

action_model._discrete_distribution.branches.2.weight f4 [3, 256]
00000000: 6e7c b7bd 7834 043d f45c d2bd 2d68 2bbd
00000010: 34db 80bd c6aa 02bc 09fa 8bbb 4c6c 7fbc
00000020: 29d5 d7bc b90e 743d 9269 29bc 525d b7bd
00000030: 35af 013d 9d36 e63d 421e 4f3d 1113 78bc
00000040: db38 c83d 45cd 62ba 53f0 803d 3098 d0bc
00000050: f5f5 163e 472c 173b be21 67bc 24ee a0bc
00000060: c33b ca3d 837e 303e 6947 8b3d 930c 76bc
00000070: 76e6 8f3d d168 b83d ae8f 483d eab0 a63c
00000080: e694 dfbc 0085 403d 739e 6d3d 60ff 2c3d
00000090: 06de 813e cbc7 5dbd 3d84 9eba 72be debd
000000a0: d751 93bd e87e 433c 93fd db3c 9f69 f9bd
000000b0: fb58 30bd 4c98 5d3c 1a37 babd bd83 26bd
000000c0: 0c90 a03d 3392 933d e546 8bba 08d2 c3bc
000000d0: a1d4 3ebd 8c00 1e3b 594a 763c 468a 833d
000000e0: 4170 d5ba 4d68 bc3c 6d01 803c 7fb5 6b3c
000000f0: e01c 19bb afa4 923c 3116 f53a 14f7 933c
00000100: 721c c3bd 46ec 57bd 7b06 6dbd e986 c53d
00000110: 99ab 8f3d 4eea 9e39 3e86 4abc cd5b 7dbd
00000120: cc6a 27bb 7778 43bc f471 d03a c4de efbb
00000130: c1c2 193d b66e 8f3a adda 1c3d a826 7f3c
00000140: 03cb c4bc 6209 2e3e d3b4 433d e0ad be3d
00000150: c12b 5c3b 0153 a4bc d4f7 823d 1a1b 1f3c
00000160: 91ac 88bd cb8e 0cbd 02c7 1a3c a95c adbd
00000170: 7183 9d3c 0731 193d ae93 313d 97af 1a3c
00000180: b145 a2bc 2331 3d3b 14ac 8b3c 9c6c 703d
00000190: 3097 06bd 6082 d1bc 07c0 963c ec73 a5bc
000001a0: 0df2 6c3d e54d 6f3b ea4e 383e cce4 853e
000001b0: 36a5 5fbd b317 55bd 2d0f f5b9 4e15 5cbd
000001c0: 9f3f b7bc 4405 90bd 982d 72bc dfbb 983c
000001d0: 81e3 ae3c 353b f93b c96c 22bc d83d 5a3d
000001e0: dfbb d33a b776 0a3d 6fbf 9bbc aeae 09bd
000001f0: 6f2d a03b e0d8 91bc 7d2f 7f3c 3ad5 203d
00000200: 806e aabc 52bd 323d c3ae b53d 0714 ae3b
00000210: 9e73 91bc bc55 d23c 3ed9 ffbd bd39 253d
00000220: 014e c33d 1536 7a3d 1081 5c3c daea e6bb
00000230: 1f95 bd3c 8080 7a3b edcf 2b3e e436 81bc
00000240: 4e56 dbbc 2cde d93c 7c0b 433d a680 253e
00000250: bb83 903d 7b77 2fbd 730c 263d cfc7 dc3c
00000260: f1b3 1e3d 503b d83c 9569 a1bc 2944 86bc
00000270: 26c5 1f3b 4c99 ffbc 0394 613d ee20 123d
00000280: d674 eebc 506a 3e3d ebbc a5bd df02 533d
00000290: 01ed ccbd 0652 5b3d ad75 6a3b 4762 a5bc
000002a0: 3203 793d cf38 0ebd 213e 33bd ef32 f43c
000002b0: 89e5 f2bc c506 243c 37e3 9cbd a9fc 0e3b
000002c0: dd31 a93c 9592 233c 83bd f43b 51b4 17bd
000002d0: 0a9c d8bc 401f 653d 668c b9bc ace8 bbbd
000002e0: a449 d93c 8b71 353e be53 ba3d ae76 6cbd
000002f0: 72b5 d13d 3ef5 57bd 6acf 5d3d ec92 5cbd
00000300: b70d 293c a716 313c 0e0a 2ebb c5a5 5cbd
00000310: b9ab adbb 934c 29bc 88d6 eb3c 0f1b 213c
00000320: 3fdf 953d 3165 dd3c 3337 633c d429 11bd
00000330: b5e3 7c3d 365a 963d 8875 263e c86d 20bd
00000340: 16c7 3cbd 0568 673e 0340 0e3e 3039 f63a
00000350: d1b6 a63d bb43 9fbd 61ed 043d 40c9 e53c
00000360: 7515 f73c 9ac2 0a3e 4d0a b23d 685b 1abd
00000370: 486e e4bc 09df 2c3b c5f9 17bd c3f4 86bd
00000380: 434a 12bc f7c0 243b c7a1 afba c87c c13c
00000390: 5d49 443b 78a2 f23c 0c2a 0e3d 3289 a5bd
000003a0: 9b74 b6bd 2963 a63d 7076 643e 903a 893d
000003b0: 2774 013d 22b6 c73b 683d 26bd d5e2 093e
000003c0: 76b0 453b dbbb 12bd 4b4a da3c 0e6f 94bc
000003d0: 6370 9ebb 5630 073d 7ab6 d43d 1ad3 333d
000003e0: 480d f4bb b81b 6f3c b0fa 8dbd e54d aa3b
000003f0: bf98 283e 382f a9bc 6d27 d83c fbae 923d
-0.0895928 0.0322766 -0.10271636 -0.041847397 -0.0629181 -0.007975286 -0.00427175 -0.015589785
-0.02634676 0.059584353 -0.010340111 -0.08953346 0.03166123 0.112408854 0.050565965 -0.015141265
0.09776469 -0.00086518034 0.06295838 -0.025463194 0.14742263 0.0023067163 -0.014107166 -0.019644804
0.0987468 0.1723576 0.0680073 -0.015017646 0.07026379 0.09004367 0.04896515 0.020348031
-0.02729268 0.04700184 0.058012437 0.042235732 0.25364703 -0.054145616 -0.0012093853 -0.10876168
-0.07193344 0.011932112 0.026854312 -0.12178349 -0.04305361 0.01352508 -0.09092541 -0.04065298
0.07839975 0.0720562 -0.0010625987 -0.023903862 -0.046589497 0.0024109213 0.015032374 0.06422858
-0.0016284065 0.022998953 0.01562568 0.014386534 -0.0023363158 0.017900793 0.001869863 0.018062152
-0.0952691 -0.052715562 -0.05786751 0.09644873 0.070151515 0.0003031068 -0.012361107 -0.061855126
-0.0025545834 -0.0119305765 0.0015903101 -0.007320257 0.037539247 0.0010943029 0.038294483 0.015573181
-0.024022585 0.16995767 0.04777987 0.09310508 0.0033595415 -0.02005911 0.06394926 0.009711051
-0.066735394 -0.034315865 0.009446861 -0.08464939 0.019227715 0.03740027 0.04335373 0.009441278
-0.019808622 0.00288684 0.017049827 0.058697328 -0.032859027 -0.025574863 0.018402113 -0.020196877
0.057848025 0.0036514935 0.17998853 0.2615112 -0.054600917 -0.052024554 -0.00046741348 -0.053731255
-0.022369204 -0.07032254 -0.014781378 0.018644271 0.021348717 0.007605935 -0.009913632 0.053281635
0.0016154012 0.03380462 -0.019012181 -0.033613853 0.0048882286 -0.01780361 0.015575287 0.03926585
-0.020804644 0.04363758 0.08871224 0.005312446 -0.017755326 0.025675647 -0.124926075 0.040338267
0.095363624 0.061086733 0.013458505 -0.0070470395 0.023142396 0.0038223565 0.16778536 -0.015773244
-0.026774552 0.026595198 0.047618374 0.16162357 0.070563756 -0.042838555 0.040539216 0.026950745
0.038745824 0.02639547 -0.019703666 -0.016389923 0.0024378984 -0.031201027 0.055072796 0.035675935
-0.029108446 0.046488106 -0.08092674 0.05151641 -0.100061424 0.05354502 0.0035775707 -0.020188464
0.060794063 -0.034722146 -0.043760423 0.029809443 -0.029650467 0.01001138 -0.07660525 0.0021818078
0.02065366 0.009983678 0.0074688806 -0.037037198 -0.026441593 0.055938005 -0.022649955 -0.09175238
0.026524372 0.17719094 0.09098004 -0.05773037 0.10239686 -0.052724116 0.054152884 -0.053851053
0.010318211 0.010808623 -0.0026556286 -0.053869028 -0.005300012 -0.010333198 0.02878882 0.009833111
0.073179714 0.02702579 0.013868141 -0.03544028 0.061740596 0.07341425 0.16255772 -0.039167196
-0.0460883 0.22598274 0.13891606 0.0018785354 0.08140338 -0.077765904 0.032452945 0.028050065
0.030161599 0.13550797 0.08693371 -0.037684828 -0.027884617 0.0026378057 -0.037103433 -0.06589653
-0.008928838 0.002513943 -0.0013399654 0.02361907 0.0029950954 0.029618487 0.034708068 -0.080828086
-0.089089595 0.08124382 0.22310805 0.06700623 0.031604912 0.00609471 -0.040585905 0.13465436
0.0030164993 -0.035823684 0.026646754 -0.018119361 -0.004835175 0.03300508 0.10386367 0.043902494
-0.0074478723 0.014594011 -0.069325805 0.005197274 0.16464518 -0.020652398 0.026385987 0.07162281

action_model._discrete_distribution.branches.2.bias f4 [3]
00000000: c2a9 0f3c 06f8 09bd 0fcb d03c
0.008768501 -0.0336838 0.02548745
