ML-Agents/backup/results/v3.0.3-colliders-penalty/Volleyball/Volleyball-23999985.onnx (onnx, 333204 bytes, 15 tensors)

discrete_action_output_shape f4 [1, 4]
000000 00 00 40 40 00 00 40 40 00 00 40 40 00 00 00 40
       3.0 3.0 3.0 2.0

network_body.observation_encoder.processors.0.normalizer.running_mean f4 [51]
000000 9b d9 96 3c a2 2c f7 bc 02 27 c9 3e 4c 39 13 3f
       0.01841431 -0.03017265 0.39287573 0.57509303
000010 a2 2c f7 bc 02 27 c9 3e 4c 39 13 3f 8a 96 45 41
       -0.03017265 0.39287573 0.57509303 12.349253
000020 53 53 65 c0 76 c9 b9 b6 df b3 e6 b5 ec d1 18 c1
       -3.5832107 -5.536883e-06 -1.7188685e-06 -9.55125
000030 17 a0 d3 3f ab e7 cc 41 37 0b 2c bf df 05 6e 3e
       1.653323 25.61312 -0.6720461 0.23244427
000040 1b 31 18 3e 00 00 00 00 00 0d a6 3c 00 00 00 00
       0.14862482 0.0 0.02026987 0.0
000050 8b ba 60 3f 4a 8e 19 c1 d4 a8 d5 3f 3d 63 cc 41
       0.8778464 -9.597239 1.6692147 25.548456
000060 51 5e 32 bf 75 d7 6c 3e 9b 12 d3 3d 00 00 00 00
       -0.69675165 0.23129065 0.10306283 0.0
000070 9a 3a e6 3b 00 00 00 00 9b 93 62 3f f3 d4 1c c1
       0.007026029 0.0 0.8850648 -9.80199
000080 4c 3f c9 3f b3 e9 03 41 32 66 32 3f 91 db 80 3e
       1.5722442 8.244555 0.6968719 0.25167516
000090 ab ac df bd 00 00 00 00 21 ec f4 3c 00 00 00 00
       -0.10921606 0.0 0.029897751 0.0
0000a0 23 42 5f 3f 25 20 1c c1 b4 f6 c9 3f b2 4d 03 41
       0.8721029 -9.757848 1.5778413 8.206469
0000b0 6e 52 1d 3f b0 99 7a 3e 2e 09 3d be 00 00 00 00
       0.614539 0.2447269 -0.18460533 0.0
0000c0 32 f3 83 3c 00 00 00 00 a3 41 64 3f
       0.016107175 0.0 0.89162654

network_body._body_endoder.seq_layers.0.weight f4 [256, 51]
000000 61 2e c8 3e fc 4e a6 be e0 c6 d3 3e 44 8f dd be
       0.39097884 -0.32482135 0.41362667 -0.43273365
000010 b0 e8 82 be fa f1 b0 3e 22 de 20 bf 11 4e 4d 3e
       -0.2556815 0.34559613 -0.6283895 0.20049311
000020 3a 18 92 3e ee 9e 58 3e 48 ee 93 3e 47 78 93 3d
       0.28534108 0.21154377 0.28892732 0.072006755
000030 c4 f9 09 bd 95 89 15 be 8a ca 07 3e 24 2f 82 3d
       -0.03368546 -0.14603265 0.13260856 0.063566476
000040 94 a8 ae 3c 6e 51 91 bd a7 3e dc 3c 5b 76 14 be
       0.021320619 -0.070956096 0.026885344 -0.14498274
000050 9e 60 0c 3e a5 6c 11 3e ff fc 5b bd fd 0f 95 3c
       0.13708732 0.14201601 -0.053708073 0.0181961
000060 84 21 97 bd 56 d8 15 be 72 66 dc bd 7b 8f f3 3d
       -0.073794395 -0.14633307 -0.107617274 0.11892601
000070 0d 0c dd 3c 4c b7 ff bc 89 ef 73 3c a6 a4 a7 3d
       0.026983285 -0.031215332 0.014888653 0.08185701
000080 0a 90 a5 3c 5c 3e 27 3e cc 35 a7 bc 46 03 6e 3e
       0.020210285 0.16332382 -0.020411395 0.23243436
000090 28 f6 66 bd b4 01 23 be 08 1d 46 3e eb 06 e3 3c
       -0.056387097 -0.15918618 0.19347012 0.02771326
0000a0 56 a8 36 3d f9 ac 06 be 48 53 07 3e d9 68 c1 bd
       0.04459413 -0.13151921 0.13215363 -0.09443826
0000b0 79 b6 3a 3e 0f 52 75 3d 9d f2 6e bc 02 34 26 3d
       0.1823367 0.05989271 -0.014584211 0.040576942
0000c0 5c 52 8c 3d c1 68 72 3e 79 bc 16 3e 63 f8 64 bc
       0.06851646 0.23672773 0.14720334 -0.013975236
0000d0 51 cc a8 3e 5d fe 09 bf f3 d7 f8 3e 2f 55 a9 3e
       0.3296838 -0.5390375 0.48602256 0.33072802
0000e0 a3 a8 8a be c0 48 0e 3f 6b 19 8f 3d b4 00 5b be
       -0.27081785 0.5557976 0.0698727 -0.21386987
0000f0 af 5e 5f bd 0a 30 dc bd 3a fd 33 be 2a e8 45 be
       -0.054533657 -0.1075135 -0.17577067 -0.19326845
000100 f3 3f 6c 3d 18 7b fe 3d 03 f1 84 bd 62 e8 11 3e
       0.057678174 0.12425822 -0.06491282 0.14248803
000110 33 56 5e be c8 8c 48 3d 66 e8 89 bd 6c 8a 15 3e
       -0.2171257 0.048962384 -0.067337796 0.14603585
000120 9e ff 50 3e 1e 5d 11 3d 1f 54 e9 bd e0 77 98 3e
       0.2041001 0.035489194 -0.11392998 0.29778957
000130 12 b5 81 3e 60 71 a7 bc 17 8c 05 bd da ee 44 3e
       0.25333458 -0.020439804 -0.032604303 0.1923174
000140 d5 ee 35 bc d3 bc 2e be 75 54 b3 bd 6d b9 8d 3b
       -0.011104305 -0.17064218 -0.08756343 0.004325083
000150 f0 c1 0b 3d 03 4a 92 be e7 2a 2d 3d 99 04 83 bc
       0.0341205 -0.2857209 0.042277243 -0.015993403
000160 cd 89 04 3d ef 03 fc 3c 5f ac 39 3c 9a 98 07 3e
       0.03235798 0.030763594 0.0113326 0.13241807
000170 9f e9 2c 3e 23 54 cc bd 8d 71 a0 3d 6f 08 3d be
       0.16885994 -0.09976985 0.07834158 -0.18460248
000180 30 ff d3 3c fa d6 e0 3b 1c 36 b3 3d 73 72 b0 3e
       0.025878519 0.0068615647 0.08750555 0.34462318
000190 10 96 3c bc a3 d0 03 be ff 36 76 be 41 a2 f1 3d
       -0.011510387 -0.12872557 -0.24044417 0.117985256
0001a0 a2 7f 85 3e 26 c3 fb 3d 77 a4 95 3b b8 47 be 3e
       0.2607394 0.12293081 0.004566725 0.37164092
0001b0 87 29 e7 bd 0f 2f c0 bd 03 56 92 be 72 78 0c 3c
       -0.112872176 -0.09383976 -0.28581247 0.008573638
0001c0 8c 69 e5 bd 73 48 3d 3e 7e 0f 96 bd 28 52 cf bc
       -0.11201772 0.18484668 -0.07327174 -0.02530773
0001d0 42 67 be 3d 80 af 08 3d 30 b3 df 3c be f9 44 3e
       0.092970386 0.033370495 0.027307123 0.19235894
0001e0 c5 38 2b 3e 8f 0a 32 3d 36 9e 89 3d 28 24 a1 bd
       0.16720875 0.0434671 0.067196295 -0.078682244
0001f0 8b fe e1 bd c6 1b 27 be 4a 05 22 be a7 d1 d6 bd
       -0.11034878 -0.16319188 -0.1582233 -0.10489207
000200 e7 9a 05 3e 37 ea fa bd 95 5f 3f be 31 d7 39 3e
       0.13047372 -0.12251704 -0.18688805 0.18148495
000210 69 fd 73 3e 0a ff 34 bd 21 af 4e bc 0b 85 02 bd
       0.23827137 -0.044188537 -0.012614996 -0.03186516
000220 87 a9 be bd f5 d7 e9 3b 68 78 1e bc f7 7f 1c 3e
       -0.093096785 0.00713634 -0.009672262 0.1528319
000230 5e 69 60 3d 8c a8 17 be 37 e5 c4 3d 26 1f f5 bd
       0.054787986 -0.1481039 0.09614032 -0.11968832
000240 8d 0f 2d be c9 a3 59 3d 81 b3 30 be 3c 51 20 3a
       -0.16900463 0.053134713 -0.17255975 0.00061156205
000250 91 23 4f be 92 fb cc bc bb 06 97 ba b8 14 1f 3d
       -0.20228411 -0.025022302 -0.0011522392 0.03883812
000260 0d 44 ff 3d f4 be 08 3f 80 a7 02 bf 87 e7 02 3d
       0.124641515 0.5341637 -0.51036835 0.031959083
000270 34 50 7c be a0 5e 92 be 90 04 92 bb 64 3a f4 be
       -0.2463997 -0.28587818 -0.0044561103 -0.477008
000280 93 7c 83 bd 5b e4 cd 3e 14 e0 25 be c1 ea 12 3e
       -0.06420245 0.40213284 -0.1619876 0.14347364
000290 f8 c8 f1 bd 8e 59 ac bb fb bd f6 bc 0f cb b7 be
       -0.1180591 -0.005259699 -0.030119887 -0.3589711
0002a0 8e f5 89 3e 96 fb 59 3e eb ed 37 3e 3c 78 7a 3e
       0.26945156 0.21287379 0.17961852 0.24459928
0002b0 97 eb 10 be dc 04 8a be b0 8b 04 3e 7d 73 40 3d
       -0.1415237 -0.26956832 0.12943912 0.04698514
0002c0 51 06 0d 3c 1a cc 20 be 19 97 44 3e a2 bb fc 3d
       0.008607463 -0.15702859 0.19198264 0.123404756
0002d0 df 46 11 3d 2d 5a a5 3d 97 74 f5 bc 1f a6 19 3e
       0.03546798 0.0807384 -0.029962821 0.15004776
0002e0 26 6b f0 3d 82 6f d0 bd e8 86 b8 3d 5f 1f ac bd
       0.11739187 -0.101775184 0.09010106 -0.08404421
0002f0 a7 55 09 3e ba bb 1d be f7 47 af ba 9b 81 18 be
       0.1341158 -0.15403643 -0.0013372888 -0.1489319
000300 d6 19 fd 3d 89 03 29 3b da 32 b7 3d 5f 96 c0 bd
       0.123584434 0.002578946 0.08945246 -0.09403681
000310 e7 b5 96 3d c8 95 d1 bd 85 f9 81 3d 4b 59 3e 3e
       0.07358914 -0.10233647 0.0634642 0.1858875
000320 83 de 0e 3e 83 86 87 3c e2 41 22 3c 76 4e 83 be
       0.13952069 0.016543632 0.009903403 -0.25645798
000330 03 a9 08 be 54 69 bd 3e 0a 1f e2 bb 65 31 b0 3e
       -0.13345723 0.3699442 -0.006900673 0.34412685
000340 7f 31 64 3e 58 88 c9 3d 49 d9 64 3b 02 63 e6 be
       0.22284506 0.09840459 0.003491955 -0.44997412
000350 f5 dd d5 be 1d 48 ce bc 1b d8 c7 bd 37 41 6c 3d
       -0.41770902 -0.02518087 -0.09758016 0.05767938
000360 e5 cf 75 3e 26 19 06 3e 43 52 26 3e 92 18 90 be
       0.24005087 0.13095531 0.16242318 -0.28143746
000370 e7 bd ca 3c eb 99 20 be 08 15 80 3d bc 30 9f 3e
       0.024748756 -0.15683715 0.062540114 0.3109187
000380 a0 bd 4e 3e 40 45 67 be 04 7b 05 3c ca c7 0a be
       0.20189524 -0.2258501 0.008147005 -0.13552776
000390 cf 4c 80 3d 71 b4 a1 be dd 2c d4 3a fe 87 6b 3e
       0.0626465 -0.31582978 0.0016187687 0.23001096
0003a0 30 70 9f bd 4b 9d 3c be 79 2d 54 3e d8 cb 18 bd
       -0.0778507 -0.18419378 0.20720471 -0.037303776
0003b0 6b 47 7d bd dc be c3 3d f9 b4 b4 be e3 6a 03 3e
       -0.061835688 0.09557888 -0.3529432 0.12833743
0003c0 f9 dd c3 3d bd 6d dc bd 98 98 80 bd c0 e4 6c bd
       0.09563822 -0.107631184 -0.06279105 -0.05783534
0003d0 f8 9c 1b 3e 6b 9d 71 bd 99 18 ef bd 28 d7 be bd
       0.15196598 -0.058988016 -0.116746135 -0.093183815
0003e0 cb 07 8d 3d 86 14 df bd 9f e9 19 be 9a 1c 1f 3e
       0.06886252 -0.108925864 -0.15030526 0.15538254
0003f0 6f fb 13 3e 37 6d 41 3e 69 f2 a7 bd b7 9f 77 bd
       0.14451383 0.18889318 -0.08200533 -0.06045505

network_body._body_endoder.seq_layers.0.bias f4 [256]
000000 06 a2 00 3e 72 4b 51 3e a9 08 a8 bd 2c 4f 69 3e
       0.12561807 0.20438936 -0.08204777 0.22784108
000010 02 c6 66 3b 4f 6c 51 3d ea 9f 82 bc c7 06 61 3c
       0.0035213237 0.05112868 -0.015945394 0.013734526
000020 4a 12 80 3d 33 44 ce bd cb 2a 8d 3d 4d 1a 10 3e
       0.06253488 -0.10071602 0.06892928 0.14072533
000030 7a a3 f3 bb 69 d0 8d bd d4 44 fb bc db d6 15 3d
       -0.0074352594 -0.06924517 -0.030672468 0.036581855
000040 1e 1e 25 3e 6a 70 86 3e 27 b4 5e 3e 61 37 88 3d
       0.1612477 0.2625764 0.2174841 0.06651188
000050 56 33 8f 3e 7e 21 1c 3c 21 53 e6 3d 89 e4 ae 3c
       0.27968854 0.00952947 0.11246324 0.021349208
000060 b0 9a 0f 3d 16 12 c0 3d 47 5e b2 3d 21 0a 7e 3d
       0.03505963 0.093784496 0.08709388 0.06202138
000070 1d 56 a5 bb 4d 4e 0a bd 3b 41 29 3e a4 ca ba 3c
       -0.005045666 -0.03376608 0.1652879 0.022801705
000080 81 d3 69 bc ce e7 52 3d ac d0 d0 3c 17 90 e8 3d
       -0.014271618 0.051490597 0.025490128 0.11355608
000090 1a 0a 9d 3d 5d d6 32 3e 85 e8 14 3d a5 89 44 bd
       0.07667942 0.17464586 0.03635456 -0.04798283
0000a0 ce 42 19 3d bc 0c 7b 3c f6 95 b8 3d 8a 7e 2a 3d
       0.037417226 0.01532286 0.09012978 0.041624583
0000b0 ca 04 b1 3d c6 ce 08 3e 56 56 84 bd 35 91 1a bd
       0.086434916 0.13360128 -0.0646178 -0.037736136
0000c0 a4 b5 39 3e cb af 06 3e 81 1a 81 3d 16 c8 b4 3d
       0.18135697 0.13152997 0.06303883 0.08827226
0000d0 56 25 7e 3e 10 ce 34 3e 13 c7 f8 3c eb 92 67 3e
       0.2481893 0.17656732 0.030368363 0.22614639
0000e0 21 f3 f6 3d e1 8a fe 3d c9 3c 7c 3e 52 da 3c 3e
       0.12058092 0.12428833 0.24632563 0.18442658
0000f0 d5 af 8c 3e 1d 6c a9 3d 9f af 35 3d 06 b9 00 3d
       0.274779 0.08272574 0.04435694 0.031426452
000100 9d a4 fb 3d 44 7b 25 3e 62 29 04 3d 5d eb 1d bb
       0.12287257 0.16160303 0.03226603 -0.0024096586
000110 fc 41 22 3e ab 3e 92 bc 8f 38 2f 3d ea 00 6b 3d
       0.15845484 -0.017852148 0.042778548 0.05737392
000120 1d 48 29 bd 30 a9 26 3e 2d cc 0c 3e 2b 12 60 3e
       -0.04132854 0.16275477 0.13749762 0.2188193
000130 29 8a 5a 3c 84 0e 72 bc 67 79 ad 3d 0f aa 21 3d
       0.013338604 -0.014773969 0.08470421 0.03946882
000140 88 98 2c 3e 5b c8 06 3e 1b 66 e7 3d 68 6a ac 3d
       0.16855061 0.13162367 0.11298772 0.08418733
000150 4b 7c b3 bc 6d 0b f2 3d 53 8f 4e 3d 2e b5 64 bc
       -0.021909853 0.118185855 0.050429653 -0.013959212
000160 05 ed 80 bd 59 42 0b 3d 6e 4f 7d 3d db 60 05 bd
       -0.06295208 0.03399882 0.06184333 -0.03256307
000170 d9 62 ac bc ad c7 bc 3e f0 c9 1f 3c b2 2b 1d 3e
       -0.021043228 0.3687109 0.0097527355 0.153487
000180 cb 89 51 bc 06 11 74 3e 59 8b 71 3d fb 89 aa 3d
       -0.0127892 0.23834619 0.058970783 0.08327099
000190 26 75 87 3d 82 72 4b 3e c4 7a 70 3c 99 31 20 3d
       0.06614141 0.198679 0.014677707 0.0391098
0001a0 07 4c 24 bd 60 43 5f 3e f6 93 ff 3d 32 24 54 bd
       -0.040111568 0.21803045 0.12479393 -0.05179233
0001b0 a3 e9 88 3d 5a 87 82 3d 1c b4 43 3e 39 a7 60 3e
       0.06685188 0.063734725 0.19111675 0.2193879
0001c0 bd 73 9f 3d 2e bd 72 3e 82 0e 54 3b 34 ab 8d 3d
       0.07785747 0.23704979 0.003235728 0.0691742
0001d0 8d 57 27 3c 27 7c 76 3e be 1a cf 3d 4e db 65 3e
       0.010213745 0.24070798 0.101125225 0.2244694
0001e0 ee 48 2e 3d 73 95 c6 bc 77 50 89 3d 03 dd 6c 3d
       0.04255002 -0.024241185 0.067048006 0.05782796
0001f0 68 8f a8 3e 48 c5 25 3d 67 ed a3 bd 52 8c 22 3e
       0.3292191 0.040471345 -0.08004265 0.1587384
000200 53 87 86 3d d2 81 dc 3a dd cd 72 bd ae b6 00 3c
       0.0656878 0.0016823357 -0.059278358 0.007856054
000210 d3 30 1c 3e 30 64 c6 3e 74 36 4b bd 68 c5 00 3d
       0.15253 0.38748312 -0.049612477 0.03143826
000220 85 a3 01 3e bf 72 9f bc 27 82 77 3d d4 d2 8f 3e
       0.12660034 -0.019463895 0.060426857 0.28090537
000230 91 db 4c 3e 26 0d 05 3e 48 78 8b 3d 51 40 3a 3e
       0.20005633 0.12993297 0.06810051 0.18188597
000240 92 96 87 bd a2 79 3f 3d c9 90 a9 3d 76 a2 23 bd
       -0.06620516 0.046746857 0.08279569 -0.039949857
000250 02 48 e6 3d 1f b0 10 3e 1a 6f 86 bc f5 a4 53 3e
       0.11244203 0.14129685 -0.0164104 0.20668395
000260 64 5f 52 3e 7d f1 7f 3d 57 f6 78 3c 33 b8 88 3d
       0.20544201 0.06248616 0.015195451 0.06675758
000270 58 44 a8 3d 10 b6 f0 3d 75 06 12 3e 48 c0 14 3e
       0.082161605 0.11753476 0.14260276 0.14526474
000280 d5 f8 07 3e 0d 63 55 3e ea d5 a5 3d b2 a4 4a 3e
       0.13278516 0.20838566 0.080974415 0.19789389
000290 99 20 d5 bc 45 6b 66 3e 85 87 30 3e 53 cd 24 3e
       -0.02601652 0.22501858 0.17239197 0.1609395
0002a0 50 7a 92 3a 3f 1e 17 3e 32 a3 13 3e 6e 46 27 3e
       0.0011175368 0.14757632 0.14417723 0.1633546
0002b0 40 38 bb 3d db 08 d1 bd b5 6a f0 3c 87 7b 5e 3e
       0.09141588 -0.10206767 0.029347757 0.2172681
0002c0 06 eb 93 3d 6a da 92 bd 4e 4b 8d 3e 93 93 3e bd
       0.072225615 -0.071705654 0.27596515 -0.046527456
0002d0 e3 3f 66 3e b8 0c e3 3b ee 4f 26 3e 7e c0 d6 3d
       0.22485308 0.0069290064 0.16241428 0.10485934
0002e0 ce bd 9c 3c f2 17 de 3d 86 8d fd 3c 04 bb c5 3d
       0.019133475 0.10844411 0.030951273 0.09654811
0002f0 8a 1a 20 3d d5 b1 10 3e c5 a5 d2 3d 6c 22 ba 3c
       0.03908781 0.14130338 0.10285524 0.022721492
000300 ca bb c3 3d b9 3d f9 3d a8 36 98 3d ca b5 a1 bb
       0.09557302 0.12169976 0.074323 -0.004935001
000310 49 5c c9 3d 92 c1 54 3d 06 25 85 3e 14 33 9a bd
       0.09832055 0.051942416 0.2600481 -0.07529274
000320 9f a7 f7 bc 83 84 9c 3d 2f 6c 0e 3d 48 68 ba 3d
       -0.030231295 0.07642462 0.03477114 0.09101921
000330 b3 05 33 bd bd 31 01 bd ff ba 73 ba e2 24 d9 3d
       -0.043706607 -0.031541575 -0.0009297579 0.10602738
000340 1b 8c ac bc 3f 25 99 3d 10 cb 75 3e 64 a5 b7 3d
       -0.021062901 0.07477807 0.24003243 0.08967093
000350 26 dd ff bc 42 c3 5c bc 00 d0 86 bc c3 70 44 bc
       -0.031233381 -0.013474287 -0.016456604 -0.011989775
000360 39 ec a6 3e 21 eb ad 3d 78 f1 7b 3d 30 2b e7 3c
       0.326021 0.08492113 0.06150958 0.028218836
000370 55 ab 14 3e 3a 26 30 3e a0 c5 7b 3d 60 50 54 3c
       0.14518483 0.17202082 0.061467767 0.012958616
000380 6c a8 7f 3e 3e 08 b6 3d ec a8 e6 bb 92 b5 d7 3d
       0.24966592 0.08888291 -0.00703918 0.10532679
000390 f8 5d 9c bc 24 1d 22 3d 61 cc d4 3d f7 a1 81 3e
       -0.019087777 0.039578572 0.10390545 0.25318882
0003a0 43 41 85 3d b5 60 e5 3d 80 bd 8e bd 23 aa aa 3d
       0.06506588 0.11200086 -0.06969738 0.08333232
0003b0 b7 bf b0 3e d6 70 15 bd b9 87 e9 bc 11 a7 29 3e
       0.34521267 -0.03648456 -0.0285071 0.16567637
0003c0 00 5c ee 3d e4 dd 33 3d b4 b7 a2 3d 12 64 02 3e
       0.11638641 0.043912783 0.07945195 0.12733486
0003d0 55 5f a1 3d 32 48 17 bd 56 44 2c 3c f2 6d ad 3d
       0.07879511 -0.036934085 0.010514339 0.08468236
0003e0 18 95 ed bd c8 e7 d0 3d 37 6f 85 3d 20 7a 03 3d
       -0.11600703 0.10200459 0.06515353 0.03209889
0003f0 98 fc 24 3d 50 ad 90 3e 07 ef d8 3d 7b 36 58 3e
       0.040279955 0.28257227 0.10592466 0.21114533

network_body._body_endoder.seq_layers.2.weight f4 [256, 256]
000000 4b 84 8d 3d ea d5 12 bd 86 a7 8a 3d b2 d2 8c bd
       0.069099985 -0.035848536 0.06770234 -0.068761244
000010 2e 1f 8a be 32 38 1a bd be 93 de 3d 5a c1 0d be
       -0.26976913 -0.03765125 0.10868023 -0.13843289
000020 a3 f5 ae bd 0c e7 64 3d eb 3c e9 3d 36 c4 ff 3c
       -0.08542945 0.055884406 0.11388572 0.03122149
000030 73 1c 60 3d 0e 3c f4 3c 7e ea 06 3e fc d1 34 3e
       0.05471463 0.029813793 0.13175389 0.17658228
000040 47 e1 25 3e 0d f2 26 be 9f 49 6d 3d 9d d0 fe 3d
       0.16199218 -0.16303273 0.05793154 0.124421336
000050 ba ee c1 bd 26 02 5d 3d 2b 94 7f bd 9d 69 07 be
       -0.094693616 0.053957127 -0.062397163 -0.13223882
000060 83 6b 2e be 79 57 20 3e 31 ec 18 be cf 23 0c be
       -0.170332 0.15658368 -0.1493385 -0.13685535
000070 04 d3 9b 3d 76 6d 5a bc 9c 4e a6 bd c0 b5 c5 3c
       0.076086074 -0.013331762 -0.08120462 0.024134517
000080 f0 90 08 3e 63 9b 25 3d ab 9c a6 bc bf 02 31 3e
       0.1333654 0.04043139 -0.020338377 0.17286204
000090 b9 c5 78 be 04 5e 56 3d 47 41 f2 3d 73 58 d6 3d
       -0.24294175 0.052335754 0.11828857 0.10466089
0000a0 50 53 5c be d2 d3 18 be 7f f7 4e 3d 70 2b 19 be
       -0.21516156 -0.14924553 0.050529 -0.14957976
0000b0 20 a8 81 bd 47 de 2a 3e 2a 27 e6 3d bb 1d 23 be
       -0.063308954 0.16686355 0.11237939 -0.1592931
0000c0 8a 9c e8 bd c6 36 f3 bd 90 75 e5 3b 71 6e 77 3d
       -0.113579825 -0.118756816 0.00700254 0.06040806
0000d0 14 dc 36 38 54 06 09 3d b9 35 83 be 5a 12 02 be
       4.3597145e-05 0.0334533 -0.25626925 -0.12702313
0000e0 3c fa af bc b8 e2 ff 3d 38 ac b5 bc c0 77 24 bd
       -0.021481626 0.12494415 -0.022176847 -0.040153265
0000f0 24 34 eb bd a4 d3 47 bd da ec 6b 3c 26 38 42 3d
       -0.114845544 -0.04878582 0.0143997315 0.04741683
000100 d2 46 6b be b3 6c 93 3d 8e 9d af bd 51 45 a4 bd
       -0.22976235 0.07198467 -0.08574973 -0.080210336
000110 27 a3 3f bd c3 d9 df 3d 8a c9 53 3e f8 13 39 3d
       -0.046786454 0.109302066 0.2068235 0.04518506
000120 c7 a8 87 3d 35 43 57 3b 58 24 55 3c 2c ad e6 3c
       0.066239886 0.0032846455 0.013009153 0.028158747
000130 f5 2f 25 3d ad 03 b2 3c e6 8a c5 3d cd bf 3e 3e
       0.04032894 0.021730268 0.096456334 0.18627854
000140 51 97 a8 3d e5 85 6c 3d 85 3d 06 bd fa bd 25 3e
       0.08231986 0.05774488 -0.032773513 0.16185752
000150 82 c4 61 3d 45 e5 0b bd 76 8d bd b9 90 2b 49 3c
       0.055119045 -0.034154195 -0.00036154286 0.0122784525
000160 9e 95 d9 3d de 67 93 3d 4e cf f3 bd 38 51 2b 3c
       0.1062424 0.071975455 -0.119047746 0.010456376
000170 07 1d 28 bd ae aa 17 be 52 0a 2f bc e8 12 26 be
       -0.041043308 -0.14811203 -0.010683613 -0.1621815
000180 f0 ac 04 3d 41 84 d7 3c ee af 8a be e9 4d 14 3e
       0.03239149 0.02630818 -0.2708735 0.14482845
000190 2a 26 00 3e 8d 4f 4a be 5d e1 23 3d 22 2f c6 3d
       0.12514558 -0.19756909 0.040009845 0.096769586
0001a0 37 aa f8 3b b7 73 b7 bd da da 82 be 41 8c 31 bd
       0.0075886506 -0.08957618 -0.25557595 -0.043346647
0001b0 fb 41 e1 bd 22 57 c3 bd f7 52 3b 3b 1d c1 c7 bd
       -0.10998913 -0.09538104 0.0028583386 -0.0975363
0001c0 50 8a 2c 3d 64 5c 3f bc 34 1b 3e bd aa be b4 3d
       0.042124093 -0.0116797425 -0.04641266 0.08825429
0001d0 b9 c7 97 3d ad 3b aa bd af 19 16 bc 36 46 8e be
       0.07411141 -0.083121635 -0.009161397 -0.27787942
0001e0 eb 62 b2 3d 75 aa 37 be 06 78 1f be c4 58 66 be
       0.08710273 -0.17936118 -0.15573129 -0.22494799
0001f0 83 63 e6 bc 56 3f 05 3e 05 99 1b be 53 a9 04 be
       -0.028123623 0.13012442 -0.15195091 -0.12955217
000200 d4 ed 50 3e fa b4 ce bc c6 7f ec 3d 42 4e e1 bd
       0.20403224 -0.02523278 0.11547808 -0.110012546
000210 3b 3f c0 be 61 d2 61 be 02 fc 0b 3e b0 f8 3a 3b
       -0.3754824 -0.2205291 0.13670352 0.0028529577
000220 41 56 7c 3d d0 3f 7b 3c ad 39 22 3e ab 38 56 be
       0.061605696 0.015335038 0.15842314 -0.20920055
000230 bd 08 4a 3d 2a ac 32 bb 6f e7 75 3d bd 82 2e bc
       0.04932474 -0.0027263262 0.060035165 -0.010651288
000240 3b 67 18 be 84 45 2c be 6f c6 c4 3d ee d4 d7 bd
       -0.1488313 -0.16823393 0.09608161 -0.1053866
000250 4f 54 80 bd 95 90 93 3d 5b ca 09 3c b8 11 b7 be
       -0.062660806 0.07205311 0.008410062 -0.35755706
000260 f0 84 18 bd 5c 14 7a bd d5 5b ed bd 81 97 b4 3d
       -0.037236154 -0.061054572 -0.11589781 0.088179596
000270 6e d6 b9 3d db 8d 17 3d 61 7b 15 3d a4 f1 c9 bb
       0.09074102 0.03700052 0.036494616 -0.006162839
000280 3e ac 20 3b 41 b2 56 bd 4e db 50 be d4 00 11 be
       0.0024516727 -0.05241609 -0.20396158 -0.14160472
000290 60 cb 12 bb e0 92 e9 bc 5a e4 8a bd 63 da d9 bd
       -0.0022399053 -0.028512418 -0.06781836 -0.10637357
0002a0 ff e2 b8 bd 31 55 98 3c 31 11 f7 bd df 1c f8 bd
       -0.09027671 0.01859531 -0.12063826 -0.12114882
0002b0 9b 96 47 3c e9 99 96 bd 0d 60 28 bd bc 61 85 bd
       0.012181903 -0.07353575 -0.041107226 -0.06512782
0002c0 ac 84 4b bd 5d 43 ed bb e4 f1 22 bc 18 c5 16 3d
       -0.049687073 -0.0072406963 -0.0099453665 0.036809057
0002d0 3a 37 a0 bd 99 f0 0a 3d cf 70 a3 bd 89 7d 3e bd
       -0.07823034 0.033920858 -0.07980501 -0.04650644
0002e0 96 08 c9 bd ca 54 e5 bc dc 9d df 3d 87 2b ec 3c
       -0.09816091 -0.027994532 0.10918781 0.02882935
0002f0 58 73 f9 3d 76 04 09 be 34 39 ed bd 5e b4 1d be
       0.12180203 -0.13380608 -0.11583176 -0.15400836
000300 78 5d 94 3d 7b 69 01 be 19 ac 70 3d 71 75 17 3b
       0.0724439 -0.12637894 0.058757875 0.0023110772
000310 bc ff 07 be 44 02 07 bd 67 6c be 3d 23 c9 bd 3d
       -0.13281149 -0.032961145 0.0929802 0.092668794
000320 33 83 64 be e0 29 57 bd 4f fe 0b be 54 1c 40 3d
       -0.22315674 -0.05253017 -0.1367123 0.046902016
000330 14 93 bb 3d 56 64 f2 3d cf 0f 79 bc cb 71 e1 3d
       0.09158912 0.11835544 -0.015201523 0.110080324
000340 eb 79 3b bc ae b5 41 3d 1d f5 68 bd 3d 0e 8f 3d
       -0.011442642 0.047292404 -0.056874383 0.069851376
000350 ad 73 8f bd 76 57 0f 3d b7 75 04 be 27 88 53 bd
       -0.07004485 0.03499552 -0.1293553 -0.051643517
000360 37 fb c4 bd 86 8d b1 bd 67 48 34 3e 70 bd 29 3d
       -0.09618228 -0.086695716 0.17605744 0.041440427
000370 20 c5 03 be ea 78 8c bd 5e e7 66 be e5 7d ec 3d
       -0.12868166 -0.06859 -0.22549197 0.1154745
000380 aa 98 b2 bd d0 ac 40 bd 05 5c 29 3d 30 5c 0c be
       -0.087205246 -0.047039807 0.041347522 -0.13707042
000390 2c ad 0c 3d 20 1f 60 bc 76 72 bb 3d 68 6f 6b be
       0.034344837 -0.013679296 0.09152691 -0.22991717
0003a0 ed e3 48 be 5b c5 94 be 92 2d 48 bc 77 89 d3 bd
       -0.19618197 -0.2905682 -0.012217896 -0.10328954
0003b0 93 a1 8e be ea c7 63 3d 74 3c ab 3d 45 2c 8c be
       -0.27857646 0.055610575 0.0836114 -0.27377525
0003c0 c3 84 ba bd d0 83 ab bb 6e ad a3 bc 07 1c 13 3e
       -0.091073535 -0.005234219 -0.019980159 0.1436616
0003d0 90 82 1a 3d 09 6c 24 3d 2a fa ab 3d bb 00 b7 bd
       0.03772217 0.040142093 0.083973244 -0.08935686
0003e0 f2 ac 95 3d 7e b9 05 be 6b 96 31 3e 96 6d f0 bd
       0.07308377 -0.13059041 0.17342536 -0.11739652
0003f0 1e 16 e5 bd f8 b0 dc bd bd 80 13 bc af b6 0f be
       -0.11185859 -0.107759416 -0.009002862 -0.14034532

network_body._body_endoder.seq_layers.2.bias f4 [256]
000000 9c 50 34 3d bc b6 53 bd 49 cd 9c bc 77 09 5d bd
       0.044022188 -0.05168794 -0.019140856 -0.053964105
000010 4f cf fe 39 92 57 c4 bd 3e ff 52 bd a0 a0 4e bc
       0.00048601112 -0.09587015 -0.05151295 -0.012611538
000020 e1 33 6d bd b9 88 08 bc 67 3b 8f bc 29 13 9b bd
       -0.057910804 -0.0083333785 -0.01748438 -0.07572014
000030 4d 3a 8c 3c e5 20 ef bc 7a a7 9e bb bc 2e 65 3c
       0.017117644 -0.02919049 -0.004841742 0.013988193
000040 9b 02 60 bd 3c 79 2a bb 50 2a 4b bc a0 64 91 3c
       -0.054689985 -0.0026012203 -0.012400225 0.017748177
000050 aa cd 0c be f9 59 29 bd eb 83 02 3c 88 c6 37 bd
       -0.1375033 -0.04134557 0.007966022 -0.04486707
000060 84 7b 81 bd 08 8b 1a bd 56 fc 61 3d f2 e8 df 3b
       -0.06322387 -0.037730247 0.055172287 0.006833189
000070 2a 3e 5a bd c0 50 b8 bd 48 59 68 3b 7b a7 4b bd
       -0.05328194 -0.08999777 0.0035453606 -0.04972027
000080 3b 78 7a 3c 46 22 3d bd bd 61 70 bd da a0 b2 3c
       0.015287454 -0.046175264 -0.05868696 0.021805216
000090 54 9d ab bd fb 70 85 bc 10 52 52 bd 37 4c 86 bd
       -0.08379617 -0.016289225 -0.051347792 -0.065575056
0000a0 3a 92 bf bc eb 4b d4 bc 48 b8 b2 3c a8 49 b6 bb
       -0.023385156 -0.025915107 0.021816388 -0.0055629797
0000b0 37 42 51 bd bf f4 a3 3c bf 85 20 bd 7a d4 fa 3c
       -0.051088538 0.020014165 -0.03919005 0.030618895
0000c0 de 78 0a 3d 0e 2b 81 bd 77 d6 67 bd 21 6f a8 bc
       0.033806674 -0.0630704 -0.056601014 -0.020560803
0000d0 6d 7e 49 3d de 77 33 3b 23 f2 0b bd bb 9f d8 3c
       0.049192835 0.0027384679 -0.034166466 0.026443353
0000e0 34 d3 d4 3b 09 af 43 3d 15 f2 3a bd 21 1d b3 39
       0.006494904 0.04777435 -0.045641024 0.00034163243
0000f0 d3 d5 80 bb 29 52 09 3c 43 62 fd 3c 57 14 8f bb
       -0.00393174 0.008381405 0.030930644 -0.0043664384
000100 cd 3a 2a bc be a9 75 bd 44 3a 9a bc 7d ca c5 bd
       -0.010389996 -0.059976332 -0.018826611 -0.09657762
000110 57 ad 9c bd 19 f3 75 bd 2a d0 0f 3d a2 f7 ac bc
       -0.076502495 -0.06004629 0.03511063 -0.021114174
000120 1f f5 a2 bc 92 f4 1a bc 9b 21 3f bd 7a ba 13 bd
       -0.019892273 -0.009457724 -0.046662908 -0.03606651
000130 a7 91 53 bc 79 2f 66 bb 1a 83 21 3c 5b 6f 17 bb
       -0.012913144 -0.003512351 0.009857917 -0.0023107145
000140 44 60 66 bd 28 57 6a bd 1d 9f 82 3c 81 c4 a2 bc
       -0.05624415 -0.057212025 0.015945012 -0.019869091
000150 66 69 1f ba 26 4f 1d 3a 4c fc 2d bd ec 6d b3 bd
       -0.0006081074 0.0006000869 -0.042476937 -0.087612
000160 7c e8 c6 3c f6 98 1e bc d4 c6 08 bc 9a ee c0 bd
       0.024280779 -0.009680023 -0.008348186 -0.0942051
000170 69 1f 89 ba 75 ef 7f bd 83 ce af bc 92 6c 94 bd
       -0.0010461631 -0.062484223 -0.021460777 -0.07247271
000180 27 52 ea bc 49 23 64 bd 57 96 bb 3c eb c4 8d bd
       -0.028603626 -0.055697713 0.022898836 -0.06922325
000190 1e 94 3c 3d bc 82 b1 bc bf 2f 82 bd fa 62 78 bd
       0.046039693 -0.021668784 -0.06356763 -0.060641266
0001a0 b5 2d a7 bc 68 06 78 bd f6 a5 da bd 49 04 04 be
       -0.020407537 -0.060552984 -0.10676186 -0.1289226
0001b0 b6 72 36 bc cd 2e 60 bd 6b 1b c7 3b df e6 7d 3d
       -0.011135748 -0.054732133 0.0060762665 0.061987754
0001c0 14 46 4c 3a b9 26 f9 bc f1 93 8e 3c 3c 68 86 3b
       0.0007792425 -0.030413972 0.017404528 0.004101781
0001d0 0f a5 58 bd 48 66 06 bd 24 cd e8 bc 14 35 f8 bb
       -0.052891787 -0.032812387 -0.028418131 -0.007574687
0001e0 ea df f3 bc 56 48 65 3c ac fc 0c 3c 85 08 ba bc
       -0.029769856 0.013994297 0.008605164 -0.02270914
0001f0 75 b9 27 3c be 4c 8c bd 14 2a b7 bc 3d 91 18 bd
       0.0102370875 -0.06850575 -0.022358932 -0.037247885
000200 89 73 28 3c ce 76 dd bc 9f 9e 5b bd e3 35 3e bd
       0.010281452 -0.02703419 -0.05361807 -0.04643811
000210 b7 6d 5f bc e2 19 00 3b fe 84 4c bc 4c 7d 13 39
       -0.013636998 0.0019546677 -0.01248288 0.00014065689
000220 a8 8f a9 bc 67 f9 98 bd 60 16 52 bd a7 56 e2 3c
       -0.020698383 -0.07469445 -0.05129087 0.02762921
000230 54 db 4e bd d3 08 cd bc c5 88 98 bd 09 39 2e bc
       -0.050502136 -0.025028622 -0.07447962 -0.010633715
000240 2f 7d 64 3a 8e 5f 9f bd bc a7 25 3d 72 7c cf bd
       0.00087161636 -0.077818975 0.040443167 -0.10131158
000250 21 93 53 bd b1 e8 18 bd c2 c5 34 bd bf 78 73 3c
       -0.051653985 -0.037331287 -0.04413391 0.014860331
000260 1a 9b 1e bd 34 60 84 bc d0 6a 76 3b 74 d7 ae bd
       -0.038722135 -0.016159154 0.0037600286 -0.08537188
000270 c3 71 49 bc e2 4b 4e bd ee 8b e2 3c d5 36 85 bc
       -0.012295189 -0.050365336 0.027654614 -0.016261498
000280 68 0e b7 bd df 34 65 bd 44 25 7b bd 9a 02 eb bc
       -0.08938295 -0.055958625 -0.061314836 -0.028687764
000290 64 3d 06 3c 39 86 ad bd e6 f5 28 bd d4 c2 cc bc
       0.008193348 -0.084728666 -0.041250132 -0.024995245
0002a0 eb 0c 00 be e0 5f dd bc ba 68 58 3d 02 d3 4b bd
       -0.12504928 -0.027023256 0.05283425 -0.04976178
0002b0 97 4a b3 bd 50 42 4f 3d ea c4 58 bd ef 46 38 bd
       -0.08754461 0.05060035 -0.052922167 -0.044989523
0002c0 d8 32 29 3b 68 e2 02 bd 6f 53 47 bd fc d1 9c 3b
       0.0025817659 -0.0319542 -0.048663553 0.0047857743
0002d0 db 44 c6 bc 30 26 b9 bc 79 b6 03 3c 9f b2 1d bc
       -0.024202755 -0.022601217 0.00803911 -0.009625106
0002e0 88 8c b0 3b 73 32 d3 bd b7 8d 97 bd ec 18 30 bc
       0.0053878464 -0.10312357 -0.07400077 -0.010748129
0002f0 c2 c3 a1 bd 74 03 b9 bb 7b d6 49 bd 1e 31 40 bd
       -0.07898666 -0.0056461636 -0.04927681 -0.04692184
000300 53 86 72 bd 2e 41 ce bd 88 70 1b 3c 9d 08 97 bd
       -0.059210133 -0.10071026 0.009487279 -0.0737469
000310 4c c2 33 bd e9 ef 0c bd a3 47 b4 bd 85 04 06 3c
       -0.043886468 -0.034408484 -0.08802726 0.0081797885
000320 63 9a 46 bd fd a1 19 3b ea 51 b9 bd 25 66 ae bd
       -0.04848708 0.00234425 -0.09048827 -0.08515576
000330 37 6e 3f 3b 97 c4 b7 bd 4f ba 23 bb ba b7 3a bd
       0.002920998 -0.089730434 -0.0024982875 -0.04558537
000340 5d 7a 61 3c 09 4b aa bd 42 85 54 bd 87 c1 6b bd
       0.013762084 -0.08315093 -0.051884897 -0.05755761
000350 39 3e 5c bd b8 96 98 bd d2 7e b8 3c 4a 7f dd bb
       -0.053770278 -0.07450622 0.02252141 -0.006759559
000360 5f 94 d5 bc 09 9b a8 bd 30 47 ca bd 00 76 b7 bd
       -0.026071725 -0.082326956 -0.09876859 -0.089580536
000370 5b eb 1b bd c0 5e 73 bd de 90 56 bc f5 8d 1a bd
       -0.03806625 -0.059416533 -0.0130960625 -0.037733037
000380 2c 37 97 bc 8e 88 83 bd c8 c1 85 3b 67 2c 17 bd
       -0.018458925 -0.0642253 0.0040819384 -0.03690758
000390 e5 84 38 bc dd 9e 39 3d 6a 18 bd 3c b4 ac b5 bc
       -0.011262153 0.04531752 0.02308293 -0.022177078
0003a0 4f 83 3f bd 39 a2 cd bc 69 33 f3 bd b2 e1 20 bc
       -0.046756085 -0.025101768 -0.1187504 -0.009819435
0003b0 e0 32 82 3b 13 42 89 3c 88 37 da bc ba f1 bf bd
       0.00397335 0.01675514 -0.026637807 -0.093722776
0003c0 9e 36 ab bd 60 28 2a 3c e5 3f 12 bd 8d 64 c4 bd
       -0.08360027 0.010385603 -0.035705466 -0.09589491
0003d0 cc de be 3c 36 f9 ab bd 15 e0 07 bd d4 b4 de bc
       0.023299597 -0.083971426 -0.033172686 -0.027185835
0003e0 9e 22 00 3d 06 d6 9a bb 76 78 2e 3c 3e 89 7b bd
       0.031283014 -0.0047252206 0.010648837 -0.06141018
0003f0 80 39 e4 bd 1d f6 81 3c c9 44 3d bd fd 55 6b 3c
       -0.1114378 0.015864426 -0.046208177 0.014363763

action_model._discrete_distribution.branches.0.weight f4 [3, 256]
000000 fc 7e 11 3d cd e0 4c bc e9 f2 81 3e ad b3 da 3c
       0.035521492 -0.012504769 0.25380638 0.026697004
000010 e2 41 29 3d bf d4 33 3d 45 61 dc bd 53 01 0a bc
       0.041322596 0.043904062 -0.1076074 -0.008423167
000020 78 88 d9 bc 66 63 82 3c fb 87 86 bd c9 0b d4 3d
       -0.026554331 0.015916537 -0.06568905 0.1035381
000030 25 50 2c bd b2 7b 23 bf de 2b 11 bd 42 9b 67 bc
       -0.04206862 -0.6386062 -0.035442226 -0.014136137
000040 50 c5 e3 be 85 4c 0a 3b 1d 7c 3c 3d b0 36 39 bc
       -0.44486475 0.0021102738 0.0460168 -0.011304542
000050 39 07 be 3c 7f 01 1d bc 63 77 6c 3d e2 59 c6 3d
       0.023196803 -0.009582876 0.057731044 0.096851125
000060 73 35 67 bd da b0 f2 be b0 9a 43 3d 65 ea 07 3c
       -0.056447458 -0.47400552 0.047754943 0.00829563
000070 cc f9 c9 3d 8a d7 b5 3a f0 03 4b be 4b 75 18 3b
       0.09862098 0.001387344 -0.19825721 0.0023263271
000080 0c 8c e0 3c 53 df 8a 3c 0c 87 e4 3a 92 09 0f bd
       0.02741053 0.016952192 0.0017435267 -0.034921236
000090 ec 2d 8c bd 15 1e d7 3d 7a dc 37 be 7e 30 91 3d
       -0.068446964 0.105037846 -0.17955199 0.07089327
0000a0 65 2a 3c 3c 2d b5 57 3d 28 0c 5d bd 97 54 01 3e
       0.011484717 0.052663017 -0.05396667 0.12629925
0000b0 e6 09 3a 3e 28 39 22 bc 0e 03 db 3d 5f 54 93 3d
       0.18167838 -0.009901322 0.10693942 0.07193827
0000c0 16 6a b3 3d 4a 93 20 bf 5d 9e b4 3d 92 ed 8d bd
       0.08760469 -0.62724745 0.08819268 -0.069300786
0000d0 c7 2f 0b bd 10 aa a6 bc de 14 13 bc e9 64 7a 3c
       -0.03398111 -0.020344764 -0.008977143 0.015282848
0000e0 27 24 b3 3d 14 ab f7 3c 0c e5 48 bc b1 18 df 3c
       0.0874713 0.030232944 -0.01226164 0.027233453
0000f0 f3 3a 32 3d f9 d3 63 bd 20 ce 0d bc 1d a4 16 bd
       0.04351325 -0.055622075 -0.008655101 -0.036777604
000100 50 d2 a3 3c a4 9d ea bc cd 03 53 bc e2 7a 0c bd
       0.019997746 -0.028639622 -0.012879324 -0.034296878
000110 0b 0d 92 bd e9 9b 43 3d 40 13 23 bd 04 4c 10 be
       -0.07131394 0.04775611 -0.03981328 -0.14091498
000120 90 65 b1 bc 72 d2 89 bc ae 17 2a 3d 61 ed df ba
       -0.021654874 -0.016823981 0.04152649 -0.0017084294
000130 59 14 9d bc fa 35 18 3d d6 c5 08 3d 5c 68 20 bc
       -0.019174742 0.03716085 0.033391796 -0.009790506
000140 9f 40 c1 3c 49 88 bc 3c 2d 1d 2a 3b 71 a7 1c 3d
       0.023590384 0.023014205 0.0025957332 0.038245622
000150 2e bc b0 ba 01 9e 8e bb 63 7f 23 bd cd 66 ed bc
       -0.0013483816 -0.0043523316 -0.039916407 -0.028979683
000160 a2 f3 a1 3c 81 75 de 3c 46 3a 04 bc bd 0a 83 3d
       0.019769493 0.02715564 -0.008070534 0.063985325
000170 16 09 6a 3c 32 ac 18 bd eb 65 41 3d de 51 84 3e
       0.014284393 -0.037273593 0.047216337 0.2584371
000180 f0 da 16 3d 5a 36 d6 3d 90 de 96 bd 8f 5c da 3c
       0.03682989 0.104595855 -0.07366669 0.026655464
000190 98 9f 74 bc 1e b7 94 bd 7d 2a 5d 3d 7c 33 91 3d
       -0.014930628 -0.07261489 0.053995598 0.07089898
0001a0 27 95 8c bd 77 ab 10 bd 9a 1f 8b bd e5 1a 81 3d
       -0.06864386 -0.03531977 -0.06793137 0.06303958
0001b0 74 84 ca 3d f2 b9 b2 bc a5 0a 2b bd ee 57 03 bd
       0.09888545 -0.021817181 -0.0417582 -0.03206628
0001c0 06 e4 e2 3d 2e e7 ef bd 77 7b 15 3c 88 e3 80 3c
       0.11078648 -0.11714016 0.009123675 0.015733495
0001d0 29 36 62 3d ff 61 9d bd d6 b0 eb 3a 3e a0 9a 3c
       0.055227432 -0.07684707 0.0017981778 0.018875238
0001e0 fc fb 16 bc 09 b3 98 bc a3 43 34 3d 12 e2 7d 3c
       -0.009215351 -0.018640058 0.044009816 0.015495794
0001f0 89 b6 9d 3c b9 8e 93 bd ef 28 6b bc 4b e2 a0 bc
       0.019252079 -0.072049566 -0.014353021 -0.019639155
000200 c4 b6 e4 3c 7c 24 ce bc 5e aa bd 3c 54 9e 5b bd
       0.02791918 -0.025163881 0.023152526 -0.05361779
000210 f2 b5 33 bc db 3b 25 b9 f5 be 35 3c 80 b8 39 3d
       -0.010968672 -0.00015757924 0.011092891 0.04534197
000220 05 9c 27 3d d3 23 a3 3c 09 d2 07 3d 47 3f ff 3b
       0.040920276 0.019914543 0.03315929 0.0077895257
000230 5a c9 7c 3d 24 37 30 3a 93 87 ab be e6 80 3b 3e
       0.06171546 0.0006722084 -0.33501872 0.1831089
000240 27 53 51 be af ed cc 3d d1 15 57 3c 9e c3 c8 3d
       -0.20441876 0.10006272 0.01312776 0.09802936
000250 15 4b ed bd 84 79 70 3d cc 76 1c be 47 73 c7 3d
       -0.115865864 0.058709636 -0.15279692 0.09738784
000260 8e 37 56 bd 79 91 be 3c 1e 5b 58 3c 64 f1 c5 3d
       -0.052299075 0.023262726 0.013205318 0.09665182
000270 dd 2d b2 3d 7c 07 d8 bd c3 64 b9 3c c6 a0 6d be
       0.08700154 -0.105483025 0.022631055 -0.23205861
000280 6b 3c a3 3e ef 21 79 3d 3c 96 f4 3c 70 ab 41 3d
       0.31882033 0.060823377 0.029856794 0.047282636
000290 5c a2 db 3c b9 53 27 bd a3 f6 2d 3c a0 e0 55 bd
       0.026810817 -0.04085133 0.010617885 -0.052216172
0002a0 d5 e3 c0 3d b0 9d 61 bd 8d 02 24 bc fd 29 0c 3d
       0.094184555 -0.055082023 -0.010010374 0.03421973
0002b0 0c ea 18 3e 22 72 11 3d 1a 2e 2c 3e 81 67 ae bd
       0.14933032 0.035509236 0.16814461 -0.085158356
0002c0 b7 55 14 3d 00 99 a9 3c 66 1f cd bc 18 21 9b bb
       0.036214557 0.020702839 -0.025039386 -0.0047341697
0002d0 dd fb 54 bc 7c 94 be 3b b1 99 61 3d c6 10 44 3d
       -0.012999502 0.0058160406 0.055078212 0.04786756
0002e0 29 a5 a9 bc dc 87 23 3d 28 de fd bb 47 9d ba bb
       -0.020708637 0.039924487 -0.0077474304 -0.0056950185
0002f0 30 51 cb bc eb dc a0 bc d3 43 b4 3d a8 b3 b1 bd
       -0.024818987 -0.019636592 0.08801999 -0.08676845
000300 39 ca 0f 3b bf 95 62 bd cc 65 a8 bd 90 4a 21 be
       0.0021940602 -0.05531859 -0.08222541 -0.157511
000310 ac d3 95 3c e2 ab 48 3d 2f 73 a5 bd b8 bb 75 bc
       0.01828941 0.048992045 -0.0807861 -0.014998369
000320 e0 35 b8 bc 51 b1 2b bd ce a6 3e 3d 41 09 e3 bd
       -0.022486627 -0.04191715 0.046545796 -0.110857494
000330 08 04 4e 3d b6 f0 bd 3d 23 90 e2 be 47 9a bc bc
       0.050296813 0.092744276 -0.44250593 -0.023022784
000340 f5 bc 2e 3d 9f 8c 05 be 05 f5 be 3c c2 67 04 3d
       0.042660672 -0.13041924 0.023310194 0.032325514
000350 d4 e9 96 be 37 2c 3c be b5 26 cb bb c2 05 7e 3c
       -0.29475272 -0.18376242 -0.0061996826 0.015504302
000360 f3 1a 4b bd 53 86 f6 bc 9b d7 58 3c af 9b 4a be
       -0.049586248 -0.030093348 0.013234998 -0.19785951
000370 4a 24 c6 3b d7 65 b5 3d 13 aa 49 3b 1c 69 94 bc
       0.0060468065 0.08857315 0.0030771538 -0.018116526
000380 25 66 6c 3d 28 d8 00 be 45 e9 55 be 9a f2 5a bd
       0.0577146 -0.12582457 -0.20889767 -0.05345402
000390 23 89 a5 bd cc 67 36 bc 6d 23 be bc 61 7f 58 3d
       -0.080827974 -0.011133146 -0.023210252 0.052855853
0003a0 61 2b e2 3d 54 81 98 3c 4f a9 4d 3d 13 da 05 3c
       0.1104343 0.018616356 0.050210293 0.008169669
0003b0 47 fa 4c 3d 52 c8 e1 bc 91 a7 3b 3d 20 8e 48 bd
       0.05004337 -0.02756134 0.0458141 -0.048963666
0003c0 30 02 33 3d da db 46 3d 05 94 5f bc df e5 4b be
       0.043703258 0.04854951 -0.01364613 -0.19911908
0003d0 01 29 44 bc 60 1b 2d 3c 82 bd a7 3d 40 96 95 3c
       -0.011972667 0.010565609 0.081904426 0.018260121
0003e0 71 96 7b 3d f8 db 07 3d 3c 0d 33 3d 6b 45 a7 bd
       0.06142277 0.033168763 0.043713793 -0.08167537
0003f0 aa fb e2 bb 56 3e 02 bd ba 91 b4 bd a0 c5 c1 3c
       -0.0069269734 -0.03179773 -0.08816858 0.023653805

action_model._discrete_distribution.branches.0.bias f4 [3]
000000 cd 29 6b 3c 5b 46 a2 3c 7c 02 ff bc
       0.014353228 0.019808939 -0.031129114

action_model._discrete_distribution.branches.1.weight f4 [3, 256]
000000 55 49 98 3d 19 36 39 3d cd 10 2f 3e cd 15 05 ba
       0.07435862 0.045217607 0.17096253 -0.0005076796
000010 4b 90 54 3d 19 0d 18 3c 7e 71 a2 3d 4d dc 3c bd
       0.05189542 0.0092804665 0.07931803 -0.046108533
000020 38 1a bf bd 80 92 55 ba 48 23 08 bd 2e 64 30 bc
       -0.09331173 -0.00081471354 -0.03323677 -0.010766072
000030 07 a5 36 3d 1d 8f 8f 3c 94 38 2c bd 6d 7b 73 3b
       0.044590976 0.017524296 -0.042046145 0.0037152425
000040 08 5c 08 3d dd 87 ef 3c d3 eb ea bb e5 c9 7c 3d
       0.033290893 0.02923959 -0.0071692257 0.06171598
000050 81 e5 e3 bd b0 89 bf bd 7b 5b af 3c b4 78 3f 3d
       -0.11127759 -0.09352434 0.021405926 0.04674597
000060 5e f0 ba bc 12 ff e8 bd 17 8c 38 3d fa 34 5c 3d
       -0.022819694 -0.11376776 0.045055475 0.05376146
000070 a1 ed a3 3d f4 ee 86 3d 71 3e f3 bb 9c 13 c2 bc
       0.080043085 0.065885454 -0.007423215 -0.023690991
000080 b6 1f 59 bd ca ee 92 3c 50 16 40 bd 70 a1 e8 3c
       -0.053008758 0.01793613 -0.04689628 0.028397292
000090 9e 77 4e be 22 aa f8 ba f1 a1 80 3d ad 8b f1 3c
       -0.20162818 -0.0018971602 0.06280888 0.029485548
0000a0 a4 86 7e 3c 7e b9 64 bd b3 3c 16 3a f7 da d8 3d
       0.0155350305 -0.05584096 0.0005731091 0.10588639
0000b0 e9 16 e6 3d e6 0e b6 bc c1 87 24 bd 62 18 16 3d
       0.112348385 -0.022223901 -0.040168528 0.036644347
0000c0 53 16 8d 3d 94 5e 2b 3d ae 77 08 3b 76 08 cd 3d
       0.06889024 0.041838244 0.0020823288 0.100113794
0000d0 8c cf 5e 3d 97 0d 40 3d 8d e0 21 3c 93 78 e1 3c
       0.05439715 0.04688796 0.009880197 0.027523315
0000e0 14 76 53 3c be 5f 86 bd 21 58 5e 3d 0b c3 52 bd
       0.01290657 -0.0656123 0.054283265 -0.05145554
0000f0 bd 64 43 3d bc 1e 9a 3d cf c6 1b bb 1f 76 8a 3d
       0.047703493 0.07525393 -0.0023769622 0.06760811
000100 00 d2 e5 3c 34 e3 93 bc 61 29 5a 3c 97 5c 07 3b
       0.028054237 -0.018052675 0.01331553 0.0020654553
000110 42 71 90 3b 58 b1 85 bd 09 de 51 3d 14 da 84 3b
       0.0044080326 -0.06527966 0.05123714 0.0040543173
000120 f3 c8 33 3d df d8 3f 3d ee 00 64 3d 8d 04 0b bd
       0.043892812 0.046837684 0.05566495 -0.033939887
000130 a0 13 9e 3b cd ea 51 3d 03 f2 18 3d 72 76 bd 3b
       0.004824117 0.051249314 0.037340175 0.005781942
000140 0f 83 8c bc 81 79 ab bd c6 06 02 bd f2 1c 47 3c
       -0.017152337 -0.083727844 -0.03174474 0.012152897
000150 d5 03 32 3d a9 77 48 3c 2a 94 bf 3c 46 8c 25 be
       0.043460686 0.01223556 0.02338608 -0.16166791
000160 1c 53 9d 3d 50 7a 25 bb 8b 16 01 3c 17 1d 27 bd
       0.076818675 -0.0025249906 0.00787891 -0.040799227
000170 ce 9a bd 3a be 73 b6 3d a5 95 ee 3c 95 1b c2 bd
       0.0014465691 0.08908795 0.02912409 -0.09477917
000180 b8 e8 58 3d af 16 bb bd ba 89 c8 3d 6f 02 d9 bc
       0.052956313 -0.09135186 0.09791894 -0.026490418
000190 3e 30 6f 3d c4 4c f4 bc fb 85 80 3a b7 7c 9b bc
       0.058395617 -0.029821761 0.0009805554 -0.018980367
0001a0 ea b0 c7 bd 3c 61 8d bd 49 fd 93 3b 9c a6 99 bd
       -0.097505406 -0.069033116 0.004516278 -0.07502481
0001b0 1b 85 01 3c ff 78 e1 bd 2b 9f c1 bc 44 f3 c8 3d
       0.00790527 -0.11009406 -0.023635468 0.09812024
0001c0 6d 38 2b 3e fb b3 87 3d 08 6e 3e 3d e3 48 b7 bd
       0.16720743 0.066261254 0.046491653 -0.08949449
0001d0 0d be d6 bc 67 d6 b2 3c 9a c6 a8 bd d1 6a 0d 3d
       -0.02621367 0.02183075 -0.08241005 0.034525696
0001e0 10 79 91 3d 43 72 02 bd 28 43 b1 3d 4f 04 62 bd
       0.07103169 -0.03184725 0.08655387 -0.05517989
0001f0 b8 39 4e 3d 28 b1 54 3c b4 92 8f 3c 89 84 90 3d
       0.050348014 0.0129816905 0.017526008 0.07056529
000200 87 18 56 3d c0 d7 25 3c ce e3 5c 3d bd a3 cf bb
       0.052269485 0.01012224 0.05392819 -0.006336658
000210 08 86 98 bd 22 80 31 3d 36 3f fe bc 2d d2 2a 3d
       -0.074474394 0.043335088 -0.031036 0.041704345
000220 23 34 f8 3c e9 26 b5 bd ca a9 26 bc aa b7 3b 3d
       0.030298298 -0.08845312 -0.010172317 0.045829453
000230 1b dd 54 3d 4d 7f 77 3c ff 18 39 be da 14 08 3e
       0.051968675 0.015106034 -0.18075942 0.13289204
000240 bb 73 9e 3c 46 6a eb 3b 55 c4 25 bd 18 ec 0d be
       0.019342294 0.0071842996 -0.04047044 -0.13859594
000250 53 3e 08 be 1d 50 89 b9 c1 62 9e bd db 53 77 3d
       -0.13305025 -0.00026190365 -0.077336796 0.060382705
000260 76 1c fa 3d f2 0a 5f bc 01 13 25 3d 5d dd 85 bd
       0.1221246 -0.013613449 0.040301327 -0.06536362
000270 ee 68 f3 bc 7d 00 27 3d e7 69 9a 3d b1 45 45 bd
       -0.02971312 0.04077195 0.075397305 -0.048162166
000280 3a 66 f4 3c f5 e3 d5 3c fc 9e bf bc 1a 3b b5 3c
       0.029833902 0.026109675 -0.02339124 0.022122908
000290 bf 22 78 3d 33 08 85 bc 74 4e 95 3c 82 09 18 bb
       0.06058001 -0.016239261 0.018225886 -0.0023199026
0002a0 ef 33 4e be dd a2 72 bd 1d 1a 7c 3d 75 65 99 3b
       -0.20136999 -0.05923735 0.06154834 0.004681284
0002b0 3a 34 f6 3c 05 8b c2 bc 00 dc 23 bd e8 2c 39 3d
       0.0300542 -0.02374793 -0.04000473 0.04520884
0002c0 bf 72 93 bd 4d b3 73 bc 49 1a 24 3d c9 4f a6 3d
       -0.071996205 -0.014874292 0.04006413 0.081206866
0002d0 7b fc f9 bc 1e 57 d3 3c 8e c4 35 3d b6 40 04 3d
       -0.0305159 0.025798377 0.044376902 0.032288276
0002e0 83 12 0e 3d 59 45 68 be 85 53 19 3d 9a 0e ae 3d
       0.034685623 -0.22682704 0.037433166 0.08498879
0002f0 15 d7 70 3a d9 db ee 3c 7a 6f 8d bd aa c4 bf bc
       0.0009187323 0.029157566 -0.06906028 -0.023409206
000300 80 b6 86 bc 0d d4 ab 3b 0d 92 10 3c 50 a4 58 bd
       -0.016444445 0.0052437843 0.008823884 -0.052891076
000310 60 83 0d 3d b1 db bb 3c 92 a4 83 3c f9 fa 2b 3d
       0.034549117 0.022931905 0.016069684 0.041987393
000320 de 7e 44 bd 1c 38 33 3d 92 bd d8 bd 50 f0 5b bc
       -0.047972552 0.043754682 -0.10583033 -0.013423994
000330 10 d8 97 bc 3b 0d e9 3c fd 4b de bb e7 a2 0a ba
       -0.018535644 0.028448692 -0.006783961 -0.00052885566
000340 e0 9e 97 3d 9a f5 4f be ba 2f 20 be a9 9e 8c bd
       0.0740335 -0.20308533 -0.15643206 -0.068661995
000350 39 da 36 bd 26 13 ad bd 39 dd e1 3c bc 36 e0 bc
       -0.044641707 -0.08450918 0.027571307 -0.02736985
000360 e7 1d e7 ba 16 75 ac bd 32 87 1f be 00 1b 16 3c
       -0.0017632813 -0.0842077 -0.15578917 0.009161711
000370 65 eb e2 bc 4c ae a6 ba c9 b3 e8 3c 0e 4e 89 3c
       -0.027700135 -0.001271674 0.02840604 0.016760852
000380 cc dc 0e bd c6 62 c4 3c 93 98 a3 3d 75 78 c4 3c
       -0.034878537 0.02397288 0.079880856 0.02398322
000390 64 98 f2 3c 79 49 91 3d 5e ed bb bd 8b 87 58 3d
       0.029613681 0.07094092 -0.091761336 0.05286364
0003a0 47 73 1b 3d e8 c1 42 bd a5 d7 32 be 01 18 85 3c
       0.037951734 -0.047548205 -0.17465074 0.016246798
0003b0 16 36 20 3d 9c e4 69 3d a1 4f 8c bc c7 c0 2f be
       0.03911408 0.057102785 -0.017127814 -0.17163382
0003c0 8c 66 cc bd 36 ff f0 3c 2b 31 48 bd 17 b2 8c 3c
       -0.09980497 0.029418569 -0.048875015 0.017174764
0003d0 ec 98 88 3c 03 dc f7 3d c5 71 df bd bc 55 26 3d
       0.016674481 0.12102511 -0.10910372 0.040609106
0003e0 0c 43 55 3a 2d 34 2f 3d 5b 54 71 3d 50 b0 96 bd
       0.0008135296 0.042774368 0.05891834 -0.07357848
0003f0 9b 42 4e bd ad 7e cc 3c e6 ab b5 bd 6b f6 12 3d
       -0.05035649 0.024962747 -0.08870678 0.035879534

action_model._discrete_distribution.branches.1.bias f4 [3]
000000 0c 12 68 3d c7 02 bc bb c6 80 59 bd
       0.056657836 -0.005737636 -0.053101324
