ML-Agents/results/simple-1v1-better-obs-smaller/Volleyball/Volleyball-1999994.onnx (onnx, 297081 bytes, 15 tensors)

discrete_action_output_shape f4 [1, 4]
00000000: 0000 4040 0000 4040 0000 4040 0000 0040
3.0 3.0 3.0 2.0

network_body.observation_encoder.processors.0.normalizer.running_mean f4 [16]
00000000: 1dc7 0ac3 3ad9 b040 1e0e e5c1 9c54 d2c0
00000010: d4fe bfad d4fe 3f2d e0be 0ac3 74b6 aa3f
00000020: 4d20 e5c1 2dbe b53b fb79 543f 20c0 393c
00000030: 0000 0000 079f 23be 0000 0000 14ff 5f3f
-138.77779 5.526517 -28.631893 -6.5728283 -2.1827352e-11 1.0913676e-11 -138.7456 1.333693
-28.640772 0.0055463524 0.8299863 0.01133731 0.0 -0.15978633 0.0 0.87498593

network_body._body_endoder.seq_layers.0.weight f4 [256, 16]
00000000: e093 38be 91d7 a2be a95d 1abe 3f27 3dbd
00000010: 9dab 013c 5767 ee3d 23a5 8bbe 07d4 cfbe
00000020: 82aa 9fbe d5d9 b4be 484b 49be b077 9ebe
00000030: bc42 b7be 902d 9ebe f91d a23e af97 18bd
00000040: dc4f 323f f115 cebd 1349 943e 0145 86be
00000050: 23bf 863c dcbe a2be 28a7 42bd 5056 593e
00000060: 616d 69be 13ff 0a3f ae5b 823e 1120 e6bd
00000070: ffba 973d b910 38be 5105 aebe 92fd 9c3e
00000080: 51c0 45be f4f9 95be 662c 043d e971 6ebd
00000090: 3403 a3bd 2f51 413e 7969 613e cda5 be3d
000000a0: d24d e2bc a035 07be 655c 35be fca0 f33d
000000b0: 6122 bfbd aa75 fb3d 713b b23e 8c52 703d
000000c0: d1a7 993e 2671 13be b73e ba3d cb3e 5bbd
000000d0: 55ef b3be c1a3 973e 766b 8cbd cb89 0f3e
000000e0: 4720 abbd 70ac 24bf bf36 603d 9e7f 3e3e
000000f0: 000c b03e 2761 a43c 5604 30bd cf3d 9c3e
00000100: f3e6 91be 5ead 25bd 464d e63a 7e01 acbe
00000110: eaef fd3c ca38 d53d d477 183e 103f e0bc
00000120: a68f 993c bbaf 133e 9469 cb3d 93f5 4dbd
00000130: f515 9bbe 39c1 33be 453c a73d 4f13 dcbe
00000140: 0ac4 aa3d f8ab 573e 1adf d0bd 726d a9bd
00000150: c3b6 243f 75c5 b3be 0cbd aabe 8462 1bbe
00000160: 97e9 013f 98ba 09bd 1d9b b83d ed48 973e
00000170: 7d92 edbe 2ba5 0c3d 4279 d0be 9ae8 b0bd
00000180: c515 b73e b84f a23e c450 b6bd 16bb 85be
00000190: 61ce 303e 3749 27bf 5276 213e 6510 063f
000001a0: 80a5 d93c f272 c63e 24ac d63e 5d95 30be
000001b0: 9d4e aebd 9c6f 7d3e d903 33be 7321 68be
000001c0: 2983 86be 008a 63be 896c 113f 4885 e5bd
000001d0: efff 4abe 3bd5 933e a0eb 863e 6d30 523e
000001e0: 8de8 113d ebbf a13c d912 a63d 5611 49bc
000001f0: 0446 8cbe c810 03be 515d 2cbe f5dd cabe
00000200: 5519 8f3b 8a36 a73e 0717 12be 40dd 3bbe
00000210: acaa 2dbd 66c9 8c3d 7e47 513e eb2a efbc
00000220: b7d5 71be fe37 443e 66cb 763e b440 3abc
00000230: f17d 303e 3b8b afbe 97c7 aebd 103c a43e
00000240: b072 b2be 9645 1fbe da7b 923e d038 e93e
00000250: 7e66 dbbd 79b0 d9be 9cda 153f 4a15 8cbd
00000260: cfdd a9be b778 ebbe d71c debb 6770 f7bc
00000270: 5aab e33c 2d41 8e3e 08ee 603d 9315 443e
00000280: 11f6 513e 7ceb ef3d bcd8 53be 372f 173d
00000290: 47ac 03be 3b75 febd 1343 373e de97 8cbe
000002a0: 9d01 d63e 1e1b 213d 0c87 9dbc cce7 d8bd
000002b0: 9d3d 8abe 20ff 2abe a125 9e3e d8d8 963e
000002c0: 1807 303c e126 7c3e de0f 6b3e a74d 173f
000002d0: f136 363d 09ea 47be 9717 b6bd a938 823e
000002e0: 40ff 95be 451a f13d dab7 433e 1163 0ebd
000002f0: 215e 09be 080b 2ebe 588e f3bd bd0b 25be
00000300: 616a 32be 8308 113f ba82 063e 74c6 73be
00000310: f450 ab3e 32aa 0abf 532e a13e 3d62 07bf
00000320: bc94 8b3e 9799 1d3e 3762 c53e d162 da3d
00000330: eac9 c6be 6bde c73d 3383 0b3e 1042 1bbd
00000340: c6d1 bbbd e285 af3e cce6 cdbd 638a 44be
00000350: 6b85 03be 7b1a fd3e 3a13 6f3e 61ea 603d
00000360: bdc1 d73c c1f2 093e 31ea bebc 85a1 be3d
00000370: 19f1 093f 4fa6 c5bd 970b ac3b 37ab 863e
00000380: 4321 953d f1f0 94be c1cc 47be 5d4f 863e
00000390: 3579 8a3e e93b de3d a721 113f 3677 f63e
000003a0: 1fa9 a73e 3231 c43e 74f0 20be 7025 36be
000003b0: 9a64 94be 15dc 06bf a862 13bf ec1a 183e
000003c0: d2f2 afbe 0463 cc3c 8355 dc3d a570 e9bc
000003d0: 23c1 963e e064 0abf 8db4 6d3e a188 f23e
000003e0: 7af7 81be 1c72 21bd ecee 083e a1b5 9fbe
000003f0: ea7c adbb 4f9d 853e 0162 1ebd 0ceb 32bf
-0.1802516 -0.3180509 -0.15074791 -0.046180006 0.007914451 0.11640804 -0.27274427 -0.40591452
-0.31184775 -0.35322443 -0.19657624 -0.3095069 -0.35793102 -0.30894136 0.31663492 -0.03725403
0.69653106 -0.10062779 0.28962 -0.2622452 0.016448563 -0.3178624 -0.047522694 0.21224332
-0.22795631 0.5429546 0.2546057 -0.11236585 0.074087135 -0.17975129 -0.3398843 0.3066221
-0.19311644 -0.29292262 0.032268904 -0.058214102 -0.07959595 0.18878625 0.22012891 0.09308968
-0.027624998 -0.1320405 -0.17711027 0.1189594 -0.09332729 0.12278302 0.34810975 0.058672473
0.30010846 -0.14398631 0.09093993 -0.05352668 -0.35143533 0.29617122 -0.06856434 0.14017408
-0.08355766 -0.6432562 0.05473971 0.1860337 0.34384155 0.020065857 -0.042972885 0.30515906
-0.28496513 -0.04044854 0.0017570637 -0.33594888 0.030998189 0.10411222 0.14889461 -0.02737382
0.018745255 0.14422505 0.09932247 -0.050283026 -0.3029019 -0.17554177 0.081657924 -0.4298348
0.08338173 0.21061695 -0.10198803 -0.08272828 0.6434137 -0.35111585 -0.33347356 -0.151743
0.50747055 -0.033625215 0.090139605 0.29547825 -0.46400824 0.034337204 -0.40717512 -0.08638115
0.35758796 0.31701446 -0.089021236 -0.26119298 0.17266227 -0.6534609 0.15767792 0.52368766
0.026568174 0.3875957 0.41928208 -0.17244478 -0.08511088 0.24749607 -0.17481937 -0.2266901
-0.26271942 -0.22220612 0.56806237 -0.11207062 -0.19824193 0.2887362 0.26351643 0.20526285
0.03562217 0.019744834 0.08109064 -0.0122722 -0.27397168 -0.1279937 -0.16832472 -0.39622465
0.0043670335 0.32658798 -0.14266597 -0.18346119 -0.042399094 0.06874351 0.20437428 -0.02919527
-0.23616682 0.19161984 0.24101028 -0.0113679655 0.17235543 -0.34285912 -0.085341625 0.32077074
-0.34853125 -0.15553889 0.28610116 0.45551157 -0.10712908 -0.4251745 0.58536696 -0.06839998
-0.3317704 -0.45990536 -0.0067783403 -0.030204965 0.027791668 0.277841 0.054914504 0.19148855
0.20504023 0.11714837 -0.20688146 0.036910262 -0.12858687 -0.12424704 0.1789668 -0.27459615
0.41798106 0.0393325 -0.019229434 -0.10591087 -0.27000132 -0.16698885 0.30888084 0.29462314
0.010743879 0.24624206 0.22955272 0.59102863 0.04448599 -0.19522871 -0.08891218 0.25433853
-0.29296303 0.11772589 0.19113103 -0.034762446 -0.13414814 -0.16996396 -0.11892384 -0.16117759
-0.17423393 0.5665361 0.13135806 -0.23806173 0.334602 -0.5416595 0.31480655 -0.52884275
0.27261913 0.15390621 0.38551494 0.10663379 -0.38825923 0.0975922 0.13624267 -0.0379048
-0.091708705 0.34281832 -0.10053787 -0.19193415 -0.12843864 0.49434265 0.23347178 0.05491102
0.026337499 0.1347151 -0.02330503 0.09308151 0.5388351 -0.096508615 0.005250405 0.26302502
0.07281735 -0.29090074 -0.19511701 0.26232424 0.270456 0.10851271 0.56691974 0.48137826
0.32746217 0.38318783 -0.15716726 -0.17787719 -0.28983003 -0.5267957 -0.5757241 0.1485402
-0.34364945 0.024949558 0.107584976 -0.028496096 0.29444227 -0.54060173 0.23213406 0.47369865
-0.25384122 -0.039415464 0.13372391 -0.3119326 -0.005294432 0.2609658 -0.038667683 -0.69889903

network_body._body_endoder.seq_layers.0.bias f4 [256]
00000000: 8721 4b3d 25ad 8c3d 2152 0dbd 1719 0abd
00000010: ea23 8b3c c0a2 3f3d 5d80 333d f72e 90ba
00000020: 63cf b23d 675e 0abb 6535 123e 2e95 c53b
00000030: 41e8 203e 1cfb 253d f324 4bbd 82cb 8f3c
00000040: d0c1 b73c d3b9 e33c 04a9 db3d 1538 d33c
00000050: 3ac7 e7bc f9e5 13bc 43d1 053e 201a 39bd
00000060: 52c3 95bc b216 62bc 3cc6 ae3d d0fd c13c
00000070: 9534 92bc dcc0 51bc 9356 6b3c 1525 f93d
00000080: a097 0abb 071f 833c 4896 f33d 556b dc3b
00000090: e63a 55bd c3c7 f03d bf7f 94bd 6e0c a3bc
000000a0: 50d9 503d 6238 fe3d 4e4b ab3d d30a c93d
000000b0: f92f 713c 63de 0abc 0ece e13c b488 27bd
000000c0: a258 353c 7428 f53d 50eb 153d 7777 073d
000000d0: 235a 9b3d 3d04 563c 3be3 853b 323a 903c
000000e0: d579 d4bc 3369 9e3d 7989 323d 2e1a 693d
000000f0: 9ad8 9fbb 13cd 853d 7901 bcbc b766 04bc
00000100: d531 e2bc 4aa6 b7bc 243f 733d acc1 ec3d
00000110: 19d3 15bd 65d3 babc 2a31 e8bc 8cce 203d
00000120: a61f a03d 13bb e73d 2768 b63d 96f0 1b3d
00000130: e9ef 643d b2f0 89bc b73a 20bd ec96 6ebc
00000140: 8c53 1f3b 773b 38bd fbed 473d a497 1c3d
00000150: 5f77 eb3b d016 04bd 8614 05bc 5695 333d
00000160: bba4 643b 86c2 b33c c84d 443c 595a d43d
00000170: 9b58 bc3d 3ea3 0ebc 836f d73c 1b51 5b3d
00000180: b94b 883c 3e4f 28bc bca1 b63a 2944 91bc
00000190: 78c6 07bd 5d5a 8e3a e82c dc3b bc26 053e
000001a0: 2727 cc3d b4f2 c53d be78 8e3a 4c4d 9a3b
000001b0: ec11 58bb 77f1 1e3b 76f0 a63b eee4 3c3d
000001c0: 883b 1abd f6ce 543b e164 53bd e302 a43c
000001d0: 41bc a0bb 637b 523b 07df 5cbc 67ac 91ba
000001e0: c250 793d 7019 74bd 3523 8d3d 3d7a 033e
000001f0: cb68 433c a61f 213e 05c7 e13d cf99 da3c
00000200: b006 a13d aba8 963d d60a b5bc 37f9 09bc
00000210: 250a e3bc d32a 023e d602 3dbd 15b3 e4bc
00000220: 5bcb 093e cbeb e43b 74ce 01bd 4435 ebbb
00000230: 62d5 a13c d724 e9bb 1ac7 a13d bec6 de3d
00000240: 7de9 4a3d f4f5 633c 17fc 35bc bd95 6e3d
00000250: 1596 9c3c b439 413d 1807 803d 2fea 48bc
00000260: 3428 fbbc 4152 303d f187 1b3e b798 49bd
00000270: 4d94 f63c 58a5 1d3d 24f0 0d3e 39d3 eebc
00000280: 6a1e 77bc 8d73 a7bc 11be 193c faab 7abc
00000290: 0c0b 133e afb1 62bc 16cb 05bd 6be8 233e
000002a0: 6f30 00bd bda0 163d 7ad2 de3d 92c3 043d
000002b0: 3ca1 4f3c ed8b 29bd b685 583c e2d1 babc
000002c0: c216 7f3c 6355 00bd d85a 1e3d 2ec7 063c
000002d0: a271 833a c83f 6ebc 3955 a53d b0d1 103d
000002e0: 89cf ecbc 513a 4cbd 42b3 0bbd 006f 293d
000002f0: edcf 83bc f77f c93d 9bb9 f0bb ed2f d33d
00000300: 026b 8dbc d7c3 f63d 030c a23b 51f4 943d
00000310: 96bb f8bc f949 173b 5be1 c03c 4505 0cbc
00000320: 5bd5 973d 8e0a b13d 4362 97bc 3def c83d
00000330: 8646 2a3c 052c 2a3d 51cd 2dbd 3aec 763d
00000340: aa49 21bd 0fd7 c73b 1f63 f4bc efa0 5dbc
00000350: 598d 03bd 9163 32bd faea eabc 1520 76bc
00000360: fecc 27bd da47 223d 5a3c 1fbb 33da b23d
00000370: 2548 d73c b104 103c 87c9 c33b 141e 25bd
00000380: 2098 3b3c de40 72bc 41fd cabc 0342 8dbc
00000390: 8f74 46bd 0ac7 d33b b899 03bd e730 d3bb
000003a0: 7f5c 5a3d 5f32 cdbc a2b6 863d b206 7cbb
000003b0: 6914 c73c f144 0bbd 1b99 bd3d 4bcf 65bc
000003c0: 3dd6 41bd 5e0a 17bd 2122 b93d eded f63d
000003d0: 1c2a 063b d1b5 8a3d 10a9 633b 938b f6bc
000003e0: e1c1 183d ccdc debc 904b 303c de27 953c
000003f0: 7f40 bf3d 77d6 1c3d 78f9 113c a887 003d
0.04959252 0.06868962 -0.034502152 -0.033715334 0.016984899 0.04678607 0.04382359 -0.0011000325
0.08730962 -0.0021113397 0.14278181 0.0060297465 0.15713598 0.04052268 -0.049595784 0.017553095
0.022431284 0.027798569 0.107255965 0.025783578 -0.02829324 -0.009026998 0.13068108 -0.04519093
-0.018281613 -0.013799356 0.08533904 0.023680598 -0.017847339 -0.012802329 0.014363903 0.12165276
-0.0021147504 0.016006006 0.11893898 0.006726662 -0.052058123 0.117568515 -0.07250928 -0.019903388
0.050988495 0.12413098 0.083639726 0.09816518 0.01472091 -0.008475873 0.027564075 -0.040901855
0.011068495 0.119706064 0.036601365 0.033072915 0.075855516 0.013062534 0.004085926 0.017605875
-0.025937 0.07734909 0.043588135 0.056909733 -0.004878116 0.065332554 -0.022949921 -0.00808113
-0.027611652 -0.02241816 0.059386387 0.115603775 -0.03657827 -0.022805879 -0.028343756 0.03925948
0.078185365 0.113149785 0.08906584 0.038071238 0.05589286 -0.016838405 -0.039118495 -0.01456235
0.0024311272 -0.044978585 0.04881094 0.038230553 0.007185861 -0.03224832 -0.008122569 0.04384359
0.0034888226 0.021943342 0.011981435 0.10368795 0.09196588 -0.008705912 0.02629829 0.053544145
0.01663767 -0.010272799 0.0013933699 -0.017732697 -0.03314826 0.0010860671 0.0067192204 0.13003057
0.09968405 0.096654326 0.0010869724 0.0047089215 -0.0032969667 0.002425281 0.005094583 0.046116762
-0.03765443 0.003247199 -0.051609877 0.020020908 -0.004905254 0.0032117001 -0.013480908 -0.0011114002
0.060868032 -0.05959457 0.06891481 0.12839599 0.01192684 0.15734729 0.11024288 0.02668467
0.07862604 0.073563896 -0.022099894 -0.008421234 -0.027714798 0.12711649 -0.046145283 -0.027917424
0.1345648 0.0069861165 -0.03169103 -0.0071779806 0.01975507 -0.0071149874 0.07899304 0.10877751
0.049539078 0.01391362 -0.011107466 0.05824827 0.019114533 0.04717417 0.06251353 -0.012262865
-0.030658819 0.043047193 0.15188576 -0.049217906 0.030100012 0.038487762 0.13861138 -0.029153453
-0.015082935 -0.020440841 0.009383694 -0.0152997915 0.14359683 -0.013836308 -0.03266438 0.16006629
-0.03129619 0.036774386 0.10879989 0.032413073 0.012672719 -0.04139321 0.013215473 -0.022805158
0.015569391 -0.03133143 0.038660854 0.008226199 0.0010028372 -0.014541574 0.080728956 0.035356224
-0.028907554 -0.049860302 -0.0341065 0.041365623 -0.016090358 0.098388605 -0.0073463446 0.103118755
-0.01726294 0.12049072 0.0049452796 0.07273162 -0.030362885 0.0023084863 0.023544958 -0.008546178
0.07413741 0.08644591 -0.018479472 0.09811256 0.010392791 0.041545887 -0.042432133 0.060283877
-0.039376892 0.006098635 -0.02983242 -0.013527139 -0.03211722 -0.043551985 -0.028676499 -0.015022297
-0.04096698 0.039619304 -0.0024297447 0.087330244 0.026279518 0.008790181 0.0059749517 -0.040311888
0.011449844 -0.014785973 -0.024778964 -0.01724339 -0.048451003 0.0064629363 -0.03212902 -0.0064450386
0.053310867 -0.025048433 0.06577803 -0.003845614 0.024301725 -0.034001295 0.09257718 -0.014026473
-0.047323454 -0.03687512 0.09039713 0.120570995 0.0020471876 0.0677296 0.003473822 -0.030095851
0.037294272 -0.027204894 0.010760203 0.018207487 0.093384735 0.038290467 0.008909576 0.031379372

network_body._body_endoder.seq_layers.2.weight f4 [256, 256]
00000000: aed9 b43c 4e0b 1cbe a9eb 8c3d 393d b23d
00000010: afe0 18bd f589 d1bb 34bc 0bbd b700 57bc
00000020: 9d5f fbbd 53f7 d5bd 1fd8 893c acad 92bd
00000030: b9b6 973b acdb bcbd 7fdc 083d b8f1 0d3d
00000040: 57e9 4f3b f919 953d edc4 a4ba 8769 9dbd
00000050: dc2d 78bc 7cbc a9bb d89d 7d3d ff9f a03c
00000060: a408 ffbb 287d 6ebd a134 2a3c 6d9b 063d
00000070: a318 62bc 1673 20bd 4e18 84bd 06e7 c0bd
00000080: 1d8f 97bc 5ead 0e3a 7635 a639 ae2d 85ba
00000090: 96b7 70bd 6181 52bd e990 f43b 451c f93c
000000a0: 34e7 343d 468d 82bd c27a 3dbe 7039 b0bd
000000b0: 6e7e 943d b0cb 0ebc 5faa 0cbe f86b 013e
000000c0: f4b3 7abd 33b0 debd d914 473c 7649 623d
000000d0: 4aaf 8bbc 06fb 683b a562 273d ceef cabc
000000e0: a28b b6bc 754f 333d 5eef 1c3d c8c8 c53b
000000f0: 4e64 afbd c2ca 863d 3614 0dbe b5f9 31bd
00000100: d045 093d 272c 103d 7eed 083c a5ec caba
00000110: ddf4 95bd 5aaf 263d 6aa9 9cbd 1244 03bd
00000120: 5c73 8abd 0843 973b 3636 133e 2bc9 793d
00000130: 5121 8a3d d780 033e 6d38 4c3c cd17 b7bd
00000140: 8ba9 923d 3fba 1c3d 4219 b13d 5c38 653d
00000150: 0436 cebc 2a45 cfbd 10c0 74bd 5a33 53bc
00000160: 668a d53d fce8 acbd 6f84 993d 0c9b 103e
00000170: 2dc3 163d fc0e ccbd 2e47 9abd bc49 313c
00000180: 61af 0ebd 7ec2 75bd 0703 a1bc d2b3 103d
00000190: 0f54 9a3d aa84 c2bd 9baa 3f3b 867f 2cbc
000001a0: d6fe fbbc 7b9f f93c 4636 39bb 1e4a 923d
000001b0: 2184 29bd f069 023e 33c4 a1bc a143 933d
000001c0: 7801 183e a1b0 003e 6f45 b2bd 008c 02bd
000001d0: bcc1 05be e377 99bc 1f3d 003d 22b9 30be
000001e0: 3efb b5bd 3af5 f7bb 8615 3c3c bbff 99bd
000001f0: a32e 71bd 2cdb a73c ed5b 3c3d 4aec 10bd
00000200: 65f7 843d 6b11 7fbd f74c 19be ad79 ea3b
00000210: 145b 883c dde7 153e 48ad 80be b00e ca3c
00000220: d69e 243c a05d 5abc ac38 f33b e311 e1bc
00000230: d69f 863d 6329 243c 02ef ebbc a380 94bd
00000240: b583 283d 25f9 b43d e343 12bd ef66 3c3d
00000250: aa75 0b3a 8c22 23bd 1791 9b3c 2fff 20bc
00000260: ca50 ab3d 60b6 b7bd 8309 dabd 1627 07bd
00000270: 88ef 81bc 7d35 2a3a d808 6b3d e1f2 113a
00000280: f36f 75bd 7e93 263b d659 60bb fd2f a33d
00000290: 216d 08bd 11c2 ee3c 3fb4 413d ab91 ef3d
000002a0: f8bf 983d 145f 8ebd bec4 b8bd 7785 5bbd
000002b0: e672 ca3d fd26 f53d bbca 6c3d e75c bdbd
000002c0: b292 5e3d 19e0 f9bc 9ad8 a3bd cfad 953d
000002d0: 1b3a b43d f652 0f3e 969e 5e3d d7ce b23d
000002e0: 7ac2 bfbd 8e0d d2bc 85f8 89bd d213 e43b
000002f0: cddb ef3c 43f2 613d 79a2 003d d550 10bc
00000300: c2fb 0d3d 7c64 c9bc 1156 abbb 93b8 a4bd
00000310: c7f9 99bd 0b97 8abd c6f7 0ebe 1d5d e0bd
00000320: 64b5 e5bb 20e7 703c e248 76bd 8fa7 fb3c
00000330: 78df 2a3d 35c2 033b 60cd 893a 2050 8d3d
00000340: 0d48 0a3c 0795 51bd 3d8b 413d 6a7f b5bc
00000350: f19e 3abc f53c 5abb c8f2 743c 5ed1 c13d
00000360: 3f8f 383c bac0 a4bd 4c89 d03c 2f98 383b
00000370: 6208 36bd 14c4 b7bc efe7 85bd ccb8 1b3e
00000380: 1eea 1e3d 2ac6 e3bc 71e3 9f3a a338 78bd
00000390: c391 f93d 1ab3 653d e4d9 653c a3aa 0d3b
000003a0: c2cf 5f3d 62b0 b83a 4c24 50bd fa49 963d
000003b0: 6d11 79bd 987b e9b6 5a99 6cbc 8a91 c6bc
000003c0: 7e15 d13d 6af3 7a3d d434 06bd fff9 173e
000003d0: b3fb c03b 5044 06bd 7014 173b 068b 8ebd
000003e0: 442f 9bbd 9c30 a23b 2376 d53d 4d8f 8cbc
000003f0: 6767 a4bd 70bd f03d 54a0 173d 07ce cbbd
0.022076454 -0.15238687 0.06880886 0.087030835 -0.03732365 -0.0063946196 -0.03411503 -0.013122729
-0.12274096 -0.10447564 0.016826687 -0.071620315 0.0046299365 -0.092215866 0.033413406 0.03465435
0.0031724775 0.072803445 -0.0012570895 -0.07686143 -0.0151476525 -0.00517994 0.06191811 0.019607542
-0.0077830125 -0.058224827 0.010388524 0.03286307 -0.013799819 -0.039172255 -0.06449948 -0.09419064
-0.018500859 0.0005442704 0.0003170182 -0.0010160708 -0.05876883 -0.051392917 0.0074635637 0.030408988
0.044165805 -0.06374602 -0.1850386 -0.08604705 0.07250677 -0.008715555 -0.13736866 0.12638843
-0.061206773 -0.10873451 0.012150967 0.05524584 -0.017051358 0.0035550012 0.04086556 -0.02477255
-0.022283379 0.043776948 0.038314216 0.006035898 -0.085640535 0.06581642 -0.13777241 -0.04345103
0.033513844 0.035198357 0.008357404 -0.0015481903 -0.073220946 0.040694572 -0.07649501 -0.03204734
-0.06760284 0.004616145 0.14376149 0.060982864 0.06744636 0.12842117 0.012464625 -0.089400865
0.07161244 0.038263556 0.08647396 0.05596195 -0.025172241 -0.10120614 -0.059753478 -0.012890661
0.10426788 -0.08442876 0.07495963 0.14121646 0.036807228 -0.099637955 -0.07533108 0.010820802
-0.034835223 -0.059999935 -0.019654764 0.03532774 0.07535564 -0.0949796 0.0029245976 -0.010528451
-0.030761164 0.030471554 -0.002826111 0.07143043 -0.041385774 0.12735724 -0.019746875 0.071906336
0.1484431 0.12567379 -0.0870465 -0.031871796 -0.13062185 -0.018733924 0.03130829 -0.17258123
-0.08885811 -0.007567075 0.011479741 -0.0751948 -0.058882367 0.020490251 0.045986105 -0.035381593
0.06492499 -0.06227247 -0.14970766 0.007155618 0.016644992 0.1463923 -0.25132203 0.024665207
0.010047635 -0.013327986 0.0074225273 -0.02747435 0.06573455 0.010019633 -0.028800491 -0.07251098
0.04114123 0.08836583 -0.035709273 0.045996603 0.00053199625 -0.03982787 0.018990083 -0.0098264655
0.08365019 -0.08970332 -0.106463455 -0.03299626 -0.015861288 0.0006492956 0.05738148 0.0005567503
-0.059921216 0.0025417502 -0.0034233234 0.079681374 -0.0333072 0.029145272 0.047291037 0.11697706
0.0745849 -0.069517285 -0.090219006 -0.05359408 0.098851964 0.11970327 0.057810526 -0.09246235
0.05433912 -0.030502366 -0.08000298 0.07308542 0.08800145 0.13996491 0.054350458 0.08730858
-0.09363265 -0.025641229 -0.067368545 0.0069603706 0.029279614 0.05516268 0.031404946 -0.008808334
0.034663923 -0.024584047 -0.005228766 -0.08043017 -0.07518344 -0.067670904 -0.13961706 -0.1095526
-0.007010149 0.014703542 -0.0601281 0.030719547 0.041717023 0.002010477 0.0010513477 0.06900048
0.00844003 -0.051167514 0.04725193 -0.022155482 -0.011390434 -0.0033300493 0.014950462 0.09463762
0.011264621 -0.08044572 0.025456093 0.002816688 -0.04444159 -0.022432365 -0.065383784 0.15207213
0.03879749 -0.027804453 0.001219852 -0.060600888 0.12186005 0.056079008 0.014029 0.00216166
0.054641493 0.0014090652 -0.050815865 0.07338329 -0.060807634 -6.9583293e-06 -0.014440859 -0.02423932
0.102091774 0.061267294 -0.032765225 0.1484146 0.00588938 -0.03277999 0.0023052953 -0.0696011
-0.075773746 0.0049496423 0.104229234 -0.017158175 -0.08027535 0.11754882 0.037018135 -0.09951406

network_body._body_endoder.seq_layers.2.bias f4 [256]
00000000: 2f2b e4bc b7f4 493d e812 e2bb 4a15 cf3c
00000010: 1b6c 3e3d 68a2 6c3c 80d1 9a3c 8d16 90bb
00000020: b8de 993d ac6f 05bd 10bc 843d ce3c a6bb
00000030: fd9b 9f3c 1fb2 143d 9b0f 0e3c b931 acbc
00000040: c21a 4cbc b537 9339 537c c63d b317 953d
00000050: 2e75 943d a503 c23b f38b bc3c f174 c93b
00000060: 6316 10bd 3db0 3a3d 7bb7 2b3d 427a a93c
00000070: 8b7a 163d 28c9 a53c f389 413c a420 86bc
00000080: b4ec 4f3d 7fdc 3f3a 451c 76bc 49a7 093d
00000090: 748c 073c ce36 a1bc eb78 5b3d d4bb 1b3d
000000a0: e541 bf3c 2ab5 6e3c 07ed 423d 6834 3a3d
000000b0: 73b4 dc3c 1b07 b0bc e1af 5e3c df8c 6cbb
000000c0: 0db8 b43c 7307 d23c 8caf 0bbd 4ebb 213d
000000d0: c0a6 bc3c f3e9 963d d632 ad3c 2703 95bd
000000e0: e45c 0b3b 11ea 3dbc cfdb c7bc 3b87 bfbc
000000f0: 2bf2 88bc 1806 ffbc 26e8 333d 0c9e 963c
00000100: 2ce4 b53c b2af 2b3d 38e6 d03c 60a2 883c
00000110: b704 9c3c 8492 ecbb d95a 17bc 2705 483d
00000120: de0f cb3c 7ee6 39bd 7fcf c13c 71d7 903b
00000130: 9cb4 06bc 8d93 0b3d fa2f f43d 0b1f dd3b
00000140: 30d6 1d3b 8bce 0fbc f7f5 003d 9414 933c
00000150: 4dd5 1abd 676b a03c 6fff 10bd c04c 5c3b
00000160: 1d75 30bb 5c75 293d c813 643c 8332 c33b
00000170: f31a 8b3d 41ec 013c a54e 843c 7b99 3f3b
00000180: 6ce6 e13b e560 4a3d 1c53 51bc c5db 383d
00000190: d1c2 e6bc 6b5d f43d 1e31 49bc f0b4 e6bb
000001a0: fd0e b43d 7b91 61ba b0c5 0fbd 38be 813c
000001b0: 9989 5bbc 3d4e a43d f105 793b be98 b93c
000001c0: 3a2b a8bc 7721 ca3b 5cd1 d5bc 6ffe e13c
000001d0: 9e53 bd3b 95f6 ea3d 3691 2b3d 7fe0 263b
000001e0: 9c2e 7f3b 64ba 173c 5eb3 d0bc 8e88 813d
000001f0: d000 50bc 8944 23bd 2bf3 c23d 0a22 653d
00000200: 616b eb3b ba49 8d3b c884 c63c f15a 183d
00000210: 97ad 8b3d 97e9 1b3d 8a69 ed3c e1ee 593d
00000220: 9960 31bc cf93 3c3d 2317 0cbd b4e1 19bd
00000230: 0722 53ba 41a2 a73a c392 c2bc 0d77 183d
00000240: 8349 a9bc f1ed ceb6 d197 993c 05a3 ff3b
00000250: c8ec 0f3d 34e5 d53b fd53 cb3d 873c 633d
00000260: da1e 163c 6b7e 4b3c a061 b1bc 9bed 37bd
00000270: 3aec e83c 21a0 853c 76a9 023d e915 b6ba
00000280: 23c4 313c d511 a13c 3aa3 653c a8f8 6e3d
00000290: 371d 903d 15e4 36bd 4b65 a33b d9f9 19bd
000002a0: b4f1 553c 9bc2 15bd 261b 38bc 59f6 833d
000002b0: b1e9 833b 78fc 0a3d acbe 233c 51c0 77bc
000002c0: 6cf8 bfbc 53ef a4bc 5a77 25bc 6fdb f23b
000002d0: 201f 0b3c b28e a23d ec50 a5bc 7336 893d
000002e0: 6cce 0b3d 0cb5 0a3b e15e 88bc 4c29 82bc
000002f0: b1b9 71bc 62b9 c63d 5a8c 6d3d 21c5 f33c
00000300: 5fd0 893b 098b ce3c 3c80 d83c 2e83 803c
00000310: ecd1 803a a2e6 10bd 53d7 943c a7df cb3b
00000320: fbb4 f9bc 673f 2bbd fc4a 463d eb8b ee3c
00000330: 91df 5a3c b94c e33b 8cb0 2e3b 1b69 b8bc
00000340: b0a4 e63c 1756 7d3c 58dd 0a3d 4e4e 28bc
00000350: 3ecb d93d 24d0 1bbd 463c 0e3d 741f 983c
00000360: 620d 4e3d ed54 2b3b 1b60 d53c d2ba 233d
00000370: 01e1 263d c6bb 463c 3620 1e3d 773b 833b
00000380: 9351 0f3e d609 163d 2eb9 1b3d 593a 18bc
00000390: 6620 603c 138f 9e3b d17a 16bd 8c8b 7a3d
000003a0: 4a16 9fb9 621d 8bbb 6eb6 073d efd6 8d3c
000003b0: e021 eb3b 37b7 363d 9d59 003c 234c 07bd
000003c0: 5676 163d 1b29 523d d6b5 d43c c02d cd3c
000003d0: 12e8 1dbc f7fc 023c 600d c83c 9253 d7bc
000003e0: d260 123d e2c2 07bc f415 503d e943 8b3c
000003f0: 5030 323d a4fb 043d 42f5 003d ce74 d53c
-0.027852623 0.049305644 -0.0068992265 0.025278706 0.046489816 0.014443018 0.018898726 -0.0043972195
0.07513183 -0.0325772 0.064811826 -0.0050731665 0.01948356 0.036302682 0.008670713 -0.021019803
-0.012457551 0.0002807953 0.09691682 0.07279911 0.07248913 0.0059208446 0.023015952 0.0061479737
-0.0351776 0.04557823 0.041923027 0.02068818 0.03673796 0.02023752 0.011812675 -0.016372986
0.050762847 0.0007318928 -0.015021388 0.0336068 0.008273233 -0.019679453 0.053582113 0.038020924
0.02334685 0.01456956 0.04758933 0.045460135 0.026941514 -0.021487763 0.0135917375 -0.0036094708
0.022060419 0.025638318 -0.03410296 0.03948527 0.023028731 0.07368841 0.021142405 -0.07275992
0.0021265084 -0.01159145 -0.024396805 -0.023379913 -0.016717037 -0.031130835 0.043922566 0.01838591
0.022203527 0.041915603 0.025500402 0.016678989 0.019045217 -0.0072196145 -0.009237968 0.04883304
0.02478784 -0.04538583 0.023658512 0.004420214 -0.008221772 0.034076262 0.11923213 0.0067480854
0.0024083965 -0.008777271 0.03148457 0.017954148 -0.037801076 0.019582463 -0.03539985 0.0033615083
-0.0026925274 0.04137169 0.013920732 0.005956949 0.067922495 0.0079298625 0.016150782 0.0029235769
0.0068939235 0.049408812 -0.0127761625 0.045131464 -0.028169068 0.119318806 -0.012279777 -0.0070406124
0.08791921 -0.0008604747 -0.03510064 0.015837774 -0.013399505 0.08022735 0.0037997926 0.022655841
-0.020528425 0.00616854 -0.026100807 0.027587144 0.00577779 0.11472813 0.04188653 0.00254634
0.0038937693 0.009260748 -0.025476154 0.06324874 -0.012695506 -0.039860282 0.09519037 0.055940665
0.0071844314 0.0043117674 0.024233237 0.037196103 0.06820219 0.038064566 0.028980989 0.05320633
-0.010826253 0.0460394 -0.034201752 -0.037568763 -0.00080540817 0.0012789444 -0.023751622 0.03722291
-0.020664936 -6.1669784e-06 0.01874915 0.007801416 0.03513792 0.0065275673 0.09928129 0.055477645
0.009162629 0.012420277 -0.021652997 -0.044904333 0.028432954 0.016311707 0.03189989 -0.0013892028
0.010849985 0.019661823 0.014015967 0.058342606 0.07036822 -0.04465111 0.0049864403 -0.03759179
0.013058115 -0.036562543 -0.011236941 0.064434715 0.004025661 0.03393218 0.00999419 -0.015121535
-0.023433886 -0.02013365 -0.010099256 0.0074114124 0.0084913075 0.07937373 -0.020180188 0.066998385
0.034132406 0.0021165041 -0.016646804 -0.015888833 -0.014753745 0.09703328 0.057995178 0.029757084
0.004205748 0.025212782 0.026428334 0.015687551 0.0009828187 -0.0353762 0.01816908 0.00622173
-0.030481806 -0.041808512 0.048411354 0.029119452 0.013358966 0.0069366363 0.0026655523 -0.022511056
0.028154701 0.01546242 0.033902496 -0.010272576 0.106344685 -0.038040295 0.03472545 0.018569686
0.05030573 0.002614315 0.026046803 0.039973088 0.040741924 0.01212973 0.038604937 0.0040048915
0.13995962 0.036630474 0.038018398 -0.009291255 0.013679599 0.004838833 -0.03673822 0.06116824
-0.0003034345 -0.004245446 0.033132963 0.017314402 0.007175669 0.04460832 0.0078338655 -0.033031594
0.036733948 0.051308732 0.025965612 0.02504623 -0.009637849 0.007994882 0.02442044 -0.026284967
0.035736866 -0.00828621 0.050802186 0.017000156 0.043503106 0.032466546 0.031483896 0.026056673

action_model._discrete_distribution.branches.0.weight f4 [3, 256]
00000000: b321 213b 13bd 173b 501e 82bd 6441 0abd
00000010: 94c8 793c 7d53 9d3c c912 123c d8e4 2c3c
00000020: d9b2 543d 8252 76bc d17a 533d aecf b7bb
00000030: 5e65 283c 0374 51bc a6c7 ff3c 59c9 07bd
00000040: f5fd a13c 31b2 f9bc f15e 2f3d 2181 0d3d
00000050: baaa 183d d229 823c 16a6 9d3c 1584 65bc
00000060: 8769 bebb 7d02 303c 4350 8b3c cdae df3b
00000070: c43f e63c 8936 34bc faf0 993c dfd2 993c
00000080: 5892 973b 9280 93bd d79f 40bc a2ea ffb8
00000090: 1dc1 2abd bba3 6e3c 97e6 d63c 5aad 953c
000000a0: 7429 833c 46a4 203d 714d 503c fb37 aa3c
000000b0: 37c6 633b 1d3e f1ba 1e66 833c ef15 1c3c
000000c0: f867 943c 5d5d 473b 1570 793a 1e42 a73c
000000d0: 1447 94bb b09c 223d c5e0 07bc e43c f3bc
000000e0: 25f2 523c e975 a93c 3f9d d0bc b780 41bc
000000f0: ca55 0bbd 9cce b7bc 8986 cc3c 49d3 f13b
00000100: f68c 503c c5ed d03b f2c3 9fbb 3dec c83b
00000110: 9005 1a3b 58e8 5fbc 4639 5d3c b5d6 0d3d
00000120: 4ac4 a63c 130f 07bd 0f90 99bc 0703 debc
00000130: 4a8c b53b 50bb d93b 0ee6 1e3d 1448 053d
00000140: 2449 ecbc ddca 82bb 85e9 90b9 477e 4abc
00000150: ee61 e1bc c152 603b 6e15 a2bc 4c03 1b3c
00000160: cb54 77bc 2035 a03b f098 a1bb 095a 22bd
00000170: 5814 b13c 6546 003d 3b28 b9bb 6344 bb3c
00000180: d583 6cbb 4816 fa3c 38a2 2a3c 35f9 0b3c
00000190: 51b2 363c 99a1 6f3d 8922 fb3b 4c7c 843c
000001a0: 450a 0b3d 0e99 6a3c 8eaa 043b a298 05bd
000001b0: f0ce 1abc dcaf 023d ea8f 15bc 99d9 8a3c
000001c0: 827f 733c 6b09 babb 79f7 bcbc 3d17 803c
000001d0: 33f7 d4bb 0c30 4a3d 6468 89bb a8a6 823b
000001e0: a595 283a 6e9f 8ebc 5dbb 793c 02b3 e53c
000001f0: 0bd8 cabc 4deb bcbc fe03 293d a77f ef3c
00000200: e96c aebc 0789 023b 5372 afbb b6e4 d43b
00000210: 978f 1a3d e044 da3c 2b01 3a3d 6f7c e139
00000220: a66f d53b 1427 4b3c b836 89bb ae10 e2bb
00000230: dfb0 b03c 98e1 303c 9301 a1bc fefc a73b
00000240: 7bf6 86bc 3504 a9bb b172 3f3c 36a2 16bc
00000250: b60a 7b3c f35d 0d3c bb0c 2f3d 06fe 053c
00000260: 7867 f03b b91b 18bc 6451 edbc c701 62bd
00000270: 4ca4 963c 5193 1d3b 30b9 183c eed5 c63c
00000280: 1a11 10bc 6fbb 03bd 37a5 14bc f95f debb
00000290: 9e1b ce3c c73d ffbc 615c 603c ec75 6cbc
000002a0: 6170 6dba acf3 7abd ac8a c5bc 0668 1f3d
000002b0: 45ac f63c 52fd ddbc 159f 913c 0a38 50bb
000002c0: 233a 2d3c a3b6 93bc ac4d 863c 49d4 d93b
000002d0: 2266 4d3c fa77 4f3d ef3f 863c c0d5 013d
000002e0: 845f 463c 672d 183d 64b7 553c 1750 643c
000002f0: 7fc4 ec3b 0b68 0b3d cc88 e43c 094e 1cbd
00000300: ef7c a83b 1b62 09bd 022a 743c e778 fc3c
00000310: 19ae 2e3c accc 47bb 5974 5cbc 2c41 be3c
00000320: 80d9 3dba 1aa7 e3bc 8b3e 6a3c b896 48bb
00000330: 2d66 80bb cf64 82bc fec4 57bb 9fd7 7a3c
00000340: 2dff ec3c ef13 c53c 257a 5f3c 6bbf e5bb
00000350: 1081 193d aa4b f63b 1195 88bc 6fc3 10bc
00000360: 33cb a53b 4d4f 133c 39f2 013c 930f 973c
00000370: abe1 6b3c e6eb 553a 206a 003c 746b a13c
00000380: 8314 693d d846 cf3b 285b af3c babb 02bc
00000390: 0562 263b 6e6d 363c 0ca4 0bbd f252 d53c
000003a0: 6d18 663c 4c74 1c3c 927e 3d3c 7f55 c43c
000003b0: 16c6 70bc aed5 31bc f01d d5bc 9049 02bc
000003c0: 1b01 013d 91e0 d33c 231f a3bc eca6 4dbd
000003d0: e15c a2bc 16bf 753c 1ef8 c43b 1616 2abd
000003e0: 8185 26bb ad75 143d 92ba 933c 5b47 08ba
000003f0: 6b5c b03b 1057 11bd 4965 c53c 501e 3c3b
0.0024586737 0.0023153469 -0.06353438 -0.033753768 0.015245575 0.01920485 0.008915612 0.0105526075
0.051928375 -0.01503432 0.0516308 -0.005609474 0.010278074 -0.012784007 0.03122313 -0.033151004
0.019774416 -0.030480476 0.042815153 0.034546975 0.037272193 0.015889082 0.019244235 -0.014008542
-0.0058109197 0.010742781 0.017006045 0.006826258 0.028106578 -0.01099933 0.018791664 0.018777309
0.0046256 -0.07202257 -0.011756859 -0.00012203051 -0.041688073 0.014565404 0.026233 0.018271137
0.016010977 0.039219163 0.012713776 0.020778647 0.0034755596 -0.0018405352 0.016039904 0.009526714
0.018115982 0.003042064 0.0009515298 0.02041727 -0.0045250747 0.03970021 -0.008293335 -0.02969212
0.012875115 0.020686107 -0.025465606 -0.011810473 -0.03401736 -0.022437386 0.024966495 0.0073799235
0.01272892 0.0063760006 -0.0048756534 0.0061316774 0.002350185 -0.013666235 0.013502425 0.03462859
0.02035727 -0.03297336 -0.01874545 -0.027101053 0.0055404054 0.006644644 0.038793616 0.032539442
-0.02884347 -0.0039914683 -0.00027639806 -0.012359208 -0.027512517 0.0034229013 -0.01978561 0.009461235
-0.0150959 0.0048891455 -0.0049315616 -0.039636645 0.021616146 0.031317133 -0.005650548 0.022859758
-0.003608932 0.030528203 0.0104146525 0.008543302 0.011150912 0.05850372 0.007664029 0.01617255
0.03394534 0.014318718 0.002024326 -0.032616265 -0.009448752 0.031905994 -0.00912855 0.016949462
0.014861943 -0.0056773922 -0.023067223 0.01563608 -0.006499195 0.049362227 -0.0041933525 0.003987152
0.000643099 -0.017410006 0.015242425 0.02803946 -0.02476122 -0.023061419 0.041263573 0.029235674
-0.021292167 0.00199181 -0.0053542047 0.006496991 0.037734594 0.02664417 0.04541127 0.00043008054
0.0065135537 0.012399454 -0.004187431 -0.006898961 0.021568714 0.010795973 -0.019654071 0.0051265946
-0.016474953 -0.005157972 0.011685059 -0.009193948 0.015322378 0.008628356 0.04273675 0.00817824
0.007336553 -0.009283953 -0.028969474 -0.055177476 0.01838889 0.0024044106 0.009321496 0.024271931
-0.00879314 -0.032161172 -0.009072593 -0.006786343 0.025159653 -0.031157387 0.0136939 -0.014432412
-0.0009057578 -0.06126754 -0.024113975 0.038917564 0.030111441 -0.027098332 0.017776052 -0.0031771683
0.010572943 -0.018031424 0.016394459 0.006647621 0.012536557 0.050651528 0.016387908 0.03169799
0.012107734 0.037152674 0.013044212 0.0139351105 0.0072255726 0.03403477 0.027897261 -0.038160358
0.0051418464 -0.033540826 0.014902594 0.03081937 0.010661625 -0.0030486984 -0.013455474 0.023224436
-0.0007242188 -0.027789641 0.014297138 -0.0030607414 -0.0039184303 -0.01591721 -0.0032923813 0.015310197
0.028930271 0.024057357 0.013639961 -0.007011344 0.0374766 0.007516344 -0.016672643 -0.0088356575
0.0050596236 0.008991075 0.007931286 0.018440044 0.014397065 0.0008160457 0.007837802 0.019704558
0.056904327 0.006325584 0.021405771 -0.007979328 0.0025388014 0.0111344885 -0.034091994 0.026040528
0.0140439095 0.009549212 0.011565821 0.023966549 -0.014695665 -0.010854168 -0.026015252 -0.007952109
0.031495195 0.025863918 -0.019912308 -0.050208017 -0.019819679 0.014999172 0.006011023 -0.04152497
-0.0025409164 0.036245037 0.0180333 -0.0005198621 0.005382111 -0.03548342 0.024096148 0.002870459

action_model._discrete_distribution.branches.0.bias f4 [3]
00000000: 4021 0c3d ba67 ab3c 20b0 68bd
0.034211397 0.020923484 -0.05680859

action_model._discrete_distribution.branches.1.weight f4 [3, 256]
00000000: f47d 223c b928 48bb 5446 b0bc cdcf 8e3b
00000010: 576b 863b 9292 e7bb 227b ccba 77e7 633b
00000020: e27d b43c 747c 243c 342a df3b 9069 873c
00000030: 1c04 9e3b 816b 8cbc 3483 653c 8edc 7cbb
00000040: 1249 d3bb b5bf 0fbd 2676 173d e6b6 83bc
00000050: c4f0 e23b d6c7 593c faab 92bc 114f b53c
00000060: 4cd9 83bb 3897 9d3c a891 26bc e863 0abc
00000070: e82a d8bb bb86 213d b08e bc3c 3d33 343d
00000080: 82eb eebb 515d cb3b ec0d afbc 1042 8b3c
00000090: b0c4 ffbb cf57 933c 95a1 213c 94aa 3cbc
000000a0: 2234 a93b 9db2 69bc 0c67 87bc e07b d83c
000000b0: e187 3d3c b026 7d3c 8cc5 fcbb 7f94 bcbc
000000c0: 3772 013d 5b33 133b 699d dd3b 6d64 a9bb
000000d0: 92b1 01bd 9bbb b73b 124b 5d3b f052 a43c
000000e0: 4400 5fbc 37e2 eb3c 2fed 053d 8d12 40bc
000000f0: 3881 bcbc bc68 6dbc d7c2 273d 5da9 18bb
00000100: 8847 c93c 667f 733c 1326 ef3b bdcf 3cbc
00000110: b56f 903c 7df3 c5bc 9ceb afbc c3fd 653a
00000120: d9e2 62bc b9b9 9fbb 6bd1 4d3d 73cc 7c3c
00000130: 95fa 7f3c 6837 9c3b d0d2 b73c e7cd a93c
00000140: 155c 86ba 55d3 98bc d13a b1bc 5d91 4ebc
00000150: 04ab 0a3c bfa2 c43c 8356 f93b 17bf b8bb
00000160: fcee fcbc 4627 bbbc 2eb9 ceba e7c6 89bc
00000170: 8065 90bc a6c2 243d 2c7d bdbc 70bd 8f3b
00000180: 5b25 6abc 8cbe 073d b243 1e3b c413 8fbb
00000190: c2ed ac3c b862 8f3c fd86 96bb 161d 1f3c
000001a0: 5fb8 8b3c f647 95bc a367 bf3b f403 bd3c
000001b0: 60b3 24bc 9c94 ffb8 ff7f 3b3c f212 05bc
000001c0: 83b5 b73c 06e0 163c ea20 d9bb 3d35 00bd
000001d0: 5ca1 c5bc c3d2 493c a20e fc3b 633a 673c
000001e0: 8f21 3a3c 0a27 2f39 dd56 5a3b 22f6 33bb
000001f0: 848c f73a bb36 2a3c 69bf 14bb aa96 e7bb
00000200: 9ef6 23bc a00a c3bb 6704 7dbb 0c8b 8d3c
00000210: ff41 7d3a 6c29 91bc e1d5 023b f1bf 703b
00000220: 1e76 093d f283 c6ba b4c6 143d ce3f 143c
00000230: c964 cabc 5398 abbc f0f0 2b3c e9b2 65b8
00000240: 1f76 c83c 6d3c 1a3c 4a04 f43c d95e 013c
00000250: 50f7 afbc b314 07bc 9dd2 1bbc 9d97 243c
00000260: 568d 123c 4770 073d 2d85 583c ddcc 9cbb
00000270: 4c27 2038 7d09 2bbc d42b d23a 34d2 d5b9
00000280: a20e c8bb 95f6 1ebc cb39 ca3c 8c3b 053c
00000290: c2db 353c e4a9 463c 01bb 8d3c 170e 973c
000002a0: 34e9 e83a edbb 3fbc 95c9 bbbc c49f 8fbc
000002b0: ec00 22bc c678 833c f5c8 b4bc 8c04 4bbb
000002c0: 4c01 8bbb b0d2 06bc f3a3 353b dc40 2d3c
000002d0: 6ad3 00bc 9179 67bc 463d f8bb c9a8 653c
000002e0: c4de 33bb 17d0 3f3c aa21 d23b ae66 47bc
000002f0: fe3e f23b 9f60 303c 566d 0fbc 518b e03a
00000300: e934 b7bc 7cdc 443c 5371 a4b9 76f7 5dbc
00000310: a43a ca3c 4cc8 a33c b73d ad3c 3feb 103c
00000320: ca49 efbb d84e 343c 11f7 8a3b 820f 02bd
00000330: bdfd f23c da3d 03bc a393 72bc 2266 d23a
00000340: 4012 87bc ded3 56bb 55f2 3c3c b656 2f3d
00000350: cd99 003c e12e 883c 30e5 a13c 0f43 9d3b
00000360: 43c2 843c e73a 753c 4ce1 a4bc 0b4a e2bc
00000370: 8766 7d3c 890b 493c 63ea 06ba d630 cebc
00000380: 2392 743c 1c3d 1e3c 3457 973c 1418 3cbc
00000390: 9f8e 5fbc ba59 1b3c 15f2 a03b 1149 eabc
000003a0: 8f50 563c 90c9 193d fc59 27bb 6bd8 db3c
000003b0: 3534 5dbc 17ac 6b3b 838d d83a cc9c aa3a
000003c0: c2af a9bb 6fef 0abc b4eb 98bb f8d6 46bc
000003d0: fffd abbb 4f08 313d 6cda e73b a049 3d3b
000003e0: ec10 a13c 716a 35bc 00ed fdba eed4 c03c
000003f0: 5dff 273b 9cc4 453c f7af f73b 9a53 22bc
0.009917725 -0.003054185 -0.02151791 0.004358268 0.0041021514 -0.007067033 -0.0015600661 0.0034775415
0.022032682 0.010039438 0.006810451 0.016529828 0.004822267 -0.017141106 0.014008332 -0.003858361
-0.0064479196 -0.035094935 0.03697791 -0.016078424 0.006925674 0.0132922735 -0.01790427 0.022132428
-0.0040237065 0.019237146 -0.010166563 -0.008446671 -0.0065969117 0.03943513 0.023017257 0.043994177
-0.0072912583 0.0062061925 -0.021368943 0.016999274 -0.0078054294 0.017986206 0.009865184 -0.011515278
0.0051636854 -0.014263776 -0.016528629 0.026426256 0.011568041 0.015451118 -0.007713979 -0.023020027
0.031603064 0.002246103 0.0067631495 -0.0051694424 -0.031663485 0.005607081 0.003376667 0.020059079
-0.013610903 0.028794391 0.0326969 -0.011723173 -0.023010835 -0.014490303 0.040957298 -0.0023294308
0.024570242 0.014861917 0.00729824 -0.011524138 0.017631391 -0.024163956 -0.021474652 0.000877347
-0.01384803 -0.004874435 0.050248545 0.015429604 0.015623708 0.004767347 0.02243939 0.020728065
-0.0010250831 -0.018655458 -0.021634491 -0.0126078995 0.008463625 0.024003385 0.00760919 -0.005638014
-0.030875675 -0.022845875 -0.001577174 -0.016818477 -0.017626524 0.040224694 -0.023130976 0.0043865964
-0.014291133 0.033140704 0.0024149236 -0.00436637 0.021109466 0.017503127 -0.0045937286 0.0097115245
0.017055688 -0.01822279 0.005841212 0.023073174 -0.010052532 -0.00012187028 0.011444091 -0.008122193
0.022425419 0.009208685 -0.006626238 -0.031300772 -0.024124794 0.012318316 0.007692174 0.014113042
0.01136054 0.00016703844 0.0033315935 -0.002745994 0.0018886481 0.010389025 -0.0022697097 -0.007067521
-0.010007529 -0.0059521943 -0.003860736 0.017278217 0.0009661018 -0.017719947 0.0019963908 0.00367355
0.03355991 -0.0015145524 0.03632231 0.009048415 -0.024706261 -0.020946657 0.010494456 -5.4764478e-05
0.024470387 0.009413821 0.029787201 0.007896149 -0.021480232 -0.008244681 -0.009510663 0.010045913
0.00894483 0.03306606 0.013215345 -0.004785164 3.818357e-05 -0.010439274 0.001603479 -0.0004078314
-0.00610526 -0.009702344 0.024685761 0.008131873 0.011099758 0.012125466 0.017301084 0.018439336
0.0017769695 -0.01170252 -0.02292327 -0.017532237 -0.009887915 0.0160488 -0.02206848 -0.0030978052
-0.004242098 -0.008228943 0.002771613 0.010574546 -0.007862905 -0.014128105 -0.0075756637 0.014017292
-0.002744601 0.011707327 0.0064127045 -0.012170477 0.007392763 0.010765224 -0.008754095 0.0017131363
-0.022364097 0.012015458 -0.0003136495 -0.013547769 0.024686165 0.01999297 0.021147592 0.00884515
-0.0073024975 0.011005126 0.0042408784 -0.03175307 0.029662007 -0.008010352 -0.014805707 0.0016052166
-0.016488194 -0.0032780091 0.011532386 0.042807303 0.007849169 0.016623916 0.019762605 0.004799254
0.016205912 0.014967657 -0.020126961 -0.027623197 0.015466339 0.012270817 -0.00051466207 -0.025169771
0.01492742 0.009658124 0.018474199 -0.01148035 -0.013644843 0.009481842 0.004911671 -0.028599294
0.01308073 0.03754574 -0.0025535813 0.026836595 -0.013501217 0.0035960728 0.0016521666 0.00130167
-0.0051784227 -0.008479937 -0.00466677 -0.0121362135 -0.0052487846 0.043220814 0.0070755985 0.0028882995
0.01966139 -0.011072741 -0.0019373 0.023539033 0.0025634386 0.012070801 0.0075588184 -0.0099076275

action_model._discrete_distribution.branches.1.bias f4 [3]
00000000: cf35 21bc ebaa 9d3b 5c39 aa3b
-0.009839489 0.004811635 0.005194826

action_model._discrete_distribution.branches.2.weight f4 [3, 256]
00000000: ac42 153b 5ff7 c73b fcac fe3c d2dd 1f3d
00000010: a9c2 f53b 74a4 7ebc dec2 143c 71ba 00bc
00000020: 4ba1 093d 1fae 773a 0e9a 873c 78ab 2bbd
00000030: 3b42 e03c 8771 783d bbfe 15bc 51fe f8bb
00000040: 8c43 cabc 0443 9a3c 4b34 e43c df9a c53c
00000050: 9f71 10ba bf34 6cbb 7206 1d3c 3fb2 263d
00000060: c6a8 56bc ebd6 a3bb 13fe ebb9 375e 6ebd
00000070: f012 083c 2a47 973c 409c 47bc f7d0 e4bb
00000080: 0dd7 6fbc 6d48 093d 3085 78bd 375b 01bb
00000090: fc29 62bc aecf 98bb 154f 403c 2b2b d03c
000000a0: 0e95 b73b 1fdc 56bc 4c59 32bc 7c76 e43c
000000b0: a2bf 56bc 528e a5bc 0c08 ec3b 1711 92bc
000000c0: 63b3 b1bb 9372 a3bc cffe 29bc 9acf cfb9
000000d0: f75a b53c 3429 043d eb65 853c 84ff 09bd
000000e0: 4050 e9bc f0dc c8bc 477a e6bc a2bb 12bb
000000f0: 84e5 9a3a 1f92 cfbc ec67 083d 8fed 31bc
00000100: 2929 843c c71b e33c 4642 4bbc 63a4 c43c
00000110: be6f da3b a672 32bd c5c4 f9bb 390c 2f3c
00000120: 184e 2ebc 1959 3bbd 88e8 3c3d c1f6 c43c
00000130: 3272 96bc 5145 003d 2aff 0c3d 3798 61bc
00000140: ead6 c6bc 191d c93c 46b9 ac3b cc18 083d
00000150: 7de7 50bd 2814 b33b 7e66 0b3c 0aff 0fba
00000160: 8fdf 5f3c 33aa de3c 1c5e bb3b c24a 273d
00000170: 028d 0d3d eb16 853b 63d6 8bbc da24 94bc
00000180: b406 5bbd 8580 6c3c 192a b2bb 77a2 efbb
00000190: 6c6d 8ebc e322 fb3c db85 e23c f986 183c
000001a0: 4c89 353d f44f f3bc c9d1 053c f23b 023c
000001b0: 1df5 00bc 9412 963c 4958 9cbc 4443 47bb
000001c0: 5ac0 35b7 cb20 f4bc 331b 9bbc a3b2 283d
000001d0: df0d 8c3c f78f 013d 75fa 203c a1df b83c
000001e0: 0cef 9abc d28a 3e3d 2011 35bd 8c2e 893c
000001f0: 67ea 26bc 37fe a2bd 5cb5 06bc 932d b5bc
00000200: c540 473a f996 363b 4733 133d 9e9c 323c
00000210: b4d4 333c 4c1b 923c 6f4f 25bd 0f91 a13b
00000220: 0d5a f8bc 4570 ad3c 35ef 3a3c 8bb6 24bd
00000230: 8474 86bc 12c3 30bb e3ed 723c 54c5 ab3c
00000240: c1be ffbc 69c4 6bbb ef03 d93b 8ba5 fb3c
00000250: 8fcd 033d 5a9f ff3b 0e2a fe3c 2dd4 ccbc
00000260: 3966 593c 1938 513c 4da4 5f3c 1cfe c1bb
00000270: 1d95 ba3b ae93 a03c ed25 0b3d 49d7 b53c
00000280: 3627 063c f0f0 b4bb 21d7 84bc 2afb 5f3d
00000290: e6b3 ca3b ff8f 06bd b764 fd3b f40f 2dbc
000002a0: f824 373c 6874 61bc 85e8 91bc 48af c03c
000002b0: c119 373c bd55 163c f7a0 08bc f2de 75bc
000002c0: f9f5 bfbc 769c 9abb e19b c8bc 58a4 b9bc
000002d0: d5a0 293c 69e0 913c 06e3 34bc e7aa 053d
000002e0: 88f6 80bb 61fb 36bc f582 0abd ae75 3dbc
000002f0: 053d 0b3c ece7 4c3d d7d6 d6bc b846 883a
00000300: 5c0c 5dbc 63d7 0e3c a937 46bb cefa e63c
00000310: bcbc 04bc 233c d13b b6fe 76ba 0f14 78bd
00000320: dd52 99bc c075 91bc 42c5 c03c 296c 293b
00000330: 5401 f83b ce56 b3bc d3d8 63ba 24c4 e33b
00000340: 6e7c 9b3c 0a57 2b3c c2ec e93c 106e 4ebb
00000350: 46b6 053d f282 76bb 16f1 4d3d a9a8 a23c
00000360: 12a6 3f3d 12c2 a13c eba6 ac3c 6961 f33c
00000370: c350 38bd 1e81 6a3c b47e 0c3c 7185 a73b
00000380: ef66 553d e8ec 3e3c ea39 57bc 7b47 893c
00000390: 1f94 3c3a 73de 3abc 9bca 82bc 88b1 4e3d
000003a0: 2c35 51bb 7c48 21b9 a804 3a3d c620 46bc
000003b0: 8101 bbb9 071b ad3a 26c8 39bb 3851 87bc
000003c0: 1d9d 9cba ccfc a23b 209a 523c aa07 c13c
000003d0: b0dc a83c ce83 2a3b 1875 bcbb ac38 223a
000003e0: 7fdb 803b dcd0 0abc 39c9 98bc 4ae4 393b
000003f0: 7445 a03c d7f4 863c 458b 443a 3a9c a93c
0.0022775335 0.006102487 0.031088345 0.039029904 0.007500012 -0.015542138 0.009079663 -0.007856951
0.033601087 0.00094482483 0.016552951 -0.041911572 0.027375331 0.060655143 -0.009154971 -0.0075986763
-0.024690412 0.018830784 0.027856966 0.0241217 -0.0005510095 -0.0036042181 0.009584056 0.040697332
-0.013101762 -0.0049999855 -0.00045011993 -0.05819532 0.008305296 0.01846655 -0.012183249 -0.0069829184
-0.014638674 0.033516336 -0.060673892 -0.0019738206 -0.013803955 -0.004663429 0.011737605 0.02541121
0.0056024855 -0.013114004 -0.010885548 0.027888529 -0.013107212 -0.020209465 0.0072031077 -0.017830415
-0.005422996 -0.019952094 -0.0103756925 -0.00039636792 0.022138102 0.032265857 0.01628395 -0.033690944
-0.028480649 -0.024519414 -0.028134478 -0.002238967 0.0011817669 -0.02533823 0.033302233 -0.010859861
0.016132908 0.027723206 -0.012405938 0.024004167 0.0066661527 -0.04356637 -0.0076223337 0.010684066
-0.010638736 -0.045739267 0.046120197 0.024043443 -0.018365 0.031316105 0.03442303 -0.013769201
-0.0242724 0.024550008 0.0052711098 0.033226773 -0.051002014 0.0054650493 0.008508323 -0.0005493021
0.01366414 0.027180767 0.005718006 0.04084278 0.034558304 0.00406157 -0.017070001 -0.018083978
-0.05347319 0.014434938 -0.0054371473 -0.0073130685 -0.01738616 0.030656284 0.027651718 0.009309524
0.04432039 -0.02970121 0.008167692 0.007948862 -0.00787094 0.018319406 -0.019085066 -0.0030405084
-1.0833226e-05 -0.029800793 -0.018933868 0.041185986 0.017096458 0.031631436 0.009825339 0.022567572
-0.018912815 0.046519108 -0.044205785 0.016745828 -0.010187722 -0.07958644 -0.00822195 -0.022116458
0.0007600899 0.0027860983 0.035937574 0.010901598 0.010976005 0.017835282 -0.040358957 0.0049306224
-0.030316377 0.021171698 0.01140957 -0.04021315 -0.01641298 -0.002697174 0.014827224 0.020968117
-0.031218888 -0.0035975224 0.0066227834 0.030718585 0.032178458 0.0078009786 0.031025913 -0.025003517
0.013269001 0.012769722 0.013650012 -0.005920185 0.005694045 0.01960167 0.033971716 0.022197383
0.00818806 -0.005521886 -0.016215863 0.054682888 0.0061859963 -0.03285217 0.0077329534 -0.010562886
0.011178248 -0.013760664 -0.01781107 0.02352108 0.011175574 0.009175715 -0.008339158 -0.015006768
-0.023432719 -0.0047183586 -0.024488391 -0.022661373 0.010353287 0.017807202 -0.011040455 0.03263369
-0.003935639 -0.011168332 -0.033816297 -0.011563702 0.008498435 0.050025865 -0.02622549 0.0010397052
-0.013491716 0.008718344 -0.0030245578 0.028195765 -0.008101638 0.0063853427 -0.000942211 -0.060566004
-0.01871627 -0.017756343 0.02353156 0.0025851822 0.0075685177 -0.021891978 -0.0008691672 0.006950872
0.018980231 0.010457763 0.028555278 -0.0031498708 0.032644533 -0.003761467 0.050278746 0.019855814
0.046789236 0.01974586 0.021075686 0.029709535 -0.044998895 0.0143130105 0.00857513 0.005112343
0.05210012 0.011653163 -0.013136366 0.016757717 0.00071937026 -0.011405575 -0.01596575 0.050462276
-0.0031922562 -0.00015381159 0.045414597 -0.012092775 -0.0003566854 0.0013206907 -0.0028348058 -0.01651822
-0.0011948679 0.0049739834 0.012854129 0.023563225 0.020613045 0.0026018503 -0.0057512634 0.00061882543
0.003932416 -0.0084726475 -0.018650638 0.002836483 0.019564368 0.01647417 0.00074975594 0.020704377

action_model._discrete_distribution.branches.2.bias f4 [3]
00000000: be2c d73c 200a acbc 4ad1 c4bb
0.026266452 -0.021000922 -0.0060063945
