ML-Agents/results/2vs2/Volleyball/Volleyball-4499988.onnx (onnx, 298113 bytes, 15 tensors)

discrete_action_output_shape f4 [1, 4]
3.0 3.0 3.0 2.0
00000000: 0000 4040 0000 4040 0000 4040 0000 0040

network_body.observation_encoder.processors.0.normalizer.running_mean f4 [17]
-0.10967528 0.013008579 0.4290955 0.46903864 12.196684 0.02160198 0.37925336 0.02934288
-4.4358983 1.3087629e-09 2.9353941e-10 -2.2680524e-11 -3.07665e-12 5.502443e-11 0.021601912 0.3792534
0.029342832
00000000: 6f9d e0bd ef21 553c 68b2 db3e d525 f03e
00000010: 9e25 4341 a3f6 b03c 7f2d c23e 7b60 f03c
00000020: e1f2 8dc0 00e0 b330 0060 a12f 0080 c7ad
00000030: 0080 58ac 0000 722e 7ef6 b03c 802d c23e
00000040: 6160 f03c

network_body._body_endoder.seq_layers.0.weight f4 [256, 17]
-0.14650144 0.55773735 -0.64484817 -0.13707279 0.32540324 -0.046692826 0.13960369 0.26961857
-0.17432491 -0.25462338 -0.36316866 -0.2943783 -0.22154984 -0.4232358 -0.0741461 -0.2368748
-0.23303065 -0.8215828 0.6001324 -0.02796008 0.661694 0.68208593 0.006545655 -0.018274406
0.21491651 0.23782893 -0.15128325 0.008134466 -0.15131323 0.33556962 0.42231053 0.0069124745
0.07078292 0.037072696 -0.29039755 0.25722054 0.19571175 0.00088485505 0.39948508 -0.071059346
0.004292027 0.31332198 0.44805202 0.065346174 0.34558573 0.32424006 -0.33132172 0.23203894
-0.34721124 0.21532284 0.3134518 -0.18262964 -0.6715004 -0.38657475 -0.40667984 -0.08984235
-0.1195783 0.25379017 -0.017923113 0.03794044 -0.44805196 0.21515663 -0.14206521 -0.044948958
-0.33681986 0.4030317 0.3147509 0.005093575 -0.064765 0.54048955 0.3243011 0.07631065
-0.20276183 0.15573907 -0.058743473 0.09295227 -0.14165838 0.15766838 0.1717659 0.62610894
0.38099816 -0.31335738 0.11852284 0.034718685 -0.22708166 0.43913484 0.23158729 -0.43489477
-0.09511622 0.039464254 -0.24188821 -0.11483816 0.11365139 -0.14715734 -0.08624518 -0.02562823
-0.64417696 -0.25555137 0.003637891 0.21746561 -0.37980384 0.07225688 -0.084024414 0.15099683
0.14295657 -0.13477397 -0.075079106 -0.08061429 -0.21782072 0.34082183 0.22927076 0.01389724
-0.15466356 0.29081932 -0.16252114 -0.43134353 -0.049671106 -0.17191738 0.056672055 -0.07206785
0.4559057 -0.5962431 0.56746346 0.31935826 0.24872713 0.39375156 -0.23018366 0.4127415
-0.10743063 -0.203681 -0.039501112 -0.04456345 0.120644495 -0.0054398235 -0.21333948 0.054616172
-0.3182944 0.12083603 0.3926278 -0.25840852 0.0111669265 -0.05348416 -0.18120109 0.14943752
0.23150831 0.17161989 0.38653818 -0.18122497 -0.10702093 -0.0133661255 0.27163756 -0.23268986
0.14900139 -0.51571393 -0.086250864 -0.19034235 0.08248552 -0.04131267 -0.62251943 0.123883165
0.33753267 0.21507111 0.323462 0.11219068 -0.1929869 -0.1884422 0.07457712 -0.16311096
0.5474093 0.53342634 -0.06421386 0.22171497 -0.028090963 0.09656383 0.14539552 -0.13016881
0.036385387 -0.3609364 -0.023392215 0.01830687 0.7533431 -0.2711455 0.11459733 -0.2016814
0.1711998 0.22945686 -0.40043393 -0.28537053 -0.28396794 0.119972326 -0.00614684 0.08546705
-0.11907437 0.051564615 -0.013961199 -0.10015595 0.18477434 0.22699942 0.08364315 -0.4513604
0.33603632 0.2068452 0.023838112 -0.28818786 -0.51843655 0.6419709 0.12801445 -0.3468842
-0.21705501 0.13838957 0.041130386 -0.23986334 -0.3368769 0.15215658 -0.117288604 0.1585944
-0.0024115823 0.040180873 0.20490716 -0.096778944 0.13779749 0.44796488 -0.41118065 0.69866645
-0.36020464 -0.12150902 -0.14336564 -0.061852567 -0.10676935 0.13194104 0.15537857 -0.048268568
0.44204694 -0.18855909 -0.031094208 -0.0038095003 0.13672286 0.104937635 0.2913374 0.24324788
-0.078230985 0.13502371 -0.03210198 0.18955226 -0.14123729 -0.19602306 0.12777492 0.5974059
0.0049744137 -0.072170675 0.08480674 -0.39183623 -0.30653256 -0.111107245 0.048935797 -0.59734154
00000000: 7904 16be e0c7 0e3f c514 25bf cf5c 0cbe
00000010: 419b a63e fa40 3fbd 45f4 0e3e 720b 8a3e
00000020: 3b82 32be ff5d 82be 3ef1 b9be c1b8 96be
00000030: f6dd 62be 5db2 d8be e9d9 97bd 4f8f 72be
00000040: 969f 6ebe 4053 52bf 47a2 193f 8a0c e5bc
00000050: c764 293f 2f9d 2e3f ef7c d63b 35b4 95bc
00000060: 1313 5c3e 6d89 733e ffe9 1abe 6c46 053c
00000070: dbf1 1abe c8cf ab3e 1639 d83e 0a82 e23b
00000080: a3f6 903d 8ad9 173d fdae 94be 69b2 833e
00000090: a968 483e 9ef5 673a 4f89 cc3e 9087 91bd
000000a0: 22a4 8c3b bd6b a03e 1367 e53e 37d4 853d
000000b0: 9df0 b03e cb02 a63e 00a3 a9be 9e9b 6d3e
000000c0: acc5 b1be 977d 5c3e c17c a03e 4403 3bbe
000000d0: 73e7 2bbf 20ed c5be 5738 d0be 44ff b7bd
000000e0: 78e5 f4bd c9f0 813e 7ed3 92bc 6f67 1b3d
000000f0: 1167 e5be 0552 5c3e 8b79 11be 661c 38bd
00000100: a773 acbe 2c5a ce3e 0827 a13e 01e8 a63b
00000110: 83a3 84bd 865d 0a3f cb0a a63e c248 9c3d
00000120: cca0 4fbe 107a 1f3e ff9c 70bd c25d be3d
00000130: e50e 11be d273 213e 66e3 2f3e ad48 203f
00000140: 3112 c33e 6170 a0be 1abc f23d 2e35 0e3d
00000150: 1888 68be 48d6 e03e 3825 6d3e 87aa debe
00000160: 4bcc c2bd 45a5 213d 8bb1 77be 4530 ebbd
00000170: 0fc2 e83d 6ab0 16be 50a1 b0bd 4bf2 d1bc
00000180: c8e8 24bf a1d7 82be af69 6e3b 4eaf 5e3e
00000190: a675 c2be 6afb 933d fe14 acbd ea9e 1a3e
000001a0: 3563 123e 3002 0abe 13c3 99bd 1b19 a5bd
000001b0: 650c 5fbe 3380 ae3e f4c5 6a3e 40b1 633c
000001c0: 2060 1ebe 45e6 943e f16b 26be 0fd9 dcbe
000001d0: ee73 4bbd 1c0b 30be f520 683d 4f98 93bd
000001e0: 796c e93e 63a3 18bf 4945 113f ed82 a33e
000001f0: 53b2 7e3e ce99 c93e 44b5 6bbe db52 d33e
00000200: 9704 dcbd c191 50be ebcb 21bd 2a88 36bd
00000210: 7614 f73d 8c40 b2bb aa75 5abe 35b5 5f3d
00000220: 7cf7 a2be e178 f73d 8306 c93e 1f4e 84be
00000230: 7cf5 363c 3512 5bbd c78c 39be 2606 193e
00000240: 8410 6d3e 20bd 2f3e 55e8 c53e 0a93 39be
00000250: ca2d dbbd 98fd 5abc 1414 8b3e 4046 6ebe
00000260: d293 183e d405 04bf 4ba4 b0bd 1be9 42be
00000270: 2bee a83d 7937 29bd 6f5d 1fbf 75b6 fd3d
00000280: 15d1 ac3e 9a3b 5c3e d09c a53e 3ac4 e53d
00000290: 5c9e 45be fef6 40be e4bb 983d 8f06 27be
000002a0: 0423 0c3f a18e 083f 8e82 83bd 4009 633e
000002b0: 051f e6bc 42c3 c53d 90e2 143e f94a 05be
000002c0: d808 153d a8cc b8be 08a1 bfbc 4af8 953c
000002d0: 18db 403f 95d3 8abe 01b2 ea3d 9285 4ebe
000002e0: 004f 2f3e bdf6 6a3e ad05 cdbe 161c 92be
000002f0: 3f64 91be 0db4 f53d 6e6b c9bb 5909 af3d
00000300: 43dd f3bd 6b35 533d 83bd 64bc 901e cdbd
00000310: 7c35 3d3e 8972 683e 1a4d ab3d b618 e7be
00000320: f40c ac3e 3acf 533e 2548 c33c 5c8d 93be
00000330: 42b8 04bf 3458 243f 3816 033e ce9a b1be
00000340: ab43 5ebe ffb5 0d3e 5678 283d bc9e 75be
00000350: 217b acbe efce 1b3e 0235 f0bd 9266 223e
00000360: a30b 1ebb b394 243d 2fd3 513e 0a34 c6bd
00000370: c91a 0d3e a75b e53e 4586 d2be cedb 323f
00000380: be6c b8be b9d9 f8bd 71ce 12be 1e59 7dbd
00000390: e4a9 dabd 8d1b 073e 8f1b 1f3e 43b5 45bd
000003a0: fa53 e23e a215 41be 48b9 febc cfa8 79bb
000003b0: 1401 0c3e 8be9 d63d 2d2a 953e f915 793e
000003c0: 9137 a0bd a843 0a3e 5e7d 03bd fd19 423e
000003d0: 82a0 10be 45ba 48be 6ed7 023e 98ef 183f
000003e0: 6800 a33b 38ce 93bd 28af ad3d c29e c8be
000003f0: d6f1 9cbe 328c e3bd e770 483d 60eb 18bf

network_body._body_endoder.seq_layers.0.bias f4 [256]
0.089183606 0.08767283 0.08485832 0.03937416 0.018197244 0.09213646 0.022300407 0.12687334
0.009464469 -0.031970806 -0.0031120395 0.008632684 0.019815343 0.030758852 0.020689419 0.084979676
0.0017726519 0.067417294 0.006323407 0.06276197 0.08154395 0.0027661417 0.015853783 0.007943854
0.030027848 0.015628815 0.052603696 0.047696926 0.026600193 0.074909985 0.051315147 0.024544751
0.03177863 0.014351257 0.06629096 0.032011315 0.021665368 0.01648218 0.016874613 0.07360864
-0.0037677803 0.010640616 0.062248565 0.006613091 0.024024967 0.09580265 0.05902046 0.07356026
0.031748954 0.050146203 0.035474364 0.07788105 0.032551315 0.006849387 0.014978626 0.13100182
-0.017685529 0.02513565 0.0444713 0.009101837 0.08762623 0.044559114 0.045226876 0.042395312
0.007431481 0.045389082 0.025516022 0.021104002 0.011294847 0.07137075 0.032919303 0.028959375
0.07042387 0.015520884 0.04607182 0.06552943 0.027351327 0.011790911 -0.047018673 0.024606263
0.015548031 0.045193054 0.085680224 0.049181543 0.082255386 0.027497359 -0.0011235445 0.013919239
0.07811641 0.11580145 0.032165796 -0.0017561642 -0.02041066 0.043819983 0.030610772 0.06888065
0.044825256 0.07479245 0.04703347 0.107042536 0.02014534 0.021836065 0.05704101 0.008705795
0.031952173 0.1483885 0.02905539 0.07556092 0.035006415 -0.011399911 -0.00090091774 6.329693e-05
0.024273977 0.12419871 0.046269562 0.08802933 -0.0023843586 0.14146958 0.0187294 0.057248298
-0.018154087 0.03289525 0.05258342 0.03449558 0.012628139 0.08400636 0.022981986 0.084349394
0.07626439 0.069232285 -0.009794638 0.036841583 0.04211892 0.030982861 0.035374284 0.060383067
0.01756758 -0.0050862576 -0.0007399836 0.11981842 0.09837762 0.05987665 -0.019815365 0.059337925
0.02722535 0.034127466 0.051225778 0.042719875 -0.0049523334 0.05102778 0.03870135 0.12961148
0.008633686 0.027756251 -0.017796274 0.06571348 -0.019825317 0.11923151 0.05266801 0.030768625
0.08968184 0.061283313 0.012741977 0.0076909084 0.036679275 0.026022907 0.043165736 0.035978295
0.034932487 -0.0006376766 0.043909658 0.029015446 0.07771202 0.013177795 0.034678884 0.054693636
0.027746342 0.05550994 0.07159449 0.03111223 0.006533017 0.006610194 0.093494214 0.054017454
0.040958982 0.034289826 0.122235484 0.017219398 0.008575528 0.12091187 -0.018269422 0.022821967
-0.018864155 0.010904846 0.0141966585 0.012172299 0.03147679 0.057805855 -0.006706024 0.03399779
0.13018511 0.0048417402 0.007102132 0.07647611 0.032534856 0.017965226 0.024927238 0.017325547
0.03318457 0.012039223 0.028394677 0.05804124 0.07952887 -0.014783713 0.06421071 0.02166406
0.04626476 0.03481493 0.026193358 -0.04773508 0.04694609 0.07115574 0.033171635 0.030298898
0.04601852 -0.008448456 0.061512936 0.03464339 -0.034952756 0.031186007 0.036470983 0.056003407
0.12762238 -0.005047044 0.070929915 0.06499994 0.0470598 0.015439694 -0.011274295 0.0013503238
0.06536823 0.015074581 0.03643862 0.05462798 0.040527683 0.046960358 -0.030306786 0.004461945
0.020850068 0.047580317 -0.02576281 0.052583046 0.042864587 0.07301322 0.014179385 0.072399974
00000000: e5a5 b63d d08d b33d 33ca ad3d cd46 213d
00000010: 6312 953c 0ab2 bc3d 58af b63c 16eb 013e
00000020: dc10 1b3c d2f3 02bd 5cf3 4bbb 1a70 0d3c
00000030: c953 a23c fdf9 fb3c db7c a93c d309 ae3d
00000040: 5458 e83a 1412 8a3d 9534 cf3b 5989 803d
00000050: 8400 a73d 2848 353b cbdf 813c f026 023c
00000060: f6fc f53c 0008 803c f976 573d da5d 433d
00000070: a6e8 d93c 686a 993d d52f 523d 1312 c93c
00000080: 4f2a 023d 8921 6b3c 8ec3 873d 4c1e 033d
00000090: 927b b13c a305 873c a13c 8a3c 20c0 963d
000000a0: ddec 76bb fa55 2e3c 5af8 7e3d a1b2 d83b
000000b0: 02d0 c43c 2e34 c43d 70bf 713d c3a6 963d
000000c0: 310b 023d 1b66 4d3d 914d 113d 1a80 9f3d
000000d0: 8754 053d d370 e03b e968 753c 5725 063e
000000e0: 3ee1 90bc 47e9 cd3c 8a27 363d df1f 153c
000000f0: 6275 b33d 9e83 363d d13f 393d b5a6 2d3d
00000100: c883 f33b e7e9 393d fa06 d13c 4de2 ac3c
00000110: 060e 393c d42a 923d 64d6 063d 363c ed3c
00000120: 643a 903d 4e4b 7e3c ceb5 3c3d 4b34 863d
00000130: e40f e03c aa2e 413c a796 40bd 1393 c93c
00000140: 2bbd 7e3c 5a1c 393d 1d79 af3d 9672 493d
00000150: 8375 a83d 2442 e13c e643 93ba 850d 643c
00000160: 7ffb 9f3d 5029 ed3d 48c0 033d 182f e6ba
00000170: 4234 a7bc 957c 333d 71c3 fa3c 4c11 8d3d
00000180: b09a 373d c92c 993d 2ba6 403d 1e39 db3d
00000190: d707 a53c 8ce1 b23c d6a3 693d c0a2 0e3c
000001a0: 48e0 023d 28f3 173e 9205 ee3c afbf 9a3d
000001b0: e362 0f3d b1c6 3abc 912b 6cba 48be 8438
000001c0: 38da c63c e55b fe3d 2785 3d3d b948 b43d
000001d0: e642 1cbb 67dd 103e 666e 993c 317d 6a3d
000001e0: e1b7 94bc 2bbd 063d b661 573d 3d4b 0d3d
000001f0: 41e6 4e3c 870b ac3d b844 bc3c 60bf ac3d
00000200: 8130 9c3d a8c9 8d3d b079 20bc 33e7 163d
00000210: e384 2c3d c5cf fd3c a0e4 103d 3c54 773d
00000220: e3e9 8f3c 9faa a6bb 75fb 41ba 5c63 f53d
00000230: 357a c93d 3841 753d d553 a2bc 530c 733d
00000240: b207 df3c 3ec9 0b3d 1fd2 513d 09fb 2e3d
00000250: 2f47 a2bb 8102 513d 4f85 1e3d dfb8 043e
00000260: 4e74 0d3c 1461 e33c 7ec9 91bc ca94 863d
00000270: b468 a2bc a62f f43d 69ba 573d 7c0e fc3c
00000280: 1dab b73d 3604 7b3d bac3 503c 0404 fc3b
00000290: 023d 163d fe2d d53c 8ece 303d fa5d 133d
000002a0: 5e15 0f3d c129 27ba 9dda 333d cdb1 ed3c
000002b0: 7b27 9f3d aee7 573c 720b 0e3d 6f06 603d
000002c0: 4c4c e33c 645e 633d 22a0 923d 13df fe3c
000002d0: eb12 d63b 549a d83b e579 bf3d 6841 5d3d
000002e0: 9bc4 273d 7d73 0c3d 9956 fa3d b20f 8d3c
000002f0: 5f80 0c3c a4a0 f73d c1a9 95bc 22f5 ba3c
00000300: 0089 9abc 3daa 323c 1a99 683c 536e 473c
00000310: ceed 003d d5c5 6c3d 35be dbbb 4441 0b3d
00000320: 3f4f 053e 76a7 9e3b 00b9 e83b 829f 9c3d
00000330: 4543 053d cf2b 933c 3534 cc3c 4eee 8d3c
00000340: 8bec 073d 2940 453c f49b e83c a7bc 6d3d
00000350: 08e0 a23d 6337 72bc e880 833d d478 b13c
00000360: 1e80 3d3d 1a9a 0e3d 7493 d63c dc85 43bd
00000370: 8b4a 403d 1aba 913d fbde 073d 6535 f83c
00000380: ea7d 3c3d 656b 0abc fdf4 7b3d 3ae6 0d3d
00000390: 9f2a 0fbd cc79 ff3c 9962 153d d463 653d
000003a0: 71af 023e ac61 a5bb b443 913d b01e 853d
000003b0: c7c1 403d c5f6 7c3c d2b7 38bc 59fd b03a
000003c0: c7df 853d 60fb 763c aa40 153d 97c1 5f3d
000003d0: 5b00 263d 8159 403d f045 f8bc 8235 923b
000003e0: c3cd aa3c 94e3 423d 870c d3bc 5261 573d
000003f0: c792 2f3d f587 953d a750 683c 7046 943d

network_body._body_endoder.seq_layers.2.weight f4 [256, 256]
0.031162094 -0.13470897 -0.049548864 -0.037986428 0.068051755 0.018805567 -0.020112438 0.053243544
0.052655328 -0.0319873 -0.00089581794 0.01929887 0.16574916 -0.060189713 0.14996235 -0.044963665
0.06499052 -0.026085902 0.02240656 0.2061958 -0.0671899 0.05792951 0.009739546 0.09515252
0.007527558 -0.219508 0.0632978 0.11399248 -0.012625573 0.039769344 0.0195042 -0.07024623
-0.067634344 -0.036723252 -0.0023938543 0.014909971 -0.05646182 0.10737079 0.088005885 -0.03530018
-0.099011175 -0.068504676 0.031377893 0.036676534 0.06762123 -0.018989336 -0.036216717 0.076350756
-0.07081503 0.08530618 0.06530202 0.015628818 0.10218895 0.08412631 0.0693185 0.03442374
-0.06917525 -0.024070531 -0.05245342 0.018064033 -0.012592346 -0.010141466 0.05070785 -0.014626473
0.0098101245 -0.066607006 0.036372975 0.050093543 -0.13510692 0.05124433 0.035263807 0.000851912
0.010576582 0.061285164 0.004445573 0.061951343 0.04635918 0.09415004 0.04194497 0.10660605
0.061765827 -0.01168693 -0.044670645 0.039373018 -0.087430894 -0.024067877 -0.019474441 -0.030211173
0.009723842 0.15217157 -0.07960229 0.013676034 0.054914076 0.10916422 0.04914546 -0.05788203
-0.10097834 -0.004747098 -0.12443694 -0.012412578 -0.040814873 0.10984007 0.061276622 -0.0157972
-0.10768373 -0.13595195 -0.11423726 0.031402335 -0.10127272 -0.052932136 0.0458595 0.10140629
-0.005897913 -0.07878091 -0.11230338 0.03965047 -0.12378717 -0.022597851 0.047848538 -0.05323034
0.018498838 0.038423236 -0.06656301 0.05987796 0.040956847 0.10548927 0.11308519 -0.13839036
0.05341366 -0.00821582 0.034453332 0.019280212 -0.1019101 0.0031478237 -0.07615793 0.07831075
-0.017027061 -0.015639704 0.1506818 -0.043364916 -0.016157342 0.052141864 0.034753166 0.11448825
0.0074021732 0.08714865 0.09159634 -0.030943649 0.072428934 -0.08672457 -0.040319737 -0.11673246
0.09308804 0.018700743 -0.051693134 -0.05250744 -0.013658698 0.025576176 0.11806035 -0.023895929
-0.0827856 0.008158325 0.0070057823 0.10083276 0.030424092 -0.043646794 -0.11790757 0.06714936
-0.051544342 -0.021289032 0.05510888 0.06799541 0.037409578 -0.03364513 0.16551596 -0.07630801
-0.056247167 0.04125791 -0.046310246 0.008489381 -0.093448915 -0.08875637 -0.07892702 -0.05430366
-0.06603438 0.050697215 0.014656473 -0.012386728 0.03495881 0.0063705053 0.015917616 0.049859352
0.06426448 0.027209839 0.052037895 0.05933495 -0.020236284 0.04853915 0.03441407 -0.09494168
-0.06680513 0.0145015875 0.075127944 -0.036437903 -0.090428345 -0.10273418 -0.17727838 -0.017925462
-0.013545553 0.023909733 -0.1381844 0.08132299 -0.06468436 0.0024684805 -0.080380715 0.096143566
0.027367696 0.16122755 -0.002242503 -0.08649764 -0.039178044 0.01454598 0.046738718 0.08189282
-0.12558785 -0.12452583 0.020580228 -0.0024319028 -0.07444712 0.06605413 0.037208088 -0.018178467
0.042528585 -0.004335344 0.014591942 -0.12135944 0.04495377 0.06079971 -0.11154542 0.01895387
0.023159545 0.0024861493 0.056559674 -0.008904659 0.05338353 -1.9222396e-05 0.09864697 -0.011092362
0.11222188 -0.013784928 0.021851188 -0.064984374 0.008450869 0.0030495066 0.07072235 -0.0791369
00000000: a647 ff3c 26f1 09be c0f3 4abd a897 1bbd
00000010: b85e 8b3d 220e 9a3c d7c2 a4bc e715 5a3d
00000020: 1dad 573d 1d05 03bd 53d5 6aba aa18 9e3c
00000030: 26ba 293e 7d89 76bd bb8f 193e d22b 38bd
00000040: c019 853d 1ab2 d5bc f68d b73c fe24 533e
00000050: dc9a 89bd 7e47 6d3d 9e92 1f3c 53df c23d
00000060: bca9 f63b b5c6 60be 47a2 813d e474 e93d
00000070: 7edb 4ebc 2ee5 223d 46c7 9f3c 41dd 8fbd
00000080: e083 8abd 1f6b 16bd 36e2 1cbb f348 743c
00000090: 8244 67bd 37e5 db3d 6e3c b43d ec96 10bd
000000a0: 5fc6 cabd 2e4c 8cbd 1b86 003d 223a 163d
000000b0: 007d 8a3d 868f 9bbc fb57 14bd c95d 9c3d
000000c0: 7807 91bd 02b5 ae3d 11bd 853d 0208 803c
000000d0: 7148 d13d 6a4a ac3d dcf6 8d3d e8ff 0c3d
000000e0: c1ab 8dbd 902f c5bc 66d9 56bd 06fb 933c
000000f0: 2150 4ebc 6428 26bc 09b3 4f3d e0a3 6fbc
00000100: a5ba 203c 4169 88bd d4fb 143d e32e 4d3d
00000110: 7859 0abe 93e5 513d c870 103d d952 5f3a
00000120: 6649 2d3c 2706 7b3d 2bac 913b b1c0 7d3d
00000130: 20e3 3d3d bcd1 c03d 7dce 2b3d 4654 da3d
00000140: 2afe 7c3d 8a7a 3fbc 91f8 36bd 9a45 213d
00000150: f80e b3bd ff29 c5bc dd88 9fbc 6c7d f7bc
00000160: c050 1f3c ddd2 1b3e 8706 a3bd 7211 603c
00000170: 95ed 603d 7e91 df3d c04c 493d b515 6dbd
00000180: bbcd cebd 8b8d 9bbb cbd8 febd 205e 4bbc
00000190: 7f2d 27bd d5f3 e03d 32fd 7a3d 2169 81bc
000001a0: 4a89 dcbd fd36 0bbe 39f5 e9bd bc9f 003d
000001b0: 1268 cfbd 5ecf 58bd 2cd7 3b3d 1aae cf3d
000001c0: 4843 c1bb e357 a1bd 51ff e5bd 8868 223d
000001d0: 2184 fdbd 211f b9bc d4fc 433d 0f08 5abd
000001e0: e08a 973c af61 1d3d 3052 88bd 9742 753d
000001f0: 5ec2 273d c20a d83d 3599 e73d 34b6 0dbe
00000200: 48c8 5a3d a69b 06bc f01e 0d3d 89f1 9d3c
00000210: 3eb6 d0bd b84b 4e3b b0f8 9bbd 6361 a03d
00000220: 567c 8bbc d61e 80bc 544c 1a3e 699f 31bd
00000230: 675c 84bc b592 553d 5659 0e3d d178 ea3d
00000240: ee8d f23b fe7a b23d dd96 bb3d 897d fdbc
00000250: 9f55 943d a79c b1bd 4f26 25bd 6e11 efbd
00000260: f1a4 be3d 4d32 993c 2ebc 53bd 0b12 57bd
00000270: bbc8 5fbc 2185 d13c a0c9 f13d 65c1 c3bc
00000280: 7f8b a9bd 7faa 053c c390 e53b 6881 ce3d
00000290: f23b f93c fbc6 32bd 8679 f1bd 9b85 893d
000002a0: 2920 53bd 5666 aebc d9b9 613d 2d41 8b3d
000002b0: c93a 193d 7acf 09bd 047d 293e 6047 9cbd
000002c0: 6e63 66bd 0efe 283d d0af 3dbd 0b17 0b3c
000002d0: 2562 bfbd e6c5 b5bd 7da4 a1bd 846d 5ebd
000002e0: 083d 87bd e2a7 4f3d b421 703c b4f1 4abc
000002f0: f830 0f3d acbf d03b a965 823c 5239 4c3d
00000300: 189d 833d 2be7 de3c b025 553d 3409 733d
00000310: 90c6 a5bc fdd0 463d c5f5 0c3d c970 c2bd
00000320: 21d1 88bd 1198 6d3c aedc 993d e93f 15bd
00000330: 7f32 b9bd 4c66 d2bd 7788 35be 6bd8 92bc
00000340: 2bee 5dbc 58de c33c 3680 0dbe ab8c a63d
00000350: 3c79 84bd 3bc6 213b a59e a4bd ebe6 c43d
00000360: 3832 e03c d618 253e f5f6 12bb ad25 b1bd
00000370: 2879 20bd 4352 6e3c 1971 3f3d 6cb7 a73d
00000380: 1a9a 00be 6607 ffbd de97 a83c 8f60 1fbb
00000390: bb77 98bd 6347 873d 8267 183d 02eb 94bc
000003a0: 7432 2e3d 800f 8ebb 0a13 6f3c 4c8b f8bd
000003b0: 7221 383d 1e09 793d ed71 e4bd 2545 9b3c
000003c0: 16b9 bd3c aaee 223b 1eab 673d d9e4 11bc
000003d0: b0a8 5a3d c83f a1b7 6c07 ca3d bdbc 35bc
000003e0: 96d4 e53d 2eda 61bc 4301 b33c 8716 85bd
000003f0: 8375 0a3c 3bda 473b e1d6 903d 8712 a2bd

network_body._body_endoder.seq_layers.2.bias f4 [256]
0.0039714496 0.03029386 0.008676854 -0.008050392 0.016586762 -0.006766829 0.05443997 0.017587664
0.031081982 -0.008013028 0.0105426 -0.03216345 0.004186849 -0.02680766 -0.0008711001 -0.024711065
-0.020747868 -0.022685105 -0.022825366 -0.018225087 -0.0015017191 0.032370348 -0.0052408995 -0.011996939
0.0023162954 0.044942196 0.02538617 -0.015855936 -0.036048297 0.029690666 0.0050627417 0.0012367466
-0.011180746 0.019648109 -0.014795861 0.046822283 -0.004069664 0.027185883 0.021345077 0.0015919266
0.0088848015 -0.017066523 -0.0054198503 -0.0024471353 0.030947773 -0.027931208 0.02373726 -0.010698568
0.0074212635 -0.030360404 0.01934459 -0.023906408 -0.009027586 0.04001998 -0.026729807 -0.033534996
-0.01263651 -0.042670004 -0.01712721 -0.019146042 -0.011199708 -0.030158188 -0.05169278 -0.039996568
0.0048347902 -0.025864478 -0.028606126 -0.014611768 0.0016236699 0.0060423776 -0.012536146 -0.0009308848
-0.0059915017 0.012971511 0.0047709593 -0.035448425 -0.0056320876 -0.03987505 -0.0066730534 -0.001898425
-0.023561537 0.00015615854 -0.034742594 0.013897022 0.008478792 -0.018461661 0.01577547 0.022706904
-0.0077847964 -0.028316151 -0.027657079 -0.006681242 -0.005623647 0.025612257 0.023928668 0.02058081
0.0057804617 -0.0011967666 0.019697106 -0.01909238 -0.015605428 -0.03198676 0.03979909 0.012386061
-0.0046980875 -0.016143538 -0.01453602 -0.0063286833 0.015970703 0.03182057 0.0016239785 -0.02170677
-0.0005417465 0.018399471 0.019401377 0.016310703 -0.029800056 0.03873591 -0.0048222314 0.0051686103
-0.013316389 0.0072247875 -0.02752953 0.0057649747 0.012344283 0.0019481548 0.020165512 -0.015886074
0.01284261 -0.0054176785 -0.008814244 0.059270643 0.023446525 0.020886244 -0.016643599 -0.045792993
0.019286783 -0.024305085 0.0016329532 -0.016465772 -0.019505473 0.016962737 0.008374535 0.008503447
-0.023819 0.008263592 -0.007729477 -0.020941429 -0.0025107928 0.014668254 0.022888744 0.0012558465
0.04069614 -0.009429441 -0.035503574 0.020614574 -0.008077121 0.008437345 -0.024370145 -0.015607648
0.017920246 -0.02426812 -0.005900094 -0.020688267 0.017288474 0.009685089 0.021900903 -0.0031235889
-0.0026227832 0.028228046 0.019485315 -0.0070745023 -0.0018452196 0.01606143 0.037813723 0.007341221
-0.017089348 -0.019663617 -0.026498241 0.0033687372 -0.03837805 -0.019682338 0.0038432719 -0.024187459
-0.029052898 -0.007943476 -0.0046348767 -0.013450755 -0.010175674 -0.003616082 0.0016617186 -0.008884856
0.017693346 -0.013955362 0.05528271 -0.022071576 -0.037817474 -0.01702464 -0.013241743 0.032176055
-0.021241387 -0.015616159 0.005419949 -0.023147572 -0.0085634515 -0.011931223 0.0029931993 -0.030242851
-0.0011029021 -0.019274272 -0.046399843 -0.0050123967 0.013021716 0.031712335 0.018038504 -0.0073839263
-0.037326597 -0.019770544 -0.021368312 0.023005288 0.018598104 0.009138642 -0.04142623 0.025658045
0.0049310275 -0.0053260014 0.01727418 -0.014666712 0.005611932 -0.01820832 -0.043183602 0.0118049085
-0.008157119 -0.037618883 -0.009186272 -0.012776439 0.02025322 -0.007715222 0.000876762 0.0034040199
0.015872117 0.0041706553 -0.042076573 0.013089375 -0.012658108 -0.027975664 0.024904728 -0.028646108
-0.021844383 0.013590355 -0.020362249 -0.00017437231 0.036341723 -0.01062019 -0.014841546 0.011430806
00000000: ef22 823b d42a f83c 5d29 0e3c cbe5 03bc
00000010: f6e0 873c 47bc ddbb 72fc 5e3d 0114 903c
00000020: a49f fe3c 1349 03bc dfba 2c3c d2bd 03bd
00000030: d631 893b bd9b dbbc 8a5a 64ba dc6e cabc
00000040: 6ff7 a9bc 1dd6 b9bc 43fc babc c74c 95bc
00000050: 55d5 c4ba c596 043d dabb abbb cf8e 44bc
00000060: fdcc 173b 4f15 383d a8f6 cf3c 4fe4 81bc
00000070: 61a7 13bd d739 f33c 5be5 a53b 541a a23a
00000080: 732f 37bc 12f5 a03c 576a 72bc b9c8 3f3d
00000090: d15a 85bb eeb4 de3c dfdb ae3c 31a8 d03a
000000a0: 8f91 113c 18cf 8bbc 0099 b1bb 1e60 20bb
000000b0: 2f86 fd3c fdcf e4bc a474 c23c 0c49 2fbc
000000c0: 122e f33b 62b6 f8bc 8c78 9e3c 5fd7 c3bc
000000d0: 71e8 13bc feeb 233d 78f8 dabc fe5b 09bd
000000e0: 5d09 4fbc bec6 2ebd 5d4e 8cbc 29d8 9cbc
000000f0: fb7e 37bc 4e0e f7bc cfbb 53bd 71d3 23bd
00000100: 296d 9e3b bee1 d3bc 6557 eabc 3266 6fbc
00000110: 52d1 d43a 23ff c53b 6864 4dbc 9f06 74ba
00000120: 5c54 c4bb 7686 543c b555 9c3b 5e32 11bd
00000130: 608d b8bb 0554 23bd a1a9 dabb 93d4 f8ba
00000140: 2004 c1bc 7dbe 2339 404e 0ebd 56b0 633c
00000150: a2ea 0a3c e93c 97bc 8f3b 813c d403 ba3c
00000160: 9b17 ffbb 46f7 e7bc 1991 e2bc 52ee dabb
00000170: 9246 b8bb ccd0 d13c 0e06 c43c 1699 a83c
00000180: 076a bd3b d3dc 9cba d35b a13c 9f67 9cbc
00000190: e9ad 7fbc 8d04 03bd 5f04 233d e8ee 4a3c
000001a0: 6af2 99bb 743f 84bc 7d28 6ebc d860 cfbb
000001b0: fed4 823c 4956 023d addb d43a 65d2 b1bc
000001c0: fe03 0eba 7dba 963c a3ef 9e3c 069e 853c
000001d0: 3f1f f4bc 8ca9 1e3d cf03 9ebb 725d a93b
000001e0: fc2c 5abc e9bd ec3b 9c85 e1bc 1de8 bc3b
000001f0: ad3f 4a3c 3a59 ff3a 2532 a53c 8323 82bc
00000200: cf69 523c c886 b1bb 9e69 10bc c6c5 723d
00000210: ed12 c03c a119 ab3c 2858 88bc 6f91 3bbd
00000220: 51ff 9d3c 751b c7bc d108 d63a 3ae3 86bc
00000230: f1c9 9fbc 70f5 8a3c 5835 093c 0b52 0b3c
00000240: 1020 c3bc 0464 073c 8d47 fdbb 5c8d abbc
00000250: 1d8c 24bb 1e53 703c 2d81 bb3c 379b a43a
00000260: ffb0 263d f17d 1abc 326c 11bd e5df a83c
00000270: e755 04bc ca3c 0a3c e6a3 c7bc 38b7 7fbc
00000280: 7bcd 923c f0cd c6bc 9355 c1bb 717a a9bc
00000290: 8fa0 8d3c 35ae 1e3c 8669 b33c 20b5 4cbb
000002a0: 00e3 2bbb 813e e73c ab9f 9f3c 3ad1 e7bb
000002b0: 4cdb f1ba 4393 833c 90e2 1a3d a08e f03b
000002c0: f6fe 8bbc 9815 a1bc d712 d9bc 08c6 5c3b
000002d0: 4d32 1dbd db3c a1bc 67df 7b3b c724 c6bc
000002e0: 5800 eebc 5a25 02bc 2ae0 97bb 8e60 5cbc
000002f0: dfb7 26bc cafb 6cbb 06ce d93a c991 11bc
00000300: a3f1 903c 08a5 64bc 1f70 623d 73cf b4bc
00000310: 7fe6 1abd 4277 8bbc e5f3 58bc 0acb 033d
00000320: 6b02 aebc ebda 7fbc d499 b13b fa9f bdbc
00000330: b84d 0cbc 2d7b 43bc 8d29 443b dbbf f7bc
00000340: 418f 90ba 14e5 9dbc c30d 3ebd 083f a4bb
00000350: 0959 553c cbe4 013d 7cc5 933c ddf4 f1bb
00000360: c6e3 18bd d6f5 a1bc 990c afbc 9675 bc3c
00000370: 0d5b 983c 3eba 153c 8dae 29bd d230 d23c
00000380: 7594 a13b bd85 aebb 9582 8d3c a64c 70bc
00000390: 4ce4 b73b 9d29 95bc 4ae1 30bd 6069 413c
000003a0: 70a5 05bc 4216 1abd 0482 16bc 4554 51bc
000003b0: 15ea a53c f9cf fcbb 80d6 653a fa15 5f3b
000003c0: 3e06 823c fea9 883b 7c58 2cbd d174 563c
000003d0: f463 4fbc 382d e5bc 0005 cc3c 3eab eabc
000003e0: fef2 b2bc 15aa 5e3c bbce a6bc b6d7 36b9
000003f0: 0fdb 143d 4e00 2ebc f529 73bc 4648 3b3c

action_model._discrete_distribution.branches.0.weight f4 [3, 256]
0.011058322 0.019692693 0.0040278826 -0.0027209355 0.059780113 0.012818859 -0.045219075 0.015065132
-0.0436008 0.006236541 0.013786736 0.10217901 -0.0483226 0.044330545 -0.0031280904 0.018085329
0.027258016 -0.007204616 -0.03106958 0.0023175539 0.035307404 0.019313924 0.074845836 -0.025639484
0.10738418 0.0028448347 0.04914029 -0.019744083 -0.024478732 2.0859257e-05 0.027750436 0.026783658
0.00964022 0.010457456 0.0065071806 -0.014745784 0.07131644 -0.03178224 0.011071767 -0.011460704
-0.055058442 0.05956793 0.002932014 0.020034123 0.015152553 0.008042949 0.06928466 0.047670532
0.058619097 -0.008636568 -0.0073454897 -0.03387125 -0.031030152 0.00968806 0.014430037 0.040691443
-0.022683404 0.011002547 -0.00029968983 -0.09595077 0.012613158 -0.029819027 0.08649994 -0.008459881
-0.0006019102 -0.015958019 0.06484511 -0.095714524 0.009116523 0.033979785 -0.05160564 0.025316607
-0.013371933 0.0009983195 -0.011791503 0.028970288 -0.03003636 -0.017021704 -0.041220084 0.13027373
0.0092818625 0.011987486 0.096776865 0.028429247 0.0013887009 0.010066832 -0.00012000815 0.0034212316
-0.0005355777 -0.02982601 0.059867702 0.09467604 -0.021774104 0.013114882 -0.018291153 -0.009057196
-0.06301593 -0.018925792 -0.03813532 0.008252279 0.015887013 -0.1565253 -0.016253736 -0.03002284
-0.026031816 0.0948417 0.035589214 -0.042797156 -0.0547715 -0.008877006 -0.018822256 -0.05733878
-0.030949712 0.025964761 0.021326821 -0.0043703835 0.14535867 -0.031357832 -0.05489623 0.022556145
0.051725343 0.0028877102 0.06803959 0.025123015 -0.10221611 -0.024849316 0.10077693 0.0037088715
0.01762818 -0.038214494 0.05140623 0.010402546 0.034284897 0.003384277 0.09350408 -0.038157407
0.031933226 -0.017592272 0.01653775 -0.03680253 -0.03538695 0.0017747976 0.0619524 -0.039316792
-0.009580506 -0.014099457 -0.04020318 -0.014703153 -0.030908702 0.026770346 0.036643375 0.050527398
0.032627102 0.03367193 -0.04409732 -0.0053239195 0.0018443543 0.0035300588 0.030525193 0.14044914
-0.082631014 -0.029945603 0.039191104 0.013160129 -0.022349706 0.020459741 -0.03322524 0.03622554
-0.044044513 -0.10105549 -0.018004483 -0.009916528 0.0039969287 0.06774308 0.012256254 0.025335595
-0.011236298 0.023517553 0.051388174 0.026538596 -0.021871496 0.03752704 -0.012792044 0.05456287
0.025366573 0.027595917 -0.052035384 0.07035261 -0.049851 -0.046743423 0.0594104 -0.038163718
0.0028459 -0.007370941 -0.03505679 0.010156202 -0.04111138 0.0021359997 -0.04084136 0.01616796
-0.059620228 0.01958442 -0.05677526 -0.004122138 0.0428718 -0.030394465 -0.0055526835 0.049279526
0.02413762 0.10138168 0.045531504 0.042848203 0.0683163 -0.012549808 0.0322597 0.027275587
-0.016352776 -0.0008452977 0.020302843 -0.05188001 -0.01613818 0.021946112 0.033191197 0.004467607
0.0038333677 -0.03232171 -0.044978812 0.01896401 -0.024800355 -0.024283923 0.06946417 0.014507673
-0.024452588 -0.0033411048 -0.06581322 -0.020496417 0.019020703 0.039242536 -0.019065276 0.102802396
0.011136111 -0.03221434 0.14275934 -0.03756195 0.0038404216 -0.010522985 -0.03868388 0.0992929
0.012926141 -0.06816084 0.011176872 -0.012553189 0.01476963 0.06239225 0.0042896196 0.034873735
00000000: f72d 353c 9252 a13c 54fc 833b b951 32bb
00000010: fedb 743d 3106 523c a337 39bd bed3 763c
00000020: c196 32bd e65b cc3b c3e1 613c 3b43 d13d
00000030: ebed 45bd f293 353d a600 4dbb af27 943c
00000040: 344c df3c b314 ecbb a285 febc 1ae2 173b
00000050: 7f9e 103d 3c38 9e3c c648 993d e509 d2bc
00000060: 3dec db3d 6870 3a3b 5447 493d 58be a1bc
00000070: 9f87 c8bc eafa ae37 e254 e33c 6769 db3c
00000080: 03f2 1d3c c055 2b3c 303a d53b 4d98 71bc
00000090: 5b0e 923d 182e 02bd 5b66 353c adc5 3bbc
000000a0: f684 61bd 80fd 733d 0827 403b 9a1e a43c
000000b0: 6a42 783c 93c6 033c 1ee5 8d3d 2d42 433d
000000c0: 941a 703d 6480 0dbc 6fb2 f0bb 94bc 0abd
000000d0: f232 febc abba 1e3c f66b 6c3c 12ac 263d
000000e0: 8cd2 b9bc 0744 343c b01f 9db9 d681 c4bd
000000f0: 6ba7 4e3c 0847 f4bc e126 b13d 509b 0abc
00000100: 82c9 1dba 64ba 82bc 83cd 843d fa05 c4bd
00000110: 785d 153c 632e 0b3d 7060 53bd c664 cf3c
00000120: f415 5bbc 0bda 823a 2631 41bc 1953 ed3c
00000130: d00e f6bc 1a71 8bbc 64d6 28bd 7a66 053e
00000140: f412 183c 2967 443c f332 c63d 74e4 e83c
00000150: 1205 b63a 5bef 243c e3ac fbb8 be36 603b
00000160: 0366 0cba ad55 f4bc d637 753d 83e5 c13d
00000170: 9b5f b2bc cddf 563c 54d7 95bc a264 14bc
00000180: 7f0e 81bd 430a 9bbc c833 1cbd 9134 073c
00000190: 7b25 823c 2b48 20be 8e26 85bc 75f2 f5bc
000001a0: ad40 d5bc 5d3c c23d ffc5 113d 124c 2fbd
000001b0: 1558 60bd dd70 11bc 2231 9abc 12dc 6abd
000001c0: 408a fdbc 0db4 d43c 96b5 ae3c 6f35 8fbb
000001d0: e7d8 143e 1271 00bd dfda 60bd aac7 b83c
000001e0: f4dd 533d bd3f 3d3b 5758 8b3d c8ce cd3c
000001f0: ae56 d1bd cb90 cbbc 2364 ce3d 8a10 733b
00000200: f968 903c cd86 1cbd 578f 523d 716f 2a3c
00000210: 526e 0c3d bfca 5d3b 117f bf3d f14a 1cbd
00000220: 6acc 023d ab1d 90bc 2d7a 873c 40be 16bd
00000230: e8f1 10bd 53a0 e83a cdc1 7d3d a50a 21bd
00000240: 8ef7 1cbc 6901 67bc 17ac 24bd 7ee5 70bc
00000250: 3f34 fdbc 7c4d db3c 5d17 163d d1f5 4e3d
00000260: ffa3 053d 94eb 093d 649f 34bd 4674 aebb
00000270: 43be f13a 8f58 673b f80f fa3c e6d1 0f3e
00000280: 733a a9bd 7b50 f5bc da86 203d 959d 573c
00000290: bb16 b7bc 309b a73c 3017 08bd 3b61 143d
000002a0: 0568 34bd 2ef6 cebd 237e 93bc ef78 22bc
000002b0: abf8 823b e2bc 8a3d 75ce 483c 988c cf3c
000002c0: 7318 38bc e2a7 c03c 687c 523d 7867 d93c
000002d0: da2b b3bc f4b5 193d b995 51bc 517d 5f3d
000002e0: 8fcd cf3c d510 e23c 0e23 55bd 0715 903d
000002f0: 9030 4cbd 0876 3fbd 5258 733d 8f51 1cbd
00000300: 4782 3a3b ef87 f1bb b597 0fbd 3366 263c
00000310: 6864 28bd 21fc 0b3b 4549 27bd ab72 843c
00000320: 5734 74bd 816f a03c 2d8d 68bd 0013 87bb
00000330: 579a 2f3d d0fd f8bc 49f3 b5bb 54d9 493d
00000340: 42bc c53c 33a1 cf3d 3e7f 3a3d 9981 2f3d
00000350: 6be9 8b3d b69d 4dbc bf22 043d 0d71 df3c
00000360: 42f6 85bc f896 5dba 2652 a63c 2280 54bd
00000370: 3734 84bc 55c8 b33c 7ef3 073d 0165 923b
00000380: 3d39 7b3b c563 04bd b43b 38bd 695a 9b3c
00000390: 1d2a cbbc 14ef c6bc 3b43 8e3d 97b1 6d3c
000003a0: cb50 c8bc 70f6 5abb 15c9 86bd 1ae8 a7bc
000003b0: 4ed1 9b3c c8bc 203d c82e 9cbc 108a d23d
000003c0: 3c74 363c 2ff3 03bd 812f 123e 8fda 19bd
000003d0: 95af 7b3b 9968 2cbc fd72 1ebd 135a cb3d
000003e0: 2ac8 533c e997 8bbd 331f 373c e4ab 4dbc
000003f0: 51fc 713c 048f 7f3d f08f 8c3b c3d7 0e3d

action_model._discrete_distribution.branches.0.bias f4 [3]
0.004042136 -0.012051331 0.009669935
00000000: e573 843b f272 45bc a66e 1e3c

action_model._discrete_distribution.branches.1.weight f4 [3, 256]
-0.029019635 0.0055984 0.0073163616 -0.0076749735 0.026068278 -0.07276608 -0.04354139 0.007404633
0.0042890585 -0.009532024 0.020988183 0.025324933 0.0011656228 -0.040542286 0.008614989 -0.011613994
0.032502636 0.034272596 0.016952941 -0.011023213 0.012420726 0.012643554 -0.0006320166 -0.015760927
0.03433449 0.015847215 0.014979371 0.020980073 0.021590501 0.0027861886 0.034573905 0.011049474
0.042510908 0.017728765 -0.019095777 -0.012207853 -0.059154116 -0.007961672 0.027588766 0.0007260223
-0.046642 0.005617586 -0.007516621 -0.0057144775 0.016182492 -0.018208746 0.0038061459 0.0052120937
-0.03264752 0.03605387 0.0016296431 -0.028390575 -0.009151268 -0.012381512 -0.0397957 -0.0060150693
-0.0064478735 0.028286777 0.015161287 0.0108023165 -0.05252039 0.0056196796 -0.0070977225 0.013298577
0.008451452 0.006908297 0.020794004 -0.006226416 -0.034042448 -0.007640219 0.004306805 0.009084758
-0.03420434 -0.0046645924 0.008752067 -0.04808862 1.9557574e-05 0.0041210065 0.045765977 0.015443916
-0.042377993 0.025766382 0.024491992 0.0023206377 0.005564491 -0.007512376 -0.017992342 0.01874487
-0.010290206 0.01571346 0.015382484 0.0049177925 -0.015970925 0.024490593 0.02459719 -0.024830783
-0.021358494 0.024398692 -0.027023286 -0.016267622 0.033308886 0.023823066 -0.0036260276 0.006645844
-0.016939692 0.025845738 0.007311582 -0.01187153 -0.0029802984 0.033626832 0.02466836 0.009511608
0.0023712951 -0.03376579 -0.0031068213 0.041806713 0.04092842 0.004805256 -0.023193981 0.013413883
0.015636608 0.015125563 -0.011703827 -0.010366426 -0.021603756 -0.025379715 0.014178825 -0.025812706
0.007139083 0.012152406 0.02344904 -0.0036383616 0.029231504 -0.037678 0.030316211 -0.010462863
0.03139354 -0.005730333 0.016435754 -0.0119462125 -0.0034909332 -0.029741613 0.04732484 0.022504587
-0.024917161 0.0059990194 -0.0012656068 0.0055224122 0.008007141 0.0050497875 0.029318558 0.01944196
0.00033063852 0.019503787 0.0074331635 0.017588595 -0.05776803 0.018211069 -0.03410363 0.042825557
-0.028089317 -0.017373037 -0.09411667 -0.0188614 0.009909114 0.011432046 0.01130444 0.021189531
-0.024453556 -0.009967659 0.018861648 0.025832886 0.021906598 0.010917717 -0.009026025 0.023787165
0.014825113 -0.0005401166 -0.002431011 0.007942318 0.00015573646 -0.0014003948 -0.01391276 -0.010969533
-0.013690772 0.00071667024 -0.014705722 0.0018645274 -0.045311794 0.009013468 0.0386109 -0.0025933015
-0.0017274617 0.009705385 -0.003283274 -0.0022508265 -0.01736695 -0.027579835 0.0350382 0.009700224
-0.004509879 0.015883978 -0.010277146 0.03889877 0.021415675 -0.045944564 0.011545302 0.018085096
0.012168671 0.015288657 0.0015852881 -0.016761739 -0.0023150754 0.0095577305 0.00039767954 0.0065262443
0.026339997 -0.019429727 -0.0033931409 0.012506846 0.014690288 0.030489024 0.024309147 -0.023488268
0.016838476 -0.028872235 0.0129835745 -0.026458858 0.0094384635 -0.00082947 -0.024340138 -0.0066789463
0.024584455 -0.004687905 -0.020484325 -0.0064862245 0.0108416695 0.021380963 -0.019182246 -0.0016149014
-0.023840366 0.046219543 0.04178937 -0.020239703 0.0008683171 0.00053595344 -0.004616856 0.015844086
-0.029395288 -0.004269252 -0.044735786 0.014100005 -0.010074355 0.013259182 0.024211522 -0.013507703
00000000: 96ba edbc c872 b73b 17be ef3b 587e fbbb
00000010: 248d d53c 6206 95bd 7558 32bd 90a2 f23b
00000020: 3b8b 8c3b 352c 1cbc 69ef ab3c 3c76 cf3c
00000030: d0c7 983a ab0f 26bd e225 0d3c 9f48 3ebc
00000040: 7c21 053d 6c61 0c3d e5e0 8a3c b59a 34bc
00000050: 4d80 4b3c e926 4f3c ebad 25ba 0f1d 81bc
00000060: 52a2 0c3d 05d2 813c 096c 753c 67de ab3c
00000070: 90de b03c 7d98 363b 5e9d 0d3d da08 353c
00000080: eb1f 2e3d ea3b 913c bf6e 9cbc 7203 48bc
00000090: 964b 72bd ac71 02bc d601 e23c 8852 3e3a
000000a0: af0b 3fbd ba13 b83b fd4d f6bb 8340 bbbb
000000b0: 2591 843c 822a 95bc 8870 793b 36ca aa3b
000000c0: 68b9 05bd 39ad 133d c099 d53a 5a93 e8bc
000000d0: 33ef 15bc d3db 4abc d100 23bd 0f1a c5bb
000000e0: af48 d3bb acb9 e73c 0c67 783c 33fc 303c
000000f0: 9f1f 57bd 4a25 b83b 0394 e8bb 46e2 593c
00000100: f577 0a3c ff5e e23b 3058 aa3c f706 ccbb
00000110: 1870 0bbd cd5a fabb 1920 8d3b 3dd8 143c
00000120: da19 0cbd 70d9 98bb d464 0f3c 93f8 44bd
00000130: 920f a437 8209 873b 1b75 3b3d 7b08 7d3c
00000140: 8c94 2dbd 0514 d33c 6ea3 c83c d715 183b
00000150: 5556 b63b 612a f6bb ad64 93bc d78e 993c
00000160: 4198 28bc 84b9 803c d006 7c3c 6f25 a13b
00000170: 75d5 82bc 7fa0 c83c 0c80 c93c ed69 cbbc
00000180: 02f8 aebc c4df c73c f05f ddbc ad43 85bc
00000190: e66e 083d 9728 c33c a6a2 6dbb 61c5 d93b
000001a0: 1cc5 8abc 71ba d33c ff95 ef3b ce80 42bc
000001b0: 1c51 43bb 4abc 093d 4d15 ca3c 93d6 1b3c
000001c0: bb67 1b3b ff4d 0abd d09b 4bbb 843d 2b3d
000001d0: 8fa4 273d 6975 9d3b 4e01 bebc e7c5 5b3c
000001e0: 5818 803c 36d1 773c 69c1 3fbc f1d7 29bc
000001f0: 5cfa b0bc 1fe9 cfbc 4d4e 683c 2b75 d3bc
00000200: f8ee e93b e31a 473c 3318 c03c 9471 6ebb
00000210: e876 ef3c 3f54 1abd b459 f83c 6e6c 2bbc
00000220: 8396 003d 84c5 bbbb 46a4 863c 0cba 43bc
00000230: 24c8 64bb afa4 f3bc b1d7 413d 8a5b b83c
00000240: 131f ccbc 6c93 c43b b8e2 a5ba 5af5 b43b
00000250: 6230 033c b078 a53b 792d f03c bf44 9f3c
00000260: 8d59 ad39 68c6 9f3c e591 f33b f515 903c
00000270: 2b9e 6cbd 612f 953c 3fb0 0bbd da69 2f3d
00000280: 911b e6bc e651 8ebc 3ec0 c0bd 3983 9abc
00000290: d659 223c 7a4d 3b3c 4236 393c ab95 ad3c
000002a0: d352 c8bc 644f 23bc be83 9a3c 7d9f d33c
000002b0: 7775 b33c 39e0 323c e5e1 13bc 4ddd c23c
000002c0: 08e5 723c 9d96 0dba 9951 1fbb 7f20 023c
000002d0: 304d 2339 748d b7ba 58f2 63bc 8eb9 33bc
000002e0: 424f 60bc edde 3b3a 45f0 70bc 2863 f43a
000002f0: dc98 39bd 3aad 133c 7726 1e3d 61f4 29bb
00000300: ff6b e2ba 5603 1f3c 322c 57bb 9a82 13bb
00000310: 2245 8ebc 1bef e1bc 3784 0f3d b0ed 1e3c
00000320: 9bc7 93bb 1e1f 823c 7961 28bc 5154 1f3d
00000330: ed6f af3c 5e30 3cbd 8228 3d3c 3227 943c
00000340: 1b5f 473c 467d 7a3c 71c9 cf3a ea4f 89bc
00000350: 85b8 17bb 0798 1c3c a57f d039 1bda d53b
00000360: fac6 d73c 172b 9fbc 755f 5ebb 84e9 4c3c
00000370: 89af 703c 1ec4 f93c fa23 c73c 786a c0bc
00000380: d8f0 893c 7785 ecbc 0fb9 543c 3fc0 d8bc
00000390: c9a3 1a3c ca70 59ba f864 c7bc 10db dabb
000003a0: 5765 c93c ff9c 99bb bece a7bc 658a d4bb
000003b0: 42a1 313c 2127 af3c 1624 9dbc 19ab d3ba
000003c0: df4c c3bc b450 3d3d 552b 2b3d bccd a5bc
000003d0: c69f 633a 3a7f 0c3a ff48 97bb 75cb 813c
000003e0: 63ce f0bc 15e5 8bbb df3c 37bd b503 673c
000003f0: e80e 25bc 0a3d 593c 3e57 c63c 6a4f 5dbc

action_model._discrete_distribution.branches.1.bias f4 [3]
0.011318412 0.03241074 -0.045050137
00000000: dc70 393c 20c1 043d 7e86 38bd

action_model._discrete_distribution.branches.2.weight f4 [3, 256]
-0.025637824 0.056914136 0.010008937 0.03824187 0.0046875053 0.00930303 0.039129842 -0.0041143806
-0.027936969 0.023699135 -0.07443677 -0.007595466 0.009720521 -0.03911926 0.06416543 0.0076093217
-0.07952685 -0.026179442 -0.017135926 -0.012539675 -0.0009894927 0.02191501 -0.041114274 0.020298503
-0.026413983 0.018253779 -0.0027242403 -0.02413781 -0.0047272164 0.066645555 -0.012907838 0.013858561
0.018464062 0.039262578 -0.016392961 0.014937398 -0.04184355 0.107194394 0.032847077 0.0053367135
-0.0094827255 -0.011589018 0.028710796 0.0060245763 0.020321433 -0.038076643 -0.009183613 -0.016538145
-0.044770822 -0.024995346 -0.037533987 0.014218722 -0.0071737547 0.013688985 0.028888714 -0.0021680596
0.035405297 -0.049099177 -0.03522284 0.019206528 0.041124735 -0.026212513 -0.012175384 -0.020578265
-0.0073377644 -0.053219244 -0.007645573 0.009204206 -0.026487688 -0.0076973517 0.057149433 0.042571533
-0.021547893 0.0042394213 -0.02722572 -0.018715065 0.039124962 -0.06253526 -0.0064384323 0.009504492
-0.025366554 -0.0491562 0.013957893 0.064230725 -0.0021163796 -0.0056528826 -0.027517306 0.0330662
-0.061884508 0.029555967 0.0072722905 -0.010243949 -0.06079326 0.0063772234 0.03859098 -0.018258613
0.07775223 0.011377838 0.05938785 -0.0073009008 0.02743521 0.16282938 -0.040929485 -0.018716237
0.02586321 0.00540567 0.01109031 -0.01450896 -0.017641252 0.016863097 -0.027335702 0.074423164
0.03998915 -0.05316198 -0.016104074 0.042619653 -0.0062180096 0.04911222 0.017257044 -0.015943276
-0.00015967012 -0.02649313 -0.0050576525 -0.03940911 0.0914647 0.035838824 -0.010921044 0.01677497
0.0010844796 0.021356935 -0.02301353 0.003318441 -0.0016362863 -0.027726458 0.029046176 -0.002989942
0.018842176 0.021688655 0.017175177 -0.019767039 0.045430746 0.003142449 -0.036414396 0.030503487
-0.009380857 0.006890301 0.022217352 -0.006477263 0.014270768 0.016230512 -0.001057813 0.038295463
0.0054594646 0.031888362 0.019186065 0.041217435 -0.04495836 0.028325414 -0.01839406 -0.0046710437
-0.0010031865 0.030153131 -0.020660251 -0.003333009 0.06597512 0.053416114 0.04301124 0.017603442
0.058858555 0.042954803 0.053343806 -0.039651208 0.024389906 0.0058063194 0.006492925 -0.013433078
-0.004050984 -0.013540865 0.00813826 0.007014437 -0.01340924 0.010898865 -0.029698586 -0.054867733
-0.030797753 -0.019249573 0.022219598 -0.0074586514 -0.0029057302 0.041602943 0.00964829 0.010490686
0.009444397 -0.012493205 0.030077571 -0.02709573 -0.0029892968 0.01246633 0.0051016654 0.036295727
0.06195598 0.026053026 0.04802976 0.04433927 0.003399614 0.059131615 -0.0020455134 -0.009105387
0.019338487 0.027952759 -0.009648042 0.011841695 -0.012101478 0.0015286495 0.013187464 0.035961002
0.0029187433 -0.0067513394 -0.02377767 -0.007955913 0.020674441 -0.008068009 -0.033997413 -0.00042941925
-0.024801867 -0.04795744 0.033658892 -0.03195261 0.03431854 -0.012119488 -0.031870965 0.03027637
-0.014907877 0.035392407 0.027274927 0.0045901868 0.005582738 -0.049736895 -0.057796538 -0.0037263008
0.027783588 -0.036812726 0.037629437 0.01796816 -0.02032182 -0.012563573 0.045517545 -0.032837704
0.0043718596 0.016066097 0.008234415 -0.044900555 -0.0020511707 -0.0033181258 0.05028912 -0.0006494697
00000000: 6a06 d2bc cc1e 693d 86fc 233c 82a3 1c3d
00000010: a599 993b bc6b 183c 9d46 203d edd1 86bb
00000020: 12dc e4bc b024 c23c 4e72 98bd 63e3 f8bb
00000030: d242 1f3c 843b 20bd 2a69 833d 9e57 f93b
00000040: f9de a2bd 4576 d6bc a460 8cbc 3673 4dbc
00000050: deb1 81ba 1b87 b33c 7167 28bd 0c49 a63c
00000060: 2362 d8bc f388 953c 2b89 32bb a8bc c5bc
00000070: c4e6 9abb 777d 883d 667b 53bc 050f 633c
00000080: f241 973c ccd1 203d 884a 86bc fdbb 743c
00000090: 2464 2bbd bc88 db3d a88a 063d 99df ae3b
000000a0: 6f5d 1bbc dddf 3dbc e732 eb3c cf69 c53b
000000b0: 2279 a63c 41f6 1bbd dd76 16bc 017b 87bc
000000c0: 9c61 37bd 0ac3 ccbc 3dbd 19bd a4f5 683c
000000d0: d111 ebbb c447 603c 06a8 ec3c 0116 0ebb
000000e0: 2505 113d 381c 49bd d345 10bd 0257 9d3c
000000f0: 6972 283d a0bb d6bc 437b 47bc c093 a8bc
00000100: a171 f0bb 6cfc 59bd b787 fabb 3dcd 163c
00000110: b5fc d8bc 113a fcbb 8615 6a3d 7d5f 2e3d
00000120: 3585 b0bc d8ea 8a3b 7908 dfbc 5650 99bc
00000130: 7f41 203d 7d12 80bd 7cf9 d2bb bbb8 1b3c
00000140: 85cd cfbc 0358 49bd a5af 643c 668b 833d
00000150: f5b2 0abb d13b b9bb f96b e1bc 6c70 073d
00000160: 9c7a 7dbd 5b1f f23c 654c ee3b 3cd6 27bc
00000170: 5a02 79bd 07f8 d03b 9311 1e3d 1693 95bc
00000180: 903c 9f3d 1d6a 3a3c ad40 733d 653c efbb
00000190: cebf e03c bfbc 263e ada5 27bd cb52 99bc
000001a0: 15df d33c 0c22 b13b 22b4 353c fdb6 6dbc
000001b0: 6384 90bc 7a24 8a3c 1fef dfbc 2c6b 983d
000001c0: aacb 233d 60c0 59bd b1ec 83bc f291 2e3d
000001d0: 72c0 cbbb e529 493d a55e 8d3c 799b 82bc
000001e0: 1f6d 27b9 1f08 d9bc aaba a5bb 726b 21bd
000001f0: d851 bb3d bbcb 123d 2eee 32bc a96b 893c
00000200: 1925 8e3a bdf4 ae3c df86 bcbc 347a 593b
00000210: a878 d6ba 9922 e3bc 3ff2 ed3c e7f2 43bb
00000220: e85a 9a3c 68ac b13c f5b2 8c3c 7cee a1bc
00000230: 9715 3a3d 8cf1 4d3b 4327 15bd 73e2 f93c
00000240: 2bb2 19bc 09c8 e13b 2a01 b63c 383f d4bb
00000250: f0cf 693c daf5 843c 50a6 8aba b4db 1c3d
00000260: 4fe5 b23b 5f9d 023d 182c 9d3c 9dd3 283d
00000270: 4226 38bd b30a e83c 24af 96bc 8e0f 99bb
00000280: 5a7d 83ba b303 f73c b03f a9bc 9d6e 5abb
00000290: f71d 873d dbca 5a3d 8e2c 303d 1835 903c
000002a0: ab15 713d 60f1 2f3d 097f 5a3d 4e69 22bd
000002b0: 57cd c73c f042 be3b 9ac2 d43b 6a16 5cbc
000002c0: 1ebe 84bb 81da 5dbc 5656 053c 5dd9 e53b
000002d0: 6eb2 5bbc 2791 323c 734a f3bc fdbc 60bd
000002e0: 924b fcbc 48b1 9dbc e005 b63c b467 f4bb
000002f0: 106e 3ebb d967 2a3d dd13 1e3c 20e1 2b3c
00000300: acbc 1a3c 4db0 4cbc 3d65 f63c ddf7 ddbc
00000310: 14e8 43bb 943f 4c3c df2b a73b d4aa 143d
00000320: 8ec5 7d3d 286d d53c dbba 443d 189d 353d
00000330: 0fcc 5e3b fe33 723d 050e 06bb c32e 15bc
00000340: bf6b 9e3c 2ffd e43c d212 1ebc ab03 423c
00000350: 4745 46bc f75c c83a 3c10 583c d84b 133d
00000360: 6348 3f3b 573a ddbb 63c9 c2bc 8559 02bc
00000370: 725d a93c af2f 04bc df40 0bbd ad23 e1b9
00000380: 492d cbbc 056f 44bd e8dd 093d bde0 02bd
00000390: 9991 0c3d d190 46bc 218b 02bd 2606 f83c
000003a0: 2b40 74bc a1f7 103d ab6f df3c 4769 963b
000003b0: 67ef b63b eab8 4bbd 10bc 6cbd f434 74bb
000003c0: 689a e33c f1c8 16bd 5321 1a3d f631 933c
000003d0: f279 a6bc 72d7 4dbc 9b70 3a3d d480 06bd
000003e0: d141 8f3b 0c9d 833c a4e9 063c a5e9 37bd
000003f0: ef6c 06bb ea74 59bb f7fb 4d3d 2c41 2aba

action_model._discrete_distribution.branches.2.bias f4 [3]
0.015914818 -0.00771034 -0.008581245
00000000: cb5f 823c 05a7 fcbb 5a98 0cbc
