ML-Agents/results/2vs2/Volleyball/Volleyball-15499988.onnx (onnx, 298113 bytes, 15 tensors)

discrete_action_output_shape f4 [1, 4]
000000 00 00 40 40 00 00 40 40 00 00 40 40 00 00 00 40
       3.0 3.0 3.0 2.0

network_body.observation_encoder.processors.0.normalizer.running_mean f4 [17]
000000 48 16 9f bd 96 5f 8f 3d 16 6d e6 3e 4d 0e 0a 3f
       -0.07767922 0.070006534 0.450051 0.5392807
000010 22 0d 3d 41 f0 90 92 39 56 bf 7b 3e 92 74 78 3d
       11.815706 0.00027955277 0.24584708 0.060658045
000020 0a 1f 64 c0 00 00 f7 2e 00 00 43 ae 00 00 bf 2d
       -3.5643945 1.12322596e-10 -4.4337867e-11 2.1714186e-11
000030 00 c0 2c ac 00 40 c6 2e 96 92 92 39 48 bf 7b 3e
       -2.4549252e-12 9.015366e-11 0.00027956505 0.24584687
000040 68 74 78 3d
       0.06065789

network_body._body_endoder.seq_layers.0.weight f4 [256, 17]
000000 ee 36 92 bd 09 89 22 3f 71 6e 3c bf d6 a2 b2 bd
       -0.07139383 0.6349035 -0.7360602 -0.08722465
000010 55 6f bc 3e 8f 67 b1 39 2d 08 1f 3e 99 20 a1 3e
       0.3680369 0.00033837228 0.15530463 0.31470183
000020 bf a2 89 be 07 51 b9 be f3 0e c3 be 6d 98 b1 be
       -0.26881978 -0.3619463 -0.38097343 -0.34686604
000030 98 4c 76 be 0b 97 f7 be 43 7c bd bd b9 b9 87 be
       -0.24052656 -0.48357424 -0.09252217 -0.26508883
000040 a4 8c 8e be 79 e4 4f bf 4f 75 35 3f 88 37 3a be
       -0.27841675 -0.81207997 0.70882124 -0.18185246
000050 08 8a 5c 3f 22 86 49 3f 93 c1 32 3d fb 50 70 bd
       0.8614812 0.78720295 0.043641638 -0.05867098
000060 a1 67 80 3e d2 17 57 3e 3f 0c 81 be d0 14 2f 3d
       0.25079063 0.2100518 -0.25204656 0.042744458
000070 20 21 85 be 37 ca 8b 3e 02 64 be 3e 7f 9f 11 bd
       -0.26001835 0.27302715 0.37185675 -0.035552498
000080 0e 07 cc 3b b5 f1 ba 3c 82 59 a0 be 63 98 a6 3e
       0.006226427 0.022820333 -0.3131829 0.32538137
000090 d3 a9 05 3e 9a 14 9a 3d 6e 03 eb 3e b9 67 e7 bc
       0.13053064 0.07523461 0.45901054 -0.028247701
0000a0 87 2f 6b 3b 97 67 99 3e 71 fd 1c 3f e5 f0 22 3e
       0.0035886483 0.29961845 0.6132422 0.15912206
0000b0 5e 8d cf 3e 32 86 ad 3e 3f cc e3 be e7 34 8f 3e
       0.40537542 0.33891445 -0.44491765 0.2797005
0000c0 5c 5e ab be e1 3c 42 3e 07 9f a7 3e 4e 64 8e be
       -0.33470428 0.18968536 0.32738516 -0.278109
0000d0 31 74 2d bf 86 51 a4 be d8 b8 dd be 53 93 d5 bd
       -0.6775542 -0.32093447 -0.43305087 -0.104284905
0000e0 21 6c 2d be 8d 91 95 3e 0a 47 9d bd 48 f0 81 3d
       -0.16935779 0.2921261 -0.07679565 0.06344658
0000f0 ec 10 ea be ef d8 95 3e 39 9c 29 be 5e 72 79 bd
       -0.45716035 0.2926707 -0.165635 -0.060900085
000100 21 26 b5 be 7c 30 cd 3e 30 83 d6 3e d6 dc 21 3c
       -0.35380653 0.40076053 0.41896963 0.009879312
000110 ed f9 87 bd c7 d8 17 3f c3 d7 b6 3e b8 b7 c7 3d
       -0.066394664 0.5931515 0.35711488 0.097518384
000120 bc c5 58 be 62 d1 3c 3e 74 38 58 3c ba d9 4e 3d
       -0.2116918 0.18439248 0.013197053 0.05050061
000130 38 6d 27 be 83 19 c4 3d f8 9f 40 3e 1d 32 20 3f
       -0.16350257 0.095751785 0.18811023 0.62576467
000140 96 a4 c1 3e b3 0a 8a be b1 cd f0 3d 86 32 6a ba
       0.37820882 -0.26961288 0.117579825 -0.000893392
000150 c7 8a 2b be 45 d9 17 3f e2 08 67 3e c0 b5 dd be
       -0.16752158 0.593159 0.22561982 -0.43302727
000160 91 77 db bd 69 ad 0c 3c 42 2c 8b be a3 a0 0d be
       -0.10716165 0.008586266 -0.27182204 -0.1383081
000170 29 7c ed 3d b1 83 2b be 68 21 02 be 92 c0 85 bd
       0.11595947 -0.16749455 -0.12708056 -0.065308705
000180 33 ac 30 bf c8 9d 69 be dc 36 c9 3c 11 76 86 3e
       -0.69012755 -0.22814095 0.024562292 0.26261953
000190 a2 59 d5 be 96 90 f9 3c 38 4d a8 bd 33 15 2d 3e
       -0.41669947 0.030464452 -0.08217853 0.16902618
0001a0 b4 95 47 3e 70 17 16 be 5a 91 8c bd be fc 84 bd
       0.19490701 -0.14657378 -0.06863661 -0.06493519
0001b0 91 53 a4 be 16 82 c0 3e 92 92 a4 3e 4b 6f bd 3d
       -0.32095006 0.37599248 0.32143074 0.09249743
0001c0 e6 55 9a bd a6 4d 90 3e e8 36 e0 bd f0 b7 ea be
       -0.07535915 0.2818424 -0.109479725 -0.45843458
0001d0 38 c8 a4 bd 5b 2e 86 be 2d cc a9 3c 34 ee 7a bd
       -0.08046001 -0.2620724 0.020727241 -0.061262324
0001e0 18 d9 09 3f d9 b5 3b bf 53 0f 47 3f ea 0a c8 3e
       0.53846884 -0.7332435 0.7775776 0.39070827
0001f0 a2 85 90 3e 20 53 ac 3e dc 1f 82 be 64 19 d3 3e
       0.28226954 0.3365717 -0.25414932 0.4123031
000200 47 14 24 be b2 46 32 be 04 0c 80 bc 46 aa c4 bd
       -0.1602336 -0.1740978 -0.01563073 -0.096027896
000210 7e 93 22 3e 87 3b d9 bc c1 fe 50 be c1 93 c4 3d
       0.15876576 -0.026517643 -0.20409681 0.09598494
000220 85 d0 a8 be d2 a1 1f 3e 04 3a e2 3e 00 7a 8d be
       -0.32971588 0.15589073 0.44184887 -0.2763214
000230 51 1d 60 bb d2 18 22 bd a2 58 74 be 63 f0 17 3e
       -0.0034197161 -0.03957445 -0.23861936 0.14837794
000240 23 c0 84 3e 49 5c 45 3e fb 5a c7 3e cf f3 3d be
       0.2592784 0.19273485 0.389366 -0.18550037
000250 c8 d5 8c bd bf df c8 bb cf 91 85 3e 7d a5 96 be
       -0.06876713 -0.0061301882 0.26087806 -0.29423133
000260 8a 55 26 3e 99 1a f2 be c4 99 04 be 39 fb 1e be
       0.16243568 -0.47285917 -0.12949282 -0.15525521
000270 d2 1a 96 3d 6f 13 bf bd f2 4e 21 bf 4b 48 0c 3e
       0.07329334 -0.093298785 -0.63011086 0.13699453
000280 88 db a5 3e 13 22 42 3e 73 d3 9f 3e e2 df 24 3e
       0.32394052 0.18958311 0.3121601 0.1610103
000290 dd 57 89 be 19 8c 68 be 70 2e 65 3d 70 48 6e be
       -0.26824847 -0.22709693 0.05595249 -0.2326982
0002a0 7d 49 0b 3f aa a5 08 3f 07 62 90 3a 83 99 80 3e
       0.5440901 0.53377783 0.0011015543 0.2511712
0002b0 51 78 8a bd 5c 4c ec 3d 7b d0 49 3e b1 d3 13 be
       -0.0676123 0.11538002 0.19708435 -0.14436223
0002c0 06 2a 7b bc 8c 3c f1 be a6 5b 9c bc 75 99 2a 3d
       -0.015329843 -0.47116506 -0.01908667 0.041650254
0002d0 31 11 41 3f ec cd 89 be 9e e3 02 3e 7c 09 79 be
       0.75416857 -0.26914918 0.12782142 -0.24320024
0002e0 04 7a 58 3e 4d a0 63 3e 03 32 d2 be e5 4d a2 be
       0.21140295 0.22229119 -0.4105378 -0.31700054
0002f0 c7 1e 9b be c8 33 d8 3d 60 f9 14 bc d0 46 04 3d
       -0.3029692 0.105567515 -0.009092659 0.032294095
000300 0a d1 16 be 3f 59 96 3d 92 ec e8 bc b9 15 b4 bd
       -0.1472818 0.07341241 -0.028433118 -0.08793206
000310 78 f0 89 3e 7f 81 8c 3e 41 76 70 3d 53 f7 04 bf
       0.26941276 0.27442548 0.058706526 -0.51939887
000320 09 e9 9a 3e df af 83 3e e4 f0 00 3e 3c d3 d3 be
       0.30255917 0.25720116 0.12591892 -0.41372097
000330 41 f9 1c bf 82 bf 37 3f ef 8e 1f 3e 25 d6 b9 be
       -0.6131783 0.7177659 0.15581869 -0.36296192
000340 ee b7 68 be c0 8c 40 3e 9e 5b 1d 3d 94 3f 9b be
       -0.22726414 0.18803692 0.03841745 -0.30321944
000350 61 97 bd be 22 b3 86 3d 27 d6 a2 bd d0 e1 4a 3e
       -0.37029555 0.065771356 -0.079510026 0.19812703
000360 7d c7 16 3d 81 07 60 3d aa 6a 74 3e 91 85 28 be
       0.03681134 0.054694656 0.23868814 -0.16457202
000370 ac 34 18 3e 55 c4 04 3f 4a 70 f4 be 87 dc 34 3f
       0.14863843 0.5186208 -0.4774192 0.70649
000380 b7 61 ce be fb 0d 09 be 61 be 1c be a0 10 9d bd
       -0.40308926 -0.1338424 -0.15306999 -0.076691866
000390 0d a2 9d bd aa 6e fa 3d 40 af 2b 3e 06 04 e8 bd
       -0.07696924 0.12228139 0.16766071 -0.113288924
0003a0 c7 de e1 3e 4f dc 23 be 5f cf cc bc b8 36 92 ba
       0.44115278 -0.1600201 -0.025001226 -0.0011155223
0003b0 29 ef d3 3d e7 98 e5 3d 8c 00 be 3e ab ff 85 3e
       0.103483506 0.112108044 0.37109792 0.26171622
0003c0 28 3e 3f bd d9 86 37 3e 80 b1 b1 bc c1 e0 10 3e
       -0.046690136 0.17922534 -0.021691084 0.14148237
0003d0 82 3d 48 be 0b 7f 46 be 53 15 7a 3e 09 f8 32 3f
       -0.19554713 -0.193844 0.24422197 0.6990972
0003e0 47 de 7c 3c c5 7c b5 bd 15 24 ce 3d 50 b4 de be
       0.015433854 -0.088616885 0.10065476 -0.43496943
0003f0 68 9a 94 be 8a 7e 20 be 1b 1c d6 3c 2d 57 07 bf
       -0.29024053 -0.15673271 0.026136449 -0.52867395

network_body._body_endoder.seq_layers.0.bias f4 [256]
000000 eb e1 73 3e 73 11 65 3e f3 9b 09 3e bb c4 66 3d
       0.2381665 0.22369938 0.13438396 0.05633996
000010 54 39 82 bc 10 c3 2a 3e 52 7f 8f 3d 63 a3 90 3e
       -0.015896477 0.16675973 0.07006706 0.28249654
000020 00 70 a6 3c 48 f0 c2 ba 6e 5b 96 3c e6 33 4e 3d
       0.020317078 -0.0014872635 0.018354144 0.050342463
000030 cc 0e af 3c 63 15 36 3c ba 0f a8 3d 40 47 95 3e
       0.02136936 0.011113497 0.082061246 0.29155922
000040 d4 1c fe bc 5c ad ef 3d 51 d5 44 3d 5f 48 61 3d
       -0.031019606 0.117029876 0.048054997 0.05500066
000050 c5 4c a9 3d ab 06 b9 bc 68 a2 e8 bb ea 68 72 bb
       0.08266596 -0.022586187 -0.0070994385 -0.0036988803
000060 4b 8f e8 3d 3c 3e c0 ba e6 d1 f9 3d 66 49 4d 3c
       0.11355456 -0.0014666985 0.12198238 0.012529707
000070 20 64 f1 b9 b0 64 de 3d 28 df 7c 3d 73 5b 3e 3d
       -0.000460417 0.10859048 0.061736256 0.04647393
000080 da 8f 9e 3d fe 5c 57 bc 4f 72 08 3e ac a2 fc 3c
       0.07742281 -0.01314473 0.13324855 0.030839287
000090 ef 46 75 3c 72 d2 1a 3b c1 69 fd 3c d4 ca 7a 3d
       0.014970525 0.002362397 0.030934216 0.06122859
0000a0 40 32 94 bb ad 55 43 3d d9 47 49 3d ce 53 b5 3c
       -0.004522592 0.04768913 0.049140785 0.022134688
0000b0 7d a6 f8 3c f8 ea cb 3d f0 96 c6 3d 63 ae cb 3d
       0.030352825 0.09956926 0.09696758 0.09945371
0000c0 b3 3e 88 3d ff 1c d1 3d 5a 51 82 3c f1 5e 1a 3e
       0.06652584 0.10210609 0.015907932 0.1507528
0000d0 84 65 91 3d 33 da 6f 3c f6 bc 7b bc d8 e4 1f 3e
       0.07099441 0.014639425 -0.015364876 0.1561464
0000e0 81 b1 3b ba 39 e5 ac 3a b3 82 ec 3d d6 32 22 bb
       -0.0007159934 0.0013190872 0.115483664 -0.002474954
0000f0 28 97 94 3d c5 5c f3 3c 7d 6f 6a 3d 3c 51 67 3d
       0.07255393 0.029707322 0.05723523 0.056473956
000100 0c 3b e5 3d ff 9c ec 3d 0f c6 ad 3d ec 09 0d b9
       0.11192903 0.11553382 0.08485042 -0.00013450504
000110 31 a8 05 3d d7 d0 33 3e 1f f3 1e 3d 40 1b 48 3c
       0.032631103 0.17560135 0.038806077 0.012213528
000120 ef eb 07 3e 9a ca 98 3c bd 93 69 3d ac 9d 06 3e
       0.13273595 0.018651295 0.05702566 0.13146085
000130 4f 13 9a bc f5 ab 02 3d 88 1d a1 bc af bb 52 bc
       -0.018808035 0.031902272 -0.019667402 -0.01286213
000140 f2 78 d2 3b 87 71 71 3d 61 1f 54 3e 45 89 ed 3d
       0.006423109 0.05894616 0.20715095 0.11598448
000150 15 ff 43 3e 28 5c 52 bc 17 fb c1 3b 73 83 d3 3c
       0.19140275 -0.012839355 0.005919825 0.025819516
000160 0f 0a c5 3d b4 f4 9e 3e f5 63 83 3d de bf 12 bd
       0.09621059 0.3104607 0.0641555 -0.03582751
000170 c4 67 90 3b 8b fa b6 3d 2c bc 42 bc 34 74 c3 3d
       0.004406901 0.08934506 -0.011885684 0.09543648
000180 d4 3a ce 3d 1c f1 eb 3d ef 37 73 3d e0 93 0a 3e
       0.10069814 0.11520597 0.059379514 0.13532972
000190 10 74 df 3a 75 db e7 3c 63 0c 64 3e ff ed 0f 3c
       0.0017048139 0.028302887 0.2227035 0.00878477
0001a0 21 a0 cc bb ce c2 90 3e 0f 3e ba 3c 87 50 f8 3d
       -0.006244675 0.28273624 0.02273467 0.12124734
0001b0 17 39 1b 3d 22 fa 45 39 9c 4b 19 3c 69 27 e6 39
       0.037896242 0.00018880566 0.009356406 0.0004389838
0001c0 93 69 b3 3c b4 58 0b 3e 3e 09 7f 3d bc 47 1f 3e
       0.021900928 0.13608056 0.062264673 0.15554708
0001d0 39 93 5e bd ee e5 ac 3e 94 70 bf 3d b3 29 8c 3d
       -0.05433962 0.33769172 0.093476444 0.06843891
0001e0 d8 e9 5e bd 32 ac 76 3c 41 1a 5d 3d 44 ed 18 3e
       -0.05442223 0.015055703 0.053980116 0.1493426
0001f0 fe 3d cf 3c 42 f3 11 3e a4 b1 58 b9 46 0c 0d 3e
       0.025298115 0.14252952 -0.00020665542 0.13774213
000200 f6 6a 13 3e 96 3e 3c 3e c3 30 2b 3d 3a 30 69 3d
       0.14396271 0.1838325 0.04179455 0.056930758
000210 12 76 53 3d af 79 61 3d d6 60 d5 3d 40 9b b4 3d
       0.051626272 0.055047687 0.104188606 0.08818674
000220 c8 0a 0e 3c 54 89 0c bd fb f0 29 bc 29 bc 5a 3e
       0.008669563 -0.034310654 -0.010372396 0.2136084
000230 23 89 fb 3d dc d1 ff 3d 42 4b 3e bd b6 ef f2 3d
       0.12282016 0.124911994 -0.04645849 0.118621275
000240 ab bb 39 3d f7 da c7 3d ac 8a d3 3d 9c 11 d9 3d
       0.04534499 0.09758561 0.10329184 0.10599062
000250 d0 33 98 3c 83 8b fd 3d 77 94 8e 3d 64 05 9a 3e
       0.018579394 0.123801254 0.06961911 0.30082238
000260 90 88 d5 3c 0d 84 23 3c bf fc 2f 3b 73 9a 4a 3d
       0.026066095 0.009980214 0.002685353 0.0494637
000270 24 b6 43 bd 16 59 63 3e 3f cb 26 3d 69 9d e9 3d
       -0.047781125 0.22201952 0.040721174 0.11406977
000280 7e cd 81 3e 3e 45 57 3d d8 8a 9b bc 12 06 82 3b
       0.2535209 0.05255627 -0.018987104 0.003968009
000290 63 7a aa 3d 44 e0 54 3c 11 8d 14 3e ae 52 1d 3a
       0.08324125 0.012992922 0.14506938 0.0006001395
0002a0 b6 b8 3c 3e 03 27 30 bd a0 dd e8 3c 1f ab 54 3c
       0.18429837 -0.043005954 0.028425992 0.012980252
0002b0 ab 8a 32 3e 89 7c 13 bd a1 11 bd 3c ce cc 78 3d
       0.1743571 -0.036007438 0.023079695 0.060742192
0002c0 e6 7f a1 3d 95 28 b5 3d 59 04 e1 3d c4 c4 d7 3c
       0.07885723 0.08845631 0.109871574 0.026338942
0002d0 4e 17 cf bb 55 67 1a bb 9a 53 49 3e 7c 7f e4 3d
       -0.006319917 -0.0023560126 0.19660798 0.11157128
0002e0 ec 9b b4 3d 6e af f6 3c c2 d3 98 3e 8c 41 8d 3c
       0.08818802 0.030112948 0.29849058 0.01724317
0002f0 ec 13 67 3c 6a f2 94 3e 7b b9 ea bc 60 68 05 3c
       0.014103871 0.29091197 -0.028652897 0.008142561
000300 1a 55 95 bc f3 a6 2d 3c e2 1a 54 3d eb 07 50 3d
       -0.018229056 0.010598886 0.05178345 0.0507888
000310 26 7c 0a 3d f3 33 06 3e f3 65 09 3d 76 0b bc 3d
       0.033809803 0.13105755 0.033544492 0.091818735
000320 cd f7 95 3e 84 e4 ea 3c 43 77 94 bc 4e 87 5c 3e
       0.2929062 0.028673418 -0.018123275 0.2153599
000330 30 09 60 3c c2 70 b8 bc 46 fc f9 3c 3a 66 b9 3d
       0.0136740655 -0.022514705 0.030515801 0.09052701
000340 05 dd 2a 3d 7a 3b 1c bc 3e a2 27 bc c8 13 98 3d
       0.041714687 -0.009535665 -0.010231553 0.07425648
000350 8d 63 6f 3e 43 6b e7 bc a0 74 bc 3d ba 05 da 3b
       0.2337782 -0.028249389 0.09201932 0.0066535147
000360 c3 fc 8b 3d 73 78 b8 3a e0 f9 af 3d 53 96 8b bd
       0.0683532 0.0014073983 0.08592582 -0.068157814
000370 69 cb a0 3d 5f a7 3c 3e 1e 83 e1 3b 75 7b 20 3c
       0.078512974 0.18423222 0.0068820855 0.009795059
000380 9f bb a4 3d ab 4b 5f bd 49 96 26 3e 8d dc ae 3b
       0.080435984 -0.054515522 0.16268267 0.0053363503
000390 96 88 84 bd 08 44 39 3c da 25 e4 3d b0 d4 36 3e
       -0.06471364 0.011307724 0.11140032 0.17854571
0003a0 3a c4 63 3e 14 22 ef bc 8b 9f bf 3d fd 5a e0 3d
       0.22242823 -0.029191054 0.09356602 0.10954855
0003b0 9b da 04 3d df d6 9b ba 1f 0a 9b bc df 02 ea 3b
       0.03243504 -0.0011889598 -0.018925725 0.0071414555
0003c0 31 4f 17 3e 00 03 c7 3a 87 12 4b 3d 4a e5 9f 3d
       0.14776303 0.0015183389 0.049578216 0.07807405
0003d0 b6 65 d2 3d 6c 67 6d 3d e6 75 3d 3b ed 3d f9 bc
       0.10273306 0.05795996 0.0028909384 -0.030425036
0003e0 63 9e ac bb 31 dc 58 3d 0d c2 8e bd 1a 3a 15 3e
       -0.0052679046 0.052944366 -0.06970606 0.14572945
0003f0 48 da ad 3d 3d 56 85 3e 9e dd ec 3d 94 79 f2 3d
       0.084888995 0.26042357 0.115657076 0.118395954

network_body._body_endoder.seq_layers.2.weight f4 [256, 256]
000000 0f c2 b1 bd 50 81 3f be 32 ef ce bc cf 7a 75 bd
       -0.08679592 -0.18701673 -0.025260542 -0.059931573
000010 e2 b0 96 3d 80 1c f3 bc 5d bb 8f bd 2b e6 3d bd
       0.073579565 -0.029676676 -0.070181586 -0.046362083
000020 ea 15 0d 3b 04 8d a7 ba e4 f5 ef b8 ab 70 d5 3b
       0.0021527954 -0.0012783115 -0.00011442209 0.006513675
000030 18 b3 fe 3d ac a7 a2 bd af c3 ba 3d 26 35 0b be
       0.12436503 -0.07942137 0.09119355 -0.13594493
000040 af fc b5 3d 7b 4a e4 bc 2a 76 2f 3d 98 92 53 3e
       0.08886086 -0.027867546 0.0428373 0.2066139
000050 b5 1a 4f bd 11 b1 ae 3d c3 84 7b 3c 93 0b 0d 3e
       -0.05056258 0.085298665 0.015351477 0.13773946
000060 94 a7 81 bc e6 b2 62 be 80 64 90 3d f0 77 df 3d
       -0.015826978 -0.22138557 0.07050419 0.10911548
000070 a3 83 5a bd 62 31 fd bb 1c af 4b ba 54 66 26 bd
       -0.053348195 -0.007726834 -0.0007769929 -0.04062493
000080 05 dd c8 bd e5 3a 82 bc f6 65 86 bd d1 f2 0b 3d
       -0.09807781 -0.015897224 -0.06562416 0.034167115
000090 90 30 21 bd f8 44 a0 3d ef 23 f8 3d c9 87 b5 bc
       -0.039352953 0.07825655 0.12116229 -0.022159474
0000a0 d2 93 10 be 66 72 97 bd 0c d9 10 bd 33 c3 41 3d
       -0.14118889 -0.07394867 -0.035363242 0.047305297
0000b0 0c cf 44 bb e4 26 f1 bc b6 40 07 bd 46 cd 95 3d
       -0.0030030636 -0.02943749 -0.033020698 0.073145434
0000c0 7a 2f 15 bd 6a 8f 82 3d 27 88 bc 3c 41 e7 0b bd
       -0.03642223 0.0637501 0.023014141 -0.034156088
0000d0 df 68 b1 3d f3 20 be 3d 89 08 df 3b 08 60 24 3d
       0.08662581 0.09283628 0.0068064374 0.040130645
0000e0 dc f2 a0 bd c4 6c 81 3c 6e 25 0e bd 5a 1c 49 3d
       -0.07858822 0.015798934 -0.034703664 0.049099304
0000f0 72 4a 2f bd c8 fd 05 bd 6b 6c 04 bc 14 a0 98 ba
       -0.042795606 -0.032712728 -0.0080824895 -0.0011644387
000100 3f 21 df 3c d1 2e 9d bd f2 97 c2 bb bb 1b 3d 3d
       0.027237533 -0.07674945 -0.0059385234 0.046169024
000110 d9 6d 2b be 53 ab 3d 3d 76 5b 93 3d 38 49 ce bc
       -0.16741122 0.046305966 0.07195179 -0.025181398
000120 84 cd 08 3d a1 b7 c3 3d eb 70 2c 3c b1 7b 90 3c
       0.03339912 0.09556509 0.010524969 0.017637106
000130 41 3c de 3c f3 a8 7e 3d 04 f4 13 3b 65 ba ad 3d
       0.02712834 0.06217284 0.0022575865 0.084828176
000140 7d 0a 4e 3d 19 42 f3 bc 9a 75 d6 bc 81 b3 7a 3c
       0.05030297 -0.029694604 -0.026179124 0.015301586
000150 e5 4a 61 bd c3 26 ac bc ae 2c 04 bc 48 06 06 bd
       -0.055003066 -0.021014577 -0.008067293 -0.032720834
000160 0e 4c 7f bb 89 b8 d6 3d 42 71 23 be 0b 3a 23 3d
       -0.0038955244 0.10484416 -0.15961173 0.039850276
000170 a9 a0 68 3d b2 a5 cd 3d 7d f8 b3 3d 51 db 30 bd
       0.056793842 0.100413695 0.0878763 -0.043177906
000180 8a 48 bb bd 32 a3 8d bd c3 7c 01 be 51 ea 8a bd
       -0.09144695 -0.06915893 -0.12645249 -0.067829736
000190 53 32 53 bd 6d c5 c6 3d 6e ba 63 3d 1d e4 aa bc
       -0.051561665 0.09705625 0.055597715 -0.020860726
0001a0 ad 47 f5 bd d9 9b 6f be 70 4f c9 bd 94 ed 2e bd
       -0.11976562 -0.23399295 -0.098296046 -0.04270704
0001b0 5b dc ff bd 81 fa 6a bd d0 fc d0 3c 2f fd d8 3d
       -0.12493201 -0.057367805 0.025511175 0.10595166
0001c0 4a 31 0d bd 69 48 d3 bd 1a 27 f4 bd ab c3 8d ba
       -0.034470834 -0.103165455 -0.119215205 -0.001081576
0001d0 8b 27 fd bd 15 87 02 be 36 68 68 3d 47 08 49 bd
       -0.12361058 -0.12746842 0.05674001 -0.04908016
0001e0 f9 1a 47 3c 0d fa 7a 3d 66 86 ae bd 5a c2 29 3d
       0.012152427 0.061273623 -0.08521728 0.041445114
0001f0 d5 72 da 3b ae 18 d3 3d a0 31 10 3e 22 ca 24 be
       0.006666521 0.10307442 0.1408143 -0.16092733
000200 8e 14 3b 3d 10 3f ba bc 4b 10 47 3d d8 b0 08 bd
       0.0456739 -0.022735149 0.048599523 -0.033371776
000210 72 4c 97 bd 8d ec 2c bc 66 a4 1b be c4 38 e8 3d
       -0.07387628 -0.010554445 -0.15199432 0.11338952
000220 fa a5 32 bd e6 6f cd bc d1 89 24 3e dc 16 a6 bc
       -0.04361532 -0.025077771 0.16068198 -0.020274572
000230 86 d3 29 bd 52 f7 58 3d 13 b9 7e 3d 21 19 da 3d
       -0.04146149 0.052970238 0.06218822 0.10649324
000240 e2 da 1f 3d 8e be 3f 3d ed 76 67 3d a5 43 64 bd
       0.039027102 0.046812586 0.0565099 -0.055728573
000250 1a e8 33 3d 57 a6 fa bd 8e 20 b1 bd 9a 8e 35 be
       0.04392252 -0.12238758 -0.086487874 -0.1773018
000260 0a e5 43 3d 26 52 6f 3b 9b e0 88 bd 13 96 a1 bd
       0.04782585 0.003651747 -0.06683465 -0.078899525
000270 31 72 43 bd b1 e0 da 3b da 7b 0f 3e 01 ea 09 bd
       -0.047716323 0.0066796173 0.1401209 -0.03367043
000280 8a f5 1e be f0 8b 11 bd dd 21 28 3c b2 70 9d 3d
       -0.15523353 -0.035533845 0.01026198 0.076875106
000290 eb 02 81 3c 51 2b a1 bc bd ac 10 be 8c 4a 99 3d
       0.015748462 -0.019673975 -0.14128394 0.07484922
0002a0 b7 d8 ac bd 3c 6c 8a bd 04 fc b5 3d 8c ea 14 3d
       -0.084397726 -0.06758925 0.08885959 0.036356494
0002b0 55 48 6f 3d 0d c7 f4 bc 9b 3d f9 3d 98 5a 8b bd
       0.05841859 -0.029880071 0.121699534 -0.06804389
0002c0 9c de 9f bd 2c 47 7a bc 65 af af bc c7 04 83 3d
       -0.07806131 -0.015275758 -0.02144594 0.063973956
0002d0 02 5a 97 bd 99 5f ab bd a5 37 30 bd eb 03 c2 bd
       -0.073902145 -0.08367843 -0.043021817 -0.094734035
0002e0 7f 99 f0 bd 27 e7 39 3d 97 4f b6 bc 28 94 15 bd
       -0.11748027 0.04538646 -0.022254748 -0.036518246
0002f0 f1 e5 26 3d c3 1e 93 bd 21 13 92 ba 6b 26 7b 3d
       0.040746633 -0.07183602 -0.0011144617 0.061315935
000300 d8 61 7c 3d 0f be 88 3c 2c 6f 02 3d 48 41 48 3d
       0.06161675 0.01669219 0.031844303 0.048890382
000310 b4 e5 40 bc 2a bc 78 3c b6 95 dc 3c 49 f9 fa bd
       -0.0117735155 0.015181581 0.026926856 -0.122545786
000320 7b bf de bd 87 a5 c6 bc 1d b4 e7 3d f7 61 66 bd
       -0.10876366 -0.024248851 0.11313651 -0.05624577
000330 ed d3 a7 bd c0 97 eb bd 9c 77 4f be 7a 1f 43 3b
       -0.081947185 -0.115035534 -0.20260471 0.00297734
000340 72 6d 30 bc 02 25 86 ba 00 37 12 be c6 ad 12 3e
       -0.010768281 -0.0010234418 -0.14278793 0.14324102
000350 fe cf 04 be 89 4b 5e bc d1 4c ea bd 04 e4 10 3e
       -0.12969968 -0.013567814 -0.11440433 0.14149481
000360 cb be 23 3c a4 de 0a 3e 87 9f 5e bb 8b 7c 78 bd
       0.009994219 0.13561493 -0.0033969597 -0.06066565
000370 aa 26 1c bd a0 bf ea bc 4b a5 c6 3d ee b1 a0 3d
       -0.03812281 -0.028655827 0.09699496 0.078464374
000380 2a 37 07 be dd 0e ce bd c6 b3 0c bd a3 e9 be bb
       -0.13204637 -0.10061429 -0.034351133 -0.0058261915
000390 d9 85 68 bd 8c 8c 51 3d 23 5d 30 3d 0f f3 ee bd
       -0.056768272 0.051159427 0.043057572 -0.116674535
0003a0 26 53 ce bc 9a 6a 12 bc 4b 21 02 3d f2 56 20 be
       -0.025186133 -0.008936549 0.031770032 -0.15658167
0003b0 0c 50 f8 bc fc 2d a2 3d 1b 78 8c bd 5e 5f 99 bc
       -0.030311607 0.07918927 -0.06858846 -0.018722232
0003c0 ea 3c 1d bd 39 e9 15 3c 0e d2 06 ba d8 f0 c4 b9
       -0.03838817 0.009149843 -0.0005142995 -0.00037563476
0003d0 21 7c 1b 3d 13 e1 60 b9 53 00 b1 3d 33 6d cd bb
       0.037960175 -0.00021446151 0.0864264 -0.006269121
0003e0 6a 47 03 3e 8c 5f 9a 3b fb 30 b2 bc 4c ed b7 bd
       0.12820211 0.004711097 -0.021751871 -0.08980808
0003f0 11 c1 5e bd 91 bf 8d bd 89 7c ec bc 96 0f de bd
       -0.05438334 -0.06921304 -0.028867977 -0.108428165

network_body._body_endoder.seq_layers.2.bias f4 [256]
000000 fc 40 33 bd 68 e5 59 3c 3e ee 3f 3c c9 f8 41 bd
       -0.043763146 0.013299324 0.011714516 -0.0473564
000010 24 d7 a0 bc be 7f 88 bd 05 4c 4e 3d ac e3 2a bd
       -0.019633837 -0.0666499 0.050365467 -0.04172103
000020 30 28 07 3a 43 fc 7b bd f4 ed 78 bc a1 df 67 bd
       0.000515583 -0.061519872 -0.015193451 -0.056609754
000030 89 3f af 3c 99 38 96 bd e8 78 c3 bc ac 83 b0 bd
       0.0213926 -0.07335014 -0.023861364 -0.086188644
000040 e7 c2 e7 bc a3 f6 32 bd a5 99 35 bd 23 45 c5 bb
       -0.028291179 -0.043692242 -0.04433598 -0.0060202046
000050 56 39 8b bd b9 df 0a 3d b2 90 6c bc 07 32 52 bd
       -0.06798045 0.033904765 -0.014438795 -0.05131724
000060 ad 4a 7d bd 71 ff 5d 3d a8 4b 56 3b 5e d2 fe bc
       -0.061838794 0.054198686 0.0032698903 -0.03110617
000070 d3 eb 7d bd 4a 60 25 3b 62 8e af bb ef be b0 bc
       -0.061992478 0.0025234395 -0.0053575495 -0.02157542
000080 96 2a 00 3d 4c bf c0 bc eb 95 59 bd d7 28 39 3d
       0.031290613 -0.023528717 -0.05312149 0.045204964
000090 f9 2a 44 bd 0e 02 18 3d b5 f8 aa 3b 7c 42 1c 3c
       -0.047892544 0.037111335 0.0052176365 0.0095373355
0000a0 04 93 ce bb 18 2d df bc c7 c0 ef bc 68 20 e9 bc
       -0.0063041467 -0.027243182 -0.029266728 -0.028457835
0000b0 cc 9a 14 3d 7f a9 12 bd 17 c0 c1 3a 82 b3 15 bd
       0.03628044 -0.035806175 0.0014781979 -0.036548145
0000c0 1d db 9f bc 8b 36 7e bc c3 60 db bb 71 0f 66 bc
       -0.019513661 -0.015515934 -0.0066948845 -0.014041767
0000d0 10 b1 09 bc 08 4d 19 3d 53 74 59 bd a3 53 7d bd
       -0.008404031 0.03742698 -0.05308945 -0.06184734
0000e0 41 a9 6e bd 21 af 4f bd be 5f 47 bc 69 4e da bc
       -0.05826688 -0.050704125 -0.012168823 -0.026648717
0000f0 92 4d 32 bd 9c 6c 56 bd 35 21 d0 bd fa f6 08 bd
       -0.043531008 -0.05234967 -0.10162584 -0.03343866
000100 ce 09 d9 bb 1d 13 c8 bc 24 35 a6 bd 37 b7 1c bc
       -0.0066234833 -0.024423176 -0.081156045 -0.009565166
000110 b4 18 e5 bc 8f 08 7c bd 97 77 d3 bc c2 52 80 3c
       -0.02796588 -0.0615316 -0.02581386 0.015664462
000120 75 29 aa bc cf 6b ac bc 67 81 95 3c 86 ad 94 bd
       -0.020771721 -0.0210475 0.01825018 -0.072596595
000130 b0 04 10 bd 1b 2c 37 bd 73 41 b8 bc 47 fc d6 bc
       -0.03516072 -0.044719797 -0.022492146 -0.026243342
000140 aa c2 0c bd 1e cf fc bc 4f 46 48 bd cc 6e 6d bb
       -0.034365334 -0.03086048 -0.048895177 -0.003622937
000150 fd 47 9a bc 5d 69 db bc 8b e4 43 bc fa 37 35 bc
       -0.018833155 -0.02678364 -0.011956344 -0.011060709
000160 61 dd 11 bd ff d3 f3 bc 2f e0 3e bc 69 9d 64 bd
       -0.035611514 -0.029764174 -0.011650129 -0.05581418
000170 69 ca 55 bc 12 84 a6 bb 59 a5 1f 3b 64 19 99 3c
       -0.013048747 -0.005081662 0.002436003 0.018688865
000180 bb 60 29 bd d3 ff 9e 3b 18 e9 c1 bc 0d a1 03 bd
       -0.041352015 0.004852274 -0.023670718 -0.032136012
000190 dc e0 e0 bb f2 09 7a bd c1 5b c3 bb 38 b9 9a bc
       -0.006862743 -0.06104464 -0.0059618657 -0.018887147
0001a0 37 70 0e bd a6 b8 3a bd f8 17 26 bd bb 75 3e bd
       -0.034774985 -0.04558625 -0.040550202 -0.046498995
0001b0 e1 1f 37 3d 0f 38 cd 3c d0 f4 37 bc 3d 82 89 bd
       0.044708136 0.025051145 -0.011227801 -0.06714294
0001c0 5d 16 a7 3b ae e5 a7 bc 8c b5 8f bb ae 5d 0c bd
       0.0050991015 -0.020495262 -0.0043856557 -0.034269027
0001d0 cf 10 4d bd 9e e1 c8 3c ca 6b d7 bc 9f 0e 47 bc
       -0.050064858 0.024521645 -0.026296515 -0.012149482
0001e0 8b cb 15 bd 58 30 f5 bc 5c a2 c3 bd bf 67 eb bc
       -0.036571067 -0.029930279 -0.09552452 -0.028735993
0001f0 51 f8 0a bd c0 0c 24 bd 67 be 86 bb e6 dc d4 bc
       -0.03392822 -0.04005122 -0.004112053 -0.025984239
000200 7f 9f 2d 3c f7 ef 39 3b 50 74 fa bc 70 84 1e 3d
       0.010597109 0.002837179 -0.03057304 0.03870052
000210 5f 05 2b bc fe 99 ed bc cc 57 3d bd b8 8b 26 bd
       -0.010438292 -0.029004093 -0.046226308 -0.04066059
000220 c4 35 0e 3d d1 2b 69 bc 8c be a8 bc 34 2a 24 bd
       0.034719244 -0.014231638 -0.020598672 -0.04007931
000230 5f 51 c1 3b e1 18 38 bd 07 1b bf bc 02 14 e2 3c
       0.005899593 -0.0449456 -0.023328317 0.027597431
000240 1f 88 5f bd 5f b5 ac bc 36 7d 08 bc a1 db 7b bd
       -0.054573175 -0.021082578 -0.008330634 -0.06148875
000250 e3 c4 0e 3d 6a 30 11 3d ed 12 e3 3c e5 b2 6f 3b
       0.034855735 0.035446562 0.027718985 0.0036575135
000260 f1 ed ad 3b 8c 4a bc bc 09 fa 4b bb e0 87 06 3d
       0.005307906 -0.022984765 -0.0031124374 0.032844424
000270 52 a9 71 bd 9b af a2 bc 64 ac 22 bd 06 3b e7 3b
       -0.058999367 -0.019859126 -0.039715186 0.0070565967
000280 e1 f8 e8 bc d3 22 e6 bc eb ff 53 bd bb 91 5c bc
       -0.028438987 -0.028092777 -0.051757734 -0.013462479
000290 40 74 94 bb 1f fc 5b 3c f0 85 65 3d 98 89 96 3c
       -0.0045304596 0.01342681 0.056035936 0.018376157
0002a0 35 54 ae bc b4 e8 c6 3c 12 19 9c bc 39 c1 3b bd
       -0.021280387 0.024280883 -0.019054923 -0.04583857
0002b0 42 c3 36 bd d6 d4 b4 bb 92 c9 d3 bb 08 44 9a bb
       -0.044619806 -0.005518536 -0.006463238 -0.004707817
0002c0 11 68 22 bd c8 28 34 bd 29 62 7e bd a2 30 05 bd
       -0.039650027 -0.043984205 -0.06210533 -0.032517083
0002d0 c4 82 5b bd 49 59 06 bd d3 11 38 3a c0 c9 49 bd
       -0.053591505 -0.032799993 0.0007021699 -0.04926467
0002e0 e2 6a 19 bd 5a d3 fe 3b 4b 75 1a bc fd e7 14 bc
       -0.037455447 0.00777666 -0.009427379 -0.009088513
0002f0 e4 1a 5f bd 01 df 99 3b 2e 0d ba bc 05 74 bb 3b
       -0.054469004 0.0046957736 -0.022711363 0.0057206177
000300 06 8a db bc 7d 0e 5e bc 90 3f 03 3d d3 b6 de bb
       -0.026799213 -0.013553259 0.03204304 -0.0067966967
000310 a6 6e 21 bd 7f e6 93 bc ec 45 ff 3a cb 0c 34 bc
       -0.039412163 -0.018054245 0.0019475794 -0.010989378
000320 6a f0 1e bd e9 5a 11 bd cd 5d b4 ba 78 7c ff bc
       -0.038803495 -0.03548709 -0.0013760865 -0.031187281
000330 46 dd 84 bc 58 50 d8 bc 96 62 28 3c f3 a4 3b bd
       -0.016218793 -0.026405498 0.010277411 -0.045811605
000340 75 cb 2a bc 8c ae 09 bd d2 76 6b bd 86 8a 20 bd
       -0.0104244845 -0.033613726 -0.057486363 -0.039194606
000350 49 59 a8 bc ec 81 81 3d 3d 01 bd bc 5f 2f 14 bc
       -0.020550387 0.06323609 -0.02307188 -0.009044497
000360 2a d4 33 bd 5d 4c ad bc 1e 84 23 bd 59 40 b9 bc
       -0.043903507 -0.021154577 -0.03992092 -0.022613691
000370 1b 75 9e 3c d3 fc d3 3c a9 ec a0 bd be db cf bc
       0.01934295 0.025877392 -0.07857639 -0.025373336
000380 71 2a b9 bc d3 10 a4 bc b2 74 c8 39 7d 2c 6e bd
       -0.022603245 -0.020027554 0.00038233917 -0.058147896
000390 df fb 91 3b 96 b0 f4 bc 34 0f 97 bd 6b 10 1d 3d
       0.004455074 -0.029869359 -0.07375947 0.038345736
0003a0 91 1c a5 bc 06 1d c6 bc 1b b2 cf 3c c0 04 2f bb
       -0.020155223 -0.024183761 0.025353482 -0.0026705712
0003b0 3a 90 0f 3c 4f 4a 29 bd ad c0 99 bc b4 1e c4 bc
       0.008762414 -0.04133063 -0.018768633 -0.023940422
0003c0 e0 62 11 bd 17 ee 39 3c b3 2d 74 bd 95 d1 0c 3b
       -0.035494685 0.011348269 -0.059613895 0.0021487225
0003d0 78 39 37 bd e7 aa 46 bd b9 25 32 3d c2 94 2c bd
       -0.04473254 -0.04850283 0.043493006 -0.042134054
0003e0 92 e7 76 bd 33 db fb 3b 52 8e 66 bc b4 36 b1 bb
       -0.060279436 0.0076860427 -0.014072018 -0.0054081324
0003f0 48 fb f0 3b 7d 69 20 bd 48 05 2a bc dd 81 bb bc
       0.007354174 -0.0391631 -0.010377236 -0.022889072

action_model._discrete_distribution.branches.0.weight f4 [3, 256]
000000 7e 56 0b 3d d6 d1 31 bc 6c a5 b6 bc 6a 6f 67 bd
       0.034018032 -0.010853251 -0.022295676 -0.056502737
000010 ea ee b4 3d 2a ad 57 bb f8 50 db bd 93 eb 9c 3c
       0.08834632 -0.003290961 -0.10708803 0.0191553
000020 8d 37 ae bd 45 ab a8 3c b2 75 ca 3c cc 37 30 3e
       -0.08506689 0.02058948 0.024714325 0.17208785
000030 3e 3e eb bd 67 3b e1 3d f6 f0 b6 bc 3f 54 65 bb
       -0.11486481 0.10997658 -0.022331696 -0.0034992842
000040 df 6f 9c 3d fe 55 d9 3c e3 9a 04 bd ae dd 7e 3c
       0.07638525 0.026530262 -0.032374274 0.015555782
000050 0a 78 81 3d 50 83 3d 3d b9 a6 94 3d 65 a0 19 be
       0.06321724 0.046267807 0.07258362 -0.15002592
000060 88 1a 49 3e b0 cc 52 3d b5 ed 89 3d 8d d2 aa 3c
       0.19639027 0.051464736 0.06734792 0.020852352
000070 67 c6 02 bd e7 b2 8c bc b8 91 d0 3c ae 3f 46 3d
       -0.031927492 -0.017175151 0.02546011 0.048400573
000080 ac 5b 73 3c ea e7 37 ba 59 c4 dc 3d 26 d7 a5 bc
       0.014853399 -0.0007015454 0.10779638 -0.020244192
000090 b9 72 c1 3d 49 cf 37 bd a6 a9 b9 3c 83 19 8e bc
       0.0944571 -0.044875417 0.022663902 -0.01734615
0000a0 fd 83 e5 bd 3c a5 ad 3d 67 7d 00 3d 75 d5 3f 3d
       -0.112068154 0.084787816 0.031369593 0.046834428
0000b0 0f 48 0f 3d ba 04 24 3d 5e ab 9a 3d 67 f8 ca 3d
       0.03498083 0.04004357 0.07552217 0.0991066
0000c0 08 3c cb 3d 53 94 09 bd 11 1e 16 3d 7b e9 d3 bd
       0.099235594 -0.03358872 0.036649767 -0.10347267
0000d0 9c 63 4f bd 32 37 09 3d 25 7c c9 3c 1c f6 20 3d
       -0.050632104 0.033499904 0.02459533 0.03929721
0000e0 72 73 9f bd 2c db 4e 3d b4 ef d0 bc 52 fe 4c be
       -0.07785691 0.050501987 -0.025504924 -0.2001889
0000f0 0a 88 f5 3c 91 e2 0b 3b 6d 26 3a 3e 53 a3 59 3c
       0.029972095 0.002134476 0.18178721 0.013283568
000100 8e d7 03 3d 8f 9d 3e bd 1b 97 2e 3e 63 3d ba be
       0.03218799 -0.04653698 0.1704983 -0.3637496
000110 8e 9c c6 bc f7 f8 0c 3b c3 90 f4 bd 15 1c 6d bc
       -0.024244573 0.00215107 -0.119416736 -0.014472027
000120 62 07 bd bc 61 ac 61 3a 94 75 5a bd fa 1b c8 3d
       -0.02307481 0.00086087553 -0.053334787 0.09770961
000130 e8 3a ca bd 12 c9 44 bb 35 93 b2 bd b6 e4 2f 3e
       -0.09874517 -0.0030027074 -0.08719484 0.1717709
000140 f2 e2 07 3d 4a be f5 3c 83 4e 0f 3e b4 ac b7 3c
       0.033175416 0.029997963 0.13994794 0.022421218
000150 3f bb fa 3c 31 de f8 3c 7d 3e 6e bb 4b 88 f0 bc
       0.030606864 0.030379387 -0.0036353164 -0.029361865
000160 82 0b 76 3c 7d cf 4e bd 1c 90 0b 3e 4b b7 52 3e
       0.015017392 -0.050490845 0.13629192 0.20577733
000170 b3 6f 1e bd c2 32 38 3c c6 a1 e3 bc 78 d4 8f bc
       -0.038680743 0.01124257 -0.0277871 -0.017557368
000180 69 5a 1e be 46 e4 fc bc c7 bc dd bd 6a 51 92 bc
       -0.15464176 -0.030870568 -0.10827022 -0.017861087
000190 2f ed a4 bc 8c 55 be be 1c c5 ac 3c a1 d3 ac bd
       -0.02013263 -0.37174642 0.021090083 -0.084388025
0001a0 d3 a8 fb ba 4a f8 0e 3e e1 17 7c 3d 0a f0 99 bd
       -0.0019200094 0.13961902 0.06154621 -0.07516487
0001b0 79 83 d7 bd e4 a9 85 bc b8 f8 bd bc 75 42 1b be
       -0.10523123 -0.016316362 -0.023189887 -0.1516207
0001c0 55 06 53 bd 44 79 8d bc 84 49 db 3c 3c 58 41 bd
       -0.05151971 -0.017269738 0.026768453 -0.047203287
0001d0 77 78 6c 3e 3e 61 5f bd dd bc d9 bd 29 8f 43 3d
       0.23092829 -0.054536097 -0.10631726 0.04774395
0001e0 c7 78 a5 3d f3 bd 92 3c 37 01 1b 3e 43 58 b6 3c
       0.08079677 0.01791284 0.15137182 0.022258883
0001f0 e4 1a 2f be 4a 2b 4c bd 7d c9 03 3e 3e 11 4a bb
       -0.17100102 -0.04984597 0.1286983 -0.003083303
000200 b9 c5 1a 3d c9 ea 3d be cf b0 be 3d d3 0c b3 3c
       0.03778622 -0.18546595 0.09311067 0.021856701
000210 ca 0c 39 3d f0 21 c1 bb b0 eb ba 3d fc f8 22 bd
       0.045178212 -0.0058939382 0.09126985 -0.03978823
000220 58 89 1f 3c 08 be 80 bd 5c 8c b3 3c 13 ce 97 bc
       0.009737335 -0.062862456 0.021917515 -0.018530881
000230 8b c0 b6 bd a8 94 0e bc 5a d6 e6 3d 05 a7 84 bd
       -0.089234434 -0.008702435 0.11271353 -0.06477169
000240 6d 9a ca bc 24 0f cb bc 66 79 8a bd d6 e3 23 bc
       -0.02473184 -0.024787493 -0.06761436 -0.010003051
000250 9a ee 6b 3c 8f 03 0b 3d 4f 18 8b 3d 6f ee 94 3c
       0.014400149 0.03393894 0.06791746 0.0181801
000260 81 7f 10 bb 25 bd 05 3d e6 d1 f6 bd c1 fb f6 3c
       -0.0022048655 0.032651085 -0.12051754 0.030149342
000270 48 d4 28 3d 18 db fa b9 a5 80 8c 3d b7 80 43 3e
       0.041218072 -0.00047846953 0.068604745 0.1909207
000280 d8 15 2c be 9f 77 20 bd 4b f2 c2 3d 45 29 62 bd
       -0.16805208 -0.03917658 0.0951887 -0.05521514
000290 84 eb 85 bd b7 e4 89 3c 0f 94 01 be 46 5b c2 3c
       -0.06539062 0.016832693 -0.12654136 0.023725163
0002a0 6c dd cf bd 80 95 7a be 92 b6 4f bd 41 f6 25 bd
       -0.10149655 -0.24471092 -0.050711222 -0.04051805
0002b0 b1 4e 4b bd fe 16 6c 3d 09 ec 04 3d b2 a6 27 3d
       -0.049635593 0.057639115 0.032451663 0.040930457
0002c0 14 7c 9a bc 1a 39 07 3d 05 65 a3 3d 49 a9 49 3d
       -0.018857993 0.03301344 0.07978252 0.04923371
0002d0 e8 45 97 bb c6 4d 39 3d 5b 76 93 3c e7 ff a1 3d
       -0.004616488 0.045240186 0.018000772 0.079101376
0002e0 6c 95 27 3d 18 8e 64 3d 7f e6 ba bd 29 07 8c 3d
       0.040913984 0.055799574 -0.09125995 0.06837303
0002f0 3d 7a c7 bd 52 67 b6 bd 92 3b da 3d 0f f1 a6 bd
       -0.09740112 -0.089064255 0.106558934 -0.08151447
000300 ce 37 7b 3d da 70 ec bc 22 33 b6 bd 86 76 22 3b
       0.061332516 -0.028862406 -0.088964716 0.0024789884
000310 ec 66 59 bd 9b d0 7a 3d 43 27 2f bd 57 0e 0c bd
       -0.05307667 0.061234098 -0.042762052 -0.034193363
000320 ee 26 04 be a1 74 e3 3b 62 e6 b1 bd 19 c0 40 bc
       -0.12905475 0.0069413935 -0.0868652 -0.01176455
000330 14 b5 21 3d 3c e6 5f bd ff 22 73 bb 69 f7 89 3d
       0.03947933 -0.054662928 -0.0037099717 0.06736643
000340 50 7d 16 3d 4d d2 be 3d ad b7 15 3d 03 1f c5 3d
       0.0367406 0.093174554 0.03655212 0.09625056
000350 00 38 8e 3d 1c a4 12 bd f5 fc b5 3c b3 d9 63 3d
       0.06944275 -0.03580104 0.022215346 0.055627536
000360 cf e7 80 bc 24 0c 82 bc a9 f1 5b 3d 90 11 9e bd
       -0.015735535 -0.01587493 0.053697262 -0.077181935
000370 f2 c1 08 bd 11 86 94 3d 12 de b2 3d e2 bc a5 bc
       -0.033388086 0.07252134 0.08733763 -0.020231668
000380 b2 fe 6f 3c 77 33 ff bd 0c ff bd bd 1d d2 92 bc
       0.014648126 -0.12460988 -0.09277162 -0.017922455
000390 05 82 18 bd a0 61 14 bd bb bf ce 3d 42 3f fb 3c
       -0.03723337 -0.036225915 0.100951634 0.030669812
0003a0 3d 7b 23 bd 27 d1 80 3d eb 59 2c be 9f 18 13 bd
       -0.03991245 0.06289893 -0.16831176 -0.035912152
0003b0 7b 90 f2 ba 56 4a 80 3d 78 eb c1 bc 76 cc 1a 3e
       -0.0018506193 0.062641785 -0.02367185 0.15117058
0003c0 5e 2c 82 bb ca 66 14 bd ad 37 1e 3e 5e 49 f4 bd
       -0.003972574 -0.03623084 0.15450926 -0.11928056
0003d0 eb d6 16 bc fe af 8d bc 90 9d d0 bb f7 e5 58 3e
       -0.009206514 -0.017295834 -0.006366439 0.21181475
0003e0 3d 37 a7 3c d5 80 12 be cb f6 47 3c ca b4 2d bd
       0.020412082 -0.14306958 0.012204836 -0.042408742
0003f0 57 1c 9d 3c 50 2f 9d 3d 72 5e bf b9 23 ef 9e 3d
       0.019178553 0.0767504 -0.00036500726 0.077604555

action_model._discrete_distribution.branches.0.bias f4 [3]
000000 3b 33 02 bb 5b 2b 09 bd 1c 7d 20 3d
       -0.0019866962 -0.033488613 0.039181814

action_model._discrete_distribution.branches.1.weight f4 [3, 256]
000000 13 f8 6f bc b4 00 10 3d 52 5c 6f 3d 63 e7 ff 3c
       -0.014646548 0.03515692 0.058437653 0.031238263
000010 47 56 45 3c 67 93 4c bd d2 b9 10 3d cb d5 39 3c
       0.012044496 -0.04994526 0.035333462 0.011342476
000020 6a 79 9a bc 5e 34 96 3b f7 46 bb ba bb 02 1b bc
       -0.018856723 0.0045838794 -0.0014288117 -0.0094611
000030 e6 12 2b 3d bc 5e 30 bd c5 1f 0e 3d b4 1b bd bc
       0.04176607 -0.043059096 0.034698267 -0.023084499
000040 e5 03 93 3d c1 00 28 3d c2 8f 6f 3c ad 6f 9a bb
       0.07178477 0.041016344 0.014621677 -0.00471302
000050 aa c5 6e bc c4 9f 85 bb c5 95 23 bc a4 56 37 bc
       -0.014573494 -0.0040778834 -0.009984438 -0.01119009
000060 3a dc b3 bb 13 8a e5 3c 42 6d c4 bb a9 b9 d5 bc
       -0.0054888995 0.02801994 -0.00599447 -0.026089506
000070 cc 02 22 3d ab da 8d 3c f2 da 48 bc 95 49 3e 3c
       0.03955345 0.017316183 -0.012259232 0.011614223
000080 64 e5 56 3d 58 e5 d6 3c 37 a3 96 bd 23 14 4d bd
       0.052464858 0.026232406 -0.073553495 -0.050068032
000090 3f a7 5f bd c6 04 3d bc 6d f5 d0 3b 1c 11 da 3c
       -0.054602858 -0.011536783 0.0063769133 0.026619487
0000a0 85 5f f9 bc 16 c9 4b bc 1a b6 4b bb 23 1a 35 bc
       -0.030441055 -0.012438079 -0.0031083883 -0.011053595
0000b0 87 0a cd 3b 6f 8e 21 bd 82 1d 0f bc 0c 2a 1f 3d
       0.0062573585 -0.039442476 -0.008735063 0.03885846
0000c0 13 08 4f bd ac c5 7f 3c 0f 42 98 bc c0 1e 6d 3c
       -0.05054481 0.0156110935 -0.018586187 0.014472663
0000d0 35 4a 51 3c a3 f5 a0 3b af af 30 bc 90 a4 91 bb
       0.01277404 0.0049120947 -0.010784074 -0.004444666
0000e0 8b 78 a2 3c 09 7a 3f bc 91 b6 18 3d 19 f3 54 3d
       0.01983287 -0.01168681 0.037283484 0.05198965
0000f0 ca 60 8a bd 01 6d 51 bc 62 d3 3b bd 4d 53 f7 3c
       -0.06756742 -0.012782336 -0.045855887 0.030191088
000100 85 11 53 3c 1a c1 bc bc 89 ac 1c bc 24 e8 2e 3c
       0.012882595 -0.023041297 -0.00956262 0.010675464
000110 32 6d 9f bd 16 1e 45 bd ca e6 d8 3c 9f 24 96 3c
       -0.07784499 -0.048124395 0.026477236 0.01832801
000120 80 88 27 bd 77 60 21 3c 3a 47 2e 3d fa 5a 1b bd
       -0.04090166 0.009849659 0.042548396 -0.03792856
000130 53 8a 45 3d bd fa 66 bc c3 7a fd 3c fc 13 c9 bb
       0.04822762 -0.014097867 0.030942326 -0.0061364155
000140 2b ba 1c bd d0 fa 76 3c 23 d9 16 bb 43 d3 c9 3b
       -0.03826348 0.015074447 -0.0023017607 0.0061592176
000150 1f cd 3f 3a 71 df 34 bd d6 28 0f bc 96 ed 55 3d
       0.0007316637 -0.044158403 -0.008737763 0.052228533
000160 3c 67 04 3d 81 37 7f 3c ee 89 38 bc 6c 42 50 bd
       0.032325014 0.015577198 -0.011263354 -0.050844595
000170 f6 16 ce 3c 29 c7 00 bd 90 93 c0 3c 07 2b a1 bd
       0.025157433 -0.031439934 0.023507863 -0.07869535
000180 80 56 8b bd 6b 41 40 3d 54 bc 73 3c d2 7d f6 3a
       -0.06803608 0.046937387 0.014876444 0.0018805808
000190 94 d2 13 3d 34 ad 1d 3b d8 dd 1e bd 3e 6c 15 3d
       0.036089495 0.0024059536 -0.038785785 0.03648018
0001a0 65 fc 42 bd ca c4 13 bc e5 56 c6 3c e3 ea 1d bd
       -0.047603983 -0.009019086 0.024211356 -0.038554084
0001b0 17 1c ab 3c 74 a7 01 3a 7c 2c 83 3c 40 23 d2 bc
       0.020887418 0.0004945912 0.016012423 -0.025651574
0001c0 1e b5 6d 3c 44 61 8e bd 48 c1 ff 3a 56 62 0d 3d
       0.014508514 -0.06952146 0.0019512558 0.03451761
0001d0 b6 dc 7d 3c d6 66 48 bb 65 cb 31 3c a2 30 98 3b
       0.015494516 -0.0030578873 0.010851716 0.0046444694
0001e0 0d 25 59 3c f1 10 45 3a 79 64 34 bd 27 35 b1 bc
       0.0132534625 0.0007517478 -0.04404113 -0.02163179
0001f0 54 9d a5 3c fd 79 4e bc fe 5a d0 bc 17 62 44 3c
       0.020216621 -0.012602326 -0.025434013 0.011986277
000200 e7 4e 2a 3d 68 1d 19 3c 09 b3 12 3d ae 93 19 3c
       0.041579153 0.00934539 0.035815272 0.0093735885
000210 51 81 49 3b 21 96 0b bb 77 84 8e 3c 2b fe 89 bc
       0.0030747245 -0.00212992 0.017397149 -0.01684483
000220 85 75 94 3c 5d 92 1c 3d 30 6b 1d 3d 93 dd 15 bc
       0.018122444 0.03822552 0.0384323 -0.009147066
000230 46 2e c4 bb 6d dd 7b 3c 95 d6 8d bc a5 54 1a 3d
       -0.0059869615 0.015372616 -0.017314235 0.03767838
000240 95 99 2e bc 8e 3b 2e bb 15 a1 fc 3c a0 c8 7a 3a
       -0.010656734 -0.002658579 0.030838529 0.00095666386
000250 60 19 9c 3d 98 5a b9 bc 64 05 32 bb 7c 06 56 3a
       0.076220274 -0.022626206 -0.0027163858 0.00081644184
000260 3f c0 ea 3c f1 13 ea 3c 95 36 81 bb 7d f5 95 3c
       0.028656123 0.028573962 -0.0039432743 0.018305534
000270 ae ff 1e bd ab c4 6f 3c 3d 1f c7 bc ec 02 ca 3c
       -0.038818054 0.014634292 -0.024306888 0.024659596
000280 56 6a 7c bc 54 42 ca 3c 5d 86 bb bd 10 38 5a bd
       -0.015406212 0.02468983 -0.09156487 -0.05327612
000290 71 66 55 3c bf 77 87 bc 1e a8 a5 3c 56 fa ac 3d
       0.013024912 -0.016536592 0.020221766 0.08446185
0002a0 b5 dd 59 bc 57 88 65 3d 5b b2 58 3c 1e 35 d3 3b
       -0.013297488 0.056038227 0.013226117 0.006445541
0002b0 ee e3 85 3c 08 db d9 3b ef aa 80 bc 87 17 e6 bb
       0.016344037 0.006648425 -0.015706507 -0.0070218476
0002c0 0b 47 f0 3c 96 9f 5e 3c ba 39 86 bc fc 1a fd bb
       0.02933075 0.013587853 -0.016384948 -0.007724164
0002d0 b1 ca b0 3c 00 08 38 bd 76 a3 74 3c 4a 2d 0c bc
       0.021581026 -0.044929504 0.01493155 -0.00855572
0002e0 ce 4c 9c bc 85 91 3d 3b de 65 69 3c ab ef c3 bb
       -0.019079592 0.0028925848 0.014245478 -0.0059794984
0002f0 0a 94 de bc 27 0a 57 3d 83 b7 a6 3c c9 04 ce 3c
       -0.0271702 0.052499916 0.020351177 0.025148766
000300 62 30 3d bd 7c ec cb bc 7a 65 fb 3c 10 e8 c2 bb
       -0.04618872 -0.024893038 0.030688036 -0.005948074
000310 09 ba da 3c 29 ea 09 bd 94 20 04 3d 77 bb 15 3d
       0.026700037 -0.03367058 0.03225763 0.036555734
000320 c1 1c 9d 3c 72 46 2a 3c be cc 75 bb d5 c3 9c 3d
       0.01917875 0.010392772 -0.003750607 0.076545395
000330 6a a0 11 3b 22 1e 07 bd 14 43 ea 3c c6 a3 db b9
       0.0022220858 -0.03298772 0.028596438 -0.00041892956
000340 bf 5b 5a 3c 7e 1f 2d bc 78 45 df 3c c9 4a 45 bc
       0.013327538 -0.01056659 0.027254805 -0.012041756
000350 c5 2c 53 bb 68 f9 b7 38 1e 68 42 3c 3a 37 42 bd
       -0.003222273 8.7725755e-05 0.011865644 -0.04741595
000360 86 70 8f 3c 29 53 a4 3c a4 7d 3a 3c 1f 10 9e 3c
       0.01750971 0.020059185 0.011382494 0.019294797
000370 2a d4 af 3c e7 b8 1a 39 a8 bc 39 bc e0 fb f0 3c
       0.021463472 0.00014755466 -0.011336483 0.029416978
000380 db 96 1b bd fb 17 0c 3c 86 b6 dd 3c c4 ed af bd
       -0.037985664 0.008550639 0.027064573 -0.08590272
000390 79 a1 8d bc 34 47 b7 ba 68 0f f2 bc 87 0b 1e 3c
       -0.01728891 -0.0013983012 -0.029548362 0.009646303
0003a0 03 a9 a7 3c 9b 8c fa 3c 8f 34 00 bb b8 e1 03 3d
       0.020466333 0.030584624 -0.0019562577 0.032197684
0003b0 6d 7d 00 bc d9 be d2 bc ae 4e 8c 3c 4d 19 11 bd
       -0.007842404 -0.025725769 0.017127361 -0.03542452
0003c0 aa 3e 07 bc 87 61 53 3d 78 c7 a9 3c 0d a1 07 3b
       -0.008254686 0.05160668 0.020724997 0.002069536
0003d0 41 7c 7d bd 2a 85 16 bd e7 ea 93 bc 27 15 90 bc
       -0.061886076 -0.03674809 -0.018056346 -0.017588211
0003e0 6f 6e 45 3c 02 47 08 bc 5e 62 bd bc e4 3e 6b 3c
       0.012050255 -0.008317711 -0.023118194 0.014358256
0003f0 02 a0 81 3c 59 50 11 3d 07 7c 0d 3c a8 ef 61 bd
       0.015823368 0.035477016 0.008635527 -0.055160195

action_model._discrete_distribution.branches.1.bias f4 [3]
000000 8f 12 0c 3d 31 53 15 3c 1e df 2f bd
       0.034197386 0.009114073 -0.04293739
