ML-Agents/results/2vs2/Volleyball/Volleyball-2776.pt (torch, 651526 bytes, 26 tensors)

discrete_act_size_vector f4 [1, 4]
000000 00 00 40 40 00 00 40 40 00 00 40 40 00 00 00 40
       3.0 3.0 3.0 2.0

network_body.observation_encoder.processors.0.normalizer.running_mean f4 [47]
000000 59 3e b2 bc e1 18 41 bd ca 6d cc 3e 08 26 d9 3e
       -0.021758245 -0.047142867 0.39927512 0.42411828
000010 93 be 45 41 a9 c1 90 3d e0 27 ff 3e 38 bd 8e bd
       12.359027 0.07068188 0.4983511 -0.06969684
000020 15 4a 03 c1 00 00 c0 30 00 00 00 00 00 00 00 b0
       -8.205586 1.3969839e-09 0.0 -4.656613e-10
000030 00 00 88 af 00 00 00 00 9d c1 90 3d da 27 ff 3e
       -2.4738256e-10 0.0 0.07068179 0.49835092
000040 3a bd 8e bd 00 00 00 00 00 00 00 00 00 00 00 00
       -0.06969686 0.0 0.0 0.0
000050 00 00 00 00 00 00 00 00 00 00 00 00 00 00 00 00
       0.0 0.0 0.0 0.0
000060 00 00 00 00 00 00 00 00 00 00 00 00 00 00 00 00
       0.0 0.0 0.0 0.0
000070 00 00 00 00 00 00 00 00 00 00 00 00 00 00 00 00
       0.0 0.0 0.0 0.0
000080 00 00 00 00 00 00 00 00 00 00 00 00 00 00 00 00
       0.0 0.0 0.0 0.0
000090 00 00 00 00 00 00 00 00 00 00 00 00 00 00 00 00
       0.0 0.0 0.0 0.0
0000a0 00 00 00 00 00 00 00 00 00 00 00 00 00 00 00 00
       0.0 0.0 0.0 0.0
0000b0 00 00 00 00 00 00 00 00 00 00 00 00
       0.0 0.0 0.0

network_body.observation_encoder.processors.0.normalizer.running_variance f4 [47]
000000 ab 0e 4b 43 e7 63 f0 43 12 27 99 43 78 70 82 44
       203.0573 480.7805 306.30524 1043.5146
000010 7f 38 ff 47 ee 6d eb 46 2e 50 6e 47 6c 29 98 46
       130672.99 30134.965 61008.18 19476.71
000020 4d a8 4f 47 a0 f4 c2 44 b2 dd 8f 44 76 d2 a6 44
       53160.3 1559.6445 1150.928 1334.5769
000030 e6 d7 f9 42 04 f0 a4 44 f4 6d eb 46 31 50 6e 47
       124.92168 1319.5005 30134.977 61008.19
000040 6f 29 98 46 00 00 80 3f 00 00 80 3f 00 00 80 3f
       19476.717 1.0 1.0 1.0
000050 00 00 80 3f 00 00 80 3f 00 00 80 3f 00 00 80 3f
       1.0 1.0 1.0 1.0
000060 00 00 80 3f 00 00 80 3f 00 00 80 3f 00 00 80 3f
       1.0 1.0 1.0 1.0
000070 00 00 80 3f 00 00 80 3f 00 00 80 3f 00 00 80 3f
       1.0 1.0 1.0 1.0
000080 00 00 80 3f 00 00 80 3f 00 00 80 3f 00 00 80 3f
       1.0 1.0 1.0 1.0
000090 00 00 80 3f 00 00 80 3f 00 00 80 3f 00 00 80 3f
       1.0 1.0 1.0 1.0
0000a0 00 00 80 3f 00 00 80 3f 00 00 80 3f 00 00 80 3f
       1.0 1.0 1.0 1.0
0000b0 00 00 80 3f 00 00 80 3f 00 00 80 3f
       1.0 1.0 1.0

network_body.processors.0.normalizer.running_mean f4 [47]
000000 59 3e b2 bc e1 18 41 bd ca 6d cc 3e 08 26 d9 3e
       -0.021758245 -0.047142867 0.39927512 0.42411828
000010 93 be 45 41 a9 c1 90 3d e0 27 ff 3e 38 bd 8e bd
       12.359027 0.07068188 0.4983511 -0.06969684
000020 15 4a 03 c1 00 00 c0 30 00 00 00 00 00 00 00 b0
       -8.205586 1.3969839e-09 0.0 -4.656613e-10
000030 00 00 88 af 00 00 00 00 9d c1 90 3d da 27 ff 3e
       -2.4738256e-10 0.0 0.07068179 0.49835092
000040 3a bd 8e bd 00 00 00 00 00 00 00 00 00 00 00 00
       -0.06969686 0.0 0.0 0.0
000050 00 00 00 00 00 00 00 00 00 00 00 00 00 00 00 00
       0.0 0.0 0.0 0.0
000060 00 00 00 00 00 00 00 00 00 00 00 00 00 00 00 00
       0.0 0.0 0.0 0.0
000070 00 00 00 00 00 00 00 00 00 00 00 00 00 00 00 00
       0.0 0.0 0.0 0.0
000080 00 00 00 00 00 00 00 00 00 00 00 00 00 00 00 00
       0.0 0.0 0.0 0.0
000090 00 00 00 00 00 00 00 00 00 00 00 00 00 00 00 00
       0.0 0.0 0.0 0.0
0000a0 00 00 00 00 00 00 00 00 00 00 00 00 00 00 00 00
       0.0 0.0 0.0 0.0
0000b0 00 00 00 00 00 00 00 00 00 00 00 00
       0.0 0.0 0.0

network_body.processors.0.normalizer.running_variance f4 [47]
000000 ab 0e 4b 43 e7 63 f0 43 12 27 99 43 78 70 82 44
       203.0573 480.7805 306.30524 1043.5146
000010 7f 38 ff 47 ee 6d eb 46 2e 50 6e 47 6c 29 98 46
       130672.99 30134.965 61008.18 19476.71
000020 4d a8 4f 47 a0 f4 c2 44 b2 dd 8f 44 76 d2 a6 44
       53160.3 1559.6445 1150.928 1334.5769
000030 e6 d7 f9 42 04 f0 a4 44 f4 6d eb 46 31 50 6e 47
       124.92168 1319.5005 30134.977 61008.19
000040 6f 29 98 46 00 00 80 3f 00 00 80 3f 00 00 80 3f
       19476.717 1.0 1.0 1.0
000050 00 00 80 3f 00 00 80 3f 00 00 80 3f 00 00 80 3f
       1.0 1.0 1.0 1.0
000060 00 00 80 3f 00 00 80 3f 00 00 80 3f 00 00 80 3f
       1.0 1.0 1.0 1.0
000070 00 00 80 3f 00 00 80 3f 00 00 80 3f 00 00 80 3f
       1.0 1.0 1.0 1.0
000080 00 00 80 3f 00 00 80 3f 00 00 80 3f 00 00 80 3f
       1.0 1.0 1.0 1.0
000090 00 00 80 3f 00 00 80 3f 00 00 80 3f 00 00 80 3f
       1.0 1.0 1.0 1.0
0000a0 00 00 80 3f 00 00 80 3f 00 00 80 3f 00 00 80 3f
       1.0 1.0 1.0 1.0
0000b0 00 00 80 3f 00 00 80 3f 00 00 80 3f
       1.0 1.0 1.0

network_body._body_endoder.seq_layers.0.weight f4 [256, 47]
000000 d2 e2 47 3e a5 01 59 be 2f 4e 0b 3e 63 58 03 3e
       0.19520119 -0.21192034 0.13604043 0.12826686
000010 c3 2b 71 3d 2b 3a b3 3d 5f 7f 45 3d c3 de 21 be
       0.058879625 0.08751329 0.048217174 -0.15807633
000020 ce ce 83 be 94 75 05 3c 4e 5a 40 bd 17 64 23 bb
       -0.25743717 0.008145709 -0.04696112 -0.0024931484
000030 e6 c9 71 bd 70 85 e4 3c e8 97 61 3d 30 91 2f 3d
       -0.059030436 0.02789566 0.05507651 0.04286307
000040 cd 2f ab 3e bb 95 00 be 09 f8 ed 3d b4 6d 9c 3c
       0.33434907 -0.12557118 0.116195746 0.01909528
000050 5e 30 f7 bd a4 25 d9 3d 7d de e5 bd c4 27 fb 3d
       -0.12069772 0.106028825 -0.11224077 0.12263444
000060 47 cd 80 be f8 73 0a 3e cf 1f ec bd 44 94 1c be
       -0.25156614 0.13520801 -0.115295045 -0.15290934
000070 5a ab 00 3e 7b 2a 2d 3e e2 9a 9f 3d 3a 61 82 3a
       0.12565365 0.16910736 0.077932134 0.0009947189
000080 3a 0f 48 be b0 af 4a bd 1a b9 90 3d 2b fe 10 be
       -0.19537058 -0.049483955 0.07066555 -0.14159457
000090 ae 18 4b bd f3 d1 ec bc 8d f4 d0 3d 21 3e e8 bd
       -0.049584083 -0.028908705 0.10202894 -0.11339975
0000a0 84 14 fc bd 68 73 61 3d 99 5f 93 bd 22 b7 47 bb
       -0.123086005 0.0550417 -0.07195968 -0.0030474146
0000b0 d8 cb 22 be 3b 1c 21 3e 03 aa 66 3e f3 dd 94 3e
       -0.15898073 0.15733425 0.22525792 0.29075584
0000c0 a0 ad 23 be 25 52 30 bc eb 12 e1 bd f0 94 48 be
       -0.15984201 -0.010761772 -0.109899364 -0.19588065
0000d0 07 36 67 3d 1d 5e 64 be de 5c a8 3d 35 04 61 3d
       0.05644801 -0.22301526 0.08220838 0.054935653
0000e0 a1 95 c4 3d fa 2d 84 bd 4a 60 38 bd fc f7 e6 bd
       0.09598852 -0.06454082 -0.045013703 -0.11277768
0000f0 97 2c 91 3d b4 7a 39 be f7 d7 ad 3e 6d 26 15 3c
       0.07088583 -0.18113214 0.3395383 0.0091034
000100 cb a9 2a be 58 cc 9b 3d 5a ee 42 3d a5 9a 02 bc
       -0.16666333 0.07607335 0.04759059 -0.00797144
000110 d6 b9 38 bd 4f 1c 0f be 48 38 83 3c 15 d9 89 be
       -0.045099102 -0.13975643 0.016018048 -0.26923433
000120 7d 00 56 be 8a 6f 53 3e 81 6f dc bd 91 11 03 be
       -0.20898624 0.20648018 -0.10763455 -0.1279967
000130 10 1c cb bc bf 42 91 be 39 1b e6 3d 5e e4 83 3d
       -0.024793655 -0.28371236 0.11235661 0.06440042
000140 74 ce 46 3d 60 1d 86 bc 1e 47 87 bd 85 14 7e 3e
       0.048536733 -0.016371429 -0.066053614 0.24812515
000150 c6 b6 66 bd cf f2 ad bc 94 b2 c1 3c 3a 4d 88 bd
       -0.05632665 -0.021233944 0.023644723 -0.06655355
000160 d9 4f 62 bd a4 82 f1 3d f2 9e 00 3e 47 a0 27 be
       -0.05525193 0.11792496 0.12560633 -0.16369735
000170 7d 08 a9 be a4 c8 55 3e a8 02 1f be 79 56 bb 3d
       -0.3301429 0.2087732 -0.15528357 0.09147353
000180 53 ea 99 bc e0 04 df 3d ad e3 46 bd f5 b1 0a be
       -0.018788492 0.10889602 -0.048556972 -0.13544448
000190 77 28 01 be 39 5d dd 3c ff a4 8a 3d dd 79 f0 3d
       -0.12613092 0.027021991 0.06769752 0.117419936
0001a0 b2 96 ca 3d b1 4e 52 3c 6d f9 fc 3d 0b 18 aa bb
       0.09892024 0.012836144 0.12352262 -0.0051908544
0001b0 e5 49 b2 3c c1 d4 87 3c bb 68 5f 3b 3e 13 b2 bd
       0.021763751 0.016580941 0.0034089524 -0.086950764
0001c0 27 b2 77 be f1 e7 ef bd e4 be 1a 3e 1d e8 48 3b
       -0.24189053 -0.11714161 0.15111881 0.0030655928
0001d0 45 7c 49 be 19 65 15 3e 62 b6 ce bd b3 29 e1 bd
       -0.19676311 0.14589347 -0.100933805 -0.109942816
0001e0 b3 09 fc bd 54 be 43 3e 53 37 07 3e 8e 81 af 3d
       -0.123065375 0.19115573 0.13204698 0.085696325
0001f0 9f 55 ef 3d dd 75 6e be 0a 33 e2 bd 63 ed d3 be
       0.11686253 -0.23287149 -0.11044891 -0.4139205
000200 99 26 0a be f9 83 15 be e1 17 b8 3d 42 e9 52 bd
       -0.13491286 -0.14601125 0.089889295 -0.051491983
000210 48 7f c9 bc 95 88 8c be a5 f0 98 bd 96 0c 00 3e
       -0.024596825 -0.27447954 -0.07467774 0.12504801
000220 ea 6a 10 3e c6 87 2e 3d a2 4e 60 3d 47 99 5a bd
       0.14103284 0.042609952 0.05476249 -0.053368833
000230 41 0f 72 bd dd d3 4f 3c 35 b0 b9 3d 52 70 62 be
       -0.05909658 0.0126847895 0.09066812 -0.2211316
000240 35 4f 8d bd bc cc 79 bd 73 d4 56 bd c3 21 ca 3d
       -0.06899873 -0.060986266 -0.0524487 0.09869721
000250 e4 90 a6 3e ba 8e 3e 3e c4 6b 86 3e f1 10 ea bd
       0.32532418 0.18609133 0.26254094 -0.114290126
000260 72 f9 80 3e 68 0d 43 3d a8 76 70 3e bc be e2 bd
       0.25190312 0.047620207 0.23482764 -0.11071536
000270 35 4a da 3d 3c 0b d1 bd 06 a6 f7 3c 04 0c 33 be
       0.10658685 -0.10207221 0.030230533 -0.17485052
000280 4c b5 6c 3d f2 0c 9a 3d 97 c7 6b 3e cf 5b 52 3d
       0.057790086 0.07522 0.23025356 0.051357087
000290 f9 ee 4f be 5f da 37 3d 0a 36 87 3d a1 15 4a 3c
       -0.20306005 0.04488599 0.06602104 0.012334258
0002a0 80 3e e9 3c 36 50 84 3c b8 e1 18 be fa df 89 3d
       0.028472185 0.016151529 -0.14929855 0.06732173
0002b0 b3 0c 7b 3d aa 09 fb 3c 1c c9 a2 be 3c 92 ed bd
       0.061291408 0.030644257 -0.3179406 -0.116001576
0002c0 7c 3e fc bd 84 4a d2 bd 20 6f e7 bd 14 24 a4 3d
       -0.123166054 -0.10268119 -0.11300492 0.08014694
0002d0 6e 8a 6e be 64 c2 91 bd bb 59 d3 bc 26 98 c5 3d
       -0.23294994 -0.07117155 -0.025799623 0.09648161
0002e0 25 68 24 3c 4e 2a 96 bd ec b8 76 3e f1 0a b7 bd
       0.010034596 -0.07332288 0.2409398 -0.08937634
0002f0 fc db 06 3e 5e 40 51 3d cb b5 16 3e 27 21 e8 bc
       0.13169855 0.051086776 0.14717786 -0.02833612
000300 dd 2d 92 3d 7a f8 23 3e c7 e2 c0 3c 30 36 e8 bd
       0.07137654 0.16012755 0.023545636 -0.113384604
000310 68 a3 68 be 3c 26 c6 bd 3c 4b 21 be ee 84 28 3e
       -0.22718585 -0.096752614 -0.15751356 0.16456959
000320 3a be cb bd a2 c9 11 bd f8 15 9c 3e 2c bc b1 3e
       -0.09948392 -0.035592683 0.3048551 0.34713876
000330 b4 df 0d be f8 1e 3c 3e d9 89 72 be b3 c0 c3 3d
       -0.13854867 0.18371189 -0.23685397 0.09558239
000340 77 b2 3a be b3 92 9f 3e f7 81 9e 3d 81 9c 4d 3e
       -0.18232141 0.3116661 0.077396326 0.20079233
000350 6e d2 85 bc 2f 39 13 3d 85 57 e2 3d e6 09 6c be
       -0.016335692 0.035943206 0.11051849 -0.23050651
000360 8d a8 ff 3d 1f 12 eb bd c1 1a 8e 3e 9b 3e e9 3d
       0.124833204 -0.11478066 0.27754787 0.11388894
000370 d7 53 e1 3d 8c 18 bd bd d6 fc e1 3c 52 d4 1b 3e
       0.11002319 -0.092331976 0.027586382 0.15217713
000380 a2 b7 68 be c6 a2 ee bd 63 56 d3 bc ea aa fb bd
       -0.227263 -0.1165214 -0.025798028 -0.12288459
000390 8c d2 25 be b1 f7 52 3d 82 e1 3e be 14 56 e8 bd
       -0.16193599 0.05150575 -0.18640712 -0.11344543
0003a0 78 d9 b2 bd 58 0c 29 be e5 9c 5d bd d1 c3 02 3d
       -0.08732885 -0.16508615 -0.054104704 0.031925026
0003b0 45 d1 de 3d 9f 92 06 3e 25 33 59 bc 88 b3 24 3e
       0.10879759 0.13141869 -0.013256823 0.1608411
0003c0 c4 30 9f 3d ef 65 7b 3c d6 ee d8 bc 1f ac 65 3c
       0.07772973 0.015344127 -0.026481073 0.014018088
0003d0 d1 60 ef 3d b9 df 96 bd 70 85 76 be 96 e6 f1 bd
       0.11688388 -0.073668905 -0.2407434 -0.11811559
0003e0 f6 94 6f 3e d6 3b 97 3c 19 5f 5a 3d 28 85 68 3d
       0.23396668 0.01846115 0.05331335 0.056767613
0003f0 60 7b 80 3e 3c d3 f2 bc e2 a2 9a 3d c0 0b 57 3d
       0.25094128 -0.02964174 0.07550599 0.05250144

network_body._body_endoder.seq_layers.0.bias f4 [256]
000000 00 00 00 00 00 00 00 00 00 00 00 00 00 00 00 00
       0.0 0.0 0.0 0.0
000010 00 00 00 00 00 00 00 00 00 00 00 00 00 00 00 00
       0.0 0.0 0.0 0.0
000020 00 00 00 00 00 00 00 00 00 00 00 00 00 00 00 00
       0.0 0.0 0.0 0.0
000030 00 00 00 00 00 00 00 00 00 00 00 00 00 00 00 00
       0.0 0.0 0.0 0.0
000040 00 00 00 00 00 00 00 00 00 00 00 00 00 00 00 00
       0.0 0.0 0.0 0.0
000050 00 00 00 00 00 00 00 00 00 00 00 00 00 00 00 00
       0.0 0.0 0.0 0.0
000060 00 00 00 00 00 00 00 00 00 00 00 00 00 00 00 00
       0.0 0.0 0.0 0.0
000070 00 00 00 00 00 00 00 00 00 00 00 00 00 00 00 00
       0.0 0.0 0.0 0.0
000080 00 00 00 00 00 00 00 00 00 00 00 00 00 00 00 00
       0.0 0.0 0.0 0.0
000090 00 00 00 00 00 00 00 00 00 00 00 00 00 00 00 00
       0.0 0.0 0.0 0.0
0000a0 00 00 00 00 00 00 00 00 00 00 00 00 00 00 00 00
       0.0 0.0 0.0 0.0
0000b0 00 00 00 00 00 00 00 00 00 00 00 00 00 00 00 00
       0.0 0.0 0.0 0.0
0000c0 00 00 00 00 00 00 00 00 00 00 00 00 00 00 00 00
       0.0 0.0 0.0 0.0
0000d0 00 00 00 00 00 00 00 00 00 00 00 00 00 00 00 00
       0.0 0.0 0.0 0.0
0000e0 00 00 00 00 00 00 00 00 00 00 00 00 00 00 00 00
       0.0 0.0 0.0 0.0
0000f0 00 00 00 00 00 00 00 00 00 00 00 00 00 00 00 00
       0.0 0.0 0.0 0.0
000100 00 00 00 00 00 00 00 00 00 00 00 00 00 00 00 00
       0.0 0.0 0.0 0.0
000110 00 00 00 00 00 00 00 00 00 00 00 00 00 00 00 00
       0.0 0.0 0.0 0.0
000120 00 00 00 00 00 00 00 00 00 00 00 00 00 00 00 00
       0.0 0.0 0.0 0.0
000130 00 00 00 00 00 00 00 00 00 00 00 00 00 00 00 00
       0.0 0.0 0.0 0.0
000140 00 00 00 00 00 00 00 00 00 00 00 00 00 00 00 00
       0.0 0.0 0.0 0.0
000150 00 00 00 00 00 00 00 00 00 00 00 00 00 00 00 00
       0.0 0.0 0.0 0.0
000160 00 00 00 00 00 00 00 00 00 00 00 00 00 00 00 00
       0.0 0.0 0.0 0.0
000170 00 00 00 00 00 00 00 00 00 00 00 00 00 00 00 00
       0.0 0.0 0.0 0.0
000180 00 00 00 00 00 00 00 00 00 00 00 00 00 00 00 00
       0.0 0.0 0.0 0.0
000190 00 00 00 00 00 00 00 00 00 00 00 00 00 00 00 00
       0.0 0.0 0.0 0.0
0001a0 00 00 00 00 00 00 00 00 00 00 00 00 00 00 00 00
       0.0 0.0 0.0 0.0
0001b0 00 00 00 00 00 00 00 00 00 00 00 00 00 00 00 00
       0.0 0.0 0.0 0.0
0001c0 00 00 00 00 00 00 00 00 00 00 00 00 00 00 00 00
       0.0 0.0 0.0 0.0
0001d0 00 00 00 00 00 00 00 00 00 00 00 00 00 00 00 00
       0.0 0.0 0.0 0.0
0001e0 00 00 00 00 00 00 00 00 00 00 00 00 00 00 00 00
       0.0 0.0 0.0 0.0
0001f0 00 00 00 00 00 00 00 00 00 00 00 00 00 00 00 00
       0.0 0.0 0.0 0.0
000200 00 00 00 00 00 00 00 00 00 00 00 00 00 00 00 00
       0.0 0.0 0.0 0.0
000210 00 00 00 00 00 00 00 00 00 00 00 00 00 00 00 00
       0.0 0.0 0.0 0.0
000220 00 00 00 00 00 00 00 00 00 00 00 00 00 00 00 00
       0.0 0.0 0.0 0.0
000230 00 00 00 00 00 00 00 00 00 00 00 00 00 00 00 00
       0.0 0.0 0.0 0.0
000240 00 00 00 00 00 00 00 00 00 00 00 00 00 00 00 00
       0.0 0.0 0.0 0.0
000250 00 00 00 00 00 00 00 00 00 00 00 00 00 00 00 00
       0.0 0.0 0.0 0.0
000260 00 00 00 00 00 00 00 00 00 00 00 00 00 00 00 00
       0.0 0.0 0.0 0.0
000270 00 00 00 00 00 00 00 00 00 00 00 00 00 00 00 00
       0.0 0.0 0.0 0.0
000280 00 00 00 00 00 00 00 00 00 00 00 00 00 00 00 00
       0.0 0.0 0.0 0.0
000290 00 00 00 00 00 00 00 00 00 00 00 00 00 00 00 00
       0.0 0.0 0.0 0.0
0002a0 00 00 00 00 00 00 00 00 00 00 00 00 00 00 00 00
       0.0 0.0 0.0 0.0
0002b0 00 00 00 00 00 00 00 00 00 00 00 00 00 00 00 00
       0.0 0.0 0.0 0.0
0002c0 00 00 00 00 00 00 00 00 00 00 00 00 00 00 00 00
       0.0 0.0 0.0 0.0
0002d0 00 00 00 00 00 00 00 00 00 00 00 00 00 00 00 00
       0.0 0.0 0.0 0.0
0002e0 00 00 00 00 00 00 00 00 00 00 00 00 00 00 00 00
       0.0 0.0 0.0 0.0
0002f0 00 00 00 00 00 00 00 00 00 00 00 00 00 00 00 00
       0.0 0.0 0.0 0.0
000300 00 00 00 00 00 00 00 00 00 00 00 00 00 00 00 00
       0.0 0.0 0.0 0.0
000310 00 00 00 00 00 00 00 00 00 00 00 00 00 00 00 00
       0.0 0.0 0.0 0.0
000320 00 00 00 00 00 00 00 00 00 00 00 00 00 00 00 00
       0.0 0.0 0.0 0.0
000330 00 00 00 00 00 00 00 00 00 00 00 00 00 00 00 00
       0.0 0.0 0.0 0.0
000340 00 00 00 00 00 00 00 00 00 00 00 00 00 00 00 00
       0.0 0.0 0.0 0.0
000350 00 00 00 00 00 00 00 00 00 00 00 00 00 00 00 00
       0.0 0.0 0.0 0.0
000360 00 00 00 00 00 00 00 00 00 00 00 00 00 00 00 00
       0.0 0.0 0.0 0.0
000370 00 00 00 00 00 00 00 00 00 00 00 00 00 00 00 00
       0.0 0.0 0.0 0.0
000380 00 00 00 00 00 00 00 00 00 00 00 00 00 00 00 00
       0.0 0.0 0.0 0.0
000390 00 00 00 00 00 00 00 00 00 00 00 00 00 00 00 00
       0.0 0.0 0.0 0.0
0003a0 00 00 00 00 00 00 00 00 00 00 00 00 00 00 00 00
       0.0 0.0 0.0 0.0
0003b0 00 00 00 00 00 00 00 00 00 00 00 00 00 00 00 00
       0.0 0.0 0.0 0.0
0003c0 00 00 00 00 00 00 00 00 00 00 00 00 00 00 00 00
       0.0 0.0 0.0 0.0
0003d0 00 00 00 00 00 00 00 00 00 00 00 00 00 00 00 00
       0.0 0.0 0.0 0.0
0003e0 00 00 00 00 00 00 00 00 00 00 00 00 00 00 00 00
       0.0 0.0 0.0 0.0
0003f0 00 00 00 00 00 00 00 00 00 00 00 00 00 00 00 00
       0.0 0.0 0.0 0.0

network_body._body_endoder.seq_layers.2.weight f4 [256, 256]
000000 2b 53 49 be eb 73 cf 3d 6a db ab 3d 72 54 9a bd
       -0.19660632 0.101295315 0.08391459 -0.07535638
000010 19 01 07 3d 16 f2 83 3d 5c 96 f8 3c fd a6 e1 bd
       0.03296003 0.064426586 0.030345134 -0.110181786
000020 81 3c 76 3c 23 b4 7e 3d 5f f5 ee 3b 11 35 be 3d
       0.015029074 0.06218351 0.007292434 0.09287465
000030 2f b5 13 3e 08 3c 0f 3c 85 ea ed bc eb a0 5f bc
       0.14424585 0.00874234 -0.029042492 -0.013649206
000040 bd 6f e5 ba 51 fa f6 bc b8 3b 40 3d 35 99 64 bd
       -0.0017504614 -0.030148657 0.046931952 -0.055810172
000050 38 05 10 3e a2 ed a1 3c c5 a0 09 be 16 d6 03 3e
       0.14064491 0.019766632 -0.13440235 0.12874636
000060 15 8d 5d 3c 9c 8f 80 3c 69 3c 78 3d bf 55 ba bb
       0.013522406 0.015693478 0.060604487 -0.0056864913
000070 9c 2b 1c 3d 55 1f 9a 3c 86 24 d7 bc ff 6b c6 3c
       0.038127527 0.018813768 -0.026262533 0.024221418
000080 55 13 84 3c 42 a3 bf 3c fd 45 02 3d 39 38 92 bd
       0.0161225 0.023393277 0.031805027 -0.0713963
000090 80 76 13 3c 2d b4 52 bc af d6 1b 3d 9c d7 df bc
       0.009000421 -0.01286034 0.038046535 -0.02732449
0000a0 65 b8 f6 bc d6 4b 0d bd 0a 6d b3 bb 33 f8 05 3d
       -0.030117223 -0.03449615 -0.005475645 0.032707404
0000b0 5a 83 85 bc 18 cd 88 3b 49 bb b9 bc bd 5b 0e bd
       -0.016297985 0.0041748397 -0.022672312 -0.034755457
0000c0 e6 65 ea 3d cd 6e 6d bd 8c 63 04 3d e9 9d af bb
       0.11445217 -0.057966996 0.032321498 -0.0053594005
0000d0 00 e5 d6 3d 20 a4 a6 3d b1 86 8c bd 53 43 90 bc
       0.10492897 0.08136773 -0.06861628 -0.017610228
0000e0 05 45 b4 bb 54 8b 0a 3e 03 6b 02 bd 7f fe 98 bc
       -0.005501392 0.13529712 -0.031840336 -0.01867604
0000f0 80 8d f7 3c 4a 00 a5 3d 13 47 76 3a f8 d4 93 bd
       0.03021884 0.08056696 0.0009394746 -0.07218355
000100 1f cc 57 3c 55 fc af 3d bd e5 2a 3d e7 07 0d 3d
       0.013171225 0.085930504 0.041723 0.034431364
000110 4b bb f2 bc ba c3 58 be 36 70 6c bd 0d 4e f1 bc
       -0.029630324 -0.21168414 -0.0577242 -0.029456163
000120 2f fc ae 3d 83 e0 fc 3b b9 94 59 ba 3a 94 be 3d
       0.08544194 0.0077171936 -0.00083000545 0.09305616
000130 2b 29 05 3e 23 b5 28 3c ed 38 2a 3e 95 18 de bc
       0.13003986 0.010297093 0.16623278 -0.027111331
000140 ab 4f ec 3d cc c7 06 3d 54 99 78 bd 6d a6 ac bd
       0.11538633 0.032905385 -0.0606931 -0.08430181
000150 12 5f b3 3c fe 08 1f bd 89 03 98 bd fa 5b f9 bb
       0.021895919 -0.038826935 -0.07422549 -0.0076098414
000160 ab ba 3b bc 92 93 c5 bc cb 74 75 3d 28 a9 5a 3c
       -0.011458079 -0.024118219 0.059925836 0.013345994
000170 93 7b bc bd db 41 a7 3c 46 9e c5 3d 44 e6 bd 3d
       -0.092032574 0.020417145 0.09649329 0.09272435
000180 fe 78 0a bd b8 55 d0 3d 30 2d 9e 3d 19 aa 11 3d
       -0.033806793 0.101725996 0.077234626 0.03556261
000190 05 cc 1c bd e8 c2 9b bd 02 8f 1e bd 6b c6 11 3d
       -0.038280506 -0.07605535 -0.0387106 0.035589617
0001a0 a2 b1 72 bc 7f df 1d 3e 7f f3 e3 3d 37 b3 b2 bd
       -0.014812859 0.15417288 0.111304276 -0.08725589
0001b0 b1 01 a0 bd e5 59 6b 3d a5 14 0c bd eb 9c db bd
       -0.078128226 0.057458777 -0.034199376 -0.10723289
0001c0 4b 39 e6 3c ee b1 4d bc 70 e4 fa bb 95 c4 dc 3c
       0.028103491 -0.012554629 -0.0076566264 0.026949206
0001d0 65 fc 1c bc e2 f6 d5 3d bd af 83 3d 4c a9 88 bc
       -0.00958166 0.1044748 0.06430004 -0.01668229
0001e0 6d 43 79 3c 71 07 08 3d 01 39 e6 3c d6 27 8c bd
       0.015213829 0.03321022 0.028103353 -0.068435356
0001f0 32 c8 5f bd 16 11 a2 3d 81 8c f7 3c b9 ef f5 3b
       -0.05463428 0.07913415 0.030218365 0.007505384
000200 73 d4 b7 bd e7 9e d0 3c 5d 48 87 3d 9e 82 dd bb
       -0.08976068 0.025466396 0.06605599 -0.0067599555
000210 06 c5 99 3d 87 5f f1 3b 4e c3 a0 bd fd d5 c6 3c
       0.07508282 0.007366124 -0.078497514 0.02427196
000220 24 63 00 3e 04 cc 8a 3c 94 38 a4 3c 66 19 1c be
       0.12537819 0.016942985 0.02004651 -0.15244064
000230 d7 8c dd 3d 9e 42 b3 bd e5 a4 c1 bd 82 ab 10 3e
       0.10817879 -0.087529406 -0.09455279 0.14127925
000240 8c a9 a0 3b f6 d7 7d 3d ae 55 0c 3d a5 e5 05 be
       0.004903024 0.061973535 0.034261398 -0.13075884
000250 b5 68 90 3c 72 91 24 bd 12 70 4c 3b c9 3e ff 3b
       0.017628053 -0.04017777 0.0031194729 0.007789467
000260 69 3f 36 bd 64 99 55 3d 8c 67 e0 3d de 33 83 bc
       -0.044494066 0.052148238 0.1095725 -0.016015943
000270 8e a4 56 3d 77 5d 5e 3c f5 5a ee 3b e1 fc 52 3d
       0.052403025 0.013572088 0.0072740265 0.051510695
000280 ea 64 3a 3d c1 a4 bd bd 26 66 a2 3c 19 2e e1 3d
       0.045506395 -0.0925994 0.019824099 0.109951206
000290 65 95 6e bc 79 e4 19 bc 04 4c 60 bd 6c 0a 6b 3d
       -0.014561986 -0.009392851 -0.054759994 0.057382986
0002a0 41 e9 7e 3d c2 86 8e 3d 18 e7 0a 3c 10 41 6b bc
       0.062234167 0.06959297 0.008477949 -0.014358774
0002b0 84 bd f7 3c 07 68 02 bd 9a aa 8a bd 9d 3a ed 3b
       0.030241735 -0.03183749 -0.06770821 0.0072396533
0002c0 8d 53 24 ba 74 82 0f bd 7e aa 83 3b 1e 1f b8 3a
       -0.00062685536 -0.03503652 0.004018127 0.001404736
0002d0 df 73 0a 3e ba d8 39 3d 83 b4 b5 3d e0 b7 b5 3d
       0.13520764 0.045372702 0.088723205 0.08872962
0002e0 48 f5 e2 3b 48 ba 0a bb e6 47 c5 3c dc 11 dc bb
       0.0069262125 -0.0021168161 0.024082135 -0.006715996
0002f0 8d 5a 90 bd 86 f8 b7 bc 4f 30 a3 3c 8a 81 6c bd
       -0.07048521 -0.022457372 0.019920496 -0.057740726
000300 ea 00 51 3d cf 32 bd 3d 9c 33 32 bd 6a dd 0b 3c
       0.051026262 0.092382066 -0.04350625 0.008536676
000310 39 ce ab 3d 6f 9d 46 bd 1b 8b 17 bd 8c 1c 28 bd
       0.08388943 -0.048489984 -0.036997896 -0.04104285
000320 64 a8 a5 3c e8 21 3c bd 9e 42 8f 3c e9 3b 96 bd
       0.020221896 -0.045930773 0.01748782 -0.07335646
000330 1d 8e 28 bc 9c 22 8b bc 00 ff d6 3d c7 00 8a bd
       -0.010287789 -0.016984276 0.10497856 -0.067384295
000340 01 6a 42 3c 6c d2 7d 3d b8 be 78 bc aa 14 04 be
       0.011866094 0.061968252 -0.01518219 -0.12898508
000350 52 8e 6d bc 78 7f 3b 3d 50 d8 1b 3d 24 e2 46 bd
       -0.014499264 0.04577586 0.03804809 -0.04855551
000360 e0 e9 0e 3d cd 69 53 bd a4 7d 69 3d 4d 99 f7 3d
       0.03489101 -0.05161457 0.057004586 0.12089787
000370 94 8d 17 3e 9f 27 99 bd ce 63 43 bd 9b cd 2f 3c
       0.14800102 -0.0747826 -0.047702603 0.0107301725
000380 d2 c3 0f 3d 11 95 39 3d ec 19 c3 3d 70 7d aa bd
       0.03509886 0.045308176 0.095264286 -0.083247066
000390 fb 00 6b bd 01 2c 39 bc 21 72 2e 3d a2 4b bc bd
       -0.057373982 -0.011301995 0.04258931 -0.09194113
0003a0 9a 20 10 3c 75 95 dc 3c 20 6f c7 bc 3c 05 07 bd
       0.008796835 0.026926735 -0.02434498 -0.032963976
0003b0 6c ea 19 3d d8 2e 3a bc ce 77 6d bc 54 7f b0 3c
       0.037577078 -0.0113637075 -0.014493896 0.02154509
0003c0 54 d1 85 3d 7d b3 b2 3c 40 08 48 3c 53 72 72 bd
       0.06534067 0.021814102 0.012208998 -0.05919106
0003d0 81 78 70 3d 26 41 86 3c 9d db 0c bd f8 72 ba 3c
       0.05870867 0.016388487 -0.034389127 0.0227599
0003e0 77 91 3e bd de 7c de bd c1 94 61 3c 7d 0a d3 bb
       -0.046525445 -0.1086366 0.013768376 -0.0064404593
0003f0 dc 5f 00 bd db f3 cc bd 63 7c 76 3c 44 9b f8 bd
       -0.03134142 -0.10007449 0.015044305 -0.121389896

network_body._body_endoder.seq_layers.2.bias f4 [256]
000000 00 00 00 00 00 00 00 00 00 00 00 00 00 00 00 00
       0.0 0.0 0.0 0.0
000010 00 00 00 00 00 00 00 00 00 00 00 00 00 00 00 00
       0.0 0.0 0.0 0.0
000020 00 00 00 00 00 00 00 00 00 00 00 00 00 00 00 00
       0.0 0.0 0.0 0.0
000030 00 00 00 00 00 00 00 00 00 00 00 00 00 00 00 00
       0.0 0.0 0.0 0.0
000040 00 00 00 00 00 00 00 00 00 00 00 00 00 00 00 00
       0.0 0.0 0.0 0.0
000050 00 00 00 00 00 00 00 00 00 00 00 00 00 00 00 00
       0.0 0.0 0.0 0.0
000060 00 00 00 00 00 00 00 00 00 00 00 00 00 00 00 00
       0.0 0.0 0.0 0.0
000070 00 00 00 00 00 00 00 00 00 00 00 00 00 00 00 00
       0.0 0.0 0.0 0.0
000080 00 00 00 00 00 00 00 00 00 00 00 00 00 00 00 00
       0.0 0.0 0.0 0.0
000090 00 00 00 00 00 00 00 00 00 00 00 00 00 00 00 00
       0.0 0.0 0.0 0.0
0000a0 00 00 00 00 00 00 00 00 00 00 00 00 00 00 00 00
       0.0 0.0 0.0 0.0
0000b0 00 00 00 00 00 00 00 00 00 00 00 00 00 00 00 00
       0.0 0.0 0.0 0.0
0000c0 00 00 00 00 00 00 00 00 00 00 00 00 00 00 00 00
       0.0 0.0 0.0 0.0
0000d0 00 00 00 00 00 00 00 00 00 00 00 00 00 00 00 00
       0.0 0.0 0.0 0.0
0000e0 00 00 00 00 00 00 00 00 00 00 00 00 00 00 00 00
       0.0 0.0 0.0 0.0
0000f0 00 00 00 00 00 00 00 00 00 00 00 00 00 00 00 00
       0.0 0.0 0.0 0.0
000100 00 00 00 00 00 00 00 00 00 00 00 00 00 00 00 00
       0.0 0.0 0.0 0.0
000110 00 00 00 00 00 00 00 00 00 00 00 00 00 00 00 00
       0.0 0.0 0.0 0.0
000120 00 00 00 00 00 00 00 00 00 00 00 00 00 00 00 00
       0.0 0.0 0.0 0.0
000130 00 00 00 00 00 00 00 00 00 00 00 00 00 00 00 00
       0.0 0.0 0.0 0.0
000140 00 00 00 00 00 00 00 00 00 00 00 00 00 00 00 00
       0.0 0.0 0.0 0.0
000150 00 00 00 00 00 00 00 00 00 00 00 00 00 00 00 00
       0.0 0.0 0.0 0.0
000160 00 00 00 00 00 00 00 00 00 00 00 00 00 00 00 00
       0.0 0.0 0.0 0.0
000170 00 00 00 00 00 00 00 00 00 00 00 00 00 00 00 00
       0.0 0.0 0.0 0.0
000180 00 00 00 00 00 00 00 00 00 00 00 00 00 00 00 00
       0.0 0.0 0.0 0.0
000190 00 00 00 00 00 00 00 00 00 00 00 00 00 00 00 00
       0.0 0.0 0.0 0.0
0001a0 00 00 00 00 00 00 00 00 00 00 00 00 00 00 00 00
       0.0 0.0 0.0 0.0
0001b0 00 00 00 00 00 00 00 00 00 00 00 00 00 00 00 00
       0.0 0.0 0.0 0.0
0001c0 00 00 00 00 00 00 00 00 00 00 00 00 00 00 00 00
       0.0 0.0 0.0 0.0
0001d0 00 00 00 00 00 00 00 00 00 00 00 00 00 00 00 00
       0.0 0.0 0.0 0.0
0001e0 00 00 00 00 00 00 00 00 00 00 00 00 00 00 00 00
       0.0 0.0 0.0 0.0
0001f0 00 00 00 00 00 00 00 00 00 00 00 00 00 00 00 00
       0.0 0.0 0.0 0.0
000200 00 00 00 00 00 00 00 00 00 00 00 00 00 00 00 00
       0.0 0.0 0.0 0.0
000210 00 00 00 00 00 00 00 00 00 00 00 00 00 00 00 00
       0.0 0.0 0.0 0.0
000220 00 00 00 00 00 00 00 00 00 00 00 00 00 00 00 00
       0.0 0.0 0.0 0.0
000230 00 00 00 00 00 00 00 00 00 00 00 00 00 00 00 00
       0.0 0.0 0.0 0.0
000240 00 00 00 00 00 00 00 00 00 00 00 00 00 00 00 00
       0.0 0.0 0.0 0.0
000250 00 00 00 00 00 00 00 00 00 00 00 00 00 00 00 00
       0.0 0.0 0.0 0.0
000260 00 00 00 00 00 00 00 00 00 00 00 00 00 00 00 00
       0.0 0.0 0.0 0.0
000270 00 00 00 00 00 00 00 00 00 00 00 00 00 00 00 00
       0.0 0.0 0.0 0.0
000280 00 00 00 00 00 00 00 00 00 00 00 00 00 00 00 00
       0.0 0.0 0.0 0.0
000290 00 00 00 00 00 00 00 00 00 00 00 00 00 00 00 00
       0.0 0.0 0.0 0.0
0002a0 00 00 00 00 00 00 00 00 00 00 00 00 00 00 00 00
       0.0 0.0 0.0 0.0
0002b0 00 00 00 00 00 00 00 00 00 00 00 00 00 00 00 00
       0.0 0.0 0.0 0.0
0002c0 00 00 00 00 00 00 00 00 00 00 00 00 00 00 00 00
       0.0 0.0 0.0 0.0
0002d0 00 00 00 00 00 00 00 00 00 00 00 00 00 00 00 00
       0.0 0.0 0.0 0.0
0002e0 00 00 00 00 00 00 00 00 00 00 00 00 00 00 00 00
       0.0 0.0 0.0 0.0
0002f0 00 00 00 00 00 00 00 00 00 00 00 00 00 00 00 00
       0.0 0.0 0.0 0.0
000300 00 00 00 00 00 00 00 00 00 00 00 00 00 00 00 00
       0.0 0.0 0.0 0.0
000310 00 00 00 00 00 00 00 00 00 00 00 00 00 00 00 00
       0.0 0.0 0.0 0.0
000320 00 00 00 00 00 00 00 00 00 00 00 00 00 00 00 00
       0.0 0.0 0.0 0.0
000330 00 00 00 00 00 00 00 00 00 00 00 00 00 00 00 00
       0.0 0.0 0.0 0.0
000340 00 00 00 00 00 00 00 00 00 00 00 00 00 00 00 00
       0.0 0.0 0.0 0.0
000350 00 00 00 00 00 00 00 00 00 00 00 00 00 00 00 00
       0.0 0.0 0.0 0.0
000360 00 00 00 00 00 00 00 00 00 00 00 00 00 00 00 00
       0.0 0.0 0.0 0.0
000370 00 00 00 00 00 00 00 00 00 00 00 00 00 00 00 00
       0.0 0.0 0.0 0.0
000380 00 00 00 00 00 00 00 00 00 00 00 00 00 00 00 00
       0.0 0.0 0.0 0.0
000390 00 00 00 00 00 00 00 00 00 00 00 00 00 00 00 00
       0.0 0.0 0.0 0.0
0003a0 00 00 00 00 00 00 00 00 00 00 00 00 00 00 00 00
       0.0 0.0 0.0 0.0
0003b0 00 00 00 00 00 00 00 00 00 00 00 00 00 00 00 00
       0.0 0.0 0.0 0.0
0003c0 00 00 00 00 00 00 00 00 00 00 00 00 00 00 00 00
       0.0 0.0 0.0 0.0
0003d0 00 00 00 00 00 00 00 00 00 00 00 00 00 00 00 00
       0.0 0.0 0.0 0.0
0003e0 00 00 00 00 00 00 00 00 00 00 00 00 00 00 00 00
       0.0 0.0 0.0 0.0
0003f0 00 00 00 00 00 00 00 00 00 00 00 00 00 00 00 00
       0.0 0.0 0.0 0.0

action_model._discrete_distribution.branches.0.weight f4 [3, 256]
000000 cf 8b 55 bb fb 5b c9 bb 6f d9 d9 ba 23 ba b6 bb
       -0.0032584553 -0.006144998 -0.0016620586 -0.0055763884
000010 87 de 26 3c 24 75 8e ba b9 e9 38 bc ea 72 22 bc
       0.010184891 -0.0010868651 -0.011286193 -0.009915093
000020 07 eb 1f 3b c9 9c 16 bb a3 40 4a 3b df e9 aa ba
       0.0024401562 -0.0022981635 0.003086128 -0.001303967
000030 af ca e2 bb bf ff 6c bb 08 63 f0 3b 9f de 01 3a
       -0.0069211344 -0.0036163179 0.007336024 0.00049541326
000040 cf 9c 0d bb 97 b6 a7 ba 06 ef 86 bb ce e6 02 bc
       -0.0021608358 -0.0012795505 -0.0041178493 -0.007989598
000050 05 a8 e9 3b 7b 59 e0 3b 62 c8 02 3b 23 10 14 bb
       0.007130625 0.0068466044 0.0019955863 -0.0022592626
000060 ae 25 a2 3b 49 46 36 bc 8f 15 8c bb 1b 41 44 3b
       0.0049483394 -0.011125156 -0.004275031 0.0029946032
000070 1f 03 c9 bb 66 09 92 bb 0b 80 2a 3b c4 f6 c8 3b
       -0.0061344053 -0.004456687 0.002601626 0.0061329324
000080 8b 61 71 3c b7 39 2a bb d6 f0 3a bc 6a 73 63 3b
       0.014732729 -0.0025974342 -0.011409959 0.0034706243
000090 e8 ce 1c 3c 88 0f 90 ba 53 f0 15 bb c7 08 33 3b
       0.009570815 -0.0010990957 -0.002287884 0.0027318464
0000a0 d2 85 85 bb 02 72 35 3c 6a 0e 75 bb 25 22 17 3b
       -0.0040747905 0.011074545 -0.0037392625 0.0023061123
0000b0 db 9e f2 3b 0a 13 09 3b 3d cf 12 3c 05 3b f4 ba
       0.007404191 0.002091589 0.008960542 -0.0018633312
0000c0 e3 dc 5d bb 1f 04 3f ba a0 4f 68 bb e0 39 f8 39
       -0.0033853583 -0.0007286686 -0.003544785 0.00047345366
0000d0 8f 11 78 bb d8 1e 4d 3b 67 73 81 bb 7b 10 87 ba
       -0.0037852263 0.0031298902 -0.0039505246 -0.0010304594
0000e0 42 fd 50 3c b0 1c 88 3b d3 51 65 bb 59 f5 3d 3c
       0.012755694 0.0041538104 -0.0034991398 0.01159414
0000f0 a8 d2 6f 3c 28 ea dc 3a aa 29 03 bc 9f a2 1f bb
       0.014637627 0.0016854452 -0.008005539 -0.0024358404
000100 93 f2 4f 3b 23 a2 62 3a d4 4a cc b8 ff f5 16 bc
       0.003173028 0.0008645376 -9.741416e-05 -0.0092139235
000110 a7 04 fc 3a 27 38 d1 3b 6a b3 23 bc df 98 10 3c
       0.0019227461 0.0063848677 -0.009991506 0.00882551
000120 78 00 45 3b 33 ea d6 3b 23 c4 b6 ba b0 bb af 3b
       0.0030060094 0.0065586804 -0.0013943951 0.0053629503
000130 13 2e 48 3c ab 90 ba bb 81 c3 2c bc 15 af dc 3a
       0.012218016 -0.0056935153 -0.010544659 0.0016836846
000140 1f 8a 7f bc f9 ba 05 3c 3e 13 34 bb 37 57 02 bc
       -0.0155968955 0.008162254 -0.002747729 -0.007955364
000150 ed e4 ef bb 91 d3 a1 3a 07 71 9b bb 99 d8 b1 3b
       -0.0073209913 0.0012346377 -0.0047436985 0.005427432
000160 55 6c 59 bb 6a f8 d5 b7 2d d8 42 bb b7 20 a8 39
       -0.0033176143 -2.5507255e-05 -0.0029730902 0.00032067831
000170 dd 53 05 bc d6 31 b4 bb 20 b6 95 b8 9f 85 d0 3b
       -0.00813767 -0.005499105 -7.138797e-05 0.006363585
000180 56 20 34 bb 7b a0 05 bc af 22 d0 3a 9f 3a 5f bb
       -0.0027485094 -0.008155937 0.0015879477 -0.003406204
000190 2c e4 c8 3b 72 69 0a bb 2c 64 34 3a c7 e0 1b bc
       0.006130716 -0.002111998 0.0006881382 -0.00951404
0001a0 17 3a 77 bb 9e 5f 09 3c fd 35 1a bc 12 47 27 3c
       -0.0037723833 0.008384613 -0.009412286 0.010209816
0001b0 a6 63 a2 bb 81 39 00 3c d8 ba 89 3b df 3f 11 3c
       -0.0049557267 0.00782621 0.0042031817 0.008865326
0001c0 2d 42 c0 bb 7e a1 97 3b e7 f7 35 bc db 62 78 bb
       -0.005867264 0.0046274057 -0.011106468 -0.003790072
0001d0 e7 cc 57 3b fb 1d 1f bb 35 6d 72 bb 9e 55 8c 3a
       0.0032928528 -0.0024279344 -0.0036991362 0.0010706668
0001e0 15 7f f5 3a 07 3d 23 bc 04 d5 81 bb 9b b4 c4 bb
       0.001872989 -0.0099632805 -0.003962161 -0.006002975
0001f0 93 58 7c 3b 18 e9 d1 3b ea cc 2c 3c 93 cd 5c bb
       0.0038504943 0.006405961 0.010546902 -0.0033691868
000200 5f 96 56 ba 5b 3f 16 3a 41 83 b6 39 08 43 80 bb
       -0.0008185859 0.00057314866 0.00034811537 -0.0039142407
000210 db 33 05 ba af c2 f4 3a f7 5d 73 3b 4f 38 29 ba
       -0.00050812744 0.0018673743 0.0037134865 -0.0006455229
000220 9a 0f 30 bb 3f 64 74 bb 6f 28 32 bb 3a fe cd 3b
       -0.0026864768 -0.0037291197 -0.0027184745 0.0062864097
000230 82 97 d3 3b ef 78 12 bb a8 a7 ab bb f9 03 3c bb
       0.00645727 -0.0022349914 -0.005238492 -0.0028688891
000240 7b 65 d5 3a ff 61 11 3b 41 eb 95 3b 28 dd 8d 3a
       0.0016280854 0.0022183654 0.0045751636 0.0010823356
000250 43 43 e2 bb 70 d9 f6 3b 35 c1 ec 3a 78 56 9e 3b
       -0.006904991 0.007533245 0.0018062951 0.004832085
000260 ad 9b 7e 3c 9f c6 c6 bb 3d 11 94 ba ef 8a 0f bc
       0.015540046 -0.006066158 -0.0011296641 -0.008761152
000270 c4 4e 26 ba ab 5a 1d bc 63 d5 6e 3c 94 b5 a0 ba
       -0.00063441345 -0.009604136 0.014577243 -0.0012261146
000280 52 7d d2 bb 94 b0 4c 38 0f b8 84 ba 37 42 f9 3b
       -0.0064236308 4.880184e-05 -0.0010125655 0.0076067704
000290 f3 ee 69 bb 94 50 0d bc 9c be 08 3c 42 38 54 ba
       -0.0035695403 -0.008625168 0.008346226 -0.0008095541
0002a0 48 35 a2 3a 59 40 ca ba 4b ff 00 3b d5 e1 12 3c
       0.0012375498 -0.0015430554 0.0019683416 0.008964975
0002b0 d0 60 ea bb 67 5a 8c b8 38 fb f6 bb 03 26 1c bc
       -0.007152654 -6.692559e-05 -0.007537272 -0.009530547
0002c0 aa b8 1d bb f3 d7 e4 3b 25 ce 71 ba 5c 19 15 bc
       -0.0024066367 0.006983751 -0.00092241383 -0.009100284
0002d0 82 41 1c 3b 27 46 41 bc ea bc 73 3b 7a 5a 8c bb
       0.0023842757 -0.011796511 0.003719146 -0.0042832466
0002e0 72 89 87 3b 07 2d 9c bb 46 bc 2b 3b 62 eb f1 3a
       0.004136258 -0.00476611 0.002620475 0.001845699
0002f0 9a 19 d1 3b 6f d8 d8 3a a9 ab 00 bc 28 07 3c bc
       0.006381226 0.0016543994 -0.007853427 -0.011476316
000300 0a 2e ca 3b 26 bf 12 3a a9 ba 9a 3b ff 06 8a bb
       0.006170039 0.00055979413 0.0047219587 -0.00421226
000310 2e e8 49 3a bb 5f 14 3b 7e bb 87 3b 3f d4 53 bb
       0.0007702139 0.0022640068 0.004142224 -0.0032322553
000320 0b 6e f1 3b 52 a4 91 3a 30 07 9c 3b 03 b5 6d bb
       0.0073678545 0.0011111593 0.004761599 -0.0036271221
000330 d7 fc 02 bb a7 65 05 3c 41 10 3d 3b af 48 49 3b
       -0.001998713 0.008141912 0.00288488 0.0030713489
000340 d0 f4 f8 bb 3f fc 8e bb d7 66 8d ba 33 23 e1 3b
       -0.0075975433 -0.004363566 -0.0010788095 0.006870651
000350 18 c7 ce ba e2 2e 91 3b 15 7a d7 3b dd 65 ec 39
       -0.0015775887 0.0044306377 0.0065758326 0.00045089322
000360 67 e1 89 3b 1a 60 f2 3b 91 84 30 ba 10 76 0f 3c
       0.0042077783 0.00739671 -0.0006733621 0.008756176
000370 ff da 6e 3b b8 22 67 3c 32 cc d2 39 51 8f 2f 3c
       0.003644645 0.014107399 0.0004020646 0.010715322
000380 12 8f 13 bc 07 e7 b8 bb 4f a7 f6 ba e2 19 04 3b
       -0.009006279 -0.005642775 -0.0018818172 0.002015703
000390 b5 fc a5 3a 67 1d 19 3c c4 5e 30 bb 7b 38 9a 3b
       0.0012663814 0.009345389 -0.0026911953 0.00470644
0003a0 77 03 c0 3b fc 88 90 bb 22 9b 74 3a a5 41 26 3b
       0.005859788 -0.004410861 0.0009330978 0.0025368717
0003b0 6a 66 f5 bb 79 41 0e 3c 50 c1 07 3b 5b 4b 87 bc
       -0.0074890153 0.008682602 0.0020714588 -0.016515424
0003c0 6e ef b4 bb 22 dd 83 bb 38 ba d6 3b 95 fd 0b bc
       -0.0055217063 -0.004024164 0.0065529607 -0.008544345
0003d0 8b f6 a1 3b 38 a2 83 3a 60 bf b8 bb f7 c8 9e bb
       0.0049427203 0.0010042852 -0.005638048 -0.004845734
0003e0 fa 04 41 3c 5b 13 26 bb a3 d8 38 3c 7c 92 8f bb
       0.011780972 -0.0025341127 0.011282119 -0.004381476
0003f0 27 e5 8b 3b f7 4e ad b9 ab 2a f8 bb b9 b3 a4 bc
       0.0042692604 -0.00033055965 -0.007573446 -0.02010523

action_model._discrete_distribution.branches.0.bias f4 [3]
000000 00 00 00 00 00 00 00 00 00 00 00 00
       0.0 0.0 0.0

action_model._discrete_distribution.branches.1.weight f4 [3, 256]
000000 ad 3d c4 3a e7 3c 16 bb ac 32 86 bb 3b 1e 06 bc
       0.0014971994 -0.0022924484 -0.004095396 -0.008185918
000010 87 11 af bb 6f d7 87 38 a2 c8 42 ba 23 1e 2c 3a
       -0.0053426656 6.477429e-05 -0.00074304093 0.000656577
000020 4b 7d 03 3c 9b 89 3c bc 7b 89 44 3b 42 53 7d ba
       0.008025478 -0.011507417 0.0029989171 -0.00096635905
000030 37 2b c5 3b 08 a3 58 3b 6f a3 12 3c 2f 6a f5 3b
       0.0060171145 0.0033056159 0.008950098 0.0074894647
000040 b2 d8 43 bb 4d 46 7a bb a8 a1 01 3c 4d 7d 02 3a
       -0.00298838 -0.0038188875 0.007912077 0.0004977778
000050 31 29 b9 3b 59 bd 89 3b 53 1d 3d ba 53 26 e6 3b
       0.0056506624 0.00420348 -0.00072141475 0.0070236116
000060 30 3f 68 3b 6f 8d d6 bb 4e d2 03 3b 2f f8 b5 ba
       0.0035438053 -0.006547622 0.0020114365 -0.0013883169
000070 27 25 5d bb 03 74 b8 3b ad e0 e9 3a 15 8d 73 3b
       -0.0033744068 0.005629064 0.0017843448 0.003716295
000080 83 bd d1 3b fd 5b 4d 3c f3 26 b4 bb 52 1c 7c 3c
       0.0064007654 0.012534139 -0.005497807 0.015387611
000090 82 2d 43 bc 75 e8 28 3c 26 57 a7 ba 6d 65 ea bb
       -0.011912705 0.010309328 -0.0012767061 -0.007153204
0000a0 9d 12 80 3b cf f8 9e 3b 20 c5 5f bb ef 49 e0 3b
       0.003908469 0.0048514376 -0.0034144595 0.006844751
0000b0 e0 06 ef 39 55 53 22 bc d3 57 e1 3b 02 45 de b9
       0.00045590755 -0.009907563 0.0068769245 -0.00042394554
0000c0 f5 4c ae bb 0a 87 02 bc 62 2e 29 3b 6f 0b 2b 39
       -0.0053192326 -0.007966766 0.0025815 0.0001631209
0000d0 ba bb 85 39 52 9b ce 3b a7 3e e9 ba c3 ab d1 ba
       0.00025507604 0.0063051367 -0.0017795161 -0.0015996624
0000e0 5f d1 39 3a e3 d0 02 bc 9a 76 12 bc f7 ac 7d bb
       0.00070883887 -0.007984373 -0.00893941 -0.0038707831
0000f0 45 e1 73 bb d1 96 8b 3a 4b 7d 09 bc 5a ff de 3b
       -0.0037213129 0.0010649805 -0.008391689 0.0068053426
000100 e3 cf 87 3b a7 ab 5f 3c 1e dd 97 3b 33 ab a2 3b
       0.004144655 0.013651765 0.0046345135 0.004964256
000110 8f cd 02 bc 6f d2 0e bc c7 02 af bb 97 32 14 bc
       -0.007983579 -0.0087171635 -0.0053409073 -0.009045265
000120 1b 28 0c 3c 9f 16 88 bb c8 64 82 ba 51 4f 39 3c
       0.008554484 -0.0041530873 -0.0009948248 0.011310414
000130 be f9 17 bc d0 1c cf bb e4 77 8b bc c5 92 08 ba
       -0.009275852 -0.0063205734 -0.017024942 -0.00052098586
000140 f2 d9 d7 bb ce 87 2a 3b bc 2e 1a 3c cf d1 ae 3b
       -0.0065872604 0.0026020887 0.009410556 0.0053350697
000150 12 41 37 bc 70 4b 29 bc 6f 49 0e bc d3 c2 27 3b
       -0.011184948 -0.010332927 -0.0086845 0.0025598302
000160 98 3c 84 3b e4 3a 4c 3b 5f 8d 45 b9 c3 24 0f bc
       0.0040355437 0.0031163031 -0.00018840049 -0.008736792
000170 e5 63 b9 39 73 cb f4 3b 92 a7 9a 3b 6f b0 8c ba
       0.00035360377 0.007470542 0.004719683 -0.0010733734
000180 4b 14 0b 3c cd a6 27 3c 14 f7 13 3b 12 d4 2f 3c
       0.008488725 0.0102326395 0.002257769 0.010731714
000190 fc 36 16 bb 1d 53 ee b9 aa 11 ef 3b 0f 9a 4e 3b
       -0.0022920957 -0.00045456822 0.007295807 0.0031524932
0001a0 9b 45 0a 3c df b6 da bb 6e fe aa 3a 61 c8 24 bc
       0.008439447 -0.006674632 0.0013045797 -0.01005754
0001b0 fe a4 90 3b 4f 8c 8b 3b eb c5 57 bb 06 25 b6 3b
       0.0044142 0.0042586694 -0.0032924365 0.0055586128
0001c0 42 74 7e 3b 6f 6b 6f bc fc 98 ca b9 bf c6 a0 3b
       0.003882662 -0.0146130165 -0.00038642425 0.004906505
0001d0 ec 0c a8 bb 3f fe 94 bb d9 84 05 bc 6f 67 82 bb
       -0.0051284935 -0.00454691 -0.008149349 -0.0039796154
0001e0 7f 9c cc b8 20 c2 37 bc 5b aa a2 3b 65 ef 5c 3c
       -9.756628e-05 -0.011215717 0.0049641556 0.0134848105
0001f0 2b 8e 67 bb 3a 0c 3f b9 4f e3 26 bb 40 03 12 bc
       -0.0035332541 -0.00018219734 -0.0025465076 -0.008911908
000200 9b 2e 38 3b 1f 63 18 bb d8 66 58 3b 4b 13 38 bc
       0.002810395 -0.002325244 0.0033020284 -0.011235069
000210 0f 53 10 3c 68 96 82 3a 0b 78 79 3b 0b b8 78 3a
       0.008808865 0.0009963037 0.0038065936 0.0009487874
000220 95 66 57 3b 0c d4 bd ba 9b c7 fa 3b a3 bd 38 ba
       0.003286754 -0.001448275 0.0076531894 -0.0007047301
000230 65 d3 8e bb 54 40 8a bb 76 f6 b3 bb b0 d8 c4 3b
       -0.0043586963 -0.0042190943 -0.005492027 0.0060072765
000240 95 5e de 3b b6 18 01 3c ae 61 c5 b9 75 d7 d5 bb
       0.0067861774 0.007879427 -0.00037647545 -0.0065259286
000250 0f 28 1f 3c fd c7 0d 3c 68 e5 3b bb 9b bd b5 3b
       0.009714141 0.008653638 -0.0028670672 0.0055462844
000260 93 c4 95 3b 58 9e 98 bb 81 4f 91 3a c0 1f 0e ba
       0.0045705526 -0.004657548 0.0011086316 -0.0005421601
000270 86 df 97 3b 81 58 48 ba b7 ae 9f bb 87 83 1f 3c
       0.0046348004 -0.00076425826 -0.0048731226 0.009735948
000280 18 8a 50 3b 62 80 8d ba 1f a8 8d ba fb e9 f8 bb
       0.0031820592 -0.0010795707 -0.001080755 -0.007596252
000290 db 84 12 3b 6e 19 c3 ba 15 02 b3 3a c3 9d 4b bc
       0.002235702 -0.0014884898 0.0013657237 -0.01242775
0002a0 8f f0 22 bc 21 9e 45 3b 62 4a db 3b 07 8e 82 bb
       -0.009945049 0.0030154067 0.0066922167 -0.003984216
0002b0 8d 2a 47 bc 03 7c 68 bb 1a f8 96 bb c5 fd 10 3c
       -0.012156141 -0.0035474307 -0.0046072127 0.008849566
0002c0 6c 5a 82 bb e3 ae b3 bb 99 71 81 3a 2b 10 10 3c
       -0.0039780643 -0.0054834946 0.0009875774 0.008792917
0002d0 8b 8e ad 3b fd c4 15 bb bb aa 5c bc 3f 0b 54 3a
       0.0052965335 -0.002285301 -0.01346844 0.0008088834
0002e0 53 87 c7 3b 50 d2 17 3c 0d a0 d6 bb c2 3b 51 bb
       0.00608913 0.009266451 -0.0065498413 -0.0031926488
0002f0 51 b0 49 bb ed 9e 80 bb b3 fe f9 3a 7d 5c d8 38
       -0.0030775259 -0.0039251954 0.0019073099 0.0001031691
000300 93 75 36 bb af 14 8e 3c 74 13 03 bc b8 8f 27 ba
       -0.0027841076 0.017343847 -0.008000243 -0.000639196
000310 ad 1a 76 3b 97 8c ef bb 36 2c 9f bb a9 0b 25 3b
       0.003755252 -0.007310461 -0.0048575653 0.0025183952
000320 e3 0d 7d 3b 97 58 ca 3b 70 6b b4 3b d2 a6 0f bc
       0.0038613013 0.0061751115 0.0055059716 -0.0087678
000330 0f c2 f7 3b 9c e5 ae bb 7f 4d 07 bc 10 ed 80 bb
       0.0075609754 -0.00533743 -0.008258223 -0.00393451
000340 80 18 8d 3a a1 31 1a bb b0 a8 b0 ba a7 de 98 3a
       0.0010764748 -0.0023528116 -0.0013478007 0.0011663035
000350 3c 04 44 ba c9 d0 1c bb 9e 4a 82 bb 2a f5 5b 3b
       -0.00074774376 -0.0023928157 -0.00397618 0.0033562877
000360 8b f9 ae 3a bd 9b e9 3b 7f 22 d1 ba 94 eb 2e bb
       0.0013349516 0.007129161 -0.0015955715 -0.0026690708
000370 f5 7b 53 3b 23 5e f9 bb 77 8c cc 3b 6a 82 97 ba
       0.003226993 -0.007610099 0.0062423307 -0.0011559252
000380 43 8d 8b 3b 71 52 8b bb c3 a4 ba bb ba 9b 54 bc
       0.004258783 -0.004251771 -0.0056959107 -0.012976581
000390 f2 42 95 3a 12 d0 fe b7 fd 94 b7 3a 4a e7 a3 bb
       0.0011387749 -3.037605e-05 0.0014006194 -0.005001937
0003a0 20 f9 69 3b a9 48 40 bb d7 01 ed 3a 17 97 0d 3a
       0.0035701469 -0.0029340184 0.0018082213 0.0005401237
0003b0 22 62 d7 ba 0f 7a ab 3b 2f 89 bf 3a 38 72 ea ba
       -0.0016432444 0.0052330564 0.0014613027 -0.0017886823
0003c0 e2 9f b8 bb ab 35 f7 3b 38 65 7e bb 1f ce e9 ba
       -0.005634294 0.0075442395 -0.0038817655 -0.0017837918
0003d0 2b a8 32 bc 2c 6f 14 bc 50 be 02 bc 9e 4e bd bb
       -0.010904352 -0.009059709 -0.007979944 -0.005777194
0003e0 4f 39 1c bc 12 77 1f ba b7 e1 96 bb 4d 05 7e bb
       -0.009535148 -0.00060831115 -0.004604544 -0.0038760484
0003f0 46 0f 0e bc 82 15 65 3a cd 5d 3d 3a 9d b4 6f 3b
       -0.008670634 0.00087388617 0.0007223755 0.003657616

action_model._discrete_distribution.branches.1.bias f4 [3]
000000 00 00 00 00 00 00 00 00 00 00 00 00
       0.0 0.0 0.0
