ML-Agents/results/obs-from-ultimate-volleyball/Volleyball/Volleyball-4999979.onnx (onnx, 291918 bytes, 15 tensors)

discrete_action_output_shape f4 [1, 4]
3.0 3.0 3.0 2.0
00000000: 0000 4040 0000 4040 0000 4040 0000 0040

network_body.observation_encoder.processors.0.normalizer.running_mean f4 [11]
0.18205833 0.11522452 0.505855 0.6495881 11.195925 -0.020915028 0.23635574 0.008486484
-3.4811656 -2.5411942e-05 -2.4408318e-06
00000000: 806d 3a3e d5fa eb3d b77f 013f 684b 263f
00000010: 8222 3341 fe55 abbc 3d07 723e e50a 0b3c
00000020: 6bcb 5ec0 bb2b d5b7 2ccd 23b6

network_body._body_endoder.seq_layers.0.weight f4 [256, 11]
-0.23397094 0.066476054 0.13359879 -0.5501812 0.31420314 -0.025267866 -0.20283954 -0.14269595
-0.15815835 -0.029102834 0.31404525 -0.26751858 0.108090535 0.5340247 -0.9682454 0.46742228
-0.025277907 -0.1703236 -0.049965687 0.023495825 0.034703046 -0.12851416 -0.031821344 -0.5018516
0.26183507 0.0743891 -0.52472585 -0.13211979 -0.18828176 0.42066142 -0.30425918 0.0460784
-0.30250058 0.29843295 -0.45493194 -0.1892755 0.13878407 -0.044397533 -0.005701686 0.33320588
0.19032815 0.59455955 -0.20392367 -0.22977744 -0.09540233 -0.097659715 -0.009584909 0.1610589
0.14702797 -0.0028192303 0.13836941 0.51568973 -0.5009751 1.0337317 0.76447916 0.48858485
-0.424686 -0.108431876 -0.058672935 -0.53330505 -0.033584036 -0.16623606 -0.115611844 0.23594925
-0.09628613 0.11586652 0.17903659 -0.43508852 -0.45475936 -0.21262547 0.03782768 0.080675885
-0.3656782 0.25794056 -0.0024774536 -0.628522 -0.30239278 -0.44697416 0.33057892 -0.12239918
-0.57851255 -0.2314545 -0.54927164 -0.33898723 0.14795509 -0.84413177 0.63385457 0.19209652
-0.29934353 0.7036175 0.27180028 0.027656648 -0.6998928 0.0046488605 0.06068654 0.0046343487
0.22939676 0.3792445 0.09180988 0.11716102 -0.4396195 0.317941 0.1660874 0.33498538
0.32879925 -0.33860135 -0.40020236 -0.26144272 0.1898613 -0.19901195 -0.07679492 0.47200817
-0.4814164 -0.28844047 0.20315315 0.30720207 0.14402205 -0.30950877 0.26929703 -0.6403869
-0.10387476 0.17069836 -0.39725694 -0.42805293 -0.74995095 -0.56521815 -0.046569053 -0.25897595
-0.06498868 0.103632346 -0.6396196 0.097400434 0.21623212 -0.45320427 -0.17486873 0.47181764
0.19294013 0.48267832 0.083531864 0.60777205 -0.09204457 0.37825543 -0.46727422 0.051238656
0.24297334 -0.34901685 0.1372985 0.14331505 -0.13234654 0.47664768 0.15835758 0.012803164
0.8644878 0.10970704 0.48736468 0.26339787 0.4125579 0.6614539 -0.13582769 -0.22538915
0.3725592 0.19225627 0.17951608 -0.2859813 -0.776438 -0.5656534 -0.23305123 -0.4198502
0.82441336 0.5067779 -0.13416453 -0.42301014 0.34062263 0.042172816 -0.2893546 0.024754254
-0.4353461 -0.16503255 0.66483516 0.16018666 0.35922503 -0.48721945 0.20763554 -0.30584097
0.21561901 -0.50517964 0.28962263 0.2883026 -0.02926793 -0.78417575 -0.0944302 -0.1623328
-0.43506134 -0.7129748 0.35309523 -0.18845566 -0.05028379 0.21508297 -0.78741825 0.29528496
0.40552825 0.45577103 0.23675665 -0.23634784 0.30098087 0.55196637 -0.052107453 0.24940942
0.11148317 -0.25289798 -0.55898696 -0.26111484 -0.4708274 0.28279507 0.10916445 0.07755427
-0.08320354 -0.18670182 -0.22741494 -0.005582398 -0.30486834 0.3206983 -0.43308297 -0.25795686
0.30488905 0.03983809 0.3020021 -0.35623968 0.22845581 0.16633339 0.19713084 -0.56825626
-0.22792569 0.55537134 -0.068872884 0.08586349 0.3208435 -0.14890459 -0.4058204 -0.28496152
-0.045445193 0.004869369 0.17932513 -0.35129678 -0.44481608 -0.16461802 0.32625657 0.05645766
0.10428089 -0.49774754 0.026651172 0.1677273 -0.45449516 0.48676354 -0.18906642 -0.44020638
00000000: 1496 6fbe 9924 883d 1fce 083e add8 0cbf
00000010: 3cdf a03e 8efe cebc 2bb5 4fbe e31e 12be
00000020: 43f4 21be 1169 eebc 8aca a03e 32f8 88be
00000030: 925e dd3d d8b5 083f eede 77bf f951 ef3e
00000040: 9d13 cfbc 4f69 2ebe d2a8 4cbd 517a c03c
00000050: c824 0e3d 3799 03be 1957 02bd 5979 00bf
00000060: 3f0f 863e 5059 983d 6f54 06bf 694a 07be
00000070: efcc 40be ef60 d73e dcc7 9bbe b4bc 3c3d
00000080: 5be1 9abe 34cc 983e d7ec e8be 70d1 41be
00000090: 691d 0e3e 30da 35bd 35d5 babb f699 aa3e
000000a0: 62e5 423e 0e35 183f 5ed1 50be c74a 6bbe
000000b0: 4c62 c3bd d101 c8bd 060a 1dbc a0ec 243e
000000c0: 808e 163e d6c2 38bb b6b0 0d3e 3e04 043f
000000d0: e73f 00bf 5251 843f e8b4 433f cb27 fa3e
000000e0: 7270 d9be 8811 debd 0853 70bd ae86 08bf
000000f0: 6a8f 09bd c939 2abe e7c5 ecbd ae9c 713e
00000100: aa31 c5bd 6d4b ed3d 5e55 373e ecc3 debe
00000110: 38d6 e8be 7eba 59be 33f1 1a3d 6639 a53d
00000120: 2c3a bbbe c910 843e c65c 22bb d1e6 20bf
00000130: 3ad3 9abe ccd9 e4be a441 a93e 6cac fabd
00000140: 6619 14bf 6902 6dbe 119d 0cbf bc8f adbe
00000150: 8a81 173e 0519 58bf 4b44 223f f3b4 443e
00000160: 8e43 99be 4720 343f 6829 8b3e 3290 e23c
00000170: 2d2c 33bf 7855 983b 7392 783d bcdb 973b
00000180: fce6 6a3e 562c c23e d206 bc3d 1ef2 ef3d
00000190: cf15 e1be 2ac9 a23e d112 2a3e 3483 ab3e
000001a0: 6058 a83e 285d adbe 53e7 ccbe d2db 85be
000001b0: 006b 423e cac9 4bbe a846 9dbd 0eab f13e
000001c0: 367c f6be 78ae 93be 6107 503e 9749 9d3e
000001d0: 847a 133e ef77 9ebe 4de1 893e 65f0 23bf
000001e0: 4abc d4bd 8dcb 2e3e 4365 cbbe c129 dbbe
000001f0: c9fc 3fbf 23b2 10bf 31bf 3ebd 7f98 84be
00000200: c918 85bd 323d d43d 1cbe 23bf e179 c73d
00000210: f46b 5d3e 640a e8be ca10 33be 1592 f13e
00000220: 1992 453e 9d21 f73e c112 ab3d f396 1b3f
00000230: dd81 bcbd b2aa c13e 913e efbe a0df 513d
00000240: 01ce 783e 56b2 b2be fa97 0c3e 2ec1 123e
00000250: da85 07be 2a0b f43e 7d28 223e 5dc4 513c
00000260: 134f 5d3f 16ae e03d dd87 f93e 16dc 863e
00000270: ca3a d33e 0b55 293f 6a16 0bbe 6acc 66be
00000280: 14c0 be3e d4de 443e 10d3 373e 246c 92be
00000290: a4c4 46bf a9ce 10bf fba4 6ebe 9bf6 d6be
000002a0: c10c 533f 32bc 013f 6d62 09be c994 d8be
000002b0: 1766 ae3e 67bd 2c3d 4926 94be 6fc9 ca3c
000002c0: afe5 debe 4bfe 28be a332 2a3f f907 243e
000002d0: 58ec b73e d474 f9be 699e 543e 3097 9cbe
000002e0: 3bcb 5c3e 7453 01bf 6b49 943e 669c 933e
000002f0: 4cc3 efbc bebf 48bf 9f64 c1bd 923a 26be
00000300: 5cc0 debe 8485 36bf e6c8 b43e 85fa 40be
00000310: 60f6 4dbd b63e 5c3e 3e94 49bf 972f 973e
00000320: 66a1 cf3e d25a e93e 5670 723e 2b05 72be
00000330: 2a1a 9a3e ab4d 0d3f a06e 55bd 2f65 7f3e
00000340: 4a51 e43d d87b 81be c519 0fbf d8b0 85be
00000350: 4a10 f1be 84ca 903e 9c91 df3d c6d4 9e3d
00000360: 9e66 aabd c32e 3fbe 76df 68be 8cec b6bb
00000370: b417 9cbe 9132 a43e 0dbd ddbe ec12 84be
00000380: 6b1a 9c3e 442d 233d 05a0 9a3e 0c65 b6be
00000390: 52f0 693e 4d53 2a3e abdc 493e 3e79 11bf
000003a0: 5a65 69be d12c 0e3f 3a0d 8dbd 33d9 af3d
000003b0: 9945 a43e 727a 18be b1c7 cfbe 7ae6 91be
000003c0: bd24 3abd 3a8f 9f3b 02a1 373e 2cdd b3be
000003d0: efbe e3be a091 28be 1a0b a73e 2640 673d
000003e0: 3891 d53d c4d8 febe 8f53 da3c b5c0 2b3e
000003f0: 97b3 e8be 1239 f93e a19a 41be bb62 e1be

network_body._body_endoder.seq_layers.0.bias f4 [256]
-0.032901768 0.11247031 0.014556518 0.06976819 0.05412939 0.0041767927 0.06318812 -0.05619952
0.12585856 0.08415352 0.066204965 -0.005948322 0.026289508 0.06321281 0.22739136 0.065259255
0.12094311 0.07526031 0.110567845 -0.052004013 -0.0012978758 0.09719868 0.05552645 -0.010642066
0.032353643 0.18402548 0.03504743 0.08245879 0.031757906 0.0031405543 0.05079598 0.035631593
0.11244295 0.15456972 0.12908363 0.0564616 -0.06885432 0.023138352 0.06455192 0.09659844
0.13052647 0.08584634 0.015138218 0.06234285 0.004575398 0.066302024 0.15822978 0.07358376
-0.01304005 0.16743323 0.11365534 0.09749117 -0.043928716 0.1392689 0.14907469 0.08679842
0.03952069 0.13748056 0.1630189 0.03703972 0.054348372 0.06589695 0.051302753 -0.056554962
-0.074814074 0.09498384 0.120751716 0.15423542 0.05021944 -0.032029618 -0.037448324 0.004131165
-0.06266059 -0.043934118 0.01555712 0.04878605 0.10668019 0.09040463 0.10280868 0.041690134
0.09724644 0.09128823 0.13666952 0.008046953 0.022015935 0.07971278 0.11666902 -0.021201104
0.038682107 0.12394491 0.012447414 -0.00927891 0.041925747 0.112786986 -0.055486 0.05526837
0.0825374 0.07234822 -0.10312477 0.08254648 -0.021103336 0.113106 -0.047173295 0.08273196
0.09648346 0.12785202 0.12414318 0.022553932 0.005123757 0.07482792 0.073991284 0.16316311
0.07319883 0.055323128 0.024895553 0.087384805 0.103780515 0.084441096 -0.034125928 0.04455032
-0.061991822 -0.017228855 0.09464041 0.107078 0.12347224 0.0061984262 0.03852014 0.05001568
0.03826486 0.02164749 -0.0004913781 0.1031714 0.03080729 0.03753603 0.09676942 0.11167417
0.1489885 0.12641095 0.011859091 -0.006910771 0.10004956 0.07199371 -0.0065975417 0.07699154
-0.06756446 0.025720667 -0.017469155 0.08169236 0.1218278 0.10079703 0.057086043 -0.031422123
-0.027650135 0.03844336 0.078628056 0.048193082 0.012614106 -0.007943745 0.05663965 0.02609824
0.09700281 0.10577673 0.02458954 0.0555513 0.056206383 0.028798584 0.041915264 0.1425485
0.06094474 0.082330614 0.146937 0.037723735 0.09223972 -0.059977222 0.07247973 -0.0162387
-0.01921403 0.096585646 0.10251094 0.07815487 0.08991175 0.05579562 0.10305562 0.082764074
0.07630568 0.08686112 0.14318725 0.018901773 0.03583976 0.015967395 0.06989623 0.12512161
0.027543793 0.09509572 0.05054551 0.034560088 0.06223385 0.11340238 0.10894271 0.061772875
-0.050700407 0.10691674 0.10350901 0.10802579 0.040559992 0.09127705 0.09654117 0.14221425
0.12594974 0.00030973015 0.101693384 0.07921173 0.049252402 -0.09782348 0.13465083 0.083134376
0.04030032 0.027116483 0.12777144 0.061443694 0.07991374 0.13864075 0.054874726 0.08668983
0.16255386 0.046290595 -0.01247611 0.08255385 0.13189201 0.08729364 0.07651244 0.00039761438
-0.026855282 0.12813789 0.12990011 0.012094188 0.0053849127 0.018959446 -0.014376206 0.11594688
0.12655926 0.080083154 0.04039506 0.06348824 0.010527697 0.12972696 0.12777367 0.00941214
0.20351198 0.035354845 0.07234032 -0.032311406 0.06701917 0.075484514 0.08395882 0.1074228
00000000: 01c4 06bd d556 e63d 767e 6e3c a0e2 8e3d
00000010: c7b6 5d3d 7add 883b c668 813d 7831 66bd
00000020: 11e1 003e ae58 ac3d 7896 873d 24ea c2bb
00000030: 185d d73c b875 813d 48d9 683e a5a6 853d
00000040: 05b1 f73d 1422 9a3d 6571 e23d 2902 55bd
00000050: 7c1d aaba 1a10 c73d b46f 633d 0f5c 2ebc
00000060: 4185 043d 2d71 3c3e e58d 0f3d 27e0 a83d
00000070: 9414 023d c2d1 4d3b 720f 503d 6ff2 113d
00000080: 7d48 e63d 8647 1e3e 802e 043e 4744 673d
00000090: 7e03 8dbd a48c bd3c cc33 843d 67d5 c53d
000000a0: bba8 053e 35d0 af3d 4a06 783c 375b 7f3d
000000b0: 38ed 953b 5bc9 873d fd06 223e 15b3 963d
000000c0: efa5 55bc 9e73 2b3e 22c4 e83d 73a9 c73d
000000d0: 99ee 33bd 829c 0e3e 09a7 183e 5fc3 b13d
000000e0: 72e0 213d b4c7 0c3e 6dee 263e f6b6 173d
000000f0: 669c 5e3d fbf4 863d d622 523d 2da6 67bd
00000100: 1f38 99bd e386 c23d ad4c f73d e4ef 1d3e
00000110: e6b2 4d3d 7d31 03bd 6a63 19bd b95e 873b
00000120: 3254 80bd 43f4 33bd 4ae3 7e3c e2d3 473d
00000130: 257b da3d 1026 b93d 5b8d d23d 46c3 2a3d
00000140: 2429 c73d 53f5 ba3d 18f3 0b3e 5ed7 033c
00000150: c35a b43c 7440 a33d 2bf0 ee3d f0ad adbc
00000160: 2171 1e3d d4d6 fd3d 3df0 4b3c 9206 18bc
00000170: 55ba 2b3d ddfc e63d 4a45 63bd 1661 623d
00000180: 5e09 a93d 4e2b 943d 1433 d3bd 210e a93d
00000190: e7e0 acbc 1ea4 e73d c938 41bd 606f a93d
000001a0: 1f99 c53d a4eb 023e c83e fe3d 06c3 b83c
000001b0: 30e5 a73b 613f 993d be88 973d 3b14 273e
000001c0: 45e9 953d 819a 623d c2f1 cb3c cef6 b23d
000001d0: e18a d43d 74ef ac3d a1c7 0bbd 657a 363d
000001e0: 23eb 7dbd 8723 8dbc d5d2 c13d b64b db3d
000001f0: 04df fc3d 2b1c cb3b 4bc7 1d3d 3edd 4c3d
00000200: 9dbb 1c3d 1456 b13c d3cf 00ba 874b d33d
00000210: 925f fc3c 61bf 193d 0c2f c63d 6db5 e43d
00000220: 7190 183e df71 013e a24c 423c c073 e2bb
00000230: c9e6 cc3d 7071 933d 3130 d8bb bead 9d3d
00000240: 3c5f 8abd 26b4 d23c 791b 8fbc 534e a73d
00000250: db80 f93d ac6e ce3d 0ed3 693d 7cb4 00bd
00000260: 8982 e2bc c976 1d3d bf07 a13d 1c66 453d
00000270: 65ab 4e3c 7b26 02bc fafe 673d facb d53c
00000280: 69a9 c63d 78a1 d83d 0170 c93c c389 633d
00000290: aa38 663d 02eb eb3c 57af 2b3d 3cf8 113e
000002a0: 31a1 793d f49c a83d a776 163e 3484 1a3d
000002b0: 2ee8 bc3d adaa 75bd 4170 943d 0607 85bc
000002c0: be66 9dbc b2ce c53d 41f1 d13d a90f a03d
000002d0: a723 b83d f389 643d d30e d33d 3680 a93d
000002e0: 2746 9c3d 3ee4 b13d ae9f 123e e4d7 9a3c
000002f0: b6cc 123d 0ece 823c c125 8f3d e11f 003e
00000300: 85a3 e13c 8bc1 c23d cf08 4f3d e18e 0d3d
00000310: ece8 7e3d 823f e83d 5b1d df3d 8e05 7d3d
00000320: 3bab 4fbd 2af7 da3d 88fc d33d a03c dd3d
00000330: 3c22 263d 76ef ba3d 60b7 c53d 9da0 113e
00000340: f8f8 003e 4763 a239 9f44 d03d c239 a23d
00000350: e3bc 493d ad57 c8bd e8e1 093e 5b42 aa3d
00000360: f311 253d 6323 de3c 84d6 023e 62ac 7b3d
00000370: d1a9 a33d d7f7 0d3e 52c4 603d 708a b13d
00000380: 8574 263e 359b 3d3d 9968 4cbc fe11 a93d
00000390: b30e 073e 02c7 b23d 8eb2 9c3d e676 d039
000003a0: 9cff dbbc 9436 033e 8904 053e b326 463c
000003b0: ec73 b03b d750 9b3c 2e8a 6bbc 8f75 ed3d
000003c0: c098 013e a302 a43d 4a75 253d 1f06 823d
000003d0: 5d7c 2c3c 25d7 043e 1ad7 023e 6035 1a3c
000003e0: 7265 503e 3ed0 103d 2927 943d f758 04bd
000003f0: 5941 893d a097 9a3d 9af2 ab3d 7c00 dc3d

network_body._body_endoder.seq_layers.2.weight f4 [256, 256]
-0.0879629 -0.015886001 -0.08844094 0.012311125 -0.032909352 -0.051619947 0.019189268 -0.1384663
0.110894054 0.0065447777 0.06804947 0.05326856 -0.11872458 -0.024977213 -0.07728554 0.0411018
0.12096703 -0.07059587 -0.02529752 -0.20936133 0.027121503 0.096636705 -0.051130544 -0.09135478
0.030833837 -0.040951155 0.037826117 0.06529478 0.17533885 0.059258863 -0.01695349 0.11484725
0.13369961 0.012152116 0.04148787 0.0046147667 -0.08224194 -0.073709495 -0.033387776 -0.020719452
-0.06363679 -0.0396557 -0.023833174 0.08092507 -0.05360406 0.010981593 -0.039445125 0.009328518
0.07385084 -0.042582832 0.16302896 0.120607086 -0.033943515 0.018080084 0.16585454 0.091539636
-0.084935516 0.06585626 0.121360004 -0.037521753 -0.032400128 0.07042325 0.01942804 0.043454234
-0.1519387 0.07571898 -0.07777985 0.12771185 -0.039145093 -0.024278343 -0.10874044 -0.0954517
-0.023124894 -0.13179871 0.0022058166 -0.08954865 -0.09435222 0.04724441 0.021820357 0.011224518
-0.090973675 0.098573424 0.0331397 0.089292906 0.2555603 -0.010110806 0.11313957 0.026520776
-0.16553035 0.005590125 -0.10043153 0.03497056 0.044006113 -0.055124056 -0.14631012 -0.042046767
-0.049357828 -0.15655218 -0.032433785 -0.058146406 0.0684606 0.2043645 0.02860918 0.013312034
0.04026872 -0.0077710887 0.014060543 0.009683864 -0.13841236 -0.1350648 -0.027949974 0.17032538
0.06533233 0.05453883 -0.19567917 0.11512591 0.10362307 -0.031088386 -0.078027576 0.011597145
0.012560182 -0.01576286 -0.10983184 0.15233359 0.119270876 0.18783133 -0.18051451 0.058660146
-0.096288025 0.035975374 0.09211726 0.036192503 0.066527605 -0.0046034097 0.13265665 -0.045026794
-0.0066081556 0.038947675 -0.10827121 0.073361956 -0.110447824 -0.058650333 0.06244784 0.10100838
0.017851064 -0.040953197 -0.09564889 -0.13295701 0.09996613 0.047429062 -0.0934911 0.1160128
-0.10543132 0.020955622 -0.08382266 0.040065568 -0.00047278006 -0.00032527727 -0.050470214 -0.15512438
0.07237972 -0.06052734 -0.10417085 -0.05247465 0.0582501 -0.116927005 0.026912527 -0.21569058
-0.06415942 -0.043706413 -0.03654119 0.0007646495 0.13752753 0.0019012084 0.053423442 0.063821174
0.09400276 0.050706856 0.05672666 0.0007873342 0.0196702 -0.013475764 0.016026076 0.115065835
0.00063579547 0.12737706 0.06821392 -0.08879013 0.06603474 0.018760184 -0.080190115 0.007978049
-0.007314991 0.1107588 0.14749168 0.028375046 0.1188374 -0.04193686 0.052968863 0.108016424
-0.045938376 -0.07582002 0.09095126 0.076724924 0.029460076 0.020321717 -0.010853187 -0.06074367
0.08176151 -0.00958861 0.03863819 -0.116455205 -0.02169975 -0.1365707 -0.07898539 -0.24959426
0.061363187 0.10907376 0.1781544 -0.033527326 0.01075358 -0.03314805 0.049799386 0.06580386
-0.006884816 -0.07080582 0.06204955 -0.0864268 -0.029917974 -0.16883783 0.115474895 0.025323264
-0.09429195 -0.059984222 0.077074476 0.037601117 -0.008167773 -0.019662373 -0.07130236 -0.114475615
0.011406317 -0.03295553 0.03206528 -0.13752785 -0.17998993 0.076262325 0.026536804 -0.0404497
0.05247754 -0.08889226 0.07525932 -0.0637789 0.04762266 0.1343584 -0.0036392377 -0.06856284
00000000: e525 b4bd 5c23 82bc 8620 b5bd 9ab4 493c
00000010: f5cb 06bd 706f 53bd d032 9d3c 1cca 0dbe
00000020: 6c1c e33d 9375 d63b 855d 8b3d 2230 5a3d
00000030: df25 f3bd 039d ccbc e247 9ebd 5c5a 283d
00000040: 90bd f73d 9194 90bd bf3c cfbc d162 56be
00000050: ea2d de3c 77e9 c53d 436e 51bd 3718 bbbd
00000060: 3e97 fc3c 66bc 27bd 8fef 1a3d 45b9 853d
00000070: 078c 333e 6cb9 723d 0ce2 8abc 0935 eb3d
00000080: 8de8 083e ab19 473c 2fef 293d 7837 973b
00000090: 766e a8bd 01f5 96bd 9fc1 08bd d7bb a9bc
000000a0: 0154 82bd 046e 22bd ca3d c3bc 0bbc a53d
000000b0: ee8f 5bbd 24ec 333c 3691 21bd a4d6 183c
000000c0: 1c3f 973d 566b 2ebd 10f1 263e d900 f73d
000000d0: 5b08 0bbd af1c 943c c6d5 293e 2279 bb3d
000000e0: acf2 adbd a6df 863d 988b f83d 69b0 19bd
000000f0: ffb5 04bd 113a 903d 8e27 9f3c 11fd 313d
00000100: d295 1bbe 8d12 9b3d 0b4b 9fbd e5c6 023e
00000110: 9b56 20bd 60e3 c6bc 4fb3 debd 2e7c c3bd
00000120: 6b70 bdbc 3ef6 06be 768f 103b 4865 b7bd
00000130: bd3b c1bd 5b83 413d 9bc0 b23c 0ae7 373c
00000140: 6850 babd dde0 c93d 7ebd 073d 33df b63d
00000150: cdd8 823e cba7 25bc b8b5 e73d 1942 d93c
00000160: ca80 29be 5e2d b73b 0caf cdbd 4a3d 0f3d
00000170: c13f 343d c3c9 61bd 52d2 15be 3b39 2cbd
00000180: 6f2b 4abd 374f 20be 4ad9 04bd ed2a 6ebd
00000190: 1235 8c3d ed44 513e cd5d ea3c b81a 5a3c
000001a0: d0f0 243d 9ea4 febb 315e 663c 12a9 1e3c
000001b0: f8bb 0dbe 6d4e 0abe 58f7 e4bc c769 2e3e
000001c0: f5cc 853d 1c64 5f3d 1f60 48be 22c7 eb3d
000001d0: 5538 d43d 12ad febc eccc 9fbd f401 3e3c
000001e0: 39c9 4d3c 1d21 81bc 84ef e0bd 56fd 1b3e
000001f0: 4a44 f43d db56 403e ccd8 38be 9f45 703d
00000200: a832 c5bd ea5a 133d f9a7 bc3d 973e 143d
00000210: a03f 883d 33d8 96bb 25d7 073e 046e 38bd
00000220: 3a89 d8bb 9987 1f3d 4cbd ddbd cb3e 963d
00000230: 7832 e2bd 553b 70bd 4ec9 7f3d 7bdd ce3d
00000240: 653c 923c 8abe 27bd 91e3 c3bd e225 08be
00000250: 0bbb cc3d fa44 423d 4378 bfbd 1e98 ed3d
00000260: 60ec d7bd 20ab ab3c 37ab abbd cb1b 243d
00000270: 77df f7b9 fa89 aab9 dbb9 4ebd edd8 1ebe
00000280: d23b 943d 84eb 77bd 8757 d5bd a9ef 56bd
00000290: a897 6e3d 6d77 efbd a977 dc3c fedd 5cbe
000002a0: 0466 83bd 7f05 33bd 37ac 15bd c272 483a
000002b0: 04d4 0c3e f831 f93a 8ad2 5a3d adb4 823d
000002c0: 8584 c03d feb1 4f3d 375a 683d 1b65 4e3a
000002d0: 6623 a13c 73c9 5cbc 1e49 833c a3a7 eb3d
000002e0: 83ab 263a 226f 023e bdb3 8b3d 9ad7 b5bd
000002f0: 393d 873d f5ae 993c b73a a4bd 5db6 023c
00000300: 98b2 efbb 82d5 e23d 0f08 173e c972 e83c
00000310: 0661 f33d fcc5 2bbd e1f5 583d b737 dd3d
00000320: e129 3cbd 8747 9bbd a744 ba3d f521 9d3d
00000330: 4256 f13c bb79 a63c 91d1 31bc 5bce 78bd
00000340: 9472 a73d 8c19 1dbc 1443 1e3d 1180 eebd
00000350: adc3 b1bc 31d9 0bbe 18c3 a1bd a395 7fbe
00000360: f757 7b3d 1062 df3d 1b6e 363e f353 09bd
00000370: c92f 303c 40c6 07bd 71fa 4b3d 2dc4 863d
00000380: 069a e1bb a402 91bd ab27 7e3d 8900 b1bd
00000390: 8a16 f5bc d3e3 2cbe 1a7e ec3d bc72 cf3c
000003a0: 231c c1bd 04b2 75bd 39d9 9d3d a103 1a3d
000003b0: 1fd2 05bc fc12 a1bc f906 92bd 3172 eabd
000003c0: 90e1 3a3c 61fc 06bd e256 033d 1ad4 0cbe
000003d0: 484f 38be 6c2f 9c3d b663 d93c 96ae 25bd
000003e0: b0f2 563d 250d b6bd 8f21 9a3d 839e 82bd
000003f0: fa0f 433d 4095 093e 4780 6ebb ad6a 8cbd

network_body._body_endoder.seq_layers.2.bias f4 [256]
0.0863627 0.01542556 -0.067988396 0.015426519 -0.0047574453 -0.007047864 0.07030048 -0.02532438
0.09955853 0.010422289 0.039060403 0.013802544 -0.012007086 0.0119798165 -0.0032006798 -0.01644776
-0.013884054 -0.0397045 0.035095777 0.09193859 -0.0035657033 0.02634566 -0.02489608 0.060969807
-0.08405005 0.010821295 -0.021902671 0.00415217 0.0065329177 -0.010762953 0.05190805 0.08749928
0.08291327 0.02937618 -0.016075376 0.039136264 -0.041428775 0.032611545 0.101620205 -0.049700942
0.011969467 0.014371035 0.08542061 0.0018369865 0.06482183 0.011491243 0.020720042 0.027109962
-0.005523665 0.027545642 0.019451952 -0.03367744 -0.021299357 -0.00010972687 -0.013477973 -0.04579108
-0.003687057 0.012614101 -0.07733909 -0.103364915 -0.07396728 -0.03341163 -0.02403042 -0.083096586
-0.005802433 -0.015527562 -0.014947167 0.009884443 0.04094337 -0.0627131 0.039695103 0.049501218
0.03029493 -0.0035827237 0.10913646 -0.01078062 0.027533012 -0.020866133 -0.07366686 -0.007966427
0.012198791 0.029310001 0.07990972 -0.027428592 0.064360924 -0.107505746 -0.05515699 -0.006813793
0.0237169 -0.034456577 -0.06023026 -0.024203964 0.037038155 -0.032517895 0.035312556 0.00038134307
0.07267032 -0.005935056 -0.041728113 -0.10373753 0.048835035 -0.008395089 0.09548133 0.01241731
0.008477736 -0.013433274 0.016455857 0.06438783 -0.03606785 0.044896714 -0.050642293 0.01877909
-0.12502302 -0.06263265 0.024887208 0.02567484 -0.020627527 -0.025983222 -0.009141219 -0.02883692
0.035342216 0.06010004 0.06029949 -0.055594563 0.021535544 0.13640283 0.08245844 -0.009171878
0.115815125 -0.0680634 0.012737689 -0.01713717 0.03014519 0.060079444 0.105562516 0.014958459
0.089441 0.02470701 0.014306447 0.007217064 -0.026583422 -0.015920598 -0.06501079 -0.050345436
0.07716618 0.086142235 -0.12520824 0.024115346 0.020175703 -0.02303731 0.06418774 0.036958843
-0.0036932605 -0.07768616 0.07846968 0.042771682 0.0992743 -0.06264468 0.06895142 -0.015438425
0.061819725 0.005854959 -0.014728879 -0.077712074 0.068478204 0.034071296 -0.05495597 -0.0056560757
0.0697645 0.040636312 0.033462215 -0.011916326 -0.09224014 0.022599392 0.02014427 0.0072928476
0.03334824 -0.019648576 -0.00041179272 -0.049215894 0.061808787 -0.05823101 -0.011690737 0.034929253
0.035940748 -0.03319581 -0.089813896 -0.010695888 -0.013381017 -0.044714693 0.022986768 0.02293836
0.03609841 0.058640365 0.05115449 -0.078066885 0.033313405 0.05277498 0.058036 0.042547718
-0.08116005 0.081631325 0.0010249902 -0.06608151 -0.09259215 -0.04016572 0.0591949 0.0074644512
0.01067651 0.07218023 -0.0203157 0.117639214 0.011804097 -0.0037309246 0.0673297 0.09140408
0.039328944 0.054904077 -0.013672597 -0.014601184 -0.053257838 0.024100235 0.014129385 -0.023313977
-0.0011508183 -0.108504966 -0.022576649 -0.064240545 0.032465048 -0.022003038 -0.01395155 0.039536383
0.11804273 0.052271347 -0.01796658 0.022863604 0.00070760015 -0.014993738 0.06274892 0.07001198
-0.0968228 -0.057777494 -0.008162274 -0.03018088 0.08278419 0.012441364 0.10947676 0.06939746
0.064316474 -0.09734696 0.078369945 -0.018949794 0.013666285 0.022832595 -0.027437607 -0.074468225
00000000: edde b03d 7dbb 7c3c 803d 8bbd 83bf 7c3c
00000010: 58e4 9bbb c5f1 e6bb b3f9 8f3d 1375 cfbc
00000020: 58e5 cb3d 40c2 2a3c cdfd 1f3d 1124 623c
00000030: 5eb9 44bc fe46 443c 7fc2 51bb 74bd 86bc
00000040: f179 63bc 30a1 22bd 97c0 0f3d 4d4a bc3d
00000050: 93ae 69bb dbd2 d73c ddf2 cbbc 7abb 793d
00000060: 6f22 acbd cd4b 313c 3b6d b3bc ed0e 883b
00000070: 1612 d63b 1957 30bc 899d 543d d332 b33d
00000080: 6fce a93d 51a6 f03c 82b0 83bc 594d 203d
00000090: 38b1 29bd af93 053d 411e d03d 3793 4bbd
000000a0: 951b 443c 7d74 6b3c 00f1 ae3d 0ac7 f03a
000000b0: 4fc1 843d c445 3c3c 14bd a93c b615 de3c
000000c0: dcff b4bb 66a7 e13c b359 9f3c 5bf1 09bd
000000d0: fd7b aebc 2a1d e6b8 b7d2 5cbc 6d8f 3bbd
000000e0: 8da2 71bb 60ab 4e3c f563 9ebd fcb0 d3bd
000000f0: 287c 97bd a2da 08bd 72db c4bc 8b2e aabd
00000100: 5622 bebb 5167 7ebc f6e4 74bc 5cf2 213c
00000110: 3cb4 273d ba6f 80bd 5597 223d cac1 4a3d
00000120: 132d f83c 21cc 6abb f082 df3d 33a1 30bc
00000130: e98c e13c 74ef aabc a7de 96bd 9e85 02bc
00000140: 70dd 473c 871b f03c b5a7 a33d edb1 e0bc
00000150: a9cf 833d f92b dcbd 4cec 61bd 3d46 dfbb
00000160: f249 c23c 5722 0dbd 01b4 76bd 6447 c6bc
00000170: 52b5 173d 7c31 05bd e6a3 103d 00ef c739
00000180: 2dd4 943d dc7a c2bb 19eb 2abd 5874 d4bd
00000190: 3f07 483d 8e8b 09bc b78b c33d f971 4b3c
000001a0: 34e6 0a3c 3c17 5cbc 6fce 863c c4dd 833d
000001b0: e2bb 13bd 9ee5 373d 4b6e 4fbd 9bd6 993c
000001c0: 0906 00be 8c45 80bd 42e0 cb3c 0b54 d23c
000001d0: 0ffb a8bc c4da d4bc 0dc5 15bc 683b ecbc
000001e0: 00c3 103d 762b 763d 99fc 763d 20b7 63bd
000001f0: 4f6b b03c 2fad 0b3e f8df a83d a545 16bc
00000200: 7b30 ed3d d364 8bbd bdb1 503c 4063 8cbc
00000210: 0cf3 f63c dd15 763d 2931 d83d 5314 753c
00000220: d82c b73d 5b66 ca3c 9665 6a3c 1f7d ec3b
00000230: 7ac5 d9bc ea6b 82bc 6124 85bd 0437 4ebd
00000240: 4d09 9e3d 576b b03d 9736 00be 8c8d c53c
00000250: 8447 a53c beb8 bcbc dd74 833d 2862 173d
00000260: a10a 72bb ec19 9fbd b6b4 a03d 5c31 2f3d
00000270: 5350 cb3d db4b 80bd 6736 8d3d 73f1 7cbc
00000280: ae36 7d3d f5da bf3b 6551 71bc 8227 9fbd
00000290: 4d3e 8c3d 588e 0b3d 8319 61bd 9a56 b9bb
000002a0: b1e0 8e3d 4372 263d ad0f 093d b23c 43bc
000002b0: 66e8 bcbd 5c22 b93c 9905 a53c d7f8 ee3b
000002c0: 2a98 083d 0df6 a0bc e2e5 d7b9 9b96 49bd
000002d0: 362b 7d3d a483 6ebd 818a 3fbc fa11 0f3d
000002e0: 9b36 133d 54f8 07bd 59f0 b7bd ce3d 2fbc
000002f0: 0e3c 5bbc c126 37bd bf4e bc3c 3ae9 bb3c
00000300: eddb 133d e130 703d 5f87 513d 88e1 9fbd
00000310: a373 083d 942a 583d 28b7 6d3d 8446 2e3d
00000320: 3e37 a6bd 532e a73d f758 863a be55 87bd
00000330: f4a0 bdbd cf84 24bd 5a76 723d 5b98 f43b
00000340: 87ec 2e3c 3ad3 933d 1c6d a6bc d4ec f03d
00000350: f965 413c 8782 74bb 27e4 893d 1032 bb3d
00000360: 6317 213d 19e3 603d 0703 60bc ce39 6fbc
00000370: e424 5abd db6d c53c f07e 673c f4fc bebc
00000380: 0ed7 96ba da37 debd aaf2 b8bc 8c90 83bd
00000390: 12fa 043d b73f b4bc 0b95 64bc e7f0 213d
000003a0: 63c0 f13d 7b1a 563d a62e 93bc 744c bb3c
000003b0: 3e7e 393a 4ca8 75bc 8182 803d 7162 8f3d
000003c0: 084b c6bd 18a8 6cbd 0fbb 05bc e53d f7bc
000003d0: c28a a93d ddd6 4b3c 5a35 e03d 4120 8e3d
000003e0: 5bb8 833d d85d c7bd 6c80 a03d 993c 9bbc
000003f0: 8ee8 5f3c 6c0b bb3c d5c4 e0bc cc82 98bd

action_model._discrete_distribution.branches.0.weight f4 [3, 256]
-0.021012174 0.0088631315 0.060457174 0.054821253 0.044817466 -0.0056837117 -0.015305373 -0.052099477
0.0013243575 0.058575265 -0.04276258 -0.015517999 -0.076746166 -0.0011775142 0.035836097 -0.02855202
-0.022712646 -0.02310063 -0.07401554 -0.06515433 -0.05103977 -0.04291151 0.005652533 -0.04433968
0.03236571 -0.040190443 -0.016818808 -0.11588377 0.013365259 0.06326987 -0.10132277 0.11849771
0.022867227 0.00077794364 0.059917476 -0.08546402 -0.05904796 0.097289145 -0.072043695 0.09234395
-0.0556289 0.003965467 0.007724636 0.0020416148 0.04965391 -0.028129602 0.07415798 -0.013405027
-0.0066187326 -0.17692402 0.016618703 -0.04874709 0.007381562 0.07410898 0.0048048506 0.027684342
0.11391731 -0.04677102 -0.009346177 0.0587537 0.005414766 0.0080631655 0.038622446 0.027400102
0.013851678 -0.018106153 -0.037304234 -0.019899037 -0.06717488 -0.0076683178 0.022624804 0.0012903898
-0.035029132 -0.07345184 -0.029172972 0.02391677 -0.00956193 -0.045002613 -0.009726591 -0.014826498
-0.20568413 -0.012657973 -0.03209318 0.03564711 0.025913734 0.004721932 0.044081945 -0.027379632
0.02912771 0.002662301 -0.0641354 0.019470667 -0.024472771 -0.06107689 0.011255025 -0.053317487
0.03375167 0.0018334854 0.037676044 0.06054026 -0.039020963 0.01141233 -0.06693163 -0.04794036
0.028292527 -0.001442467 0.1378537 -0.07083554 -0.0172873 -0.035965726 -0.012154093 -0.010829154
0.051241763 -0.0105051175 0.007120066 0.026359953 0.055246115 0.023081567 0.0043373606 -0.009107181
0.054196045 -0.041694667 -0.18643235 0.053227283 0.029112402 -0.048960757 -0.05605573 -0.110831715
-0.03255467 0.034800183 0.009010819 0.0070224633 0.003880246 -0.0051296717 -0.04845977 0.047779318
-0.04068035 -0.039788797 0.0885462 -0.0038806414 -0.006801663 -0.080951855 0.10819189 -0.04919686
-0.03467571 -0.06232269 0.08629692 -0.05613791 0.026039314 -0.021595186 -0.051457778 -0.062339414
-0.012739945 0.068419136 0.02047831 -0.03410322 0.019035451 0.026987456 0.010818807 0.008033378
-0.052288357 0.055662353 0.038113333 -0.020816065 -0.0074447165 0.07950094 0.018914102 -0.031365357
0.09312354 0.13901286 0.059656072 -0.0120281745 0.07058799 -0.12115977 -0.17292005 -0.086936615
-0.019887434 -0.005935757 0.03134195 -0.006143264 -0.15002063 -0.0058678235 0.00054698443 -0.112113
-0.040037103 -0.08803918 0.020230962 -0.0394445 -0.051063187 0.008740653 0.05021729 0.03664873
0.0035343326 -0.036108106 -0.021534218 0.0603117 0.0012681634 -0.014259693 -0.045258634 0.042492736
0.02842329 -0.03641655 -0.0024223167 0.04513549 0.053476155 -0.0008654386 0.04047107 -0.030978993
-0.05287901 0.086285055 0.03553645 -0.055448897 -0.123988025 0.026458243 -0.02866687 0.06049545
-0.060388926 0.03631771 -0.014948581 0.05797165 -0.049575616 0.008669575 0.026207844 0.017974073
0.015992787 0.15162566 0.008086502 0.15326585 -0.06362773 0.07175682 -0.050803695 0.017342132
0.00870916 0.019893534 -0.08073405 -0.18973838 -0.0028689373 0.0281163 -0.09845379 -0.020789085
0.08347691 0.002686282 -0.014250298 0.07733341 0.04391674 -0.0146081 0.0596532 0.013250535
0.023939935 0.06017677 0.07717318 -0.0698099 -0.019670751 -0.20103557 0.14622858 0.13122296
00000000: b921 acbc ab36 113c f1a1 773d 408c 603d
00000010: 8592 373d 6e3e babb 63c3 7abc 4366 55bd
00000020: 1096 ad3a 9eec 6f3d d127 2fbd 353f 7ebc
00000030: 182d 9dbd d256 9aba dfc8 123d ede5 e9bc
00000040: df0f babc 883d bdbc 7695 97bd a26f 85bd
00000050: 140f 51bd fbc3 2fbd e238 b93b 869d 35bd
00000060: e891 043d bc9e 24bd 99c7 89bc 7854 edbd
00000070: f6f9 5a3c a293 813d 5082 cfbd edae f23d
00000080: 0d54 bb3c eaee 4b3a 076c 753d c307 afbd
00000090: 46dc 71bd 883f c73d a58b 93bd d31e bd3d
000000a0: 21db 63bd c0f0 813b f11e fd3b 9dcc 053b
000000b0: e661 4b3d 0d70 e6bc 24e0 973d c2a0 5bbc
000000c0: f4e1 d8bb 922b 35be f223 883c 07ab 47bd
000000d0: 08e1 f13b 73c6 973d 0272 9d3b 46ca e23c
000000e0: 7b4d e93d f892 3fbd b520 19bc b8a7 703d
000000f0: 596e b13b 5e1b 043c 9232 1e3d 2e76 e03c
00000100: 26f2 623c 5b53 94bc 53cc 18bd 4e03 a3bc
00000110: fc92 89bd 8346 fbbb a757 b93c 4c22 a93a
00000120: b57a 0fbd eb6d 96bd 28fc eebc 1aed c33c
00000130: a4a9 1cbc a954 38bd 485c 1fbc d7ea 72bc
00000140: dc9e 52be 6363 4fbc 2374 03bd b402 123d
00000150: 0a49 d43c 70ba 9a3b 458f 343d 404b e0bc
00000160: 3c9d ee3c 007a 2e3b 6c59 83bd f380 9f3c
00000170: 1f7b c8bc c32b 7abd ff66 383c 7063 5abd
00000180: 313f 0a3d 9051 f03a 3252 1a3d 10f9 773d
00000190: 72d4 1fbd c8fa 3a3c 7313 89bd 1c5d 44bd
000001a0: bbc5 e73c 2911 bdba 8529 0d3e 3912 91bd
000001b0: 199e 8dbc cc50 13bd f621 47bc c46c 31bc
000001c0: e2e2 513d a81d 2cbc 714f e93b d4f0 d73c
000001d0: c049 623d 8e15 bd3c 6b20 8e3b 4936 15bc
000001e0: acfc 5d3d 07c8 2abd 1fe8 3ebe da04 5a3d
000001f0: 227d ee3c 138b 48bd b19a 65bd bdfb e2bd
00000200: 0c58 05bd a38a 0e3d 1da2 133c b11c e63b
00000210: ba4b 7e3b ce16 a8bb c07d 46bd 3fb4 433d
00000220: 70a0 26bd 94f9 22bd b657 b53d 5c52 7ebb
00000230: 7ce0 debb 16ca a5bd b693 dd3d a682 49bd
00000240: 1e08 0ebd 1446 7fbd 71bc b03d ddf0 65bd
00000250: 6650 d53c 63e8 b0bc 64c5 52bd 9d57 7fbd
00000260: 34bb 50bc 551f 8c3d 21c2 a73c d1af 0bbd
00000270: 3cf0 9b3c cc14 dd3c 5e41 313c 6e9e 033c
00000280: 512c 56bd 35fe 633d ba1c 1c3d 7486 aabc
00000290: cff2 f3bb 64d1 a23d bff1 9a3c f678 00bd
000002a0: 8eb7 be3d 6359 0e3e ed59 743d d211 45bc
000002b0: 7090 903d 9d22 f8bd f411 31be d30b b2bd
000002c0: f9ea a2bc bd80 c2bb 6b60 003d 6f4d c9bb
000002d0: 029f 19be df46 c0bb 8163 0f3a 809b e5bd
000002e0: f2fd 23bd e34d b4bd 67bb a53c 8e90 21bd
000002f0: a227 51bd f534 0f3c a5b0 4d3d fb1c 163d
00000300: 43a0 673b 18e6 13bd 8768 b0bc 6709 773d
00000310: 8138 a63a 7da1 69bc 1e61 39bd dd0c 2e3d
00000320: f6d7 e83c 8529 15bd bbbf 1ebb fedf 383d
00000330: d009 5b3d 9ade 62ba fec4 253d a8c7 fdbc
00000340: a997 58bd 38b6 b03d ab8e 113d 621e 63bd
00000350: 6fed fdbd f5be d83c c9d6 eabc 14ca 773d
00000360: 615a 77bd e1c1 143d e5ea 74bc ae73 6d3d
00000370: cd0f 4bbd d50a 0e3c d5b1 d63c 5d3e 933c
00000380: 4e03 833c c243 1b3e 3f7d 043c b9f1 1c3e
00000390: 414f 82bd 3df5 923d 8917 50bd 1611 8e3c
000003a0: ddb0 0e3c c4f7 a23c e557 a5bd c74a 42be
000003b0: c804 3cbb 2854 e63c 24a2 c9bd df4d aabc
000003c0: f1f5 aa3d 550c 303b 157a 69bc fb60 9e3d
000003d0: 0ae2 333d d056 6fbc ea56 743d c618 593c
000003e0: af1d c43c eb7b 763d f90c 9e3d 7ef8 8ebd
000003f0: 8e24 a1bc 45dc 4dbe f2bc 153e 505f 063e

action_model._discrete_distribution.branches.0.bias f4 [3]
-0.022528503 0.04424313 -0.021690931
00000000: b28d b8bc 4938 353d 2eb1 b1bc

action_model._discrete_distribution.branches.1.weight f4 [3, 256]
0.011796011 -0.014121466 0.0017288579 0.0014597565 0.0022831166 -0.018674206 -0.005078374 0.021076467
0.013306797 -0.0017782506 0.0035975564 -0.020445172 -0.0051360875 -0.0002864983 0.010465992 -0.0035251703
0.0048627164 0.04731033 0.003714359 0.014132773 0.035237495 0.010659376 -0.020516325 0.014476286
-0.013330739 0.030687958 0.012420312 0.031595744 0.011580663 -0.016028533 0.015223593 0.009536788
0.019305646 -0.014341282 -0.016453372 0.014456039 -0.00069493067 0.011921645 -0.015901564 0.0040991507
-0.024975073 -0.008345936 0.00654716 -0.022168327 -0.0071112057 -0.0032171889 -0.011113632 -0.015846625
-0.009730104 0.00035246616 -0.015783174 0.00071928994 0.023561299 0.0129645625 -0.0120937275 0.018607212
-0.026805487 -0.0040827417 -0.013873543 0.026080985 0.014136579 0.020426426 -0.04268287 0.01204712
-0.0682899 -0.047869653 -0.022497123 0.030732052 0.018591698 -0.03798922 0.0053901095 -0.015078038
-0.00050568156 -0.0038665582 0.012660414 -0.020285394 0.058305204 -0.030100625 -0.003633917 0.028669413
0.026017446 -0.01379155 0.014097756 -0.05843535 0.032891426 -0.023661401 -0.00793415 -0.03206432
0.01060805 0.045729995 -0.026811473 0.012338102 -0.008048138 -0.004800773 0.04143997 -0.004362254
-0.005418638 0.0167824 0.026689596 0.0025917515 0.008577968 -0.019493487 0.015300639 -0.015225022
0.022532498 -0.034952134 -0.0029147128 -0.017532984 0.012101103 0.0051169903 0.013704701 -0.017339977
-0.00513795 -0.011041541 0.023750354 -0.013535502 0.0049300618 0.029177882 0.015672943 -0.045589443
-0.016342318 0.03319337 0.057213284 0.008676003 -0.008545566 0.032767598 -0.0023869693 0.0025197729
0.003538275 -0.028878827 0.010362696 0.015915528 -0.01369575 -2.665485e-05 0.0051122145 0.0129343085
0.029954674 -0.0113817 -0.0040709497 0.03295541 -0.009822415 -0.027031347 0.019233607 0.0048851892
0.014021288 0.037448358 -0.021583209 -0.0042039887 0.0075077442 0.024293674 -0.0003370328 -0.021706881
-0.018769825 -0.0071250945 -0.015279613 0.02468958 0.026563914 0.016850686 0.0073108696 0.01802587
0.0030780172 -0.018502701 -0.010927522 0.011454535 0.07384015 0.00060167344 -0.0024294152 -0.00072377024
-0.0086444225 0.0068078684 0.0058913184 0.019870127 -0.0101766605 -0.012012747 0.0071168086 -0.010459111
-0.0077328966 -0.010858866 -0.048749845 -0.0044889874 0.004354789 0.010338778 -0.03757792 0.012533727
0.0031417261 -0.005736081 -0.005182523 0.0035640474 0.00773696 0.005260415 -0.008596587 -0.008853109
0.007045526 -0.0046638544 0.008341985 -0.01675542 0.0056975037 0.0066831694 0.014186208 0.038605157
-0.014488855 0.006313752 0.01256195 0.01184645 0.0038838582 -0.0062688375 0.0033779705 -0.019652126
0.024872765 0.0004970045 -0.011162114 0.016217787 0.004261982 -0.0035499167 0.020195886 0.012431525
-0.022695305 -0.018555194 0.017900115 -0.0031945326 0.003932293 0.02193721 -0.015219146 0.012121665
0.010823946 -0.007855195 -0.018510964 -0.018592238 -0.0022114865 -0.014377143 0.015999451 -0.000579101
0.015599606 -0.0014905297 0.016042283 0.009711085 -0.02334195 0.004000398 -0.008716746 0.036212426
0.008094081 0.019083502 -0.009069599 -0.0058469484 0.01848449 -0.008383881 0.017764335 -0.0016709442
0.002430231 -0.014870321 0.036829572 0.019133888 0.030813636 0.00018812384 -0.0067760623 -0.009590025
00000000: 0e44 413c b95d 67bc d89a e23a 4d55 bf3a
00000010: 57a0 153b a6fa 98bc 7d68 a6bb 8ea8 ac3c
00000020: c004 5a3c 3014 e9ba fbc4 6b3b a27c a7bc
00000030: a04c a8bb 2735 96b9 8d79 2b3c 8b06 67bb
00000040: 6c57 9f3b 7ac8 413d 9a6c 733b 258d 673c
00000050: 3155 103d aaa4 2e3c da11 a8bc f22d 6d3c
00000060: 2c69 5abc 5065 fb3c 907e 4b3c 8a6a 013d
00000070: d2bc 3d3c 454e 83bc 616c 793c 3040 1c3c
00000080: e026 9e3c b2f7 6abc 39c9 86bc 06d9 6c3c
00000090: 022c 36ba 0153 433c ff43 82bc 2b52 863b
000000a0: 8698 ccbc 65bd 08bc 8f89 d63b 5a9a b5bc
000000b0: 1e05 e9bb 79d7 52bb f315 36bc c8d0 81bc
000000c0: 046b 1fbc 35cb b839 b74b 81bc bb8e 3c3a
000000d0: a003 c13c 5169 543c c524 46bc 276e 983c
000000e0: 2e97 dbbc 85c8 85bb db4d 63bc caa7 d53c
000000f0: 1c9d 673c 5255 a73c 3cd4 2ebd 4961 453c
00000100: 93db 8bbd f812 44bd e34b b8bc c9c1 fb3c
00000110: 9e4d 983c 969a 1bbd 849f b03b e009 77bc
00000120: b78f 04ba 1566 7dbb a06d 4f3c 8e2d a6bc
00000130: 70d1 6e3d 9695 f6bc 0327 6ebb 1edc ea3c
00000140: 8a22 d53c f4f5 61bc 46fa 663c e859 6fbd
00000150: 29b9 063d 8ed5 c1bc 3dfe 01bc e055 03bd
00000160: 63cd 2d3c 604f 3b3d bca3 dbbc c025 4a3c
00000170: 56dc 03bc ce4f 9dbb f5bc 293d 3df1 8ebb
00000180: d48e b1bb 3e7b 893c 24a4 da3c 60da 293b
00000190: 9b8a 0c3c ceb0 9fbc 88af 7a3c 5f72 79bc
000001a0: 1396 b83c f829 0fbd c404 3fbb 55a1 8fbc
000001b0: b443 463c 6dac a73b af89 603c 910c 8ebc
000001c0: 405c a8bb 94e7 34bc 1a90 c23c 03c4 5dbc
000001d0: 5b8c a13b 7406 ef3c 8b64 803c ffbb 3abd
000001e0: 53e0 85bc c5f5 073d 7a58 6a3d cb25 0e3c
000001f0: b402 0cbc 5137 063d b36e 1cbb c622 253b
00000200: 67e2 673b 4a93 ecbc 4cc8 293c 4861 823c
00000210: 2464 60bc db98 dfb7 5d84 a73b 6cea 533c
00000220: 8163 f53c 4f7a 3abc 9a65 85bb 41fc 063d
00000230: 32ee 20bc d870 ddbc cc8f 9d3c f013 a03b
00000240: 8bb9 653c 7363 193d 45cf b0bc 9dc1 89bb
00000250: 8603 f63b 8703 c73c c7b3 b0b9 a1d2 b1bc
00000260: 2dc3 99bc a079 e9bb 5857 7abc cd41 ca3c
00000270: 919c d93c 730a 8a3c 0590 ef3b fdaa 933c
00000280: 8fb8 493b fa92 97bc 5909 33bc cdab 3b3c
00000290: 8139 973d 9fb9 1d3a d336 1fbb 66bb 3dba
000002a0: 56a1 0dbc 8a14 df3b f60b c13b adc6 a23c
000002b0: 02bc 26bc 1dd1 44bc 1e34 e93b b15c 2bbc
000002c0: 3d64 fdbb 63e9 31bc ebad 47bd 5b18 93bb
000002d0: 9eb2 8e3b fa63 293c 4eeb 19bd 435a 4d3c
000002e0: 6be5 4d3b bcf5 bbbb 27d2 a9bb cb92 693b
000002f0: 5386 fd3b 8f5f ac3b b3d8 0cbc a10c 11bc
00000300: 28de e63b 3fd3 98bb d2ac 083c aa42 89bc
00000310: 20b2 ba3b 7dfe da3b 456d 683c 7120 1e3d
00000320: aa62 6dbc 97e3 ce3b a3d0 4d3c 9d17 423c
00000330: 5488 7e3b d26a cdbb f160 5d3b 7ffd a0bc
00000340: f8c1 cb3c 6849 023a 4de1 36bc 2adb 843c
00000350: 19a8 8b3b b8a5 68bb d871 a53c 98ad 4b3c
00000360: 81eb b9bc 1001 98bc 43a3 923c 5d5b 51bb
00000370: 77da 803b aab5 b33c ba59 79bc f399 463c
00000380: ec56 313c 13b3 00bc 4ea4 97bc c04e 98bc
00000390: 96ee 10bb 1c8e 6bbc 4811 833c cfce 17ba
000003a0: 7d95 7f3c e15d c3ba 1b6b 833c 3e1b 1f3c
000003b0: 9e37 bfbc c515 833b afd0 0ebc 7b53 143d
000003c0: 099d 043c 0155 9c3c a898 14bc c297 bfbb
000003d0: c96c 973c 8c5c 09bc 8386 913c 9503 dbba
000003e0: 8344 1f3b a6a2 73bc 9bda 163d acbe 9c3c
000003f0: e16c fc3c 1c43 4539 bb09 debb 7b1f 1dbc

action_model._discrete_distribution.branches.1.bias f4 [3]
0.015606443 0.011930256 -0.02332203
00000000: 2bb2 7f3c 1f77 433c d80d bfbc

action_model._discrete_distribution.branches.2.weight f4 [3, 256]
0.05054079 -3.3459808e-05 -0.022289721 0.006915028 0.018406585 0.037531063 0.048721578 -0.025093742
0.036134377 -0.020965248 -0.006521483 0.024049588 0.03047843 -0.029981844 -0.033653583 -0.017315906
-0.039201006 -0.05656411 -0.0034830724 0.12166744 0.033523846 -0.028029993 -0.013875164 0.027546892
-0.02382455 0.05284901 -0.024400283 0.04473864 -0.011600214 -0.010043592 0.056862716 -0.004518439
0.05223082 0.0022637374 0.0046181506 0.09150671 -0.012136989 -0.009997745 0.0076015163 -0.03194166
-0.012913271 0.05412344 0.030405529 0.02189069 0.020762209 0.03440267 -0.018089924 0.007925725
0.044348918 0.13468401 0.05651739 0.08947329 0.011228111 -0.038042612 -0.035621237 -0.0179043
-0.022734396 0.022043325 -0.028732495 -0.04616981 0.013763094 -0.014879763 -0.035282478 -0.00768314
-0.017178202 0.0034455087 0.014308361 0.00230104 0.08579002 0.043980043 -0.021535465 0.022314612
0.020588126 0.01694411 0.033141237 0.032881975 0.03066374 0.04753741 0.012450587 -0.05774289
0.121205874 0.00505909 0.02593251 -0.032255184 0.034683008 -0.060527083 -0.03722911 0.0361466
0.028682113 -0.0002545023 0.026817515 0.0016980863 0.029281598 -0.03838721 -0.06718449 -0.0060830307
-0.008263719 -0.034276407 0.016899189 -0.03670521 0.0035472808 0.0624039 0.09345425 0.04868345
-0.017626002 -0.0035949766 -0.040445425 0.020047572 -0.04937585 0.05483048 0.008548414 0.027685395
-0.032197755 0.039318904 -0.0029526828 0.00040235923 0.048403434 -0.052603204 -0.002667527 -0.0488856
-0.02185845 0.04472752 0.14996679 -0.08217644 0.031750575 0.07661279 0.08550021 0.12341049
0.032554608 -0.011370946 0.030344496 -0.021934297 0.06787308 0.030942546 0.042897016 0.030851072
0.010880183 0.060879044 -0.0088499775 0.014917767 0.014542458 0.01857429 -0.022360485 0.10929511
0.028254561 0.08546612 -0.059960723 -0.009696724 0.06576776 -0.015856864 0.078460716 0.019368012
0.023611426 -0.039223697 0.051199064 -0.01602171 0.010353217 -0.052362133 0.03820993 0.0073116478
-0.0015816694 -0.08061937 -0.017425576 -0.048325084 -0.025433488 0.017092392 -0.008610746 0.033887014
-0.0067734504 -0.035465904 -0.004511266 0.012587834 -0.007237521 0.051042452 0.11053322 0.044187557
0.0011783894 -0.0054130787 0.04600031 -0.020206884 0.092436954 -0.055522863 0.00013165991 0.113124944
0.026252147 -0.016561048 -0.016640462 -0.041098736 0.07425964 -0.025145855 0.029622773 -0.0022200774
0.017492669 0.0056914864 0.030397842 -0.08682409 0.02575397 0.042825755 0.047606725 0.00078354427
-0.02339719 0.0329971 0.03097848 -0.0027838852 -0.040760316 0.048488244 0.024367651 0.0320887
-0.0049262736 0.013849233 0.032369938 0.09032243 0.06297535 0.0034577001 -0.011642511 0.014423851
0.0491981 0.025189783 0.00326215 0.0134597225 0.109401144 0.035653565 0.038701847 -0.0075731114
-0.044059593 -0.09850264 0.023559444 -0.0794297 0.09384174 -0.10221321 -0.0024696349 0.020338356
0.013183439 0.00946733 0.08697186 0.10541999 0.030833887 -0.021642707 0.053093333 0.018204628
-0.045496736 -0.06048781 0.041291043 -0.05322903 0.026198292 -0.0052700425 0.03314183 0.020959122
0.027901532 -0.033460844 -0.0002601351 0.037399944 -0.049472485 0.06985996 -0.072768785 -0.07614695
00000000: dc03 4f3d 3257 0cb8 ef98 b6bc 7697 e23b
00000010: 68c9 963c 2cba 193d 4790 473d 6491 cdbc
00000020: a401 143d 50bf abbc 2ab2 d5bb a403 c53c
00000030: e7ad f93c 7c9c f5bc 57d8 09bd 16da 8dbc
00000040: 3c91 20bd c5af 67bd 4244 64bb c72c f93d
00000050: 4d50 093d 289f e5bc a854 63bc 05aa e13c
00000060: b42b c3bc 3478 583d 1ae3 c7bc dd3f 373d
00000070: d30e 3ebc e18d 24bc e1e8 683d 6a0f 94bb
00000080: fcef 553d 365b 143b db53 973b df67 bb3d
00000090: 39da 46bc 95cd 23bc 2416 f93b 42d5 02bd
000000a0: 2f92 53bc 8ab0 5d3d 0415 f93c 1b54 b33c
000000b0: 8215 aa3c d0e9 0c3d 5231 94bc e6da 013c
000000c0: 36a7 353d 9bea 093e c77e 673d c63d b73d
000000d0: 1cf6 373c 92d2 1bbd 93e7 11bd 0aac 92bc
000000e0: 7c3d babc 3494 b43c 6960 ebbc 8e1c 3dbd
000000f0: 9a7e 613c 40ca 73bc 5c84 10bd dac2 fbbb
00000100: 4db9 8cbc 0bce 613b 9e6d 6a3c 0ccd 163b
00000110: aeb2 af3d 6b24 343d 256b b0bc 22cd b63c
00000120: 6ea8 a83c 60ce 8a3c 1bbf 073d 40af 063d
00000130: 8632 fb3c 96b6 423d 8cfd 4b3c cf83 6cbd
00000140: c93a f83d b9c6 a53b 6a70 d43c 031e 04bd
00000150: c50f 0e3d 3feb 77bd 8d7d 18bd 750e 143d
00000160: c0f6 ea3c b86e 85b9 68b0 db3c 5292 de3a
00000170: f6df ef3c e83b 1dbd 0698 89bd 2954 c7bb
00000180: 8d64 07bc 6b65 0cbd 2b70 8a3c 3458 16bd
00000190: 7f79 683b 3b9b 7f3d f164 bf3d 4c68 473d
000001a0: 6864 90bc b399 6bbb 1aaa 25bd ce3a a43c
000001b0: 553e 4abd ed95 603d a60e 0c3c 7bcc e23c
000001c0: cbe1 03bd dc0c 213d cc81 41bb bef3 d239
000001d0: ae42 463d 7576 57bd add1 2ebb 443c 48bd
000001e0: 7e10 b3bc 3434 373d e590 193e 1f4c a8bd
000001f0: e40c 023d 2be7 9c3d bc1a af3d a4be fc3d
00000200: fb57 053d 344d 3abc 0595 f83c 8eaf b3bc
00000210: 0b01 8b3d 397b fd3c c8b4 2f3d 63bb fc3c
00000220: cc42 323c 4e5c 793d 7fff 10bc a669 743c
00000230: 7d43 6e3c 1c29 983c 562d b7bc 1dd6 df3d
00000240: 1c76 e73c dc08 af3d 6099 75bd 02df 1ebc
00000250: 3fb1 863d 41e6 81bc 03b0 a03d aaa9 9e3c
00000260: c06c c13c 07a9 20bd 1cb6 513d f63f 83bc
00000270: 8aa0 293c ad79 56bd 0482 1c3d 8c96 ef3b
00000280: 0550 cfba c51b a5bd 15c0 8ebc 86f0 45bd
00000290: e459 d0bc 5805 8c3c 1614 0dbc 1ccd 0a3d
000002a0: d2f3 ddbb b244 11bd 3ed3 93bb 343d 4e3c
000002b0: ba28 edbb e411 513d 3e5f e23d 03fe 343d
000002c0: 3074 9a3a 3260 b1bb d26a 3c3d e888 a5bc
000002d0: 964f bd3d f16b 63bd 300e 0a39 0dae e73d
000002e0: be0e d73c 09ab 87bc 9451 88bc 2657 28bd
000002f0: 7015 983d aefe cdbc 75ab f23c b87e 11bb
00000300: c94c 8f3c a67f ba3b e504 f93c d4d0 b1bd
00000310: fdf9 d23c 0f6a 2f3d 45ff 423d c466 4d3a
00000320: 77ab bfbc f827 073d 95c6 fd3c d871 36bb
00000330: 4af4 26bd 9c9b 463d ab9e c73c 716f 033d
00000340: 946c a1bb e5e7 623c 5796 043d f7fa b83d
00000350: 38f9 803d 959a 623b 3bc0 3ebc 0452 6c3c
00000360: f283 493d ce5a ce3c ccc9 553b 2b86 5c3c
00000370: b50d e03d 7909 123d d485 1e3d dd27 f8bb
00000380: d577 34bd c1bb c9bd bcff c03c 0aac a2bd
00000390: 1930 c03d 2955 d1bd 99d9 21bb a09c a63c
000003a0: 5aff 573c dc1c 1b3c 4d1e b23d 70e6 d73d
000003b0: 5997 fc3c 0c4c b1bc 6578 593d df21 953c
000003c0: c95a 3abd 11c2 77bd cc20 293d af06 5abd
000003d0: cd9d d63c 52b0 acbb babf 073d 77b2 ab3c
000003e0: c191 e43c 3d0e 09bd be62 88b9 af30 193d
000003f0: a9a3 4abd bd12 8f3d cd07 95bd eff2 9bbd

action_model._discrete_distribution.branches.2.bias f4 [3]
0.045962736 -0.07001001 0.018917715
00000000: 6c43 3c3d 6861 8fbd 53f9 9a3c
