ML-Agents/results/obs-from-ultimate-volleyball/Volleyball/Volleyball-29999980.onnx (onnx, 291918 bytes, 15 tensors)

discrete_action_output_shape f4 [1, 4]
000000 00 00 40 40 00 00 40 40 00 00 40 40 00 00 00 40
       3.0 3.0 3.0 2.0

network_body.observation_encoder.processors.0.normalizer.running_mean f4 [11]
000000 dd 72 1e 3e 78 6d c9 3d 4a b0 0f 3f f3 a1 29 3f
       0.15473504 0.09835333 0.5612837 0.6626274
000010 9c f2 25 41 36 c5 8c bc 46 45 67 bc d4 86 fb 3b
       10.371731 -0.017183881 -0.014115637 0.007675985
000020 a7 f4 ed bf 5d 9e 3d 35 43 d0 ad 35
       -1.8590287 7.0638436e-07 1.2950117e-06

network_body._body_endoder.seq_layers.0.weight f4 [256, 11]
000000 5f b9 9e be 97 9c b0 3d 2a bc 1d 3e 32 d6 16 bf
       -0.31000802 0.08623617 0.1540381 -0.58920586
000010 29 5d 96 3e 72 01 d9 bb 19 92 9e be 7d 82 09 be
       0.2936795 -0.0066224867 -0.3097084 -0.13428684
000020 50 56 1f be c1 89 40 be 87 8b f9 3e 82 07 83 be
       -0.1556027 -0.18802549 0.48739263 -0.25591666
000030 ad 29 f1 3d bf f1 0b 3f 8d fb 73 bf 0f 2a e2 3e
       0.11775527 0.5466575 -0.9530571 0.44172713
000040 05 91 a2 3b 2b 3b 12 be 99 e5 9f bd ec a4 dd 3c
       0.0049611353 -0.14280383 -0.07807464 0.02705618
000050 af 42 70 be 6a f8 ed bd 85 01 16 be fc 76 04 bf
       -0.23462938 -0.11619647 -0.14649017 -0.51744056
000060 93 98 84 3e 5a ae 90 3d 18 f7 20 bf cf 4d be bd
       0.25897655 0.07064505 -0.62877035 -0.092921846
000070 fd 95 15 be f6 c5 bc 3e 4e a1 e5 be bc 93 e2 bc
       -0.14607997 0.36869782 -0.44849628 -0.027658336
000080 b1 b8 bf be 19 06 ab 3e 13 d9 03 bf 2c 24 a3 bd
       -0.37445596 0.3340309 -0.51503104 -0.079658836
000090 fa 54 fc 3d 64 c4 3a 3d 45 b8 4a 3d b0 3d 9a 3e
       0.123208955 0.04559745 0.04949214 0.3012519
0000a0 b5 ef 58 3e ca 63 71 3f d3 38 1e be be 95 65 be
       0.21185191 0.9429289 -0.15451364 -0.22420403
0000b0 a5 51 3f be 68 c1 27 be 39 65 87 3d 73 1b 10 3e
       -0.18683489 -0.16382372 0.066111036 0.14072971
0000c0 b7 e1 cb 3d 7b b4 8c bd 92 26 09 3e 41 8d 0d 3f
       0.09955161 -0.068703614 0.1339362 0.5529366
0000d0 47 e2 1d bf b7 03 97 3f 3d 0f 39 3f bb e1 06 3f
       -0.61673397 1.1798009 0.72288877 0.5268819
0000e0 98 87 05 bf b4 28 b7 bd ab 90 ae bd b5 a5 27 bf
       -0.52160025 -0.089433104 -0.08523687 -0.65487224
0000f0 5b ea 48 bd 88 08 36 be 72 09 23 be 40 41 45 3e
       -0.049051624 -0.17776692 -0.15921572 0.19263172
000100 e9 d8 91 bd b5 d6 82 3d f3 2f 5c 3e af c2 f9 be
       -0.071214505 0.06388608 0.21502666 -0.48781344
000110 a3 04 d5 be c9 07 98 be f1 ef 89 3c a1 86 01 3e
       -0.416051 -0.2969344 0.016838046 0.12649013
000120 80 36 e8 be 85 8d 88 3e 4d 5b 82 3c 7d 4d 4f bf
       -0.4535408 0.2667047 0.015912676 -0.8097761
000130 59 5a ca be 08 49 0a bf fe ec b1 3e 4f 6e 13 be
       -0.39522055 -0.54017687 0.34751123 -0.14397548
000140 e0 86 14 bf 46 8a 98 be 73 f9 f3 be 7d 2c b0 be
       -0.580183 -0.29792994 -0.47651252 -0.34408942
000150 fc 06 da 3d 3a d0 56 bf 42 24 0f 3f 03 56 88 3e
       0.106458634 -0.8391148 0.559147 0.26628122
000160 0b 6c ae be 52 d9 32 3f 51 af 89 3e 2c ad af 3c
       -0.34066805 0.69862854 0.26891568 0.02144488
000170 16 cf 41 bf 04 fe d1 3c 39 2e 77 3d 2a bb 6b 3c
       -0.75706613 0.02563382 0.060346816 0.014387885
000180 ed 51 1d 3e 37 e1 b3 3e 85 d5 2b 3e 78 a1 96 3d
       0.15363283 0.35132763 0.1678067 0.073550165
000190 6c 95 fb be a3 e6 ad 3e 66 ff 43 3e 72 81 a0 3e
       -0.49137437 0.33965024 0.19140396 0.3134876
0001a0 de 4d b9 3e a2 3d a2 be 50 84 c4 be 1c fc b2 be
       0.3619222 -0.31687647 -0.38382196 -0.3495797
0001b0 80 40 55 3e fb 99 b4 be 7e dd 02 be 77 03 fb 3e
       0.20825386 -0.35273728 -0.12779805 0.4902608
0001c0 2c 00 bd be da 4b c2 be c4 59 95 3e 03 d7 b6 3e
       -0.36914194 -0.37948495 0.29170048 0.35710916
0001d0 fe 96 e8 3c c9 30 d4 be c6 3a cc 3e 3c 99 50 bf
       0.028392311 -0.4144347 0.3988859 -0.8148382
0001e0 a3 c2 8b bc 79 af 3e 3e 23 0c e0 be a6 ea c1 be
       -0.017060583 0.18621625 -0.4375926 -0.37874335
0001f0 83 c0 53 bf 40 5a 24 bf cb d1 49 bd 6f 94 b6 be
       -0.82715625 -0.6420021 -0.04927234 -0.3566012
000200 ba 8a cf bd 23 05 17 3e 31 d0 5d bf 86 0c d1 3b
       -0.10133882 0.14748053 -0.866458 0.0063796667
000210 f2 31 94 3e 0b 08 0b bf 1a f3 c4 bd 2b ab dd 3e
       0.28944355 -0.5430915 -0.096166804 0.43294653
000220 49 5a 49 3e 8b 52 d8 3e 53 5a cb 3c 04 82 2e 3f
       0.19663347 0.42250475 0.024823343 0.6816714
000230 f3 f1 48 be 15 2d 0f 3f 9e a6 ee be 64 70 ab 3d
       -0.19623546 0.55928165 -0.46611494 0.08371046
000240 37 83 05 3e f4 c5 f1 be e5 83 bc 3e 16 44 4b 3e
       0.13038336 -0.4722134 0.36819378 0.19850191
000250 80 de 63 be a6 51 04 3f cf e7 16 3e be ad bf bc
       -0.22252846 0.51687086 0.14736865 -0.023398276
000260 fb 01 97 3f 49 46 14 3d 05 8f fb 3e ad 2b 7e 3e
       1.1797479 0.03619984 0.49132553 0.24821348
000270 1b 9b f6 3e f8 34 44 3f b3 9e 12 be 59 4b 60 be
       0.4816521 0.76643324 -0.14318351 -0.21903743
000280 32 a1 be 3e fb dc 3e 3e 33 99 6f 3d 22 57 89 be
       0.37232357 0.18638985 0.05849571 -0.2682429
000290 3b 9f 3f bf a1 db 13 bf 49 5c 14 be b4 df 10 bf
       -0.7485234 -0.57757 -0.14488329 -0.56591344
0002a0 d1 1e 8c 3f ba 72 1e 3f d2 fa 07 be 0e 33 04 bf
       1.0946904 0.6189381 -0.13279274 -0.51640403
0002b0 27 17 ec 3e 63 97 4e be 9f 30 16 be 79 ba 1c 3e
       0.46111414 -0.20174937 -0.14666985 0.15305509
0002c0 31 2c e9 be 1f 5c 4d be 59 fd 36 3f 4b 95 73 3e
       -0.45541528 -0.20054673 0.7148033 0.2378742
0002d0 ef 3c b4 3e 1c 83 f9 be 63 29 49 3e 18 39 9a be
       0.3520274 -0.4873284 0.19644694 -0.30121684
0002e0 cf c0 3b 3e 89 1e 27 bf fb 61 b8 3e 5e 75 b5 3e
       0.1833527 -0.6528097 0.36012253 0.35441107
0002f0 52 56 19 3c 50 fa 5d bf 80 0c c3 bd 29 26 9d bd
       0.009358959 -0.8671007 -0.095238686 -0.07673294
000300 5a f0 01 bf 4a 10 38 bf 98 2e c4 3e c3 80 a2 be
       -0.5075737 -0.71899855 0.38316798 -0.31738862
000310 71 5d cb 3d a9 ee 81 3e b2 d3 59 bf b7 c1 8a 3e
       0.09929932 0.25377396 -0.85088646 0.27100918
000320 4a b8 e7 3e 8b 6d f3 3e c1 c5 77 3e 13 9e 7c be
       0.4525779 0.47544512 0.24196531 -0.24669676
000330 71 34 64 3e 6b 8a 0d 3f 88 f0 16 be 8b 0c a3 3e
       0.2228563 0.55289334 -0.14740193 0.31845507
000340 06 5d be 3d 0d 5e 93 be 66 ce 13 bf 55 c5 90 be
       0.092950866 -0.28782693 -0.57736814 -0.28275552
000350 55 20 f3 be b4 cc 82 3e df 09 36 3e 44 f7 34 3d
       -0.47485605 0.255468 0.17777203 0.044181123
000360 fd ca 78 bd 28 6c 1c be 0d b6 b5 be a8 13 4b be
       -0.06074046 -0.15275633 -0.35490456 -0.19831717
000370 a1 b4 cf be 51 ca ce 3e ab ff 09 bf 0e 25 20 be
       -0.40567496 0.4038873 -0.53905743 -0.15639135
000380 84 6a ed 3e 28 9c 87 3d 2d 3f 79 3e 50 0d d8 be
       0.46370327 0.06621581 0.24340506 -0.42197657
000390 89 9d ce 3e 07 7f 8b 3e 0d 8d 44 3e 41 d5 2f bf
       0.40354565 0.27245352 0.19194432 -0.68684775
0003a0 a9 74 7d be d1 2c 14 3f 70 91 3e 3c 79 41 df 3d
       -0.24751534 0.57880884 0.011631355 0.1090116
0003b0 ee dc a4 3e ce de 00 be 74 87 d1 be 7c c1 bb be
       0.32199806 -0.12584993 -0.40923655 -0.36671054
0003c0 2f 40 20 be 54 a3 e6 bd 23 3c 92 3e 9a 17 cc be
       -0.15649484 -0.11261621 0.28561506 -0.39861757
0003d0 e8 52 ee be 0e 9d 09 be 43 8c f9 3e fc 55 2a 3e
       -0.46547627 -0.13438818 0.48739824 0.16634363
0003e0 e7 39 ef 3d a7 17 fd be 28 ba 03 3e f1 57 9a 3e
       0.11680966 -0.49432108 0.12863982 0.3014522
0003f0 b1 01 07 bf 8b 72 04 3f de 53 8c be dd 98 d1 be
       -0.52736956 0.5173728 -0.27407736 -0.40936938

network_body._body_endoder.seq_layers.0.bias f4 [256]
000000 9b 6a 75 bd 0f 14 10 3e 28 db 78 bd da ce 52 3e
       -0.05991612 0.14070152 -0.06075588 0.2058672
000010 8f 1c 15 3e e8 95 7f bc b2 07 8c 3d 61 31 e4 bd
       0.14561675 -0.015599705 0.06837405 -0.11142231
000020 bd 55 97 3d 8f b7 31 3e 57 b7 22 3e 77 fc 1d bd
       0.073894 0.17355178 0.15890251 -0.038570847
000030 9b 7e 09 3e 6b 78 74 3e 03 e9 de 3e 70 c8 b6 3e
       0.13427202 0.23874061 0.4353715 0.35699797
000040 38 3f 84 3e 9e b9 a6 3d d6 63 40 3e 67 d7 c9 bd
       0.25829482 0.081408724 0.18788084 -0.09855538
000050 28 ac 88 3d bf ee 09 3e 54 80 a6 3d ef 6a 19 bd
       0.06673461 0.1346998 0.081299454 -0.037455495
000060 0b a2 01 3e c1 07 63 3e 1f 0b d4 3d e2 d4 70 3e
       0.1265947 0.22170927 0.10353684 0.23518708
000070 7d 9e 0b 3d ff b9 a5 bd 56 91 f5 3c 11 64 b4 3d
       0.034086693 -0.080921166 0.029976528 0.08808149
000080 fd da 0d 3e cc 32 a2 3e e3 c3 af 3e 56 0e 9a 3d
       0.13853069 0.3167938 0.34329137 0.075222656
000090 8b 72 11 be 82 b8 c4 3d b9 96 97 3e 3e 43 d1 3e
       -0.14203851 0.096055046 0.2960718 0.40871614
0000a0 32 37 64 3e b0 58 89 3e 79 c3 84 3c ea 05 08 3d
       0.2228668 0.26825476 0.01620649 0.033208765
0000b0 33 9d 5b bd fb fa 35 3e 40 aa f6 3e 5f cd 60 3e
       -0.053616714 0.17771523 0.48176765 0.21953343
0000c0 e2 36 a2 bd 55 d0 97 3e eb 43 d7 3d cb 9b 8e 3c
       -0.07920624 0.29651132 0.10511001 0.017408272
0000d0 2c b7 ee bd 23 a3 2b 3e 52 41 46 3e 96 c5 77 3d
       -0.11656031 0.1676145 0.19360855 0.060491167
0000e0 00 5d 86 bb d9 c3 03 3e e8 45 b0 3e cd c5 ad 3d
       -0.004100442 0.12867679 0.34428334 0.08484993
0000f0 eb 6b 4e 3d 79 61 4f 3e 26 e8 24 3e 0d 59 08 be
       0.050395887 0.20252027 0.16104183 -0.1331522
000100 85 80 f8 bd c2 61 2b 3e 25 c2 a7 3e fb f1 76 3e
       -0.12133888 0.1673651 0.32765308 0.24115746
000110 00 b4 c4 3d 25 18 1e 3c 40 1f 2d bd 9c b8 46 bd
       0.09604645 0.009649311 -0.04226613 -0.0485159
000120 0a a7 d4 3d 41 5a b3 bd bb 8d 2d 3e 71 12 40 bd
       0.10383423 -0.08757449 0.16948597 -0.046892587
000130 59 c6 9f 3e 69 d1 2c 3e 65 ae 1f 3e 53 74 36 3e
       0.31206015 0.16876759 0.1559387 0.17817812
000140 c0 c9 21 3e 90 c9 87 3d bc 80 9a 3e c4 49 d7 bc
       0.15799618 0.06630242 0.30176342 -0.026280291
000150 8b 9e 56 bc a3 2d 92 3d b2 87 91 3e e5 b7 95 bd
       -0.013099323 0.07137611 0.2842384 -0.07310466
000160 bd 15 b9 bd 8b 56 9f 3e d2 ab ad bc 8a c3 07 bd
       -0.090373494 0.31120715 -0.021200094 -0.033145465
000170 d4 ae b4 3e 7f a3 a6 3e 1e e3 df bd dc 6b 45 3d
       0.35289633 0.32546613 -0.10931991 0.048198566
000180 94 54 57 3e 87 cd 37 3e 84 f1 38 be d8 97 e4 3d
       0.21028358 0.17949496 -0.18060881 0.111617744
000190 7a 04 9d bd 6a d1 9a 3d 63 e7 c2 bc a7 6e 98 3e
       -0.076668695 0.07559474 -0.023791974 0.2977192
0001a0 5b a7 82 3e d6 b7 a3 3e 70 69 17 3e 81 71 32 3e
       0.25518307 0.31976193 0.14786315 0.17426111
0001b0 77 ed 86 bd cb 90 fc 3c f7 92 34 3c 89 d4 7b 3e
       -0.065882616 0.030830761 0.011021367 0.24592794
0001c0 12 22 b7 3e fe 19 87 3e 00 60 24 3d b1 30 48 3e
       0.3576818 0.26387018 0.040130615 0.19549824
0001d0 92 4d c1 3d 74 48 60 3d 98 f3 94 bd 62 de 4a 3e
       0.094386235 0.054756597 -0.07273024 0.19811395
0001e0 54 f8 fc bd 03 9e ca bd 90 ee 89 3e 85 4c 88 3e
       -0.12352052 -0.098934196 0.2693982 0.2662088
0001f0 0e ce 5a 3e 35 9d de bc e1 e0 b3 3e 28 c6 e0 3c
       0.21367666 -0.027174572 0.35132506 0.027438238
000200 1e 50 37 3d f5 56 00 bb b1 2c c7 bd c8 bd 5b 3e
       0.04475414 -0.001958308 -0.09725321 0.21459115
000210 64 c7 80 3c a8 1b 01 3e 6f a6 d3 3d 1c da f7 3d
       0.015720077 0.12608206 0.10334479 0.12102148
000220 6a b2 75 3e ee 8f 56 3e 4a 71 1e bd b5 df 28 bc
       0.23993841 0.20953342 -0.03868226 -0.010307242
000230 0d bf 1c 3e 60 71 af 3d 1c aa f4 3d 92 54 9e 3e
       0.15307255 0.085665464 0.11946508 0.30923897
000240 c4 67 ba bd 4d cc 51 3d 76 42 09 bd a1 d8 4a 3e
       -0.09101823 0.051220227 -0.033510648 0.198092
000250 5a fd 11 3e ca 09 24 3e 5d 6c 1d 3e de bd 1f 3d
       0.14256802 0.16019359 0.15373369 0.03899943
000260 e8 b6 c1 bc 78 a6 ff 3d d2 b8 90 3e 07 10 9c 3e
       -0.023646787 0.12482923 0.28266007 0.30480978
000270 22 37 b0 bc c5 ab b1 bd 90 63 c0 3d 4a 33 38 bd
       -0.021510664 -0.086753406 0.0939399 -0.044970788
000280 3f 05 4a 3e 8f a0 35 3e 5d 3c 22 3e 4f 30 98 3d
       0.19728564 0.1773703 0.1584334 0.07431089
000290 ab da 1d 3d 49 31 5f 3c 4d 48 dc 3b 75 d1 8c 3e
       0.038538616 0.01362259 0.006722486 0.27503553
0002a0 53 ef 4a 3e 32 f6 4c 3e 9f 86 a2 3e ca bc 34 bd
       0.19817857 0.20015791 0.31743333 -0.044125356
0002b0 6d 36 9c 3e ee 6c 08 3d 8f 2b 6c 3d 1e 77 d2 bd
       0.30510274 0.03330701 0.05765873 -0.10276626
0002c0 48 7c b1 bd 8b d8 48 3e 25 06 36 3e 4d 6d ac 3e
       -0.08666283 0.19613855 0.17775781 0.3367714
0002d0 8c 32 34 3e bc 9e ab 3b 9f e5 16 3d 6e d0 66 3d
       0.17597407 0.0052374285 0.036840077 0.056351118
0002e0 87 eb 2a 3c 99 0a 3c 3e c8 93 78 3e cd 7f 86 3c
       0.010432131 0.18363418 0.24275124 0.016418362
0002f0 0b f7 86 3e be 55 ca bd 96 16 ae 3e 1f 1e 7f 3e
       0.26360354 -0.09879635 0.34001607 0.24913834
000300 60 24 f9 bc 22 ec 75 3d 82 a6 3d 3d 40 54 bb bd
       -0.030412853 0.060039647 0.046301372 -0.09146929
000310 af d9 ad 3c c0 bf c5 3e 9a f4 27 3e c8 e3 56 3d
       0.021221964 0.38622856 0.16401902 0.052463323
000320 d6 e4 b4 bd e3 49 ea 3e b4 87 7c 3d 41 aa 42 3e
       -0.088327095 0.45759496 0.061652854 0.19010259
000330 7a 58 a5 3e e3 2a 9a 3e f1 22 c2 3d 89 46 8b 3e
       0.32294065 0.30110845 0.09479321 0.27202252
000340 d1 36 a9 3e 0e 41 b1 3d eb c6 8d 3d 0f d1 2c 3e
       0.33049634 0.08654986 0.06922706 0.16876625
000350 33 ce 66 3e 08 d6 29 be 29 ac d8 3e 32 f0 73 3e
       0.22539596 -0.16585553 0.42318848 0.23822096
000360 3c 89 2d 3d 8b 94 ec 3d d9 d0 ac 3d f0 0d ce 3d
       0.042367205 0.1155177 0.08438272 0.10061252
000370 2e 17 f7 3d 6e 86 42 3e 2e 7f d7 3c cf cf 4e 3d
       0.12064968 0.18996593 0.026305761 0.05049115
000380 96 86 82 3e 52 ef ac 3b d6 4b 18 3c cc 3a 96 3c
       0.25493306 0.0052775526 0.009295424 0.018338583
000390 e9 02 80 3e 00 53 8a 3e fa 60 3d 3e 9b e1 89 3e
       0.2500222 0.2701645 0.18494025 0.26929936
0003a0 78 ca f8 bd dd 08 55 3e a3 82 83 3e 22 0d 52 bd
       -0.12147993 0.20804162 0.25685605 -0.051282056
0003b0 10 a2 6d 3e 39 79 96 bd 68 b0 e6 3b 2f 14 b5 3e
       0.23206353 -0.0734734 0.007040072 0.3536696
0003c0 ad ed 27 3e 64 e6 05 3e f5 c3 ed 3d 66 83 fb 3d
       0.1639926 0.13076168 0.116096415 0.12280922
0003d0 fa bc 5d bd 32 6a ae 3e 76 00 44 3e 3a c5 f4 ba
       -0.0541353 0.34065396 0.19140801 -0.0018674501
0003e0 5f 40 e2 3e fb 26 66 3e 40 fa 99 3e 13 da 9c bc
       0.44189736 0.22475807 0.30073738 -0.019146955
0003f0 c6 8c bd 3d 52 aa 89 3d 8c 51 b2 3d 80 59 a2 3e
       0.09255366 0.06721939 0.0870696 0.31708908

network_body._body_endoder.seq_layers.2.weight f4 [256, 256]
000000 97 03 50 3d 53 36 cc 3d 8e b0 20 be a2 d2 c6 bd
       0.050784674 0.09971299 -0.1569235 -0.09708144
000010 d9 e4 5b bd 6a 24 ff bd 08 13 00 be 2c aa 20 be
       -0.053685043 -0.12458117 -0.1250726 -0.15689915
000020 bc b1 5f 3d cb eb 91 bd 27 3a a8 3d 03 31 e8 bc
       0.05461286 -0.07125052 0.08214217 -0.028343683
000030 13 34 61 be fc 45 cd bd 99 1f 09 be dc 4a df 3d
       -0.21992521 -0.10023114 -0.1339096 0.1090295
000040 59 89 48 3e 1f 7e 04 bd 0b d0 e2 3d 73 a0 50 be
       0.19583644 -0.03234684 0.11074837 -0.20373707
000050 c0 4f bc bc e3 46 f3 3d ed 4d 40 be 08 d9 10 be
       -0.022987247 0.11878755 -0.18779726 -0.14145291
000060 76 fe 88 3d dc d3 08 be 1b 4f 14 bd 85 b0 ff bc
       0.066891596 -0.13362068 -0.036208253 -0.0312121
000070 48 5a 2a 3e ae 98 70 3d e6 e3 cd 3d a4 2b b3 3d
       0.16636002 0.058739357 0.10053234 0.08748558
000080 07 15 09 3e 73 b9 fa 3a 86 91 9c bd db 91 80 3d
       0.13386928 0.0019128755 -0.07644944 0.0627782
000090 2d 04 06 be 97 64 40 be a5 a2 a0 bd 9f ba 51 bd
       -0.1308753 -0.18788372 -0.07843522 -0.051203366
0000a0 d4 19 25 bd 8d 19 71 bd 6e ac 63 bd 1b 04 9e 3d
       -0.040307835 -0.058862258 -0.055584364 0.07715627
0000b0 1b f7 fd 3c 75 50 2a 3d e5 18 f8 bd 74 e0 1b b9
       0.031001618 0.041580636 -0.12114123 -0.00014865567
0000c0 d3 70 05 bd 21 90 d4 bd 74 11 58 3e 29 33 24 3e
       -0.0325783 -0.10379053 0.21100408 0.16035141
0000d0 a0 f0 3b be 9f d2 5a 3c fd 6d 79 3e 47 13 d3 3d
       -0.1835351 0.01335588 0.24358363 0.10306411
0000e0 57 b5 82 be 3a 2b 81 bd 77 af ea 3d 9d 65 73 bd
       -0.25528976 -0.06307073 0.114592485 -0.059423078
0000f0 e5 b6 8b 3d cc 4e af 3d 10 5f 0f 3d 1d 58 a6 bd
       0.06821994 0.08559951 0.035002768 -0.08122275
000100 6d 40 c6 bd bf 15 6c 3d 9c 17 94 bd 92 90 10 3e
       -0.09680257 0.057637926 -0.07231066 0.14117649
000110 5b 5a bb bd 33 07 34 bd 52 d9 22 be 89 77 8e bd
       -0.09148093 -0.04395218 -0.15903214 -0.06956393
000120 47 76 6d 3d a6 03 1c be f8 67 fc bd cb 36 89 be
       0.057974126 -0.15235767 -0.12324518 -0.26799616
000130 ae aa f7 bd 1b 45 00 3d 36 5c f1 3d a5 62 69 3d
       -0.120931014 0.031315904 0.11785166 0.05697884
000140 49 8f 47 bc cb 20 1e 3e 7a d4 85 3c 67 93 a6 3d
       -0.012180158 0.15442197 0.016336668 0.081335835
000150 e7 c1 2d 3e a2 01 a2 bc 4b 13 74 3e 24 80 07 3d
       0.16968499 -0.01977617 0.23835485 0.03308119
000160 fe 56 13 be 97 35 f0 3c 7a 03 b1 bd 90 0c 7a 3b
       -0.14388654 0.029322429 -0.08643241 0.003815446
000170 0b 6b a6 3d 50 5c 96 bc ba 95 bd bd 85 c2 c0 bd
       0.081258856 -0.018354565 -0.09257074 -0.09412102
000180 ee 11 35 bd 7c 72 3f be eb 72 ea bc 90 9b 24 3e
       -0.044206552 -0.18696016 -0.02861925 0.16074967
000190 83 6b e6 bc b3 fd 8b 3e 45 74 fe 3c c9 3c cd bd
       -0.028127437 0.27341995 0.031061301 -0.100213595
0001a0 40 45 63 bd 0c 35 26 be 80 3d 56 3c 3d 1c 63 3b
       -0.055485964 -0.16231173 0.013076186 0.0034654282
0001b0 39 b0 ec bd a3 13 b1 bd 69 b3 ac 3b 52 68 f5 3d
       -0.11557049 -0.086463235 0.005270411 0.11982788
0001c0 ee 49 6b 3d b9 66 83 3c 7f 03 85 be bf 28 70 3e
       0.05744355 0.016040193 -0.2597923 0.23453043
0001d0 07 88 cd 3a 60 54 0c be 0b 0c 9f bd 20 85 ac bd
       0.0015680798 -0.13704062 -0.07765969 -0.08423829
0001e0 23 f3 f9 bb b6 28 d8 bd 9d 64 ed bd 9e 0d 27 3e
       -0.007627861 -0.1055464 -0.11591456 0.16313788
0001f0 05 1b 09 3e 30 7f 86 3e 33 cb a4 bd 7f 00 86 3d
       0.13389213 0.2626891 -0.0804657 0.06543063
000200 d4 49 88 be ee 5c 21 3c 41 61 e2 3c f7 c2 19 3c
       -0.26618826 0.009848816 0.027634265 0.009384862
000210 8a ef fc 3d 29 77 a4 bd 4c ee 98 3d 04 8c c9 bd
       0.12350376 -0.080305405 0.074673265 -0.09841159
000220 43 0a 17 3d fd b3 8a 3d e4 2f 50 be 9a fe cb 3d
       0.03687502 0.06772611 -0.20330769 0.09960671
000230 c6 c9 f3 bd 32 4f a5 bd 53 10 b2 3d 56 7c 1d 3e
       -0.119037196 -0.08071746 0.0869452 0.15379462
000240 ec 7e 1f 3d 1d 98 c9 bc 97 b7 5b be fe d9 49 be
       0.0389394 -0.024608666 -0.21456753 -0.19712064
000250 7e dd 25 3e 5b 07 43 3d c7 80 2a be 2c e9 22 3e
       0.16197774 0.047614437 -0.16650687 0.1590926
000260 e5 da 17 be f6 49 26 3d 17 3a 25 bd 83 04 a1 3d
       -0.14829595 0.04059788 -0.040338602 0.07862189
000270 33 1a b9 bc 9a 51 ac 3c 20 95 d7 bd 7c d1 89 bd
       -0.0225955 0.021035004 -0.1052649 -0.06729409
000280 a1 97 08 3e 77 a4 dd bd cd 84 21 be a9 f3 35 be
       0.13339092 -0.10822385 -0.15773316 -0.1776873
000290 24 5a a8 bc 6f 24 6d be 2e 06 a0 3d 74 e3 4b be
       -0.020550795 -0.2315843 0.07813679 -0.19910985
0002a0 6c 2c 2f be 42 6d 9b bd 42 b5 08 bd 93 fa b0 3d
       -0.1710679 -0.07589199 -0.033375986 0.08641543
0002b0 03 40 cf 3d 23 85 e3 3b ab 5b 00 be 2b c5 dc 3c
       0.10119631 0.0069433614 -0.12534969 0.026949486
0002c0 e7 c8 f1 3d eb ea ed 3d fc d4 89 3d 70 e9 85 bd
       0.11805897 0.11617073 0.06730077 -0.06538665
0002d0 d7 0d f9 3c 5a 75 02 3c 1d 39 39 bd 2b 71 8b 3d
       0.030402107 0.007962549 -0.045220483 0.068086945
0002e0 b9 32 1b bc 00 c3 64 3e 22 bb 86 3c af dc 25 be
       -0.009472542 0.22340012 0.016446654 -0.16197465
0002f0 fb 73 8d 3d 10 83 41 3c 4c 0c f8 bd 12 14 64 3c
       0.06906887 0.011811033 -0.121117204 0.013920801
000300 89 95 be bd 07 72 49 3d ae 9a 55 3d f0 9d 8f bd
       -0.09305865 0.04918101 0.052149467 -0.07012546
000310 8e fa 0a 3e 5f 6a 1d bd 19 27 e3 3d d0 40 c4 3d
       0.13572142 -0.03843152 0.11091442 0.095826745
000320 ef c5 0d 3e 00 89 79 bd a0 fb 67 3d da fa a9 3b
       0.13845037 -0.06092167 0.056636453 0.0051873745
000330 df b6 9b 3d 7e 7f 97 3a 45 fb bb bb eb ed 15 be
       0.07603239 0.0011558381 -0.005736741 -0.1464154
000340 ad 5f 6a 3e 54 04 2c bc 8c 66 79 bd b6 23 20 bd
       0.2288806 -0.010499079 -0.060888812 -0.039096557
000350 0b e2 84 bb 88 68 30 be 6a c0 68 bd d7 ed c1 bd
       -0.0040552667 -0.17227376 -0.056824125 -0.094691925
000360 67 b8 1e 3b 9f 3e 1a 3e ac 93 4a 3e 49 32 66 bd
       0.00242188 0.1506295 0.19782895 -0.0562003
000370 c2 7b a0 3d a3 5c 3a 3d 20 ca e0 3d 82 43 15 bc
       0.07836105 0.0454985 0.10976052 -0.009110333
000380 4d 8f 97 bd 49 79 4e be 35 9e 95 bb 4e a6 33 be
       -0.07400379 -0.20163454 -0.004565979 -0.17543909
000390 88 7f 91 bd e6 3c 8c be 33 8d 99 3d 05 cf 5f 3d
       -0.07104403 -0.27390212 0.07497635 0.05464079
0003a0 9a db 8b bd ca 18 ef bd 58 e8 cb 3d fa fb 18 bd
       -0.06828995 -0.1167465 0.099564254 -0.03734968
0003b0 1a 95 f9 bd 09 21 6d 3d 1d 67 e4 bd 78 bc f4 bd
       -0.12186642 0.057892833 -0.1115248 -0.1195001
0003c0 fe 34 75 bc 38 0c 6c 3d 01 f3 87 bc 1a e3 09 be
       -0.014966248 0.05762884 -0.016595365 -0.13465539
0003d0 bc 9e 2f be f3 4c 90 3d a8 37 82 3d 90 8c ab 3c
       -0.17150396 0.07045927 0.06358272 0.020941049
0003e0 e5 c0 91 3b 3c b3 dd bd dc 74 fe 3d b1 8e ab bd
       0.0044480436 -0.10825202 0.12424633 -0.083768256
0003f0 16 d5 60 3b e6 f0 88 3e b0 ef f6 bd 3d 7f e8 bc
       0.0034306697 0.2674629 -0.120574355 -0.028380984

network_body._body_endoder.seq_layers.2.bias f4 [256]
000000 0a cc 11 3e d0 ee a1 3d 20 81 4d be 92 97 60 3d
       0.14237991 0.07906878 -0.20068789 0.05483205
000010 02 3e 34 3c 53 eb 97 bb 78 eb f1 3d 22 cc 1c be
       0.011001112 -0.004636207 0.1181249 -0.15312245
000020 62 2f 1f 3e d8 76 88 3d 7c f9 87 3d ec 9b 82 3c
       0.15545419 0.06663293 0.06639382 0.01594349
000030 02 c3 39 bc c5 33 dc bd a5 66 2a bd 47 39 a5 bc
       -0.011337997 -0.10752062 -0.041601796 -0.020168914
000040 bd fa 04 3d 21 f9 15 be b5 ac eb 3c bf 7d 6f 3d
       0.032465685 -0.14645816 0.028768877 0.05846953
000050 05 b9 17 bd 4f c8 23 3c 76 86 9f bd e6 d8 09 3e
       -0.037041683 0.009996488 -0.07789318 0.13461646
000060 2a ff 26 be 4c d3 43 3d 2a 02 a3 bd db be d2 bd
       -0.16308275 0.04780893 -0.07959397 -0.10290309
000070 14 f1 ac 3d 7c c0 1d 3d 07 d9 91 3c cd 8b 79 3d
       0.084444195 0.038513646 0.017803682 0.06092434
000080 40 c5 f9 3d 66 a4 f8 bd 95 08 40 bd 46 c9 03 3c
       0.121958256 -0.121407315 -0.046883184 0.008043593
000090 e2 e1 0f be d2 2f 50 3c 6c 6c 27 3e 05 dc ed bd
       -0.14051011 0.012706714 0.16349953 -0.11614231
0000a0 2d 5a 5c bd e6 19 5f bc 0e 03 01 3e c5 c2 db bc
       -0.053796936 -0.0136170145 0.12598822 -0.026826272
0000b0 cc 27 fa 3d 91 ef ca bc e2 9d 91 3c c2 a6 e1 3d
       0.12214622 -0.024772437 0.01777548 0.11018135
0000c0 b6 6a 54 bd cf 35 65 bd 10 4e 94 bc 38 f8 13 be
       -0.05185958 -0.05595952 -0.01810363 -0.14450157
0000d0 1d 5a 17 bc ad 55 be 3c ad 47 24 3d dc 6a ad bc
       -0.009237793 0.023234213 0.040107418 -0.021169119
0000e0 bd 60 04 bc bc 4e 2a bc 3a c6 39 be 12 f8 41 be
       -0.008079705 -0.010394748 -0.18142024 -0.18942288
0000f0 7d 5c 49 be ac ac 72 bd 22 df 57 3d ea fe 0b be
       -0.19664188 -0.059246704 0.05270303 -0.13671461
000100 29 0f 35 3d 92 e8 82 bc 1d 40 e4 3c 16 fb ce bc
       0.04420391 -0.015980039 0.027862603 -0.025266211
000110 0d a2 1c 3d 3a 37 ce bd 85 64 a3 3d 08 5c a9 3d
       0.03824048 -0.100691274 0.07978157 0.08269507
000120 c9 e6 d7 3d e6 ae c3 bd ec a5 42 3e 2e bf 98 bc
       0.10542066 -0.095548436 0.19008607 -0.01864585
000130 c8 a5 6e 3d b2 6f c9 bd 3c 7b 16 be f4 6a 3f 3a
       0.05826357 -0.09835757 -0.14695448 0.0007302009
000140 c2 99 c7 bd d8 fb 54 3d 6d c7 42 3e f3 48 56 bc
       -0.09746124 0.05199799 0.19021387 -0.013078916
000150 cf b3 75 3d 9c a3 59 be 75 93 39 be a1 1a e9 bc
       0.059985932 -0.21253818 -0.18122657 -0.02845508
000160 77 aa 63 bc 93 6b c8 bc 86 f9 4a be ff bd 4b bd
       -0.013895622 -0.024465358 -0.19821748 -0.04974174
000170 f1 c2 dc 3c a8 6b ce bd 7e 23 67 bc c1 f4 ba bd
       0.026948424 -0.100791276 -0.014107583 -0.09128714
000180 34 40 f1 3d 16 5b 3d bc ac 37 79 bd 89 cf 35 be
       0.11779824 -0.011557361 -0.06084411 -0.1775495
000190 1d e1 a0 3d c9 59 05 bd f7 e8 0f 3e af e9 22 3d
       0.07855437 -0.03255633 0.14053713 0.03977364
0001a0 c3 e5 ba 3d 87 13 a8 bc 11 1d 7f bd 54 12 c9 3d
       0.09125855 -0.020517124 -0.06228358 0.09817949
0001b0 c0 8c 52 bd 07 9b a9 3d 28 23 2d be b6 21 d3 bc
       -0.05140376 0.08281522 -0.16907942 -0.02577291
0001c0 3d d3 5a be 12 4e a6 bd 1e 84 a4 3d 0b 21 a5 3d
       -0.21369644 -0.081203595 0.08033012 0.08062943
0001d0 5e 74 ae 3b 41 a6 27 3b 38 c3 85 bc 60 4c 57 bd
       0.0053239306 0.0025581273 -0.01632844 -0.05256307
0001e0 bc 69 ec bb 57 7a b9 3d 18 de 75 3c 67 5b 3d be
       -0.007214753 0.090565376 0.015006565 -0.18491898
0001f0 7d ca f2 3c c7 19 81 3e 4f e2 b9 3d c6 c6 75 bd
       0.02963757 0.2521498 0.09076368 -0.06000402
000200 13 0f 35 3e cc b5 7b bd 50 b8 a9 bc 86 28 e9 3c
       0.17681532 -0.061452672 -0.02071777 0.028461706
000210 b5 4d a8 bd 9a dc 8c 3d 71 fe 6b 3e a8 e4 b9 3b
       -0.082179464 0.06878014 0.2304628 0.00567301
000220 8f 67 84 3d 4a 5f c0 3c b7 f5 8a bd 81 38 e9 3b
       0.06465065 0.023482937 -0.06785148 0.0071173315
000230 9a 23 19 3c 5f 4a 01 bd 8c a0 e2 bd 64 2b 03 be
       0.009346867 -0.031565066 -0.11065778 -0.12809521
000240 d7 ba 01 3e 4d 9f ff 3d d1 28 25 be 4a c1 c0 3c
       0.1266893 0.12481556 -0.16128851 0.023529667
000250 63 df b4 3c 08 b5 69 bd ef 06 23 3e 9a 90 99 3b
       0.022079175 -0.05705741 0.15920614 0.0046864273
000260 3c 59 33 bd e7 41 e0 bd 04 ac 82 3d ab 1f 24 3d
       -0.043786272 -0.1095007 0.063804656 0.040069263
000270 31 7e 97 3e da 78 b4 bd f8 9b 65 3d 3c 67 53 3d
       0.29588464 -0.08812113 0.056056947 0.051612124
000280 91 1a dd 3d bc d3 53 3c 0e b9 d7 3c 9e 63 ef bd
       0.10796083 0.012928899 0.026333358 -0.11688922
000290 4a 53 87 3d c6 25 94 3d ad 5d 39 be e5 27 c1 bc
       0.06607683 0.07233767 -0.1810214 -0.023578594
0002a0 19 f4 1b 3d bc f9 31 bc 33 9e 8e 3c d0 dc 9e bd
       0.038074587 -0.010862764 0.01740942 -0.077569604
0002b0 71 af 06 be 50 68 cc bd 4f 92 91 bd e8 34 9b 3c
       -0.13152863 -0.099808335 -0.07107984 0.018946126
0002c0 91 04 af 3d e7 0b 1c bc 77 73 28 bd 71 42 46 bd
       0.08545793 -0.009524322 -0.04112574 -0.048403207
0002d0 e4 e1 74 bd e9 cd 5e be 30 f9 29 bd 7a 4a bf 3b
       -0.05978574 -0.21758236 -0.04149741 0.0058377357
0002e0 f2 8e 75 3d 5b d0 4a be 5c 3b fd bd 20 95 6f bc
       0.059950776 -0.19806044 -0.123648375 -0.0146229565
0002f0 b3 91 e0 bd cd 90 74 bd b8 d1 66 3d 25 9a 94 3d
       -0.1096529 -0.059708405 0.056352347 0.07255963
000300 22 94 3c 3d 64 68 a1 3d 08 8e 11 3e ad 25 f8 bd
       0.046039708 0.07881239 0.14214337 -0.12116561
000310 4b 17 b0 3b ca 13 97 3d 4f 9c 5e 3e 33 87 55 3d
       0.0053738705 0.07376821 0.21739314 0.05213089
000320 74 d4 2b be d4 f8 47 3d a6 0b 13 bd 65 f3 3d be
       -0.16780263 0.048821285 -0.03589978 -0.18549879
000330 f9 10 2f be 25 78 42 bd 90 7a 2e bd 0f 49 1c 3b
       -0.17096318 -0.04747786 -0.042597353 0.0023847257
000340 46 0d 0d 3b 4d 51 0e 3e c0 17 e9 bc 10 72 89 3e
       0.0021522804 0.13898201 -0.028453708 0.26844835
000350 d5 6d a0 bc e8 e5 de bc 53 d3 ae 3d 97 71 1f 3e
       -0.019583622 -0.027209237 0.08536401 0.15570675
000360 c0 43 5c 3d 2f b7 da 3d 5b 0a 02 bd 74 2a 51 3c
       0.05377555 0.10679471 -0.031748157 0.012766469
000370 5e 3a e4 bd df 56 5f 3d 5f 65 1c 3d c6 e7 bc bd
       -0.11143945 0.054526206 0.038182613 -0.09223895
000380 37 09 e6 3b a7 b4 57 be 8b 01 2f 3d 35 9d ec bd
       0.0070201415 -0.21065007 0.04272608 -0.11553422
000390 09 db 42 3c 63 35 73 3c 69 87 33 bd fa 4d 66 3d
       0.011893042 0.014844271 -0.04383031 0.056226708
0003a0 49 20 75 3e 6e 14 03 3e 68 49 00 be 60 77 b4 bd
       0.23938097 0.12800762 -0.12528002 -0.088118315
0003b0 74 fa b7 bc cb 62 00 bd bd 93 41 3e d3 11 0a 3e
       -0.022458293 -0.031344216 0.18904014 0.13483362
0003c0 c8 e9 66 be 81 e6 b0 bd 47 2e 0b 3b 17 04 1a be
       -0.22550118 -0.08637715 0.00212373 -0.15040623
0003d0 a2 36 cc 3d 2b a4 8d 3c 2f aa 32 3e c5 a8 94 3d
       0.09971358 0.017290195 0.17447732 0.07258753
0003e0 06 56 30 3e e7 64 25 be 4f b6 fd 3d cb 83 7b bd
       0.17220315 -0.16151772 0.12388288 -0.061404984
0003f0 b0 c7 6d bd ab 7d a0 bc dc 4a 27 be 80 1c fe bd
       -0.058051765 -0.019591173 -0.1633715 -0.1240778

action_model._discrete_distribution.branches.0.weight f4 [3, 256]
000000 ed 1b 84 bd 2f 0a 00 3d 6d 8e e4 3c 56 79 26 3e
       -0.06450639 0.03125971 0.027899945 0.16257223
000010 b4 07 3b bb 2a 7b e1 3c 5f ef b8 bd 75 ca 59 be
       -0.0028538527 0.02752455 -0.090300314 -0.21268637
000020 4f 26 5b bd 35 f7 0e 3e f7 9c 06 3d 46 9f 31 3a
       -0.05350333 0.1396149 0.032864537 0.0006775748
000030 66 2f 8e bd a7 87 43 bc d3 f9 db bc ce 71 45 3c
       -0.06942634 -0.0119341975 -0.026852524 0.012051059
000040 5f 68 83 bc c6 6d 0c 3b 85 0b a1 bd f7 7a 1c bc
       -0.016040979 0.0021427735 -0.07863525 -0.0095508015
000050 ab fb 08 be fc 16 55 bd 44 fa bf bb 4e f8 cb bd
       -0.13377254 -0.052023873 -0.0058586914 -0.0995947
000060 47 11 e8 3c 61 a7 f5 bc 3b 7e 8f 3c ae e6 8d be
       0.028328551 -0.029987039 0.017516246 -0.27715057
000070 54 aa 24 bc c6 1e 1c 3d 05 4f e9 bd 40 68 92 3e
       -0.010050375 0.038115285 -0.11392025 0.2859516
000080 61 6a 79 3c f6 a3 32 bd 4b ee 3a 3e 01 6e 69 bd
       0.015223117 -0.043613397 0.18254964 -0.056989674
000090 16 b8 49 be 1e 45 81 3e 87 61 fb bc 2f 8b 63 3e
       -0.1969913 0.25248045 -0.030686153 0.22221063
0000a0 d1 cb 8b be 96 53 3d bd ea 99 bf bd c5 8e ba 3d
       -0.27303937 -0.046222292 -0.09355529 0.091092624
0000b0 fa b7 0e bc bb 0e 49 3b 9d 22 0b 3e 2c 27 bf bd
       -0.008710856 0.0030678946 0.13587423 -0.09333643
0000c0 67 bd 8b bb 82 8c d5 be 2b d5 b2 3d 8e ff b6 bd
       -0.004264522 -0.4170876 0.08732065 -0.08935462
0000d0 fb 74 2f bd 12 1b ef 3d 86 2c ce 3c d0 35 ad 3c
       -0.04283617 0.11675085 0.025167715 0.021143824
0000e0 b4 c3 49 3e 53 d9 cb bd 66 01 eb bd db 23 8b bc
       0.19703561 -0.09953561 -0.11474876 -0.01698487
0000f0 66 1d 8f bd 87 f3 2a 3d 9e 60 f4 3c 6e 11 17 3d
       -0.06988029 0.041736152 0.029831227 0.036881857
000100 cc f5 45 3c 72 9a 47 bb 71 7e 29 bd 35 bc 76 bd
       0.012082528 -0.0030457047 -0.04138035 -0.060238082
000110 1e 99 79 bd b8 90 6b bd 1c b8 88 3d 7b 37 9c bd
       -0.06093704 -0.05751106 0.06675741 -0.076277696
000120 29 a2 bd 3b 73 f2 1d be f7 27 b6 bd 74 8c 87 3c
       0.0057871533 -0.15424518 -0.088943414 0.016546465
000130 d9 7a aa 3c 3c 56 e3 bd d5 ba d9 bd 32 c9 99 3c
       0.020810531 -0.11100432 -0.106313385 0.018772695
000140 56 4d f7 be 1f 87 02 bd 98 da 32 bd 13 9d 99 3d
       -0.4830119 -0.031867143 -0.0436655 0.07500663
000150 60 45 87 3c aa 74 48 bd 60 a6 81 3d 08 67 be bd
       0.016512573 -0.048939385 0.06330562 -0.092969954
000160 5d 32 94 bc b5 78 d0 bc 83 87 7d be cc 45 d0 3c
       -0.018090421 -0.025448183 -0.24758725 0.025423907
000170 68 96 32 bb 1a 5f 64 be 8b 60 ab 3d dc ff 94 bd
       -0.0027250294 -0.22301903 0.083680235 -0.07275364
000180 0f 14 a8 bd 7b 3d 5e 3d f7 54 b5 3d 0b 2f 1b 3c
       -0.08206951 0.05425785 0.088540964 0.009471665
000190 dd fe f3 bd 4d a6 3a 3d 59 73 6f bc 2f 5e 4a bd
       -0.11913846 0.045568753 -0.014614903 -0.049406227
0001a0 71 72 00 3c 77 4a b8 3b 81 f8 36 3e 16 41 ee bd
       0.007839785 0.0056241113 0.17868234 -0.11633508
0001b0 4f 0e a8 bd f8 19 c2 bc 12 10 bf bd c2 c7 54 3d
       -0.08205854 -0.023694023 -0.09329237 0.051948316
0001c0 65 1e 31 3c 94 00 8a 3c 5b 2c a6 3c a1 aa ea 3c
       0.010810469 0.016845979 0.020284822 0.028645815
0001d0 eb b1 32 bc 61 fa d1 3c ae 86 59 bd 5b 33 77 3c
       -0.010906677 0.025632085 -0.053106956 0.015087928
0001e0 8b 59 81 3d ad 23 a9 bc 07 97 9a be b8 d3 0d 3d
       0.06315907 -0.020646894 -0.3019335 0.03462574
0001f0 cd a5 84 3d 62 e2 7c bd c3 c6 ed bd 3d e0 d6 bd
       0.064769365 -0.061739333 -0.116101764 -0.10491989
000200 0c c8 d3 bd 84 dc 1b bd db 62 b1 3b 31 2a d3 3c
       -0.1034089 -0.038052097 0.005413396 0.025776954
000210 02 98 3b 3d e6 14 04 bd 2c e2 7e bd 75 61 e6 3d
       0.045799263 -0.032246493 -0.062227413 0.11249057
000220 c6 07 01 3c 62 c4 17 bc 3d c9 9f 3d 8b f5 68 bc
       0.0078753885 -0.00926313 0.07802055 -0.014218698
000230 82 1b b6 bd 96 f6 1b bc 49 3f bc 3d 92 85 c3 bd
       -0.088919654 -0.00951924 0.09191758 -0.09546961
000240 9c 7f 7b b9 67 8b ea bc 53 1a 8d 3c b5 bf 87 3d
       -0.00023984764 -0.028630925 0.017224466 0.06628362
000250 3f 8f 3f bc 1a 9d a4 bb d8 7c ef 3b 45 93 96 bc
       -0.011691867 -0.005023611 0.0073085837 -0.01838077
000260 63 aa c4 3d ae 52 27 3e 42 f1 83 3d dc 10 48 bd
       0.09602811 0.16340134 0.06442501 -0.048844203
000270 33 b5 f3 3b 16 34 92 bc f9 33 93 bc 33 fc df 3c
       0.007437372 -0.017847102 -0.017969118 0.027341938
000280 f2 62 e1 bc 24 f5 b1 3d 94 fe df 3d 5e 4f 0b be
       -0.027513001 0.08689335 0.10937229 -0.13604495
000290 e6 c2 04 bb 6b bb 6f 3d 10 bb e3 bb 7c e0 97 bd
       -0.002025777 0.058528345 -0.00694979 -0.07415864
0002a0 fc 96 a9 3e 14 d1 a7 3e 7b 8d e4 3d b5 28 94 bd
       0.33123004 0.327767 0.11159798 -0.07234327
0002b0 c8 1b cc 3d 17 b1 67 be fd 9d bf be 91 02 a1 be
       0.09966236 -0.22626148 -0.37425223 -0.3144727
0002c0 e3 3e 00 3d 40 e1 f6 3c 87 ef a8 3c 57 93 bd bc
       0.031309973 0.030136704 0.020622028 -0.023141546
0002d0 e7 81 3b be 99 72 05 be c8 75 92 3d 5f c6 d7 bd
       -0.18311273 -0.13031997 0.07151371 -0.10535883
0002e0 c9 09 bc bc 40 da 4b be 81 ba cf 3c 60 ce 02 be
       -0.022953885 -0.19907475 0.025357487 -0.12774038
0002f0 6d 31 db bd 39 75 98 bd 47 32 8b 3d d2 a3 8d 3d
       -0.107027866 -0.074442334 0.06796699 0.06916012
000300 cf 61 3c bd 68 86 99 bd a7 54 1f 38 51 97 33 bd
       -0.045991715 -0.07496339 3.7987393e-05 -0.04384548
000310 95 70 41 3d 07 7a 01 bd c5 5b 43 bd 07 c7 12 3d
       0.047226507 -0.031610515 -0.04769494 0.03583434
000320 92 06 3c 3b 10 ec 81 bd dd 52 f1 bc 7c b0 49 3d
       0.002869044 -0.063438535 -0.029458458 0.049240574
000330 49 40 96 bc 6c 10 df 3c 1e f7 43 bd ce 0b 1d bc
       -0.0183412 0.02722951 -0.04784309 -0.009585334
000340 8d 6c 5a bd ed 4c 21 3e e2 80 f2 3d 00 02 45 bd
       -0.05332618 0.15752001 0.11840989 -0.04809761
000350 3b d7 63 be 6e 7b 38 3d 72 84 19 be e8 b8 3a bc
       -0.22250073 0.045039587 -0.1499193 -0.011396624
000360 b2 55 87 be a4 49 de 3c 5c dc 32 bd dc 58 34 3e
       -0.26432568 0.027134724 -0.043667182 0.17612022
000370 1f e5 88 3c 99 21 5b 3d a1 64 b8 3d 82 b3 30 3d
       0.016710816 0.053498838 0.090035684 0.043139942
000380 b4 5f 1e 3d 71 e2 3b 3e 12 65 c6 bc 84 0b c1 3e
       0.03866549 0.183481 -0.024218116 0.37704098
000390 9a c4 a6 bd 24 d0 eb 3d 3c 38 e0 3b 4e 04 8f 3c
       -0.081429675 0.11514309 0.006842641 0.017458107
0003a0 c1 95 e0 bc dd 49 fa bd 79 84 24 be 3b 5d c8 be
       -0.027415158 -0.122211196 -0.1606616 -0.3913363
0003b0 23 be 8e 3d 77 26 93 3d 6a e9 c5 bd 7a f0 26 bd
       0.069698595 0.07185071 -0.09663661 -0.04075668
0003c0 26 04 fb 3d fa 05 cc 3c f8 0e 04 3c 62 01 f8 3c
       0.122566506 0.024905194 0.008060209 0.030274097
0003d0 62 fa 58 3c dd 9d 83 3d db 2d 57 bd 36 70 94 3c
       0.01324329 0.064265944 -0.052533966 0.018119913
0003e0 4d 01 df 3b e3 2d 25 3d c6 50 91 3d 5a 0a 9e bd
       0.006805575 0.040326964 0.070954844 -0.07716818
0003f0 b3 c1 dc bc 81 a0 ca be b7 34 77 3e 4a c8 88 3e
       -0.026947832 -0.3957558 0.24141203 0.26715308

action_model._discrete_distribution.branches.0.bias f4 [3]
000000 14 f4 85 3b 6b b2 80 3c af 68 8b bc
       0.0040879343 0.015710076 -0.01701769

action_model._discrete_distribution.branches.1.weight f4 [3, 256]
000000 76 7b 8e 3b 6b d7 c4 bc 0a 9d df bc 50 70 0f 3d
       0.004348214 -0.0240285 -0.027296562 0.03501922
000010 eb 36 b3 b8 cd 15 94 3c 60 bc 2f bd f3 08 7a bb
       -8.5456144e-05 0.018076802 -0.042904258 -0.0038152307
000020 9c 9f 1a 3d e9 9e d9 3b f8 30 b9 bb c1 82 7c bc
       0.03774987 0.006641258 -0.0056515895 -0.015412034
000030 92 ed 02 bc 73 a5 f0 bc 8a 28 b7 3c e9 21 a8 bc
       -0.0079912115 -0.029375767 0.022358198 -0.020523982
000040 9d 92 3a bd fa ae f0 3c a2 8e 68 3b 83 92 f9 3c
       -0.045549978 0.02938031 0.0035485406 0.03046537
000050 72 74 08 3d 38 0f 03 be 47 ab a5 bd b4 05 65 3b
       0.033314176 -0.12798774 -0.08089309 0.0034946026
000060 3e 14 51 ba b8 06 19 3d c5 c8 86 bc 6c 5a 85 bc
       -0.00079757336 0.037359923 -0.016453156 -0.016278468
000070 f2 66 ed 3b 6d 2b 34 bd 80 15 24 3c 7c 74 fc 3c
       0.007244938 -0.043986727 0.010014892 0.030817263
000080 03 db 88 bc 13 58 ef bc 02 f8 62 bc b0 23 a3 3c
       -0.016705995 -0.029216802 -0.013853075 0.019914478
000090 88 43 e6 3b dd 43 34 3c ca 5f 95 3c 5e d3 3e bc
       0.0070270933 0.011002508 0.018234152 -0.011647074
0000a0 98 20 43 bd a7 fd 26 bc 8a 0a e0 bc 98 78 cc 3b
       -0.047638506 -0.010192311 -0.027348775 0.006239962
0000b0 36 62 d7 bc cc f2 05 3d c5 73 f2 bc 42 29 37 bc
       -0.026291948 0.032702252 -0.029596219 -0.01117927
0000c0 01 aa 9c bc 43 ff 3a bd 90 fe 69 bc 57 cf 5f bc
       -0.019124033 -0.045653593 -0.014281884 -0.0136602735
0000d0 75 af e9 3c 81 fa 66 3d 0b 34 a6 bd 00 b7 2d bc
       0.028526047 0.056391243 -0.08115395 -0.010602713
0000e0 c0 d6 da bc 76 c3 6d bc 59 74 26 bd 56 0f df bc
       -0.026713729 -0.014511934 -0.0406383 -0.027228992
0000f0 5c 24 5e bc 8d d5 01 3c 57 83 83 bb 16 30 cb ba
       -0.013558473 0.00792445 -0.0040134597 -0.0015502002
000100 9b 90 02 bd f4 61 96 bd a5 78 72 3c a1 d9 fb 3c
       -0.031876188 -0.07342902 0.014799272 0.030743422
000110 5f f1 83 3c 32 29 0a bd 54 ea 36 3d ae b1 ed ba
       0.016106306 -0.033730693 0.044657066 -0.0018134618
000120 d2 b2 55 bc 20 1e 4a 3c e5 33 d3 b9 31 70 1e bc
       -0.013043122 0.012336284 -0.0004028372 -0.009670303
000130 4c 6c 4d 3d e9 34 6d bd ad 2c 99 bd 12 b9 6a 3d
       0.050152108 -0.057911787 -0.07479224 0.057305403
000140 b6 f4 f9 bc 64 53 15 3d 34 98 be 3c d3 d2 12 bd
       -0.030512195 0.03645648 0.023265935 -0.03584559
000150 2c 86 5f 3b 7f 13 21 bd 91 dc aa 3c f3 1b 1d bd
       0.0034107072 -0.039325234 0.020857127 -0.038356733
000160 a8 45 85 3d a6 f8 21 3d 8b b8 67 bd 65 2e 0d bb
       0.065074265 0.03954377 -0.05657248 -0.0021542546
000170 de 37 b5 bc 99 32 ca 3c e4 20 08 3e bc cf 08 bd
       -0.022121366 0.02468233 0.13293797 -0.033401236
000180 34 f5 93 3b 83 4e 7f 3d 36 64 28 3c d9 71 22 bd
       0.0045153145 0.062330734 0.010277798 -0.039659355
000190 f7 09 14 3d 1b bb 82 bd 52 c9 f2 3c 77 61 20 bd
       0.036142316 -0.06383344 0.029637013 -0.03915545
0001a0 4f 33 90 3d 5f 9b 21 bd 0f 53 9f 3a c1 32 e6 bc
       0.07041036 -0.039454814 0.0012155491 -0.028100373
0001b0 cf 55 15 3d 8a bc cc 3b 3d 52 89 3a 14 a5 eb bb
       0.036458787 0.0062480615 0.001047678 -0.0071913097
0001c0 4e 30 3a bc 12 35 4a 3c 57 0b 77 3d 35 95 35 bc
       -0.011364056 0.0123417545 0.06031355 -0.011082937
0001d0 4b 3e a6 3c 35 c5 fa 3b 67 df 61 3c 81 1e 5e bd
       0.020293375 0.0076529034 0.013786173 -0.05422831
0001e0 12 84 7a bc 07 fc da 3c 04 f8 6b 3d ae d0 ec bc
       -0.015290277 0.026731504 0.057609573 -0.0289081
0001f0 6d 99 fd 3b 63 82 85 3d 99 3a 15 bd 46 75 fc bc
       0.007739237 0.0651901 -0.036432836 -0.03081764
000200 7e c9 ee 3c 3d ee 00 be 8b 0d 37 bc ef 7a 6a 3c
       0.029148813 -0.1259088 -0.0111726625 0.014311536
000210 3b 87 1c bc 58 9b 0f 3c 05 0b b9 3c 2f 57 8b 3c
       -0.009553726 0.008765064 0.022588262 0.017009346
000220 fc 64 11 3d a7 b7 84 bc 3b 60 75 bb aa 80 29 bd
       0.035496697 -0.016200854 -0.003744139 -0.04138247
000230 1c 2d 27 bd 29 4a 86 bc 9a bf 54 3c 38 b5 29 bc
       -0.040814504 -0.016392784 0.0129851345 -0.010358147
000240 23 31 12 3d bf 7e 85 3c d1 af 18 bd 9c e1 46 bb
       0.03569139 0.016295789 -0.037277047 -0.0030346876
000250 95 7a 2a bc 3a 8f db bc f4 fc 9c 3c 2a 8c 17 bd
       -0.010405202 -0.026801694 0.019163586 -0.036998905
000260 07 3f 80 bb 1c 79 b9 bc 0f e3 a1 3b c1 b3 ee 3c
       -0.0039137634 -0.022640757 0.0049403976 0.029138448
000270 c4 a7 d2 3c bc dd 3f 3c ce 5e 53 3c 42 d9 07 3d
       0.025714763 0.01171058 0.012901021 0.033166178
000280 eb b1 84 3b 8d 62 2d bd c1 d0 7d bc 81 ab 4a 3d
       0.00404953 -0.042330313 -0.015491665 0.049479965
000290 4c 2c 1c 3e 48 a5 7a bb 7e 75 fe bc 63 c7 cc bc
       0.15251273 -0.0038245488 -0.031061884 -0.024997419
0002a0 4b 6e 45 3c c6 c7 6c bb 00 73 9e bc 31 39 89 3c
       0.012050222 -0.0036129816 -0.019341946 0.016750904
0002b0 03 2a 8a 3b f2 dd 50 bd 86 0e a2 3d 68 23 4e 3c
       0.004216434 -0.050992914 0.079129264 0.012581684
0002c0 61 bc a7 bb d6 31 79 bc 51 29 26 bd 42 68 14 3d
       -0.005118892 -0.015209636 -0.040566746 0.03623224
0002d0 71 2b 71 bb 97 ba 19 bc 92 1f 80 bc 93 a6 23 bb
       -0.0036799575 -0.009382865 -0.015640054 -0.0024971112
0002e0 ca 0b 01 bc c9 ca 4f bd 84 30 94 3b b8 09 26 3c
       -0.007876346 -0.0507305 0.004522385 0.010134153
0002f0 d9 21 66 bc 7b e9 86 3c 22 3d b7 3b 79 76 46 3d
       -0.014046156 0.016468754 0.0055920044 0.048452828
000300 7b 3b 35 3d a4 8e e3 3a 40 5d e7 3c 91 93 00 bd
       0.044246178 0.0017361236 0.028242707 -0.03139073
000310 b9 64 99 3c f5 f5 94 3c 36 a2 f5 3a 48 57 94 3d
       0.018724786 0.018183688 0.0018740359 0.0724321
000320 70 ec 9a bc 68 92 4c bc 69 c5 74 3c 83 ec 27 3b
       -0.01891157 -0.012486078 0.014939644 0.002562315
000330 52 86 2b bc b7 0c 49 b9 81 bb b8 bb f6 36 18 bd
       -0.010469036 -0.0001917359 -0.0056375866 -0.03716179
000340 5b c5 71 3b 28 8f aa 3c d2 08 3e bc e1 a8 2a 3d
       0.0036891315 0.020820215 -0.011598783 0.04166496
000350 7b 98 2c bc 84 51 99 bc ac 22 8c 3d fd b2 03 3d
       -0.010534401 -0.018715627 0.06842551 0.03215312
000360 19 94 ea bc f5 86 ea bc fa ff 8b 3d e8 f6 9b 3c
       -0.028635072 -0.028628806 0.06835933 0.019038633
000370 e2 09 b8 bd 7c 4f 86 3c 96 8b 98 3b 7b da 21 bc
       -0.0898626 0.016395323 0.004655312 -0.00987875
000380 8d 23 da 3c 76 f2 0e bd 3a d8 8b bc 60 74 16 bd
       0.02662828 -0.034899198 -0.017070878 -0.036732078
000390 10 7e 75 ba bc 04 36 3c 54 d4 6e 3d cc 46 0a 3b
       -0.0009364793 0.011109527 0.05830796 0.0021099327
0003a0 6a 5b 56 3d 91 0a d9 bc a8 53 41 3c 3f 9d a8 ba
       0.052333273 -0.026494296 0.01179973 -0.0012864246
0003b0 b5 7b cc bc 97 46 06 3d ea c9 c0 bc 73 49 25 3d
       -0.024961332 0.032782163 -0.02353378 0.04035325
0003c0 4a 43 a3 bc a5 bb 63 bc 10 39 d9 bc ec e5 23 bc
       -0.019929547 -0.013899718 -0.026516467 -0.010003548
0003d0 a5 54 19 bc 27 a3 a1 bd d0 47 90 bc c3 ce ac bc
       -0.00935856 -0.07892447 -0.017612368 -0.021094685
0003e0 8d 2a 8e bc 32 64 29 bc ed ea 13 3d 77 53 41 bd
       -0.017354274 -0.01033883 0.036112715 -0.04719874
0003f0 29 cc ca 3c 04 2c d3 bb e7 3e 20 bc 6c 54 a0 ba
       0.024755554 -0.006444456 -0.009780622 -0.0012232191

action_model._discrete_distribution.branches.1.bias f4 [3]
000000 0e e0 6c 3d 53 40 01 3d 07 e9 b6 bd
       0.057830863 0.031555485 -0.08931165

action_model._discrete_distribution.branches.2.weight f4 [3, 256]
000000 a8 48 b3 3d 52 68 49 3d eb 8c 51 bd f7 74 17 3b
       0.087540925 0.049171753 -0.05115978 0.0023110488
000010 1a 87 ec 3c 0f a3 97 3d 73 aa 13 3e 7c fa 96 bd
       0.028873015 0.07404148 0.1442049 -0.07371995
000020 24 94 ff 3d e7 00 9d bd 52 83 45 bc 85 0d 50 bd
       0.124794275 -0.07666188 -0.012055235 -0.050794143
000030 71 17 8b 3d 4d e6 b2 bc 20 b9 13 bd c1 80 13 bc
       0.067915805 -0.021838332 -0.03606522 -0.009002865
000040 27 4e d7 bd 6a b6 7d bd 7d de a7 3c 6e a0 45 3e
       -0.10512953 -0.06194154 0.020491833 0.1929948
000050 dc 65 b8 3d 78 e7 7e bd f1 00 82 bc 5e c9 f8 3c
       0.09003803 -0.062232465 -0.01586959 0.030369457
000060 7f 7d 0a 3d 78 af c4 3d 4c 82 62 be 23 9e 87 bb
       0.03381109 0.096037805 -0.22120017 -0.0041387244
000070 4b a9 2b bd 7b 61 a2 bd 35 98 c7 3d 17 4d 1e bd
       -0.041909497 -0.07928749 0.09745828 -0.038647737
000080 1b 75 e8 3c 86 65 b1 3d 42 ba 00 bd 25 4b 13 3e
       0.028376153 0.08661942 -0.03142763 0.14384134
000090 78 d8 86 3c 23 59 d7 bc a3 20 b1 3d d7 11 8d 3b
       0.016460642 -0.02628762 0.08648803 0.004305105
0000a0 58 9d 9e bb 30 26 b6 3d 1e 01 a0 3d aa 2f d8 3c
       -0.004840534 0.088940024 0.07812713 0.026389915
0000b0 cd 09 30 3d 05 34 f7 3c a9 23 bc bd 3b 3a 0a 3c
       0.042978097 0.030176172 -0.09186489 0.008436735
0000c0 56 8d 9c 3c a8 6d 81 3e ca 9a 28 3d 22 c0 01 3e
       0.019110363 0.25278974 0.041163243 0.12670949
0000d0 5e 4c 24 3c 37 a9 97 bd d4 8f cd bd f5 18 b3 3c
       0.010027973 -0.07405322 -0.10037199 0.021862486
0000e0 41 90 5e bd 0e 7d 8f 3d 4a bf 2a bd 22 e6 53 bd
       -0.05433679 0.07006274 -0.041686334 -0.051733144
0000f0 44 9c bb 3d 6c 77 31 bd 23 b4 ae bd 5d 50 25 3c
       0.09160665 -0.04332678 -0.08530452 0.010089961
000100 bf bb 71 3c 8c 1a e1 39 f4 d1 3e 3d 39 c9 b0 ba
       0.014754235 0.00042935123 0.046586946 -0.0013487703
000110 7b 60 af 3d 7f d8 11 3e a7 28 17 bd fc b8 ce bb
       0.08563324 0.14242743 -0.036904003 -0.006308673
000120 16 59 97 3c d7 12 dc 3d 9b 33 90 3b a3 d6 99 3c
       0.018475097 0.10745781 0.004400683 0.018779105
000130 a5 06 9a bc 33 83 bd 3c 25 4d c8 3d a0 7a b0 bd
       -0.018801996 0.02313385 0.09780339 -0.08617139
000140 2c f6 0d 3e c3 6c 8a 3d 04 22 e5 3c 93 95 a9 3c
       0.13863438 0.06759026 0.027970321 0.020701205
000150 b5 9c d1 3c a6 4c c7 bd 4d 9e 84 bc db 02 b2 3d
       0.025587419 -0.097314164 -0.016188765 0.08691951
000160 9d bc e1 3d fe 95 2e 3d fb d4 9a 3c 4a d6 0d be
       0.11022303 0.042623512 0.018900385 -0.13851276
000170 41 16 b6 3c 03 94 a2 bd f5 fc 9e bd 51 02 e8 bc
       0.022227408 -0.07938387 -0.077630915 -0.028321417
000180 b9 ca b0 3c 63 d5 b7 3c 0a cf 06 3d 03 6a f0 bd
       0.02158104 0.022440618 0.03291229 -0.1173897
000190 3c 74 63 bc 62 c7 df 3d 34 6c 3e 3e 1f b8 bd 3d
       -0.013882693 0.10926701 0.18595964 0.09263634
0001a0 5b 25 f4 bc 7c 98 1e 3d b2 6e cf bd e5 fb 82 3d
       -0.029802969 0.03871964 -0.10128535 0.06395701
0001b0 aa 44 dc bd 84 fa 82 3d f8 07 e5 3c 9a a3 94 3d
       -0.10755284 0.06395438 0.027957901 0.07257767
0001c0 4a c9 95 bc ad a2 89 3d a5 cc 1e 3c 1e 1c 18 3d
       -0.018284459 0.06720481 0.009692346 0.03713619
0001d0 4a d6 a3 3d aa 9b e9 bd df f0 d4 bc f7 dd 19 be
       0.07999857 -0.11406644 -0.025993763 -0.15026079
0001e0 bc d0 81 bc 46 89 6a 3d a1 aa 42 3e 50 1a 6b be
       -0.015846603 0.05725982 0.19010402 -0.22959256
0001f0 03 7b 85 3c 2e 3b c8 3c ed 49 34 3e 79 0f 8b 3e
       0.016294008 0.024442282 0.17606325 0.27160242
000200 1a e0 95 3d 89 ec db bd a7 96 bb 3d a4 4f 18 bd
       0.073181346 -0.10738475 0.09159594 -0.037185326
000210 9b 3b ed 3d 74 db 81 3d 7a 9b 89 bc c2 0e 9d 3d
       0.115836345 0.063406855 -0.01679777 0.076688305
000220 00 b8 d5 bd ac ae 60 3e 1e bb 89 bd e3 ed 54 bd
       -0.10435486 0.21941632 -0.06725143 -0.05198468
000230 19 c1 dc 3d af 8e cd 3c 4b 18 71 bc 10 9e ad 3e
       0.10779018 0.02509245 -0.014715265 0.33909655
000240 d4 1c f8 bc 3d 97 da 3d 7a 37 64 bd 2f ca 24 bd
       -0.030287184 0.10673378 -0.05571697 -0.04023188
000250 59 40 bc 3d e1 2f 89 bd 21 3e 01 3e e0 8d f2 3b
       0.09191961 -0.06698585 0.12621357 0.0074021667
000260 8f 6c 20 ba a0 2a c6 bd 46 b4 76 3d 7d 01 b9 bc
       -0.0006119692 -0.09676099 0.060230516 -0.022583717
000270 4a 7c 2f 3d fe ab c4 bd 0c 6b 1f 3d b0 83 d5 bc
       0.04284314 -0.096031174 0.038920447 -0.02606377
000280 f3 4b 7f 3d 45 ae 5c bd 45 c7 ec bd dc 48 05 be
       0.06232829 -0.053877134 -0.11561445 -0.13016075
000290 1e 08 2d bd 5b 2b aa bc 31 98 15 3d 2a d8 f2 3d
       -0.04224407 -0.020772627 0.036522094 0.11857636
0002a0 62 0d 7f bd c7 1e 8e bd 39 c0 14 bd ec ff 23 3d
       -0.062268622 -0.06939464 -0.03631613 0.040038988
0002b0 a8 3f 7b bc bd 84 d2 38 91 79 7c 3e cd 7e b9 3d
       -0.015335001 0.00010038305 0.24655749 0.090573885
0002c0 7c 61 e7 bc 14 b3 2d bd 0d 2d 04 3e 29 ad 08 bd
       -0.028244726 -0.04240711 0.1290781 -0.033368263
0002d0 a0 36 f9 3d 2e 4f d6 bd 02 38 d4 bc ad fb 97 3e
       0.12168622 -0.10464321 -0.025905613 0.296842
0002e0 61 d2 2c 3d ab ed 94 bb 51 57 ca 3b 33 4b 07 be
       0.04219282 -0.004544934 0.0061749597 -0.1321228
0002f0 3e e0 8f 3d 5a bd 91 bd 06 bb 51 3a ca 70 f2 bc
       0.07025193 -0.07116194 0.0008000586 -0.029594798
000300 8e da 2d 3d 1f e7 41 bd c5 5f fb 3d 1a 1e 44 be
       0.042444758 -0.047339555 0.12274126 -0.19152108
000310 40 4a 89 bd cd 62 83 3d 94 2d e3 3d 58 f3 85 3d
       -0.06703615 0.06415329 0.11092678 0.06540555
000320 b9 4c 69 bd 3a 41 d4 bb 2f e3 a0 3d 7a 9c 95 bd
       -0.056957934 -0.006477502 0.07855832 -0.07305236
000330 a4 51 2e 3b ad 17 e0 3d 44 03 4d 3d 01 9e 0f 3d
       0.0026598955 0.10942016 0.050051942 0.035062794
000340 25 cf 54 3d 75 1d 38 bc af 1d 32 3a 03 51 e5 3d
       0.05195536 -0.011237492 0.00067945843 0.111970924
000350 7b ec f0 3c bd f2 83 3c f6 28 f6 bd dd c6 12 3a
       0.029409638 0.016106958 -0.120195314 0.0005599091
000360 44 cd 00 3d 0a d3 0e 3d 5f 67 0a bd 80 dc 2b 3d
       0.031445757 0.03486923 -0.03378999 0.041958332
000370 02 54 d1 3e 64 1c 0a 3d 0c 21 24 3d 3a 6b 56 bd
       0.40884405 0.03371848 0.04007058 -0.052348353
000380 79 d9 14 bd 7d 0b 16 be 47 87 e3 3c 16 64 23 be
       -0.03634021 -0.1465282 0.027774466 -0.15956149
000390 1e 75 2a 3e 38 5f 23 be 0a e0 6e bc 5e 31 82 3d
       0.16646239 -0.15954292 -0.014579782 0.06357072
0003a0 b8 20 23 3d 3b b0 0a 3d 03 6b f6 3d 16 f7 e6 3d
       0.039826125 0.033859473 0.120321296 0.11277597
0003b0 28 f6 0d bd 82 1e 78 bd 7f 00 f0 3d a3 39 0f bd
       -0.03465858 -0.06057597 0.117188446 -0.034967076
0003c0 c5 d6 41 bd 2c 0f 5a be 88 14 fe 3c 66 fb 07 be
       -0.04732396 -0.2129485 0.03101565 -0.13279495
0003d0 10 44 97 3d 62 ee 3c bd 42 67 a0 3d 00 7b fb 3b
       0.07386029 -0.046125777 0.07832195 0.007674575
0003e0 aa 49 d8 bc 55 98 1c bc 06 7c 94 3b e3 b2 00 3e
       -0.026402313 -0.009557803 0.0045313863 0.1256824
0003f0 74 ca fa bd 97 55 ce 3c c7 02 5a be b0 b4 25 be
       -0.12245646 0.025187297 -0.21290122 -0.16182208

action_model._discrete_distribution.branches.2.bias f4 [3]
000000 a7 31 82 3d c7 ec cd bd f7 84 dd 3c
       0.06357127 -0.10054927 0.027040942
