ML-Agents/results/obs-from-ultimate-volleyball/Volleyball/Volleyball-51499972.onnx (onnx, 291918 bytes, 15 tensors)

discrete_action_output_shape f4 [1, 4]
00000000: 0000 4040 0000 4040 0000 4040 0000 0040
3.0 3.0 3.0 2.0

network_body.observation_encoder.processors.0.normalizer.running_mean f4 [11]
00000000: 0b4b 333e 0189 a03d cf71 123f c501 2d3f
00000010: 5a0c 2341 7fab 64bc 6e25 84bd ec8d ca3b
00000020: c3b1 c0bf f085 40b5 2a8b 9535
0.17509095 0.078386314 0.5720491 0.67580825 10.1905155 -0.0139569035 -0.06452452 0.006181469
-1.5054249 -7.172048e-07 1.1141867e-06

network_body._body_endoder.seq_layers.0.weight f4 [256, 11]
00000000: da6f acbe a621 db3d 9d46 173e 34b8 17bf
00000010: a225 9f3e fb6f 0fbc f8d7 87be 9527 01be
00000020: 6c51 2ebe cae2 84be 7948 0f3f 7e2f 80be
00000030: 2399 083e 3039 083f 3206 71bf 1ab6 ea3e
00000040: f8d1 2e3c af18 20be 483e 80bd 74b8 94bb
00000050: f508 aebe ae39 d6bd a72e febd e09c f8be
00000060: 812a 893e 2e3b 883d dfd8 24bf 19dc 91bd
00000070: f957 74be f294 ac3e c372 fabe 4484 26bd
00000080: 2b31 bebe 45df 7e3e 28de 1dbf ecec 0b3d
00000090: 3dc2 9d3d f35c 603d 393d 283c 64cb a63e
000000a0: 7c4b 853e cdda 943f 4347 3abe 72f6 0fbe
000000b0: 6075 4ebe 0cb1 44be d082 b83d 9ff5 283e
000000c0: 2fb6 ce3d 8ede 9abd e881 113e ea31 0d3f
000000d0: 56b5 27bf 008e a13f 2a1a 2b3f d785 063f
000000e0: b325 07bf 15ae bbbd e38d bbbd 0859 30bf
000000f0: 53fe cabd 7c9d 29be 5f98 0cbe 1996 393e
00000100: 5e2a 03be 4ea7 443d 5149 683e 8bb1 00bf
00000110: e982 c6be bace b4be 457d ba3c 22f8 0f3e
00000120: 92a0 cdbe af6d 8e3e 8c3e 913c 1bbc 63bf
00000130: 3c36 d1be 4cc0 10bf 93f1 9d3e a7eb 2fbe
00000140: fb5e 10bf bcf1 a5be cff3 f8be 3a5a c7be
00000150: 391a ba3d fe0c 5dbf c11c 173f e0bc 873e
00000160: 5da5 b2be 558b 363f a249 803e bb34 b13c
00000170: 2e95 45bf 03e5 1b3d bb0d 2cbc 4438 4e3a
00000180: 981a f83d f6e5 ba3e 3f0b 393e de78 923d
00000190: b74c fbbe c8b9 b93e 8bbe 5b3e 1bca a13e
000001a0: dea2 b63e 2719 99be de2d c0be 1aef c5be
000001b0: 6ead 743e 1e3d babe 8f78 0dbe 0a6d eb3e
000001c0: 381a 9bbe 4a02 eabe 06b9 b23e daa3 d73e
000001d0: 0c30 923b 0f9a fbbe 29e9 da3e be4a 63bf
000001e0: ba91 b2bc a9e9 3b3e 1316 e1be 8de7 bcbe
000001f0: 01b6 5bbf ff8e 24bf eb2c 91bd 1bf3 b0be
00000200: 05f7 dbbd 0704 133e 6ebb 72bf 9b04 00bd
00000210: 5b06 833e ecc1 14bf 13e6 c3bd 507f fc3e
00000220: f11d 133e 6d7f 0d3f 7763 043d 5345 453f
00000230: cac3 9bbe 5fed 193f 731e 03bf 95b8 c23d
00000240: 318f ba3d 1be1 f1be 0037 b53e d9b5 2f3e
00000250: 07c4 2abe 4f97 073f a6c4 0a3e 1d3a 9cbd
00000260: ea66 ad3f 6fc6 6cbd 0aee f13e ec9e 593e
00000270: 690b 0a3f 8c14 433f b541 2bbe bf44 59be
00000280: 4334 cd3e 314d 3f3e e6a7 7b3d 7514 84be
00000290: 09ee 44bf 89be 0bbf 5440 01be f87b 19bf
000002a0: 96de 983f a192 1c3f b97c 0dbe 033a f6be
000002b0: 52da fc3e 2639 78be 0827 f5bd 28df 193e
000002c0: 0bb2 ebbe f441 6fbe 13bd 3d3f f3f8 803e
000002d0: 5569 ae3e 0647 02bf 9e64 4e3e 6baf a5be
000002e0: f3ff 2d3e 70e3 2fbf 7099 d43e 13de ae3e
000002f0: ad16 7c3c d954 68bf e376 e8bd 75c3 e0bd
00000300: 157c 05bf 0d0a 35bf 4129 c43e a1c0 d0be
00000310: 70f7 bb3d cd9c 623e 6ada 59bf f64a 843e
00000320: 71f1 e83e 8c1c fc3e 867e 8e3e 1311 71be
00000330: d359 4b3e 0cfa 153f 7ac4 44be 445f af3e
00000340: 98bc 663d c1dc 96be 20bb 13bf fba6 94be
00000350: 4aa5 f1be 724f 813e ee1f 6c3e 69ed 193d
00000360: 2b0f 80bd e651 20be c191 d4be 752b 64be
00000370: ee5f f4be 35be bb3e 86a4 00bf b3ae 34be
00000380: bafc e63e 8f30 173d 87e5 863e 3fc7 e6be
00000390: 1a83 123f 7150 b43e 513e 7c3e da31 33bf
000003a0: eb41 78be d635 143f 630b f53c dd37 fa3d
000003b0: cb39 813e 0002 0bbe c4aa cebe 74ea c5be
000003c0: df72 47be d12a acbd fb6e 983e 3ce1 dfbe
000003d0: 233b dabe 9668 4dbe 2f5c 103f 3d24 653e
000003e0: 9a39 fd3d c2d0 06bf 6e16 693e b6a3 a23e
000003f0: b081 26bf 5256 093f 213f 91be 1242 d5be
-0.33679086 0.10699777 0.1477303 -0.59265447 0.310834 -0.008754726 -0.2653196 -0.12612756
-0.17023247 -0.25954276 0.5596996 -0.25036234 0.13339667 0.5321226 -0.9415008 0.45842057
0.010670178 -0.15634416 -0.06261879 -0.00453859 -0.3399121 -0.1046022 -0.12411242 -0.48557186
0.2679024 0.06651913 -0.6439342 -0.071220584 -0.23861684 0.33707386 -0.4891568 -0.040653482
-0.37146887 0.24889858 -0.6166711 0.034161493 0.07703064 0.054776143 0.010268503 0.3257705
0.26034153 1.1629273 -0.18191247 -0.14058855 -0.20161963 -0.19208163 0.090093255 0.16499947
0.100933425 -0.0756198 0.14209712 0.5515429 -0.6551107 1.262146 0.668368 0.52547973
-0.527919 -0.09164063 -0.09157922 -0.6888585 -0.0991179 -0.16563982 -0.1373 0.18123664
-0.1280913 0.048011117 0.22684218 -0.5027091 -0.38771752 -0.3531397 0.022764811 0.14059499
-0.40161568 0.27818057 0.01773002 -0.889589 -0.4086169 -0.5654342 0.3084837 -0.17179738
-0.5639493 -0.3241099 -0.4862351 -0.38936025 0.09087033 -0.8634795 0.5902825 0.26511288
-0.34891787 0.71306354 0.25056177 0.02163159 -0.77180755 0.0380602 -0.0105013205 0.00078666606
0.12114447 0.3650357 0.18070696 0.0715196 -0.49081966 0.36274552 0.21459405 0.31599507
0.35671133 -0.29902002 -0.37534994 -0.38658983 0.23894283 -0.36374754 -0.1381552 0.45981628
-0.3029344 -0.4570487 0.34906787 0.42117196 0.004461294 -0.49140975 0.42756012 -0.8878592
-0.021798003 0.18350853 -0.43962154 -0.3689541 -0.8582459 -0.64280695 -0.070886455 -0.34560475
-0.107404746 0.14357005 -0.94817245 -0.031254392 0.25590786 -0.581084 -0.095653675 0.49315882
0.1436689 0.5527256 0.03232142 0.77058905 -0.30422813 0.60127825 -0.51218337 0.095078625
0.09109343 -0.47242054 0.35393524 0.17159213 -0.16676341 0.52965254 0.13551578 -0.07628272
1.3547032 -0.05780643 0.47251922 0.2125203 0.5392366 0.7620323 -0.16724284 -0.21217631
0.40078935 0.1868179 0.061439417 -0.25796857 -0.7692571 -0.5458761 -0.12622195 -0.59954786
1.1942928 0.6116124 -0.13817109 -0.48091134 0.49385315 -0.2424055 -0.11970335 0.15026534
-0.46034274 -0.23365003 0.7411663 0.25189933 0.34064737 -0.50889623 0.2015557 -0.32360396
0.16992168 -0.6870642 0.41523314 0.34153804 0.015386266 -0.9075447 -0.11350801 -0.109747805
-0.5214246 -0.7071846 0.38312724 -0.40771964 0.09178054 0.22130127 -0.850989 0.2583844
0.45496705 0.4924053 0.27830905 -0.2354167 0.19858484 0.58584666 -0.19215575 0.3425237
0.0563322 -0.29465297 -0.57707405 -0.29033646 -0.47196418 0.25255924 0.23059055 0.037579928
-0.06252893 -0.15656242 -0.4151745 -0.22282203 -0.4772944 0.36668554 -0.5025104 -0.17644767
0.4511469 0.036911543 0.2634699 -0.45073888 0.57231295 0.35217622 0.24633147 -0.6999794
-0.24243896 0.5789465 0.029912656 0.12217686 0.25239405 -0.13574982 -0.4036466 -0.38655436
-0.19477414 -0.08406604 0.2977217 -0.43726528 -0.42623243 -0.20059428 0.5639066 0.22377105
0.12364502 -0.5266229 0.22762462 0.31765527 -0.6504164 0.5364734 -0.28368476 -0.4165197

network_body._body_endoder.seq_layers.0.bias f4 [256]
00000000: 0221 b0bd 39a0 013e 3ef9 81bd 6047 8c3e
00000010: f747 453e 8573 1fbd 7cb9 6c3d 3d9c 10be
00000020: 1640 343d 973c 533e 78a1 3c3e ee71 90bd
00000030: 4b9c 523e 8873 8b3e d4b2 033f ade7 e73e
00000040: 1b60 a63e f3f1 f13c 996c 503e 8f2d efbd
00000050: 8c12 193e 952c 083e 7b94 8d3d 3f8e 9dbd
00000060: 529f 4a3e 671d 873e 5f2a c23d 8953 923e
00000070: 9a96 573d 8d7b f0bd 10cd 023c 221f d23d
00000080: 9144 163e cdb8 c83e 722c ea3e 7cd7 d83c
00000090: 4c21 30be e3d5 cf3d 4c1c b43e c822 163f
000000a0: 3910 823e 73f3 a33e 97d8 273d ff3e c63c
000000b0: 4fed a5bd 16de 793e eb84 153f bee8 913e
000000c0: 7fc6 dbbd ce27 b93e afae d23d bb70 27bd
000000d0: 66bf 0fbe aaaa 3a3e c9c2 523e ffeb b03a
000000e0: f811 b13a bf61 0a3e 2601 c83e a050 dd3d
000000f0: 570c 9f3c bcae 693e 6fee 493e 72c4 35be
00000100: 4690 01be 5176 473e 8e30 d43e 1ec5 813e
00000110: f761 d53d 3ae9 1dbd 376c b8bc ac05 10be
00000120: d9df 003e f0f9 e7bd 0647 583e 48e1 94bd
00000130: bdd4 af3e 7a2f 623e 6442 2b3e 1d51 3f3e
00000140: 6894 1a3e 218e 0f3d adbc bc3e 51cd 16bd
00000150: 26d9 03bd d2d4 ae3d 6f16 993e 5fa3 b6bd
00000160: b8df f7bd f1c1 d23e 7716 b4bc cc1a 55bd
00000170: 6c25 f93e 1eb9 d03e b545 e8bd fbd0 a43c
00000180: 138e 9c3e 7422 5d3e 1060 48be fcc1 9f3d
00000190: 1473 c1bd 348d d53c d926 ae3c 8343 d43e
000001a0: ad85 a43e c510 bf3e 13a3 183e 5bf6 633e
000001b0: e9f2 d8bd 0464 283d 5414 0cbd 1324 983e
000001c0: 6fae ec3e f866 b63e b62d 063d 51d9 353e
000001d0: bf79 a73d 7854 9b3d 53e7 c7bd 4aac 6a3e
000001e0: 8cb3 1dbe 7d2e 08be 5e1f 9b3e 9174 9c3e
000001f0: 88d2 663e 2b44 3bbd 5771 e93e 5b01 80ba
00000200: 4aeb 553d 0ce5 debc 26cf 03be a7f3 823e
00000210: ee49 48bb cd08 2d3e cf0c dd3d 71c2 ec3d
00000220: 8dee 733e e729 823e c9e5 87bd f5b6 4cbd
00000230: 875c 323e 7923 b23d 9ad6 df3d 0eb8 c83e
00000240: 79be f9bd dfe3 833c 3dfc e0bb 7207 603e
00000250: 73cb 103e b0da 3e3e d027 493e e2d5 823d
00000260: d791 29bd 4f54 1a3e 35b2 bd3e c205 cc3e
00000270: 28c3 0fbd 2b06 0abe c2f7 eb3d ecf4 00be
00000280: a097 433e a279 3d3e b3a8 5a3e 6203 ab3d
00000290: b157 943c 3540 cdbc 8780 52bd 6e45 b23e
000002a0: 0fc3 773e 043e 7f3e 938f c03e f371 f0bd
000002b0: f282 bf3e 942f 8c3d 8aaa 9f3d 1cd1 0fbe
000002c0: 428a 02be 0e1c 723e 0534 5d3e d794 d43e
000002d0: edd3 5e3e 74b0 053c d5ad 86bb 2b20 123d
000002e0: 69ea 94bd 79db 803e 1433 833e 9a0a 973c
000002f0: 0f84 a73e ea5b 0fbe 7f73 e03e f014 873e
00000300: 1096 28bd bcde 8f3d 92d7 5e3d ee7e 1abe
00000310: fd2f bdbc 22f2 f43e d06c 1e3e 481a 1c3d
00000320: 9fea cabd 14f0 1a3f 74e5 4b3d caf3 6f3e
00000330: 8949 e33e 08c6 d83e 04ef 803d ffaa a73e
00000340: fed7 cb3e d13d 9d3d c48e 173d f9e2 3b3e
00000350: ffd7 843e c430 62be 01cb 0d3f dbe7 a13e
00000360: d0d8 373c ab17 053e 0f92 233d f51b fc3d
00000370: 99b3 0a3e 6b9e 4c3e d4ca 51bb 38ff 833d
00000380: 40d8 9b3e 0200 11bc eb49 3cbd 8139 13bd
00000390: 5037 7e3e 3491 ae3e 3c3e 783e a75a c93e
000003a0: c423 36be 5737 813e 28cf 9d3e b629 d8bd
000003b0: 0175 9a3e 928e cebd bfc3 e13c 1503 e13e
000003c0: 5b37 163e 5fde f83d 241a 053e f1b8 1b3e
000003d0: 8d55 99bd 4cea d53e 61d7 3b3e 8727 e1bb
000003e0: 7fe3 013f 0aaa b43e e7aa c63e 54a4 6d3b
000003f0: afce 023e 9968 183d eb6b 9d3d 2857 c03e
-0.08600046 0.12658776 -0.06346367 0.27398205 0.19265734 -0.038928527 0.05779408 -0.141221
0.04400643 0.20628582 0.1842097 -0.0705298 0.20567434 0.2723658 0.51444745 0.45293942
0.32495198 0.029534316 0.20353927 -0.116786115 0.14948481 0.13298257 0.06913086 -0.07693147
0.19787338 0.2638962 0.09480738 0.28579357 0.05263386 -0.117423154 0.007983461 0.10259844
0.14674594 0.39203492 0.45737034 0.026469938 -0.17200202 0.101482175 0.3517784 0.5864682
0.25403002 0.32021675 0.04097804 0.02419996 -0.08101904 0.24401125 0.5840594 0.2849788
-0.107312195 0.3616318 0.102872245 -0.040878993 -0.14037856 0.18229166 0.20582117 0.0013498067
0.0013509383 0.1351385 0.39063376 0.108063936 0.019415064 0.22820562 0.19719861 -0.17750719
-0.12652692 0.19478728 0.41443294 0.253457 0.10419076 -0.0385525 -0.022512538 -0.14064664
0.12585391 -0.11326969 0.21120843 -0.072695315 0.34341994 0.22088423 0.16724545 0.18683286
0.15095675 0.035047654 0.36862698 -0.0368169 -0.03218951 0.08536686 0.29899928 -0.08917879
-0.12103218 0.4116359 -0.021983368 -0.05202751 0.48661363 0.40766233 -0.113414206 0.02011918
0.30577144 0.21595174 -0.19567895 0.078006715 -0.094457775 0.026068307 0.021258758 0.41457757
0.32133237 0.37317482 0.14905958 0.22261946 -0.105932064 0.041111007 -0.034199074 0.29715022
0.46226832 0.35625434 0.032758437 0.17758681 0.08177518 0.075844705 -0.097609185 0.22917286
-0.15400523 -0.13298984 0.3029737 0.30557683 0.22541249 -0.045719307 0.45594284 -0.0009766029
0.052226342 -0.027208827 -0.1287199 0.25576517 -0.0030561644 0.16897888 0.10793459 0.11560524
0.23821469 0.25422594 -0.06635625 -0.04997917 0.17418109 0.08698172 0.10929604 0.39202923
-0.12194533 0.016099868 -0.0068660066 0.2187784 0.1414011 0.1863811 0.19644094 0.06388451
-0.04139885 0.15071224 0.37050024 0.39848143 -0.035098225 -0.13478915 0.115218654 -0.1259343
0.19100809 0.1850343 0.21353416 0.083502546 0.01810822 -0.02505503 -0.051392104 0.34818596
0.24195503 0.24926001 0.37609538 -0.11740484 0.3740459 0.06845012 0.077961996 -0.14044613
-0.12748054 0.23643515 0.21601875 0.41519806 0.21760531 0.0081597455 -0.004110078 0.03567521
-0.07271273 0.25167444 0.25624907 0.018437672 0.3271794 -0.13999906 0.43838117 0.26383162
-0.041158736 0.07024905 0.054404803 -0.15087482 -0.023094172 0.47840983 0.15471196 0.038111
-0.09908032 0.6052258 0.04977937 0.23432842 0.4439204 0.42338586 0.062955886 0.32747647
0.39813226 0.07677806 0.037001386 0.18348302 0.25946042 -0.22088915 0.55387884 0.31622204
0.011221126 0.1299731 0.039934214 0.1231002 0.13545074 0.19982307 -0.0032011764 0.064451635
0.30438423 -0.0088500995 -0.04596893 -0.035943512 0.24825788 0.34095156 0.2424249 0.39326975
-0.17787081 0.25237533 0.3082211 -0.10554831 0.30167392 -0.10085787 0.02755916 0.43947664
0.14669554 0.12151789 0.12998253 0.15207268 -0.07487021 0.41780317 0.1834388 -0.006871167
0.50737756 0.3528598 0.38802263 0.0036261277 0.12774156 0.037209127 0.07686599 0.37566495

network_body._body_endoder.seq_layers.2.weight f4 [256, 256]
00000000: 585a a23d bbf3 0f3e bbe5 17be 9861 04be
00000010: d16d f1bd c07c 32be cfa2 0ebe 1b7c 48be
00000020: 0322 65bc 59c8 80bc 3889 c53d 3edc 38bd
00000030: c8b4 6fbe 91d2 2fbe 4bbb 27be 6910 9d3d
00000040: 49ba 4c3e c578 c5bc d43a a43d c9f0 66be
00000050: 6951 edbc 1bad 113e 6f2d cbbd dd39 1fbe
00000060: 462e 003e 1409 1abe c380 8bbd 031f 243d
00000070: 139a 393e 5d07 883d 9724 f33d a787 ae3d
00000080: 70f8 0b3e ec91 bdbc 2555 a0bd ef97 773d
00000090: 5a91 06be 49b2 35be beec 7abd f3fd adbd
000000a0: 9d17 dbbd d5e1 80bd 1a04 b2bd 15a8 5f3d
000000b0: acb3 3e3d 5418 713d 949d b0bd 7a42 74bd
000000c0: 3773 0bbe c724 15be 87d5 643e 92af 3e3e
000000d0: 40c9 45be 0a8e c43b 7492 6d3e 4502 ed3d
000000e0: 5676 a5be c88b 3cbe c3c0 2c3e 3b44 d4bd
000000f0: 5598 b93d 4590 873d d84b 4b3d 8d5b b7bd
00000100: db1e f4bd 98f4 d23d 0f65 88bd c929 1d3e
00000110: 45cb e6bd 3d3e 86bd 8012 17be 58ca 2cbd
00000120: ffd0 cd3c 5c62 06be 614f 4bbe e15d 9dbe
00000130: 4ca1 fabd ccf8 c13b 671f 063e 9cd3 2c3d
00000140: bc8d 393c ba12 293e af3e 7fbc 81c8 8c3d
00000150: 0272 1e3e a31e 31bd f2d4 8f3e d4d5 6d3c
00000160: adc9 24be b2c6 a73c fc6a 1ebd 4b00 83bd
00000170: e9a4 8f3d e299 23bd 026b 6cbd f9bc 02be
00000180: 3b0c abbd c134 3abe 2013 51bd e2ae 3a3e
00000190: c7f1 1cbe 7719 983e 3a9b 893c c50b b8bd
000001a0: b962 f0bc 512a 15be 6b5f f43b 9d2c dbbc
000001b0: ad28 23be 4dc5 a4bd 8f0a 803b 70d0 a73d
000001c0: 33af 823d 7efb 493c 8c02 50be fb4d 753e
000001d0: aa4f 88bc 1b03 41be 42d5 68bd f06e 1abe
000001e0: 8cd6 1cbd bec6 26be 6845 16be d4fd 1d3e
000001f0: d4da 2c3e bbb2 833e 2aa0 c6bd ea36 4a3d
00000200: 8955 9dbe 0445 af39 6300 1a3d 3b15 c13c
00000210: 4fd4 0b3e d4ce edbc 857f 0e3d 5a95 f3bd
00000220: f284 323d f101 513d 11ec 96be b1bc f33d
00000230: 3e64 bcbd af49 8bbd 0be3 d93d 86c5 203e
00000240: 9dde 923d 4a01 15bd 6b78 7abe 7a57 70be
00000250: ad6e 143e 0483 a53c ca0d 32be 857a 403e
00000260: 91f7 51be 8de1 8a3d 911d b6bd 1334 dc3d
00000270: c1a7 03bd e61b 223d 76e8 13be f08b 79bd
00000280: 0285 213e 6021 d1bd a450 19be 532d 22be
00000290: 450d aebd 7a37 5fbe c04b eb3d 3888 59be
000002a0: d3a5 13be e652 99bd 1e31 3fbd 4a44 ce3d
000002b0: b964 a03d 387d 15bd 4790 babd da8a a83c
000002c0: 3c02 a23d e945 923d e040 a43d ab4b aebd
000002d0: b815 ed3a 8b6d 0d3d a683 dbbd 7793 e83d
000002e0: e4fd 3abd 44e6 5a3e 441e 3d3d 3d73 20be
000002f0: 6134 643c 7093 803d b8cb dcbd 267f a7bc
00000300: 2cdb dcbd 7576 95ba 11e6 c43c ee95 dbba
00000310: 71c2 cb3d 414f 48bc e6cf e43d 86d8 2a3e
00000320: c457 2f3e e430 b1bd 1088 363d 935f 983b
00000330: fd02 443d 5b79 04bc 0b83 d7bc 7e46 fabd
00000340: 7a69 873e 90a2 2a3c 70b9 9ebd c084 c5bb
00000350: 7ae2 3fbc 98d9 19be 57a0 4fbd 3946 82bd
00000360: 0b31 f83b dd96 df3d 59da 313e 9160 f6bd
00000370: a029 9e3d 0d7b 383d cc94 ce3d 9ef7 38bd
00000380: 1b63 57bd c6c5 8ebe b371 cabc cc3d 60be
00000390: dda0 bcbd fb6a 95be 2ebd b93c 5188 543c
000003a0: de9c bebd 5507 fbbd 60ef ca3d 2938 053c
000003b0: 2c49 83bd f862 f73c 20f7 09be 92c5 0abe
000003c0: 0720 a7bc efca 8a3d 6ee8 fcbc 002f 1ebe
000003d0: a0a8 0fbe d0cf 983d 8958 8f3d 74aa 3cbd
000003e0: 81e1 803c 5580 3dbe 0647 993d 1cf7 dabd
000003f0: 73c6 cf3b cf61 913e 4058 14be 015b 1abd
0.07927388 0.1405782 -0.14833729 -0.12927854 -0.11788524 -0.17430401 -0.13929294 -0.19578592
-0.01398516 -0.015720533 0.09645313 -0.045131914 -0.23408806 -0.17170168 -0.1638004 0.076691456
0.19992937 -0.024105439 0.08019033 -0.2255279 -0.028969483 0.14226191 -0.09920775 -0.15549417
0.12517652 -0.15042526 -0.06811669 0.040068638 0.18125181 0.066420294 0.11872213 0.085219674
0.1366899 -0.02314087 -0.0782874 0.06044763 -0.13141385 -0.17743792 -0.06126093 -0.084957026
-0.10697863 -0.06293074 -0.086921886 0.054603655 0.046558067 0.05886109 -0.08623806 -0.05963371
-0.1361817 -0.1456481 0.22347079 0.18621662 -0.19315052 0.0059983777 0.23200399 0.115726985
-0.32316846 -0.18412697 0.16870408 -0.103645764 0.09062258 0.06619314 0.049632877 -0.08953009
-0.11919948 0.10300559 -0.066599004 0.15347971 -0.11269239 -0.0655484 -0.14753151 -0.042185158
0.025124071 -0.13123459 -0.198545 -0.30735686 -0.12237796 0.0059195515 0.13097917 0.042193994
0.011325296 0.1651105 -0.01557891 0.068741806 0.15473178 -0.043242108 0.28092152 0.014516313
-0.16092558 0.020480487 -0.038676247 -0.0639654 0.07013876 -0.039941676 -0.057719238 -0.127674
-0.08351942 -0.18184187 -0.05104363 0.18230775 -0.15326606 0.29706928 0.01679765 -0.0898662
-0.02934395 -0.14566924 0.007457664 -0.026754672 -0.15933485 -0.08045445 0.0039075087 0.08194053
0.06381073 0.012328027 -0.20313472 0.23955528 -0.01663955 -0.18848841 -0.056844003 -0.15081382
-0.038290545 -0.16286752 -0.14674914 0.15428859 0.16880351 0.25722298 -0.096985176 0.049368776
-0.3072932 0.00033430022 0.037598025 0.023569694 0.13655208 -0.029029287 0.03478958 -0.11893721
0.043583818 0.051027242 -0.2947698 0.119012244 -0.09198807 -0.068011634 0.10639008 0.15700349
0.07171366 -0.036378182 -0.24459998 -0.2347087 0.14495344 0.020204075 -0.17388073 0.18796737
-0.20504595 0.06781302 -0.08892358 0.1075212 -0.032142404 0.039577387 -0.14444146 -0.06092447
0.15773395 -0.10211444 -0.14972168 -0.15837602 -0.08498625 -0.21798506 0.114890575 -0.2124337
-0.14418726 -0.07486515 -0.0466777 0.10071619 0.07831711 -0.03649637 -0.0910955 0.020574022
0.079105824 0.071422406 0.080201864 -0.08510526 0.0018088138 0.034528296 -0.10718469 0.11356252
-0.045652285 0.21376902 0.04617144 -0.1566896 0.013928504 0.062781215 -0.10781044 -0.020446371
-0.10783991 -0.0011403101 0.024035485 -0.0016753057 0.09949196 -0.012225927 0.11172466 0.1668416
0.17123324 -0.08651903 0.044563353 0.004650065 0.047854412 -0.008085574 -0.026307603 -0.122204766
0.2644766 0.0104147345 -0.07750213 -0.006027788 -0.011711711 -0.15024412 -0.05069002 -0.0636105
0.0075742058 0.10917447 0.1736845 -0.12030137 0.07722783 0.045039225 0.100869745 -0.04515802
-0.05258475 -0.27885264 -0.02471242 -0.21898574 -0.0921037 -0.29183182 0.022673216 0.0129719535
-0.09307264 -0.12257258 0.099089384 0.008131065 -0.06410441 0.03019856 -0.13473177 -0.1355193
-0.020401014 0.06776988 -0.03087255 -0.15447617 -0.14029169 0.07461512 0.069993086 -0.046060994
0.015732529 -0.18505986 0.0748425 -0.106916636 0.0063407957 0.28394935 -0.1448679 -0.037684444

network_body._body_endoder.seq_layers.2.bias f4 [256]
00000000: a68f 093e f39b 9e3d 2a76 73be db9e 8d3d
00000010: 154f 553d 2d2e c9bc 7c17 eb3d 28ac 62be
00000020: 8246 343e 5d76 b63d 35cd 1c3d 4587 373b
00000030: 81bf aebd fc49 1dbe 4ed6 4cbd 514f 2cbd
00000040: 0f87 043d 1261 51be d8da 86ba 5b15 a43d
00000050: 8729 8dbd 73eb d9ba 943b a0bd 6782 343e
00000060: 30b4 42be bb2c 733d 0b7a cdbd 78d5 16be
00000070: 424d f23d 7b77 c13c c5e5 593d cd61 413c
00000080: 540b d03d dd2e 59be 56fd 98bd 64d2 0abd
00000090: bb11 35be ce7d 273b 2850 513e ab87 d5bd
000000a0: 638e 07be b226 25bd d220 263e 08c9 a4bc
000000b0: df3a 2c3e 9bc3 57bd af98 d23c 37ae 9f3d
000000c0: f1c7 60bd e57f 39bd 6108 a1bc b723 5abe
000000d0: 6390 3abb e2de ea3c aa9e 3c3d e296 37bd
000000e0: 9ba7 85bc ee70 cbbc 78f2 54be ece8 80be
000000f0: 96cc 80be 2038 c1bd 884d 143d f2e4 36be
00000100: e7d0 a83d 45f6 98bc cdb5 a33c ea87 14bd
00000110: 639d 643d 7ddb d8bd d67e c73d 5555 6e3d
00000120: 04a0 083e 2941 04be 175e 4c3e 5807 47bd
00000130: a91d 06bc 1e34 bcbd 4b23 2dbe 268f 813c
00000140: 4ed7 82bd f65c 303d d1a3 653e 317f 53bc
00000150: 6ec5 063d 8600 83be 4f64 75be 82c9 5cbd
00000160: 1ac5 13be 43c7 20bc ff0a 84be 52dc bcbd
00000170: 10b8 4f3c 25d8 44be 80e4 833c 5a2f 17be
00000180: 9d4b f23d 4e5c 58bc e632 43bd dd0e 44be
00000190: c09a d43d 47b7 23bd 2a95 253e 17e1 ee3c
000001a0: 7dab fa3d f580 27bc edd7 9dbd cf93 e53d
000001b0: 160f dcbc cd8e ed3d 727e 67be bff1 b5bd
000001c0: 7828 81be 0c81 a6bd 3216 823d a9f1 ab3d
000001d0: 41eb b53c c136 c8bc 901f e2bc b801 aabd
000001e0: 0ebc 7fbd c85e d53d 0b42 19bc fcd5 4cbe
000001f0: 2770 9c3c 0ea7 933e d320 143e 5bd5 66bc
00000200: 6328 4b3e 9dc8 b9bd 2ea8 f7bc b3a6 af3c
00000210: 6c52 0cbe 1936 913d 334b 873e d824 283d
00000220: b115 e53d ab2e 3a3d 65ac dabd dd03 bbbb
00000230: 490c 44bc c9d4 35bd ee85 05be 3ab8 23be
00000240: eb3a 333e 1025 473e 1de8 3abe 9887 7d3d
00000250: 9467 643c 547a 84bd 3686 543e 0174 473c
00000260: 02c1 93bd 2ea2 dfbd 6113 e93d d66e 783d
00000270: fed1 9f3e dba6 a6bd 271f 6f3d 1a3a 8a3b
00000280: 1a37 c33d bc98 923b e5fb 783d 0632 d2bd
00000290: 9763 1f3d 6351 6f3d 7c3d 78be de06 63bd
000002a0: 5d54 10bc 98b8 1abd 9c40 043a d85f 83bd
000002b0: 3b10 39be 89ed c0bd 9c44 85bd 1335 e53c
000002c0: 8c3c 873d 192f 23bd 5d96 e6bd 7a17 0fbd
000002d0: f0d8 95bd 2664 9abe 86aa eebc d57a 9f3c
000002e0: d203 413d 80ac 6bbe 79e4 2fbe 674c ccbc
000002f0: aa1c 17be 7782 8abd 1287 bb3c 1342 f93d
00000300: 8964 103d e3f6 873d 1faf 1b3e 2736 04be
00000310: 4ff4 0c3c deec 7e3d 4b28 7f3e 1a98 383d
00000320: a9fd 48be 422a 863d 68bf 17bd 13f9 59be
00000330: 38a7 45be e5df 95bd 92bf e7bd 309e 75bc
00000340: c7ba 9f3c 3463 0e3e 1e16 70bd f70c a03e
00000350: e4dc f2bc 1a83 8bbc 780f d83d c9d4 1a3e
00000360: bad2 143b b7a5 063e 0650 c8bc e730 463d
00000370: edc4 c1bd 28a9 eb3d 54d7 113d cc88 8bbd
00000380: 08d6 69bc f554 77be f469 473d 858a d5bd
00000390: 5ced 4ebd cb53 4b3c b309 3fbd cd1b a03d
000003a0: fb5f 873e f485 183e a13d 3fbe bbfb debd
000003b0: 3a69 9abd 3b76 a5bd 7dcf 843e be4f 353e
000003c0: 1bf7 85be 800c d4bd d0d5 18bd b2ad 3cbe
000003d0: 5091 e43d 758d 9d3c 21e7 563e 3fe5 933d
000003e0: c051 2f3e 20a0 50be d672 113e 0eab a1bd
000003f0: 2636 7ebd 27cd f1bc e10e 4ebe 2a49 04be
0.13433704 0.07744589 -0.23775545 0.06915065 0.05207737 -0.024558151 0.11479089 -0.22135985
0.17605022 0.08909295 0.03828164 0.002800421 -0.0853262 -0.15360254 -0.050009064 -0.04206783
0.032355364 -0.20447186 -0.0010288609 0.08011886 -0.06892686 -0.0016625955 -0.078238636 0.1762787
-0.19014049 0.05936883 -0.100330435 -0.1472987 0.11831142 0.023616543 0.05319764 0.011803103
0.10158411 -0.21209283 -0.07470195 -0.03389205 -0.17682545 0.0025557163 0.20440733 -0.10426267
-0.1323791 -0.040320106 0.16223457 -0.02011539 0.16819333 -0.05267678 0.02570757 0.07796901
-0.05487818 -0.045287985 -0.019657316 -0.21302687 -0.002846741 0.028670732 0.04604975 -0.044821627
-0.016315272 -0.024834123 -0.2079562 -0.25177705 -0.25156087 -0.09434533 0.036206752 -0.17860773
0.0824297 -0.018672118 0.01998415 -0.03626243 0.05581416 -0.10588739 0.09740989 0.058186848
0.13342291 -0.12915482 0.19957767 -0.048590988 -0.0081857825 -0.09189628 -0.16907994 0.015815329
-0.06388722 0.043057404 0.22425772 -0.012908743 0.032903127 -0.25586337 -0.23964046 -0.05390311
-0.14430657 -0.009813133 -0.2578964 -0.0922171 0.012678161 -0.19223078 0.016100168 -0.14764157
0.11830828 -0.013205601 -0.047655962 -0.19146295 0.10381079 -0.03996971 0.16170183 0.029160066
0.1223974 -0.010223617 -0.077072 0.11209833 -0.026862662 0.11599503 -0.22606829 -0.08884
-0.25226188 -0.081300825 0.0635189 0.083957024 0.022206904 -0.024440171 -0.02760294 -0.08301109
-0.062435202 0.10418469 -0.009354125 -0.20003504 0.019096447 0.2883839 0.14465646 -0.014088954
0.19839625 -0.09071467 -0.030231562 0.021441793 -0.13703316 0.070903964 0.2642456 0.041050762
0.11185778 0.045454662 -0.10677413 -0.0057072476 -0.01196582 -0.04439238 -0.13039371 -0.15988246
0.17502944 0.19447732 -0.18252607 0.06189689 0.013940711 -0.06468645 0.20754322 0.012173654
-0.07214548 -0.10919605 0.11380649 0.060652576 0.312149 -0.08137294 0.05837932 0.004218352
0.09531994 0.0044737738 0.0607871 -0.102634475 0.038913336 0.058427226 -0.24242204 -0.05542647
-0.008809176 -0.0377737 0.0005045028 -0.06414765 -0.18072598 -0.09420306 -0.06507227 0.02797941
0.06603345 -0.039839838 -0.11259148 -0.0349345 -0.07316768 -0.30154532 -0.029134046 0.01946775
0.047122784 -0.23015022 -0.17176999 -0.024938775 -0.14757028 -0.067631654 0.022891555 0.12170806
0.035252128 0.06638887 0.15203522 -0.12911282 0.00860317 0.062237613 0.24917714 0.04506693
-0.19628014 0.06551029 -0.037047774 -0.2128642 -0.1930207 -0.07318095 -0.11315836 -0.014991328
0.019498242 0.1390503 -0.058614843 0.3125989 -0.029646344 -0.017030288 0.105498254 0.15120234
0.002270861 0.13149153 -0.02445222 0.04838648 -0.09461389 0.11506873 0.035605744 -0.06813201
-0.01427222 -0.24153502 0.04868503 -0.10426811 -0.050519332 0.0124101145 -0.04664011 0.078178026
0.26440415 0.14894849 -0.18675853 -0.108878575 -0.075396016 -0.08079191 0.2593955 0.177062
-0.2616509 -0.10353947 -0.037313282 -0.18425635 0.11160529 0.019232491 0.20986606 0.072214596
0.17121029 -0.20373583 0.14203963 -0.07893954 -0.06206336 -0.02951677 -0.20122863 -0.12918535

action_model._discrete_distribution.branches.0.weight f4 [3, 256]
00000000: 8bc9 56bd 9121 8d3d 0220 54bd 2274 383e
00000010: 755f f4bd 7480 ed3c 16bf 2dbe 9902 bbbe
00000020: 9a35 3fbd 8cf4 0d3e 886d 0f3d e0d7 7b3c
00000030: 5cea 9dbd 290b 26bd 5af4 c0bc 9d5e fbbc
00000040: 7a54 45bc 00d6 bfbc 1089 5abd 79d7 a0bc
00000050: 1531 d5bd 5f8f ebbc 409f cabb 52e1 53bd
00000060: 2ac1 aa3c a3a8 76bc 8c5d 4b3d 59d6 94be
00000070: ba96 073d 0704 323d 7d9f d1bd ae9d 8e3e
00000080: b341 3ebb ad60 c3bd 03a3 6e3e 1d6b d4bd
00000090: bf68 5dbe 08c4 843e c71a 82bc 0ed6 5c3e
000000a0: ea25 9fbe 6b15 8abd f40c 36be 1714 a83d
000000b0: 8406 633c b34a 1e3d 6a87 223e 1cb0 88bd
000000c0: 3db9 8d3c 8335 08bf cded f33d aabc aebd
000000d0: 6873 71bc 1d7a 0d3e 4877 4dbc 1f54 1b3d
000000e0: 6a83 c83d f57a 92bd c32f 14be 7f13 84bd
000000f0: e257 c4bd dd44 bc3d ff9b f73c 7342 243d
00000100: 3987 403c f00f a7bc 6796 e0bc 926e 1dbd
00000110: 78bd b2bc 3719 48bc 75e5 813d c414 95bd
00000120: 4bf3 663d 262f 33be 3b59 bebd 8164 9bbc
00000130: fa5b 0a3d 7f79 d3bd 03b3 11be d781 993c
00000140: 94e5 06bf 422b 28bd c2ff 973c 08d0 753d
00000150: 7bf0 013d ca15 45bd cda7 513c b2ca c5bd
00000160: d3da 5ebd 4bff 20bd fa2d 72be 0138 013c
00000170: fcac 22bd 54d8 adbe 1d66 163e 271f 09be
00000180: c64f 8cbd 60de 9bbb e5ac c43d 4b0a af3c
00000190: 85bb edbd a01f 203c 5762 ac3c 12e8 2bbd
000001a0: 7ed9 b63c cb5b 48bc a903 153e 80d5 d4bd
000001b0: 6ea5 0cbd 2e8a 213d 34af bebd cd73 7b3c
000001c0: f1a8 2fbd 318c b93d 56b0 083c 6cba 563d
000001d0: 0631 41bc 34ae 473d 4332 d03c 8db5 ac3d
000001e0: b4cd 793d de7e 053c 006b 9abe 5547 fcbb
000001f0: b936 303d 53e1 aabc fb8b 26be 44f0 09be
00000200: 1b14 84bd 4982 393c e41a 74bc 4f87 223d
00000210: c6e1 d53c 9593 b1bc 8c21 03bd 91ba 093e
00000220: beb8 693d 8770 f4bc 21d6 643d 0951 94ba
00000230: ada7 31bd 1764 95bc 605d 913d 4c78 22be
00000240: 5a27 5a3c f23e 033c 5e4d 37bd c4a7 9d3d
00000250: 06d5 803c 3596 303d a55c 3e3d c7b6 ff3c
00000260: 235d 783d ab55 333e e580 b13d 5c1c 79bd
00000270: 11c2 c43c febf 5f3c 8cba 22bc ef2a c43c
00000280: 47ae acbc 6bb8 213e 5222 373e 5295 ffbd
00000290: 65a9 e03c 4c80 f73c 72fd 3ebd 8e24 b0bd
000002a0: 750a ba3e 9aa6 9e3e 3042 0d3e ceed 26be
000002b0: 1c43 d63d 0997 77be 197f e8be dd5d 9ebe
000002c0: eac0 2e3c beed da3a 9762 b13c c53a 393c
000002d0: 4816 40be 8e1b ddbe 6f6b ac3d 7e84 f8bd
000002e0: fe69 37bc 4574 39be c69a 583d d24c f9bd
000002f0: 9866 0fbe 923f 04be 47c0 d23c b2ee 043e
00000300: e2d7 77bd 21bc 4bbd 0a48 eb3c f6e1 83bd
00000310: ca81 783d 19f2 74bc 51a3 603c 99d0 163d
00000320: ecec 93bc aab9 9bbd 8791 27bd ad03 653c
00000330: 934f 0bbd 11ad 223d 5c84 f4bd 723a d3bb
00000340: cc2a abbd c02d 413e 2602 003e 5de0 eabc
00000350: 99d9 79be 389b 18bc 0c46 15be a48c d5bc
00000360: c6ea 8fbe 3d4b 093d 90bc 30bd f300 2e3e
00000370: da5e 03bd 4be1 a83d 77b7 a23d 475d 323b
00000380: 3d5b 0d3c 86ed 263e e91c 50bd 979d c43e
00000390: a47f 58bd 3af4 033e 8165 cdbc 6245 8eb9
000003a0: 8e6f d6bc f51f 23be 2425 31be fd3d efbe
000003b0: 70f5 e33d 7c41 03bc 5f52 80bd 783e e5bc
000003c0: a89f 903d cd3f 2f3d 264d 2cbc 1adc 98bb
000003d0: bea7 893c 2ac7 ad3d c43d 4bbd 97b9 fb3c
000003e0: 1db6 743c 7fde 4e3c c191 533d 4ba1 2dbd
000003f0: 9201 14bd baaa d2be f80a 983c d8af 953e
-0.0524383 0.06891168 -0.051788338 0.18013051 -0.119322695 0.028991915 -0.16967425 -0.3652542
-0.046681978 0.13862818 0.035016567 0.015371293 -0.07710716 -0.040537987 -0.023554016 -0.030684764
-0.012044067 -0.023417473 -0.05335337 -0.019633995 -0.10409752 -0.028754888 -0.006183535 -0.051728554
0.02084406 -0.015054855 0.04964976 -0.29069784 0.03310273 0.043460872 -0.10235498 0.27854675
-0.002903086 -0.09539924 0.23304372 -0.10371993 -0.21621989 0.2593081 -0.015881909 0.2156603
-0.31083614 -0.067423664 -0.17778379 0.08206957 0.013856534 0.038645457 0.15871969 -0.06674215
0.017300243 -0.5320665 0.11910591 -0.085320786 -0.014736988 0.13816114 -0.012540646 0.03792202
0.0979069 -0.071523584 -0.14471345 -0.06449031 -0.09587075 0.09192822 0.030225752 0.040102433
0.01175099 -0.020393342 -0.027415467 -0.038435526 -0.021818861 -0.012213043 0.063425936 -0.07279351
0.056384366 -0.17498454 -0.09294363 -0.018968822 0.033779122 -0.10325908 -0.14228444 0.01873867
-0.5269406 -0.04105688 0.018554572 0.060012847 0.03172348 -0.048116483 0.0127963545 -0.09657802
-0.054407906 -0.039305966 -0.23650351 0.0078868875 -0.039715752 -0.33954108 0.1468739 -0.1339079
-0.06851153 -0.004756734 0.096032895 0.021367213 -0.11608032 0.009773165 0.021042986 -0.041969366
0.022320505 -0.012228916 0.14552177 -0.103922844 -0.034337454 0.03943842 -0.09310761 0.015347433
-0.042885724 0.090599425 0.008342823 0.05242388 -0.011791473 0.048750117 0.025414592 0.084330656
0.06098719 0.008147923 -0.3015976 -0.007698933 0.043020938 -0.020859396 -0.16264336 -0.1347056
-0.06449147 0.011322566 -0.014898989 0.03967982 0.026108634 -0.021676818 -0.032014415 0.13450076
0.05706095 -0.029838813 0.05586827 -0.0011315654 -0.0433728 -0.018236203 0.07097888 -0.15866202
0.013315046 0.008010613 -0.044751517 0.076980144 0.015726577 0.043112 0.04647507 0.031215085
0.060635697 0.17513148 0.08667163 -0.06081806 0.02401832 0.013656614 -0.009932172 0.023946254
-0.021079196 0.15793006 0.17884186 -0.124796525 0.027424524 0.030212544 -0.046628423 -0.08600722
0.36336103 0.30986482 0.1379478 -0.16301653 0.10462019 -0.24178709 -0.45409468 -0.30930987
0.0106661115 0.0016702933 0.021653457 0.011305516 -0.187585 -0.43185085 0.08418929 -0.12134646
-0.011194704 -0.1811076 0.05288198 -0.121728554 -0.1400398 -0.12914875 0.02572645 0.1298168
-0.060508616 -0.04973996 0.028720874 -0.06439583 0.06067065 -0.014950299 0.013710813 0.036820028
-0.01805731 -0.07603772 -0.04091027 0.013977927 -0.034011435 0.03971583 -0.11939308 -0.006446176
-0.08357772 0.18865108 0.1250082 -0.028671438 -0.24399413 -0.009314351 -0.14577502 -0.02606804
-0.28108805 0.03351902 -0.043148577 0.1699255 -0.03207288 0.08246096 0.079451494 0.0027216242
0.00862771 0.16301546 -0.05080882 0.38401482 -0.052856103 0.12886134 -0.025072815 -0.00027136045
-0.02617624 -0.1593016 -0.17299324 -0.4672698 0.11130798 -0.008011218 -0.06265711 -0.027983889
0.07061702 0.042785455 -0.0105164405 -0.00466491 0.016803619 0.08485253 -0.04961945 0.030728145
0.014935997 0.012626289 0.051652674 -0.04239015 -0.03613431 -0.4114588 0.018559918 0.2923572

action_model._discrete_distribution.branches.0.bias f4 [3]
00000000: b363 783b 4437 1f3c 6d8b 15bc
0.0037901222 0.009717766 -0.00912748

action_model._discrete_distribution.branches.1.weight f4 [3, 256]
00000000: 5031 e4bc 94ac 46bd 0649 82bc 9104 d63c
00000010: 48f8 ffbc 0b63 843c 6c37 00bd 80ef bf3d
00000020: efb2 203d 15a3 013d ba13 7d3b ef00 99bb
00000030: d868 bfbc 8737 ddbc cbb5 ce3b 09cc 6f3d
00000040: 8884 3bbd 665b e13c 0158 b23c 3719 f53c
00000050: b89d 103d 8469 53be 5f49 b4bd c9e3 f53c
00000060: 1b37 11bb 8a40 443d 7c53 7cbc f5d5 83bb
00000070: 232a 99bc a32e 07bc a58b f73c 2d0c 7b3c
00000080: b292 c6bc 460a 2abd 0149 bbbb 34c7 3f3c
00000090: 1b4d 6f3c 4004 d33a 937f 453c c289 5cbc
000000a0: 41ba 69bd 2d0a fbbc 7a29 22bd 690f 833b
000000b0: e653 aabd a146 523c 63a2 56bc 2ec3 bfbc
000000c0: bcab f63c 8fd1 92bd 9063 2abc d107 21bc
000000d0: 9286 993d 430e b63d 5a0d 54bd b78d aabc
000000e0: 6b16 89bd c83e 8bbd 7681 53bd 92fc 3ebd
000000f0: 3b6b debc 4938 533c 277d f4bc aadb 4c3b
00000100: d125 923b 3662 87bd 4fa9 053d da0b f1bb
00000110: 6b38 373c 4ccb a9bd 98b6 d03b 7a42 793c
00000120: c7b6 79bc cccf 913b 5ecd 973c febe 053d
00000130: 1714 1b3d 2a37 92bd d04c b3bd 6418 293e
00000140: 21bc 94bd c68d 503d 7d3e 53bb b858 24bd
00000150: 979a df3c 4fb9 77bd 1e32 523c 85f0 00bd
00000160: 496e a53d 2c12 293d eb4b 07bd 3a39 25bc
00000170: 0105 2e3b 12c4 4dbc 40d2 383e bef9 afbd
00000180: ba5a f93c 813d 453d 8e57 833d ae29 76bd
00000190: 02ec ff3c a1ee 87bd d4a4 c03c deca 14bd
000001a0: b68b 6c3d a185 05bd 3498 773c fdc2 3cbd
000001b0: 8e8c 263d 90d0 1d3d d0dc afba f318 873c
000001c0: 8472 f4bc 12ba 283d 9220 ba3d a584 82bc
000001d0: 13de 8d3d daed ccbc 999c 0a3d db5e a9bd
000001e0: 9ca3 c93a 309e 283d 1209 c93d 3513 5fbd
000001f0: 2501 79bc 4765 af3c 057b d7bc 0446 04bd
00000200: d69e d73c 76cc bebd 555c f7bc 4a9d 753c
00000210: da14 a43c 3ced fab9 dec8 e33c d0cc 133c
00000220: 7c3c 003d 7f76 b8bc 2c41 153c ed46 06bd
00000230: 9980 11bd 2e8b a5bc 4a90 ce3c 1c93 b6bc
00000240: c3c7 523d aa3a 8f3c 7c32 e03b 4c3d 69bb
00000250: 7409 dfbb eef9 9fbd 1126 ae3c 1f44 11bc
00000260: ba14 62bc d3cd 8bbc 9e3f 5f3c be5d 203d
00000270: ab7b a43c a10e fd3b 7877 22bd d56e 1fbd
00000280: 4895 c43c 434b 2abd 1212 8b3d 69fd b73d
00000290: d559 fc3d ac18 56bd 5813 14bd 216f 45bc
000002a0: 0ecd 58bb df27 17bd ec55 1bbc 5f4a b23d
000002b0: c474 173d 3244 b5bd 359f 373e b4dd 77bc
000002c0: 11dc 9dbc e9ae b7bc 6616 6c3d 2b6a 1c3d
000002d0: 5a32 5c3c c7cb ddbd a3e9 d23c 422c 1bbb
000002e0: 4acd 483c 7ebd 37bd 24d7 c73c 4f6d db3b
000002f0: 490b b9bc 78f9 4e3d 74c7 a23d 5d46 803d
00000300: bcd3 0a3d 7407 9ebd 495a 163c cd0b 70bc
00000310: 2f05 3d3d 1281 273c 7333 97bc 6a83 533d
00000320: 9b42 393c c51d f5bb 1a22 9ebb 760b 1dbb
00000330: eb84 34bc 45df e73b c582 85bd 0d3d edbc
00000340: 3547 003d c944 453d 0ff1 c53b b783 1b3d
00000350: 2ea6 f7b9 a66f 73bd 60f3 b63d 6aeb 793d
00000360: 2081 fbbc fca4 833b a892 783d 58b8 e43c
00000370: 981f fabd 9a33 743c e702 0fbc 5cce da3b
00000380: 4397 ad3c b012 b0bc d6d0 493b 6b38 b0bd
00000390: e8ad 813c 10b4 d3bb c06b c13d bdb0 a13c
000003a0: 2211 c63c f2a8 78bc 9675 533c a36a 11bd
000003b0: e850 1c3c 0319 8d3d b731 62bc 2e1d 613d
000003c0: 12af f0bc 6510 b73c d3db 043c b992 a3bb
000003d0: f53c 4ebb a7a1 b9bc 14d8 2bbc ca75 1abc
000003e0: b480 353d b865 d5bb efd4 1e3d 5b46 15bd
000003f0: a7d2 da3b fa19 84bc 0cff 45bc 3053 95bc
-0.027855545 -0.048504427 -0.01590396 0.026125224 -0.03124632 0.016160509 -0.031302854 0.09371853
0.039233144 0.031649668 0.0038616494 -0.0046693007 -0.023365423 -0.027004017 0.0063082925 0.058544192
-0.04578069 0.027509402 0.02177048 0.02991925 0.035306662 -0.2064572 -0.08803057 0.030015843
-0.002215809 0.04791311 -0.015400764 -0.0040233084 -0.01869685 -0.008250865 0.030217955 0.015322727
-0.024239872 -0.041513704 -0.00571549 0.011705209 0.014605786 0.0016099289 0.012054342 -0.013460578
-0.05706239 -0.0306445 -0.039590336 0.00399964 -0.083167836 0.012834222 -0.013100239 -0.023408499
0.030111186 -0.071688764 -0.010399714 -0.009828524 0.074963704 0.08889439 -0.051770546 -0.020819528
-0.06693729 -0.06799084 -0.051637135 -0.04662759 -0.02715074 0.012891837 -0.029844834 0.003125886
0.0044600745 -0.06610529 0.03263217 -0.007356149 0.011182885 -0.08290729 0.006369423 0.015213603
-0.015241331 0.00444982 0.018530544 0.032652847 0.037860956 -0.07139428 -0.08754885 0.1651321
-0.07262445 0.050916456 -0.003223329 -0.04012367 0.027295394 -0.06047946 0.012829332 -0.031479377
0.08077676 0.041277096 -0.033031385 -0.010084445 0.0026553276 -0.012558954 0.18048954 -0.085925564
0.03043877 0.048154358 0.06413184 -0.060098343 0.031240467 -0.06637312 0.023516096 -0.03632628
0.057750426 -0.03259814 0.015111972 -0.046084393 0.040661387 0.03852898 -0.0013417248 0.016491389
-0.029839762 0.041193075 0.090882435 -0.01593239 0.06927123 -0.02501576 0.03384075 -0.08270045
0.0015383842 0.041166484 0.09816183 -0.054461677 -0.015198027 0.021410597 -0.026303777 -0.032293335
0.026320856 -0.093163416 -0.030195395 0.014991114 0.020029474 -0.0004786047 0.027805742 0.009020999
0.031307682 -0.02251744 0.0091097765 -0.032782484 -0.03552303 -0.020207968 0.025215287 -0.022286944
0.05146004 0.017484028 0.0068419557 -0.0035589514 -0.006806547 -0.07811342 0.021258386 -0.008866339
-0.013798887 -0.017065918 0.013626007 0.0391519 0.0200785 0.007722691 -0.039664716 -0.038924057
0.023996964 -0.04157568 0.06790556 0.08983881 0.123218216 -0.052269623 -0.03615126 -0.012050421
-0.0033081206 -0.03690326 -0.009480935 0.087055914 0.03697659 -0.08850898 0.17931826 -0.015128542
-0.019269975 -0.02242227 0.05763855 0.038187187 0.013439739 -0.10829883 0.025746172 -0.0023677503
0.012255976 -0.04485845 0.02439458 0.00669638 -0.022588389 0.05053088 0.07948199 0.06263421
0.033893332 -0.07716265 0.009176799 -0.014651251 0.04614752 0.010223644 -0.01845715 0.051638998
0.011307384 -0.0074803554 -0.0048258426 -0.002396313 -0.011018018 0.0070761763 -0.06519083 -0.028959775
0.03131791 0.0481613 0.0060406993 0.03796741 -0.00047235325 -0.059432648 0.08933139 0.061015524
-0.03070122 0.0040174704 0.060686737 0.027919933 -0.12213057 0.014904881 -0.008728719 0.006677432
0.021190291 -0.021493286 0.0030794642 -0.08604511 0.015829995 -0.006460674 0.0944438 0.019737596
0.024178091 -0.015176998 0.012906453 -0.035502087 0.009540774 0.06889536 -0.013805798 0.05495947
-0.029380355 0.022346685 0.008109051 -0.004991856 -0.0031469439 -0.02266009 -0.010488529 -0.009427497
0.044312194 -0.00651237 0.038777288 -0.03644405 0.0066779437 -0.016125668 -0.012084734 -0.018228143

action_model._discrete_distribution.branches.1.bias f4 [3]
00000000: ee31 5b3d d4d1 4d3d 2dc9 cdbd
0.053514414 0.050248936 -0.10048137

action_model._discrete_distribution.branches.2.weight f4 [3, 256]
00000000: cf83 ba3d 9352 833b 890b 8d3c f7d4 cd3b
00000010: b4fa c73a 8e9d 883d b942 c83d 9ada 25be
00000020: 2ec9 193e 03c1 0dbe 23c9 56bc 1b89 a0bd
00000030: 6a27 193e a922 f4bc 8306 95bc 445b 16bd
00000040: 0fe9 fabd 93c4 a5bc 7bdb 7dbd 5152 813e
00000050: a0a5 0f3e f62b b13a 11b7 df3c a6a5 913d
00000060: 040f 753d 04fb 063e 2f86 78be a1ba 52bd
00000070: a661 5dbd 93a2 bbbd 1ce0 f73d 7412 29bd
00000080: df2f 113d c825 153e 69a7 28bd 38d2 f13d
00000090: 294b 653c 2d68 81bc 141b d23d a129 f93c
000000a0: 33e0 393d 9c47 953d 3ee3 8e3d 2332 c83c
000000b0: 29f8 3e3c d538 cc3d 77cc 14be 2b82 c9bc
000000c0: f85c b3b9 4aaf 9c3e 0c34 593d 443f 113e
000000d0: 6592 443d 5b81 0cbe 0fac 0bbe 50d1 f13c
000000e0: 70d6 68bd d439 243e c90a b6bd b797 f7bd
000000f0: abe3 de3d cfe6 a1bd 319e ae3b 7e74 ee3c
00000100: 7fd2 2fbd 7ed0 97bb 44db 493d 55c9 f9bb
00000110: 38f8 d93d 5aa8 633e b58a e2bc 9fd3 39bd
00000120: d500 f93b f670 243e 32dc 79bd 23ad 383c
00000130: c2a4 523b 668a 3d3d f808 073e 0a26 85bd
00000140: 1e5f ef3d 34df ad3d 1c70 183d ad56 d93c
00000150: 4ec2 913d 8920 05be eccb f83c b493 f13d
00000160: f31e 373e 4d50 853d 0ca1 e63d 7134 34be
00000170: dfd1 d13c 8952 843c f011 a4bd 9e4f 993c
00000180: 5230 023d ceb5 5a3d 7786 d3bc 93ab 41be
00000190: d7b5 cfbb 06b9 ef3d ebbe 4f3e 1a8f ae3d
000001a0: d67a 383b 7174 b5bc df6f cebd 0d1f f3bc
000001b0: 5242 0fbe cb9c 433d 689b 3d3d d90e ac3d
000001c0: 3cf0 533c 7dcf c93d b8f2 02b9 6514 8e3c
000001d0: 9b4f 943d 84c7 7abd b290 81bd 4845 18be
000001e0: 0e43 70bd fcf3 96bb e420 2f3e add8 87be
000001f0: b328 3dbd 714f 023d 6896 883e fc91 a33e
00000200: 2ebb b83d dbf3 09be 9761 1a3e 4987 29bd
00000210: a1e2 f23d 8781 8d3d 8fa2 403a 1b16 b83d
00000220: 74cf 2ebe 3982 8a3e cdb7 6bbd 9e65 debd
00000230: 63da c13d 3693 003d 549b b0bb 3d30 b23e
00000240: ed1b adbd 4830 b83d 6335 1ebd 242d 96bd
00000250: ba80 703d 93c0 9dbd 0c2b 013e bd88 2f3d
00000260: 5c9b adbd 0ed9 c9bd 4df2 b53d 896a 2ebc
00000270: 583d 603d 4333 22be d00b 483c 441c b3bd
00000280: 93c2 5b3d 8983 85bd 854b 30be 7a14 2cbe
00000290: d97a 3cbd 5333 88bd 5f80 20bc e0d1 cd3d
000002a0: 5b70 22bd b946 7fbd 757d 4fbd fb52 d93d
000002b0: 1ff2 d3bd 0016 56bc 2c15 533e 5856 e53d
000002c0: ee8c 2abd ffbd 8fbd 1999 203e 1560 b2bc
000002d0: 16db 303e 9e6d afbd ff23 a3bd da3f a33e
000002e0: e3eb 1e3d 3547 a0bd 8b37 123d ab8d 0abe
000002f0: 386c 853d 9d85 a0bd 19c9 603c 37c9 203d
00000300: e9f8 c2bc 9d53 99bd bcf6 173e af64 4dbe
00000310: de6a e9bd da1f 763d 2953 043e c6f5 763d
00000320: 9229 aabd f600 44bd b572 b03d 07ff 33bc
00000330: 01e8 153d 92fe 103e b58a 903d 98c8 0b3d
00000340: 8efa 6c3d 9a0b b8bc e9b4 13bc 76e8 033e
00000350: d189 f23c 32fd 743d 6737 fdbd 98e3 30bd
00000360: 20bd d23c 32b5 2a3d dc9b 4bbd a97f f23c
00000370: 2387 ef3e 4a9b 183d f65d e83b ea1e 97bd
00000380: 6b5c 94bd 8eef 06be 71a3 833d 774a 36be
00000390: b178 353e 919c 2ebe 8ac4 91bd 8987 a53d
000003a0: 66c3 ae3c 0bc9 083d 6fb6 003e 060c 6c3d
000003b0: 9bf2 b73c e0a8 90bb 9421 ff3d 77a4 9abd
000003c0: 7e2b 4c3c 8f3f 90be 16cf 31bc 1da3 dbbd
000003d0: 82a2 cb3d 4a29 3ebd e5e5 a53d 6b5f 36bc
000003e0: 1950 96bd a73e 473c e9df 893b 17ca cc3d
000003f0: e21b c7bd be86 ed3d b543 6cbe 3c0c 2dbe
0.09107172 0.0040076463 0.017217414 0.006281491 0.001525721 0.06670676 0.09778351 -0.16196671
0.1501815 -0.1384316 -0.013109478 -0.07838651 0.14956442 -0.029801684 -0.018191582 -0.03670813
-0.12251484 -0.020235335 -0.06197689 0.25258115 0.14028025 0.001351713 0.027308973 0.07111673
0.059828773 0.13181692 -0.24269937 -0.051447514 -0.054048203 -0.09161868 0.12103292 -0.041277364
0.035446044 0.14565194 -0.04117528 0.11807674 0.01399497 -0.015796745 0.10259071 0.030415358
0.04537983 0.07289049 0.06976937 0.02443797 0.011655846 0.09971777 -0.14531122 -0.024598202
-0.00034210808 0.30602485 0.05302815 0.1418429 0.047991175 -0.1372122 -0.13639854 0.029518753
-0.05684513 0.16037685 -0.08888776 -0.12089484 0.10883268 -0.07905351 0.0053289165 0.029108282
-0.042925354 -0.0046330085 0.049281374 -0.0076228776 0.10643047 0.2223219 -0.027654031 -0.045367833
0.007598976 0.16058716 -0.06100101 0.011271748 0.003214166 0.046274565 0.13187015 -0.06501396
0.11688064 0.08489838 0.03721629 0.026530588 0.07117139 -0.13000692 0.030370675 0.1179575
0.178829 0.06509457 0.11261186 -0.1759813 0.02561277 0.016152637 -0.08011234 0.018714722
0.031784363 0.05339604 -0.025820954 -0.18913107 -0.0063388157 0.11705212 0.20287673 0.08523388
0.0028149388 -0.02215025 -0.100799315 -0.029677892 -0.13990143 0.04775695 0.046290785 0.084012695
0.012935694 0.098540284 -0.00012488186 0.01734371 0.07241746 -0.06122543 -0.063264266 -0.14870179
-0.0586577 -0.004606722 0.1710239 -0.26532498 -0.046181392 0.031814042 0.2667725 0.31947315
0.09020077 -0.1347193 0.1507629 -0.041388784 0.11859632 0.06909471 0.0007348442 0.08988591
-0.17071325 0.27052477 -0.057548333 -0.10859226 0.09465482 0.03139039 -0.0053896103 0.34802428
-0.08452592 0.08993584 -0.038625132 -0.07332829 0.058716513 -0.07702746 0.12614077 0.042855013
-0.08476898 -0.09855853 0.08884106 -0.010645517 0.054746002 -0.15839867 0.012209848 -0.087456256
0.053652357 -0.06519229 -0.17216308 -0.16804686 -0.046015594 -0.06650414 -0.009796231 0.10049796
-0.03965793 -0.062323306 -0.050656755 0.106115304 -0.10348915 -0.013066769 0.20613545 0.111981094
-0.041638307 -0.07018661 0.15683402 -0.021774331 0.17271075 -0.0856583 -0.0796585 0.31884652
0.038799178 -0.07826082 0.0356975 -0.13530605 0.06514782 -0.07837985 0.01371982 0.039254393
-0.02380033 -0.07486651 0.14840215 -0.20057939 -0.113973364 0.06008897 0.12922348 0.06029298
-0.0830871 -0.04785248 0.08615629 -0.010986096 0.03659821 0.14159611 0.07057706 0.034126848
0.057856135 -0.02246647 -0.0090153 0.12881646 0.029606732 0.05981178 -0.12364083 -0.0431858
0.025724947 0.041676708 -0.049709186 0.029601889 0.4678279 0.03725747 0.007091279 -0.07378943
-0.0724419 -0.1317732 0.06427658 -0.17801844 0.17721821 -0.17051913 -0.07117565 0.08082492
0.021333408 0.033394855 0.12569593 0.057628654 0.02245455 -0.0044146627 0.124575764 -0.075509004
0.012461541 -0.2817349 -0.010852596 -0.10724471 0.09943105 -0.046426095 0.081004895 -0.011131148
-0.07339496 0.012160934 0.0042076004 0.09999483 -0.09722115 0.11597966 -0.23072703 -0.16899198

action_model._discrete_distribution.branches.2.bias f4 [3]
00000000: 3f01 7a3d e733 e2bd ff89 293d
0.061036345 -0.11045056 0.04139137
