ML-Agents/results/obs-from-ultimate-volleyball/Volleyball/Volleyball-35999990.onnx (onnx, 291918 bytes, 15 tensors)

discrete_action_output_shape f4 [1, 4]
0	0x40400000	3.0
1	0x40400000	3.0
2	0x40400000	3.0
3	0x40000000	2.0

network_body.observation_encoder.processors.0.normalizer.running_mean f4 [11]
0	0x3e2442e0	0.16041136
1	0x3dbe6c40	0.09297991
2	0x3f10a2ef	0.56498617
3	0x3f2aca7c	0.66715217
4	0x41251887	10.318488
5	0xbc774fe9	-0.015094736
6	0xbd07b578	-0.033132046
7	0x3bd990bd	0.0066395686
8	0xbfdd67d2	-1.7297308
9	0xb516eb93	-5.622216e-07
10	0xb5c4a5f4	-1.4651437e-06

network_body._body_endoder.seq_layers.0.weight f4 [256, 11]
0	0xbea24069	-0.31689766
1	0x3db2bb38	0.087271154
2	0x3e267ffc	0.1625976
3	0xbf1a4fad	-0.60277826
4	0x3e966f0f	0.29381606
5	0xbab02442	-0.001343854
6	0xbe970191	-0.29493383
7	0xbe04a3f9	-0.12953176
8	0xbe23e994	-0.16007072
9	0xbe4d3aa5	-0.20041902
10	0x3ef969fe	0.48713678
11	0xbe8209d1	-0.25398114
12	0x3df9e7a2	0.122023836
13	0x3f0b7948	0.54481936
14	0xbf753cbc	-0.957958
15	0x3ee24586	0.44193667
16	0x3cc00b60	0.023442924
17	0xbe1c7c3d	-0.15281768
18	0xbda4d5e2	-0.080486074
19	0x3c713a7f	0.014723419
20	0xbe843770	-0.25823545
21	0xbde3e437	-0.11127513
22	0xbe04010c	-0.12891024
23	0xbf00c918	-0.50306845
24	0x3e84414b	0.25831065
25	0x3d95d365	0.07315711
26	0xbf2176ef	-0.63072103
27	0xbdcd9485	-0.100380935
28	0xbe1677f3	-0.14694194
29	0x3eb7d96d	0.3590807
30	0xbef63990	-0.48090792
31	0xbd4bbd1e	-0.049740903
32	0xbeb45dd8	-0.35227847
33	0x3ea7d71e	0.3278131
34	0xbf0cbbaf	-0.5497388
35	0xbcf9d2a1	-0.030495944
36	0x3de0eff8	0.109832704
37	0x3d5e0751	0.054206196
38	0x3ce4c4f5	0.027925948
39	0x3ea83552	0.3285318
40	0x3e793222	0.2433553
41	0x3f82578f	1.0182971
42	0xbe3c43c0	-0.1838522
43	0xbe41ac8f	-0.18913482
44	0xbe42aba7	-0.19010793
45	0xbe33f632	-0.17574385
46	0x3d866a8d	0.06563292
47	0x3e27019e	0.1630921
48	0x3dcdd7a8	0.10050899
49	0xbd841a87	-0.06450372
50	0x3e183c77	0.14866816
51	0x3f101c8a	0.5629355
52	0xbf2310dd	-0.63697606
53	0x3f9b0314	1.2110314
54	0x3f3a159e	0.72689235
55	0x3f076379	0.5288616
56	0xbf0606e2	-0.5235425
57	0xbdb29815	-0.087204136
58	0xbdbebbfe	-0.093132004
59	0xbf2a1ad0	-0.6644716
60	0xbd67ec04	-0.056621566
61	0xbe2b6d0f	-0.16740821
62	0xbe22698c	-0.15860575
63	0x3e4326b8	0.19057739
64	0xbdbc69b2	-0.09199847
65	0x3d8ab8ff	0.067735665
66	0x3e6060cc	0.21911925
67	0xbefad368	-0.48989415
68	0xbed69298	-0.41908717
69	0xbe995a0d	-0.29951516
70	0x3cc5e6cf	0.02415791
71	0x3e0f337d	0.13984485
72	0xbee31583	-0.4435235
73	0x3e86e32e	0.263452
74	0x3bd6346d	0.0065370114
75	0xbf59c19f	-0.8506107
76	0xbec98cd5	-0.3936526
77	0xbf0b9066	-0.5451721
78	0x3eab5715	0.33464876
79	0xbe19607a	-0.14978209
80	0xbf13830c	-0.57621837
81	0xbea119a6	-0.3146488
82	0xbeee26da	-0.46514016
83	0xbeb5fe65	-0.3554565
84	0x3dd2a1b4	0.10284749
85	0xbf57c82a	-0.842898
86	0x3f154cd7	0.58320373
87	0x3e934996	0.2876708
88	0xbeb16373	-0.34646186
89	0x3f33307c	0.69995856
90	0x3e867fd1	0.2626939
91	0x3ce5256e	0.02797195
92	0xbf432115	-0.76222354
93	0x3d6e240f	0.058139857
94	0x3d6a2446	0.0571635
95	0x3bf778c1	0.007552237
96	0x3e0cdcb5	0.13756068
97	0x3eb1c616	0.3472144
98	0x3e510963	0.20413737
99	0x3d8f766b	0.07005008
100	0xbef86f03	-0.48522195
101	0x3eafa022	0.3430186
102	0x3e555498	0.20833051
103	0x3ea1a528	0.31571317
104	0x3eb741eb	0.3579248
105	0xbeaa29ce	-0.3323502
106	0xbec324ac	-0.38113916
107	0xbeb76fa8	-0.35827374
108	0x3e5a6471	0.21327378
109	0xbebfe693	-0.37480602
110	0xbe128d4c	-0.14311713
111	0x3eec330f	0.46132705
112	0xbeb4eecc	-0.35338438
113	0xbec64372	-0.38723332
114	0x3e9551db	0.29164013
115	0x3ec70f11	0.38878682
116	0x3d36f8bd	0.04467081
117	0xbeebe0c1	-0.4606991
118	0x3ed389dc	0.41316116
119	0xbf56ccfa	-0.8390652
120	0xbc3e81c2	-0.011627616
121	0x3e3f00cd	0.18652649
122	0xbee12085	-0.43970123
123	0xbec2f0e2	-0.38074404
124	0xbf5579c8	-0.8338895
125	0xbf24e6d2	-0.64414704
126	0xbd84f22f	-0.06491505
127	0xbeb21fc3	-0.34789857
128	0xbdc77910	-0.09739888
129	0x3e144764	0.14480358
130	0xbf660bb8	-0.8986163
131	0xbb9af89a	-0.0047293426
132	0x3e92afad	0.28649655
133	0xbf0f3fc5	-0.5595668
134	0xbde74e97	-0.11294287
135	0x3ef09bfb	0.46994004
136	0x3e3a7b97	0.18211208
137	0x3ef64dbb	0.4810618
138	0xbbee587a	-0.007273731
139	0x3f36932b	0.7131831
140	0xbe7f2080	-0.24914742
141	0x3f0c38e7	0.54774326
142	0xbeecfd2b	-0.46286902
143	0x3da03e58	0.07824391
144	0x3ddbc5ed	0.10731111
145	0xbeec1273	-0.46107826
146	0x3eb89452	0.3605066
147	0x3e36a4dc	0.17836326
148	0xbe439fef	-0.19103979
149	0x3efe5f66	0.49682158
150	0x3e005791	0.12533404
151	0xbd0666fd	-0.03281306
152	0x3fa14ac0	1.2600937
153	0x3d176528	0.036961704
154	0x3eff9579	0.49918726
155	0x3e70cf61	0.23516609
156	0x3f0244e5	0.50886375
157	0x3f461f9a	0.7739197
158	0xbe19cfc5	-0.15020664
159	0xbe632804	-0.22183233
160	0x3ec48a5e	0.38386816
161	0x3e43a475	0.19105704
162	0x3d851992	0.06499018
163	0xbe81f07c	-0.25378788
164	0xbf487040	-0.7829628
165	0xbf0f3472	-0.559394
166	0xbe23d238	-0.15998161
167	0xbf1180c9	-0.56837136
168	0x3f8ec7cf	1.1154727
169	0x3f1ebd42	0.62007535
170	0xbdf8a506	-0.12140851
171	0xbef568e2	-0.47931582
172	0x3ef127a3	0.47100553
173	0xbe5932fb	-0.21210854
174	0xbe05229e	-0.13001487
175	0x3e2ab2c7	0.1666976
176	0xbeeee425	-0.46658435
177	0xbe4c0751	-0.19924666
178	0x3f359bf7	0.7094111
179	0x3e83416c	0.2563585
180	0x3eb517cb	0.35369715
181	0xbefb2f73	-0.49059638
182	0x3e310c6e	0.17289898
183	0xbea129e4	-0.31477273
184	0x3e3793c7	0.17927466
185	0xbf2d059b	-0.6758668
186	0x3ec8b205	0.39198318
187	0x3ec0ba75	0.37642255
188	0x3ccf6b5f	0.025319753
189	0xbf5d902a	-0.865481
190	0xbe0402e7	-0.12891732
191	0xbdb5b95d	-0.08873246
192	0xbf04b445	-0.5183757
193	0xbf3a205d	-0.7270563
194	0x3ec8c27b	0.39210877
195	0xbeab7694	-0.33488905
196	0x3dd445b3	0.103648566
197	0x3e7a266a	0.24428716
198	0xbf5b0dcd	-0.85567933
199	0x3e881519	0.26578596
200	0x3ee9386b	0.45550856
201	0x3ef6dc66	0.48215026
202	0x3e82276c	0.25420702
203	0xbe72be4c	-0.23705405
204	0x3e5ad1bd	0.21369071
205	0x3f102ecf	0.56321424
206	0xbe2b396c	-0.16721123
207	0x3ea9dc5d	0.33175936
208	0x3dbebe06	0.09313588
209	0xbe931cdf	-0.28732964
210	0xbf13f789	-0.57799584
211	0xbe948f35	-0.29015508
212	0xbeef266a	-0.46708995
213	0x3e807263	0.2508727
214	0x3e41e14c	0.189336
215	0x3d333777	0.043754067
216	0xbd6df0a2	-0.058090813
217	0xbe2254d5	-0.15852673
218	0xbec65a31	-0.38740686
219	0xbe3faebd	-0.18719001
220	0xbedfb96f	-0.43696162
221	0x3ec87a2c	0.3915571
222	0xbf02aba2	-0.5104314
223	0xbe3a9997	-0.18222652
224	0x3ee8c062	0.45459276
225	0x3d9464f1	0.072458155
226	0x3e82a23d	0.25514403
227	0xbededb92	-0.43526894
228	0x3eeeeef6	0.46666688
229	0x3e93b68a	0.28850204
230	0x3e395a1b	0.18100779
231	0xbf2f8bd2	-0.68572724
232	0xbe6876ec	-0.22701615
233	0x3f12687d	0.57190686
234	0x3ca3ca31	0.019993873
235	0x3df161c3	0.11786225
236	0x3e8aea53	0.271319
237	0xbe18abd1	-0.14909293
238	0xbec78e8f	-0.3897595
239	0xbebc5d7b	-0.3679007
240	0xbe2e82a8	-0.17042029
241	0xbe190561	-0.14943458
242	0x3e8ce919	0.2752159
243	0xbed8fda1	-0.42381003
244	0xbedf9863	-0.4367095
245	0xbe2e681c	-0.17031902
246	0x3efe0a85	0.496174
247	0x3e30617a	0.17224684
248	0x3dde0164	0.10840109
249	0xbf08530a	-0.5325171
250	0x3e249835	0.16073687
251	0x3e956848	0.29181123
252	0xbf0d1806	-0.5511478
253	0x3f04e995	0.5191892
254	0xbe900b90	-0.2813382
255	0xbed1e2fd	-0.4099349

network_body._body_endoder.seq_layers.0.bias f4 [256]
0	0xbd8423ff	-0.06452178
1	0x3e0d08c6	0.13772878
2	0xbd85f6ee	-0.06541239
3	0x3e635ad8	0.22202623
4	0x3e1d5696	0.15365061
5	0xbcb44960	-0.022007644
6	0x3d8a84c4	0.06763604
7	0xbde533ed	-0.11191545
8	0x3d8607aa	0.065444306
9	0x3e3d39eb	0.18479125
10	0x3e390eca	0.18072048
11	0xbd30dbf8	-0.04317853
12	0x3e1b0f2b	0.15142505
13	0x3e7806a8	0.24221289
14	0x3eef1e26	0.4670269
15	0x3ec433e0	0.38320827
16	0x3e8c488b	0.27399096
17	0x3d9f10eb	0.07766899
18	0x3e43931b	0.19099085
19	0xbdd09480	-0.10184574
20	0x3db5ee12	0.08883299
21	0x3e071a17	0.13193546
22	0x3da5d2e3	0.08096864
23	0xbd4036f9	-0.046927426
24	0x3e26ecad	0.16301222
25	0x3e728fd8	0.23687685
26	0x3da9446e	0.08265005
27	0x3e84c64a	0.25932533
28	0x3d32d2d7	0.043658104
29	0xbdc6812d	-0.09692607
30	0x3cb940a9	0.02261384
31	0x3dc799ab	0.09746107
32	0x3e153178	0.14569652
33	0x3eac2bda	0.33627206
34	0x3ec0e125	0.37671772
35	0x3d7e656b	0.06210844
36	0xbe1bb1e2	-0.15204576
37	0x3dddf9eb	0.10838684
38	0x3e9f0ac9	0.31062916
39	0x3ee66d67	0.45005342
40	0x3e6b699f	0.2298951
41	0x3e924978	0.28571677
42	0x3cdefaf4	0.027219273
43	0x3d087ab9	0.033320162
44	0xbd80eb08	-0.06294829
45	0x3e56855e	0.20949313
46	0x3f05b935	0.5223573
47	0x3e6f64d9	0.23378314
48	0xbdb29636	-0.08720057
49	0x3ea15b65	0.3151504
50	0x3de1f039	0.11032147
51	0x3b1607c9	0.0022892824
52	0xbdf4c3a2	-0.119513765
53	0x3e3145e2	0.17311814
54	0x3e4b7655	0.19869359
55	0x3d0f837f	0.035037514
56	0xb9661f67	-0.00021946208
57	0x3e074318	0.13209188
58	0x3eb9d689	0.3629649
59	0x3db36485	0.08759407
60	0x3d390610	0.045171797
61	0x3e5e00c0	0.21679974
62	0x3e32a9d4	0.17447597
63	0xbe18a375	-0.14906104
64	0xbdf5ad13	-0.11995902
65	0x3e3a742a	0.18208376
66	0x3eb136fc	0.34612262
67	0x3e7e88bd	0.24856849
68	0x3dca4a96	0.098775074
69	0xbc4460ea	-0.011985997
70	0xbd1ccf7d	-0.038283814
71	0xbd9c27bf	-0.076247685
72	0x3de31d3f	0.110895626
73	0xbdc510a0	-0.096223116
74	0x3e366d9b	0.17815249
75	0xbd7f5a02	-0.062341698
76	0x3eaab74b	0.33342966
77	0x3e3f715d	0.18695588
78	0x3e28dcb7	0.16490446
79	0x3e47bf57	0.19506584
80	0x3e20d5ce	0.1570656
81	0x3d6d6801	0.057960514
82	0x3ea244af	0.31693026
83	0xbcd6b87c	-0.026211016
84	0xbc8f5939	-0.0174986
85	0x3d9dace5	0.07698993
86	0x3e9a477d	0.30132666
87	0xbd9cd321	-0.07657457
88	0xbd9ffc20	-0.07811761
89	0x3eb071dd	0.3446187
90	0xbce8ab49	-0.028401988
91	0xbd1b65b6	-0.037938796
92	0x3ed0086d	0.40631428
93	0x3eb27e90	0.34862185
94	0xbddaf061	-0.1069038
95	0x3d361d07	0.044461276
96	0x3e75082e	0.23928902
97	0x3e391521	0.18074466
98	0xbe4406af	-0.19143175
99	0x3ddc89bc	0.10768458
100	0xbdbdaa53	-0.092610024
101	0x3d737e0d	0.059446383
102	0xbc73ec91	-0.014887945
103	0x3ea2c11a	0.3178795
104	0x3e926f16	0.28600377
105	0x3ead5d84	0.3386041
106	0x3e18fb6d	0.14939661
107	0x3e45b1a3	0.19306044
108	0xbda30c26	-0.079613015
109	0x3d2baf07	0.041914966
110	0xba258612	-0.00063142285
111	0x3e88416a	0.26612407
112	0x3eccbd46	0.39988154
113	0x3e92ba7e	0.28657907
114	0x3d1e746d	0.03868525
115	0x3e466ebc	0.1937818
116	0x3dbd4039	0.09240765
117	0x3d837622	0.064190164
118	0xbdaf7319	-0.08566875
119	0x3e548e23	0.20757346
120	0xbe01329f	-0.12616967
121	0xbdda99b3	-0.10673847
122	0x3e8d88a6	0.27643317
123	0x3e8e83f5	0.2783505
124	0x3e5cfa2c	0.21579808
125	0xbd0548ee	-0.032540254
126	0x3ec54f0f	0.3853688
127	0x3c94b7f6	0.018154126
128	0x3d276e30	0.040876567
129	0xbc29fe11	-0.010375516
130	0xbdd15c4b	-0.102226816
131	0x3e5dfaf6	0.21677765
132	0x3c5fa76f	0.013650759
133	0x3e182563	0.14858012
134	0x3dd5e8c0	0.10444784
135	0x3df92ed5	0.121671356
136	0x3e7eece0	0.24895048
137	0x3e6736b5	0.22579463
138	0xbd499c93	-0.049221586
139	0xbcc368a4	-0.023853607
140	0x3e22dbd1	0.15904166
141	0x3db0aa26	0.08626203
142	0x3e018817	0.1264957
143	0x3eb0e060	0.34546185
144	0xbdc15222	-0.09439494
145	0x3d45b1f0	0.048265398
146	0xbccd5ea8	-0.02506955
147	0x3e5981ae	0.21240875
148	0x3e17b067	0.14813386
149	0x3e247b95	0.16062768
150	0x3e3917fb	0.18075554
151	0x3d3c0eba	0.04591248
152	0xbd1202e4	-0.035647288
153	0x3e097de6	0.13426933
154	0x3e9f402b	0.31103644
155	0x3eb69e02	0.35667425
156	0xbd042488	-0.0322614
157	0xbdc99c45	-0.09844259
158	0x3dcddac8	0.10051495
159	0xbd759951	-0.059960667
160	0x3e4fdb2d	0.20298453
161	0x3e33fa6d	0.17575999
162	0x3e2a5c7c	0.16636842
163	0x3d9e976d	0.07743726
164	0x3d023550	0.031789124
165	0x3c3c2e85	0.0114857005
166	0xbc3324e1	-0.010934086
167	0x3e951257	0.29115555
168	0x3e4e9547	0.20174132
169	0x3e65c9c1	0.22440244
170	0x3ead00c4	0.33789647
171	0xbd80d540	-0.06290674
172	0x3ea846f9	0.32866648
173	0x3d2e4cff	0.042553898
174	0x3d6c1b6e	0.057643346
175	0xbde6044f	-0.112312905
176	0xbdc1d32c	-0.09464106
177	0x3e53c13b	0.2067918
178	0x3e45612a	0.19275346
179	0x3ebb0257	0.36525223
180	0x3e3f0729	0.18655075
181	0x3af003fe	0.0018311737
182	0x3cd2145e	0.025644477
183	0x3d2d50a2	0.042313226
184	0xbc804e9d	-0.015662486
185	0x3e52f66a	0.20601812
186	0x3e7d55b2	0.24739721
187	0x3c940a2d	0.018071258
188	0x3e913404	0.28359997
189	0xbdcc1272	-0.09964456
190	0x3eba8292	0.36427742
191	0x3e82d89b	0.25555882
192	0xbd1cc5b3	-0.03827448
193	0x3d8842aa	0.0665334
194	0x3d47a4c1	0.048741106
195	0xbde3155b	-0.110880576
196	0x3c11be6a	0.008895496
197	0x3ed38cd8	0.41318393
198	0x3e24b490	0.16084504
199	0x3d570b8a	0.05250124
200	0xbdb478da	-0.08812113
201	0x3f022349	0.5083509
202	0x3d7b5914	0.06136425
203	0x3e479fe3	0.19494586
204	0x3ec3f9f8	0.3827665
205	0x3ebacefb	0.3648604
206	0x3db2b8b3	0.08726635
207	0x3e99b6a2	0.3002215
208	0x3eb3c60a	0.3511203
209	0x3dc80413	0.09766402
210	0x3d74e6de	0.059790485
211	0x3e251105	0.16119774
212	0x3e70efa5	0.23528917
213	0xbe35e820	-0.1776433
214	0x3eeda5be	0.46415514
215	0x3e8497ac	0.25896966
216	0x3d0c6968	0.03428021
217	0x3dfdcffe	0.12393187
218	0x3d95d176	0.07315342
219	0x3dde0ee8	0.10842687
220	0x3dea71a4	0.114474565
221	0x3e425a21	0.18979694
222	0x3ca9b527	0.020716263
223	0x3d68a172	0.05679459
224	0x3e889f8a	0.2668422
225	0x3aa0c542	0.0012265819
226	0xbc838231	-0.016053291
227	0xbadcdb8b	-0.0016850097
228	0x3e839850	0.25702143
229	0x3e9182a1	0.28419974
230	0x3e4a2b06	0.19742975
231	0x3e992a64	0.29915154
232	0xbe04ae9d	-0.12957235
233	0x3e600e56	0.21880469
234	0x3e90540e	0.2818913
235	0xbd83414b	-0.06408938
236	0x3e7e6ed8	0.24846971
237	0xbd99f838	-0.07518047
238	0x3c3c74ef	0.0115024885
239	0x3ec49393	0.3839384
240	0x3e1c7f31	0.15282895
241	0x3e021b03	0.12705617
242	0x3e0164d5	0.1263612
243	0x3e036cf8	0.12834537
244	0xbd744af7	-0.059641805
245	0x3ebb558e	0.3658871
246	0x3e3f670a	0.1869165
247	0xbcb2e6b6	-0.021838527
248	0x3eef3848	0.46722627
249	0x3e87a0d1	0.2648988
250	0x3eb03a3e	0.34419435
251	0xbbedc54f	-0.007256187
252	0x3dd0b67d	0.10191057
253	0x3d681bb1	0.056667034
254	0x3dad3ed8	0.08459252
255	0x3ea9ecc4	0.3318845

network_body._body_endoder.seq_layers.2.weight f4 [256, 256]
0	0x3d887dea	0.06664641
1	0x3df3f0d8	0.11911172
2	0xbe25c917	-0.16189991
3	0xbddbdc4c	-0.10735378
4	0xbd979863	-0.07402112
5	0xbe2f967a	-0.17147246
6	0xbe07ee0a	-0.13274398
7	0xbe311b18	-0.17295492
8	0x3d5302a4	0.05151619
9	0xbdba83e4	-0.091071874
10	0x3dd2513f	0.10269403
11	0xbd377a78	-0.04479453
12	0xbe8118ca	-0.25214225
13	0xbdffe947	-0.12495666
14	0xbe1b2e06	-0.15154275
15	0x3dca900f	0.09890758
16	0x3e58811d	0.21143003
17	0xbd0c75d8	-0.034292072
18	0x3e010eb8	0.12603271
19	0xbe493c1e	-0.19651839
20	0xbc882a3b	-0.0166217
21	0x3e035de4	0.12828785
22	0xbe43ebff	-0.19132994
23	0xbe1b5d3b	-0.15172283
24	0x3db051b8	0.086093366
25	0xbe14a073	-0.14514332
26	0xbd4057f8	-0.046958894
27	0xbcbe8c52	-0.02326027
28	0x3e2b43e0	0.16725111
29	0x3d82094a	0.06349428
30	0x3e054429	0.13014282
31	0x3dc38fb6	0.09548895
32	0x3e10f35b	0.14155333
33	0xbaca205a	-0.0015421018
34	0xbdae3079	-0.08505339
35	0x3d89a96d	0.067217685
36	0xbe181bce	-0.14854357
37	0xbe32edd5	-0.17473538
38	0xbd94d082	-0.07266332
39	0xbd5707df	-0.05249774
40	0xbd570927	-0.052498963
41	0xbd41b813	-0.047294687
42	0xbdb655b4	-0.08903065
43	0x3d839852	0.06425537
44	0x3d260c8c	0.04053931
45	0x3d941b49	0.07231767
46	0xbde9334d	-0.11386738
47	0xba85e3aa	-0.0010214944
48	0xbd469b8a	-0.048488177
49	0xbde9caa2	-0.11415602
50	0x3e5d085f	0.21585225
51	0x3e20768c	0.15670222
52	0xbe5613ee	-0.2090604
53	0xbbb85abb	-0.0056260503
54	0x3e87aecd	0.2650055
55	0x3da78550	0.08179724
56	0xbe94be61	-0.29051498
57	0xbdc3ad8d	-0.095545866
58	0x3ddd281e	0.10798667
59	0xbd666126	-0.05624499
60	0x3db20143	0.08691647
61	0x3daa9287	0.08328729
62	0x3c8c737a	0.017144907
63	0xbde39e10	-0.111141324
64	0xbdc89e4b	-0.09795817
65	0x3d47f34f	0.04881602
66	0xbd66cc7f	-0.056347366
67	0x3e0ad1a9	0.13556542
68	0xbdb7a39f	-0.08966755
69	0xbd859142	-0.06521846
70	0xbe295732	-0.16537169
71	0xbd9a54db	-0.07535716
72	0x3d6df659	0.058096264
73	0xbe23515f	-0.1594901
74	0xbe2e5760	-0.17025518
75	0xbe978f0f	-0.29601333
76	0xbe061994	-0.13095695
77	0x3a4e0d0f	0.0007860222
78	0x3e0d54fd	0.13801952
79	0x3d81889c	0.06324884
80	0x39d7c834	0.0004115716
81	0x3e20e28b	0.1571142
82	0x3d135d27	0.03597751
83	0x3d83f823	0.06443813
84	0x3e1a9daf	0.15099214
85	0xbd2373c7	-0.039905336
86	0x3e86ca35	0.26326147
87	0x3ce95537	0.028483016
88	0xbe238923	-0.15970282
89	0x3d555689	0.05208448
90	0xbdb4de7f	-0.088315
91	0xbd0f6c96	-0.035015665
92	0x3db83e9c	0.08996317
93	0xbccba7f4	-0.02486036
94	0xbdaec589	-0.085337706
95	0xbdb7594f	-0.08952581
96	0xbd308c78	-0.04310271
97	0xbe3e9367	-0.18610917
98	0xbcda5d03	-0.02665568
99	0x3e442b8f	0.19157241
100	0xbd913470	-0.0709008
101	0x3e89a989	0.26887158
102	0x3d0e9473	0.03480954
103	0xbdc27ab7	-0.09496062
104	0xbd8b38e8	-0.067979634
105	0xbe249812	-0.16073635
106	0x3be41338	0.006960299
107	0x3c30f654	0.010800917
108	0xbe02dd54	-0.12779742
109	0xbdbe0ab5	-0.09279386
110	0x3c8c42a1	0.017121615
111	0x3dd1ff2b	0.102537476
112	0x3d8f1a06	0.069873855
113	0xbc7e1679	-0.015508288
114	0xbe82d5df	-0.25553796
115	0x3e822706	0.25420398
116	0xbc617d62	-0.013762804
117	0xbe2012f0	-0.15632224
118	0xbd3fa6fb	-0.046790104
119	0xbdc6653d	-0.096872784
120	0xbcd9b585	-0.026575813
121	0xbe1cb0d7	-0.15301834
122	0xbde7dd53	-0.11321511
123	0x3e24b842	0.16085914
124	0x3e0a2c61	0.13493492
125	0x3e8f7505	0.28018966
126	0xbdabb3f2	-0.08383931
127	0x3d60716e	0.054795675
128	0xbea327f8	-0.3186643
129	0x3cca0bd6	0.024663847
130	0x3cdadd1a	0.026716758
131	0x3c87cf00	0.016578197
132	0x3e19ed2b	0.15031879
133	0xbd7a7ee9	-0.061156187
134	0x3d87a035	0.06622354
135	0xbdce6e56	-0.10079639
136	0x3d37e811	0.04489905
137	0x3d9fee08	0.07809073
138	0xbe78189d	-0.24228139
139	0x3dd5bd0c	0.104364485
140	0xbdf5b8fd	-0.11998174
141	0xbd9873fb	-0.074439965
142	0x3dbf7f4a	0.0935045
143	0x3e1da338	0.15394294
144	0x3d139ec6	0.03604009
145	0xbd1c3a45	-0.038141508
146	0xbe806aa4	-0.2508136
147	0xbe6748f4	-0.22586423
148	0x3e285f56	0.16442618
149	0x3ce036c3	0.027369862
150	0xbe2866ec	-0.16445512
151	0x3e3a00e6	0.18164405
152	0xbe05ef8d	-0.13079663
153	0x3d43f060	0.04783666
154	0xbd106edc	-0.035261974
155	0x3dcf3368	0.10117227
156	0xbcf88d50	-0.03034082
157	0x3ceb8419	0.028749513
158	0xbdc28c56	-0.09499423
159	0xbd806de0	-0.06270957
160	0x3e1406ea	0.14455763
161	0xbda3f169	-0.0800503
162	0xbe2080ec	-0.1567418
163	0xbe56d2cb	-0.20978849
164	0xbd52c364	-0.05145587
165	0xbe7561ba	-0.23963061
166	0x3dae9fdd	0.08526585
167	0xbe499cac	-0.19688672
168	0xbe1853f3	-0.14875774
169	0xbdbcc6a8	-0.09217578
170	0xbd3623ee	-0.04446786
171	0x3dbb2e3c	0.09139678
172	0x3dc382c8	0.09546429
173	0x3c85247f	0.016252754
174	0xbe157215	-0.145943
175	0x3cd8ad41	0.026449801
176	0x3dd64f6d	0.10464368
177	0x3dea6ecb	0.11446913
178	0x3d942a33	0.07234611
179	0xbd81285b	-0.06306525
180	0x3cfcc0ce	0.030853655
181	0x3d297c09	0.041378055
182	0xbd92531e	-0.071447596
183	0x3d72e707	0.059302356
184	0xbcca6367	-0.024705602
185	0x3e5a67c5	0.21328647
186	0xbb6ee5fd	-0.0036453002
187	0xbe4506ab	-0.19240825
188	0x3d3fd130	0.046830356
189	0x3cd91655	0.026499907
190	0xbdf24b9a	-0.11830826
191	0x3c8d7424	0.017267294
192	0xbe141d8f	-0.144644
193	0x3d2297c7	0.039695527
194	0x3c11ab57	0.008890948
195	0xbdbdcfdf	-0.09268164
196	0x3e09d200	0.13459015
197	0xbcb3fb8a	-0.02197053
198	0x3dec0e0c	0.11526117
199	0x3dc8de6f	0.09808051
200	0x3e1f62a0	0.15564966
201	0xbd399a36	-0.045313083
202	0x3d2f1198	0.042741388
203	0x3acb1a8e	0.0015495585
204	0x3db32ebe	0.0874915
205	0xbb804c1b	-0.0039153225
206	0xbc4b98dc	-0.012426581
207	0xbe4645db	-0.19362585
208	0x3e7abd76	0.24486336
209	0x3c1eb09c	0.009685662
210	0xbd6c3b21	-0.057673577
211	0xbcea6e03	-0.02861691
212	0xbb5320c7	-0.0032215582
213	0xbe287601	-0.16451265
214	0xbd1899d7	-0.037256088
215	0xbd96b630	-0.07358968
216	0xbd283f58	-0.041076034
217	0x3e162e05	0.14665993
218	0x3e59ea98	0.21280897
219	0xbd9daa53	-0.076985024
220	0x3dbc1c08	0.09185034
221	0x3d6c3f9f	0.05767786
222	0x3df72412	0.12067427
223	0xbd0da675	-0.034582574
224	0xbd9b45ef	-0.07581698
225	0xbe6cde21	-0.2313161
226	0xbd1e4a6a	-0.038645186
227	0xbe428073	-0.18994312
228	0xbd875c96	-0.06609456
229	0xbe938b65	-0.28817287
230	0x3d80afcb	0.0628353
231	0x3cbd808f	0.02313259
232	0xbd93f883	-0.07225134
233	0xbde25553	-0.110514306
234	0x3de404b2	0.11133708
235	0xbdaf895e	-0.085711226
236	0xbdda9503	-0.10672953
237	0x3d80c599	0.06287689
238	0xbe0c37bf	-0.1369314
239	0xbdf48206	-0.119388625
240	0xbc84c08b	-0.016205093
241	0x3da30d29	0.079614945
242	0xbc9ec13b	-0.019379249
243	0xbdec2541	-0.11530543
244	0xbe20ea51	-0.15714385
245	0x3dba522c	0.09097704
246	0x3dbe3134	0.092867285
247	0x3ab578d2	0.0013845211
248	0xbc0af2ee	-0.0084807705
249	0xbe0adea2	-0.1356149
250	0x3dcdc42b	0.10047182
251	0xbdc77d84	-0.09740737
252	0xbc8b2246	-0.016984116
253	0x3e8794e6	0.26480788
254	0xbe2b22ce	-0.16712496
255	0xbcc38eb4	-0.023871757

network_body._body_endoder.seq_layers.2.bias f4 [256]
0	0x3e14d5f0	0.14534736
1	0x3d9758c2	0.07389976
2	0xbe543965	-0.2072502
3	0x3d55a91c	0.05216323
4	0x3cfe87e7	0.031070663
5	0xbc0a0b5f	-0.008425563
6	0x3dd942fa	0.10608478
7	0xbe2ad3ba	-0.1668233
8	0x3e2162d7	0.1576036
9	0x3da41316	0.08011453
10	0x3da9255f	0.08259081
11	0x3befd4c4	0.007319065
12	0xbd1e0c4c	-0.038585946
13	0xbdfe2ecb	-0.12411269
14	0xbd60dd1d	-0.05489837
15	0xbd08f21a	-0.03343401
16	0x3d2bf440	0.04198098
17	0xbe281430	-0.16413951
18	0x3c8e64da	0.017382074
19	0x3d9c41a8	0.076297104
20	0xbd3b2162	-0.045686133
21	0x3c98f11c	0.018669657
22	0xbda13072	-0.07870568
23	0x3e1de7d8	0.15420473
24	0xbe2a72c1	-0.16645338
25	0x3d6e133d	0.058123816
26	0xbda70ae1	-0.08156372
27	0xbdff8efd	-0.12478445
28	0x3dbd2d3f	0.09237146
29	0x3d2c62b5	0.04208632
30	0x3d804f2e	0.06265102
31	0x3d1f581c	0.038902387
32	0x3e00a5e7	0.12563287
33	0xbe0878b7	-0.13327299
34	0xbd83313d	-0.06405876
35	0xbaf37d8e	-0.0018576847
36	0xbe20980c	-0.15683001
37	0x3c3c0aeb	0.011477212
38	0x3e40beb6	0.1882275
39	0xbdff1420	-0.124550104
40	0xbd99b2a5	-0.07504777
41	0xbcc3e501	-0.023912909
42	0x3e07aed7	0.1325029
43	0xbce640a3	-0.028106993
44	0x3dffdede	0.124936804
45	0xbd3e878a	-0.04651598
46	0x3ca40575	0.020022133
47	0x3ddc7206	0.10763936
48	0xbd34fac7	-0.044184472
49	0xbd541e56	-0.051786743
50	0x3b3cdf07	0.0028819458
51	0xbe38a501	-0.18031694
52	0xbbebf220	-0.0072004944
53	0x3d03a4a7	0.032139447
54	0x3cabb6e3	0.02096123
55	0xbc7dd6ec	-0.015493136
56	0xbc8fea48	-0.017567769
57	0xbd23a603	-0.039953243
58	0xbe47045b	-0.19435255
59	0xbe5ed0df	-0.21759365
60	0xbe5cb8f3	-0.21554928
61	0xbd868951	-0.0656916
62	0x3d80871b	0.06275769
63	0xbe223e23	-0.15844016
64	0x3d5f72b2	0.05455274
65	0xbc1a6c3e	-0.009425221
66	0x3cec198e	0.02882078
67	0xbd07e66c	-0.03317873
68	0x3d6096eb	0.054831427
69	0xbdd14e1a	-0.10219975
70	0x3db7f2b1	0.089818366
71	0x3d663f94	0.056212977
72	0x3dff3ca0	0.12462735
73	0xbde4acd9	-0.111657806
74	0x3e37139d	0.17878576
75	0xbd22bd9f	-0.039731618
76	0x3d85dae7	0.06535893
77	0xbdadc4de	-0.08484815
78	0xbe236c8c	-0.15959376
79	0x3c9d0354	0.019166626
80	0xbdc1abff	-0.09456634
81	0x3d699383	0.057025444
82	0x3e521fc5	0.20519932
83	0xbb395cea	-0.002828414
84	0x3d24eb6d	0.040263582
85	0xbe657d2c	-0.2241103
86	0xbe4baa27	-0.19889127
87	0xbd184f0b	-0.037184756
88	0xbd47944c	-0.04872541
89	0xbc547766	-0.01296792
90	0xbe57ca92	-0.21073368
91	0xbd774914	-0.060372427
92	0x3baa1566	0.005190539
93	0xbe1441f7	-0.14478289
94	0x3bd7452f	0.0065695266
95	0xbddb2b43	-0.10701611
96	0x3dfd22fb	0.123601876
97	0xbccc5e78	-0.02494739
98	0xbd4300de	-0.04760825
99	0xbe3a21ef	-0.18177007
100	0x3dd35407	0.10318761
101	0xbd204f0e	-0.039137892
102	0x3e206d0e	0.15666601
103	0x3aa7cfe9	0.0012803051
104	0x3dcac9f1	0.099017985
105	0xbc91f485	-0.017816791
106	0xbd719730	-0.058982074
107	0x3dd6616c	0.104678005
108	0xbd3fa098	-0.046784014
109	0x3ddbf792	0.1074058
110	0xbe41ddb1	-0.18932225
111	0xbd5af8cd	-0.05345993
112	0xbe64cbfe	-0.22343442
113	0xbda197ab	-0.078902565
114	0x3d8c83da	0.06861086
115	0x3db3a235	0.08771173
116	0x3cdca98a	0.026936311
117	0xbba20ebe	-0.004945605
118	0xbca07c55	-0.019590536
119	0xbd9aa6ef	-0.07551371
120	0xbc9af22a	-0.018914301
121	0x3dc267a9	0.09492428
122	0x3bfc840c	0.007706171
123	0xbe434ccb	-0.19072263
124	0x3d15e380	0.036593914
125	0x3e894dfc	0.2681731
126	0x3dbbe0c4	0.0917373
127	0xbd06d4ad	-0.032917667
128	0x3e3e66d5	0.18593915
129	0xbdad9b69	-0.08476908
130	0xbcaa75f1	-0.020808192
131	0x3cce1158	0.025154755
132	0xbde65ca3	-0.11248138
133	0x3d7643b6	0.060123168
134	0x3e796929	0.24356522
135	0xbae7c158	-0.0017681522
136	0x3d87bb8f	0.06627571
137	0x3d113435	0.03545018
138	0xbda7fe69	-0.08202822
139	0x3c0eba5a	0.008711422
140	0x3c824473	0.01590178
141	0xbd1f0e82	-0.038832195
142	0xbdfd8018	-0.123779476
143	0xbdfe1280	-0.12405872
144	0x3e0f94f5	0.14021666
145	0x3e2002b8	0.15626037
146	0xbe330f43	-0.1748629
147	0x3c9beb57	0.019033117
148	0x3c08243c	0.00830942
149	0xbd615afa	-0.055018403
150	0x3e2f88b7	0.17141996
151	0x3bf35055	0.007425348
152	0xbcec4622	-0.028842036
153	0xbdb5e34a	-0.088812426
154	0x3da43b57	0.08019131
155	0x3d883ab2	0.0665182
156	0x3e9addc8	0.3024733
157	0xbdbe0c4f	-0.092796914
158	0x3d8bab1f	0.06819748
159	0x3d24d2de	0.04024016
160	0x3ddcdded	0.107845165
161	0x3c9f8b91	0.01947573
162	0x3d298d55	0.04139455
163	0xbde6e630	-0.112743735
164	0x3da919f9	0.08256907
165	0x3d4ec371	0.050479356
166	0xbe45a893	-0.19302587
167	0xbd32c8f3	-0.04364867
168	0x3c62b56b	0.013837199
169	0xbcafac79	-0.021444546
170	0x3c8bea9e	0.017079648
171	0xbdc07313	-0.09396949
172	0xbe14a55b	-0.14516203
173	0xbdbd7464	-0.092507154
174	0xbdb4f9ca	-0.08836706
175	0x3d0836e3	0.03325547
176	0x3dbeee3d	0.09322784
177	0xbc3046f4	-0.010759104
178	0xbd956b79	-0.072958894
179	0xbcfb9191	-0.03070906
180	0xbd8ba168	-0.06817895
181	0xbe7d0c6f	-0.24711774
182	0xbd34e476	-0.04416319
183	0x3c223268	0.009899713
184	0x3d64996a	0.05581037
185	0xbe519816	-0.20468172
186	0xbe0beb2f	-0.13663934
187	0xbce8a295	-0.028397838
188	0xbdf1f5b7	-0.118144445
189	0xbd6ea8b2	-0.05826635
190	0x3d4fe92b	0.050759476
191	0x3da875e7	0.08225613
192	0x3d493164	0.04911937
193	0x3d982bb8	0.07430214
194	0x3e0bdb4d	0.13657875
195	0xbe06e370	-0.13172698
196	0x3c3ea2b2	0.011635469
197	0x3da0ce74	0.07851878
198	0x3e5b29cf	0.21402667
199	0x3d7ec2e5	0.062197585
200	0xbe2e9b32	-0.1705139
201	0x3d696981	0.056985382
202	0xbd04b4ac	-0.032398865
203	0xbe484e6e	-0.19561169
204	0xbe2a0d3e	-0.16606614
205	0xbd7e4526	-0.062077664
206	0xbd65494e	-0.055978112
207	0x3c2cc5f7	0.010545245
208	0xbc210634	-0.009828139
209	0x3e1733e9	0.14765896
210	0xbd1f2491	-0.03885323
211	0x3e91bf22	0.28466135
212	0xbcc87ce4	-0.024473615
213	0xbca7cbd8	-0.020482942
214	0x3db3779f	0.0876305
215	0x3e1a19b5	0.15048869
216	0x3cac395b	0.021023443
217	0x3df212f2	0.1182002
218	0xbcd4d1e4	-0.02597899
219	0x3d004149	0.03131226
220	0xbdbc513a	-0.0919518
221	0x3d8d47cd	0.068984605
222	0x3d2451f5	0.040117223
223	0xbdb5d7a8	-0.08879024
224	0x3bbc794c	0.0057517644
225	0xbe62a526	-0.22133312
226	0x3d305bdc	0.043056354
227	0xbdf25f22	-0.118345514
228	0xbc4bd85b	-0.01244172
229	0x3c640656	0.013917526
230	0xbccf262a	-0.025286753
231	0x3d40b725	0.04704966
232	0x3e807ed8	0.25096774
233	0x3e0bd8af	0.13656877
234	0xbe26c7e4	-0.1628719
235	0xbdc29599	-0.0950119
236	0xbd219439	-0.039447997
237	0xbd2f5f28	-0.042815357
238	0x3e5e3b3f	0.21702288
239	0x3e183cbb	0.14866917
240	0xbe784c45	-0.24247845
241	0xbdb993cd	-0.09061394
242	0xba2d5c25	-0.0006613157
243	0xbe2acd38	-0.16679847
244	0x3dc57ccc	0.09642944
245	0x3ce60a23	0.028081005
246	0x3e4ae57a	0.19814101
247	0x3daf8de6	0.08571987
248	0x3e3d78c7	0.18503104
249	0xbe3716e0	-0.1787982
250	0x3df03f50	0.11730826
251	0xbd825cac	-0.06365332
252	0xbd8cd2b0	-0.06876123
253	0xbcb9d5c3	-0.022684937
254	0xbe260746	-0.16213712
255	0xbe023201	-0.12714387

action_model._discrete_distribution.branches.0.weight f4 [3, 256]
0	0xbd79333b	-0.060839873
1	0x3d6b0344	0.05737616
2	0xbb51de8c	-0.0032023517
3	0x3e29c26c	0.16578072
4	0xbccb9d47	-0.02485527
5	0x3c2fa955	0.010721524
6	0xbdd78bd3	-0.10524716
7	0xbe89171f	-0.26775452
8	0xbd4c4d8d	-0.049878646
9	0x3e0dd7cd	0.13851853
10	0x3cdcff15	0.026977101
11	0x3c931365	0.017953584
12	0xbd755e2a	-0.059904255
13	0xbcf90849	-0.030399458
14	0xbceea697	-0.02913217
15	0x3acd75ed	0.0015675403
16	0xbc0b8331	-0.008515165
17	0xbba1e56d	-0.0049406798
18	0xbde1df75	-0.11028949
19	0xbc0e5fc1	-0.008689822
20	0xbe0022e0	-0.12513304
21	0xbccdf6fd	-0.025142187
22	0xbc1d8eed	-0.009616596
23	0xbdbbdc07	-0.09172826
24	0x3cdb8f0a	0.026801605
25	0xbce16a4b	-0.027516505
26	0x3d07ce59	0.033155773
27	0xbe983e82	-0.2973519
28	0x3d0643a6	0.03277936
29	0x3d8551ec	0.06509766
30	0xbd86d81d	-0.06584189
31	0x3e925efd	0.28588095
32	0x3b4806df	0.0030521674
33	0xbd6d3c7b	-0.057919007
34	0x3e4a25ff	0.19741057
35	0xbd7a6eb8	-0.061140746
36	0xbe527b98	-0.2055496
37	0x3e7934d6	0.24336562
38	0xbc7c9187	-0.015415556
39	0x3e5a29a8	0.21304953
40	0xbe8033d8	-0.25039554
41	0xbd4b1508	-0.049580604
42	0xbdf903e4	-0.12158945
43	0x3db84ec7	0.089994006
44	0xbcb327ac	-0.021869503
45	0xbcb1a6a7	-0.021685911
46	0x3e10ee7f	0.14153479
47	0xbdcd6470	-0.100289226
48	0x3cb97a35	0.02264128
49	0xbeeadd75	-0.45872083
50	0x3daf790a	0.08568008
51	0xbdb92122	-0.09039523
52	0xbd05bc93	-0.03265054
53	0x3e011cc1	0.12608625
54	0x399a6a76	0.00029452489
55	0x3c9a5b5a	0.018842388
56	0x3e3af71f	0.18258332
57	0xbd989ad0	-0.07451403
58	0xbe010f1b	-0.12603419
59	0xbca856fc	-0.02054929
60	0xbda7c0c2	-0.081910625
61	0x3d571a07	0.052515056
62	0x3bef1577	0.00729626
63	0x3cd8c90a	0.02646305
64	0x3c9c5a9b	0.019086173
65	0x3d1d2bc9	0.038371835
66	0xbcff4fd6	-0.031165998
67	0xbd669b6d	-0.05630057
68	0xbd2f893e	-0.042855494
69	0xbd1498ab	-0.036278408
70	0x3d2feb74	0.042949155
71	0xbd93ebd9	-0.07222719
72	0x3d123fce	0.03570538
73	0xbe30b09a	-0.17254868
74	0xbdde551a	-0.108560756
75	0xbc1f3ce4	-0.009719107
76	0x3a05994e	0.00050963915
77	0xbdd0de53	-0.10198655
78	0xbde84b95	-0.11342541
79	0xba3a9e82	-0.00071189564
80	0xbf008109	-0.5019689
81	0xbd99d1f1	-0.07510746
82	0xbcfc0238	-0.030762777
83	0x3d4ff48d	0.05077033
84	0x3c849fe6	0.016189527
85	0xbd81a6e8	-0.06330663
86	0x3d3bbe45	0.045835752
87	0xbda86949	-0.082232065
88	0xbd1bf03b	-0.0380709
89	0xbce3ae7b	-0.02779316
90	0xbe8cd265	-0.27504268
91	0x3bd7c7da	0.0065851035
92	0xbcaec4eb	-0.021334132
93	0xbe763a76	-0.24045739
94	0x3dc6553a	0.096842244
95	0xbd99ee88	-0.07516199
96	0xbd5a26b1	-0.053259555
97	0x3d093508	0.03349784
98	0x3d7ddfdc	0.061981067
99	0xbb8f7b37	-0.004378702
100	0xbdb3ebb3	-0.087851904
101	0x3d28f239	0.041246627
102	0xba487017	-0.0007646097
103	0xbc3b4a24	-0.011431251
104	0x3c0fd331	0.008778379
105	0xbc4b315b	-0.012401904
106	0x3e2404be	0.16017434
107	0xbdc5d18d	-0.09659109
108	0xbd91522d	-0.07095752
109	0xbc5abf9c	-0.013351347
110	0xbdbb8401	-0.09156037
111	0x3cf35b3f	0.029706595
112	0x3baf555c	0.005350752
113	0x3d8de5f7	0.06928628
114	0x3c811774	0.015758254
115	0x3d6b3dd5	0.057432014
116	0xbc466a88	-0.01211036
117	0x3c82218d	0.015885139
118	0xbd21b065	-0.039474864
119	0x3cc95caf	0.024580328
120	0x3db7a60f	0.0896722
121	0xbd153c8a	-0.036434688
122	0xbe9bbaa7	-0.30415842
123	0x3c99cbf9	0.01877402
124	0x3d5f15cf	0.054464158
125	0xbd6ed37e	-0.058307163
126	0xbe0304d3	-0.12794809
127	0xbdec830c	-0.11548433
128	0xbdaf87b2	-0.08570804
129	0xbd796795	-0.0608898
130	0x3b17d7f5	0.0023169492
131	0x3cc959bf	0.024578927
132	0x3cbb1c4b	0.02284064
133	0xbd3129e3	-0.043252837
134	0xbd869737	-0.06571811
135	0x3de30d78	0.11086553
136	0x3b3d2867	0.0028863193
137	0xbc8021a1	-0.015641036
138	0x3d86391c	0.065538615
139	0xbc83168a	-0.016001958
140	0xbdc569f1	-0.09639347
141	0xbc95e16c	-0.018295966
142	0x3da3a976	0.079913065
143	0xbdee30db	-0.11630412
144	0x3bab1500	0.0052210093
145	0xbc9766dd	-0.018481666
146	0xbcc2557a	-0.023722399
147	0x3d971f1b	0.0737898
148	0x3c56211d	0.013069418
149	0x3ceee2b6	0.029160839
150	0x3cc6ad84	0.02425266
151	0x3c1face9	0.009745815
152	0x3dc8249e	0.09772609
153	0x3e3a9b5d	0.18223329
154	0x3d933029	0.0718692
155	0xbd7296ae	-0.05922573
156	0x3c601397	0.013676546
157	0xbcaae383	-0.02086044
158	0x3c50cfc3	0.012744847
159	0x3d0706b3	0.032965373
160	0xbd2b2acc	-0.04178886
161	0x3df93149	0.121676035
162	0x3e19b33f	0.15009783
163	0xbe09e849	-0.13467516
164	0x3c4b828a	0.01242126
165	0x3caa4238	0.020783529
166	0xbd18a5d9	-0.03726754
167	0xbd784928	-0.060616642
168	0x3eb2b9db	0.3490742
169	0x3eb233bf	0.34805104
170	0x3de2933a	0.110632375
171	0xbdbb7583	-0.09153273
172	0x3dbf2ff6	0.0933532
173	0xbe6ed0bc	-0.23321813
174	0xbec5b31b	-0.3861321
175	0xbeac6247	-0.3366873
176	0x3d0674c2	0.032826193
177	0x3cd0338f	0.02541521
178	0x3cb54451	0.022127302
179	0xba06b758	-0.00051390147
180	0xbe28c124	-0.16479927
181	0xbe64aae8	-0.2233082
182	0x3daf98ee	0.08574091
183	0xbddff536	-0.10935442
184	0xbb514db8	-0.0031937193
185	0xbe66e1bc	-0.22547048
186	0x3d3dc495	0.046330053
187	0xbdf1ac8c	-0.11800489
188	0xbdf05664	-0.11735228
189	0xbdb17bed	-0.08666215
190	0x3d6ce4e1	0.057835463
191	0x3d833bb8	0.06407875
192	0xbd4b1bb0	-0.04958695
193	0xbd2d5828	-0.0423204
194	0xbc0ad63e	-0.008473931
195	0xbd880131	-0.06640852
196	0x3d8f437b	0.06995293
197	0xbce17c04	-0.027524956
198	0xbd20253d	-0.039098013
199	0x3d9307a1	0.071791895
200	0xbc34153e	-0.010991393
201	0xbd86505a	-0.065582946
202	0xbcd9e1c6	-0.026596915
203	0x3d034b4e	0.032054238
204	0xbc96638c	-0.018358015
205	0x3d07e992	0.033181734
206	0xbd9c3a20	-0.07628274
207	0xbc887861	-0.016658964
208	0xbd42f28e	-0.0475946
209	0x3e275192	0.1633971
210	0x3de7566b	0.1129578
211	0xbd20141d	-0.03908168
212	0xbe5da65c	-0.21645492
213	0x3cec80fd	0.0288701
214	0xbe188f29	-0.14898361
215	0xbd3e730d	-0.04649644
216	0xbe834431	-0.25637963
217	0x3d4fa1ce	0.05069142
218	0xbd13db6d	-0.036097933
219	0x3e25fb18	0.16209066
220	0xbc1be7d1	-0.009515719
221	0x3d6c4003	0.057678234
222	0x3dc6b075	0.09701625
223	0x3cb15042	0.021644715
224	0x3ceab6c4	0.028651603
225	0x3e28e164	0.1649223
226	0xbc999c17	-0.018751187
227	0x3ebdfc37	0.37106487
228	0xbd950e94	-0.07278171
229	0x3de19a69	0.110157795
230	0xbd1d6363	-0.03842486
231	0x3c01e8ca	0.007929036
232	0xbd15ed32	-0.03660316
233	0xbe035b8a	-0.12827888
234	0xbe2a12d2	-0.16608742
235	0xbed59911	-0.41718343
236	0x3db2cfc7	0.08731037
237	0x3d3de031	0.046356384
238	0xbda3d1d6	-0.079990074
239	0xbd6f69a6	-0.058450364
240	0x3dc8f92b	0.0981315
241	0x3cbaa4da	0.022783685
242	0x3bdfb958	0.0068275146
243	0x3c0e069d	0.008668569
244	0x3c95b537	0.018274887
245	0x3db594dc	0.08866283
246	0xbd67aefc	-0.056563362
247	0x3c3efdd5	0.011657198
248	0x3c0daba7	0.008646882
249	0x3ce600bc	0.028076522
250	0x3d8a4016	0.06750505
251	0xbd16f880	-0.03685808
252	0xbcee8bed	-0.029119456
253	0xbecbecbb	-0.3982905
254	0x3e3736b4	0.17891961
255	0x3e991aca	0.2990325

action_model._discrete_distribution.branches.0.bias f4 [3]
0	0x3be12749	0.0068711382
1	0x3c9f2be8	0.019430116
2	0xbcbc4eb1	-0.022986742

action_model._discrete_distribution.branches.1.weight f4 [3, 256]
0	0xbc8391d4	-0.016060747
1	0xbd44d459	-0.048054073
2	0xbd2d19eb	-0.042261045
3	0x3ce868d6	0.028370302
4	0x3b8e6492	0.004345485
5	0x3c7023c8	0.014656968
6	0xbce56498	-0.028002068
7	0x3d0eaed5	0.0348347
8	0x3d1840ee	0.037171297
9	0x3bc43ad2	0.0059884572
10	0xbc994493	-0.018709457
11	0xbca17f2b	-0.019713959
12	0x3a9492a9	0.0011335212
13	0xbd2bd2ad	-0.041948963
14	0x3d00deea	0.031462587
15	0xbc8a5afe	-0.016889092
16	0xbd194a08	-0.037424117
17	0x3cefe95e	0.029286083
18	0x3b979bd0	0.0046267286
19	0x3cc558f5	0.02409027
20	0x3d17ccd6	0.03706058
21	0xbe37b734	-0.1794098
22	0xbd876593	-0.066111706
23	0x3bb1c4ca	0.0054250704
24	0x3c675b34	0.014120866
25	0x3d0b0d57	0.03394827
26	0xbc49a1d7	-0.012306652
27	0xbc928c40	-0.017889142
28	0x381bc922	3.71422e-05
29	0xbca0be9e	-0.019622143
30	0x3cb067ef	0.021533934
31	0x3cf12baa	0.029439766
32	0xbc6511c8	-0.01398129
33	0xbc9f4568	-0.019442275
34	0xbd05b8d7	-0.03264698
35	0x3ca1e3d5	0.01976196
36	0x3c867c6f	0.016416756
37	0x3cac46f3	0.021029925
38	0x3cde7b3f	0.027158378
39	0xbccf560d	-0.025309587
40	0xbd60ae5e	-0.05485379
41	0xbd05d8a3	-0.032677304
42	0xbd3765bb	-0.044774752
43	0x3ca36470	0.019945353
44	0xbd61dd28	-0.05514255
45	0x3d05f1ff	0.03270149
46	0xbcb059ca	-0.02152719
47	0xbcbce9a4	-0.023060627
48	0xbc6d58cd	-0.014486504
49	0xbd87f0db	-0.066377364
50	0xbc157a39	-0.009123378
51	0xbca80fdf	-0.02051538
52	0x3d1e0b69	0.0385851
53	0x3d72e323	0.059298646
54	0xbd5dba67	-0.054132845
55	0xbcd71a82	-0.026257757
56	0xbcf404d9	-0.029787468
57	0xbc2ab0be	-0.010418115
58	0xbd39876a	-0.045295157
59	0xbd4995f1	-0.04921526
60	0xbc599ffb	-0.013282771
61	0x3bf24d00	0.007394433
62	0xbcf35dbd	-0.029707784
63	0x3c82cef7	0.01596783
64	0xbcbe1cf5	-0.023207167
65	0xbda9b0ab	-0.0828565
66	0x3c707b17	0.014677784
67	0x3cc5244b	0.024065157
68	0x3c98dc8b	0.01865985
69	0xbce05f87	-0.027389301
70	0x3cc87385	0.024469147
71	0xbaca8be0	-0.0015453063
72	0xbc9effa0	-0.019409
73	0x3cb9b99a	0.02267151
74	0xbb194fa8	-0.0023393426
75	0x3c0e0a1e	0.008669404
76	0x3cef1a16	0.029187243
77	0xbd6c6694	-0.057715014
78	0xbd9d90fd	-0.0769367
79	0x3e07d97d	0.13266559
80	0xbd5a463a	-0.05328963
81	0x3d7657cf	0.060142335
82	0x3cf6ecfa	0.030142296
83	0xbd8e1fb1	-0.069396384
84	0x3d20a688	0.039221317
85	0xbd3d35ee	-0.04619401
86	0x3c35070e	0.011049045
87	0xbcf38e2b	-0.029730877
88	0x3dbca72f	0.09211575
89	0x3d1e6650	0.03867179
90	0xbd97182a	-0.07377656
91	0xbc32a315	-0.01090314
92	0xbbfe4d56	-0.007760684
93	0x3ce06fe4	0.027397104
94	0x3e374c68	0.1790024
95	0xbcfaea35	-0.030629257
96	0x39a6c54d	0.00031808988
97	0x3cf277b7	0.0295981
98	0x3d49f7f4	0.049308732
99	0xbd600772	-0.0546946
100	0x3d2fa2e7	0.042879965
101	0xbd85e8d5	-0.0653855
102	0x3ccd8d47	0.02509178
103	0xbd22c45f	-0.039738055
104	0x3d8468aa	0.064652756
105	0xbd08be1d	-0.03338443
106	0x3c9b2bc5	0.01894177
107	0xbd2421c9	-0.040071283
108	0x3d632ac3	0.055460703
109	0x3b20d635	0.002454174
110	0xbbbb91e1	-0.005724177
111	0x3b38f018	0.002821928
112	0xbcb18ff5	-0.02167509
113	0x3d530df6	0.051526986
114	0x3d58aeea	0.052901186
115	0xbc76219d	-0.0150226625
116	0x3d07f084	0.033188358
117	0xbbf1df53	-0.0073813586
118	0xbbeeea7e	-0.0072911372
119	0xbd1c4658	-0.038153023
120	0xbb1a6062	-0.0023555984
121	0x3ca22964	0.019795127
122	0x3d88e7c1	0.066848285
123	0xbd5a0088	-0.053223163
124	0xbc23a3c1	-0.009987772
125	0x3d7d2499	0.06180248
126	0xbce88dd3	-0.02838794
127	0xbd05541c	-0.032550916
128	0x3d2ee5f5	0.042699773
129	0xbdc57041	-0.09640551
130	0xbcd691f9	-0.026192652
131	0x3cbd92bd	0.02314126
132	0x3c858e32	0.016303156
133	0x3c6d3ea5	0.014480268
134	0x3cef5db2	0.029219482
135	0x3c907544	0.017634042
136	0x3ca057fe	0.019573208
137	0xbcbfb499	-0.023401545
138	0x3c1088c8	0.008821674
139	0xbc655274	-0.013996709
140	0xbd1648f5	-0.03669067
141	0xbc01cbeb	-0.007922153
142	0x3cdf9e2e	0.027297106
143	0xbc43506c	-0.01192103
144	0x3d2e5457	0.0425609
145	0x3d0af18c	0.033921763
146	0xbccfb36d	-0.025354112
147	0xbbdcba58	-0.006736081
148	0xbd1c4293	-0.038149428
149	0xbd31c013	-0.043396067
150	0x3c964655	0.018344084
151	0xbd1a152f	-0.03761786
152	0xbbd249c8	-0.006417487
153	0xbc07357e	-0.0082525
154	0x3c97ca8d	0.0185292
155	0x3d0c5762	0.034263022
156	0x3ce1855e	0.027529415
157	0x3c5196da	0.0127923135
158	0xbc11a4e5	-0.008889412
159	0x3ccadf10	0.024764568
160	0x3c8e9530	0.017405123
161	0xbce617a3	-0.028087443
162	0x3d0bd0fa	0.034134842
163	0x3d316442	0.043308504
164	0x3e123ceb	0.14281051
165	0xbcefb700	-0.029262066
166	0xbd2c5e1b	-0.042081933
167	0xbcd71edc	-0.026259832
168	0x3babeb70	0.005246572
169	0xbc328c14	-0.010897655
170	0xbd045c21	-0.032314423
171	0x3d05b99b	0.03264771
172	0xba10cf97	-0.00055240974
173	0xbd85dc7c	-0.06536195
174	0x3dc17a38	0.094471395
175	0x3c9e653f	0.019335387
176	0xbc9fe1ef	-0.019516913
177	0xbbbc7be9	-0.005752076
178	0xbc65b921	-0.014021189
179	0x3d2812c1	0.04103351
180	0x3bb040f1	0.0053788354
181	0xbd503312	-0.050829954
182	0xbc6117f3	-0.01373862
183	0xbc0e2414	-0.008675594
184	0xbcdc127a	-0.026864279
185	0xbdb04d79	-0.08608527
186	0x3c1312e7	0.008976675
187	0x3cb54a7a	0.02213024
188	0xbc8d9fa3	-0.017288035
189	0x3d36ac8b	0.044598144
190	0x3c9e050c	0.019289516
191	0x3d4054d4	0.0469559
192	0x3d22ed70	0.03977722
193	0xbceff816	-0.029293101
194	0x3d240e2e	0.040052585
195	0x3bd8f211	0.0066206534
196	0x3cbb373d	0.022853488
197	0x3cd4d188	0.025978819
198	0xbc3cc4b8	-0.011521511
199	0x3d989259	0.074497886
200	0xbcb0f294	-0.021600045
201	0xbd06f80c	-0.0329514
202	0x3c334a0b	0.010942946
203	0xbc3565d2	-0.011071639
204	0xbc4ec83a	-0.01262098
205	0xbc0054f0	-0.007832751
206	0xbc4a7064	-0.012355898
207	0xbd634459	-0.055485103
208	0x3c3f2429	0.011666336
209	0x3c91dca1	0.0178054
210	0xbbf3a49f	-0.007435396
211	0x3d5b87ec	0.053596422
212	0xbbd9b0bc	-0.006643383
213	0xbd0eb2e7	-0.034838583
214	0x3d4fb3fb	0.050708752
215	0x3ccf7f07	0.025329126
216	0xbcdd717a	-0.027031649
217	0xbc3afd9e	-0.011413006
218	0x3d9a903f	0.07547044
219	0x3cdd3659	0.027003454
220	0xbdafdfe2	-0.08587624
221	0x3c48a3a1	0.012246043
222	0xbada4ab1	-0.001665434
223	0xbc3da558	-0.011575066
224	0x3ce2baf7	0.027677042
225	0xbd3336a5	-0.043753285
226	0xbbe6dbcb	-0.0070452443
227	0xbd3180d4	-0.04333575
228	0xbc1bd2ce	-0.009510709
229	0x3c9aaa6f	0.018880097
230	0x3db89f02	0.09014703
231	0x3cc1ec83	0.023672348
232	0x3d814332	0.063116446
233	0xbd27c368	-0.04095784
234	0x3b23f143	0.002501563
235	0xbc97e178	-0.018540129
236	0xbd04bb1e	-0.03240501
237	0x3c623c98	0.013808392
238	0xbc9e6161	-0.019333543
239	0x3d432390	0.047641337
240	0xbd0d2830	-0.034462154
241	0xbbcc5c32	-0.0062365765
242	0x3bf51039	0.0074787405
243	0xbc70f7cf	-0.01470752
244	0xbcaddcf3	-0.02122352
245	0xbd7503e4	-0.059818164
246	0xbc0188e1	-0.00790617
247	0xbc7641d4	-0.015030343
248	0x3b2ebc99	0.0026662706
249	0xbcbedc13	-0.023298299
250	0x3d093007	0.033493068
251	0xbd21b51b	-0.039479356
252	0x3cca55d5	0.024699131
253	0x3bdae07d	0.006679593
254	0xbd0e51fc	-0.034746155
255	0x3ca6d377	0.020364506

action_model._discrete_distribution.branches.1.bias f4 [3]
0	0x3d74cd1d	0.059765924
1	0x3d37e9df	0.04490077
2	0xbdd367a0	-0.10322499

action_model._discrete_distribution.branches.2.weight f4 [3, 256]
0	0x3dbba027	0.09161406
1	0x3d075dec	0.033048555
2	0xbd42feb2	-0.047606178
3	0xbba290be	-0.0049611023
4	0x3cb9b818	0.02267079
5	0x3d9f3483	0.07773688
6	0x3e0ce68c	0.13759822
7	0xbdd31c2a	-0.10308106
8	0x3e20c205	0.15699013
9	0xbdd43af1	-0.10362805
10	0xbc3ca912	-0.011514919
11	0xbd6dc8cb	-0.05805282
12	0x3dc05c80	0.09392643
13	0xbd23ab82	-0.039958484
14	0xbcaa4dac	-0.02078899
15	0xbc3b01f3	-0.011414039
16	0xbdffaff9	-0.12484736
17	0xbd5dbd06	-0.054135345
18	0xbbeff22f	-0.0073225717
19	0x3e632842	0.22183326
20	0x3dd88e26	0.10573988
21	0xbd8b9752	-0.068159714
22	0xbc1bb7b9	-0.009504252
23	0x3ceb88ef	0.028751818
24	0x3d227d14	0.039670065
25	0x3dd5de66	0.1044281
26	0xbe824bce	-0.2544846
27	0xbcdf5391	-0.027261527
28	0xbd154363	-0.036441218
29	0xbdd5ee62	-0.104458585
30	0x3dfd1cd8	0.12359017
31	0xbd18eeea	-0.03733722
32	0x3d00dd9b	0.03146134
33	0x3dc9d048	0.098541796
34	0xbd2ab643	-0.041677725
35	0x3dee6cd2	0.116418496
36	0x3c527abf	0.012846648
37	0xbcb25087	-0.021766914
38	0x3db2233b	0.08698126
39	0x3c86ec9f	0.016470252
40	0x3b93a942	0.004506261
41	0x3d6d4401	0.05792618
42	0x3d9ebedd	0.07751248
43	0x3c6c658b	0.014428507
44	0x3d1617ea	0.0366439
45	0x3d59ec30	0.05320376
46	0xbde71fc5	-0.112853564
47	0xbcb06498	-0.021532342
48	0x3c5af4ed	0.013364059
49	0x3e74226d	0.23841257
50	0x3d4e645a	0.05038867
51	0x3df27605	0.11838917
52	0x3c8dd654	0.017314114
53	0xbdc136d9	-0.094342895
54	0xbde0fe2f	-0.10985982
55	0x3cd28c62	0.025701705
56	0xbd76922d	-0.060197998
57	0x3dde9e3d	0.10870025
58	0xbd979373	-0.074011706
59	0xbd67a2be	-0.056551687
60	0x3da61bf5	0.08110801
61	0xbd89de2d	-0.0673183
62	0xbd1a024c	-0.037599847
63	0x3cdda105	0.02705432
64	0xba836ec6	-0.001002752
65	0x3d012811	0.03153235
66	0x3d4cc030	0.04998797
67	0xb9c6f53c	-0.00037948217
68	0x3d9a0ad2	0.07521595
69	0x3e1aa1fe	0.15100858
70	0xbd0efce3	-0.03490914
71	0xbcbe1bc2	-0.023206595
72	0x39e0a614	0.00042848347
73	0x3e027db1	0.1274326
74	0xbba809c9	-0.0051281196
75	0x3c98885e	0.018619712
76	0xbc6d3f32	-0.014480399
77	0x3bc52f37	0.0060175913
78	0x3da75266	0.08170013
79	0xbda0a34a	-0.07843645
80	0x3e02bdfd	0.12767787
81	0x3d9794ed	0.07401452
82	0x3c957adb	0.018247059
83	0x3c1fcb62	0.00975308
84	0x3da7e258	0.081974685
85	0xbde0acb4	-0.109704405
86	0xbba6f9b8	-0.0050956868
87	0x3dcf667e	0.10126971
88	0x3e04bcad	0.12962599
89	0x3d42b2ea	0.047533907
90	0x3c382583	0.011239412
91	0xbe0ec636	-0.13942799
92	0x3b6434e8	0.0034821574
93	0xbd4ade6f	-0.049528535
94	0xbda71b05	-0.081594504
95	0xbcaed4f2	-0.021341775
96	0x3cdb73f6	0.026788693
97	0x3d69797a	0.057000615
98	0x3cf00aee	0.029302087
99	0xbe1a3416	-0.15058932
100	0xbd37f834	-0.04491444
101	0x3dd31f8e	0.10308753
102	0x3e400e34	0.18755418
103	0x3da3876c	0.07984814
104	0x3c173eca	0.009231279
105	0x3d0d250b	0.034459155
106	0xbdd07f6e	-0.10180555
107	0x3ce0fbcc	0.027463816
108	0xbddfd28a	-0.10928829
109	0x3d8d8030	0.069092155
110	0x3cbc4b5a	0.02298515
111	0x3da9ac79	0.0828485
112	0xbc2724ed	-0.010201675
113	0x3d9d8653	0.07691636
114	0x3c57b0f1	0.013164745
115	0x3d10b8b1	0.035332385
116	0x3d83edcf	0.06441843
117	0xbdd2dac5	-0.10295633
118	0xbc884474	-0.016634203
119	0xbe2c8d8c	-0.16850871
120	0xbbff345f	-0.0077882255
121	0x3c8e0877	0.01733802
122	0x3e3127a8	0.17300284
123	0xbe7a9aa3	-0.24473052
124	0xbcb25263	-0.0217678
125	0x3cec350d	0.02883389
126	0x3e3f1645	0.18660839
127	0x3e91b941	0.2846165
128	0x3d730ed1	0.059340302
129	0xbde9893e	-0.1140313
130	0x3dd0fc40	0.10204363
131	0xbc9468fe	-0.01811647
132	0x3df6a1f8	0.12042612
133	0x3da41626	0.08012037
134	0x3c514d2c	0.012774747
135	0x3d8d16f9	0.06889147
136	0xbe10a81c	-0.14126629
137	0x3e68e9e7	0.22745477
138	0xbd7a9715	-0.06117924
139	0xbd8d8ead	-0.06911979
140	0x3dd65f51	0.10467399
141	0x3cbce2bf	0.02305734
142	0xbc3b2b21	-0.011423857
143	0x3eb67d97	0.35642692
144	0xbd71407a	-0.05889938
145	0x3db48e0d	0.088161565
146	0xbd2475e9	-0.04015151
147	0xbd8453d8	-0.064613044
148	0x3d8ddf67	0.06927376
149	0xbdadba72	-0.08482827
150	0x3dfc0da9	0.12307293
151	0xbaf00652	-0.001831243
152	0xbbd11da1	-0.006381706
153	0xbde08a76	-0.10963909
154	0x3d89e863	0.067337774
155	0xbb896390	-0.004192777
156	0x3d2f5b9b	0.04281197
157	0xbddcd51d	-0.10782836
158	0x3d44c8f7	0.048043218
159	0xbda902e9	-0.08252508
160	0x3d5c8818	0.053840727
161	0xbd4f4645	-0.050604124
162	0xbdfee8f5	-0.12446777
163	0xbe0d9b74	-0.13828832
164	0xbd06881e	-0.032844655
165	0xbce77935	-0.028256038
166	0x3c6e544d	0.014546466
167	0x3dc89f06	0.09795956
168	0xbd745048	-0.059646875
169	0xbd850bf4	-0.064964205
170	0xbd114d14	-0.035473898
171	0x3d864b24	0.06557301
172	0xbd470e8d	-0.04859786
173	0xbc86eae7	-0.016469432
174	0x3e5bd1fa	0.21466818
175	0x3df0afcb	0.1175228
176	0xbd9d795f	-0.07689165
177	0xbd359b18	-0.044337362
178	0x3e1c4f09	0.15264525
179	0xbca6d3e2	-0.020364705
180	0x3e0a2a49	0.13492693
181	0xbdb5714d	-0.08859501
182	0xbd370027	-0.04467788
183	0x3e958163	0.29200277
184	0x3c6b84b6	0.0143749025
185	0xbd361a66	-0.04445877
186	0x3cb0d3af	0.021585314
187	0xbdfa0142	-0.12207271
188	0x3daa363f	0.08311128
189	0xbd94b675	-0.072613634
190	0xbbad773e	-0.005293756
191	0xbc5e336a	-0.013562063
192	0x3ceecea3	0.029151266
193	0xbd9f743d	-0.077858426
194	0x3e10818e	0.14111921
195	0xbe3eb1f8	-0.18622577
196	0xbdbed2d5	-0.09317557
197	0x3d8bce15	0.068264164
198	0x3df14721	0.11781145
199	0x3daa4547	0.08313995
200	0xbdb0115e	-0.085970625
201	0xbd4c7638	-0.04991743
202	0x3da9c333	0.082891844
203	0xbd729113	-0.059220385
204	0x3c5532d5	0.013012608
205	0x3dd2e148	0.10296875
206	0x3d829763	0.06376531
207	0x3cd1c6d5	0.025607506
208	0x3d88ddc9	0.06682927
209	0xbc27555b	-0.010213221
210	0xba36ba37	-0.0006970497
211	0x3dd8e578	0.10590643
212	0x3d42a620	0.04752171
213	0x3ca7c4fb	0.02047967
214	0xbdf720db	-0.120668136
215	0xbb9281dc	-0.004471047
216	0x3c38cd0e	0.011279358
217	0x3d2183ef	0.039432462
218	0xbd24b4a4	-0.040211335
219	0x3d2ec5d0	0.042669117
220	0x3ed67b0a	0.41890746
221	0x3cf6e728	0.03013952
222	0x3cdd6b56	0.02702872
223	0xbd8411f1	-0.064487346
224	0xbd6baeb9	-0.057539675
225	0xbe1e157a	-0.1543788
226	0x3d8e59ad	0.06950698
227	0xbe306705	-0.17226799
228	0x3e17055b	0.14748137
229	0xbe2de9be	-0.16983697
230	0xbd57c3a1	-0.0526768
231	0x3db62d02	0.08895303
232	0x3d03d3cb	0.032184403
233	0x3d242383	0.04007293
234	0x3de033eb	0.109474026
235	0x3d8e2a06	0.06941609
236	0xbcaf3c8c	-0.021391176
237	0xbd2441ee	-0.040101938
238	0x3de3268c	0.110913366
239	0xbd2acd5e	-0.04169976
240	0xbd0d21d6	-0.034456097
241	0xbe8608c4	-0.26178563
242	0xbb97573d	-0.004618554
243	0xbdff18f0	-0.12455928
244	0x3dadd337	0.08487552
245	0xbd4b0aea	-0.049570955
246	0x3da88408	0.08228308
247	0x3bbbf8f2	0.0057364637
248	0xbc876df3	-0.01653192
249	0x3b86edb6	0.004117693
250	0x3c0b1c40	0.008490622
251	0x3e00dff7	0.12585436
252	0xbdd30c29	-0.10305054
253	0x3d9121cc	0.07086524
254	0xbe73b727	-0.23800336
255	0xbe2861db	-0.16443579

action_model._discrete_distribution.branches.2.bias f4 [3]
0	0x3d7cb59f	0.061696645
1	0xbdd6cc27	-0.10488158
2	0x3d0b6d60	0.034039855
