ML-Agents/results/obs-from-ultimate-volleyball/Volleyball/Volleyball-2999858.onnx (onnx, 291918 bytes, 15 tensors)

discrete_action_output_shape f4 [1, 4]
0	0x40400000	3.0
1	0x40400000	3.0
2	0x40400000	3.0
3	0x40000000	2.0

network_body.observation_encoder.processors.0.normalizer.running_mean f4 [11]
0	0x3e3b75b9	0.18306626
1	0x3de78649	0.1130491
2	0x3ef9a556	0.48758954
3	0x3f262d42	0.6491281
4	0x413956e2	11.583712
5	0xbcb36171	-0.02189705
6	0x3e985215	0.29750124
7	0x3c90fe5a	0.01769941
8	0xc07d8c0f	-3.9616735
9	0x2e6feb85	5.4551492e-11
10	0xaf18f2f2	-1.3910631e-10

network_body._body_endoder.seq_layers.0.weight f4 [256, 11]
0	0xbe5eb06e	-0.2174699
1	0x3d8b2997	0.06795042
2	0x3e088dce	0.13335344
3	0xbf075dd5	-0.5287755
4	0x3ea5426c	0.32277238
5	0xbd21f3cf	-0.039539155
6	0xbe282f80	-0.1642437
7	0xbe0c5112	-0.13702801
8	0xbe20c28e	-0.15699217
9	0x3ce2938f	0.027658252
10	0x3ea42ee7	0.32067034
11	0xbe84e004	-0.2595216
12	0x3dc3dfa9	0.09564144
13	0x3f0910a1	0.53541
14	0xbf7446c5	-0.95420486
15	0x3ef00bde	0.46884054
16	0xbd0e6af8	-0.034769982
17	0xbe190207	-0.1494218
18	0xbd3b3314	-0.04570301
19	0x3cec17f8	0.028820023
20	0x3dc00e5a	0.09377737
21	0xbe0d3960	-0.13791418
22	0xbd0171e3	-0.03160275
23	0xbeefc6a8	-0.4683125
24	0x3e837689	0.25676373
25	0x3d8b5b39	0.06804509
26	0xbf03e06a	-0.51514304
27	0xbe05e1f8	-0.13074481
28	0xbe3bfce2	-0.18358186
29	0x3ed7cdf9	0.42149332
30	0xbe96268f	-0.29326293
31	0x3c9c7f8a	0.019103784
32	0xbe9404fc	-0.28910053
33	0x3e88963a	0.26677114
34	0xbeef7bdf	-0.46774194
35	0xbe3900cd	-0.18066712
36	0x3dff7b56	0.12474696
37	0xbd72d76b	-0.05928747
38	0xbb4bb3a6	-0.003108242
39	0x3e942497	0.28934166
40	0x3e4ba887	0.19888507
41	0x3f0f58a9	0.5599466
42	0xbe5f02ef	-0.21778463
43	0xbe76b766	-0.24093398
44	0xbdb4bc49	-0.08824975
45	0xbdb85c82	-0.090020195
46	0xbcfb987b	-0.030712357
47	0x3e316713	0.17324476
48	0x3e171d51	0.14757277
49	0xbc0d14ad	-0.0086108865
50	0x3e00cf42	0.12579063
51	0x3f000b16	0.50016916
52	0xbefeb214	-0.49745238
53	0x3f8333c4	1.0250173
54	0x3f458d22	0.77168477
55	0x3eea1697	0.4572036
56	0xbed34806	-0.41265887
57	0xbde43287	-0.1114245
58	0xbd6d1e2b	-0.0578901
59	0xbf04c54c	-0.5186355
60	0xbcbdf40e	-0.023187663
61	0xbe1f8748	-0.1557895
62	0xbdd5332f	-0.10410153
63	0x3e776d5c	0.24162811
64	0xbdea12d6	-0.11429374
65	0x3dfaf8d3	0.12254491
66	0x3e2e243c	0.1700601
67	0xbee850d0	-0.45374155
68	0xbee976b8	-0.45598388
69	0xbe4bed55	-0.19914754
70	0x3d149585	0.036275405
71	0x3da47d5a	0.080317214
72	0xbeadd112	-0.3394857
73	0x3e8a9118	0.27063823
74	0x3cbd9643	0.02314294
75	0xbf1389f1	-0.57632357
76	0xbe8cb7d7	-0.2748401
77	0xbedc4887	-0.43024084
78	0x3eaa10ce	0.33215946
79	0xbdf39822	-0.118942514
80	0xbf10c498	-0.5654998
81	0xbe607fb0	-0.21923709
82	0xbf13e3ee	-0.5776967
83	0xbea7bf47	-0.3276312
84	0x3e1166e1	0.14199401
85	0xbf59d6c3	-0.85093325
86	0x3f27dfd8	0.65575933
87	0x3e53218a	0.20618263
88	0xbe945b54	-0.28975928
89	0x3f32784c	0.6971481
90	0x3e8633cb	0.2621139
91	0x3d0aedf2	0.03391833
92	0xbf308c5c	-0.6896417
93	0x3b401492	0.0029309136
94	0x3d8dd233	0.06924858
95	0xbc517c36	-0.012785962
96	0x3e6b4432	0.22975233
97	0x3ebb9589	0.36637524
98	0x3d91b64d	0.07114849
99	0x3dbf73a5	0.09348229
100	0xbed9c66b	-0.42534193
101	0x3e9f572d	0.31121197
102	0x3e2ab8e8	0.16672099
103	0x3eaae35e	0.33376592
104	0x3e9ff7e8	0.31243825
105	0xbea760df	-0.32691094
106	0xbecfa675	-0.40556684
107	0xbe7a9ede	-0.24474666
108	0x3e32e303	0.1746941
109	0xbe3fce33	-0.18731003
110	0xbd26f977	-0.040765252
111	0x3ee63f30	0.44970083
112	0xbef02c98	-0.46909022
113	0xbe94c297	-0.2905471
114	0x3e4602a1	0.1933694
115	0x3ea28846	0.31744593
116	0x3e301db6	0.17198834
117	0xbe9dec5f	-0.308444
118	0x3e71627c	0.23572725
119	0xbf1c2fa5	-0.610102
120	0xbddf3440	-0.10898638
121	0x3e2e8b16	0.17045245
122	0xbec3c34e	-0.38234943
123	0xbedc68ed	-0.43048802
124	0xbf3a05df	-0.7266521
125	0xbf0ae070	-0.54248714
126	0xbd202ede	-0.039107196
127	0xbe6d340d	-0.23164387
128	0xbd151983	-0.036401283
129	0x3df24da2	0.118312135
130	0xbf12a3a6	-0.5728096
131	0x3ddad5d5	0.106853165
132	0x3e537242	0.20649055
133	0xbedf6a49	-0.43635777
134	0xbe393a61	-0.18088676
135	0x3eecf581	0.46281055
136	0x3e3a0b6d	0.18168421
137	0x3efeeb07	0.49788687
138	0x3d9dfa21	0.07713724
139	0x3f17cf94	0.59301114
140	0xbdc50a55	-0.09621111
141	0x3eb1675b	0.34649166
142	0xbeebca2e	-0.46052688
143	0x3d0fba63	0.03508986
144	0x3e7900f2	0.24316767
145	0xbeb3049c	-0.34964454
146	0x3e0498e4	0.12948948
147	0x3de857a0	0.11344838
148	0xbe057fef	-0.13037084
149	0x3eead991	0.45869115
150	0x3e0f669d	0.14003988
151	0xbcb0982c	-0.021556936
152	0x3f57420a	0.8408514
153	0x3de8e4b0	0.11371744
154	0x3eee772d	0.465753
155	0x3e732ff2	0.23748758
156	0x3ecb3740	0.3969059
157	0x3f21f455	0.63263446
158	0xbe0e0031	-0.1386726
159	0xbe5b2230	-0.2139976
160	0x3eb99525	0.362466
161	0x3e3fb983	0.18723111
162	0x3e437197	0.190863
163	0xbe96f4d2	-0.29483658
164	0xbf3ef4e7	-0.7459244
165	0xbf072776	-0.5279459
166	0xbe7883c4	-0.24269015
167	0xbec49087	-0.38391516
168	0x3f475678	0.77866316
169	0x3eeb6106	0.4597246
170	0xbe17affc	-0.14813226
171	0xbedbcb59	-0.4292858
172	0x3ea83f2a	0.3286069
173	0x3d6976b9	0.05699799
174	0xbe890c71	-0.26767305
175	0x3d2f815e	0.042847984
176	0xbee1fcd5	-0.44138208
177	0xbe21fb4c	-0.15818518
178	0x3f26ed4d	0.6520584
179	0x3e1ff6bb	0.15621464
180	0x3eb9a5cf	0.36259314
181	0xbef73484	-0.48282254
182	0x3e62a0ca	0.22131649
183	0xbe982a81	-0.29719928
184	0x3e6be0cb	0.2303497
185	0xbefdebc0	-0.49593925
186	0x3e95f39b	0.2928742
187	0x3e97d4c2	0.2965451
188	0xbc057799	-0.00814619
189	0xbf46fa4d	-0.7772568
190	0xbdde99db	-0.10869189
191	0xbe157290	-0.14594483
192	0xbeddfd61	-0.43357375
193	0xbf2f5625	-0.6849082
194	0x3eba462c	0.36381662
195	0xbe50a16c	-0.20374078
196	0xbd581d8c	-0.052762553
197	0x3e86aba0	0.26302814
198	0xbf429a27	-0.7601647
199	0x3ea1c4af	0.3159537
200	0x3ec5ae5c	0.38609588
201	0x3eebd810	0.4606328
202	0x3e834369	0.25637367
203	0xbe80c094	-0.25146925
204	0x3ea0c1d2	0.31397873
205	0x3f0ced3e	0.550495
206	0xbd2eb957	-0.042657223
207	0x3e720cc1	0.23637678
208	0x3dca06a6	0.09864549
209	0xbe8327e4	-0.25616372
210	0xbf0c3376	-0.54766023
211	0xbe83c829	-0.25738648
212	0xbee8d2c8	-0.45473313
213	0x3e958cb3	0.29208907
214	0x3dd4fd8d	0.103999235
215	0x3dca68a1	0.09883238
216	0xbda642ec	-0.08118233
217	0xbe28e26e	-0.16492626
218	0xbe533c4b	-0.20628469
219	0x3c9ae90c	0.018909954
220	0xbe9f6115	-0.31128755
221	0x3ea0db6d	0.3141741
222	0xbedb3f99	-0.4282196
223	0xbe88df21	-0.26732734
224	0x3e989fd4	0.2980944
225	0x3ce65aef	0.028119532
226	0x3e9fa690	0.31181765
227	0xbeb33f11	-0.35009053
228	0x3e465664	0.19368893
229	0x3e12ab78	0.14323223
230	0x3e52943d	0.20564361
231	0xbf0ca98a	-0.54946196
232	0xbe63c85d	-0.22244401
233	0x3f0ba2e6	0.5454544
234	0xbd9afbe0	-0.075675726
235	0x3db7de4c	0.08977947
236	0x3ea8ccf9	0.32968882
237	0xbe30b979	-0.17258252
238	0xbec8f83f	-0.39251897
239	0xbe8b3489	-0.2718852
240	0xbd063136	-0.032761775
241	0x3b92fc79	0.0044856635
242	0x3e1290de	0.14313075
243	0xbebd3f90	-0.36962557
244	0xbedcbf5d	-0.4311475
245	0xbe317288	-0.17328846
246	0x3e9ffc8e	0.3124737
247	0x3d50bb6a	0.050959982
248	0x3df5653a	0.11982198
249	0xbefd7660	-0.49504375
250	0x3c19b84a	0.009382317
251	0x3e1edb11	0.15513255
252	0xbee58a7f	-0.44832227
253	0x3ef55378	0.47915244
254	0xbe2ec483	-0.17067151
255	0xbee38a9b	-0.44441685

network_body._body_endoder.seq_layers.0.bias f4 [256]
0	0xbcb0571c	-0.021525912
1	0x3dfb4ee7	0.12270909
2	0x3bcd907b	0.006273327
3	0x3d4fed0e	0.050763182
4	0x3d256106	0.040375732
5	0xbc140181	-0.009033562
6	0x3d32db2f	0.04366606
7	0xbd15ea9b	-0.03660069
8	0x3ded76fa	0.115949586
9	0x3d8e6a5b	0.069538794
10	0x3cfd567d	0.03092503
11	0xbbb3dc22	-0.0054888884
12	0x3ca5e8da	0.020252634
13	0x3d7b1bc9	0.061305795
14	0x3e2c118f	0.16803573
15	0x3cef03d5	0.029176632
16	0x3de2c829	0.11073334
17	0x3d810640	0.0630002
18	0x3dc97746	0.09837203
19	0xbd31f75d	-0.043448795
20	0x3c34b5f4	0.011029709
21	0x3dca13f1	0.09867085
22	0x3d481e09	0.04885677
23	0xbcb5cf49	-0.022193568
24	0x3c37b22c	0.011211913
25	0x3e2aebf3	0.1669157
26	0x3d2ec71d	0.042670358
27	0x3d927c03	0.071525596
28	0x3c90fb46	0.017697942
29	0x3c6813ff	0.014164924
30	0x3d543e88	0.051817447
31	0x3cea374e	0.028590824
32	0x3deb83e3	0.11499765
33	0x3e0f8d12	0.14018658
34	0x3ddb023b	0.10693785
35	0x3d70625f	0.058687564
36	0xbd750a65	-0.059824366
37	0x3cbf77f5	0.02337263
38	0x3d800d5e	0.062525496
39	0x3dbfb68b	0.09360989
40	0x3de4cb0a	0.11171539
41	0x3d979b74	0.07402697
42	0x3b9f3a71	0.0048592617
43	0x3d34180b	0.04396824
44	0x3c86cd4c	0.016455315
45	0x3d82f9cd	0.06395302
46	0x3e189be0	0.14903212
47	0x3d454953	0.04816563
48	0xba91bfbf	-0.0011119767
49	0x3de40381	0.11133481
50	0x3df1f7b2	0.11814822
51	0x3dce950c	0.10087022
52	0xbd2486bc	-0.040167555
53	0x3df299f5	0.11845771
54	0x3e05c550	0.1306355
55	0x3db0b5a3	0.086283945
56	0x3d1628e2	0.036660083
57	0x3df441e8	0.11926633
58	0x3e05c452	0.13063172
59	0x3ca7a379	0.020463692
60	0x3d85d384	0.06534484
61	0x3d490b15	0.049082834
62	0x3d2988fc	0.041390404
63	0xbd27ea2f	-0.04099482
64	0xbd780454	-0.060551003
65	0x3dc44a79	0.09584517
66	0x3db65813	0.089035176
67	0x3e12bd4e	0.14330027
68	0x3d524bc4	0.051341787
69	0xbd121927	-0.03566852
70	0xbd1f414f	-0.038880643
71	0x3c8ab1be	0.016930457
72	0xbd7f2d91	-0.062299315
73	0xbce2027b	-0.027589073
74	0x3c8a08ab	0.016849836
75	0x3d2ceb30	0.04221648
76	0x3dba0af6	0.09084122
77	0x3d8762f8	0.06610674
78	0x3dd4fe59	0.104000755
79	0x3c8eb1dc	0.017418794
80	0x3dd3f2c9	0.10349042
81	0x3d9d04da	0.07666941
82	0x3dfd91b8	0.12381309
83	0x3c7f7a79	0.015593165
84	0x3c268138	0.010162644
85	0x3d809664	0.06278685
86	0x3deccd2f	0.11562573
87	0xbc56eb1f	-0.013117581
88	0x3d1ea568	0.038731962
89	0x3dc3c206	0.095584914
90	0x3ce9e76a	0.02855273
91	0xbb42b134	-0.0029707672
92	0x3d38d24a	0.045122422
93	0x3db0cd55	0.08632914
94	0xbd2788ed	-0.040902067
95	0x3cf74964	0.030186363
96	0x3d867012	0.065643445
97	0x3dab805c	0.08374092
98	0xbdaeb7e2	-0.085311666
99	0x3dbf05c0	0.093272686
100	0xbcef8c8d	-0.029241825
101	0x3de96ff8	0.113983095
102	0xbd1f154f	-0.03883868
103	0x3d8a7436	0.06760447
104	0x3db3717a	0.08761878
105	0x3de387cf	0.11109888
106	0x3dfa89bf	0.12233304
107	0x3ca0f7fb	0.019649496
108	0x3c8961f3	0.016770339
109	0x3d6d0644	0.057867303
110	0x3da4c653	0.0804564
111	0x3e12ad08	0.14323819
112	0x3d84efe1	0.06491066
113	0x3d2c1659	0.0420135
114	0x3cfffbeb	0.031248054
115	0x3db0efc8	0.08639485
116	0x3dd37559	0.10325117
117	0x3d94c19d	0.07263491
118	0xbc777aa0	-0.01510492
119	0x3cde68f4	0.027149655
120	0xbd535741	-0.051596884
121	0xbc8b115a	-0.016976047
122	0x3dbe2767	0.09284859
123	0x3dce5058	0.10073918
124	0x3e006853	0.12539797
125	0xbb880d2a	-0.00415196
126	0x3d1afb41	0.03783727
127	0x3d5b7a6d	0.05358355
128	0x3cddf2b6	0.027093273
129	0x3c9852da	0.018594194
130	0x3a6e6d6d	0.0009095285
131	0x3dace93b	0.08442923
132	0x3ce7f07a	0.02831291
133	0x3d14f174	0.03636308
134	0x3dac8dab	0.084254585
135	0x3de1d847	0.1102758
136	0x3e07983c	0.13241667
137	0x3dde2190	0.10846245
138	0x3c68254d	0.014169049
139	0xbb17ea96	-0.0023180596
140	0x3dce5f89	0.10076816
141	0x3d9b55a4	0.07584694
142	0xbca0cc1a	-0.019628573
143	0x3c9800aa	0.018555004
144	0xbd837fdf	-0.06420874
145	0x3c168ab7	0.009188346
146	0xbcdd65b7	-0.02702604
147	0x3d27878d	0.040900756
148	0x3df0f735	0.11765901
149	0x3dc28669	0.09498293
150	0x3cbb93cd	0.022897625
151	0xbd06eeb5	-0.032942493
152	0xbcb09ed3	-0.021560108
153	0x3d22c58b	0.039739173
154	0x3d42fc69	0.047604
155	0x3d1b71f6	0.03795048
156	0x3cd12512	0.025530372
157	0xbc46bcfe	-0.01213002
158	0x3d447e1b	0.047971826
159	0x3d304820	0.043037534
160	0x3dad992e	0.08476482
161	0x3dc38ef0	0.095487475
162	0x3cddf728	0.027095392
163	0x3d4814bf	0.04884791
164	0x3d688519	0.056767557
165	0x3b3e8d00	0.0029075742
166	0x3d6690f4	0.05629058
167	0x3de15852	0.11003174
168	0x3d1f76c8	0.038931638
169	0x3d808050	0.06274474
170	0x3def216b	0.11676296
171	0x3d6bca64	0.05756606
172	0x3d94cae2	0.07265259
173	0xbd596e9c	-0.053084
174	0x3d8a62a6	0.06757097
175	0xb9e04c99	-0.0004278168
176	0xbca2079a	-0.019779015
177	0x3d884e8b	0.06655606
178	0x3dabbdd8	0.08385819
179	0x3d92ca2e	0.07167469
180	0x3d7a3ad9	0.061091278
181	0x3d2d0878	0.042244405
182	0x3dc4c4ee	0.09607874
183	0x3da79580	0.08182812
184	0x3d9d66c2	0.07685615
185	0x3d8b2eac	0.06796011
186	0x3e10badc	0.14133781
187	0x3cb659fa	0.022259701
188	0x3d1b4e9f	0.037916776
189	0x3b429dfa	0.0029696212
190	0x3d61ce44	0.05512835
191	0x3dce2260	0.1006515
192	0x3cb228da	0.021747995
193	0x3daf49b8	0.085589826
194	0x3d0fedc7	0.03513887
195	0x3d3553a8	0.044269234
196	0x3d941fad	0.07232604
197	0x3dce7071	0.1008004
198	0x3dd67bd9	0.10472841
199	0x3d8b8e68	0.06814271
200	0xbd026071	-0.031830255
201	0x3d835f4f	0.06414663
202	0x3dcadcd6	0.09905402
203	0x3dc3012c	0.09521708
204	0x3c7cbdae	0.015426083
205	0x3d8759d5	0.06608931
206	0x3dbbd53f	0.09171533
207	0x3dc94fcc	0.09829673
208	0x3e044978	0.12918651
209	0xbc854412	-0.01626781
210	0x3dc8b7d4	0.098006874
211	0x3dafe92a	0.085893944
212	0x3d3717cd	0.044700433
213	0xbd68b4cf	-0.056813058
214	0x3df12aa1	0.11775709
215	0x3dbcede5	0.09225062
216	0x3cc8070f	0.024417428
217	0x3c7f5578	0.015584342
218	0x3dfdcb34	0.123922735
219	0x3d288afc	0.04114817
220	0x3da2f7c1	0.079574116
221	0x3e03870f	0.1284449
222	0x3d807718	0.06272715
223	0x3d9d3cef	0.07677638
224	0x3e1049b7	0.1409062
225	0x3d507c4d	0.050899792
226	0xbc146416	-0.0090570655
227	0x3dad8c13	0.08473983
228	0x3dbe3889	0.09288127
229	0x3d48be4b	0.049009603
230	0x3d4d322a	0.05009667
231	0x3ca39d7b	0.019972553
232	0xbbb00de7	-0.005372751
233	0x3df07078	0.11740202
234	0x3defc8b6	0.117082044
235	0x3bd67bd6	0.006545524
236	0x3c38d967	0.0112823015
237	0x3c2dad1f	0.010600357
238	0xbc93fcad	-0.018064821
239	0x3d9b4089	0.075806685
240	0x3de1a709	0.110181876
241	0x3db37f03	0.0876446
242	0x3cc3c6d6	0.023898523
243	0x3d89e12f	0.067324035
244	0x3c9970b3	0.018730497
245	0x3dcd36ad	0.10020194
246	0x3e055d7c	0.13023943
247	0x3cc84444	0.024446614
248	0x3e2bde4d	0.1678402
249	0x3d1dcbea	0.038524546
250	0x3d5971d1	0.05308706
251	0xbcb21b38	-0.021741495
252	0x3d44f55e	0.048085563
253	0x3dae55ad	0.08512435
254	0x3d9dcd60	0.07705188
255	0x3d96a1cb	0.07355078

network_body._body_endoder.seq_layers.2.weight f4 [256, 256]
0	0xbdd14ac4	-0.102193385
1	0xbc5e4a40	-0.013567507
2	0xbdaa9fac	-0.08331236
3	0x3d5091b2	0.050920196
4	0xbcc776cd	-0.02434864
5	0xbd1bb941	-0.03801847
6	0x3d0b34fb	0.033986073
7	0xbe02bc2d	-0.12767096
8	0x3dbea692	0.093091145
9	0x3c752e5e	0.014964668
10	0x3d9b0888	0.075699866
11	0x3d8e680d	0.0695344
12	0xbdd2f374	-0.10300341
13	0x3b0ff24f	0.0021964496
14	0xbd14e744	-0.036353365
15	0x3cbdf712	0.023189101
16	0x3df9d54c	0.12198886
17	0xbd6fda9b	-0.058558088
18	0xbd3116b7	-0.043234553
19	0xbe5043ff	-0.20338438
20	0x3c90afc3	0.017661935
21	0x3dcaa527	0.098947816
22	0xbca10fb0	-0.0196608
23	0xbd8d9c3d	-0.06914566
24	0x3cc3131c	0.023812823
25	0xbd19354a	-0.037404336
26	0x3cabc21f	0.020966588
27	0x3d945b89	0.072440214
28	0x3e2300f1	0.15918328
29	0x3d5cf23a	0.053941943
30	0xbd1216eb	-0.035666388
31	0x3e04ea80	0.1298008
32	0x3e055aec	0.13022965
33	0x3cd4dd0a	0.025984306
34	0x3da2fc1d	0.07958243
35	0xbb074c4f	-0.0020644849
36	0xbd985c3e	-0.07439469
37	0xbd5ca9a8	-0.053872734
38	0xba2030fc	-0.0006110815
39	0xbc92dd2f	-0.017927734
40	0xbda8107f	-0.082062714
41	0xbca0cb85	-0.019628296
42	0xbb885457	-0.0041604447
43	0x3dc09769	0.09403879
44	0xbd6b3fea	-0.057434
45	0x3d003161	0.03129709
46	0xbc101855	-0.008794864
47	0x3cb4eee3	0.022086566
48	0x3db94bdf	0.090476744
49	0xbc0c6bfc	-0.008570667
50	0x3e28a55b	0.16469328
51	0x3de2e8de	0.11079572
52	0xbc7df4de	-0.015500275
53	0x3d0d2bc4	0.034465566
54	0x3e1a52b4	0.15070611
55	0x3dc37df1	0.09545506
56	0xbda6aa9f	-0.08138012
57	0x3d4a9730	0.04946059
58	0x3e14591f	0.14487122
59	0xbd5d0d59	-0.053967807
60	0xbcd98b5a	-0.026555706
61	0x3d7347a4	0.059394494
62	0x3d1b36af	0.037893947
63	0x3d360571	0.044438783
64	0xbe13b88b	-0.14425866
65	0x3da25f0d	0.07928286
66	0xbdb60d19	-0.08889217
67	0x3e023a02	0.1271744
68	0xbd695b45	-0.056971807
69	0xbceabb60	-0.0286538
70	0xbdc3537e	-0.09537409
71	0xbdbf9599	-0.09354705
72	0xbd1d0e5a	-0.038343765
73	0xbdf74aa2	-0.12074782
74	0x3cb705ec	0.022341691
75	0xbd926498	-0.07148093
76	0xbd868451	-0.06568206
77	0x3d3897bc	0.04506658
78	0x3cdd6b0f	0.027028589
79	0x3c48ac6f	0.012248143
80	0xbdb34141	-0.087526806
81	0x3dd7ba9d	0.105336405
82	0x3c6c5030	0.014423415
83	0x3dcf24e9	0.10114462
84	0x3e6a50c2	0.22882369
85	0xbbca3447	-0.0061707827
86	0x3dd8233f	0.10553598
87	0x3d46cc2d	0.04853456
88	0xbe37ed82	-0.17961696
89	0x3cfd4524	0.030916758
90	0xbdbdcb24	-0.092672616
91	0x3d2662e6	0.04062166
92	0x3d53e73e	0.0517342
93	0xbd939fac	-0.07208189
94	0xbe1ec1e4	-0.15503651
95	0xbd758133	-0.059937667
96	0xbd8efcc9	-0.06981809
97	0xbe24bbfa	-0.16087332
98	0xbd2a2d76	-0.04154726
99	0xbd9cbc88	-0.07653147
100	0x3d6df795	0.05809744
101	0x3e43c3bf	0.1911764
102	0x3cabf149	0.020989077
103	0x3d32c1bc	0.04364179
104	0x3d7a4d2d	0.061108757
105	0x3d398214	0.045290068
106	0x3d023554	0.03178914
107	0x3ca2990c	0.019848369
108	0xbe083f3c	-0.13305372
109	0xbdfb9b6b	-0.12285503
110	0xbd011a75	-0.031519372
111	0x3e1dd72c	0.15414113
112	0x3d848fd0	0.064727426
113	0x3da89d96	0.08233182
114	0xbe34bb98	-0.17649686
115	0x3dc6bf76	0.09704487
116	0x3ddef859	0.10887212
117	0xbd5921ac	-0.053010628
118	0xbd9fee33	-0.07809105
119	0x3c4dde96	0.012565276
120	0x3bdd309f	0.006750181
121	0xbccf0abc	-0.025273673
122	0xbdd3f1ee	-0.10348879
123	0x3e15123e	0.1455774
124	0x3e0a721e	0.13520095
125	0x3e2af3a9	0.16694511
126	0xbe3e5c1f	-0.18589829
127	0x3d54b0ab	0.051926296
128	0xbda3831f	-0.07983994
129	0x3d551266	0.0520195
130	0x3d829220	0.063755274
131	0x3d86909b	0.0657055
132	0x3d3c1b06	0.04592421
133	0xbc21d342	-0.009877028
134	0x3df33206	0.118747756
135	0xbcbe0fb7	-0.023200853
136	0xbc93205b	-0.017959764
137	0x3d3eea3f	0.046610113
138	0xbd9a552f	-0.07535779
139	0x3da9a359	0.08283109
140	0xbde17090	-0.11007798
141	0xbd34a2ae	-0.044100456
142	0x3d64f5f2	0.055898614
143	0x3de09cb5	0.109673895
144	0x3d15711d	0.036484826
145	0xbccbdcbd	-0.02488553
146	0xbdac6318	-0.08417338
147	0xbdde5510	-0.10856068
148	0x3dc74dfa	0.0973167
149	0x3d1c8d1a	0.038220502
150	0xbda690b7	-0.08133071
151	0x3ddbd2b5	0.107335486
152	0xbdd0fc83	-0.10204413
153	0x3d0cf31d	0.03441154
154	0xbdc2f620	-0.09519601
155	0x3d6853c3	0.056720506
156	0x3c396372	0.0113152135
157	0xbbb4d968	-0.005519081
158	0xbd88d177	-0.06680577
159	0xbe21296e	-0.1573846
160	0x3d7fa6f3	0.062415075
161	0xbd15b842	-0.036552675
162	0xbd9493a4	-0.07254723
163	0xbd2f26c9	-0.042761598
164	0x3d6283a8	0.05530134
165	0xbddbdc33	-0.10735359
166	0x3cc4e146	0.0240332
167	0xbe573e8a	-0.2101995
168	0xbd1731f7	-0.036912885
169	0xbd2b56ec	-0.041830942
170	0xbce32573	-0.027727818
171	0xbb4ff553	-0.0031731918
172	0x3e147f08	0.14501584
173	0xbc918d79	-0.017767655
174	0x3d63381f	0.055473443
175	0x3d8dd213	0.06924834
176	0x3daa850d	0.08326159
177	0x3d56bb21	0.052424554
178	0x3ca6bc69	0.020353513
179	0x3c6cd106	0.014454132
180	0x3d14af7c	0.036300167
181	0xbbc1ee5d	-0.0059183077
182	0x3cd4c532	0.025972936
183	0x3df8d488	0.12149912
184	0x3c3af69e	0.011411337
185	0x3e06e99f	0.13175057
186	0x3d9a45bc	0.07532832
187	0xbdb87008	-0.09005743
188	0x3d96caf5	0.0736293
189	0x3cf36977	0.029713375
190	0xbd383832	-0.044975467
191	0xb968e89e	-0.00022211901
192	0xbc0682e5	-0.008209919
193	0x3dd92b46	0.10603957
194	0x3e0c3ea7	0.13695775
195	0x3d0fd6c1	0.035116915
196	0x3dd2d0a0	0.10293698
197	0xbcd8b047	-0.026451243
198	0x3d5617c1	0.052268747
199	0x3dd98a76	0.106221125
200	0xbd6cbffb	-0.057800274
201	0xbd70f057	-0.058822956
202	0x3db7306c	0.089447826
203	0x3dbc2832	0.09187354
204	0x3d10413e	0.03521847
205	0x3cd46e04	0.025931366
206	0x3c037e1e	0.008025674
207	0xbd101c83	-0.03518344
208	0x3db1d13d	0.08682487
209	0xbc54f79a	-0.012998486
210	0x3d517ad7	0.05114254
211	0xbdcc2ec1	-0.09969855
212	0xbc9474de	-0.018122133
213	0xbdfb29b3	-0.12263813
214	0xbdae2a02	-0.08504106
215	0xbe823c8d	-0.25436822
216	0x3da0db20	0.07854295
217	0x3da33884	0.07969764
218	0x3e29c6ae	0.16579697
219	0xbd78a168	-0.060700804
220	0x3c7e33e7	0.015515304
221	0xbcba094e	-0.022709515
222	0x3d47d837	0.048790183
223	0x3d60da75	0.054895837
224	0xbbe763dd	-0.007061465
225	0xbd55fc4e	-0.05224257
226	0x3d65fb82	0.05614806
227	0xbd7f22a5	-0.0622889
228	0xbc2f2e55	-0.010692199
229	0xbe1479b0	-0.14499545
230	0x3dfb62db	0.122747146
231	0x3d2064f9	0.039158795
232	0xbd9bca54	-0.076069504
233	0xbd084a67	-0.03327408
234	0x3d7efad4	0.062250927
235	0x3d87c38a	0.06629093
236	0x3c767926	0.0150435325
237	0xbd102feb	-0.035201948
238	0xbdb49c56	-0.08818881
239	0xbdbb37d3	-0.09141507
240	0x3d150f1f	0.036391374
241	0xbc95f13a	-0.018303502
242	0x3d25e95b	0.04050575
243	0xbdd303fa	-0.10303493
244	0xbe35f17e	-0.17767903
245	0x3dadf045	0.084930934
246	0x3d0dcb58	0.03461775
247	0xbd63f771	-0.0556559
248	0x3dadb287	0.08481317
249	0xbda2f2d9	-0.07956476
250	0x3d932030	0.07183874
251	0xbd63372c	-0.055472538
252	0x3d46bf1e	0.048522107
253	0x3e085775	0.13314612
254	0x3be654c7	0.007029149
255	0xbd98b355	-0.0745608

network_body._body_endoder.seq_layers.2.bias f4 [256]
0	0x3daeaaf3	0.085287
1	0x3d2eb2b3	0.04265089
2	0xbd1b151a	-0.03786192
3	0x3cff6d37	0.031180007
4	0x3c957a79	0.018246876
5	0x3c3f2a38	0.011667781
6	0x3d8bb6a7	0.068219475
7	0xbcd62ce0	-0.026144445
8	0x3dbcd75a	0.092207626
9	0x3c961342	0.01831973
10	0x3cdabfb7	0.026702745
11	0x3cbd3d48	0.02310051
12	0x3c04a2ee	0.008095486
13	0x3c031186	0.007999783
14	0x3919030c	0.00014592352
15	0xbb29257b	-0.0025809694
16	0xba5ac837	-0.00083458744
17	0xbcf86f8e	-0.03032663
18	0x3ce71dc0	0.028212428
19	0x3d944fdf	0.07241797
20	0xbc9783bf	-0.018495439
21	0x3d0e0afd	0.034678448
22	0xbc06b0f1	-0.008220897
23	0x3d19fc9a	0.037594415
24	0xbd909e19	-0.07061405
25	0x39b7f5fb	0.0003508775
26	0xbc6384a1	-0.013886602
27	0xbc31f9f7	-0.010862819
28	0x3cccaec0	0.024985671
29	0xbba8466e	-0.005135349
30	0x3d0495fa	0.03236959
31	0x3db4f02b	0.08834871
32	0x3da71dc2	0.08159973
33	0x3d54accd	0.05192261
34	0xbb804dbb	-0.003915516
35	0x3d13342a	0.03593842
36	0xbd3c3f88	-0.045959026
37	0x3d31b1b6	0.04338237
38	0x3dac1a61	0.08403469
39	0xbcdffd8e	-0.027342584
40	0x3c217846	0.009855336
41	0x3cf1ab6f	0.029500691
42	0x3d9d0609	0.07667167
43	0x3c7fbfc1	0.015609683
44	0x3d7a6f23	0.061141144
45	0x3cd30f71	0.025764199
46	0x3cc6dd2a	0.024275381
47	0x3d2d6aab	0.042338055
48	0x3b7d2de9	0.00386321
49	0x3c836285	0.016038189
50	0x3cf28f89	0.029609459
51	0xbd0f6e27	-0.03501716
52	0xbc4ad080	-0.012378812
53	0x3c3fa636	0.011697343
54	0xbbce945a	-0.006304306
55	0xbcc4e8d8	-0.02403681
56	0x3c78aaa5	0.015177404
57	0x3d1a3eda	0.037657596
58	0xbd645711	-0.055747095
59	0xbda886cc	-0.082288355
60	0xbd874d48	-0.06606537
61	0xbcdb9af1	-0.02680728
62	0xbcf4b5b3	-0.029871797
63	0xbd862f25	-0.06551961
64	0xbc84c2c6	-0.016206156
65	0xbbf3a8f3	-0.007435912
66	0xbb46ef29	-0.0030354953
67	0xbc034401	-0.008011819
68	0x3cf047d0	0.029331118
69	0xbd2daee7	-0.042403128
70	0x3d5b71c3	0.05357529
71	0x3d8c61d9	0.068546005
72	0x3d2b5027	0.041824486
73	0xbc1666d8	-0.009179793
74	0x3db3f66e	0.08787237
75	0x3bc92c99	0.0061393497
76	0x3c78e42e	0.015191121
77	0xbba01b6d	-0.004886082
78	0xbd428ce8	-0.04749766
79	0xbc90c387	-0.01767136
80	0xbb2a0374	-0.0025942
81	0x3d226156	0.039643608
82	0x3da4400d	0.08020029
83	0xbd08eef8	-0.033431023
84	0x3d967591	0.07346643
85	0xbd9ce844	-0.07661489
86	0xbcdf2a4e	-0.027241852
87	0xbaf2f01d	-0.0018534694
88	0x3d156cb8	0.036480635
89	0xbd286c1a	-0.04111872
90	0xbd4ff008	-0.05076602
91	0xbc6930d8	-0.014232837
92	0x3d2c4fa8	0.042068154
93	0xbd0cb12a	-0.034348644
94	0x3d1757b6	0.036948882
95	0x3badcb64	0.005303787
96	0x3dac82e6	0.084234044
97	0x3c783d4b	0.015151332
98	0xbd03e17d	-0.032197464
99	0xbd978ec3	-0.074002765
100	0x3d2be2ce	0.041964345
101	0xbba0348b	-0.004889076
102	0x3da98649	0.08277566
103	0x3d09ae44	0.03361346
104	0x3c6daaa7	0.014506019
105	0xbd359695	-0.04433306
106	0x3cf104d0	0.02942124
107	0x3d8c7855	0.06858889
108	0xbd0dc0e6	-0.03460779
109	0x3d475666	0.04866638
110	0xbd143ada	-0.036188938
111	0x3c29fa5c	0.010374632
112	0xbdc1f0eb	-0.094697796
113	0xbcff5a22	-0.031170908
114	0x3d0c30a5	0.03422608
115	0x3cb00d04	0.021490581
116	0xbb929d73	-0.004474336
117	0xbc83f7c4	-0.016109355
118	0xbbcf01ca	-0.006317352
119	0xbcf99e4a	-0.030470986
120	0x3d053bec	0.03252785
121	0x3d12e6ca	0.03586463
122	0x3d1e62c6	0.038668416
123	0xbd5897af	-0.05287903
124	0x3ce7e91a	0.028309394
125	0x3df152c7	0.11783367
126	0x3d9be960	0.07612872
127	0xbd0a78d6	-0.033806644
128	0x3dca96ae	0.09892021
129	0xbd91d70c	-0.07121095
130	0x3bc176df	0.005904063
131	0x3a446b03	0.00074927526
132	0x3cc6e0e4	0.024277158
133	0x3d7950e6	0.060868166
134	0x3dd54b0e	0.10414706
135	0x3caa3efd	0.020781988
136	0x3d94e319	0.07269878
137	0x3cea4519	0.028597401
138	0x3cf865cf	0.030321984
139	0x3b0aa7a2	0.0021157046
140	0xbc88a00a	-0.016677875
141	0xbb978945	-0.004624518
142	0xbd4624a9	-0.048374806
143	0xbd5c18e6	-0.053734683
144	0x3da39496	0.07987325
145	0x3d68ca15	0.056833345
146	0xbdc5dca1	-0.09661222
147	0x3cb461d1	0.022019299
148	0x3cce7bb3	0.025205469
149	0xbc72f251	-0.014828281
150	0x3d809e27	0.06280165
151	0x3d5ef5d7	0.05443367
152	0xbb28e5d9	-0.0025771766
153	0xbd78ce54	-0.060743645
154	0x3d9f44fa	0.07776828
155	0x3d2f88c3	0.042855036
156	0x3da00611	0.07813657
157	0xbd674b6b	-0.05646841
158	0x3d8b6672	0.06806649
159	0xbb2fbfa6	-0.0026817112
160	0x3d848aaf	0.06471764
161	0x3841103a	4.6029898e-05
162	0xbc4a7f83	-0.012359503
163	0xbd4581cd	-0.04821949
164	0x3d58cbc0	0.052928686
165	0x3d2c2a7e	0.04203271
166	0xbd2958f7	-0.04134461
167	0xbb8d6323	-0.0043147965
168	0x3d916f45	0.07101301
169	0x3d2bc4ca	0.04193572
170	0x3d41abbd	0.047282923
171	0xbc80ff5f	-0.01574677
172	0xbd70f6ff	-0.058829304
173	0x3c224fb7	0.009906701
174	0x3c196c6a	0.009364227
175	0x3bfe3a0a	0.0077583836
176	0x3d4610fa	0.048356034
177	0xbc0a54ed	-0.008443099
178	0x3bb463ca	0.00550506
179	0xbd2c5412	-0.042072363
180	0x3d02916b	0.031876963
181	0xbd332f23	-0.043746125
182	0x3bc001a2	0.0058595696
183	0x3d2fa07c	0.04287766
184	0x3d5015df	0.050802108
185	0xbd102fe0	-0.035201907
186	0xbd8ebcec	-0.06969628
187	0xbaf6b8f9	-0.0018823437
188	0xbbcc10e6	-0.0062276004
189	0xbced1568	-0.028940871
190	0x3d2ecdcf	0.042676743
191	0x3cca6cc3	0.024710065
192	0x3d182017	0.03713998
193	0x3d95e729	0.07319481
194	0x3d5f6854	0.054542854
195	0xbd672e84	-0.056440845
196	0x3d3755e2	0.04475964
197	0x3d470c9c	0.04859601
198	0x3d861cbe	0.06548451
199	0x3d34a5af	0.04410332
200	0xbd45d400	-0.048297882
201	0x3d8f0b8d	0.06984625
202	0x3b939f2a	0.004505058
203	0xbd503fcf	-0.050842103
204	0xbd908a23	-0.070575975
205	0xbc987ffc	-0.018615715
206	0x3d8c3a02	0.068470016
207	0x3cd7fb83	0.026365047
208	0x3b110116	0.0022125891
209	0x3d82d8fd	0.063890435
210	0xbb9d40cf	-0.0047989856
211	0x3dbd6239	0.0924725
212	0xbb859807	-0.004076961
213	0x3c887c16	0.016660731
214	0x3d8677a3	0.06565788
215	0x3db5f67c	0.08884904
216	0x3d4a3c74	0.04937406
217	0x3d846c2e	0.06465946
218	0xbc38076d	-0.011232239
219	0x3bcb0a3c	0.0061962884
220	0xbd8220cf	-0.06353914
221	0x3c1d2a0e	0.009592546
222	0x3cda8275	0.026673535
223	0xbcb55a20	-0.022137702
224	0x3c16e4ca	0.009209821
225	0xbda32685	-0.079663314
226	0x3bf34601	0.0074241166
227	0xbd2393b8	-0.039935797
228	0x3d14e6c6	0.036352895
229	0xbd4c24ec	-0.0498399
230	0xbcff7008	-0.03118135
231	0x3d17cfcd	0.03706341
232	0x3de94002	0.11389162
233	0x3d59e481	0.053196434
234	0xbcd1461c	-0.025546126
235	0x3c508e0f	0.012729182
236	0xb982ef4e	-0.00024973828
237	0xbc9b3605	-0.018946657
238	0x3d2f168f	0.042746123
239	0x3d7f5030	0.062332332
240	0xbd92a68c	-0.071606725
241	0xbd5217b3	-0.051292133
242	0x3c0f8c3c	0.008761462
243	0xbcbc29a0	-0.022969067
244	0x3db3a902	0.0877247
245	0x3cf56f27	0.029960228
246	0x3dc1ba2a	0.09459336
247	0x3d92d073	0.07168665
248	0x3da11968	0.07866174
249	0xbd8975db	-0.06711932
250	0x3d987abe	0.07445286
251	0xbc0315b6	-0.008000782
252	0x3c305d97	0.010764501
253	0x3bf70f38	0.007539656
254	0xbc2b3a3e	-0.010450898
255	0xbd3c6372	-0.045993276

action_model._discrete_distribution.branches.0.weight f4 [3, 256]
0	0xbc081c7a	-0.008307571
1	0x3c4d7e72	0.012542354
2	0x3d63f45e	0.05565297
3	0x3d6b49a5	0.05744328
4	0x3d7add09	0.06124595
5	0xbc35a4ca	-0.011086652
6	0x3c90950e	0.0176492
7	0xbd5600ff	-0.052247044
8	0xbbd04a27	-0.006356496
9	0x3d660a34	0.056162074
10	0xbccd26d4	-0.025042929
11	0xbc185acb	-0.0092989905
12	0xbd874ba8	-0.06606227
13	0x3a8f2118	0.0010919897
14	0x3d213764	0.039359465
15	0xbcea7879	-0.028621899
16	0xbc255207	-0.010090358
17	0xbcfff6cd	-0.031245613
18	0xbd55c774	-0.052192166
19	0xbd6b17ac	-0.057395622
20	0xbd365ffa	-0.044525124
21	0xbd1eda05	-0.03878214
22	0x3c617161	0.013759942
23	0xbcee485a	-0.029087234
24	0x3d04c3cd	0.032413293
25	0xbd0db94b	-0.034600537
26	0xbb98bfe8	-0.004661549
27	0xbdc0af7e	-0.094084725
28	0x3cea307a	0.028587569
29	0x3d36e6af	0.04465359
30	0xbda76ed2	-0.08175434
31	0x3df08918	0.117448986
32	0x3cf35777	0.029704792
33	0x3bf74809	0.007546429
34	0x3d671541	0.056416754
35	0xbd97f51e	-0.07419799
36	0xbd24cd6f	-0.04023498
37	0x3da2f4eb	0.07956871
38	0xbd541f0c	-0.05178742
39	0x3da4167c	0.08012101
40	0xbd10058a	-0.035161532
41	0xba9f6add	-0.0012162585
42	0x3c46e1ea	0.012138823
43	0xbab74880	-0.0013983399
44	0x3d355531	0.044270698
45	0xbcd80e18	-0.026373908
46	0x3d8ebc30	0.06969488
47	0x3c482e51	0.012218074
48	0xbc0068c1	-0.007837475
49	0xbe0fd43a	-0.14045802
50	0x3c81470b	0.015780946
51	0xbd290852	-0.0412677
52	0x3c976735	0.01848183
53	0x3d8a8305	0.06763271
54	0x3c17a743	0.009256187
55	0xbaa306e6	-0.0012437969
56	0x3dbe1e3c	0.092831105
57	0xbd43062c	-0.047613308
58	0xbb7dc7ae	-0.0038723755
59	0x3d0d227e	0.034456722
60	0xbb79d90a	-0.003812375
61	0x3bd9175c	0.006625099
62	0x3d0fbc8a	0.035091914
63	0x3cb82186	0.022476923
64	0xbbc6ad01	-0.006063104
65	0xbc15b585	-0.009137516
66	0xbcff591b	-0.031170418
67	0xbcde7d83	-0.027159458
68	0xbd47eb6b	-0.048808496
69	0x399c14f5	0.00029770253
70	0x3cbfd2ea	0.023416001
71	0x3c01b32a	0.007916251
72	0xbcfe64bd	-0.031053895
73	0xbd47e272	-0.04879994
74	0xbc2f4445	-0.010697429
75	0x3c8bad2a	0.017050344
76	0xbbf0b77c	-0.007346092
77	0xbd153e46	-0.03643634
78	0xbc68dc9a	-0.014212752
79	0x3b5cbda3	0.0033682368
80	0xbe27428d	-0.16333981
81	0xbb860e6a	-0.0040910738
82	0xbd08b8f6	-0.033379517
83	0x3c17d4e4	0.009267066
84	0x3d0afc23	0.033931863
85	0xba944f6d	-0.0011315175
86	0x3cc4bdab	0.024016222
87	0xbc50a8d2	-0.012735562
88	0x3d2cab1b	0.042155366
89	0x3c13e2a7	0.009026206
90	0xbd5931a0	-0.05302584
91	0x3ccbbfca	0.024871726
92	0xbcbb97c5	-0.022899518
93	0xbd48eea0	-0.049055696
94	0xba347eea	-0.0006885367
95	0xbd04f5b6	-0.03246089
96	0x3ce0316c	0.027367316
97	0x3c298565	0.010346745
98	0x3d2d62d3	0.042330574
99	0x3d33ec13	0.04392631
100	0xbc915e93	-0.017745292
101	0xbc0ead3d	-0.008708295
102	0xbd52984a	-0.051414765
103	0xbd3b7ae3	-0.04577149
104	0x3c63bb49	0.013899633
105	0xbc9f24ce	-0.01942673
106	0x3def2fec	0.11679062
107	0xbd5ea004	-0.05435182
108	0xbba47f2d	-0.0050200433
109	0xbc921ede	-0.017836984
110	0xbc80aa39	-0.015706168
111	0xbb1ff468	-0.0024407152
112	0x3d1b8f8a	0.037978686
113	0xbc9a2d50	-0.018820435
114	0xbc3fb91a	-0.0117018465
115	0x3cec415c	0.02883976
116	0x3d8d8ca8	0.06911594
117	0x3c43e43a	0.011956269
118	0x3bd4983a	0.0064878734
119	0xbbc2d5dc	-0.005945904
120	0x3d59a6ba	0.05313752
121	0xbce588c4	-0.028019316
122	0xbe1d2aa4	-0.15348297
123	0x3d6ae867	0.057350542
124	0x3cfa0bd2	0.030523214
125	0xbd1ca2e0	-0.038241267
126	0xbd44a0ee	-0.048005037
127	0xbdc6dba5	-0.097098626
128	0xbc9acb73	-0.01889584
129	0x3cdeaa1e	0.027180728
130	0x3c31b34a	0.0108459685
131	0x3c41dd58	0.011832558
132	0x3b1e4fd3	0.0024156466
133	0x3b59e416	0.0033247522
134	0xbd2ad66e	-0.041708402
135	0x3d2c6d13	0.04209621
136	0xbd391c0c	-0.045192763
137	0xbcf776a1	-0.030207934
138	0x3daddfc4	0.084899455
139	0x3a98570a	0.0011622619
140	0x3bd34ac5	0.006448122
141	0xbd7c5014	-0.061599806
142	0x3dc537cb	0.09629782
143	0xbd332144	-0.043732896
144	0xbd0204e8	-0.03174296
145	0xbd6d646c	-0.057957098
146	0x3d8e4232	0.069462195
147	0xbd3c20ff	-0.045929905
148	0x3cc82c7a	0.02443527
149	0xbc909a23	-0.017651623
150	0xbd1e01d3	-0.03857596
151	0xbd7973d5	-0.06090148
152	0xbc069ac7	-0.008215613
153	0x3d5cbdd2	0.053891964
154	0x3cbe8bb0	0.023259968
155	0xbcdd75f2	-0.02703378
156	0x3d1ac6a5	0.0377871
157	0x3cbe53cb	0.023233315
158	0x3c957efd	0.01824903
159	0xbbe87151	-0.0070935865
160	0xbd124f0b	-0.035719912
161	0x3d0e14fe	0.03468799
162	0x3caa6dc8	0.0208043
163	0xbccbd155	-0.02488009
164	0xbcbd5e89	-0.023116367
165	0x3d9decac	0.07711157
166	0x3cc720df	0.024307666
167	0xbcfc1341	-0.0307709
168	0x3db0e0ef	0.08636653
169	0x3e0316f0	0.12801719
170	0x3d7dfee6	0.06201067
171	0xbc826fa7	-0.01592238
172	0x3d664046	0.05621364
173	0xbdd5106c	-0.10403523
174	0xbe1287e0	-0.14309645
175	0xbd9154dc	-0.07096264
176	0xbce2337e	-0.027612444
177	0xbb7411ed	-0.003724213
178	0x3ce879ac	0.02837833
179	0x3bd470b7	0.006483163
180	0xbdf2e9ed	-0.11861024
181	0xbc98fc79	-0.018675076
182	0x3b0add16	0.0021188906
183	0xbdcc1b4f	-0.09966146
184	0xbd282d0a	-0.041058578
185	0xbd8869b2	-0.06660785
186	0x3b7d0e96	0.003861343
187	0xbcde205d	-0.027115041
188	0xbd601631	-0.054708663
189	0x3c94c645	0.018160949
190	0x3d064cc1	0.032788042
191	0x3c3902fd	0.011292216
192	0x3c2dd71f	0.010610371
193	0xbcdd86cf	-0.02704182
194	0xbc578a34	-0.013155509
195	0x3d3db14b	0.046311658
196	0x3bb70caa	0.0055862265
197	0xbbc24d15	-0.005929599
198	0xbd034a2f	-0.03205317
199	0x3d2b7811	0.04186255
200	0x3c925ca2	0.017866436
201	0xbcc32e7b	-0.023825875
202	0x3c20c408	0.0098123625
203	0x3d33f6d4	0.043936566
204	0x3d33f2f4	0.04393287
205	0xbb659d61	-0.0035036432
206	0x3cc129c7	0.023579491
207	0xbc58d700	-0.013234854
208	0xbd4637cb	-0.048393052
209	0x3db78325	0.08960561
210	0x3ce211e6	0.027596425
211	0xbd15c9eb	-0.036569517
212	0xbde8d858	-0.11369389
213	0x3c83b513	0.016077554
214	0xbcbb3da1	-0.022856535
215	0x3d5f101a	0.054458715
216	0xbd4ab0a2	-0.049484856
217	0x3d26bfee	0.040710382
218	0xbc5d4fe8	-0.013507821
219	0x3d536c07	0.051616695
220	0xbd48f1d0	-0.049058735
221	0x3bc9b991	0.0061561544
222	0x3cf0f091	0.029411586
223	0x3c28a7ea	0.01029394
224	0x3c3020df	0.010750025
225	0x3e05cbc2	0.13066009
226	0x3ca840c4	0.020538695
227	0x3e0669b9	0.13126267
228	0xbd683d9d	-0.056699384
229	0x3d23ee25	0.040022034
230	0xbce9b73c	-0.028529756
231	0x3c72f0c1	0.014827908
232	0x3c46848d	0.0121165635
233	0x3d1bf648	0.03807667
234	0xbd96d040	-0.07363939
235	0xbe147509	-0.1449777
236	0xbbf9883d	-0.007615118
237	0x3c394230	0.011307284
238	0xbd8d05a8	-0.068858445
239	0xbc36ab98	-0.01114931
240	0x3d87e8e9	0.06636221
241	0x3b523015	0.0032072116
242	0xbc747c78	-0.014922254
243	0x3d980c7a	0.07424255
244	0x3d4b110c	0.049576804
245	0xbc010e7f	-0.007876991
246	0x3d7bc8e2	0.061470874
247	0x3c9b1e01	0.018935205
248	0x3cfda15a	0.030960727
249	0x3d3eb4e4	0.04655923
250	0x3da1972b	0.07890161
251	0xbd8f92bf	-0.070104115
252	0xbbf4bac9	-0.0074685556
253	0xbe2209d7	-0.15824066
254	0x3e021a37	0.12705313
255	0x3de12b43	0.1099458

action_model._discrete_distribution.branches.0.bias f4 [3]
0	0xbc4fceea	-0.0126836095
1	0x3cf64631	0.030062767
2	0xbc974a37	-0.018468006

action_model._discrete_distribution.branches.1.weight f4 [3, 256]
0	0x3c87d096	0.016578954
1	0x3bc8a6c2	0.0061233947
2	0x3b3847a2	0.0028118868
3	0x3bf15cfb	0.0073658205
4	0xbc52323e	-0.0128293615
5	0xbca4c774	-0.020114638
6	0x3c27134a	0.01019747
7	0x3c993796	0.018703263
8	0x3cb9345b	0.022607973
9	0xbba16161	-0.0049249385
10	0x3c16a817	0.009195349
11	0xbcaadf89	-0.020858543
12	0xbbed9957	-0.0072509455
13	0xbc362f91	-0.011119739
14	0x3c50a5fb	0.012734885
15	0x3c04901c	0.008090999
16	0xbc4d49d5	-0.01252981
17	0x3d527922	0.051385053
18	0x3bdb425d	0.0066912607
19	0x3c386bbc	0.011256155
20	0x3c8773d8	0.01653473
21	0xbb474e8a	-0.0030411803
22	0x3bf63280	0.0075133443
23	0xbbd3ee2b	-0.006467601
24	0xbbeb9337	-0.0071891802
25	0x3c293399	0.010327243
26	0x3c623413	0.013806361
27	0x3be72b00	0.0070546865
28	0x3ce59435	0.028024772
29	0xbb35ded1	-0.0027751217
30	0xbc13aced	-0.009013397
31	0x3be70889	0.007050578
32	0x3c94379a	0.01809292
33	0xbba2d6c3	-0.0049694492
34	0xbc47a5a3	-0.012185487
35	0x3c0ba039	0.008522087
36	0xbc9d4352	-0.01919714
37	0x3c890eee	0.016730752
38	0xbb5cf649	-0.0033716133
39	0x3c0dc7a0	0.008653551
40	0xbbeb9ba1	-0.0071901833
41	0xbba97195	-0.0051710107
42	0x3c0418a6	0.008062517
43	0xbc8f00a0	-0.017456353
44	0x3c089ef0	0.008338675
45	0xbc006846	-0.007837361
46	0xbbc3daf2	-0.005977028
47	0xbb98bb1f	-0.0046609784
48	0xbb9750c0	-0.0046177804
49	0xbba5e539	-0.005062726
50	0xbc797eff	-0.015228032
51	0xbc59292c	-0.013254445
52	0x3cd47162	0.025932971
53	0x3b859157	0.0040761638
54	0xbc1f2af6	-0.0097148325
55	0x3c041403	0.008061412
56	0xbccc8f09	-0.024970548
57	0x3b091e2a	0.002092252
58	0xbc2ec5b4	-0.010667253
59	0x3cb5b4ef	0.022181002
60	0x3b7be4af	0.0038435867
61	0x3ca12327	0.019670082
62	0xbc9d5675	-0.019206265
63	0x3c9205bf	0.017825006
64	0xbc0cfea1	-0.00860563
65	0xbcd6f047	-0.02623762
66	0xbc72ee38	-0.014827304
67	0x3d0791f3	0.033098172
68	0x3c7ad763	0.015310141
69	0xbcdef296	-0.027215283
70	0xbc045fcf	-0.008079483
71	0xbc6176e7	-0.013761259
72	0xbc267c79	-0.0101615125
73	0x3c0eb49a	0.008710051
74	0x3d0700ba	0.032959677
75	0xbcbc739d	-0.023004347
76	0x3d033afa	0.032038666
77	0xbd2cb48c	-0.04216437
78	0x3acc09f2	0.0015566929
79	0x3d3d4af0	0.046214044
80	0x3bc3cbf8	0.0059752427
81	0xbcf743a6	-0.030183624
82	0x3bc63b78	0.0060495697
83	0xbd20f00a	-0.03929142
84	0x3cb1d4e5	0.021707961
85	0xbc3b4f86	-0.011432534
86	0x3ac2e045	0.0014867863
87	0xbbc821b4	-0.0061075334
88	0x3cbe01fb	0.023194304
89	0x3ccd6c80	0.02507615
90	0xbd2b12e8	-0.041766077
91	0x3c602391	0.013680355
92	0xbb99b491	-0.0046907146
93	0x3af7a9ac	0.0018895171
94	0x3c85fed4	0.016356863
95	0xbcbc95ed	-0.023020709
96	0xb9d88b0a	-0.00041302323
97	0x3d594c24	0.05305113
98	0x3caead0c	0.02132275
99	0x387ea30c	6.071017e-05
100	0xbb15875c	-0.0022816276
101	0xbc91f480	-0.017816782
102	0xbb04f9a3	-0.0020290397
103	0xbca05ecd	-0.019576455
104	0x3d2fb62a	0.042898335
105	0xbbca4428	-0.0061726756
106	0x3bb6fa25	0.005584019
107	0xbca3bd01	-0.019987585
108	0xbc88d58a	-0.016703386
109	0xbc996bff	-0.018728254
110	0x3c4dcfbf	0.012561738
111	0xbc0bc9b8	-0.00853198
112	0x3ab90a2d	0.0014117413
113	0xbc7c52ab	-0.015400569
114	0x3cb8a69d	0.022540385
115	0xbbcbfc4c	-0.0062251445
116	0xbc1b7d97	-0.009490392
117	0x3d004f34	0.031325534
118	0x3c980e93	0.018561637
119	0xbd6668c3	-0.056252252
120	0xbc102510	-0.008797899
121	0x3c5a1c4f	0.013312413
122	0x3d1ebe18	0.038755506
123	0x3c8a30c3	0.016868955
124	0xbbc27761	-0.005934641
125	0x3caf247d	0.021379704
126	0xbbbf610f	-0.0058404277
127	0xbc3f4b0f	-0.01167561
128	0x3b48988f	0.003060851
129	0xbbb8af7d	-0.005636154
130	0x3b866928	0.004101891
131	0x3c90034e	0.0175797
132	0xbc7a2cbb	-0.015269454
133	0x3b2247e3	0.0024762086
134	0xbc35ab4c	-0.011088204
135	0x3c330e2f	0.010928675
136	0x3c52435f	0.012833445
137	0xbc81862a	-0.015811045
138	0x3bf87fe1	0.0075836037
139	0x3d25d962	0.040490516
140	0xbc9940f3	-0.018707728
141	0xbce2cb5f	-0.027684866
142	0x3ca17028	0.0197068
143	0xbb9af86b	-0.0047293208
144	0x3c06003c	0.008178767
145	0x3cad00a9	0.021118479
146	0xbca8394b	-0.020535132
147	0xbc17e24f	-0.009270265
148	0x3c168d9c	0.009189036
149	0x3d27ca79	0.040964577
150	0xbc007f36	-0.007842829
151	0xbcf60a0e	-0.030034091
152	0xbca2fc34	-0.01989565
153	0xbbd60ed5	-0.00653253
154	0xbc91f3fc	-0.017816536
155	0x3d072dee	0.033002786
156	0x3c9398cc	0.018017195
157	0xbb7b3d7c	-0.0038336208
158	0xbb879db9	-0.004138675
159	0x3c6bc4d0	0.0143901855
160	0x3b6290aa	0.003457109
161	0xbb24b6e1	-0.0025133418
162	0xbc03c0e9	-0.008041599
163	0xbaaf9181	-0.0013394804
164	0x3d7f4c6d	0.062328745
165	0x3cb74455	0.02237145
166	0xbbe698a9	-0.0070372415
167	0xbc41c209	-0.011826047
168	0xbc0717de	-0.0082454365
169	0x3bc18ae5	0.00590645
170	0x3be72bc1	0.0070547764
171	0x3c8de3f1	0.017320605
172	0xbbb3696f	-0.005475215
173	0xbc59da4b	-0.013296674
174	0xbc266c95	-0.010157724
175	0xbc9f3f45	-0.019439349
176	0xbc6b19d2	-0.014349418
177	0xbc17585a	-0.009237373
178	0xbd5fd807	-0.05464938
179	0xbcfc54eb	-0.03080221
180	0xbaf99c04	-0.0019043689
181	0xbb57503a	-0.0032854215
182	0xbd3b66b2	-0.045752235
183	0x3bf22245	0.007389339
184	0x3c7b4a4e	0.01533754
185	0xbc5a6ecd	-0.013332081
186	0xbc8040b7	-0.015655858
187	0x3c7df4de	0.015500275
188	0x3ab572da	0.0013843433
189	0xbbac105a	-0.0052509727
190	0xbbfc3e46	-0.0076978533
191	0x3c13b50c	0.009015333
192	0x3c51e0c7	0.012809939
193	0xbc2ac175	-0.0104221
194	0x3b14cc8d	0.002270493
195	0xbce1e7ff	-0.027576445
196	0x3cc2a092	0.023758207
197	0x3c17ba0c	0.009260666
198	0xbbfe8c81	-0.007768214
199	0x3d13f760	0.036124587
200	0xbbe3dc83	-0.0069537773
201	0x3a3d3a43	0.00072184595
202	0x3c5325df	0.012887447
203	0x3ca173ff	0.019708632
204	0x3c236d9f	0.009974866
205	0xbc10e3c0	-0.008843362
206	0x3c649f20	0.013953954
207	0xbcb7d96b	-0.02244254
208	0x3cc8ec7f	0.024526833
209	0xbba32bd7	-0.0049795914
210	0xbb87c324	-0.0041431356
211	0x3c1c9568	0.009557106
212	0xbc1349d4	-0.00898977
213	0x3c651333	0.013981628
214	0x3cbf7484	0.023370989
215	0x3cb993e2	0.022653524
216	0xbcbfdebd	-0.02342164
217	0xbca20b26	-0.019780707
218	0x3b86b254	0.004110614
219	0x3a6dee58	0.00090763485
220	0xbb2c0f26	-0.0026254146
221	0x3a93adf5	0.0011267053
222	0xbc39c50d	-0.0113384845
223	0x3ca8e006	0.020614635
224	0x3d0f546f	0.03499263
225	0x3adb5cfa	0.0016736083
226	0xbc134d32	-0.008990573
227	0xbc83dda1	-0.016096892
228	0xbc64bf1a	-0.013961578
229	0x3bec5258	0.0072119646
230	0x3be1af63	0.006887363
231	0xbbe4d89e	-0.0069838306
232	0x3c4cbe5f	0.01249656
233	0x3c5f7d0e	0.013640655
234	0x39fc2716	0.00048094307
235	0xbb99640b	-0.0046811155
236	0xbce0d3ce	-0.027444746
237	0xb995fc55	-0.00028607497
238	0xbb23d721	-0.0025000053
239	0x3c11498e	0.008867634
240	0x3c1f5a7a	0.009726161
241	0x3ca82789	0.020526664
242	0xbb2e4f1a	-0.0026597441
243	0x3b74374f	0.0037264412
244	0x3ce84677	0.028353913
245	0x3c8ccacd	0.017186547
246	0x3d0c2c5a	0.034221984
247	0x37fa4454	2.983414e-05
248	0x3b33928a	0.0027400577
249	0xbc1fac69	-0.009745696
250	0x3d07a916	0.033120237
251	0x3c92f5a8	0.017939404
252	0x3d275113	0.040848803
253	0xbc967217	-0.01836495
254	0x3a2b73f4	0.00065404107
255	0xbbbad0bf	-0.005701154

action_model._discrete_distribution.branches.1.bias f4 [3]
0	0x3bf470cd	0.007459736
1	0xbbcd5628	-0.006266374
2	0x3ad2bddb	0.001607831

action_model._discrete_distribution.branches.2.weight f4 [3, 256]
0	0x3d3d1a70	0.04616779
1	0xbbc6039b	-0.0060429103
2	0xbc4c0cd9	-0.012454235
3	0x3c324913	0.01088168
4	0x3c1215f9	0.0089163715
5	0x3cbae7d4	0.022815622
6	0x3d266ae8	0.040629297
7	0xbc873ad5	-0.016507545
8	0x3cce8f2a	0.02521475
9	0xbc50f4f3	-0.012753713
10	0x3b065eec	0.0020503355
11	0x3c9e3822	0.019313876
12	0x3cb8c163	0.022553151
13	0xbc7642ae	-0.015030546
14	0xbccfa2a8	-0.025346115
15	0xbb8aa19a	-0.00423069
16	0xbcfdce77	-0.03098224
17	0xbd4a5066	-0.04939308
18	0x38badf26	8.910736e-05
19	0x3dbdb880	0.09263706
20	0x3ca7c07a	0.020477522
21	0xbc520579	-0.012818688
22	0xbca12497	-0.019670768
23	0x3c8a28b5	0.016865114
24	0xbc2800f6	-0.010254135
25	0x3d11751d	0.03551208
26	0xbce35424	-0.027750082
27	0x3d3b1b29	0.0456802
28	0xbcb2a4a4	-0.021807022
29	0xbb222566	-0.002474153
30	0x3d47fdcf	0.048826035
31	0xba86262b	-0.0010234764
32	0x3d25bdb4	0.040464118
33	0xbb0e25f2	-0.0021690098
34	0x3bf75cd0	0.007548906
35	0x3d6447fe	0.05573272
36	0xbc9215d8	-0.017832682
37	0xb92510d2	-0.00015741892
38	0x3c1ec6d1	0.009690956
39	0xbc803145	-0.015648494
40	0xbc01449b	-0.007889892
41	0x3d2bd854	0.041954353
42	0x3c8a9826	0.016918253
43	0x3d091f9c	0.03347741
44	0x3c53ef4c	0.012935471
45	0x3c96915f	0.018379865
46	0xbb4cff6b	-0.003128017
47	0x3bdd1965	0.006747412
48	0x3d09f5a9	0.033681545
49	0x3de2844d	0.110603906
50	0x3d2e11fb	0.042497616
51	0x3d8acfaf	0.06777894
52	0x3c562fdf	0.013072937
53	0xbd158224	-0.036501065
54	0xbcd8426f	-0.026398866
55	0xbcc62a0a	-0.024189968
56	0xbc8f8fef	-0.017524688
57	0x3c92a897	0.017902656
58	0xbced2503	-0.028948313
59	0xbcdcd96d	-0.026959145
60	0x3c9cf9b1	0.01916203
61	0xbcb4e6a1	-0.022082629
62	0xbccc3cba	-0.0249313
63	0xb9d00db0	-0.0003968305
64	0xbcd48aa9	-0.025945025
65	0xbba1da6f	-0.0049393694
66	0x3c3a7434	0.011380244
67	0x3b2f7dc1	0.0026777836
68	0x3d8252f3	0.063634776
69	0x3cd52d79	0.02602266
70	0xbc52a121	-0.012855799
71	0x3cb2ad3d	0.021811122
72	0x3cdf27e1	0.027240695
73	0x3c9cfd91	0.019163879
74	0x3cc27c76	0.023740988
75	0x3cc60eae	0.024176922
76	0x3ceb5e42	0.028731469
77	0x3d15189f	0.036400434
78	0x3b2dcf3d	0.0026521229
79	0xbd2bdfdb	-0.041961532
80	0x3dece0e7	0.11566334
81	0x3babaa42	0.005238802
82	0x3cba25cc	0.022723101
83	0xbcd45bb4	-0.025922634
84	0x3ca5538d	0.020181442
85	0xbd58221f	-0.052766915
86	0xbc645b38	-0.013937764
87	0x3cbcde57	0.023055239
88	0x3c975534	0.018473245
89	0xbc676e6b	-0.014125447
90	0x3d17899f	0.03699648
91	0x3a04646c	0.00050503644
92	0x3ce8e640	0.028430104
93	0xbcf3b232	-0.029748056
94	0xbd56b905	-0.052422542
95	0x3bbe97f7	0.0058164555
96	0xbc2067c9	-0.009790369
97	0xbd0d8c48	-0.03455761
98	0x3bd6efd8	0.0065593533
99	0xbcac98be	-0.021068927
100	0xbbf9ac8f	-0.0076194475
101	0x3d480b33	0.048838805
102	0x3d895380	0.067053795
103	0x3d228f0d	0.039687205
104	0xbce1cb25	-0.027562687
105	0xbc06fa4a	-0.0082383845
106	0xbcc55485	-0.024088154
107	0x3cfd2123	0.03089959
108	0xbd3c85e7	-0.046026137
109	0x3d2a195b	0.041528087
110	0x3bc94f77	0.006143506
111	0x3ca57381	0.020196678
112	0xbca7bc32	-0.02047548
113	0x3cfe7499	0.031061457
114	0x3bbc87e2	0.005753503
115	0x3c8467c3	0.016162759
116	0x3d1a903e	0.037735216
117	0xbd12b7a5	-0.03581967
118	0x3c3c6e67	0.011500931
119	0xbd0a8f13	-0.033827852
120	0xbb9c34de	-0.0047670444
121	0x3d00c7b0	0.031440437
122	0x3de21eb1	0.1104101
123	0xbd79c873	-0.06098218
124	0x3ccde758	0.025134727
125	0x3d645df8	0.055753678
126	0x3d83f5a3	0.06443336
127	0x3de0051a	0.10938473
128	0x3cccb531	0.024988743
129	0xbc14e4ce	-0.009087754
130	0x3c870ff1	0.016487094
131	0xbce73897	-0.028225226
132	0x3d7c4581	0.06158972
133	0x3c78e5ca	0.015191505
134	0x3cdfb532	0.02730808
135	0x3ce73deb	0.028227767
136	0x3b3fc44d	0.0029261291
137	0x3d498364	0.04919757
138	0xba58d11e	-0.0008270907
139	0x3c410c2a	0.011782685
140	0x3b3b3714	0.0028566765
141	0x3c5f9e8c	0.01364864
142	0xbc8cf2ac	-0.017205559
143	0x3dac1d8f	0.08404075
144	0x3d1452e7	0.036211874
145	0x3d5d2c19	0.053997133
146	0xbd3fef21	-0.04685891
147	0x3c0d4a21	0.008623631
148	0x3d59f988	0.053216487
149	0xbca729f4	-0.020405747
150	0x3d7d90f2	0.06190581
151	0x3cc35b67	0.023847295
152	0x3cf68283	0.03009153
153	0xbcce8f16	-0.025214713
154	0x3d20a562	0.03922022
155	0xbc2636e8	-0.010144927
156	0x3c14cd69	0.009082177
157	0xbd2cdcdb	-0.04220281
158	0x3d000565	0.031255145
159	0xbc2d2338	-0.010567479
160	0x3b12f5c5	0.0022424322
161	0xbd7ca6ac	-0.06168239
162	0xbc9412a0	-0.018075287
163	0xbd322e7a	-0.043501355
164	0xbd08b8fd	-0.033379544
165	0x3c80c777	0.015720112
166	0xbb0d2288	-0.0021535475
167	0x3c96a3ab	0.01838859
168	0x3a8730d9	0.001031424
169	0xbcbc3154	-0.02297274
170	0x3b96f2bc	0.004606573
171	0x3b3d63a9	0.0028898513
172	0x3b87ca3b	0.004143981
173	0x3d1560d6	0.036469303
174	0x3dd8f4b8	0.105935514
175	0x3c4cbf38	0.012496762
176	0x3c8990ba	0.016792644
177	0xba0a1be4	-0.0005268438
178	0x3cf2eb5d	0.029653246
179	0xbcc20135	-0.023682216
180	0x3d61b3bd	0.055103052
181	0xbd5a2123	-0.053254258
182	0x3c6167c5	0.013757651
183	0x3d9c42b3	0.07629909
184	0x3c934ec3	0.017981892
185	0xbc7a66e1	-0.015283317
186	0xbc16da91	-0.009207384
187	0xbd18ae94	-0.037275866
188	0x3d32e720	0.04367745
189	0xbc8292ef	-0.015939204
190	0x3d02f808	0.031974822
191	0x3b3aa50b	0.002847972
192	0x3b8aab84	0.004231872
193	0x3c66f414	0.014096279
194	0x3cfac696	0.030612271
195	0xbd87c871	-0.06630028
196	0x3c81a7df	0.015827117
197	0x3ce04574	0.027376868
198	0x3d16e527	0.03683963
199	0x3ba91b10	0.005160697
200	0xbcc580a1	-0.024109187
201	0x3ceee236	0.0291606
202	0x3ce10ade	0.027471002
203	0x3af23fda	0.0018482164
204	0xbd0d2a8e	-0.03446441
205	0x3d209c21	0.039211396
206	0x3cafc96c	0.02145835
207	0x3c9a3237	0.018822772
208	0xbca9e85e	-0.020740684
209	0x3c9c313f	0.019066451
210	0x3d1b6944	0.037942186
211	0x3d5e398e	0.054254107
212	0x3d974f90	0.07388222
213	0x3aa62168	0.0012674751
214	0xbc81c1bc	-0.01583945
215	0x3c3d0033	0.011535692
216	0x3d55d070	0.052200735
217	0x3c94e088	0.018173471
218	0xbbc454f3	-0.005991572
219	0x3cd9134d	0.026498461
220	0x3da5989f	0.08085751
221	0x3cdec4b0	0.027193397
222	0x3d16ca2b	0.036813896
223	0xb9a7f7fd	-0.00032037488
224	0xbd07f979	-0.0331969
225	0xbd9e039c	-0.07715532
226	0x3c7944db	0.01521417
227	0xbd7522dd	-0.0598477
228	0x3d99b70c	0.075056165
229	0xbd7093f9	-0.058734868
230	0xbb0ed301	-0.0021793249
231	0x3ce69789	0.02814843
232	0x3c1a475c	0.009416427
233	0x3be29369	0.0069145453
234	0x3d5f3569	0.054494295
235	0x3dabdbe3	0.083915494
236	0x3cc102d4	0.023560919
237	0xbcaff24e	-0.021477845
238	0x3d1d11c4	0.03834702
239	0x3c13b2f0	0.00901483
240	0xbd05db18	-0.032679647
241	0xbd763a98	-0.060114473
242	0x3cfd6f4a	0.030936856
243	0xbd03ad1d	-0.032147516
244	0x3c8f40cc	0.017486952
245	0xbbf5bddf	-0.007499441
246	0x3cb5ae7f	0.022177933
247	0x3c75735e	0.014981119
248	0x3cacf2d4	0.021111883
249	0xbccb02f0	-0.024781674
250	0x3aa5ceaf	0.0012650097
251	0x3cd63f54	0.026153244
252	0xbd32a795	-0.04361685
253	0x3d917753	0.071028374
254	0xbd5a795a	-0.053338386
255	0xbd685527	-0.056721833

action_model._discrete_distribution.branches.2.bias f4 [3]
0	0x3d3189d7	0.043344345
1	0xbd7eed63	-0.06223811
2	0x3c709711	0.014684455
