ML-Agents/results/obs-from-ultimate-volleyball/Volleyball/Volleyball-18499985.onnx (onnx, 291918 bytes, 15 tensors)

discrete_action_output_shape f4 [1, 4]
3.0 3.0 3.0 2.0
00000000: 0000 4040 0000 4040 0000 4040 0000 0040

network_body.observation_encoder.processors.0.normalizer.running_mean f4 [11]
0.12704873 0.11021038 0.55190283 0.6495541 10.391225 -0.021137336 0.05363838 0.0025688224
-2.2579188 3.4737377e-06 2.7455694e-06
00000000: 1019 023e fbb5 e13d 8149 0d3f 2d49 263f
00000010: 7542 2641 3528 adbc ebb3 5b3d b059 283b
00000020: be81 10c0 5c1e 6936 8640 3836

network_body._body_endoder.seq_layers.0.weight f4 [256, 11]
-0.28699058 0.0705907 0.157347 -0.5723435 0.30084172 -0.033904534 -0.2820359 -0.1152774
-0.14522141 -0.15874168 0.43786132 -0.2611704 0.11566353 0.55424875 -0.9597211 0.45582384
-0.019204432 -0.16215454 -0.067566246 0.03781946 -0.18416214 -0.11310125 -0.116309114 -0.52591276
0.26795164 0.049765885 -0.6163716 -0.11481957 -0.16032441 0.38519716 -0.4017083 0.015721967
-0.42287254 0.30635872 -0.5074998 -0.14278649 0.13578755 -0.011115918 0.022372779 0.3110365
0.19471905 0.8115769 -0.17019233 -0.24073476 -0.16898768 -0.1316407 0.0400716 0.12156973
0.092833936 -0.021092724 0.11740532 0.541991 -0.573952 1.1232994 0.7381485 0.49096817
-0.5017707 -0.08987791 -0.08989747 -0.6322379 -0.036490988 -0.1369989 -0.14522998 0.20581119
-0.06906448 0.052718353 0.19044092 -0.4536277 -0.45544234 -0.2591091 0.001970727 0.10540873
-0.42117706 0.24641992 0.0030029982 -0.74071497 -0.38813022 -0.5206965 0.34724897 -0.14084513
-0.57498795 -0.2688895 -0.49267715 -0.32805008 0.119446725 -0.8280794 0.56179106 0.23422502
-0.30086526 0.705295 0.27740338 0.021606134 -0.7292563 0.016677277 0.06421616 -0.0016236762
0.18006888 0.37968728 0.14371102 0.0754958 -0.48078826 0.33590135 0.15932354 0.3173503
0.36253625 -0.32453287 -0.37910548 -0.31672046 0.20115359 -0.33530298 -0.13436797 0.48302257
-0.41899824 -0.35319814 0.26349673 0.350357 0.06459187 -0.3429016 0.37283304 -0.7308865
-0.043600224 0.16961452 -0.41868687 -0.39759427 -0.7973943 -0.63322324 -0.035065565 -0.2728289
-0.08934677 0.14955373 -0.8285503 0.02543062 0.1900094 -0.52849835 -0.16821285 0.4407527
0.23101535 0.44875067 0.035617188 0.61173135 -0.14583081 0.47129902 -0.4812449 0.059208002
0.19530535 -0.4423134 0.27160192 0.20846845 -0.16362584 0.4965414 0.15485142 0.06428975
1.010317 0.088035434 0.4923308 0.256381 0.44501927 0.7643445 -0.12691744 -0.23160136
0.3596038 0.20299275 0.0819258 -0.2984761 -0.786038 -0.5949962 -0.15340173 -0.5812695
1.0656747 0.61811554 -0.10988026 -0.47376817 0.43968347 -0.15192424 -0.1734943 0.17114158
-0.4463532 -0.18597354 0.69529027 0.228941 0.36923966 -0.5158815 0.17508982 -0.29961932
0.18380818 -0.64936143 0.31558627 0.32855448 0.021379318 -0.8781948 -0.08138714 -0.069227055
-0.45328876 -0.72434026 0.38221896 -0.2585809 0.08661114 0.2517965 -0.8326013 0.273357
0.43700162 0.4743849 0.24361652 -0.23802051 0.27799898 0.5463632 -0.12697774 0.28244516
0.12554087 -0.2828062 -0.57332826 -0.28601027 -0.48028392 0.2507412 0.16755018 0.06722881
-0.06989268 -0.16557136 -0.29678354 -0.17009528 -0.4001451 0.35764158 -0.531811 -0.17326914
0.41799986 0.052870028 0.2798693 -0.37890506 0.35938904 0.25302538 0.18493035 -0.63613373
-0.23607098 0.58775276 -0.027564848 0.108009696 0.33286306 -0.16562901 -0.399419 -0.36445323
-0.13159797 -0.06782767 0.20633993 -0.39708662 -0.53076047 -0.12671615 0.42173976 0.14177507
0.1346477 -0.44016352 0.10401105 0.30027437 -0.51888436 0.48434144 -0.25536588 -0.41933954
00000000: 6ef0 92be db91 903d 921f 213e 1b85 12bf
00000010: ed07 9a3e 7bdf 0abd 0267 90be 8f16 ecbd
00000020: ecb4 14be 2e8d 22be 5c2f e03e 20b8 85be
00000030: 00e1 ec3d 3fe3 0d3f 48b0 75bf be61 e93e
00000040: 9d52 9dbc d70b 26be 2c60 8abd 94e8 1a3d
00000050: 0095 3cbe a1a1 e7bd 7933 eebd 38a2 06bf
00000060: f530 893e 50d7 4b3d 87ca 1dbf 8626 ebbd
00000070: 152c 24be 9038 c53e b6ac cdbe 5bcb 803c
00000080: c082 d8be 0ddb 9c3e 82eb 01bf 9f36 12be
00000090: e40b 0b3e 8a1f 36bc 1e47 b73c 2d40 9f3e
000000a0: 6e64 473e 81c3 4f3f e646 2ebe 2c83 76be
000000b0: 1b0b 2dbe d2cc 06be 1e22 243d 8df9 f83d
000000c0: b81f be3d a6ca acbc 3372 f03d ecbf 0a3f
000000d0: 85ee 12bf 46c8 8f3f 4df7 3c3f 2e60 fb3e
000000e0: 0b74 00bf e911 b8bd 2a1c b8bd 58da 21bf
000000f0: 9377 15bd 7149 0cbe 2bb7 14be 2bc0 523e
00000100: ae71 8dbd 33ef 573d f202 433e e441 e8be
00000110: bd2f e9be f3a9 84be 5027 013b 88e0 d73d
00000120: 85a4 d7be 8155 7c3e f3cd 443b 7f9f 3dbf
00000130: 01b9 c6be 5e4c 05bf 9eca b13e b539 10be
00000140: 6932 13bf e2ab 89be 2e40 fcbe 2ef6 a7be
00000150: 7ca0 f43d 03fd 53bf 8ad1 0f3f afd8 6f3e
00000160: 030b 9abe 378e 343f d107 8e3e 59ff b03c
00000170: 8ab0 3abf c99e 883c c383 833d 88d1 d4ba
00000180: fa63 383e 5f66 c23e fb28 133e 8b9d 9a3d
00000190: e129 f6be 43fb ab3e b625 233e bd7b a23e
000001a0: 5a9e b93e 2c29 a6be 1d1a c2be 2f29 a2be
000001b0: 35fb 4d3e d5ac abbe c297 09be bc4e f73e
000001c0: f086 d6be 63d6 b4be 0be9 863e fe61 b33e
000001d0: be48 843d cc90 afbe f9e3 be3e 611b 3bbf
000001e0: 2696 32bd 6eaf 2d3e 205e d6be 7a91 cbbe
000001f0: 0822 4cbf eb1a 22bf e9a0 0fbd 3bb0 8bbe
00000200: 70fb b6bd 9d24 193e df1b 54bf e053 d03c
00000210: d391 423e ab4b 07bf fd3f 2cbe 57aa e13e
00000220: 4a8f 6c3e a6c2 e53e 54e3 113d 6d9a 1c3f
00000230: ac54 15be 1b4e f13e bb65 f6be 1784 723d
00000240: 20fe 473e e776 e2be 680f 8b3e c178 553e
00000250: 888d 27be ad3a fe3e 5f91 1e3e 58aa 833d
00000260: 1152 813f ec4b b43d c812 fc3e 5f44 833e
00000270: 91d9 e33e 15ac 433f a5f6 01be e828 6dbe
00000280: fd1d b83e 55dd 4f3e b7c8 a73d dcd1 98be
00000290: c939 49bf ac51 18bf 5815 1dbe 14ce 14bf
000002a0: 0768 883f d23c 1e3f e708 e1bd be91 f2be
000002b0: 311e e13e 0792 1bbe 7da8 31be bd3f 2f3e
000002c0: 6888 e4be d96f 3ebe 8bfe 313f 826f 6a3e
000002d0: fb0c bd3e cf10 04bf bf4a 333e b467 99be
000002e0: 3638 3c3e 8d3c 26bf 8694 a13e 4b38 a83e
000002f0: ae23 af3c 60d1 60bf 4dae a6bd eac6 8dbd
00000300: 7715 e8be 5d6e 39bf 34b2 c33e b764 84be
00000310: 2e61 b13d 79eb 803e 5c25 55bf 73f5 8b3e
00000320: adbe df3e 94e2 f23e 9c76 793e a6bb 73be
00000330: e255 8e3e 75de 0b3f 7406 02be a79c 903e
00000340: c98d 003e f9cb 90be a4c5 12bf f06f 92be
00000350: c6e7 f5be 2761 803e 4692 2b3e 42af 893d
00000360: e523 8fbd 8a8b 29be 03f4 97be 752d 2ebe
00000370: d2df ccbe cc1c b73e c424 08bf 776d 31be
00000380: 1404 d63e 3e8e 583d 074b 8f3e d8ff c1be
00000390: d701 b83e 8b8c 813e 625e 3d3e a9d9 22bf
000003a0: 97bc 71be f776 163f adcf e1bc 3034 dd3d
000003b0: 076d aa3e a79a 29be a680 ccbe 9d99 babe
000003c0: 9ec1 06be 3ce9 8abd c64a 533e f04e cbbe
000003d0: ebdf 07bf e1c1 01be 46ee d73e 7c2d 113e
000003e0: 16e1 093e 1d5d e1be bf03 d53d 90bd 993e
000003f0: 9bd5 04bf 9afb f73e 51bf 82be acb3 d6be

network_body._body_endoder.seq_layers.0.bias f4 [256]
-0.044135764 0.13404481 -0.045552924 0.14730097 0.11516137 -0.013237755 0.07104105 -0.089152314
0.11328028 0.1311945 0.117369615 -0.024239544 0.07473398 0.16299476 0.3729943 0.27584717
0.22267652 0.07390741 0.17106588 -0.08753741 0.027186781 0.13377857 0.041902255 -0.018561317
0.08029013 0.21389352 0.069106504 0.15892327 0.04112361 -0.065409124 0.049135078 0.080707
0.14299251 0.2700994 0.28049448 0.085766144 -0.11192389 0.06181003 0.20302193 0.27410886
0.20575795 0.20720005 -0.010637512 0.044966143 -0.036487058 0.12724411 0.3599562 0.17294183
-0.049450167 0.23045468 0.112336874 0.057573527 -0.099726714 0.16866516 0.20772728 0.08597375
-0.005186552 0.148334 0.2870693 0.05884197 0.054455377 0.18600293 0.119077764 -0.09927008
-0.109032 0.12877582 0.23605327 0.22843489 0.09783162 -0.006797505 -0.050278917 -0.031016275
0.049100477 -0.0705376 0.124520704 -0.0063874596 0.23895825 0.13904439 0.14906703 0.15970458
0.1363939 0.082437985 0.25635692 -0.022093356 0.007308965 0.07580114 0.26110613 -0.05608235
-0.059378535 0.24290743 -0.012626824 -0.019782946 0.25601098 0.25509956 -0.10058273 0.057033148
0.17794584 0.12691088 -0.15601462 0.11338173 -0.055773903 0.10220284 -0.027100043 0.20989852
0.19776106 0.27560407 0.13334809 0.13008212 -0.03355331 0.06176993 0.042501766 0.23428328
0.25294864 0.16129886 0.040303737 0.17639466 0.10686332 0.059667937 -0.048121326 0.14283116
-0.10063709 -0.06955895 0.22792776 0.22423351 0.17899166 0.0047575906 0.2513489 0.020002954
0.029574594 0.00609293 -0.058896035 0.16434933 0.039684515 0.07700555 0.107831806 0.111924976
0.23641783 0.18185453 -0.023838522 0.0057737823 0.12293557 0.07769293 0.105202064 0.25007173
-0.109105036 0.06874017 -0.028656181 0.1504358 0.15787882 0.1569004 0.10440081 0.0330878
-0.039541036 0.10098037 0.2214279 0.24233806 -0.015046431 -0.059960134 0.08635227 -0.016686141
0.19127372 0.1468148 0.08845127 0.05227133 0.05445952 0.03510022 0.019422488 0.21701261
0.14572915 0.12570472 0.28353807 -0.021766495 0.24306168 0.0066031185 0.04732402 -0.066555224
-0.05166192 0.17824674 0.17678373 0.23759925 0.1421171 0.026830591 0.056708563 0.07707693
0.054225247 0.1546636 0.20144384 -0.0040422054 0.21078463 -0.060280625 0.23748569 0.2149232
-0.024063407 0.06478029 0.038415153 -0.045847125 0.054040894 0.30341628 0.16358784 0.062928446
-0.09400888 0.3168252 0.06904644 0.14904806 0.19246458 0.24572483 0.113479316 0.20750633
0.27009952 0.068967715 0.09029613 0.11327738 0.1776486 -0.13826258 0.32785448 0.19138102
0.046381343 0.10993375 0.11156867 0.106315225 0.09976889 0.18137102 0.044391405 0.06537627
0.21617797 0.010394271 0.027077472 0.054736912 0.22791165 0.20679112 0.14687575 0.15517524
-0.08342131 0.17178631 0.22598739 -0.03391978 0.13818586 -0.042845666 0.01453426 0.2751236
0.14376506 0.1159829 0.10403594 0.10319536 -0.042640246 0.28847435 0.17509322 0.020748224
0.38106498 0.15650964 0.20203462 -0.026354494 0.08151432 0.08918134 0.07609879 0.24894035
00000000: b4c7 34bd 0b43 093e b495 3abd 11d6 163e
00000010: b9d9 eb3d 2be3 58bc f87d 913d 7d95 b6bd
00000020: 7eff e73d da57 063e 7b5f f03d 0292 c6bc
00000030: 210e 993d 19e8 263e 1cf9 be3e d73b 8d3e
00000040: 5005 643e c55c 973d e52b 2f3e d046 b3bd
00000050: d0b6 de3c 40fd 083e b3a1 2b3d e70d 98bc
00000060: 276f a43d e706 5b3e b687 8d3d c8bc 223e
00000070: 3b71 283d 38f5 85bd dd41 493d b649 a53d
00000080: a16c 123e 784a 8a3e f99c 8f3e 29a6 af3d
00000090: 5a38 e5bd 842c 7d3d fbe4 4f3e ff57 8c3e
000000a0: 36b2 523e 402c 543e f648 2ebc 6b2e 383d
000000b0: 7473 15bd 484c 023e 2e4c b83e aa17 313e
000000c0: 428c 4abd 50fc 6b3e e010 e63d 38d2 6b3d
000000d0: 853d ccbd 8fb6 2c3e 76b6 543e 0113 b03d
000000e0: f4f3 a9bb dee4 173e bffa 923e 4704 713d
000000f0: 9a0c 5f3d 8d77 3e3e 0bdf f33d 1d4e cbbd
00000100: 2b4c dfbd cfdd 033e f3b7 713e d6ea 693e
00000110: f25b c83d 9bbd debb 44f1 4dbd d815 febc
00000120: 951d 493d 0476 90bd b604 ff3d e54d d1bb
00000130: 79b1 743e a761 0e3e 07a5 183e 9989 233e
00000140: d8aa 0b3e 3fd5 a83d 3741 833e 20fd b4bc
00000150: 0b80 ef3b a13d 9b3d b4af 853e 9bb6 65bd
00000160: e836 73bd babc 783e bde0 4ebc d80f a2bc
00000170: df13 833e 699c 823e 51fe cdbd 979b 693d
00000180: 6f37 363e edf4 013e 4cc2 1fbe ae34 e83d
00000190: 2d73 64bd b94f d13d e900 debc a3ef 563e
000001a0: e081 4a3e fa1b 8d3e 678c 083e 3f34 053e
000001b0: 326f 09bd 7702 7d3d 5516 2e3d f5e7 6f3e
000001c0: 7c82 813e 872b 253e 8815 253d cda0 343e
000001d0: 28db da3d 5e66 743d de1a 45bd 5542 123e
000001e0: d21a cebd ec74 8ebd e565 693e 789d 653e
000001f0: 9749 373e 90e5 9b3b ceb0 803e 3cdd a33c
00000200: 6b46 f23c 34a7 c73b f83c 71bd 314b 283e
00000210: 3b8c 223d 16b5 9d3d ecd6 dc3d ec38 e53d
00000220: 8417 723e 1338 3a3e 0149 c3bc ff31 bd3b
00000230: a5c5 fb3d 791d 9f3d 2e74 d73d 6709 803e
00000240: 7672 dfbd a5c7 8c3d 5ec0 eabc d80b 1a3e
00000250: fcaa 213e 80aa 203e 18d0 d53d 1387 073d
00000260: c8f5 21bd ccce ce3d ffbd 623e 7827 783e
00000270: 4e85 76bc c298 75bd 75d9 b03d 60b1 88bc
00000280: 42dd 433e 9e56 163e f025 b53d 761a 563d
00000290: f210 5f3d 40c5 0f3d e91b 9f3c 8e38 5e3e
000002a0: 063a 153e bdb8 003e e72b 913e a64f b2bc
000002b0: 29e5 783e f95e d83b d5d6 413d 1b4e 88bd
000002c0: 739b 53bd 5086 363e cb06 353e 384d 733e
000002d0: 2587 113e d4cb db3c 3d47 683d 82da 9d3d
000002e0: 4b1b 5e3d 2260 1e3e 4b47 4e3e 7a74 84bb
000002f0: edd7 573e d1e8 76bd 732f 733e d414 5c3e
00000300: 9f20 c5bc 87ab 843d 3559 1d3d 32ca 3bbd
00000310: fc59 5d3d 6159 9b3e 9283 273e a1e0 803d
00000320: ba87 c0bd ea36 a23e 3868 8d3d 0ea0 183e
00000330: 6f15 453e 4a9f 7b3e d867 e83d 8a7c 543e
00000340: 7c4a 8a3e f23e 8d3d 2ded b83d f9fd e73d
00000350: 84e9 353e b594 0dbe 8bdc a73e 63f9 433e
00000360: 5dfa 3d3d f224 e13d 1d7e e43d ccbb d93d
00000370: a253 cc3d 53b9 393e c3d3 353d fee3 853d
00000380: c25d 5d3e bc4c 2a3c 93d1 dd3c d033 603d
00000390: ac61 693e 0dc1 533e 9966 163e 42e6 1e3e
000003a0: cbd8 aabd c0e8 2f3e 3d69 673e 78ef 0abd
000003b0: 9880 0d3e f07e 2fbd 1b21 6e3c 00dd 8c3e
000003c0: 2637 133e 7188 ed3d cb10 d53d 1758 d33d
000003d0: 8aa7 2ebd e9b2 933e a34b 333e 2ef8 a93c
000003e0: f31a c33e 1044 203e 2ae2 4e3e 61e5 d7bc
000003f0: fbf0 a63d b5a4 b63d afd9 9b3d 38ea 7e3e

network_body._body_endoder.seq_layers.2.weight f4 [256, 256]
0.012825735 0.079855874 -0.16644691 -0.0141138835 -0.06132853 -0.0737341 -0.067064755 -0.14932401
0.06102717 -0.080929324 0.11255568 -0.003488949 -0.20920087 -0.07646024 -0.05139031 0.11068862
0.21292949 -0.01813937 0.07002487 -0.26309967 0.011065215 0.07942145 -0.16671605 -0.09349161
0.06862008 -0.10512985 -0.012611444 -0.005788407 0.20047154 0.018182551 0.05878986 0.07839853
0.17342457 0.025254438 -0.0067892484 0.053580627 -0.16052695 -0.10583687 -0.043612786 -0.03908755
-0.07644892 -0.033171833 0.001123281 0.09006578 -0.02031074 0.04949641 -0.063597895 -0.006554584
0.059153218 -0.04638788 0.20860434 0.13823046 -0.14392656 0.02704185 0.25625592 0.095179394
-0.24522284 -0.029729413 0.12550093 -0.03932256 0.03761516 0.096788734 0.059390213 -0.059340082
-0.10699176 0.041206215 -0.043944594 0.13611907 -0.058653012 -0.03342412 -0.18193126 -0.08768386
0.049152378 -0.2031482 -0.083662495 -0.19906262 -0.103442 0.08789868 0.09969742 0.067399606
-0.035753235 0.15605094 0.041484717 0.07543701 0.17077655 -0.042929318 0.23852782 0.0271284
-0.18355109 0.03862712 -0.1101106 -0.003513695 0.102046825 -0.005021082 -0.14478253 -0.0514611
-0.039711874 -0.18561171 -0.06780338 0.095246136 -0.003949325 0.25708827 -0.023049591 -0.06077559
0.014513182 -0.060402326 0.04650438 0.019340005 -0.15964049 -0.082702376 -0.031720895 0.16600548
0.08069503 0.03937223 -0.25440043 0.21147451 0.03466809 -0.15190712 -0.03836044 -0.060031716
-0.0009930314 -0.066855535 -0.11703682 0.18644615 0.14237729 0.23017505 -0.06544636 0.07317111
-0.27324665 0.08730715 0.020912373 0.03062713 0.12906133 -0.0351135 0.044431 -0.07132658
0.0451195 0.060820535 -0.20553398 0.09823902 -0.10551309 -0.030080048 0.14156634 0.17217605
0.06370732 -0.013753276 -0.21425301 -0.19873923 0.15619624 0.055650063 -0.12629746 0.19757642
-0.12559406 0.08426356 -0.056346275 0.114829995 -0.02477069 -0.017515352 -0.105026826 -0.11716761
0.15438162 -0.043431584 -0.12838648 -0.14946751 -0.0029458057 -0.17609859 0.038513586 -0.19312948
-0.12554081 -0.07490702 -0.039014082 0.035016887 0.111735635 -0.006621636 -0.05300826 -0.0017758652
0.09201505 0.12269949 0.084551126 -0.039708003 0.036973305 -0.009959547 -0.015166314 0.068523824
-0.0113174375 0.21901569 0.054672047 -0.17517994 0.06268735 0.057938892 -0.08884074 0.03904499
-0.069966085 0.08981903 0.07597758 -0.02971572 0.12953636 -0.012535415 0.09484529 0.12266184
0.06263366 -0.014681482 0.027233424 0.019849613 0.10030614 0.06329641 -0.00908506 -0.13358258
0.20909968 0.018960824 -0.0036878202 -0.053243127 0.013277983 -0.17908797 -0.036515553 -0.123681806
0.046089645 0.12420707 0.16814525 -0.07065808 0.068946 0.012099829 0.107355796 0.043882176
-0.058795575 -0.16945425 -0.0023072618 -0.15099254 -0.041456755 -0.25390944 0.05825774 0.060533706
-0.11709601 -0.06478704 0.13386185 -0.043424606 -0.058798425 -0.0073387944 -0.09817616 -0.10658718
0.01395222 0.031913538 0.0570924 -0.1651588 -0.18580887 0.14354391 0.099753186 -0.004611414
0.05217878 -0.1107246 0.12848969 -0.06755264 0.03471059 0.23403534 -0.070212804 -0.018910244
00000000: 0823 523c 7a8b a33d 0f71 2abe eb3d 67bc
00000010: a033 7bbd e701 97bd 3f59 89bd 65e8 18be
00000020: a0f7 793d 46be a5bd 9883 e63d daa6 64bb
00000030: c138 56be 3097 9cbd a57e 52bd b7b0 e23d
00000040: 300a 5a3e 0499 94bc 3369 8f3d 00b5 86be
00000050: e04a 353c b7a7 a23d 9db7 2abe 8778 bfbd
00000060: af88 8c3d 524e d7bd 3ba0 4ebc adac bdbb
00000070: 6948 4d3e 93f3 943c a3cd 703d 698f a03d
00000080: 3696 313e 65e2 ce3c 5878 debb 5c77 5b3d
00000090: 2d61 24be 00c1 d8bd 52a3 32bd 441a 20bd
000000a0: 4091 9cbd 30df 07bd 0e3b 933a 6874 b83d
000000b0: b662 a6bc bfbc 4a3d 9d3f 82bd d6c7 d6bb
000000c0: a54a 723d 3801 3ebd 609c 553e 498c 0d3e
000000d0: 7c61 13be df86 dd3c fa33 833e 6aed c23d
000000e0: b21b 7bbe 198b f3bc 5183 003e b110 21bd
000000f0: 5b12 1a3d 2c39 c63d 2743 733d 960e 73bd
00000100: 7f1e dbbd d9c7 283d 3fff 33bd cc62 0b3e
00000110: 243e 70bd bbe7 08bd 304c 3abe 9893 b3bd
00000120: 0154 493d 1506 50be 3e57 abbd 12d7 4bbe
00000130: 66d9 d3bd 3904 b43d 292e cc3d ce08 8a3d
00000140: fc71 12bd d1cb 1f3e e1eb 293d b87e 9a3d
00000150: 0ce0 2e3e a7d6 2fbd a340 743e 613c de3c
00000160: d1f4 3bbe 7937 1e3d ab81 e1bd 0546 66bb
00000170: edfd d03d e387 a4bb df41 14be e0c8 52bd
00000180: eba8 22bd ff10 3ebe 80dc 8abd 6810 c33d
00000190: 5769 81bb 13a1 833e 7fd2 bcbc d3ef 78bd
000001a0: b3c8 6d3c 6e68 77bd 607b 3e3d ee6e 9e3c
000001b0: cc78 23be dd5f a9bd c5ed 01bd 57fd 293e
000001c0: 7043 a53d c744 213d c640 82be c68c 583e
000001d0: 2100 0e3d 8a8d 1bbe d61f 1dbd d1e3 75bd
000001e0: 9b28 82ba 8eeb 88bd 00b1 efbd bdeb 3e3e
000001f0: 5acb 113e 02b3 6b3e be08 86bd bcda 953d
00000200: fce6 8bbe 17ce b23d 6d50 ab3c bfe5 fa3c
00000210: a728 043e 2cd3 0fbd 48fd 353d ac13 92bd
00000220: 3acf 383d f41e 793d 8077 52be 8a31 c93d
00000230: 3f17 d8bd 6f6a f6bc c4f6 103e eb4e 303e
00000240: fc78 823d 6c55 61bc 2465 5bbe 4c82 4bbe
00000250: e8f1 1f3e 52f1 633d 1f54 01be 7951 4a3e
00000260: bb9b 00be 6092 ac3d 5acb 66bd fd2b eb3d
00000270: e7eb cabc 5b7c 8fbc 4e18 d7bd 92f5 efbd
00000280: 3716 1e3e 51e5 31bd bf77 03be 030e 19be
00000290: 6b0e 41bb 3053 34be 6cc0 1d3d bcc3 45be
000002a0: c58d 00be da68 99bd 3bcd 1fbd de6d 0f3d
000002b0: a7d5 e43d 4ffa d8bb 301f 59bd 26c4 e8ba
000002c0: 6372 bc3d df49 fb3d 2429 ad3d dca4 22bd
000002d0: 5271 173d 5e2d 23bc 227c 78bc 3856 8c3d
000002e0: c66c 39bc a645 603e ccef 5f3d 5f62 33be
000002f0: 3a62 803d 5551 6d3d 22f2 b5bd a4ed 1f3d
00000300: 614a 8fbd 0af3 b73d 229a 9b3d 626e f3bc
00000310: 2ea5 043e 5761 4dbc 3f3e c23d 2136 fb3d
00000320: 1446 803d 998a 70bc a118 df3c a89b a23c
00000330: 4e6d cd3d 8ca1 813d 81d9 14bc dfc9 08be
00000340: 3a1e 563e bb53 9b3c 5baf 71bb 7715 5abd
00000350: e68b 593c d662 37be 5591 15bd e34c fdbd
00000360: 7fc8 3c3d 4760 fe3d 452e 2c3e 2fb5 90bd
00000370: 8f33 8d3d 5c3e 463c 5bdd db3d ccbd 333d
00000380: a1d3 70bd 6a85 2dbe 6e35 17bb ca9d 1abe
00000390: 8fce 29bd 6b00 82be ab9f 6e3d 31f2 773d
000003a0: 08d0 efbd 11af 84bd 1513 093e 00de 31bd
000003b0: 9ed6 70bd 457a f0bb 9510 c9bd 614a dabd
000003c0: da97 643c c5b7 023d b8d9 693d 631f 29be
000003d0: ae44 3ebe 2dfd 123e 664b cc3d 581b 97bb
000003e0: 6bb9 553d 94c3 e2bd cd92 033e 0a59 8abd
000003f0: b12c 0e3d f6a6 6f3e bbcb 8fbd a8e9 9abc

network_body._body_endoder.seq_layers.2.bias f4 [256]
0.15895939 0.06580108 -0.15552942 0.046121556 0.03665101 0.018110162 0.12004552 -0.08864592
0.14152998 0.056525934 0.04978154 0.02937653 -0.026139915 -0.071339786 -0.014966864 -0.010646928
0.02931332 -0.101105995 -0.0033456963 0.07932005 -0.04703842 -0.009788687 -0.047732335 0.121963136
-0.13297328 0.0067623304 -0.06670491 -0.06701013 0.06982115 0.041771866 0.02889582 0.0760289
0.08974054 -0.03195214 -0.027062295 0.032587174 -0.1112119 0.0109949075 0.1371567 -0.10113012
-0.01799902 -0.0122555755 0.09471754 -0.023696728 0.11577566 -0.03029959 0.0049035684 0.09442324
-0.033123996 -0.030361835 0.0003967983 -0.11607088 0.010705187 0.0040455493 0.047756057 -0.02305957
-0.023915242 0.0014999988 -0.13744506 -0.15686005 -0.15157066 -0.030593598 0.052474633 -0.11426008
0.046704758 0.0064947065 0.006745923 -0.01514835 0.028527983 -0.114193514 0.054717533 0.08304601
0.09034271 -0.058759056 0.1756115 -0.020416409 0.05358647 -0.04336451 -0.11936827 -0.013930147
-0.07237009 0.036428835 0.17358184 -0.023274936 0.06771951 -0.18012528 -0.13399981 -0.02742261
0.05886709 -0.039259102 -0.15127097 -0.040709574 0.0074491953 -0.08632625 0.011941201 -0.043821786
0.09546058 0.00010732416 -0.058955234 -0.17009316 0.07589439 -0.018436586 0.1328011 0.03271391
0.060503524 -0.02769118 -0.043141387 0.08591027 -0.07116111 0.08374772 -0.13824879 -0.02028746
-0.18767083 -0.05257057 0.06916222 0.0674627 -0.008643625 0.0046495 -0.0052772807 -0.045514524
0.014084319 0.071600415 0.05252146 -0.15202704 0.02395669 0.21503592 0.08010499 -0.059718147
0.1869262 -0.055008642 -0.028089222 -0.0050169392 -0.03250682 0.059741847 0.187173 -0.01315769
0.056268252 0.03184269 -0.033225898 0.0018976763 0.01690421 -0.035525482 -0.08292674 -0.117803894
0.12308153 0.09201435 -0.14141108 -0.02021992 0.004160575 -0.048052657 0.14663889 0.0099720415
-0.049718484 -0.112951964 0.04855566 0.033540912 0.2522948 -0.093233585 0.045944024 0.07704033
0.12120608 0.03853801 0.03502903 -0.112218715 0.043091252 0.09103221 -0.12715505 -0.036516666
0.053194944 0.020183276 0.04306027 -0.06002883 -0.115496755 -0.0790401 -0.035853907 -0.015765792
0.070416994 -0.017046986 -0.0106819 -0.067319565 -0.017107356 -0.16789083 -0.012379319 0.018910332
0.05293745 -0.13132113 -0.108141854 0.006194548 -0.06281099 -0.07871835 0.041949984 0.058504924
0.07031459 0.06257169 0.11374352 -0.12751445 0.018249968 0.039816696 0.18070126 0.03016206
-0.13790199 0.042267904 -0.017485596 -0.14936064 -0.13643618 -0.018961564 0.047984064 0.023475349
0.019350499 0.13870169 -0.006374603 0.22948574 0.010209051 -0.010703315 0.07773497 0.15623777
0.040428486 0.069721684 -0.04608398 -0.025753696 -0.09848659 0.025398191 0.037321284 -0.05100891
-0.0009959899 -0.1871421 0.02831968 -0.10910942 0.024918847 0.002433702 -0.021359317 0.04662258
0.22295246 0.11888217 -0.071300335 -0.05147884 -0.032732725 -0.020527298 0.15409395 0.10944413
-0.18890779 -0.06960988 0.0038193874 -0.112950504 0.09780423 0.017110137 0.1576926 0.05258624
0.14626203 -0.14629042 0.081199616 -0.04823016 -0.029785058 0.011846304 -0.12107504 -0.118262626
00000000: 40c6 223e b7c2 863d 1b43 1fbe f5e9 3c3d
00000010: 5f1f 163d c35b 943c 6dda f53d fe8b b5bd
00000020: 3ced 103e bd87 673d bae7 4b3d 0ca7 f03c
00000030: 6023 d6bc 981a 92bd 9437 75bc 7470 2ebc
00000040: 7d22 f03c a910 cfbd 7843 5bbb 8d72 a23d
00000050: 5cab 40bd bb60 20bc fb82 43bd cfc7 f93d
00000060: 262a 08be 8a96 dd3b 959c 88bd 9b3c 89bd
00000070: 64fe 8e3d fa18 2b3d edb6 ec3c 0ab5 9b3d
00000080: e3c9 b73d 3fe0 02bd bfb1 ddbc 217a 053d
00000090: 11c3 e3bd fc23 343c ce72 0c3e 4f1d cfbd
000000a0: ae72 93bc 9ccb 48bc 45fb c13d a41f c2bc
000000b0: ca1b ed3d d936 f8bc 1dae a03b f960 c13d
000000c0: 07ad 07bd 62b9 f8bc 5e09 d039 92b6 edbd
000000d0: cf64 2f3c 8790 843b db9b 433d 6ce7 bcbc
000000e0: e6e9 c3bc 9c9b c43a 66be 0cbe ec9f 20be
000000f0: 5735 1bbe 6d9f fabc a4ef 563d 3001 eabd
00000100: 7d4d 3f3d 8cd1 d43b e70c dd3b c930 78bc
00000110: 84b3 e93c 4ade e9bd 7e1f 603d 0714 aa3d
00000120: 9905 b93d 56ad 70bd 80d3 333e 5040 a7bc
00000130: 7d7d 5b3d fc9e 31bd 5a77 f4bd 453b 64bc
00000140: c536 94bd 6736 153d 70bf 313e 14ab bebc
00000150: 87b0 8a3d c372 38be 3f37 09be 62a5 e0bc
00000160: 9e1e 713d 27ce 20bd c7e6 1abe 15bf 26bd
00000170: 6118 f43b d1cb b0bd 07a5 433c 797e 33bd
00000180: d680 c33d 3813 e138 0b7b 71bd e72c 2ebe
00000190: 856e 9b3d 5308 97bc 03fd 073e 05ff 053d
000001a0: 8bd2 773d 9dd8 e2bc 06b5 30bd b9f1 af3d
000001b0: ebbc 91bd ed83 ab3d 1791 0dbe e331 a6bc
000001c0: c82c 40be 3d54 57bd eca4 8d3d e229 8a3d
000001d0: fe9d 0dbc d55a 983b 0aed acbb 706d 3abd
000001e0: eac1 663c 3da3 923d be20 573d faac 1bbe
000001f0: d240 c43c 6032 5c3e 160e a43d 049b 74bd
00000200: 9569 3f3e be50 61bd 5e1b e6bc 2365 a4bb
00000210: df25 05bd deb3 743d 47aa 3f3e 5a93 57bc
00000220: 8a79 663d 7b6d 023d e117 08bd 73bb f83a
00000230: b37a 8a3c 2b83 11bd 7fd5 a9bd 2b43 f1bd
00000240: 2b12 fc3d 0572 bc3d 11ce 10be 3fa4 a5bc
00000250: 6f55 883b ddd2 44bd 8128 163e c661 233c
00000260: 9ca5 4bbd 5c53 e7bd 4de2 463d 3262 093d
00000270: c92c 813e 40f1 bebd cd2f 3c3d 52c7 9d3d
00000280: e53a f83d 08da 1d3d 9a7a 0f3d edd2 e5bd
00000290: 7480 303d 186f ba3d ef34 02be 8092 15bd
000002a0: f1e2 593d 6657 a53c f75f 303d cae0 75bd
000002b0: 9089 ecbd c7df a1bd 8cdb 12bd 4327 81bc
000002c0: c936 903d 1fa6 8bbc 2303 2fbc d7de 89bd
000002d0: ba24 8cbc 93eb 2bbe a1d2 4abc d7e9 9a3c
000002e0: f1d4 583d 0c79 06be 7a79 ddbd a3fb ca3b
000002f0: 0ca3 80bd 1637 a1bd bfd3 2b3d dca2 6f3d
00000300: 1901 903d 9625 803d 5df2 e83d 2693 02be
00000310: f580 953c d516 233d c009 393e 6d16 f73c
00000320: 2e36 0dbe 1c21 2d3d f43d 8fbc fff1 18be
00000330: edb5 0bbe 4855 9bbc f08a 443d 604f c03c
00000340: f084 9e3c d107 0e3e 0ce2 d0bb 4ffe 6a3e
00000350: dd43 273c f55c 2fbc 8333 9f3d cbfc 1f3e
00000360: 5798 253d 3eca 8e3d 8ec2 3cbd 6af9 d2bc
00000370: 56b3 c9bd de0f d03c 34de 183d b8ee 50bd
00000380: e08b 82ba 2ea2 3fbe acfe e73c c274 dfbd
00000390: 9c22 cc3c be7e 1f3b bcf9 aebc 52f7 3e3d
000003a0: a64d 643e 7f78 f33d e905 92bd 7adb 52bd
000003b0: c012 06bd dd28 a8bc ceca 1d3e 3e24 e03d
000003c0: 0b71 41be a08f 8ebd b04e 7a3b 9852 e7bd
000003d0: 964d c83d 8f2a 8c3c 2b7a 213e ab64 573d
000003e0: b7c5 153e 28cd 15be fc4b a63d fd8c 45bd
000003f0: cbff f3bc 0017 423c 31f6 f7bd ad33 f2bd

action_model._discrete_distribution.branches.0.weight f4 [3, 256]
-0.066212386 0.002603896 0.08269233 0.12102648 0.007056427 0.02047292 -0.048961088 -0.08218215
-0.0432162 0.1317466 -0.008198961 -0.0036894458 -0.09518629 -0.011100087 -0.00740112 -0.022634698
-0.022356559 0.009481188 -0.06617754 -0.022314396 -0.11553763 -0.042859096 0.019288654 -0.08266504
0.050000265 -0.025688112 0.038913187 -0.25010428 -0.021665268 0.05504443 -0.15779665 0.25485656
0.009397137 -0.024663165 0.16754098 -0.0600481 -0.17370161 0.24143523 -0.07244986 0.20929874
-0.17665935 -0.025357395 -0.04173192 0.07032776 -0.01403034 -0.03850762 0.13032587 -0.04394769
0.013575748 -0.34920567 0.06989955 -0.088674694 -0.002559134 0.07928335 0.06675448 0.0016755023
0.2162565 -0.06591714 -0.11089719 0.03514417 -0.0668241 0.053471748 0.03705765 0.028682062
0.010591401 -0.025037257 -0.027305122 -0.01799273 -0.07507459 0.002703688 0.04312157 -0.033529542
-0.027097253 -0.11421597 -0.07249127 0.01281429 0.0030414723 -0.07587462 -0.047325995 -0.0022585173
-0.4198519 -0.003272263 -0.023328383 0.068413846 0.07142249 -0.033327505 0.09050025 -0.07035914
0.0128974 -0.0065100607 -0.17342244 0.0108056385 0.006978063 -0.11550133 0.024430571 -0.048224594
-0.050961822 0.025400568 0.09975961 0.035911925 -0.06479692 0.06947949 -0.03627695 -0.07158448
0.0043054125 0.014070764 0.22015075 -0.13030174 -0.06930465 -0.034477763 -0.090399064 0.048786722
0.02131766 0.028676331 0.0034755326 0.044515476 0.013908822 0.020749427 -0.029071277 0.0012490099
0.110569574 -0.010191916 -0.28986633 0.051246572 0.045967326 -0.048908293 -0.06992139 -0.088929065
-0.09365838 -0.006893906 0.011748756 -0.00023281819 0.011128304 -0.024792941 -0.07022861 0.084120646
-0.015860602 -0.012262503 0.096441135 0.027050704 -0.0882516 -0.044471122 0.103956476 -0.078485
-0.017201992 -0.049662977 0.07303293 0.0129601285 -0.013648017 -0.010455411 -0.019462407 -0.050008312
0.0675969 0.14510605 0.052743066 -0.08170819 -0.009075347 0.006886576 -0.01330658 0.08144723
-0.03727693 0.073304884 0.120463476 -0.13284692 0.020734629 0.08126944 0.0285453 -0.06587379
0.27781984 0.28069207 0.113145635 -0.06755631 0.089088954 -0.14931613 -0.29475096 -0.20794451
0.025911681 0.014437125 0.05065897 -0.028225139 -0.20124215 -0.0705874 0.05654358 -0.10786838
-0.049972456 -0.18527828 0.0009922112 -0.097656265 -0.10706356 0.008775534 0.073645115 0.022134218
-0.008739101 -0.051536903 -0.011183741 0.015430025 0.009366903 -0.04187973 -0.058479507 0.10485814
0.020572206 -0.08310467 -0.028411256 0.067285374 0.018809894 0.0113859605 0.0038112106 -0.026389904
-0.09105135 0.12503184 0.090265095 -0.06811492 -0.22793186 0.054918636 -0.10491069 0.016006008
-0.14558215 0.01041898 -0.04232264 0.17014885 -0.007527493 0.044403944 0.098720945 0.07009904
0.02522232 0.22024783 -0.017794492 0.33230528 -0.09218475 0.11346149 0.0040953914 0.04108616
-0.03227224 -0.12010231 -0.15244502 -0.34671 0.047244143 0.09529317 -0.12344639 -0.020275515
0.16088575 0.034678847 -0.023862625 0.07614967 0.026109027 0.0872023 -0.04740161 0.012559505
0.008144383 0.04291818 0.07381521 -0.05206284 -0.016348833 -0.3909033 0.26142526 0.22800304
00000000: 5c9a 87bd 20a6 2a3b 995a a93d bbdc f73d
00000010: 9a39 e73b d3b6 a73c 6c8b 48bd 1d4f a8bd
00000020: 7803 31bd 95e8 063e ef54 06bc a1ca 71bb
00000030: 08f1 c2bd 24dd 35bc 1885 f2bb 676c b9bc
00000040: 1a25 b7bc fc56 1b3c 1788 87bd aecc b6bc
00000050: fe9e ecbd 058d 2fbd 3d03 9e3c 4a4c a9bd
00000060: 14cd 4c3d e06f d2bc 6f63 1f3d ab0d 80be
00000070: 5c7b b1bc 4576 613d 7295 21be 8f7c 823e
00000080: 73f6 193c 680a cabc dd8f 2b3e fff4 75bd
00000090: d6de 31be cc3a 773e 9860 94bd 6952 563e
000000a0: 30e6 34be 50ba cfbc 17ef 2abd 0008 903d
000000b0: 83df 65bc 2bba 1dbd 2574 053e 7e02 34bd
000000c0: d06c 5e3c 16cb b2be 7f27 8f3d 149b b5bd
000000d0: 25b7 27bb 4f5f a23d 93b6 883d 879c db3a
000000e0: 5872 5d3e 91ff 86bd 111e e3bd 55f3 0f3d
000000f0: 13db 88bd 3105 5b3d c3c9 173d a5f6 ea3c
00000100: 8e87 2d3c ef1a cdbc feae dfbc 7d65 93bc
00000110: b5c0 99bd 5c30 313b 3ea0 303d 4656 09bd
00000120: 0ffb ddbc 10ea e9bd 4e76 94bd 07f3 513c
00000130: 7053 473b 2764 9bbd e7d8 41bd a203 14bb
00000140: d4f6 d6be 7773 56bb 2a1b bfbc 8f1c 8c3d
00000150: f445 923d 6c82 08bd 3258 b93d 7418 90bd
00000160: 9e4f 533c 5952 d5bb a795 31be 220a 313c
00000170: 3ca8 e43b f68b ecbd 9f22 c83c 2787 45bd
00000180: 58bd 50bd da14 d03c c44e cc3d 6218 133d
00000190: 3fb4 84bd 434b 8e3d 2497 14bd e29a 92bd
000001a0: 6b14 8d3b 1089 663c 336f 613e d26d 05be
000001b0: 99ef 8dbd 8e38 0dbd 2523 b9bd 96d4 473d
000001c0: 60a2 ae3c a0ea ea3c c3c5 633b dc55 363d
000001d0: d4e1 633c b4fa a93c e326 eebc d1b5 a33a
000001e0: 4d72 e23d fefb 26bc 5c69 94be ede7 513d
000001f0: 3c48 3c3d 1054 48bd f232 8fbd 7120 b6bd
00000200: f7cf bfbd 46e6 e1bb db7d 403c a820 74b9
00000210: 7d53 363c 911a cbbc 04d4 8fbd 7247 ac3d
00000220: 18ee 81bc aae8 48bc ee82 c53d 7099 dd3c
00000230: 41bd b4bd 5a27 36bd 22e7 d43d bebc a0bd
00000240: 31eb 8cbc 686b 4bbd 4a92 953d b856 543c
00000250: ef9b 5fbc 2c4d 2bbc a06f 9fbc 84d5 4cbd
00000260: 3e70 8a3d ae96 143e 1d09 583d a056 a7bd
00000270: c4b0 14bc c9a8 e13b d703 5abc cecd a63d
00000280: b2af 18bd df20 963d 8eb5 f63d 0609 08be
00000290: abdb a93c 9870 a63d d5d7 e93c d6e8 86bd
000002a0: 673e 8e3e dfb6 8f3e e6b8 e73d f65a 8abd
000002b0: 4574 b63d 54e6 18be 99e9 96be 68ef 54be
000002c0: bc44 d43c b189 6c3c c87f 4f3d 6838 e7bc
000002d0: 6c12 4ebe 2090 90bd 3e9a 673d 19ea dcbd
000002e0: ebaf 4cbd 97b9 3dbe 150d 823a 0200 c8bd
000002f0: 2444 dbbd 42c7 0f3c 40d3 963d d252 b53c
00000300: 722e 0fbc 5c18 53bd 023c 37bc 37ce 7c3c
00000310: a477 193c 148a 2bbd 3588 6fbd ddbf d63d
00000320: 0b87 a83c c832 aabd b9be e8bc eacc 893d
00000330: 3517 9a3c 2e8c 3a3c 81c5 793b a42f d8bc
00000340: 2179 babd 5908 003e e8dc b83d d67f 8bbd
00000350: f866 69be 5df2 603d 6adb d6bd 081f 833c
00000360: 7d13 15be 5fb4 2a3c 815a 2dbd 803b 2e3e
00000370: 30a9 f6bb e9e0 353d 352e ca3d 1690 8f3d
00000380: 0a9f ce3c a688 613e c1c5 91bc eb23 aa3e
00000390: 5ccb bcbd 7f5e e83d a232 863b f649 283d
000003a0: e52f 04bd 33f8 f5bd 8c1a 1cbe f983 b1be
000003b0: 1383 413d 1129 c33d 76d1 fcbd d618 a6bc
000003c0: 3cbf 243e 680b 0e3d 8d7b c3bc 5cf4 9b3d
000003d0: 99e2 d53c 1f97 b23d 3128 42bd 62c6 4d3c
000003e0: 0570 053c f9ca 2f3d 6e2c 973d d83f 55bd
000003f0: fded 85bc 7a24 c8be 88d9 853e a179 693e

action_model._discrete_distribution.branches.0.bias f4 [3]
-0.021993898 0.01836537 0.004596423
00000000: 8c2c b4bc f972 963c 979d 963b

action_model._discrete_distribution.branches.1.weight f4 [3, 256]
0.017321311 -0.017680533 -0.025461696 0.0029847883 0.033570074 -0.0019987768 -0.0013021195 0.030031556
0.014785559 0.004679158 -0.004451547 -0.028592082 -0.0047624563 -0.023915742 0.019745266 0.007142143
-0.022529686 0.03966161 0.0232408 0.021784725 0.028353626 -0.029764365 -0.079232655 0.014464339
0.0021476126 0.027257793 -0.032298297 -0.002537242 -0.013247973 -0.02417418 0.051637214 0.03477205
0.019412093 -0.06429017 -0.02175984 0.018982507 0.008924657 0.017383453 -0.000209393 -0.02992995
-0.02330876 -0.01981066 0.014912746 0.004448826 0.010866806 0.0077052116 -0.043067336 0.013979201
-0.03305574 -0.036100797 -0.018919474 -0.0042500235 0.025618356 0.044727255 -0.046384294 -0.023358406
-0.020302495 -0.013406322 -0.021857591 -0.037234526 -0.004104895 0.006992702 -0.042338766 0.0012438775
0.010157477 -0.03447216 0.0046119755 0.042466573 0.027674051 -0.05902265 0.00916004 0.016877577
-0.010046608 -0.0058508674 0.030697357 -0.0009996704 0.051935364 -0.059808917 -0.040973715 0.04999591
-0.023151776 0.037762605 0.028301705 -0.0511834 -0.0031019365 -0.034353256 -0.013563695 -0.05786165
0.040980816 0.044519566 -0.058970004 0.014899021 -0.008601076 0.015639437 0.0990734 -0.0749202
0.014802687 0.06545229 0.032577094 -0.038048998 0.03418936 -0.100460455 0.020226553 -0.02793815
0.033378895 -0.053737964 -0.015849346 -0.012586362 0.03116179 0.013685972 0.003636162 -0.044648364
-0.017728297 0.007438362 0.043091215 -0.020507924 0.048765723 0.01156946 0.011780897 -0.048815276
-0.01804659 0.03045341 0.052143518 -0.030185403 0.011742483 0.057621416 -0.020490574 -0.01994083
0.022012698 -0.09997571 -0.0028554685 0.0011749499 -0.02037387 0.024491098 0.007645861 -0.0061846115
0.025600104 -0.006471331 -0.015445359 0.011346152 -0.012989394 -0.020436082 0.0019789818 0.004208843
0.032838415 0.04365862 -0.031791903 0.023430796 -0.009662213 0.015675856 0.013134421 -0.02138848
-0.015684228 -0.034862682 -0.0064474093 0.05193921 0.026598044 0.019689832 -0.014826657 0.06990932
0.026239775 -0.0075496403 -0.022471908 0.034509096 0.14087991 0.002016561 -0.023426715 -0.015189598
9.374242e-05 0.010894955 0.005710836 0.025363736 -0.0030102783 -0.025636116 0.07112077 -0.012510636
0.004347096 -0.002429905 -0.06307968 0.028358512 0.003825177 -0.013190116 -0.034581635 0.00418448
-0.00019732327 -0.023737805 -0.017722864 0.016544724 -0.004199371 0.023286736 -0.01552324 0.010781242
0.04031972 0.012590557 0.027814101 -0.0008617598 0.04095669 0.025222864 0.024469126 0.06698675
-0.0089225285 0.030319313 0.021042548 -0.01040186 -0.017611502 -0.0004018591 -0.03349848 -0.04209334
0.0038980932 0.020217983 -0.026186695 0.045506995 -0.005752618 -0.041981705 0.05882193 0.04336248
-0.030963127 -0.00049853954 0.058210406 -0.00040626514 -0.053445548 0.015599179 -0.0020314567 -0.026680708
0.03853771 -0.025479281 -0.05477703 -0.03441397 0.00025116728 0.003230371 0.053962104 -0.0065450286
0.04573785 -0.03104612 0.01557301 0.008577296 -0.015849555 0.026897805 -0.019543493 0.034734804
-0.02814656 -0.006418993 -0.02845362 -0.019696368 0.021344323 -0.06979721 -0.0023433783 0.00951952
-0.014499044 -0.026804985 0.06309481 -0.020373372 0.020558786 -0.01035046 -0.026374785 0.0028903468
00000000: 6ce5 8d3c c4d6 90bc 0c95 d0bc 709c 433b
00000010: c680 093d e9fd 02bb e1ab aaba bd04 f63c
00000020: 213f 723c 9f53 993b 48de 91bb f139 eabc
00000030: 610e 9cbb f2ea c3bc d3c0 a13c a308 ea3b
00000040: 2d90 b8bc 3674 223d 7d63 be3c e175 b23c
00000050: dd45 e83c 66d4 f3bc bb44 a2bd d6fb 6c3c
00000060: f6be 0c3b bc4b df3c 384b 04bd db47 26bb
00000070: 070e 59bc ee08 c6bc 8b81 533d 236d 0e3d
00000080: 1c06 9f3c 91aa 83bd b141 b2bc 3481 9b3c
00000090: b938 123c be67 8e3c 8190 5bb9 a82f f5bc
000000a0: 03f2 bebc f749 a2bc 9754 743c 75c7 913b
000000b0: b00a 323c 007c fc3b 6067 30bd 0509 653c
000000c0: 7565 07bd 6ede 13bd 03fd 9abc c843 8bbb
000000d0: 96dd d13c ed33 373d 75fd 3dbd 215a bfbc
000000e0: 6b51 a6bc 31a6 5bbc b10e b3bc 3b83 18bd
000000f0: 5b82 86bb 0923 e53b 6a6b 2dbd 9a09 a33a
00000100: 8c6b 263c ae32 0dbd 0e20 973b 6ef1 2d3d
00000110: b1b4 e23c bcc1 71bd fe13 163c d842 8a3c
00000120: 879a 24bc a2b8 bfbb 0679 fb3c 5f07 83ba
00000130: 2dba 543d 32fa 74bd 0ed4 27bd 83c8 4c3d
00000140: cba8 bdbc f6ac 1a3d fad8 e73c afa5 51bd
00000150: dc49 4bbb 00b6 0cbd 433a 5ebc 5600 6dbd
00000160: 80db 273d 265a 363d 888a 71bd 061b 743c
00000170: 87eb 0cbc 471e 803c ffe6 ca3d c36f 99bd
00000180: f886 723c da0b 863d 8f6f 053d 44d9 1bbd
00000190: 240a 0c3d 36be cdbd 28b2 a53c 8cde e4bc
000001a0: 4fb8 083d 571c 5cbd 7dd6 81bc 0737 4ebc
000001b0: 0347 ff3c 213b 603c ad4c 6e3b 34e1 36bd
000001c0: ef3a 91bc 81bd f33b 6a80 303d 3c00 a8bc
000001d0: 91be 473d d58d 3d3c aa04 413c 87f2 47bd
000001e0: 71d6 93bc 6e79 f93c 7194 553d 6147 f7bc
000001f0: 8b63 403c 6f04 6c3d d9db a7bc f45a a3bc
00000200: f953 b43c 11c0 ccbd d022 3bbb c700 9a3a
00000210: 1ae7 a6bc 8ea1 c83c 218a fa3b 48a8 cabb
00000220: 4fb7 d13c 760d d4bb 880e 7dbc 36e5 393c
00000230: 78d1 54bc 9269 a7bc ceb1 013b 56ea 893b
00000240: 9381 063d 62d3 323d 3a38 02bd f1f1 bf3c
00000250: 424e 1ebc a76a 803c c131 573c e536 afbc
00000260: 367c 80bc 2ccc 0ebd ca44 d3bb 36be 543d
00000270: 24e4 d93c 924c a13c 82eb 72bc 9e2c 8f3d
00000280: ccf4 d63c f962 f7bb 0217 b8bc 6959 0d3d
00000290: d342 103e 4828 043b 62e9 bfbc cbdd 78bc
000002a0: 9497 c438 c180 323c f721 bb3b 9cc7 cf3c
000002b0: 1748 45bb d502 d2bc c4a7 913d 69f9 4cbc
000002c0: 1672 8e3b 0b3f 1fbb eb2f 81bd 1c50 e83c
000002d0: d2af 7a3b 5b1b 58bc 79a5 0dbd f61d 893b
000002e0: 90e8 4eb9 c975 c2bc 8a2f 91bc cd88 873c
000002f0: e19a 89bb d3c3 be3c 3055 7ebc cea3 303c
00000300: 4a26 253d a048 4e3c 66da e33c b9e7 61ba
00000310: 34c2 273d 2ea0 ce3c 7a73 c83c 5930 893d
00000320: cc2f 12bc 3560 f83c 6c61 ac3c 906c 2abc
00000330: ff45 90bc 9eb0 d2b9 b435 09bd 116a 2cbd
00000340: 2777 7f3b 2fa0 a53c 7b85 d6bc 8b65 3a3d
00000350: 7580 bcbb 02f5 2bbd 44ef 703d db9c 313d
00000360: 62a6 fdbc 6cb0 02ba 096e 6e3d fcff d4b9
00000370: b8e9 5abd b393 7f3c 3022 05bb 8091 dabc
00000380: b8d9 1d3d edb9 d0bc e15d 60bd aaf5 0cbd
00000390: 1aaf 8339 a2b4 533b 5e07 5d3d ae77 d6bb
000003a0: 9d57 3b3d 6f54 febc f025 7f3c c987 0c3c
000003b0: edd6 81bc c958 dc3c ad19 a0bc 1546 0e3d
000003c0: 9d93 e6bc 6b56 d2bb 9117 e9bc 475a a1bc
000003d0: 4ada ae3c d7f1 8ebd 5d93 19bb c3f7 1b3c
000003e0: 668d 6dbc 2196 dbbc da37 813d 0fe6 a6bc
000003f0: e66a a83c fa94 29bc ef0f d8bc f96b 3d3b

action_model._discrete_distribution.branches.1.bias f4 [3]
0.041662294 0.022235487 -0.062349718
00000000: 15a6 2a3d 3227 b63c 6b62 7fbd

action_model._discrete_distribution.branches.2.weight f4 [3, 256]
0.09053014 -0.020338869 -0.041632432 -0.006407065 0.020331558 0.069442436 0.15192154 -0.046420563
0.11981603 -0.065426536 -0.01625596 -0.043347217 0.048265878 -0.034313075 -0.049603455 -0.019879883
-0.09767864 -0.07115931 -0.00046146402 0.1619009 0.056307446 -0.0162551 -0.013764075 0.028872425
-0.0071702194 0.07500897 -0.17844358 -0.004936933 -0.048052542 -0.076890714 0.098819956 -0.057074036
0.056583907 0.051849674 -0.018899035 0.12084974 0.005811741 -0.050670177 0.068304986 -0.02362483
-0.016465083 0.09625816 0.06291742 0.028891077 0.05508319 0.057253007 -0.03628769 0.022954836
0.028631764 0.2667748 0.038972247 0.107201844 -0.01798566 -0.070942074 -0.13237752 0.030228987
-0.06233679 0.057170197 -0.022249054 -0.046813294 0.05407958 -0.039732825 -0.12107096 0.0015327273
-0.049161054 0.0076409485 0.037313946 -0.006183385 0.09314099 0.13227935 -0.009765881 0.01339705
0.007938991 0.070337825 0.034098115 0.014996204 -0.01193462 0.076677404 0.08171475 -0.09891124
0.17063735 0.03865661 0.010275056 -0.026619298 0.018414391 -0.08025128 -0.039315343 0.07958468
0.0997931 0.024694266 0.0074880742 -0.08912268 0.0058425628 -0.04773482 -0.12702122 -0.06270944
0.03278849 -0.005236569 0.03940558 -0.09188187 -0.033373453 0.103657395 0.16319779 0.09101697
-0.023528269 0.026215348 -0.091843955 0.056095105 -0.099172436 0.059863046 0.022354536 0.055745073
-0.031064987 0.038922288 0.014148611 0.033312414 0.085210316 -0.12030519 -0.042895455 -0.10112532
-0.020719357 0.046998046 0.20374319 -0.20206437 0.018670904 0.04029208 0.13642326 0.2813029
0.093042456 -0.06090796 0.0750315 -0.04411335 0.077642724 0.05024689 0.030098109 0.05323154
-0.037449263 0.14970337 -0.048445247 -0.037667073 0.08869206 0.016880034 -0.009983623 0.26444104
-0.01890175 0.11124478 -0.048272584 -0.019298539 0.087108746 -0.04852657 0.12173219 0.021544062
-0.008407079 -0.10012679 0.073407635 -0.014153378 0.04459189 -0.09488219 0.06373843 -0.023206469
0.010018619 -0.104148105 -0.08065343 -0.10287633 -0.027557492 0.005909257 -0.014518034 0.10227084
-0.075992376 -0.07798013 -0.051642817 0.012813463 -0.004149033 0.041840848 0.1366623 0.073699355
-0.03823652 -0.014980116 0.09862698 -0.016210148 0.121648766 -0.08509867 -0.01450815 0.23776358
0.04017979 0.0018793578 -0.020460743 -0.08130101 0.095087595 -0.06724945 0.013357841 -0.05193167
0.04383581 -0.0010951239 0.08519643 -0.1962203 -0.041671246 0.080221675 0.10420953 -0.017518388
-0.03987282 0.046854835 0.065661214 -0.066722535 0.0035007831 0.09620916 0.03305301 0.034221295
0.047093023 0.0012097721 0.027233707 0.13632433 0.028559927 -0.04859299 -0.06842356 0.026684424
0.080918886 0.043832082 -0.016486803 0.024722472 0.36270362 0.028264835 0.051455513 -0.029674288
-0.05837239 -0.1528617 -4.11228e-05 -0.16350713 0.15313852 -0.16921906 -0.043667234 0.048848037
0.05435708 0.04854027 0.12095838 0.14302813 -0.005285279 -0.0677604 0.11394341 -0.016770786
-0.06048762 -0.17515908 0.022894396 -0.12112213 0.078426525 -0.020675555 0.08508795 0.02434465
0.012080375 -0.024909608 -0.01342486 0.107316345 -0.10969287 0.026029436 -0.14978306 -0.1461448
00000000: de67 b93d b39d a6bc c586 2abd 5bf2 d1bb
00000010: 5e8e a63c d637 8e3d 5291 1b3e 7d23 3ebd
00000020: 1b62 f53d 59fe 85bd 382b 85bc da8c 31bd
00000030: 71b2 453d de8b 0cbd fe2c 4bbd 23db a2bc
00000040: bd0b c8bd f9bb 91bd a7f0 f1b9 59c9 253e
00000050: a3a2 663d 6a29 85bc b782 61bc dd85 ec3c
00000060: 29f4 eabb 4e9e 993d eab9 36be ffc5 a1bb
00000070: bed2 44bd e178 9dbd 1e62 ca3d 77c6 69bd
00000080: 87c4 673d 5360 543d 26d2 9abc 1280 f73d
00000090: 6b70 be3b 888b 4fbd 7ce3 8b3d dc88 c1bc
000000a0: c8e1 86bc 0023 c53d d9da 803d fbac ec3c
000000b0: e99e 613d 2182 6a3d 67a2 14bd c80b bc3c
000000c0: 298d ea3c b596 883e 5da1 1f3d a48c db3d
000000d0: aa56 93bc 144a 91bd f98d 07be c8a2 f73c
000000e0: dd54 7fbd 4c2b 6a3d a643 b6bc 4cbf 3fbd
000000f0: 8d82 5d3d e3be 22bd 0df4 f7bd cbe5 c83a
00000100: 1a5d 49bd ec60 fa3b 82d6 183d fe9d cabb
00000110: b4c0 be3d 3d74 073e 1301 20bc 4d7f 5b3c
00000120: 8b12 023c 470d 903d 77aa 0b3d a3b2 753c
00000130: 6d89 43bc 0b09 9d3d 105a a73d fa91 cabd
00000140: 8fbb 2e3e 6556 1e3d b558 283c b710 dabc
00000150: c7d9 963c c85a a4bd 2009 21bd 4bfd a23d
00000160: 5360 cc3d a14b ca3c 855e f53b f485 b6bd
00000170: f872 bf3b 9685 43bd da11 02be cf6d 80bd
00000180: 394d 063d 8697 abbb bf67 213d 902c bcbd
00000190: 9ab2 08bd 544a d43d 521d 273e 1b67 ba3d
000001a0: 5bbe c0bc 92c1 d63c af18 bcbd fbc3 653d
000001b0: eb1a cbbd f432 753d dc20 b73c f254 643d
000001c0: 007c febc fa6c 1f3d 93cf 673c 9972 083d
000001d0: bf82 ae3d 9162 f6bd 25b3 2fbd cb1a cfbd
000001e0: a4bb a9bc 0681 403d 0ea2 503e f6e9 4ebe
000001f0: b9f3 983c 4f09 253d 8ab2 0b3e ef06 903e
00000200: 0b8d be3d a07a 79bd 1daa 993d 33b0 34bd
00000210: 2603 9f3d afcf 4d3d 4f90 f63c 5109 5a3d
00000220: 6664 19bd d74b 193e 866e 46bd ca48 1abd
00000230: 2fa4 b53d ff47 8a3c 5a92 23bc d164 873e
00000240: d8d7 9abc 4ed4 e33d 79b9 45bd f817 9ebc
00000250: 1266 b23d ccc3 46bd ba4e f93d 2c7d b03c
00000260: d8bd 09bc 460f cdbd be56 963d 92e3 67bc
00000270: fca5 363d 9851 c2bd 4b89 823d 7e1b bebc
00000280: 2225 243c 9a4b d5bd a02d a5bd d3b0 d2bd
00000290: 40c0 e1bc 71a2 c13b 0cdd 6dbc 6073 d13d
000002a0: e4a1 9bbd 0cb4 9fbd 6b87 53bd 8fef 513c
000002b0: 9df4 87bb 4f61 2b3d 34f1 0b3e b0ef 963d
000002c0: e69d 1cbd 296f 75bc f1fc c93d 25cb 84bc
000002d0: fd22 f93d 3648 aebd 97b3 6dbc 4c78 733e
000002e0: 9093 243d c954 f63a 4a9d a7bc 2581 a6bd
000002f0: 49bd c23d 14ba 89bd d9da 5a3c 4eb6 54bd
00000300: 2e8d 333d 438a 8fba 777b ae3d f9ed 48be
00000310: 78af 2abd 434b a43d ce6b d53d b982 8fbc
00000320: af51 23bd dbea 3f3d 6379 863d d3a5 88bd
00000330: 656d 653b 4f09 c53d 9862 073d a12b 0c3d
00000340: 9de4 403d 3791 9e3a 3919 df3c 9b98 0b3e
00000350: 82f6 e93c 7109 47bd a721 8cbd 4b99 da3c
00000360: cdb8 a53d 4589 333d 550f 87bc c886 ca3c
00000370: 4ab4 b93e a88b e73c 04c3 523d 7e17 f3bc
00000380: e317 6fbd c787 1cbe 457b 2cb8 6a6e 27be
00000390: 58d0 1c3e c347 2dbe 6adc 32bd e114 483d
000003a0: 88a5 5e3d 2ad2 463d 07b9 f73d f775 123e
000003b0: 2230 adbb f7c5 8abd 2a5b e93d e362 89bc
000003c0: dec1 77bd e75c 33be 078d bb3c e10e f8bd
000003d0: 169e a03d c85f a9bc 9742 ae3d 6e6e c73c
000003e0: c4ec 453c 3c0f ccbc f2f3 5bbc acc8 db3d
000003f0: a8a6 e0bd af3b d53c bb60 19be fca6 15be

action_model._discrete_distribution.branches.2.bias f4 [3]
0.05257844 -0.0852964 0.02692039
00000000: 7e5c 573d e1af aebd 2688 dc3c
