ML-Agents/results/obs-from-ultimate-volleyball/Volleyball/Volleyball-47999970.onnx (onnx, 291918 bytes, 15 tensors)

discrete_action_output_shape f4 [1, 4]
000000 00 00 40 40 00 00 40 40 00 00 40 40 00 00 00 40
       3.0 3.0 3.0 2.0

network_body.observation_encoder.processors.0.normalizer.running_mean f4 [11]
000000 1e 09 31 3e 80 9b a4 3d d4 1d 12 3f 41 8e 2c 3f
       0.17288634 0.08037472 0.57076764 0.6740456
000010 bd 75 23 41 f0 b7 78 bc 4a fd 71 bd 0d 6b de 3b
       10.216245 -0.015180573 -0.059079446 0.006787664
000020 1b 3e c6 bf 00 00 47 2e 00 f0 ee ad
       -1.5487703 4.524736e-11 -2.7164049e-11

network_body._body_endoder.seq_layers.0.weight f4 [256, 11]
000000 12 81 af be 92 72 d7 3d 1e 98 1e 3e 6d e1 18 bf
       -0.3427816 0.105198994 0.15487716 -0.5971897
000010 1d d2 9a 3e 52 53 0d bc 80 0c 8c be 43 c3 08 be
       0.3023843 -0.008625822 -0.27353287 -0.13355736
000020 0a 46 29 be 20 37 6d be aa 8a 0b 3f 17 93 80 be
       -0.16530624 -0.2316556 0.5450846 -0.2511222
000030 a3 89 0a 3e 25 83 0a 3f 90 6e 72 bf 11 3a e7 3e
       0.13529067 0.5410636 -0.94699955 0.4516149
000040 b9 4f 4f 3c 4c 26 2f be 29 e2 72 bd 03 11 a3 3b
       0.012653285 -0.17104453 -0.059297714 0.004976393
000050 2a 1e 9f be d8 63 c3 bd 8d fb f9 bd f9 27 f8 be
       -0.310777 -0.09540528 -0.12206183 -0.48467997
000060 af 4b 87 3e 75 7f 7a 3d fc 8b 23 bf 21 e1 86 bd
       0.2642493 0.06115671 -0.63885474 -0.06585909
000070 fc b6 5a be 08 c2 b0 3e 0d e1 fc be 69 18 46 bd
       -0.21358865 0.34523034 -0.4939045 -0.048363123
000080 cd a6 b1 be 3b 64 8f 3e 4c b5 1d bf 7c 8d da 3c
       -0.3469757 0.28006157 -0.6160476 0.026678793
000090 e9 23 86 3d d0 e8 60 3d 80 b7 49 3b 0a b1 a3 3e
       0.06549818 0.054909527 0.003077954 0.31971008
0000a0 35 f9 8a 3e 47 f3 8f 3f 16 80 46 be 69 1d 25 be
       0.27143255 1.1246117 -0.19384798 -0.161245
0000b0 eb d2 4c be 4f 1d 44 be 05 f3 a1 3d 1e da 36 3e
       -0.20002334 -0.19151805 0.079076804 0.17856643
0000c0 d5 97 d0 3d 9d e2 82 bd 47 14 35 3e 65 f8 0d 3f
       0.1018521 -0.06390879 0.17683516 0.55457145
0000d0 0f 05 25 bf 2b 2f a1 3f e2 32 2c 3f 52 ef 05 3f
       -0.64460844 1.259252 0.6726514 0.523183
0000e0 aa 93 07 bf fe a9 b5 bd 33 57 bc bd e7 46 2f bf
       -0.5295969 -0.08870314 -0.091963194 -0.68467563
0000f0 f6 d6 8d bd c7 b2 37 be 94 e2 0f be 7d c8 39 3e
       -0.06925766 -0.17939292 -0.14051276 0.18142886
000100 15 3c 01 be 3e 90 40 3d 75 9f 70 3e 91 22 01 bf
       -0.12620576 0.04701256 0.23498328 -0.5044337
000110 2c 77 d0 be 06 19 a7 be a7 10 96 3c eb 2a 0b 3e
       -0.4071592 -0.3263628 0.018318487 0.1359059
000120 22 3d ce be 6c fe 8f 3e 46 58 fb 3b e4 f3 60 bf
       -0.40281016 0.28123796 0.007670435 -0.8787215
000130 f4 49 c6 be 18 30 11 bf 5b 0c 9e 3e 8e 14 2d be
       -0.38728297 -0.5671401 0.308688 -0.16902372
000140 4d 05 10 bf 83 74 a3 be 5e 94 f0 be 4a 67 bb be
       -0.5625809 -0.3192483 -0.46988195 -0.3660224
000150 7b ed c1 3d 96 34 5b bf ff 2f 16 3f 2f 99 85 3e
       0.09469124 -0.85627115 0.58666986 0.26093432
000160 11 0c b1 be 5a 79 33 3f 2c bb 7e 3e 49 b4 01 3d
       -0.34579518 0.7010704 0.24876088 0.031666074
000170 40 7c 45 bf 74 83 48 3d 4a 49 ac 3c bb 6d b7 3b
       -0.77142715 0.04895349 0.02103104 0.0055977977
000180 d6 ff 05 3e a0 37 b7 3e f2 5d 42 3e 75 42 8b 3d
       0.13085875 0.35784626 0.1898115 0.06799785
000190 0b 89 fc be ff 43 b7 3e 9f 6b 59 3e 9c a6 a0 3e
       -0.49323305 0.35794064 0.2123246 0.31377113
0001a0 56 07 b5 3e c3 45 96 be 6d a0 bf be 8a d3 c2 be
       0.3535716 -0.293501 -0.37427083 -0.38052016
0001b0 fe 93 76 3e a2 d5 be be a9 de 06 be f5 31 ea 3e
       0.24079892 -0.37272364 -0.13170876 0.4574124
0001c0 3a 1b 9d be 11 95 e1 be 04 06 a5 3e 31 43 cd 3e
       -0.30684835 -0.4405904 0.32231152 0.40090325
0001d0 8c dc 6a 3c e4 c6 fe be 86 1b da 3e fd cc 60 bf
       0.014334809 -0.49761117 0.42599124 -0.8781279
0001e0 a7 34 9e bc 60 a5 3d 3e 74 71 e2 be 13 34 bd be
       -0.019312216 0.18520117 -0.44227183 -0.36953792
0001f0 d8 5f 5a bf 4b ae 25 bf d9 d2 83 bd ed 72 af be
       -0.85302496 -0.64719075 -0.064367004 -0.3426737
000200 e2 85 dd bd a4 36 14 3e 10 f2 6f bf a9 4d dc bc
       -0.10816552 0.14473969 -0.93728733 -0.0268925
000210 97 65 90 3e 4b a5 16 bf ab f1 ee bd 9c 26 02 3f
       0.28202507 -0.5884597 -0.11667188 0.50840163
000220 7e 5a 2c 3e 7e bc 08 3f 73 85 29 bc 24 9b 43 3f
       0.16831395 0.53412616 -0.010346758 0.764086
000230 19 ae 9a be 3c 1b 12 3f 60 55 fe be 1e 58 af 3d
       -0.3021095 0.57072806 -0.4967451 0.08561729
000240 22 1d bf 3d 81 1b ef be e1 30 b4 3e 09 00 3f 3e
       0.093317285 -0.4670067 0.35193542 0.18652357
000250 c9 e0 1f be 54 b6 02 3f 4e cc e5 3d 93 bc 98 bd
       -0.15613092 0.5105946 0.11220609 -0.07457843
000260 a4 e6 a7 3f 18 f7 d6 bc bf 04 f2 3e 5e 87 54 3e
       1.3117261 -0.02624087 0.47269246 0.20754763
000270 10 df 07 3f 50 88 42 3f 67 a0 29 be c0 20 50 be
       0.5307474 0.75989246 -0.16565095 -0.20324993
000280 be 57 cb 3e d8 40 3d 3e 5d 4c 53 3d ce 8a 84 be
       0.3971538 0.18481767 0.051586498 -0.2588715
000290 e7 e3 44 bf 31 ed 0c bf c1 bd 13 be b8 b0 19 bf
       -0.7691025 -0.55049425 -0.14427854 -0.60035276
0002a0 44 17 98 3f 1f d5 1e 3f 44 e1 13 be 7f 03 eb be
       1.18821 0.62043947 -0.14441401 -0.45901105
0002b0 66 b9 f4 3e 45 a7 75 be 79 8e fc bd 31 ec 1f 3e
       0.47797698 -0.2398959 -0.12331862 0.15617444
0002c0 4a 33 ea be d1 98 61 be d6 35 3d 3f 8e a7 80 3e
       -0.45742255 -0.22030951 0.7391027 0.25127834
0002d0 10 3f b1 3e e7 2c 01 bf ae 30 54 3e 50 a8 a7 be
       0.34618425 -0.5045914 0.20721695 -0.327456
0002e0 ac 1f 2e 3e 6e e4 2d bf b9 90 d1 3e ed 62 ac 3e
       0.1700427 -0.6792668 0.40930727 0.33669224
0002f0 30 e4 e9 ba 31 63 64 bf c2 98 04 be b7 e6 b0 bd
       -0.0017844494 -0.89213854 -0.12948897 -0.08637755
000300 f7 1c ed be 0f 76 3d bf 43 d7 ca 3e 1e 5d bf be
       -0.4631116 -0.7400827 0.39617357 -0.3737573
000310 7b 48 c0 3d c8 ae 62 3e ad c4 59 bf b6 c4 85 3e
       0.093888246 0.22136986 -0.8506573 0.2612664
000320 0d 7e e8 3e 9d b2 fc 3e c0 75 8e 3e 53 0e 68 be
       0.4540867 0.4935502 0.2782421 -0.22661714
000330 7d 1a 64 3e 58 74 14 3f 30 94 42 be a7 7b ad 3e
       0.2227573 0.57990026 -0.19001842 0.33883402
000340 fe ae 84 3d 26 d6 95 be 43 69 15 bf 36 ad 94 be
       0.064786896 -0.29264945 -0.5836374 -0.290384
000350 65 d1 f2 be 16 93 81 3e 95 d2 54 3e 74 4b 1f 3d
       -0.4742538 0.2530753 0.20783456 0.038890317
000360 7d c5 70 bd 19 27 24 be b2 b7 cf be 0e cb 58 be
       -0.05878209 -0.1603054 -0.40569836 -0.21171209
000370 51 72 f4 be ff 43 b7 3e af 17 fd be 70 27 44 be
       -0.47743466 0.35794064 -0.49432132 -0.19155669
000380 5e 6a e6 3e 82 66 11 3c 74 0d 89 3e 31 2b ee be
       0.45003027 0.008874537 0.26768076 -0.46517327
000390 f4 78 0b 3f 24 a4 ad 3e 5e b3 62 3e 02 94 34 bf
       0.54481435 0.33914292 0.22138736 -0.7053834
0003a0 15 3d 6c be 61 06 13 3f d1 45 de 3c 6a cd fc 3d
       -0.23070176 0.5743161 0.0271329 0.12343867
0003b0 ba 24 87 3e 2f ce f6 bd 00 d6 cc be 08 d0 c4 be
       0.26395208 -0.12051045 -0.4000702 -0.38439965
0003c0 3b ec 42 be e8 3c d6 bd d2 cd 92 3e 9f 77 eb be
       -0.19035427 -0.10460836 0.28672653 -0.459897
0003d0 75 22 db be 43 65 4e be 71 76 09 3f 1f 0c 54 3e
       -0.42799726 -0.20155816 0.5369635 0.20707749
0003e0 c6 3a 05 3e a4 52 0a bf d9 00 70 3e c0 54 a2 3e
       0.13010702 -0.5403235 0.23437823 0.31705284
0003f0 e0 24 21 bf 7e 3c 08 3f 1c 85 92 be af 25 d6 be
       -0.6294689 0.53217304 -0.2861718 -0.41825625

network_body._body_endoder.seq_layers.0.bias f4 [256]
000000 10 16 ab bd 25 19 0a 3e ac e7 90 bd 8b bd 84 3e
       -0.083538175 0.13486154 -0.07075438 0.2592586
000010 23 38 36 3e 60 b7 09 bd 00 08 66 3d 4b 05 10 be
       0.17794852 -0.033622146 0.056159973 -0.14064519
000020 11 6e 3c 3d 22 4a 50 3e 7b 72 4a 3e 0e 54 7d bd
       0.046003405 0.2034078 0.19770233 -0.06184774
000030 5f 45 47 3e 53 65 81 3e ef 06 01 3f ba b3 e5 3e
       0.19460057 0.25272617 0.50401205 0.44863683
000040 d7 10 a3 3e 5a 8d f8 3c 4c 1f 4c 3e fe 42 e9 bd
       0.31848785 0.03034084 0.19933814 -0.11389731
000050 0e 15 0d 3e 16 f0 08 3e f9 f4 9c 3d 38 6e 98 bd
       0.13777563 0.13372836 0.07663912 -0.074428976
000060 ef d4 46 3e 15 07 85 3e 94 fd c3 3d b2 d2 93 3e
       0.19417165 0.25981966 0.095698506 0.28871685
000070 45 7a 31 3d ce a0 e4 bd 8d 34 0e 3c fb 50 d2 3d
       0.043329496 -0.111634836 0.008679521 0.10269352
000080 ca 90 17 3e 8f 4c c2 3e 84 f5 de 3e f9 f4 2c 3d
       0.14801326 0.37949035 0.4354669 0.04222581
000090 b4 d2 30 be 95 9e c5 3d c6 cc b0 3e bc 35 10 3f
       -0.17267877 0.09649388 0.3453123 0.5633199
0000a0 d9 5a 7f 3e c6 a7 9f 3e 4d cd 1f 3d ac 49 e4 3c
       0.24937 0.31182688 0.03901415 0.02786716
0000b0 94 5b a2 bd f2 76 72 3e 11 09 12 3f 33 c4 87 3e
       -0.079276234 0.23678187 0.57045084 0.26516876
0000c0 86 6d da bd ce 9c b2 3e 61 c0 c6 3d 8e ed d4 bc
       -0.10665421 0.34885257 0.09704662 -0.025992181
0000d0 3e fe 0c be 79 51 3f 3e 9d c0 54 3e 6d fd 4b 3c
       -0.1376886 0.18683423 0.20776601 0.012450558
0000e0 73 f7 aa 3b 3e f2 03 3e 3f 8a c9 3e f8 63 c2 3d
       0.0052174865 0.12885377 0.39363286 0.09491724
0000f0 e2 da cf 3c ae 84 60 3e b0 19 35 3e a3 5f 32 be
       0.025372926 0.21925613 0.1768558 -0.17419295
000100 22 81 fc bd 4b 04 43 3e 86 90 c7 3e d5 d1 81 3e
       -0.12329318 0.19044606 0.3897745 0.25355402
000110 25 71 d8 3d 5b 20 ad bc 94 9b cb bc a6 8e fe bd
       0.105684556 -0.021133592 -0.024854459 -0.12429552
000120 59 7c fb 3d d5 16 ed bd 15 f6 4d 3e e1 92 9e bd
       0.12279577 -0.115766205 0.20113404 -0.07742859
000130 76 84 b0 3e 60 c5 5d 3e 21 78 2b 3e 83 66 40 3e
       0.3447606 0.21657324 0.16745044 0.18789105
000140 60 e6 1b 3e c9 2c 26 3d 21 a9 b6 3e a3 4e 12 bd
       0.152246 0.040570054 0.3567591 -0.035719525
000150 52 a6 f8 bc 29 19 a5 3d ec a0 97 3e 2d c3 ae bd
       -0.030352745 0.080614395 0.2961496 -0.085333206
000160 dd 40 e5 bd eb de c9 3e ac 82 d9 bc c5 cf 52 bd
       -0.11194012 0.39427885 -0.026551567 -0.051467676
000170 7c c1 ef 3e 7f c1 c7 3e 7b 72 e7 bd a2 66 07 3d
       0.46827304 0.39014813 -0.11301132 0.033056863
000180 7d 3a 98 3e 00 61 63 3e 5d 6f 47 be 3b fc b3 3d
       0.29732123 0.22204971 -0.19476075 0.087883435
000190 b5 41 cc bd 2b ac 27 3d dd 68 79 3c 50 c0 c8 3e
       -0.0997347 0.040935677 0.015222755 0.39209223
0001a0 e8 10 a2 3e 09 c5 be 3e 52 5b 19 3e 66 9f 5c 3e
       0.31653523 0.372597 0.14976242 0.2154518
0001b0 80 88 dd bd e2 ea 1f 3d 4a f4 cd bc d0 74 94 3e
       -0.10817051 0.03904236 -0.0251409 0.2899537
0001c0 ff 95 e9 3e 61 6b b3 3e 69 f4 f2 3c a4 01 39 3e
       0.4562225 0.3504286 0.02965756 0.18067032
0001d0 c8 8a ac 3d e2 6c 93 3d 71 1c c5 bd 4e 6f 68 3e
       0.08424908 0.07198502 -0.096245654 0.2269871
0001e0 e9 45 1b be 03 f4 05 be 42 b6 99 3e da 25 9c 3e
       -0.15163387 -0.13081364 0.30021864 0.30497628
0001f0 1f 25 65 3e a6 2c 30 bd a9 6e e6 3e b8 19 dd b8
       0.22377442 -0.04301133 0.45006302 -0.00010542892
000200 ea ef 40 3d 76 09 f3 bc 47 22 02 be ec 01 7c 3e
       0.0471038 -0.029667597 -0.12708388 0.24610108
000210 f0 60 25 ba 04 c0 1f 3e aa 68 d1 3d 43 d2 f3 3d
       -0.00063086953 0.15600592 0.10225041 0.119053386
000220 ce 18 82 3e b0 48 7d 3e 28 88 83 bd 80 9e 31 bd
       0.2540955 0.2473476 -0.06422454 -0.043364048
000230 a8 f9 2d 3e 32 ff ad 3d 48 c5 e1 3d 62 2d c8 3e
       0.16989768 0.0849594 0.110239565 0.39097124
000240 a1 4f 02 be ea 42 6a 3c b1 36 85 bc 5a d6 62 3e
       -0.12725689 0.01429818 -0.01626143 0.22152081
000250 0d 79 16 3e ef e1 37 3e 13 72 45 3e 1a f4 7a 3d
       0.14694615 0.1795728 0.19281797 0.06126795
000260 8c 91 19 bd ea fe 0e 3e e2 30 b9 3e 8d 15 cd 3e
       -0.03749232 0.1396443 0.36170107 0.40055504
000270 e9 14 1b bd 34 ac 01 be e7 4d e2 3d 56 d6 cb bd
       -0.03786174 -0.12663347 0.11050015 -0.09952991
000280 2c 97 4d 3e 63 1c 3f 3e 2b 80 47 3e 62 17 ad 3d
       0.20077199 0.18663172 0.19482486 0.084517255
000290 06 14 86 3c 1c 82 64 bc 5c 4e 2e bd 09 60 ae 3e
       0.01636697 -0.013947036 -0.042555198 0.34057644
0002a0 df b9 72 3e eb 1c 75 3e 70 e0 c0 3e 76 2e d7 bd
       0.23703717 0.23936813 0.37671232 -0.105069086
0002b0 22 d8 bf 3e 07 d2 90 3d 62 4a 95 3d 99 8c 0d be
       0.37469584 0.070713095 0.07289578 -0.13823165
0002c0 1c a9 fe bd 60 bf 6c 3e 5f f6 55 3e ec a0 cb 3e
       -0.12434599 0.23119879 0.20894764 0.3977121
0002d0 91 70 58 3e 01 c0 d9 3b 8a 61 ef 3b 12 3b 1f 3d
       0.2113669 0.006645203 0.0073053287 0.038874693
0002e0 fd b8 55 bd 80 10 77 3e eb 15 84 3e a1 bf 9a 3c
       -0.05217837 0.24127388 0.25797972 0.018890204
0002f0 b2 5e a7 3e 3f 24 09 be 98 14 d5 3e 1c ca 8b 3e
       0.32689434 -0.13392733 0.41617274 0.27302635
000300 36 bc 1e bd a0 e1 8a 3d fb 82 5d 3d 81 91 08 be
       -0.03875371 0.06781316 0.05407999 -0.13336755
000310 37 b1 3d bc 0a 54 ed 3e 30 e7 27 3e a1 de 29 3d
       -0.011577896 0.4635318 0.16396785 0.04147208
000320 93 71 c8 bd 9c 9a 16 3f 27 8b 67 3d a7 68 68 3e
       -0.097872876 0.58829665 0.05652919 0.22696172
000330 cb c8 df 3e 49 ba cd 3e 8b 90 9a 3d e5 09 a4 3e
       0.4370788 0.40181187 0.07547101 0.320388
000340 9d 5d c7 3e 13 c6 b5 3d 6f c1 21 3d 23 83 40 3e
       0.3893861 0.0887567 0.039491113 0.18800025
000350 93 fc 88 3e eb b9 5a be d0 53 09 3f 42 0b 9c 3e
       0.267552 -0.21359985 0.5364351 0.3047734
000360 7f 9d 8b 3c a3 97 06 3e c4 dc 3e 3d 89 bb f4 3d
       0.017042873 0.13143782 0.046597257 0.11949832
000370 96 e4 0a 3e ae 10 4b 3e 59 7a 80 3b a5 bd 5c 3d
       0.13563761 0.19830582 0.003920835 0.053891797
000380 19 a5 97 3e b6 62 d7 bb 88 72 28 bd 77 3a d7 bc
       0.29618147 -0.0065730466 -0.04112485 -0.026272995
000390 8d 20 84 3e d8 d6 a8 3e 98 ed 71 3e a3 88 c0 3e
       0.25806084 0.32976413 0.23625791 0.37604246
0003a0 42 32 31 be ab 28 7b 3e 04 60 9c 3e d6 74 c5 bd
       -0.17304328 0.24527232 0.30542004 -0.09641425
0003b0 79 91 96 3e 5f a4 c8 bd 6a bb b3 3c 05 00 da 3e
       0.29407862 -0.09796976 0.021939952 0.4257814
0003c0 f4 f1 11 3e 2e 8e ff 3d de ed 01 3e ac 6d 15 3e
       0.14252454 0.124782905 0.12688395 0.14592618
0003d0 14 7b 89 bd da 5e d3 3e 3b d8 3d 3e 9e 45 c7 bc
       -0.067129284 0.41283303 0.18539517 -0.024325188
0003e0 2e f0 00 3f a0 08 aa 3e 82 32 bf 3e 5a ab 3c 3b
       0.50366485 0.33209705 0.37343222 0.0028788657
0003f0 e9 7e ff 3d dd 82 1e 3d be c5 9f 3d 16 e2 bb 3e
       0.12475378 0.03869902 0.07801388 0.36695927

network_body._body_endoder.seq_layers.2.weight f4 [256, 256]
000000 75 71 9d 3d 62 ce fc 3d ec 4f 27 be 41 60 16 be
       0.07687656 0.12344052 -0.16339082 -0.14685155
000010 93 7a c8 bd 99 15 4f be 67 11 1e be ae 79 3b be
       -0.09789004 -0.20223083 -0.15436326 -0.18308136
000020 75 e2 b3 bb 81 a3 2c bd de 6b c8 3d bf f6 6d bd
       -0.0054896423 -0.042148117 0.09786199 -0.058096644
000030 84 60 7d be 48 27 18 be dd a9 25 be 79 0d 91 3d
       -0.24743849 -0.14858735 -0.16178079 0.07082648
000040 82 79 4b 3e 3a e7 13 bd 8e b6 bc 3d 80 43 6d be
       0.1987057 -0.036109187 0.09214507 -0.2317028
000050 c3 cd a8 bc 07 d4 07 3e 03 f3 0b be 7a 8f 45 be
       -0.020605927 0.13264476 -0.1366692 -0.19293013
000060 c8 b6 0e 3e f3 70 1a be e9 b6 97 bd 81 28 e7 3c
       0.13936913 -0.15082149 -0.07407934 0.028217556
000070 8d 7b 53 3e 38 01 5a 3d 34 c5 ed 3d 2b 98 b3 3d
       0.206526 0.05322382 0.11609879 0.08769258
000080 fc 09 1f 3e 24 d4 c4 bc c4 c7 ab bd ac 46 86 3d
       0.15531152 -0.024026938 -0.08387712 0.06556448
000090 d9 11 0b be 8f 0d 3a be 27 46 58 bd 4f b2 96 bd
       -0.13581027 -0.18169235 -0.052801277 -0.073582284
0000a0 04 67 a2 bd a8 36 52 bd 0d 8f 73 bd fa 55 ce 3c
       -0.07929805 -0.051321656 -0.059462596 0.025187481
0000b0 b3 5f 89 3c 41 70 01 3d 47 f6 dd bd ec bb 57 bd
       0.016769266 0.031601194 -0.10837989 -0.05266945
0000c0 1b 53 ba bd 5b 87 1e be ac 0b 63 3e 41 11 35 3e
       -0.09097882 -0.15481322 0.22172421 0.17682363
0000d0 a2 05 4c be 62 ab 43 3c 70 70 70 3e d7 32 d8 3d
       -0.19924024 0.011942716 0.23480392 0.10556572
0000e0 40 ee 99 be 74 32 1f be 7b 12 32 3e b4 70 b2 bd
       -0.30064583 -0.1554659 0.17389862 -0.08712903
0000f0 67 eb 9e 3d 78 27 79 3d 0d 75 58 3d 7d 86 c4 bd
       0.07759743 0.060828656 0.052846003 -0.09595964
000100 ae 76 d1 bd d4 b7 8e 3d c7 44 5b bd 2e 67 1a 3e
       -0.102277145 0.06968656 -0.053532388 0.15078422
000110 2b a8 c2 bd b1 8a 8c bd 01 c6 15 be 8f 4a 8e bd
       -0.09504732 -0.06862391 -0.14626314 -0.06947815
000120 21 c8 4b 3d be bc 1c be e6 2e 35 be b1 aa 97 be
       0.049751405 -0.15306374 -0.17693672 -0.29622415
000130 ce d9 e0 bd b5 80 87 bc 6d 79 07 3e de 4e 59 3d
       -0.10979043 -0.016540864 0.13229914 0.05305373
000140 65 e2 67 bb a6 23 05 3e 2a c2 45 bc 2b 67 7f 3d
       -0.0035382744 0.1300188 -0.012070218 0.062354248
000150 0a 3a 29 3e c6 19 60 bd 76 8c 90 3e 14 1b ef 3c
       0.16526046 -0.05471208 0.28232163 0.029187717
000160 13 65 47 be 14 9e 31 3c 96 93 a1 bd a5 93 30 bd
       -0.1947215 0.010840911 -0.07889478 -0.043109555
000170 11 8f c0 3d 5a 00 a3 bc a1 71 a9 bd 81 ca 09 be
       0.09402288 -0.019897629 -0.08273626 -0.13456155
000180 0e 8f a0 bd 64 8e 4c be 1f f4 66 bd d5 cd 34 3e
       -0.078397855 -0.19976193 -0.056385156 0.17656644
000190 0c 89 16 be 2f a7 98 3e 71 4e fb 3b a2 32 fb bd
       -0.14700717 0.2981505 0.007669263 -0.12265517
0001a0 27 ac a6 bc 54 a7 2a be 93 a2 f3 bb c0 72 82 bb
       -0.02034576 -0.16665393 -0.007435152 -0.0039809644
0001b0 46 2e 2d be 1b 8f cf bd 17 ee e4 ba a0 47 cd 3d
       -0.16912183 -0.10134717 -0.0017465976 0.10023427
0001c0 8b 72 92 3d 6b 9c a5 3c 14 35 5a be ef 7e 77 3e
       0.071507536 0.020216187 -0.2130931 0.24169515
0001d0 c8 7b 0b bc 56 f0 5a be a5 15 af bd f8 df 00 be
       -0.0085133985 -0.21380743 -0.0854905 -0.12585437
0001e0 21 63 d4 bc ee 81 22 be 68 a6 00 be 02 ff 0f 3e
       -0.025926175 -0.15869877 -0.12563479 0.14062122
0001f0 01 4f 0c 3e 6b 14 78 3e fc 98 9c bd 9d 4f 19 3d
       0.13702013 0.24226539 -0.07646367 0.03742944
000200 d8 ac a8 be 6f cf 3a bb 1c ce 38 3d bf e6 2a bc
       -0.3294437 -0.0028504988 0.045118436 -0.010430991
000210 b5 9f e7 3d e3 18 77 bd 4a c9 27 3d 7d 51 03 be
       0.113097586 -0.06032647 0.04096345 -0.12824054
000220 d5 96 2c 3d e5 54 50 3d d0 e0 8c be 3d 1c d8 3d
       0.042136032 0.05086221 -0.27515268 0.10552261
000230 41 8e db bd ed 1e 87 bd 58 bd bf 3d 1f ef 33 3e
       -0.10720492 -0.065976955 0.09362286 0.17571686
000240 9e ac 88 3d 87 d6 26 bd 68 5e 7b be af 7f 6b be
       0.06673549 -0.040731933 -0.24547732 -0.22997926
000250 23 2e 1f 3e c7 05 4d 3d 87 60 34 be 6a 3a 32 3e
       0.15544944 0.050054338 -0.17614947 0.17405096
000260 d3 3e 4f be d1 4c 88 3d eb e0 ac bd e1 ea e6 3d
       -0.2023881 0.066552766 -0.08441337 0.11275268
000270 c4 1c 39 bd f5 c4 0a 3d 84 d1 14 be 8c d5 96 bd
       -0.04519345 0.03387924 -0.14533049 -0.073649496
000280 76 5e 21 3e b4 e6 e3 bd 15 01 0f be 33 dd 41 be
       0.1575869 -0.111279875 -0.13965257 -0.18932037
000290 5d f4 8f bd 55 e9 70 be ec dc d8 3d 68 65 57 be
       -0.070290305 -0.23526509 0.105890125 -0.21034777
0002a0 6d 62 2d be 55 82 81 bd 18 ea 04 bd a1 5c b7 3d
       -0.16932078 -0.06323687 -0.03244981 0.089532144
0002b0 4e b8 ae 3d fd 8e da bc 04 fe e4 bd c0 94 92 3c
       0.08531247 -0.02667951 -0.11181262 0.017893195
0002c0 8d 63 b4 3d ad 66 a8 3d 9f b9 c0 3d d8 83 9e bd
       0.0880805 0.08222709 0.094104044 -0.07739991
0002d0 7f 0a c0 3b de f5 08 3b 72 9c fb bd 45 93 c1 3d
       0.005860626 0.0020898501 -0.12285699 0.094519176
0002e0 43 60 64 bd 1c 66 6a 3e 6e 69 67 3c ca e3 32 be
       -0.055755865 0.22890514 0.0141242575 -0.17469707
0002f0 8a ed be 3c 6a 3d 28 3c 41 85 0a be 7a cc 11 bd
       0.023306627 0.0102685485 -0.13527395 -0.035595395
000300 7a 18 f9 bd 23 9c 70 3c bb 4f 83 3c 22 d6 3b bd
       -0.12162872 0.014685663 0.01602923 -0.04585851
000310 e5 dd b5 3d 60 8b 83 bc 29 c6 da 3d d1 63 1d 3e
       0.08880214 -0.01605767 0.10682327 0.15370108
000320 a0 43 10 3e 22 1e b1 bd 49 70 19 3d d2 97 9d bc
       0.14088297 -0.086483255 0.0374606 -0.019237433
000330 55 97 43 3d ee b6 81 bc ad 33 bd bc c1 fb 07 be
       0.047751743 -0.015834298 -0.02309593 -0.1327963
000340 40 40 84 3e 2f 8f 1b 3c 62 66 8b bd 2c 49 09 bd
       0.2583027 0.009494587 -0.06806637 -0.033517048
000350 61 ea 33 bc ba 85 27 be 2c bb 4d bd 0b db 82 bd
       -0.010981173 -0.16359606 -0.05022733 -0.063894354
000360 b7 3a a0 ba f2 28 09 3e 31 aa 36 3e b0 b3 c1 bd
       -0.001222453 0.13394526 0.1783836 -0.09458101
000370 d5 7e 61 3d dc ed f3 3c 60 7a b1 3d 47 15 de bc
       0.055052597 0.029776506 0.08665919 -0.027109755
000380 2c 0c 87 bd 78 e1 88 be 45 cb 26 bc f8 e0 54 be
       -0.065941185 -0.2673452 -0.010180299 -0.20788944
000390 72 9e b9 bd c3 7f 99 be b2 d4 05 3d 8a eb 85 3c
       -0.09063424 -0.29980287 0.032673545 0.016347665
0003a0 e1 40 bb bd 92 3b 05 be d4 f7 e7 3d 1c ad ce bc
       -0.09143234 -0.13011006 0.11326566 -0.02522903
0003b0 f7 d8 8c bd 27 4b 84 3c a7 f5 f2 bd 76 c8 e8 bd
       -0.0687732 0.016149117 -0.11863261 -0.1136636
0003c0 da 17 3f bd 69 67 78 3d df 52 ef bc b5 c9 26 be
       -0.046653606 0.060645495 -0.02921432 -0.16287883
0003d0 48 6c 2f be 1c b3 84 3d 13 fc 82 3d ec c1 b4 bc
       -0.1713115 0.06479475 0.063957356 -0.022065125
0003e0 97 74 46 3c ca 02 2a be ed c4 b7 3d 68 86 ea bd
       0.012112758 -0.16602626 0.089731075 -0.11451417
0003f0 1c fd 57 bc 5c 56 88 3e dd d6 19 be 7c 6f 9f bc
       -0.013182905 0.26628387 -0.1502337 -0.01946234

network_body._body_endoder.seq_layers.2.bias f4 [256]
000000 0a 96 07 3e 23 c6 8b 3d b3 3d 6c be 5e c7 a9 3d
       0.13240829 0.06824901 -0.23070411 0.082899794
000010 db c1 59 3d 57 f8 a4 bc f9 3f f0 3d 78 ad 55 be
       0.05316339 -0.020137949 0.11730952 -0.20866954
000020 29 a1 3a 3e 26 40 a9 3d 68 da 80 3d e4 01 fa 3b
       0.1822554 0.082641885 0.06291658 0.00762962
000030 a4 fc a7 bd 13 fb 16 be af c8 44 bd c0 e8 49 bd
       -0.08202484 -0.14744215 -0.04804295 -0.049294233
000040 28 a2 fc 3c 5c 70 44 be 28 08 07 bc d8 b8 95 3d
       0.03083904 -0.19183487 -0.008241691 0.07310647
000050 17 a2 76 bd e9 e0 73 3c de e4 9a bd 8b 66 37 3e
       -0.060213175 0.014885166 -0.07563184 0.17910211
000060 e9 53 3f be 39 c4 83 3d 5a 89 b1 bd 9c 93 19 be
       -0.18684353 0.06433911 -0.08668776 -0.14997715
000070 08 11 f1 3d 05 f9 09 3d 41 bd 89 3d 7e 4d af 3c
       0.117708266 0.03368475 0.067255504 0.021399256
000080 22 e5 c7 3d 7a 73 46 be 3e 66 a1 bd fb 92 0d bd
       0.097605005 -0.19379988 -0.07880829 -0.034564
000090 d2 2b 36 be 2e 27 5d 3c c6 ea 47 3e 53 55 d5 bd
       -0.17790154 0.013498111 0.19523153 -0.10416665
0000a0 b9 97 f6 bd 69 fc 50 bd 34 49 14 3e 46 68 04 bd
       -0.120406576 -0.051021967 0.1448105 -0.032326005
0000b0 e1 42 2d 3e fd 0d 5d bd 04 c1 8d 3c 30 33 b5 3d
       0.16920044 -0.05396842 0.017303951 0.08847654
0000c0 e7 2b 54 bd d2 0a 41 bd 9a 5a 78 bc 8b d6 53 be
       -0.05179968 -0.04712946 -0.01515832 -0.2068731
0000d0 24 9e 5e 3b 87 1a 0e 3d 9a 94 3d 3d 47 c9 40 bd
       0.003396877 0.034693267 0.046284296 -0.047066953
0000e0 97 e4 1a bc 69 dc 0b bd 3b eb 61 be af 31 80 be
       -0.009453914 -0.034145746 -0.2206239 -0.25037906
0000f0 d0 a0 7d be cb 0b bb bd 6c 30 38 3d 30 7d 36 be
       -0.24768376 -0.09133109 0.044968054 -0.17821193
000100 d7 79 a4 3d 72 d1 ff bc 5f ff c5 3c 1e 08 37 bd
       0.080310516 -0.031227801 0.024169622 -0.044685476
000110 ca 97 82 3d 67 a3 ed bd 64 b9 d1 3d c0 80 81 3d
       0.06376608 -0.11603432 0.102404386 0.06323385
000120 a0 97 05 3e 04 cd 0b be 14 bd 59 3e 4c 76 2e bd
       0.13046122 -0.13652426 0.21263534 -0.042593285
000130 d6 63 5b bb d4 76 bf bd 1f 8a 2f be 95 18 9b 3c
       -0.0033476255 -0.093488365 -0.17142533 0.01893262
000140 bc 41 a5 bd 77 12 01 3d 05 55 66 3e e8 4c f3 ba
       -0.080691785 0.03151175 0.2249337 -0.0018562349
000150 e6 a1 5f 3c 4e 95 78 be f8 ec 6e be 32 0b 3c bd
       0.013649439 -0.24275705 -0.23332584 -0.045909114
000160 a8 17 fa bd ba a4 01 bc 6b 01 83 be 55 c5 9e bd
       -0.12211543 -0.007912809 -0.2558702 -0.07752482
000170 ec 87 92 3c bd da 39 be 6b 9d 18 bc 6e bb 14 be
       0.017887078 -0.18149848 -0.009314875 -0.14524624
000180 65 a9 f7 3d 6f 5b 7a bc 19 b6 2e bd 9d de 4d be
       0.12092856 -0.0152805885 -0.04265413 -0.20104451
000190 17 4e ce 3d 7a a2 14 bd 11 43 24 3e 60 b5 e5 3c
       0.10073488 -0.036287762 0.16041209 0.028040588
0001a0 d3 c8 0b 3e 03 b9 a1 bc 78 c2 83 bd ce e8 03 3e
       0.13650827 -0.01974154 -0.06433576 0.12881777
0001b0 a8 0c 04 bd 7c 45 e4 3d 75 34 64 be 14 5b a0 bd
       -0.032238632 0.111460656 -0.22285636 -0.07829872
0001c0 90 be 81 be b9 91 89 bd 29 e7 76 3d 28 26 b8 3d
       -0.253407 -0.067172475 0.060279045 0.08991653
0001d0 44 9b 91 3c 98 0c 91 bc e4 c1 55 bc 66 76 95 bd
       0.017774232 -0.0177062 -0.013046715 -0.07297973
0001e0 35 35 83 bd 23 98 db 3d 2e ae 21 b8 d2 9c 50 be
       -0.06406633 0.10722377 -3.854761e-05 -0.20372322
0001f0 34 09 7c 3c 09 11 93 3e 52 77 f2 3d c9 e6 41 bb
       0.015383054 0.28723934 0.11839165 -0.0029587022
000200 70 09 5b 3e d2 e4 ac bd b5 76 27 bd f8 a7 87 3c
       0.21390319 -0.084420815 -0.040884692 0.016559586
000210 57 2a 15 be 54 71 94 3d 72 2c 84 3e e6 21 dd 3c
       -0.14566933 0.07248178 0.2581516 0.026993703
000220 55 73 c2 3d 0e 46 2e 3d 67 d0 d0 bd b3 f2 88 bb
       0.09494654 0.042547278 -0.101959996 -0.0041793226
000230 82 18 e5 ba 2f 52 39 bd fa 35 f0 bd 0d c9 0d be
       -0.0017478617 -0.045244392 -0.11729045 -0.13846226
000240 f3 88 2d 3e 8d 60 46 3e 9a 3a 38 be de e9 4c 3d
       0.16946773 0.19372769 -0.17991105 0.05002772
000250 66 a1 34 3c ca 35 7b bd 0f 80 56 3e 98 2c 93 3c
       0.0110248085 -0.061330594 0.20947288 0.0179656
000260 ac db 90 bd 14 da c2 bd 14 47 da 3d 33 89 78 3d
       -0.07073149 -0.09514251 0.10658088 0.06067772
000270 84 59 9b 3e 66 18 ca bd d0 57 53 3d fd 6f e1 3b
       0.30341733 -0.09867935 0.051597416 0.006879805
000280 21 25 e2 3d 83 6a 0b ba d8 b7 52 3d 2d 2a c3 bd
       0.11042238 -0.00053183007 0.05144486 -0.09529529
000290 45 45 76 3d d1 a8 6a 3d 4c f4 6a be 56 e9 4a bd
       0.060124654 0.057289902 -0.22944754 -0.049538933
0002a0 8b 2b 3d bc e6 a2 2a bd 00 f5 38 3b cd d5 b3 bd
       -0.011546026 -0.04165926 0.0028222203 -0.08781014
0002b0 71 9b 23 be 9a 2e c8 bd 0c e2 b7 bd db cf 0b 3d
       -0.15977265 -0.097745135 -0.08978662 0.034133773
0002c0 2d 7b 95 3d 58 28 0b bd 21 88 e1 bd b6 f2 e6 bc
       0.072988845 -0.03397402 -0.11012293 -0.028191905
0002d0 94 de 9a bd 51 87 90 be 44 53 18 bd 0f 7a 48 3c
       -0.07561985 -0.28228238 -0.037188783 0.012236132
0002e0 ca 00 6a 3d 07 fa 5c be 6d f9 2b be d3 76 c0 bc
       0.05712966 -0.21579753 -0.16794367 -0.02349416
0002f0 3d 92 1a be 84 0a 7f bd 90 3c a8 3c 11 3b be 3d
       -0.15094848 -0.062265888 0.020536691 0.0928861
000300 94 48 d7 3c e8 42 95 3d f7 2c 16 3e 91 e1 02 be
       0.026279725 0.07288152 0.1466559 -0.1278136
000310 78 11 81 3c 6c 50 91 3d 94 91 7e 3e 8d 2c 41 3d
       0.0157554 0.070954174 0.24860221 0.047161628
000320 48 a5 4a be df 88 69 3d 6b de 0c bd f7 fc 5d be
       -0.19789612 0.057015296 -0.0343918 -0.2167853
000330 ff a8 3e be 9c 99 91 bd 79 48 c6 bd e9 e3 26 bc
       -0.18619154 -0.07109377 -0.09681792 -0.010186174
000340 f0 57 8b 3c 8f 6e 16 3e 3a fb 0e bd 67 d0 a0 3e
       0.017009705 0.14690612 -0.034907557 0.31408998
000350 0f e1 ba bc ca d0 ee bc a9 71 dc 3d 9a 90 10 3e
       -0.022812394 -0.029152293 0.107638665 0.14117661
000360 c6 75 d5 3c 60 30 01 3e d4 fe 8a bc 44 d2 37 3d
       0.026057135 0.1261611 -0.016967215 0.04487826
000370 ae 20 a9 bd e4 4c e9 3d 62 3b ce 3c 6d 10 a3 bd
       -0.08258186 0.11391619 0.0251748 -0.07962117
000380 ef c1 ca bb 3f 96 70 be bf 0f 4d 3d 54 e9 c8 bd
       -0.0061876695 -0.23494814 0.050063845 -0.09810129
000390 25 0d 6d bd 7e 5a b5 3b 25 67 48 bd b0 7b 8d 3d
       -0.057873864 0.005534469 -0.04892649 0.06908357
0003a0 eb 52 84 3e e7 86 14 3e 1e 1e 3e be 90 4f e5 bd
       0.2584451 0.14504586 -0.18566176 -0.11196816
0003b0 9f 33 93 bd 29 95 8e bd d0 b4 77 3e 03 31 33 3e
       -0.0718758 -0.06962044 0.24190068 0.17499165
0003c0 dd ca 86 be 37 70 c7 bd f5 0b 67 bc 75 5c 39 be
       -0.26326647 -0.097382 -0.014101972 -0.18101676
0003d0 62 83 e1 3d f4 f2 55 3c 44 b7 5e 3e cf 1c a4 3d
       0.110113874 0.013058413 0.21749598 0.08013307
0003e0 7c 92 4c 3e 68 27 51 be eb 6d 00 3e 66 3a a7 bd
       0.19977754 -0.20425189 0.1254193 -0.081654355
0003f0 3a 84 74 bd 23 95 b5 bc 39 06 44 be 50 5c 03 be
       -0.059696414 -0.02216584 -0.19142999 -0.12828183

action_model._discrete_distribution.branches.0.weight f4 [3, 256]
000000 83 f7 88 bd d4 47 50 3d c4 6a 59 bd 42 55 37 3e
       -0.06687834 0.05084975 -0.053080335 0.17903617
000010 89 26 dd bd 84 95 20 3d 55 4b 2b be 1a cb b7 be
       -0.107983656 0.03920509 -0.16727956 -0.35897142
000020 49 e3 92 bd 1b 17 09 3e d6 ba 95 3c 9c 5b 43 3b
       -0.071722575 0.1338772 0.018277567 0.0029809242
000030 85 dd 8f bd 8c de 3d bd 94 11 a2 bc dc 4b 6c bc
       -0.07024673 -0.046354815 -0.019783773 -0.014422383
000040 c0 64 d1 bc fe d8 03 bd d0 99 9c bd 46 37 c8 bb
       -0.025560737 -0.03218936 -0.07646525 -0.0061101047
000050 a5 40 eb bd b2 3d e3 bc 66 0b 8b bc 38 57 75 bd
       -0.11486939 -0.02773938 -0.016973209 -0.05989763
000060 98 6f 92 3c 9d 85 7f bc 45 92 4c 3d e5 86 96 be
       0.017875478 -0.015595821 0.04994418 -0.2939979
000070 c9 77 63 3d 10 b1 60 3d 1e a1 ce bd 59 c7 8c 3e
       0.055534158 0.05485636 -0.100893244 0.2749584
000080 87 67 d0 ba 53 61 b5 bd 68 63 5f 3e db 8f bd bd
       -0.0015899994 -0.08856454 0.21815264 -0.09255954
000090 84 1d 58 be 2e 5b 88 3e 56 c1 21 bc c8 c7 68 3e
       -0.2110501 0.26632065 -0.009872755 0.2273246
0000a0 d2 6c 9f be 4e fe 75 bd f6 dd 2c be a2 a2 be 3d
       -0.3113771 -0.060056977 -0.16881546 0.093083635
0000b0 67 74 8a bc 40 7b fb 3c 84 81 25 3e 20 27 97 bd
       -0.016901208 0.030698419 0.16162688 -0.073805094
0000c0 76 e3 bb 3b cf 3f 03 bf 76 3c 04 3e 54 76 b1 bd
       0.0057339026 -0.5126924 0.12913689 -0.086651474
0000d0 b8 ed ba bc 72 60 15 3e b4 39 6c bb 12 15 2d 3c
       -0.022818431 0.14587572 -0.0036045136 0.010564106
0000e0 32 47 08 3e 43 5e b9 bd 49 75 08 be eb ee 78 bd
       0.13308409 -0.09051182 -0.1332599 -0.060774725
0000f0 8a 7b b2 bd 2e 38 8e 3d 9f 64 33 3c 7f d4 3e 3d
       -0.087149695 0.06944309 0.010949283 0.04658937
000100 35 ef a4 bc 51 11 b4 bb 17 26 cb bb 41 c9 44 bd
       -0.020133594 -0.0054952283 -0.006199609 -0.048043493
000110 6e 70 e2 bc bd d7 32 bc 2a ae 9a 3d 16 2f a7 bd
       -0.027641501 -0.010915694 0.075527504 -0.08163278
000120 69 10 3d 3d 29 61 20 be 74 7a c7 bd 7d 94 00 b8
       0.046158228 -0.15662064 -0.09740153 -3.065587e-05
000130 1e 1d 05 3d 10 85 f6 bd 4c 39 05 be a1 7a eb 3c
       0.03249847 -0.120370984 -0.13010138 0.028744997
000140 ba f6 02 bf ff 28 d1 bc 44 cc 84 bb be 9d 38 3d
       -0.51157725 -0.025532244 -0.0040526707 0.04507231
000150 bb e3 85 3c 3b 1b 90 bd 05 15 c4 3b 55 a3 b0 bd
       0.016343942 -0.07036444 0.005983951 -0.08624903
000160 36 6a 61 bd 44 23 08 bd 1e 24 72 be 99 18 05 3c
       -0.05503293 -0.033236757 -0.2364659 0.00812354
000170 1b 49 35 bd ee 22 b0 be 85 c6 16 3e ed a9 f2 bd
       -0.044259172 -0.3440165 0.14724167 -0.11848817
000180 9e a5 9f bd 00 89 d8 bc 33 6d db 3d 0c e9 aa 3c
       -0.07795261 -0.026432514 0.107141875 0.020863079
000190 ce bd d4 bd 0b 86 cb 3c 6d 46 b3 3c af 73 1e bd
       -0.10387765 0.02484419 0.021884168 -0.038684543
0001a0 1d 7e 1f 3d 4a 9b 64 bb a2 6b 12 3e 13 53 e1 bd
       0.03893863 -0.0034882599 0.14298871 -0.11002173
0001b0 74 6e f1 bc 9f 64 0f 3d 1e ac c1 bd 0a 67 8b 3c
       -0.029471613 0.03500807 -0.09456657 0.017016906
0001c0 23 4d 01 bd 0f 23 b9 3d e9 ba 2d 3d 4c 6f 64 3d
       -0.031567704 0.0903989 0.04241458 0.055770203
0001d0 e4 15 17 3b a3 24 3b 3d 4b 18 85 bb e4 fd 74 3d
       0.002305382 0.045689236 -0.004061734 0.05981244
0001e0 5c 88 80 3d be f9 4a 3b bb 6c 94 be b6 59 11 bc
       0.062760085 0.0030971612 -0.28989205 -0.008871486
0001f0 30 d8 7f 3d a0 dc 0b bd 9f 86 1d be e5 53 0b be
       0.06246203 -0.03414595 -0.15383385 -0.13606222
000200 a0 01 93 bd 8f ba d3 3c 47 31 90 bc 18 dc 0c 3d
       -0.07178044 0.025845794 -0.017601622 0.034389585
000210 44 22 fb 3c 0e dd 1f bc f1 c9 fb bc 24 c6 04 3e
       0.030655988 -0.009757293 -0.030735942 0.1296621
000220 05 5c 75 3d 55 3a e8 bc 9a 79 41 3d d9 5b 8b bb
       0.05990221 -0.028348127 0.04723511 -0.0042528925
000230 4d bc 32 bd 10 42 52 bc 81 b8 a2 3d a4 44 02 be
       -0.04363661 -0.012833133 0.079453476 -0.12721497
000240 6b 7c da 3b d9 f2 1a 3b 59 84 58 bd 47 9c 94 3d
       0.006667664 0.0023643284 -0.05286059 0.0725637
000250 ac 0b 99 3c 7f a7 df 3c d6 61 2c 3d 57 be 3f 3b
       0.018682323 0.027301548 0.04208549 0.0029257738
000260 01 3a b6 3d 7f e2 27 3e 61 d6 ad 3d 4e ea 3c bd
       0.08897782 0.16394995 0.08488155 -0.046121888
000270 d3 4e ca 3c 8e df 44 3c d0 7e a0 3c 1c 10 ca 3c
       0.02469579 0.01201619 0.019591719 0.024665885
000280 7e 81 1e bd 1c 45 12 3e 17 e5 26 3e 93 0b eb bd
       -0.038697712 0.14284176 0.16298328 -0.11476817
000290 83 03 b1 3c 3e 06 91 3c 41 fc 86 bd d4 dc c2 bd
       0.02160812 0.017703172 -0.06591082 -0.09514776
0002a0 c1 4c b6 3e 1d 6c 9e 3e 1e 37 07 3e b5 54 0a be
       0.35605434 0.3094186 0.1320462 -0.13508876
0002b0 43 23 a7 3d fb 88 6d be 71 3c de be 4b 2d ae be
       0.081610225 -0.23196785 -0.43405488 -0.3401893
0002c0 89 b4 d6 bb 93 fd 25 3d 1e f3 20 3d c1 0f be 3b
       -0.006552283 0.04052503 0.039294355 0.005800218
0002d0 96 7d 1a be 5c 14 c4 be e3 d6 78 3d 9c 57 f0 bd
       -0.1508697 -0.38296783 0.060751807 -0.1173546
0002e0 a9 34 c7 3b 16 03 52 be f0 ce 52 3d 35 21 f0 bd
       0.0060792756 -0.2050899 0.051466882 -0.11725084
0002f0 29 b5 05 be 5b 07 08 be 5b 02 36 3d 4b 73 11 3e
       -0.13057388 -0.13284056 0.04443584 0.14204137
000300 ba 43 83 bd 63 7e 81 bd 10 af b8 3c bb cb 5f bd
       -0.06409402 -0.063229345 0.022544414 -0.054637652
000310 d0 88 7d 3d cd 25 68 bc 60 25 04 3c 94 af 5f 3d
       0.061898053 -0.014169169 0.0080655515 0.054610804
000320 36 b3 87 bc 21 48 91 bd 53 ce 37 bd da d3 4a 3c
       -0.016564947 -0.070938356 -0.0448745 0.012379611
000330 0c a9 1e bd 45 f7 2b 3d e4 e4 c9 bd 8c 6c 00 bd
       -0.038735434 0.04198386 -0.098581105 -0.03135352
000340 e4 09 b1 bd 27 74 33 3e 37 60 fd 3d 7e 05 19 bd
       -0.086444646 0.17524777 0.12371867 -0.037358753
000350 a5 18 6e be e8 c3 64 bb 65 d6 2e be 17 cd 3a bd
       -0.23251589 -0.0034906808 -0.17073973 -0.045605745
000360 91 40 89 be 19 16 20 3d 7a 31 3c bd 51 51 36 3e
       -0.26807073 0.039083574 -0.045945622 0.17804457
000370 67 a8 21 bd 43 46 b2 3d 29 c1 a3 3d cd 0a ff bb
       -0.03946724 0.087048076 0.07995827 -0.00778327
000380 dd 35 d4 b9 e7 89 1d 3e 8d 4e 80 bd 9e 93 c8 3e
       -0.00040475922 0.15384637 -0.06264982 0.39175123
000390 01 6c 62 bd 41 ca 07 3e 20 91 60 bc 35 a6 92 b9
       -0.05527878 0.13260747 -0.0137064755 -0.00027971124
0003a0 01 6f 25 bd 8a 09 35 be b4 cf 20 be a7 89 e5 be
       -0.040389065 -0.1767942 -0.15704232 -0.44831583
0003b0 3a 67 be 3d 39 6a ac bc 1e ff 82 bd ab 11 05 bd
       0.09297033 -0.021046745 -0.06396316 -0.032487553
0003c0 2c 85 8e 3d 30 25 19 3d 78 a2 3a bd 4c b9 81 bc
       0.06958994 0.03738898 -0.0455651 -0.015835427
0003d0 88 b5 6a 3c 4d f4 a3 3d b6 42 51 bd 2c c8 05 3d
       0.014325507 0.08005581 -0.05108901 0.032661602
0003e0 2e bc 57 3d 90 89 8b 3c a2 1d 35 3d 40 d3 72 bd
       0.052669697 0.017033368 0.044217713 -0.059283495
0003f0 cf 44 2e bd 15 ea ce be ad b9 e7 3c 6a 64 97 3e
       -0.04254609 -0.40412965 0.02828678 0.29568797

action_model._discrete_distribution.branches.0.bias f4 [3]
000000 c4 cf 4d 3c f0 2a 8d 3b 3b 8d 64 bc
       0.012561742 0.004308097 -0.013949688

action_model._discrete_distribution.branches.1.weight f4 [3, 256]
000000 be 3f c8 bc 47 c0 74 bd 05 79 05 ba b9 3f a9 3c
       -0.024444457 -0.059753682 -0.00050915807 0.020660268
000010 8f 81 b8 bc 3f a9 01 3d 80 8c dc bc f9 42 37 3d
       -0.022522716 0.031655546 -0.026922464 0.044741604
000020 55 05 49 3d ce 3d e1 3c f0 c8 54 3c cd 79 c0 3b
       0.04907735 0.027495291 0.01298736 0.005873895
000030 7a d4 23 bc 37 1a 0d bd 84 5d b8 bb 14 61 26 3d
       -0.009999389 -0.03444883 -0.0056263823 0.040619925
000040 34 16 eb bc 55 eb 1c 3d d3 1e 5d 3c 8c ca e1 3c
       -0.02869711 0.038310368 0.013496119 0.027562402
000050 1c 12 01 3d b3 b9 4b be 09 43 8e bd ca 79 b0 3c
       0.03151141 -0.19895057 -0.0694638 0.021542449
000060 04 f1 b7 3b 0c ec 40 3d 23 0e 08 3c 6b 64 26 bc
       0.005613448 0.04710011 0.008304152 -0.010155777
000070 64 90 4e 3b 62 8b 3d bc 75 c2 2e 3d 5d 3a ba 3c
       0.003151917 -0.011568876 0.042665917 0.022732908
000080 62 ba c8 bc 32 33 6b bd 0b 9b b7 bc c7 57 87 bb
       -0.024502937 -0.05742187 -0.022412797 -0.004130337
000090 87 4e 39 3c 5c ee 04 bb fd 22 7b 3c 5a 94 75 bc
       0.011310226 -0.0020283675 0.015328166 -0.014988983
0000a0 e4 43 3f bd 10 71 44 bd 5e f6 26 bd 3b 6d 8e 3b
       -0.046695605 -0.047959387 -0.040762298 0.0043465174
0000b0 6b 46 a3 bd 72 4e 9d 3c 76 50 83 bc 5f 5e db bc
       -0.079724155 0.019202445 -0.016029578 -0.026778398
0000c0 3d 51 fa bb 59 6d 98 bd a5 1d 08 3b c1 4c 98 bc
       -0.007639079 -0.074427314 0.0020769623 -0.018591287
0000d0 af 74 9a 3d e0 ec a1 3d f5 a2 89 bd 0e c0 e1 bc
       0.07541787 0.079065084 -0.06720535 -0.0275574
0000e0 f5 c4 1f bd 74 83 5e bd 4f 6e 74 bd e8 71 15 bd
       -0.039006192 -0.054324582 -0.05967551 -0.036485583
0000f0 60 b0 e8 bc f1 71 24 3c 30 63 c3 bc 2d 1a 87 bb
       -0.028404415 0.010036931 -0.023851007 -0.0041229934
000100 02 1d 48 bc 25 d0 67 bd a2 04 0a 3d 0f 08 1a 3c
       -0.012213947 -0.056594986 0.033695824 0.009401335
000110 85 92 99 3c d4 c7 85 bd 37 d8 2e 3c fa 33 23 bc
       0.018746624 -0.06532255 0.010671667 -0.009961123
000120 79 4a 84 bc aa a8 46 3b 54 5e 01 3c d9 bf 16 3d
       -0.016148793 0.0030312934 0.007896025 0.036804054
000130 99 26 c5 3c a0 81 49 bd 33 39 9f bd 40 5c 1a 3e
       0.024066256 -0.049195886 -0.07774582 0.15074253
000140 25 08 85 bd 31 bd 7e 3d 2f 9e 32 3c c0 09 8a bd
       -0.06495694 0.062192146 0.010901972 -0.06740141
000150 01 c3 92 3c 24 32 8d bd 25 c4 b0 3c 80 19 87 bc
       0.01791525 -0.06894329 0.021577904 -0.016491652
000160 82 81 87 3d b7 e0 15 3d 03 8b 38 bd a8 ba e8 3a
       0.066164985 0.036591258 -0.045054447 0.0017755823
000170 68 ff da 3b 09 0f f9 3c 60 02 2f 3e ed bc 7e bd
       0.006683279 0.030402677 0.1709075 -0.062191892
000180 a1 c1 ab 39 f9 7d ad 3c 8f 1d 8e 3d 7b 0a 5c bd
       0.00032759926 0.021178233 0.069392316 -0.053720932
000190 10 69 da 3c 18 b2 a8 bd 05 13 af 3c 96 56 04 bd
       0.026661426 -0.08237094 0.021371374 -0.032309137
0001a0 16 33 93 3d 7f ef bd bc 72 01 eb 3a 27 9e 11 bd
       0.07187478 -0.02318549 0.0017929508 -0.035551216
0001b0 a0 aa 5c 3d 20 b2 d6 3c 84 ac 01 bc 49 33 1d 3c
       0.05387366 0.026207983 -0.007914666 0.009594747
0001c0 54 2b 11 bd 1e ee 32 3d bd be b5 3d 46 7f 43 ba
       -0.03544171 0.043684117 0.08874271 -0.0007457625
0001d0 01 f1 55 3d 74 f1 bd bc f8 44 01 3d 30 34 a2 bd
       0.052231792 -0.023186423 0.031559914 -0.0792011
0001e0 1b 6e a6 3a 19 f9 5f 3d 78 22 be 3d 55 ba 46 bd
       0.0012697609 0.054680917 0.09283918 -0.048517544
0001f0 dc d9 c9 3c e9 5d 33 3d c6 c6 57 bd 32 5d 1a bd
       0.024640016 0.04379073 -0.0526798 -0.037686534
000200 b6 3c 4b 3d b6 78 b1 bd fb 65 84 bc 2b cf 9a 3c
       0.049618445 -0.08665602 -0.01616191 0.018897614
000210 46 d2 12 bc 5e ff 89 3a 77 28 24 3d 1d 00 91 3c
       -0.008961266 0.0010528376 0.040077653 0.01770025
000220 eb bd 06 3d ca e1 e1 bc 55 d0 fe 3a 7b 48 23 bd
       0.032895964 -0.027573485 0.001944075 -0.039864045
000230 0e 80 44 bd d8 e8 66 bc 96 fd b2 3c 93 4e ad bc
       -0.047973685 -0.0140936 0.021849435 -0.021155631
000240 2f cb 60 3d dc 61 79 3c b8 e7 a8 3b 91 56 95 bc
       0.05488127 0.015221085 0.005154576 -0.018229755
000250 bf 10 a5 3b e2 9e 82 bd 05 7d a1 3c d8 96 58 bc
       0.0050373967 -0.06377961 0.019712934 -0.013219558
000260 fe 9c 1c bd cc b3 eb ba 02 86 df 3c 48 c5 4b 3d
       -0.038235657 -0.0017982661 0.02728558 0.04974869
000270 38 96 94 3c eb 03 2c 3a 98 18 0a bd 30 69 cd bc
       0.018138036 0.0006561863 -0.03371486 -0.025074571
000280 22 00 cb 3c e1 d4 4b bd 63 0b 36 3d a6 f0 b4 3d
       0.024780337 -0.049763564 0.044444453 0.088349625
000290 e2 4e 0b 3e cb 77 5a bd 46 47 1a bd 72 06 ca b9
       0.1360431 -0.0533369 -0.037665628 -0.00038533245
0002a0 59 7a ad ba 57 39 f0 bc 77 7b e8 bb 3f 09 99 3d
       -0.0013235315 -0.029324217 -0.0070947963 0.07472467
0002b0 dd ba cc 3c 56 a9 a8 bd 74 88 47 3e 1f 56 98 bc
       0.024991447 -0.08235423 0.19485646 -0.018595753
0002c0 47 a8 bf bc d6 33 3d 3a 9b b5 03 3d 42 a1 36 3d
       -0.02339567 0.0007217502 0.032155614 0.04458738
0002d0 53 e7 7b 3a 3c 1e c7 bd b8 c3 cb b9 d1 70 47 bc
       0.000960936 -0.097225636 -0.00038865 -0.012172894
0002e0 8f bf 88 3c 96 5c a2 bd e8 7d de 3c 98 aa 1c 3c
       0.016692905 -0.079278156 0.027159646 0.009562157
0002f0 8e e7 bd bc c1 cc 82 3d 85 fb 4b 3d 28 a2 2d 3d
       -0.023181703 0.0638671 0.049800415 0.042390972
000300 42 df 4d 3d 62 c7 7f bd a5 de 2d 3c 1d 9f d1 bc
       0.050261743 -0.062446006 0.010612165 -0.025588566
000310 65 34 02 3d 11 e3 fb 3c 0c be 06 bc 0b ef 91 3d
       0.03178825 0.030747922 -0.008224022 0.07125672
000320 62 06 7e 3b a1 aa 88 bb 8d b5 00 3b 2e 85 65 3b
       0.0038761129 -0.004170731 0.0019639463 0.0035022008
000330 eb c6 17 bc 50 5d 9c 3a 4a d9 65 bd 58 e2 af bc
       -0.009263734 0.0011929665 -0.056115426 -0.021470234
000340 15 55 f5 3c 66 75 3d 3d c6 ed 85 bb eb c5 15 3d
       0.029947797 0.046254538 -0.0040871827 0.036565702
000350 90 3f ef 3b 27 05 47 bd bf 4f c4 3d a2 85 01 3d
       0.0073012784 -0.048588898 0.09585523 0.031621583
000360 c7 a6 62 bd 0b b2 92 3b ab 26 8d 3d 3e 21 da 3c
       -0.055334833 0.004476791 0.06892141 0.02662718
000370 d6 b1 e5 bd 15 59 79 3c 66 fc 37 bc bd 69 16 ba
       -0.1121556 0.015218993 -0.01122961 -0.0005737802
000380 29 34 8a 3c e8 20 e4 bc 13 de fb ba 3d a2 97 bd
       0.016870575 -0.027847722 -0.0019215964 -0.07403991
000390 1d b8 7a 3b c2 82 9f 3c 27 7d a7 3d 92 6c d0 3c
       0.0038256713 0.01947153 0.08178168 0.025442395
0003a0 ed 02 91 3c a0 c0 9a bb 97 33 d1 3b 29 83 09 bd
       0.01770159 -0.0047226697 0.006384324 -0.03357235
0003b0 f0 27 87 3c a5 ab 78 3d cf 73 4e bc b4 d7 8b 3d
       0.016498536 0.060710568 -0.012600853 0.068282515
0003c0 63 a2 a8 bc 1d 4a b4 3c 31 ba 7c 3b f0 58 8f bb
       -0.020585245 0.022007996 0.0038563127 -0.004374616
0003d0 58 d2 db ba d6 5f ff bc 45 27 42 bc d9 a1 be bb
       -0.0016771061 -0.031173628 -0.011850183 -0.0058176336
0003e0 c0 aa 15 3d 10 59 50 bc 9d a2 37 3d b6 33 18 bd
       0.036539793 -0.012716547 0.044832814 -0.03715869
0003f0 8d 37 b5 3b 3e da f9 bb 01 eb 03 bb 8b 28 9f bc
       0.005530304 -0.0076248934 -0.0020129087 -0.019428512

action_model._discrete_distribution.branches.1.bias f4 [3]
000000 e4 42 86 3d 5f a5 30 3d 1b 13 de bd
       0.06555727 0.04312646 -0.10843488

action_model._discrete_distribution.branches.2.weight f4 [3, 256]
000000 db 07 e2 3d 10 a7 56 3c 96 65 74 3a e5 2b 09 3b
       0.110366546 0.013101354 0.0009322999 0.0020930704
000010 e8 c8 55 3a ee 3d b2 3d b5 ee cf 3d b9 89 02 be
       0.00081552425 0.087032184 0.10152952 -0.1274785
000020 3b b8 23 3e a1 83 03 be a8 91 65 bc 0b 3e bd bd
       0.15988247 -0.12843181 -0.014011778 -0.092403494
000030 a7 c0 f9 3d 0b af e9 bc cb dc b1 bc 57 d6 1f bd
       0.12194949 -0.02852585 -0.021711728 -0.03902277
000040 62 52 e3 bd 29 78 00 bd 52 f0 31 bd 77 9c 73 3e
       -0.11099698 -0.031364594 -0.043442078 0.23790155
000050 ed 02 08 3e a2 25 7e bc a2 33 ca 3c a6 b1 90 3d
       0.13282366 -0.015511902 0.024682824 0.07065134
000060 67 af 7d 3d 6f fe 02 3e 43 4e 8a be 5a b8 32 bd
       0.061934855 0.12792371 -0.27012834 -0.043632843
000070 46 ee 60 bd ed c6 c5 bd 48 ae e4 3d 38 21 55 bd
       -0.054914735 -0.09657083 0.11166054 -0.052033633
000080 93 d3 fd 3c 57 49 ff 3d 5e f7 32 bd e3 00 ce 3d
       0.030984676 0.1246516 -0.04369294 0.10058763
000090 b7 05 99 3c f1 63 86 bb 99 ca da 3d 17 dd b3 3c
       0.018679483 -0.0041012694 0.10683174 0.02195601
0000a0 57 59 ee 3c 91 96 95 3d 13 2a a1 3d 02 bb 97 3c
       0.029095335 0.07304109 0.07869353 0.01852179
0000b0 14 1a 19 3c fd eb c0 3d fe 87 11 be ea a9 15 bd
       0.009344596 0.09420011 -0.14212033 -0.036538996
0000c0 a4 42 91 bc 04 97 a4 3e 50 e1 25 3d 68 48 0b 3e
       -0.017731972 0.32146466 0.040498078 0.1360184
0000d0 ae 78 1b 3d a3 03 07 be 6b 49 0d be ab 0d 03 3d
       0.037956886 -0.13184981 -0.13797538 0.031995457
0000e0 8b 14 5a bd 79 f8 25 3e 8a e1 a3 bd 8a 9f cd bd
       -0.053242248 0.16208066 -0.080020025 -0.10040195
0000f0 8f a2 bc 3d 00 a9 a8 bd d8 74 de 3b b6 c4 1e 3d
       0.09210693 -0.08235359 0.006788831 0.038761817
000100 f7 43 bb bc 65 b9 ab 3c 31 f6 37 3d 02 ac d6 bb
       -0.022859557 0.020962426 0.04491252 -0.0065512666
000110 24 a5 c1 3d a3 22 55 3e cd 62 c4 bc a7 af fb bc
       0.09455326 0.20813994 -0.023972893 -0.030723406
000120 f5 1b 87 3b c4 f5 18 3e 2f 2c 5c bd 1e 4f 4f 3c
       0.004123206 0.14937502 -0.053753074 0.01265314
000130 81 69 1c bc 8e d7 30 3d b0 54 dd 3d 70 a7 9c bd
       -0.0095466385 0.04317432 0.108071685 -0.07649124
000140 ae cf 20 3e 12 7c 9e 3d 85 2d 2f 3d 74 f2 0f 3b
       0.15704224 0.07738508 0.04276802 0.0021964582
000150 21 bb 49 3d d4 9e f5 bd 8d 86 c1 3c cf 1c f0 3d
       0.049250726 -0.11993185 0.02362373 0.11724245
000160 00 99 1b 3e e5 57 81 3d 3a 2d 93 3d a5 67 35 be
       0.15195084 0.06315593 0.07186361 -0.17715319
000170 79 1f 20 3d 4c 0c c2 3b 52 07 b1 bd 7b fe cd bc
       0.039092515 0.005921876 -0.08643974 -0.02514576
000180 1e 3e 0e 3d 91 3d 77 3d e5 97 87 bc c1 93 29 be
       0.03472721 0.06036145 -0.016551921 -0.1656027
000190 f9 3d 0d bc 87 fa 0c 3e 01 4b 47 3e 64 c6 9d 3d
       -0.008620732 0.13767444 0.19462205 0.07703856
0001a0 83 67 f7 3b 81 91 ec ba ef 4d d7 bd 8a d7 c7 bc
       0.0075501814 -0.0018048735 -0.105129115 -0.02439477
0001b0 b7 da 02 be 85 ba 3f 3d 05 54 1b 3d f5 08 9d 3d
       -0.12778746 0.04680874 0.037921924 0.07667724
0001c0 cf 62 0c bb 6a 4e d2 3d 20 8b 9b bb 76 f8 86 3c
       -0.00214212 0.102688625 -0.0047468096 0.016475897
0001d0 ae 45 a7 3d 46 83 94 bd 9c b9 8e bd 54 13 21 be
       0.08167587 -0.07251601 -0.06968996 -0.1573003
0001e0 fc 07 91 bd 36 e8 51 bc 84 4e 37 3e 42 6c 86 be
       -0.07081601 -0.012811711 0.17901045 -0.2625447
0001f0 87 eb 19 bd 60 22 21 3d af 1d 66 3e 3b 9b 9d 3e
       -0.037578132 0.039339423 0.22472261 0.30782494
000200 79 7f be 3d c3 2c 11 be e5 46 00 3e ab 5f 13 bc
       0.09301657 -0.14177231 0.12527044 -0.008994977
000210 92 ee 0a 3e 3d 0f 9b 3d 55 ae 06 3a 24 50 b1 3d
       0.1356757 0.07571266 0.0005137672 0.08657864
000220 8b 01 22 be dc b4 7c 3e 70 fb 6e bd ce 8a a3 bd
       -0.15820901 0.24678367 -0.05834526 -0.07985459
000230 25 2e d8 3d 16 a9 12 3d 6c 3c 98 bb b9 de ba 3e
       0.10555676 0.035805784 -0.0046458747 0.3649805
000240 4d f8 cd bd 68 8e c2 3d 19 38 1f bd 14 77 95 bd
       -0.10057125 0.09499818 -0.03887186 -0.07298103
000250 34 ac 7a 3d 72 d0 ac bd ce 48 02 3e c4 28 d4 3c
       0.061199382 -0.08438195 0.12723085 0.025898345
000260 de d7 9e bd fe b7 ce bd 56 c1 a2 3d 85 68 16 bb
       -0.07756017 -0.100936875 0.07947032 -0.0022950482
000270 5b 5f 51 3d 84 47 01 be 17 0e 01 3d 10 5a 98 bd
       0.05111633 -0.12624937 0.031507578 -0.07439053
000280 b3 6a 54 3d 13 55 89 bd 36 87 0f be 99 ce 25 be
       0.05185957 -0.0670568 -0.14016423 -0.16192092
000290 00 b7 17 bd b0 f6 85 bd a1 e3 64 bc 71 3f d1 3d
       -0.037039757 -0.065411925 -0.013970287 0.102171786
0002a0 be c8 4c bd 84 f5 81 bd 05 c5 e6 bc ae a6 ec 3d
       -0.04999613 -0.063456565 -0.028170118 0.11555229
0002b0 c8 4f d9 bd da 76 d3 3a eb 53 4f 3e 0e 5b e8 3d
       -0.1061092 0.0016133443 0.20246856 0.11345492
0002c0 43 f7 60 bd 0f a1 95 bd be cd 26 3e 23 ef c1 bc
       -0.054923307 -0.0730611 0.16289422 -0.0236736
0002d0 36 06 2d 3e 68 a0 a8 bd 5f 94 9a bd 14 2a 99 3e
       0.168969 -0.0823372 -0.07547831 0.29914916
0002e0 ab 38 d2 3c e4 98 95 bd 3e a8 27 3d 84 f8 15 be
       0.025661787 -0.07304552 0.040931933 -0.14645582
0002f0 f4 00 8f 3d ab 56 a5 bd 08 5a bd bb 94 09 3c 3d
       0.06982604 -0.08073171 -0.005778555 0.045907572
000300 ce dc bc bc 9c c1 a2 bd 29 cd 16 3e 01 91 53 be
       -0.023054507 -0.07947084 0.147267 -0.20660783
000310 86 f4 02 be c8 73 58 3d 52 8f 07 3e 53 62 99 3d
       -0.12788591 0.052844793 0.13238266 0.07489457
000320 00 26 8b bd 44 fd 2e bd 5a db b1 3d 5f 6e 36 bc
       -0.06794357 -0.042722 0.08684416 -0.011134713
000330 36 e6 fa 3c 1d f9 06 3e 02 60 83 3d a1 6c 63 3d
       0.030627351 0.13180967 0.064147964 0.05552352
000340 45 02 65 3d 5f 51 96 bc 84 26 44 bc d4 0d 05 3e
       0.055910368 -0.018349348 -0.011972073 0.12993556
000350 5b f2 14 3d c0 d9 33 3d b0 8e f9 bd 65 f8 0b bd
       0.03636394 0.043908834 -0.121854186 -0.034172434
000360 00 c0 d4 3c 38 4a 39 3d 14 7f 37 bd 83 8f 1f 3d
       0.025970459 0.045236796 -0.044798926 0.038955223
000370 72 da ed 3e 6f e5 1c 3d 9d 3d 9a 3c 40 24 a1 bd
       0.46455723 0.038304742 0.018828208 -0.07868242
000380 75 c1 7e bd 8b df 05 be 3b 84 89 3d d1 d8 2b be
       -0.062196214 -0.13073556 0.06714674 -0.16781928
000390 0e 59 32 3e aa fe 26 be 4b 1f c9 bd c4 d0 b1 3d
       0.17416784 -0.16308084 -0.09820422 0.08682397
0003a0 3b 07 b7 3c ee a4 0f 3d 23 52 04 3e 7c b8 a7 3d
       0.022342315 0.0350694 0.12921958 0.081894845
0003b0 19 ac a2 3a 6a ab ee bc e3 fa f9 3d 31 e6 80 bd
       0.0012410908 -0.029134471 0.12206056 -0.062939055
0003c0 a6 bc f0 3b f4 f4 8c be f1 54 e1 bc ab 1d ce bd
       0.0073467074 -0.27530634 -0.027506324 -0.100642525
0003d0 76 df ce 3d 38 42 27 bd 18 dd a5 3d 7d f3 45 ba
       0.101012155 -0.040834635 0.08098811 -0.0007551236
0003e0 b9 d0 61 bd 5f b2 68 3c 4c 32 43 3c 52 d0 cc 3d
       -0.055130694 0.014202683 0.011913847 0.100006714
0003f0 00 3a b7 bd 0c f3 e1 3d 48 d3 75 be f3 b8 26 be
       -0.089466095 0.11032686 -0.24006379 -0.1628149

action_model._discrete_distribution.branches.2.bias f4 [3]
000000 d8 be 7e 3d 79 f5 da bd 4d e4 12 3d
       0.06219372 -0.106913514 0.035862256
