ML-Agents/results/obs-from-ultimate-volleyball/Volleyball/Volleyball-26499996.onnx (onnx, 291918 bytes, 15 tensors)

discrete_action_output_shape f4 [1, 4]
00000000: 0000 4040 0000 4040 0000 4040 0000 0040
3.0 3.0 3.0 2.0

network_body.observation_encoder.processors.0.normalizer.running_mean f4 [11]
00000000: d1f8 163e 961f d03d d501 0f3f 7bde 283f
00000010: 8f54 2641 a579 91bc 2621 f439 f214 fc3b
00000020: 3124 fabf 0000 baae 0020 9aae
0.14743353 0.101622745 0.5586217 0.6596448 10.395644 -0.0177582 0.00046564004 0.0076929266
-1.9542295 -8.458301e-11 -7.0087935e-11

network_body._body_endoder.seq_layers.0.weight f4 [256, 11]
00000000: 209b 9fbe 9281 a63d 7a3b 203e 1d69 16bf
00000010: 8f19 993e 8971 d0bb ea46 a1be ed0a fcbd
00000020: fdd0 23be 616a 3dbe 7852 ec3e 085f 85be
00000030: b3cc f23d d843 0c3f 9304 75bf 67a8 e53e
00000040: cf86 d93b 47b3 1bbe 7ae6 a6bd e6cd fc3c
00000050: 639b 6bbe 4f94 e8bd 0064 10be 921d 04bf
00000060: 2e6e 853e 1f16 8e3d 3a1d 21bf 2dcc d5bd
00000070: d5bb 1abe 45a7 bf3e 6a41 e3be 808a 88bc
00000080: 5174 ccbe ddf3 9d3e 9d27 00bf a297 e2bd
00000090: 18bf fb3d a246 163d 17bf c83c 74c5 a83e
000000a0: 05a1 533e 4298 643f c203 2dbe 4a5a 6abe
000000b0: fc26 40be 0223 06be bbf5 563d 6bde 093e
000000c0: 645e cf3d 71e2 0fbd b459 fa3d 7929 0f3f
000000d0: b35b 1abf 157c 933f 0cb6 373f 2aa1 033f
000000e0: 1986 04bf 858f b8bd 9fa8 adbd 4d4d 25bf
000000f0: 94d0 2ebd 51fa 14be 31ed 1dbe 8085 443e
00000100: f285 93bd 1186 7f3d 9193 623e ea7a f1be
00000110: ee79 dbbe 4d0a 8fbe c4d0 603c ad98 f63d
00000120: 2afb d2be 790f 753e 2872 6a3b 93f9 4abf
00000130: 8a55 c9be d54f 0abf f061 b23e 0d0e 11be
00000140: 8ae1 13bf f2b4 97be b78e f2be b3bf b6be
00000150: f1f6 f43d aa16 56bf b848 103f 3d15 813e
00000160: bc6a a8be 5a4f 333f 45b7 8b3e 7bfe ad3c
00000170: 9b77 41bf ae88 9c3c 91b8 1f3d 2b9a 603b
00000180: a1f9 1b3e de68 b93e c135 2b3e dca8 a23d
00000190: e0ff fabe 2910 ad3e d5e1 433e f150 a23e
000001a0: 6ef3 b83e 2295 a0be b54c c0be c4f4 afbe
000001b0: 1e69 4b3e cdb2 b5be 7e86 03be 86e9 f53e
000001c0: db23 c8be ebd1 b7be 210a 8e3e 2e58 b43e
000001d0: 4bfb 043c 9210 ccbe c39f c23e 42d9 49bf
000001e0: c5c6 02bd 34cc 373e 76eb dbbe 727a c4be
000001f0: b037 51bf 6edc 23bf 206e 20bd 7f36 9dbe
00000200: 83c6 c9bd 1483 173e 020b 5abf 7b02 b53b
00000210: 6f1f 893e ad86 04bf 2ee5 0fbe ed0c e63e
00000220: 797b 5b3e 29cd d03e a239 2a3d 1d95 2b3f
00000230: 56e8 46be 3af9 043f c50f ecbe 677a 8a3d
00000240: fe18 223e ae25 f0be 9d2a a33e 9b4e 543e
00000250: 9f2b 61be 990a 003f 78c6 1b3e 6b4a 733c
00000260: 9395 8d3f 91cb 253d b178 fb3e 384f 843e
00000270: d35f f13e 8f62 463f b0cc 08be 40ea 5fbe
00000280: 1133 bd3e d39a 463e 6a02 7c3d 972b 93be
00000290: 2006 44bf ab51 12bf a923 12be dbfa 13bf
000002a0: 8108 8c3f a0ae 203f ef30 1abe 4f4a fbbe
000002b0: ff26 ea3e 09fe 37be fff1 19be 569e 2e3e
000002c0: 56f4 ebbe d103 48be fce4 353f 95e1 703e
000002d0: b9f7 b53e 1e40 f7be cb5b 4c3e 5551 9bbe
000002e0: 8497 373e 5430 27bf 0aff ac3e 478d ae3e
000002f0: 1bbb 9c3b cf07 5dbf 226c cfbd 03a5 9abd
00000300: 3ee6 f7be 292f 36bf 8012 c63e 0bb0 94be
00000310: c576 ae3d 22df 803e 9b67 58bf 4559 8d3e
00000320: cff0 e43e be53 f13e e122 7e3e 1e41 7cbe
00000330: bd3c 663e 7163 0f3f e78e 0fbe 1caf 9b3e
00000340: 0871 b93d fa4d 91be b1d0 13bf b720 93be
00000350: 4ddb f3be 0f65 843e 1842 293e e435 843d
00000360: da20 78bd 8814 1fbe caca abbe 2406 46be
00000370: 8a7f d4be 971b c53e c554 07bf cc63 2dbe
00000380: 63b3 e33e 6a2a 593d 8e72 643e 0914 d5be
00000390: 963c cd3e 1357 8c3e ef3e 463e 6056 30bf
000003a0: 5206 78be 774e 153f 900f 5bbb c8c8 e63d
000003b0: 49b5 aa3e 9b64 03be e3b0 cfbe 244a b9be
000003c0: 4883 22be 0823 f9bd 9536 8f3e 0da9 bfbe
000003d0: 1cf6 f6be 8fac 0dbe f94b f83e d562 063e
000003e0: de8f db3d 4555 f8be 910a 0e3e c97b 963e
000003f0: d835 00bf 8c82 013f 2815 8fbe d385 d1be
-0.31173038 0.08130182 0.15647689 -0.5875414 0.29902312 -0.0063611907 -0.31499416 -0.123067714
-0.15997691 -0.18497612 0.4615667 -0.26049066 0.118554495 0.5479102 -0.95710105 0.44855043
0.006638385 -0.15205108 -0.08149429 0.030859899 -0.23008494 -0.113564126 -0.14100647 -0.5160762
0.26060623 0.06937813 -0.6293522 -0.10439334 -0.15110715 0.37432304 -0.44385844 -0.016667604
-0.39932492 0.30850115 -0.50060445 -0.11064078 0.122923076 0.036688454 0.024505181 0.32963145
0.20666893 0.89294827 -0.16895965 -0.22886005 -0.18764871 -0.13099292 0.05248044 0.13463752
0.101254255 -0.03512806 0.12224141 0.5592266 -0.6029617 1.1522242 0.71762156 0.5141779
-0.51767117 -0.09011749 -0.084794275 -0.64571077 -0.042679384 -0.14548613 -0.15422513 0.19191551
-0.072032824 0.062383715 0.22126605 -0.47164088 -0.42866462 -0.27937546 0.013721649 0.12040839
-0.41207248 0.23931684 0.0035773609 -0.7928707 -0.39323074 -0.54028064 0.34840345 -0.14165516
-0.5776602 -0.29630238 -0.47374508 -0.3569313 0.11961163 -0.8362833 0.5636096 0.25211516
-0.32893932 0.70042956 0.2728826 0.02123951 -0.7557313 0.019108143 0.038994376 0.0034271579
0.15231945 0.3621282 0.16719724 0.079423636 -0.49023342 0.33801392 0.19129117 0.31702378
0.36123222 -0.3136378 -0.37558523 -0.3436643 0.19864318 -0.35487977 -0.12844273 0.48029727
-0.39089856 -0.35902342 0.27742103 0.35223526 0.008116554 -0.39856392 0.38012514 -0.78847134
-0.031927843 0.17948991 -0.4295308 -0.38374668 -0.817256 -0.64008224 -0.039167523 -0.3070564
-0.09852316 0.14796096 -0.85173047 0.0055239773 0.26781794 -0.51768 -0.14052269 0.44931737
0.2143382 0.40781525 0.04155887 0.67024404 -0.19424567 0.5194279 -0.4610578 0.06761628
0.15829846 -0.46903747 0.3186845 0.2073311 -0.21989296 0.5001617 0.15212429 0.014849286
1.1061271 0.04047734 0.49115518 0.2584169 0.4714342 0.7749414 -0.13359332 -0.21866703
0.36953023 0.19394998 0.06152574 -0.28744194 -0.76571846 -0.57155865 -0.14271416 -0.5780465
1.0940095 0.62766457 -0.15057729 -0.4908013 0.45732877 -0.17968 -0.1503372 0.17052588
-0.4608485 -0.19532706 0.7105253 0.23523553 0.3554056 -0.48291105 0.19956891 -0.3033549
0.17928892 -0.6530812 0.3378833 0.3409216 0.004783047 -0.8634004 -0.101280466 -0.07551005
-0.48417848 -0.7116571 0.3868599 -0.2904056 0.08518747 0.25170237 -0.8453309 0.2760717
0.44714972 0.47134203 0.24817993 -0.24634215 0.22484107 0.5601111 -0.14019357 0.30407035
0.09054762 -0.28379804 -0.5774031 -0.28735897 -0.4762825 0.25858352 0.16529119 0.06455591
-0.060578205 -0.15535176 -0.33553153 -0.1933828 -0.41503555 0.38497612 -0.52863723 -0.169326
0.444728 0.053018965 0.22309324 -0.41616848 0.40085286 0.27410182 0.19359945 -0.688818
-0.24221161 0.5832285 -0.0033426024 0.11268765 0.33341435 -0.12831347 -0.4056464 -0.36189377
-0.15870392 -0.12164885 0.2797133 -0.37433663 -0.48234642 -0.13835357 0.48495463 0.13123639
0.107208 -0.48502555 0.13871218 0.29391316 -0.5008216 0.50589824 -0.27945828 -0.40922412

network_body._body_endoder.seq_layers.0.bias f4 [256]
00000000: 7feb 6cbd 9b7c 0d3e f89a 5dbd 3f6e 213e
00000010: 8a74 fb3d b5c8 57bc d835 853d f510 cdbd
00000020: 8f0d ba3d 74e6 2a3e 954d 143e 3711 0dbd
00000030: 9f0d ca3d 5fa1 3a3e 942a d83e 222f ac3e
00000040: 4db6 7d3e 2ec4 993d f9cb 373e d0b6 cabd
00000050: d254 3a3d 00f0 063e 391e 4b3d a39a f3bc
00000060: d52e f63d 1522 633e d8b4 a73d 0396 493e
00000070: ff0f 0c3d ec63 98bd 40ee 193d 05e1 b23d
00000080: c3d3 113e c667 9a3e 21b4 9d3e c8f3 9a3d
00000090: fc25 07be d764 913d 5876 7c3e 0223 af3e
000000a0: b356 613e 9e15 743e b4c0 5f3c d1d6 293d
000000b0: 0dcb 5cbd 4460 1f3e 8d65 e03e 27d5 4d3e
000000c0: cc2c 94bd d968 873e 0782 e43d c94f e63c
000000d0: 31ca debd 441e 2e3e a11a 533e 1a97 983d
000000e0: a2e4 82bb 9fb5 0c3e 0792 ac3e d669 943d
000000f0: 877e 483d 6d31 523e 95f8 0e3e 2ff5 fdbd
00000100: 5f56 efbd 2fee 223e ee96 923e 0fe0 793e
00000110: 25fa c73d a8dc 423c 8ded 3abd 9adf 39bd
00000120: c106 983d e89f a4bd 12dd 033e 2087 09bd
00000130: 9c99 883e caaf 273e d9ab 1b3e 6e48 3d3e
00000140: 201d 1b3e a310 983d af31 933e 7210 a7bc
00000150: ce01 843b 686e 9d3d c4cc 8f3e 3ecc 8cbd
00000160: c065 8cbd 91a9 943e 13b4 01bd bb5b d9bc
00000170: 3345 9f3e 2b35 973e 37d9 e4bd b0b6 663d
00000180: 6f4e 463e ac74 243e b3f3 37be 2c42 e03d
00000190: 2d77 82bd c560 ae3d 68e8 b9bc ee7a 7e3e
000001a0: 61b3 733e 4fd9 973e f69f 173e 3f12 123e
000001b0: 2d7a 6ebd d0cc 2b3d 662d 973c a6dc 7b3e
000001c0: d2c7 a13e 1126 593e f15b 283d 6cc6 413e
000001d0: f6b1 cd3d cf92 6d3d 4613 81bd 7c28 1f3e
000001e0: 06c6 f0bd 8937 b8bd 4453 803e 3ea0 833e
000001f0: dbc8 543e 6822 2abc f6ba 9d3e d839 913c
00000200: f31a 293d 18a9 083c 7ac4 b1bd 00bb 413e
00000210: 4408 d73c 14ea d53d 7bea e13d 981f f23d
00000220: a527 713e 0793 503e 8a66 f0bc 2ed5 e7bb
00000230: 6053 153e 363d ab3d b519 093e 5e05 973e
00000240: dfd3 bcbd 4b53 693d 7442 eebc 6ef2 383e
00000250: 5203 1d3e 8793 263e ed0a f63d 3574 2a3d
00000260: ccba 0dbd 3890 de3d 71f3 853e de18 8d3e
00000270: 48f5 0bbd 6a91 a5bd 172e b63d c637 4abd
00000280: cac2 473e 1b2b 2e3e c92b 003e 89df 8e3d
00000290: eb79 3c3d 7b44 a43c 3ed9 163c 3548 7e3e
000002a0: 13d7 253e 4989 303e 93b9 9b3e 207e 18bd
000002b0: b5ed 923e cdee 913c 0781 1a3d 76ce babd
000002c0: c7f5 96bd c713 543e f302 3d3e 3a31 983e
000002d0: 5171 2c3e 5276 e63b 802e 3a3d 2e23 803d
000002e0: 6b16 a83c 2ab0 313e 9ae1 6f3e 3ddc 413c
000002f0: b1cc 7b3e d6a2 b0bd 585d 983e ce14 753e
00000300: 9aaa babc 05df 8d3d f47a 413d 14cf a4bd
00000310: 7947 f33c e351 b73e 5296 273e ff69 873d
00000320: 2dcc b3bd cb74 d13e 100e 8c3d bcfc 333e
00000330: be41 933e bbca 953e ee66 d53d 7269 833e
00000340: 018f a03e 46ad a23d b8f3 9d3d 6611 0d3e
00000350: a89c 543e 897a 26be 6e99 ca3e 177a 633e
00000360: 587b 463d 054c f03d 54c5 c13d 72d6 d73d
00000370: d084 d73d 8f0e 3f3e e7cf 033d dbbb 733d
00000380: ec12 7b3e 68ad 213c fbd1 833c 1bc8 083d
00000390: df75 6b3e 0da7 813e 421b 1f3e 3fa0 5d3e
000003a0: 2b19 ddbd 3f6f 4b3e f989 813e 9fbe 52bd
000003b0: 7630 403e 76d6 7bbd 0af9 2c3c b1e8 a43e
000003c0: 5720 233e 364d fe3d 1c5a eb3d 6651 f33d
000003d0: 81ab 52bd 963e ad3e 51f8 413e 0c7f 9bbb
000003e0: df04 db3e c6ac 453e 82c3 833e 762e 87bc
000003f0: bb2f bf3d 2ee0 983d cd48 bf3d 3cf0 933e
-0.057841774 0.13817064 -0.054102868 0.15764712 0.122780874 -0.013170411 0.065044105 -0.10013
0.09084617 0.16689473 0.1448272 -0.034440245 0.09865879 0.1822562 0.42219985 0.3362971
0.24776573 0.075081214 0.17948903 -0.0989815 0.045491047 0.1317749 0.04958937 -0.029736822
0.12020651 0.2218097 0.0818879 0.19686131 0.034194943 -0.074409336 0.03758073 0.08734325
0.14240937 0.30157298 0.3080149 0.07566029 -0.13198084 0.07099312 0.2465452 0.34206396
0.2200573 0.23836371 0.013656784 0.04146463 -0.05390458 0.15564066 0.43827477 0.20100842
-0.07235107 0.2644718 0.11157613 0.028114216 -0.10878409 0.17003733 0.20615627 0.07450695
-0.0039945403 0.13741158 0.3370516 0.07246749 0.04894879 0.20526667 0.13962014 -0.12400281
-0.11686396 0.15911172 0.28630775 0.24401878 0.09764508 0.011893429 -0.045636702 -0.04537926
0.07423163 -0.08038312 0.128773 -0.03357613 0.26679695 0.16375652 0.15202273 0.18484661
0.15147829 0.07425048 0.28748843 -0.020393584 0.0040285354 0.07687074 0.2808591 -0.068748936
-0.06855345 0.2903562 -0.031665873 -0.026532998 0.31107482 0.2953275 -0.11174243 0.056326568
0.19365858 0.16060132 -0.17964058 0.10950121 -0.06370387 0.08514551 -0.022693828 0.24851581
0.23798896 0.2965798 0.14807114 0.14264773 -0.058221985 0.04194337 0.018454265 0.2459589
0.31597763 0.21205927 0.041103307 0.18923348 0.10043709 0.058001336 -0.06302504 0.15542787
-0.1175652 -0.089949675 0.25063527 0.25708193 0.20779745 -0.01038418 0.30806702 0.017727777
0.041285466 0.008341096 -0.08680053 0.18918991 0.026249059 0.104450375 0.11031052 0.11822432
0.2355028 0.20368586 -0.02934577 -0.0070749735 0.14582586 0.083612844 0.13388713 0.29496282
-0.09220099 0.0569642 -0.029084422 0.1806123 0.15333298 0.16267215 0.12013803 0.04161473
-0.03460197 0.10867351 0.26162294 0.27558035 -0.034169465 -0.08084376 0.0889551 -0.049369596
0.195079 0.17008631 0.12516703 0.0697623 0.046014708 0.020052185 0.009207068 0.24832232
0.16195326 0.1723987 0.3041502 -0.037229657 0.2869698 0.017814064 0.037720706 -0.091214105
-0.07371097 0.2071067 0.18458156 0.29725057 0.16840102 0.007033148 0.045454502 0.0625671
0.020518502 0.17352358 0.23425904 0.011832294 0.24589802 -0.086248085 0.29758716 0.23933718
-0.022786427 0.06927303 0.047236398 -0.080473095 0.029697167 0.35804662 0.16365936 0.06612014
-0.08779178 0.40909418 0.0683862 0.1757688 0.28761095 0.29256234 0.10420023 0.25666386
0.31359103 0.079432055 0.07712501 0.13776168 0.20762885 -0.16257681 0.39570183 0.22214542
0.048457474 0.117332496 0.094614655 0.10538949 0.10523379 0.18657897 0.032180693 0.059505325
0.24518937 0.009868003 0.016091337 0.03339396 0.22994183 0.25322762 0.15537742 0.2164316
-0.10795816 0.19866656 0.25300577 -0.05145132 0.18768486 -0.061483823 0.010557422 0.3220878
0.15930305 0.124170706 0.114917964 0.1188076 -0.05143309 0.33836812 0.18942381 -0.00474537
0.42777154 0.19304189 0.25735098 -0.016501646 0.09335276 0.07464634 0.093400575 0.28894222

network_body._body_endoder.seq_layers.2.weight f4 [256, 256]
00000000: 0290 413d 7820 d63d ac75 3bbe ad0c a9bd
00000010: 9f31 23bd 8be6 bebd a9c4 01be a147 23be
00000020: 0315 8c3d 3b89 44bd 9baf aa3d ee8b 06bd
00000030: 4d00 5fbe 095b 93bd e568 efbd ccd1 da3d
00000040: b4c6 443e 9674 28bc ea09 c43d ca1f 7bbe
00000050: f0c7 01bc 1e1e e53d 1912 35be 3f65 08be
00000060: c3e4 a93d 6786 10be b5e6 acbb c4cf 03bc
00000070: b8c9 453e add4 ed3c b8b1 9b3d aefc a03d
00000080: 04f3 213e 091c 283d 1c43 54bd 73eb af3d
00000090: a1c8 2ebe cb36 25be 8a01 43bd 3e0f 32bd
000000a0: 428a 0fbd 2248 26bd 09cb 32bd 0a7d ad3d
000000b0: 77e1 c83c a7f0 213d 0925 93bd 3462 a73c
000000c0: 0c2a 4dbc a05c bfbd 128a 613e bdbb 203e
000000d0: edca 57be 5d7c 333d 1b0a 8a3e 97d2 013e
000000e0: 87c0 88be f4b8 31bd 460a 0d3e 9ab4 05bd
000000f0: e5e5 613d e3c8 d73d 7b35 4b3d 93d3 b0bd
00000100: af9e 01be 2c7d 963d 8b2f 31bd 4d4d 243e
00000110: b956 78bd cf59 91bc 62f1 36be 610e 67bd
00000120: 7454 943d 96bd 50be 71c4 babd 8297 81be
00000130: 7523 bdbd eb15 2d3d 25b4 ba3d 9f03 a63d
00000140: 933e 80bc 475a 303e 635c 513d 8ecc 793d
00000150: 9047 433e 0d8c 89bc 5e99 853e 7920 423c
00000160: d47f 2bbe 6767 653d 9a45 b6bd 1778 27bc
00000170: f36d c53d 11b2 90b9 fb04 20be 8a5f aebd
00000180: a510 34bd 83cf 21be e5e2 64bd 671c 113e
00000190: 72bc 6fbc c852 8f3e 5b43 413c eea6 71bd
000001a0: f2e5 42bd b27f 00be f8f0 943c 4a9e d33c
000001b0: 59fe 21be affb b9bd 953d 43bc 7bff 133e
000001c0: c6d9 b63d 342b bc3c b08c 8ebe d005 6f3e
000001d0: be32 a43b af25 2fbe 66d3 bfbd 57cd 6abd
000001e0: 816b 7cbc e754 bebd 656a bbbd 600c 4a3e
000001f0: 1479 1c3e 7351 883e ef8e 95bd 6ceb c13d
00000200: bbcc 7ebe 6a3c 963c a475 d43c 96bd 2e3d
00000210: bb6a 0f3e 8b41 2dbd 4cbb 973d b1e4 bbbd
00000220: f09e 453d 4d7c 723d e737 5abe 096a c33d
00000230: e9f1 cabd 02f8 69bd f96d c83d 422c 253e
00000240: b305 813d 7e99 cbbc f75f 60be 8be7 34be
00000250: b630 3f3e 0950 913d a790 08be 26a5 1e3e
00000260: 6ea8 15be 9332 543d 70b9 3dbd 3a4d b33d
00000270: cf83 77bc 7e78 ebba fdeb c5bd 2324 8fbd
00000280: 6f8d 113e 1e15 8fbd c85f febd 22d2 23be
00000290: 74bd b3ba 9294 6abe 56e4 853d 3aa6 36be
000002a0: 0ac5 05be 58fb 85bd ead6 82bc d803 8e3d
000002b0: e7ed c93d 72c2 b33a 631e abbd 9d77 083c
000002c0: 43ab fe3d dbe3 f73d 2c56 c33d e32f ecbc
000002d0: 18e7 623d 4286 abbb 53e2 e2bc e5f1 a53d
000002e0: 7f9c 11bc daed 713e 1da0 7c3d 834e 1cbe
000002f0: 57e6 b63d b1f2 893b 6a9a a5bd a9a9 0d3d
00000300: 6817 7ebd c471 a43d 2501 813d 8d97 2ebd
00000310: 3627 123e 4d9e e53a 4049 db3d 0217 fd3d
00000320: 0507 dd3d 4042 6fbd 926e 243d 44e8 023d
00000330: 31fb 853d f094 b73b decd 4dbc e418 fcbd
00000340: 8f6b 693e 2d4b 3c3b 6374 51bd d359 93bc
00000350: 7248 9fbb 0895 4abe 4fdf b4bc dbc7 e0bd
00000360: 5bcc 183d d144 233e 098b 473e 6bc0 39bd
00000370: 2dae c03d f500 0a3d 5460 e03d 439d 6f3c
00000380: 9d5e 3bbd 11ce 57be 5437 b43c f231 3dbe
00000390: 0546 3cbd 5384 8ebe 6673 a03d 30d7 483d
000003a0: b1ef babd f3cc edbd 0e25 013e fd57 95bc
000003b0: f8f0 b4bd 2c21 193d e5f6 e3bd dd1b c8bd
000003c0: b745 873a 64f1 283d 1053 0bbc 0da9 1ebe
000003d0: 4328 51be b236 ad3d 7649 9f3d 0164 543c
000003e0: d5a3 323d 8a58 bebd 86ed 043e 128a e9bd
000003f0: 5a6d c53b e776 853e 8904 aabd cd0b d7bb
0.047256477 0.10455412 -0.18306607 -0.08254371 -0.039842244 -0.09321316 -0.12672676 -0.15945293
0.06839945 -0.047982436 0.08334275 -0.03284829 -0.21777458 -0.07195098 -0.11689929 0.10684547
0.19216424 -0.0102817025 0.095722035 -0.24523845 -0.007921204 0.11187385 -0.17682685 -0.13319872
0.08295586 -0.1411377 -0.005276526 -0.008045141 0.19315231 0.029032076 0.076022565 0.07860695
0.1581536 0.04104236 -0.051821813 0.0858983 -0.17068721 -0.16134183 -0.04760889 -0.043471567
-0.035043962 -0.040596135 -0.04365066 0.08471115 0.024521573 0.039536145 -0.07184798 0.02043257
-0.012522232 -0.09343839 0.22025326 0.15696616 -0.21073504 0.043819774 0.26960835 0.1267799
-0.26709387 -0.043389276 0.1377345 -0.03264294 0.055150885 0.10536363 0.04961155 -0.086341046
-0.12658189 0.073480934 -0.04325823 0.16045113 -0.06062958 -0.01774302 -0.17865518 -0.056410197
0.07242671 -0.20384821 -0.091194995 -0.25310904 -0.092352785 0.04225723 0.09116391 0.081061594
-0.015654838 0.17221938 0.051113497 0.060986094 0.19070268 -0.016790414 0.26093572 0.011848562
-0.16747981 0.056006815 -0.08899994 -0.010221503 0.09640112 -0.0002759849 -0.156269 -0.085143164
-0.043961186 -0.15801816 -0.055880446 0.14170991 -0.014632331 0.27992845 0.011795844 -0.058997087
-0.047582574 -0.12548712 0.01818131 0.025832314 -0.15819682 -0.09081208 -0.011916538 0.14452927
0.08928256 0.02296982 -0.2784171 0.23342061 0.0050109318 -0.17104219 -0.09366493 -0.057324734
-0.01540649 -0.092935376 -0.091511525 0.19731283 0.15280563 0.2662464 -0.07302653 0.09468731
-0.24882786 0.018339355 0.025935002 0.042661272 0.14005558 -0.042298835 0.07408771 -0.09174479
0.048247278 0.059200574 -0.21310388 0.09541709 -0.09909422 -0.057121284 0.097866006 0.16130164
0.06299915 -0.024853464 -0.21911608 -0.17666452 0.18670925 0.070953436 -0.1333643 0.15492687
-0.14615032 0.051806044 -0.046319425 0.08754964 -0.015107109 -0.0017964987 -0.09664152 -0.069893144
0.14214109 -0.0698645 -0.124206126 -0.15998128 -0.0013713078 -0.22908238 0.06537692 -0.17836848
-0.13063446 -0.06542081 -0.01597162 0.06934327 0.098598294 0.0013714565 -0.08355405 0.008329299
0.12435009 0.12104007 0.0953792 -0.028831428 0.05539617 -0.0052345106 -0.02769581 0.08102778
-0.008887409 0.2362589 0.061676133 -0.15264325 0.089306526 0.0042098393 -0.08086093 0.03458563
-0.06203404 0.080295116 0.062990464 -0.042625 0.1427277 0.0017518491 0.10707331 0.12357904
0.107923545 -0.05841279 0.04014451 0.031959787 0.065420516 0.0056024715 -0.01256129 -0.12309435
0.22794937 0.0028731332 -0.051136386 -0.017987167 -0.004860931 -0.19783413 -0.022079138 -0.109756194
0.037304264 0.1594422 0.19486631 -0.04534952 0.094082214 0.03369232 0.10955873 0.014624896
-0.045744527 -0.21074702 0.021999039 -0.18476084 -0.045965213 -0.2783533 0.078345105 0.049033344
-0.09127749 -0.116113566 0.12611791 -0.018230433 -0.08835024 0.03738515 -0.11131076 -0.097709395
0.0010320459 0.041245833 -0.00850369 -0.15494175 -0.20425515 0.08457698 0.077776834 0.012963296
0.043613274 -0.09294231 0.12981233 -0.11403288 0.0060249986 0.26067278 -0.08301646 -0.006562686

network_body._body_endoder.seq_layers.2.bias f4 [256]
00000000: 34e3 2f3e 776e 523d 4d94 47be eeaf 5b3d
00000010: 6a44 fa3c 51f3 25bc 1b5d e83d d834 fdbd
00000020: e872 1a3e dbb2 6f3d 7edf 6b3d f27a 433c
00000030: 7b70 05bc 4ab5 cfbd 553b f2bc ffb5 50bc
00000040: dbd8 eb3c 9802 09be 530f 94b9 aa42 a03d
00000050: 4927 2ebd d6ce b7bb 194f 89bd 4bc1 103e
00000060: 72c7 27be 5fd3 033d 9a96 a6bd f887 bdbd
00000070: 9aa1 b53d a8e4 213d bb70 073d 1e94 813d
00000080: 1636 db3d dd2b 9fbd b055 56bd 79dd 8e3c
00000090: 55b4 00be 1e9c af3c e81a 1d3e 8991 ffbd
000000a0: 7ebe 1cbd c72d b3bc 597e e53d 2f8a 3dbd
000000b0: aebc 083e cc96 b7bc f8a9 163c 4d92 e73d
000000c0: d4e0 30bd 425f d0bc 1c45 8c3c e4b7 18be
000000d0: d639 963b e6a2 ad3c 7737 263d 0f32 bfbc
000000e0: cf5d 6ebc 5031 923a 8172 32be a384 3bbe
000000f0: b54c 3cbe 41c1 44bd 3b53 763d 7dd4 14be
00000100: 0ff7 153d 9444 e9bb 790f 813c bdce e7bc
00000110: 34dc 283d 92e7 cebd 5983 773d 4674 b43d
00000120: 3456 cf3d 056e 9fbd 8004 343e ee55 82bc
00000130: 0b12 543d ddcc aabd aada 1cbe 9332 8d3b
00000140: 4c25 93bd 8514 4c3d 1e46 3a3e 6dca b5bc
00000150: 8576 7f3d f11e 50be 4722 2bbe f7c7 06bd
00000160: 1fc7 443c d10a f8bc 1a79 47be f59e 15bd
00000170: 5d06 d83c 9f5e eabd 24ea 41bc c3a3 96bd
00000180: 86ef e63d 3d41 fcbb 7765 79bd 1ea1 33be
00000190: 9c65 743d 50e4 00bd 3b83 203e 5d06 0e3d
000001a0: 2c9e af3d d3ef eebc 4275 6ebd e111 ce3d
000001b0: 11b0 69bd 1136 bc3d fe41 29be faf5 d6bc
000001c0: 4854 4bbe bf52 a5bd 7ef0 913d 019d 933d
000001d0: d9d5 ca3b 2638 eb3b 5dc5 f2ba 131f 67bd
000001e0: 4869 4f3a 7f85 ce3d d495 cf3c 64f5 36be
000001f0: aeba e93c 4934 813e a798 bc3d 20fa 16bd
00000200: 7385 453e ba6f 54bd 39bd c3bc a94f e73c
00000210: 9da8 93bd 40a3 8f3d 9f20 643e 0a8b 593c
00000220: 3595 933d 4d3f b53c e44b 53bd 3dbc c9b9
00000230: 3b2f 103b 72ce 3cbd f8bd e5bd 77a4 0dbe
00000240: 88a4 0d3e 5343 d63d ed3a 26be a827 273c
00000250: 159d 783c 8c68 5fbd 14d2 2f3e d59a f3bb
00000260: 8e02 e7bc 65d8 d0bd ad2f 333d 936c 613d
00000270: 3fc2 923e 97a7 bbbd 613b 6f3d 8aae 683d
00000280: d5c0 f43d fe62 b03c 61bb d23c 6da3 eabd
00000290: 9974 673d 1530 8c3d 53fd 23be 3fca fabc
000002a0: 00ee 183d e9ec 1d3b 509e 6e3c a0a1 8cbd
000002b0: 3560 02be 5809 bbbd f6ea 2abd 6602 923a
000002c0: e066 943d 8448 b9bc ba40 e0bc 5b52 48bd
000002d0: 9ce1 33bd 5d46 4cbe 339e 1cbd f7c8 1d3c
000002e0: 4f3d 3b3d 0675 2cbe 2302 1abe 707a ffbb
000002f0: d682 a5bd 36d3 78bd 9531 373d 5b9f 8f3d
00000300: 6ac2 663d 8eed 493d a91e 003e f9e3 ffbd
00000310: d1a7 3c3c 5aa8 6a3d b74d 503e b755 003d
00000320: 6eb9 27be 7ece 4c3d bb1a f6bc 214c 38be
00000330: ceec 1fbe 6a39 2abc 5f39 83bb f9b3 d43b
00000340: a3d5 1b3c c53a 103e 8a45 cabc c7dd 823e
00000350: 3930 a8bb a27b ffbc 1833 a63d eafe 203e
00000360: bf08 563d 04ab bc3d 52bd efbc 9be7 fdbb
00000370: 700b adbd 8644 3f3d 2d9c 333d 8014 9cbd
00000380: 6f5e 933b 3b99 4cbe 3517 293d 5555 00be
00000390: 96f1 813c 03a4 c13b 3700 d1bc 7396 433d
000003a0: f623 803e 7c65 083e d83c e9bd 96b0 87bd
000003b0: b26c c3bc d83f c5bc a92e 2e3e fa47 023e
000003c0: 5958 5dbe 1493 b7bd 3713 fcba 5ad4 0cbe
000003d0: c43b d43d 6edf 913c b99e 393e 2bc6 913d
000003e0: cfec 323e f712 27be e26c e43d 4e10 75bd
000003f0: 1f5f 49bd 51b3 89ba 1008 1bbe 6a76 e5bd
0.17176515 0.05137488 -0.19490166 0.053634576 0.0305502 -0.010128812 0.113458835 -0.12363595
0.15082896 0.05852018 0.057586186 0.011931168 -0.008144493 -0.10142 -0.029569307 -0.012738704
0.028789928 -0.13379896 -0.00028240177 0.07825215 -0.042517934 -0.0056093736 -0.0670454 0.14136235
-0.16384676 0.032184 -0.08134194 -0.092544496 0.08868714 0.039524704 0.033066493 0.06327079
0.107036754 -0.07772038 -0.05232781 0.01743959 -0.12568791 0.021436747 0.15342295 -0.124789305
-0.038267605 -0.021872414 0.112057395 -0.04627436 0.13353226 -0.022410773 0.009195797 0.113072015
-0.043183163 -0.025436047 0.017122798 -0.14913899 0.0045845313 0.02119584 0.04058024 -0.0233393
-0.014548733 0.0011153612 -0.17426492 -0.18312316 -0.18388636 -0.048035864 0.06013797 -0.14534183
0.036612567 -0.007118771 0.015754448 -0.028296823 0.041225627 -0.10102762 0.060427997 0.0881124
0.10123864 -0.077846564 0.17579842 -0.015910115 0.05177502 -0.08339856 -0.15317789 0.0043090074
-0.07184848 0.049824256 0.1819081 -0.02219125 0.06236889 -0.20324303 -0.16712295 -0.032905545
0.012010365 -0.030278595 -0.1947979 -0.036528546 0.026370222 -0.11443829 -0.011835609 -0.07355454
0.11276154 -0.0076982067 -0.06088778 -0.1754193 0.059667215 -0.031467736 0.1567506 0.034674037
0.08575091 -0.029167091 -0.058217295 0.10062004 -0.057052676 0.0919 -0.1652908 -0.026240338
-0.1985637 -0.08072423 0.07125948 0.072076805 0.0061900434 0.0071783243 -0.0018521954 -0.05642612
0.00079121115 0.10084056 0.025339998 -0.17867047 0.028531399 0.25235203 0.092088036 -0.03685963
0.19289188 -0.051864363 -0.02389394 0.028236227 -0.07209895 0.07013559 0.22278069 0.013277778
0.07206193 0.02212491 -0.051586047 -0.00038477956 0.0022000808 -0.04609532 -0.11217874 -0.1383227
0.13832295 0.1046206 -0.16233416 0.010202326 0.01517417 -0.054543063 0.17169982 -0.007434229
-0.02819946 -0.10197524 0.04374664 0.055035185 0.28663823 -0.091628246 0.058406238 0.05680708
0.11950842 0.021531578 0.025724115 -0.11456952 0.05650768 0.068451084 -0.16014604 -0.030614017
0.03733635 0.0024097508 0.014564112 -0.06866765 -0.12732013 -0.091326416 -0.041727982 0.0011139631
0.07246184 -0.022617586 -0.027374614 -0.048906665 -0.04391633 -0.19948716 -0.038236808 0.009630433
0.045712765 -0.16841516 -0.15039878 -0.007796578 -0.080815956 -0.0607483 0.04472502 0.070128165
0.05633775 0.049298815 0.12511696 -0.12494654 0.01151462 0.05728946 0.20342146 0.031331744
-0.1637933 0.050001614 -0.030042043 -0.17997791 -0.15617678 -0.010389665 -0.004004642 0.006491181
0.009511384 0.14084919 -0.024691362 0.25559828 -0.0051327017 -0.031186882 0.08115214 0.15722242
0.052254435 0.09212306 -0.02926508 -0.007748557 -0.08449447 0.04669621 0.043850113 -0.076210976
0.0044973413 -0.19980328 0.041281898 -0.12532552 0.015862267 0.0059094443 -0.025512798 0.0477509
0.25027436 0.13319963 -0.11388558 -0.06625478 -0.02385554 -0.024078295 0.17009987 0.1272277
-0.21615733 -0.089636 -0.0019231801 -0.1375288 0.10362962 0.017806735 0.18126954 0.07117876
0.17473148 -0.16315828 0.1115358 -0.059830002 -0.04916298 -0.0010505711 -0.15139794 -0.11204226

action_model._discrete_distribution.branches.0.weight f4 [3, 256]
00000000: 1922 79bd 512a 573c 9ed2 113d ed72 203e
00000010: 2d12 de3c 4056 db3c 8d61 cabd bb11 31be
00000020: e83a 81bd ff30 043e 99f4 883c b5c9 533c
00000030: 2acc b3bd 94b1 4fbc adce 5bbc 9d1c 95bb
00000040: 71d4 a0bb 280d 47bb e01d bbbd e8c8 3dbc
00000050: 436c ffbd 7cae 17bd 16bb 9e3c a0fb c3bd
00000060: 358c ee3c 4d17 d5bc 5793 463b 378e 8bbe
00000070: 61ae b4bc 318e 6a3d 58c6 ecbd ed76 903e
00000080: 7161 953c 1832 3abd f885 273e 8a9b 88bd
00000090: ccdb 4abe 9312 7b3e 1a53 50bd feaf 653e
000000a0: b828 84be 0f1c d8bc 3490 7ebd be83 983d
000000b0: a63c 01bb d216 1fbc 089d 043e 1e06 86bd
000000c0: c339 bf3b 18a8 cfbe 949f cb3d 266c c2bd
000000d0: 503d 04bd d8c8 c53d d880 263c db61 0c3d
000000e0: dee7 523e 9897 a3bd eb25 e4bd 476f f93b
000000f0: b2bd 8dbd 8a9f 133d d2ea 023d 8ca9 ed3c
00000100: f3d5 de3a f4ef 83bc b125 1fbd 8067 57bd
00000110: 4d52 74bd e8c0 3abd ce2c 813d 2375 8abd
00000120: f850 093b ca5a 19be a471 b4bd 97b5 b73c
00000130: bc57 f938 44bf c3bd d9f6 b0bd 7ade 0f3d
00000140: 333c f5be e9dc 15bd 22bd 24bd 8521 9a3d
00000150: 1244 833c 4376 81bd 743c 893d aa8a e1bd
00000160: 5c70 c7bc 9d45 89bc a3bf 4ebe bd40 e43c
00000170: 5e12 183a c597 31be 1ac4 d23c cbc2 d7bc
00000180: 2121 95bd a454 fd3c 4694 8a3d b651 e83c
00000190: 36d3 d0bd acf0 733d daeb 40bc f30a 7abd
000001a0: 5db7 793b 6cd4 8cbc 69f2 4e3e 47e2 fabd
000001b0: ec20 90bd 9cb5 cfbb 53fc cebd dd1c 473d
000001c0: 94df 32bb d690 563b 1b76 24bb 5571 e43c
000001d0: 9166 cd3b 3d3d 383c 4df3 1ebd 2d5f e53c
000001e0: 1d6d a13d 52e9 89bc 9938 9abe 83bc 503d
000001f0: 2aeb 823d d719 5abd 3a4a e8bd 43d2 d1bd
00000200: fc0c c4bd 6a45 48bc 130d 0c3b dc7c c23c
00000210: 903c 613c 4d6c 03bd 6fad 4fbd c7a3 de3d
00000220: 4604 d0bb 26ef 9fbc bc9b c93d 166a 0cbd
00000230: bbde afbd a009 bdbc 3d21 b03d 403e bfbd
00000240: 965b eebb fd91 24bd 4cad fe3c 549e 2d3d
00000250: 7450 f2bc 29e2 36bc f221 6b3b e7b2 fcbc
00000260: 5e84 ec3d e02b 193e fc61 953d e679 5fbd
00000270: c3ee 873b 5df0 2cbc 28eb 1dbc 45d2 e63c
00000280: 028b 6fbd 0426 903d 3077 bf3d 1af4 e5bd
00000290: 9543 163a 3e8b 643d 3d4f 6f3b a36f 94bd
000002a0: d6ca a23e a7ec a93e bf11 db3d 0874 98bd
000002b0: 519e aa3d 3879 4dbe 51a5 b0be d8d0 90be
000002c0: e78a b03c 8a29 c23c 1f61 293c d61b aebc
000002d0: 1024 4fbe f51c e7bd 26e8 573d 6fb8 e5bd
000002e0: c57c bbbc 31b7 5bbe 60c0 d43b 3978 f4bd
000002f0: 8ff9 e5bd e300 48bd 927d 863d a746 823d
00000300: 1208 38bd aed0 9cbd f70e f3bb bb92 3fbd
00000310: 9fd3 9b3c 3a09 23bd 265a 45bd be4d 843d
00000320: c43d 183a d68b 24bd fc5a e1bc ec2d 673d
00000330: f2cb 9fbc 42a0 e83c 7697 1fbd fb43 a6bc
00000340: 846c 52bd 4d3e 143e cb6b d73d 501d 35bd
00000350: 5c49 68be 4342 1b3d 80ae 08be 2002 03b9
00000360: bee1 52be 6e7d dd3c a087 00bd d199 3f3e
00000370: 021f da3c 7f80 633d 3257 c93d c846 813d
00000380: b451 cc3c 7c6c 403e d710 8fbc faa3 b63e
00000390: 5617 b2bd d63c d33d 4ef7 77bc aef2 cd3c
000003a0: 92d9 f6bc f00b edbd 116a 27be 8d92 c6be
000003b0: cf1a 913d 0a55 923d cbb1 d1bd ec74 06bd
000003c0: 3684 043e 47c1 713c 6a30 0abc 3d12 603d
000003d0: b88e d73c 4e2a 8d3d 111c 5abd dcae a03c
000003e0: 4287 da3c aff9 2c3d 1a29 b63d b13c 9abd
000003f0: 750a abbc 060f cabe c0b5 893e 18ed 833e
-0.060823534 0.013132648 0.03560125 0.1566884 0.027108276 0.026774526 -0.098818876 -0.1729192
-0.063100636 0.12909316 0.016718196 0.012926509 -0.087791756 -0.012676615 -0.013415975 -0.00455053
-0.0049081375 -0.0030372832 -0.091365576 -0.011583544 -0.12471821 -0.037031636 0.019376319 -0.09569478
0.02911959 -0.026012087 0.0030300224 -0.2725694 -0.022055807 0.05726451 -0.115612686 0.28215733
0.01823494 -0.04545793 0.16359699 -0.06670292 -0.19810408 0.24518804 -0.0508605 0.22430417
-0.25812316 -0.026380567 -0.06214924 0.07447003 -0.0019719987 -0.009710031 0.12950528 -0.065441355
0.005835743 -0.40557933 0.099425465 -0.09493284 -0.032285035 0.096574485 0.010162555 0.03427301
0.20596263 -0.079878986 -0.11140045 0.0076121422 -0.06920947 0.03604082 0.031962223 0.02901151
0.0017001018 -0.01610563 -0.038854305 -0.05258894 -0.0596488 -0.045594126 0.06307374 -0.06760623
0.0020952802 -0.1497604 -0.08810738 0.022425456 0.00011889587 -0.095579654 -0.086408325 0.03512428
-0.4789749 -0.03658763 -0.040219434 0.075259246 0.01602367 -0.06321385 0.06700984 -0.11012776
-0.02434557 -0.016756827 -0.20190291 0.0278629 0.0005801077 -0.17343052 0.025728274 -0.026338002
-0.072817095 0.030924149 0.06766562 0.028359275 -0.10196535 0.059555694 -0.011774981 -0.0610456
0.0038103678 -0.017191134 0.2020966 -0.1225019 -0.07037529 -0.006338788 -0.10106721 0.04861151
-0.0027293907 0.0032740138 -0.002509481 0.027886072 0.0062683304 0.011245069 -0.03880625 0.027999485
0.0788214 -0.016834889 -0.30121306 0.05096103 0.0639251 -0.0532473 -0.113422826 -0.10245182
-0.09572789 -0.012223581 0.0021370098 0.023741178 0.013747349 -0.032085706 -0.05070251 0.10871082
-0.0063481657 -0.019523215 0.09844157 -0.03428086 -0.08587404 -0.023075879 0.0860009 -0.09338045
-0.0072741015 -0.040178288 0.031088494 0.04238732 -0.029579379 -0.011162319 0.0035878387 -0.030847026
0.115486845 0.14958143 0.0729408 -0.05455961 0.0041483357 -0.010555354 -0.009638585 0.028176436
-0.058482178 0.07038501 0.09348905 -0.11228199 0.00057321164 0.055796854 0.0036515736 -0.072478555
0.31795377 0.33188364 0.10696744 -0.07444006 0.08330978 -0.20065773 -0.34501126 -0.28284335
0.021550609 0.023701448 0.010338097 -0.021253508 -0.202286 -0.1128482 0.05271163 -0.112168185
-0.022886643 -0.214566 0.0064926594 -0.11936993 -0.1122924 -0.04882897 0.065669194 0.06361132
-0.04492957 -0.0765699 -0.0074175554 -0.046770792 0.019021807 -0.03980372 -0.048181675 0.06460141
0.00058075436 -0.04017242 -0.027509205 0.05644028 -0.019506428 0.02839673 -0.038962804 -0.020296087
-0.05137302 0.14476891 0.10518607 -0.044217408 -0.22684234 0.03790499 -0.13347816 -0.00012493925
-0.20593926 0.027037349 -0.031379342 0.1871102 0.026626114 0.055542465 0.09831084 0.063123286
0.024941303 0.18791384 -0.017464085 0.3567198 -0.08695857 0.10314338 -0.015134646 0.025140133
-0.030133042 -0.115745425 -0.16349055 -0.38783684 0.070851915 0.07145126 -0.102389894 -0.03282635
0.1294106 0.014755554 -0.008434394 0.054704893 0.02631317 0.068928346 -0.053249422 0.01961463
0.026675824 0.042230304 0.08894558 -0.07531107 -0.02087901 -0.39464587 0.26896477 0.25766826

action_model._discrete_distribution.branches.0.bias f4 [3]
00000000: 51e2 89bb 4728 b83c e935 76bc
-0.004207887 0.022480143 -0.015027502

action_model._discrete_distribution.branches.1.weight f4 [3, 256]
00000000: 1825 a03c 5623 0bbd 14c7 f0bc cf8e d93c
00000010: 6410 823c 65db c43c 6d6d 86bc d92e 7b3c
00000020: 6229 f93c 4178 133c 12f6 3cba f144 b2bb
00000030: da75 9ebb c94e bbbc 9e31 b93c 565b 98bb
00000040: b32a 10bd fbf8 fe3c a553 6ebb 3a92 d73c
00000050: 9d50 ea3c 0887 c7bd a631 c5bd 6250 883c
00000060: 5708 0b3c 9e02 0c3d 9ae4 3dbc 27fa b6bc
00000070: c404 373c 4cea 27bd d8ed f73c bf1c 253d
00000080: 6e32 9fbb 7548 4abd 6b39 15bc 98dc 033c
00000090: 7246 713b e290 8f3c 4780 933c a8dc 92bb
000000a0: 5575 abbc d1b9 683b a185 d9bb 7ab2 f03b
000000b0: bd8a 56bc f57d b73c fcf8 29bd b45b a03b
000000c0: daa7 0dbd cf36 60bd 3146 80bb c339 e3bb
000000d0: 2c4e ec3c a1e1 543d efee 93bd 99d1 18bc
000000e0: 07ff cdbc b7d5 c1bb f42b 0bbd f629 eabc
000000f0: 893c 88bb 8328 c43a e896 11bd c18b e0bb
00000100: 0e4a d7bc 9975 31bd 8f08 a53c 24a2 023d
00000110: 514e 9d3c 66f2 3abd 9246 c93c 4a94 edbb
00000120: 4ac0 cdbc 6986 973c 7543 493c f807 2abc
00000130: 79c7 3c3d c1db 41bd 52b2 8ebd a20d 973c
00000140: 40dd 13bd 5a40 823d b546 873c 2a00 60bd
00000150: d841 453c 8c8c 12bd ce90 c03b 7a08 33bd
00000160: af95 6a3d 24e1 313d 2f87 75bd f64a 353c
00000170: ce85 d7bc 3af6 c53b 60c5 e23d 4b5e 98bd
00000180: 1738 db3b 2dae 8b3d ad38 a73c 765c 27bd
00000190: a3cf 513d ede1 9ebd 3797 063d 2975 f3bc
000001a0: 8605 643d d3cb 38bd 14aa 1fbc 3383 80bc
000001b0: f822 ad3c 9c2d d83b 39e7 f83b 6187 3fbc
000001c0: 43bc 7bbc 4b0f d33b 8d7c 513d eb12 96bc
000001d0: fa5e 1d3d 92c9 953c 7357 f83c b743 6bbd
000001e0: 3541 b2bc 066a 0e3d 02d4 7d3d 4e64 a3bc
000001f0: 9ee2 1a3c 2428 523d 96d7 f2bc 6c9a a4bc
00000200: e816 a33c 8ef8 18be 55cf 9bba 769c 4e3b
00000210: 6af3 cdbc d35b 203c a0e7 913b 6a89 803c
00000220: b767 ec3b 8fa6 a3bc 47ec 54bc 0898 3bbd
00000230: 82e5 e7bc d73f 99bc 1521 223c 311e 8fbc
00000240: d109 353d 8560 c33c d545 2cbd dfb4 f13b
00000250: 6946 043b df7a 9b3b cb54 be3c 450d f7bc
00000260: 40e1 123c b04a 01bd 2f9e b23b e95c 0b3d
00000270: d731 e73c 9d61 023c 8d17 4f3c df97 383d
00000280: 38ed 2f3c 8586 4cbd f113 353b f21c 5e3d
00000290: 781d 193e 1fef b8bb 691f afbc ea81 ccbb
000002a0: d318 4e3c 3eba 673c 2c5a 66bc e2ca fd3c
000002b0: e39d ddba 8cbb 3cbd f0c6 703d 8850 683c
000002c0: 1ce6 8bbc 5e5a 70bc da66 2ebd 81fb f13c
000002d0: 4d7b 5dbc 2ba3 85bc 129a d4bc 1ed4 d9bb
000002e0: 1f2b b6ba fe32 53bd f446 8e3b 16f9 3f3c
000002f0: 0623 14bc f2ad d63c 7b0d 323b addc 0e3d
00000300: f762 413d c4d5 5a3c 07f3 b43c a2aa bdbc
00000310: b852 023d 12b9 793c be4b 143c b195 7d3d
00000320: f284 9fbc 6f53 54bc 3fab b53c 8ac5 a43a
00000330: c42b 03bc 2a9d 283c ac05 06bd 008c febc
00000340: 26d2 6a3c 25aa e73c 0186 b5bc 0a8d 063d
00000350: 1ee0 41bc 4c9c 2fbd 084b 1b3d e976 173d
00000360: 8ed6 b5bc 8f35 c4bc 3708 6e3d c4aa 473c
00000370: 6923 9cbd 112d 613c 9478 5b3c c6aa 87bc
00000380: a4ee 073d 1596 2cbd e69c 2abd f3e2 17bd
00000390: bd6a cb3b 02ed d0ba f939 3a3d b0af 133c
000003a0: 3287 6f3d 3b0a b2bc 07b1 833c 87e8 c8bb
000003b0: 50b7 45bc 2713 063d 9f69 b1bc ce41 123d
000003c0: 69dc cebc a07b aebc bd68 fbbc eb7b 83bc
000003d0: 2a40 9b3b bdfd 9dbd 8a1d 88bc 639c 93bc
000003e0: c524 e6bc ac5e 75bc 0c62 113d 7ec4 b0bc
000003f0: b469 c43c ef81 9fbc 6f44 81bc 0e6f 87bc
0.019548938 -0.033969246 -0.029391803 0.026557354 0.015876956 0.024030397 -0.0164096 0.015330994
0.03041524 0.009000839 -0.0007208298 -0.0054403474 -0.0048358263 -0.022864716 0.022606667 -0.00464956
-0.03519697 0.031124583 -0.0036365774 0.026314843 0.028602893 -0.09742552 -0.0962861 0.016639892
0.008485875 0.034182183 -0.011590147 -0.022336079 0.01117057 -0.040994927 0.03026478 0.040310618
-0.0048583066 -0.049385507 -0.009107928 0.008048199 0.003681567 0.01752514 0.018005503 -0.0044818707
-0.020929972 0.0035511146 -0.0066382443 0.007345495 -0.013094601 0.022398928 -0.041497216 0.0048937444
-0.034583904 -0.05473977 -0.0039146175 -0.006934376 0.028845869 0.05197299 -0.07223307 -0.009327316
-0.02514602 -0.0059153694 -0.033977464 -0.028584462 -0.004157607 0.0014965687 -0.035544306 -0.0068525975
-0.02628043 -0.04332504 0.020145683 0.03189291 0.019202383 -0.045641325 0.024569783 -0.0072503434
-0.025116105 0.018496709 0.012284149 -0.010377876 0.04608867 -0.047328714 -0.06967606 0.018439118
-0.036099672 0.0635993 0.016513208 -0.054687656 0.012039624 -0.035778567 0.005876637 -0.043709256
0.057271656 0.0434276 -0.059943374 0.011065235 -0.02630892 0.0060413154 0.110728025 -0.0743986
0.006690036 0.06820331 0.020412767 -0.040859662 0.05122341 -0.07757936 0.032859053 -0.029718952
0.05566933 -0.045116257 -0.00974514 -0.01568756 0.021134838 0.006597234 0.0075959233 -0.011689992
-0.015364709 0.006441032 0.05114417 -0.018319568 0.038420655 0.018284593 0.030315137 -0.057437625
-0.021759609 0.03476908 0.061969765 -0.01994529 0.009453444 0.051307812 -0.029643815 -0.020093165
0.019908383 -0.14938566 -0.0011887351 0.0031526363 -0.025140483 0.009787518 0.0044526607 0.015690524
0.007214512 -0.019976882 -0.012995786 -0.045799285 -0.02830768 -0.018707199 0.009895583 -0.017470451
0.044198815 0.023849735 -0.042058785 0.007376298 0.002018357 0.004744872 0.023233792 -0.030157695
0.008964837 -0.03156537 0.005450986 0.034024153 0.028222008 0.007957843 0.012639892 0.04506671
0.01073771 -0.049932975 0.0027630294 0.054226823 0.14952648 -0.00564374 -0.021377282 -0.006241073
0.012579161 0.014143525 -0.014059585 0.030980531 -0.0016908016 -0.046077296 0.05878347 0.014179356
-0.017077498 -0.014669983 -0.042578556 0.029538872 -0.013518167 -0.016313156 -0.025952373 -0.006647601
-0.0013898349 -0.0515623 0.0043419544 0.011717102 -0.009041553 0.02620599 0.002716868 0.03487842
0.04721352 0.01335663 0.02208854 -0.023152653 0.031817168 0.015241878 0.0090512615 0.061910335
-0.019472573 -0.012959345 0.022176383 0.0012571078 -0.00800604 0.010291377 -0.032720253 -0.031072617
0.01433233 0.028279373 -0.022158625 0.03284935 -0.011833219 -0.042873666 0.037913352 0.036978636
-0.022197034 -0.02395132 0.058113303 0.01218671 -0.076239415 0.013743655 0.013395447 -0.016560923
0.03318657 -0.042135317 -0.041653536 -0.03708167 0.0062077926 -0.0015939774 0.045465443 0.009014055
0.05847854 -0.021733394 0.016075624 -0.006131235 -0.012067631 0.03273311 -0.02165681 0.035707287
-0.025251584 -0.021299183 -0.030689592 -0.0160503 0.0047378736 -0.07714412 -0.016615648 -0.018018907
-0.028093705 -0.014976185 0.035493895 -0.02157807 0.023976184 -0.019471137 -0.015779702 -0.016532447

action_model._discrete_distribution.branches.1.bias f4 [3]
00000000: cdad 633d 7ebd db3c 5807 a9bd
0.05558567 0.026823755 -0.08253354

action_model._discrete_distribution.branches.2.weight f4 [3, 256]
00000000: 8f33 dd3d 3dd4 553c 3c76 80bd bbf9 de3b
00000010: 320b 0f3d c416 913d 7b47 1c3e a502 3bbd
00000020: a6fd f13d a574 a2bd 6c74 b2bc ffd1 4abd
00000030: 737e 703d 2cf4 9dbc 6b4a 41bd 8193 89bc
00000040: 582c fdbd 528a 87bd bbd6 903c ed01 323e
00000050: d41c 923d 1b81 dfbc 759e 90bc 6edb 123d
00000060: 95e8 113d 747a a93d 07f7 56be 8476 76bc
00000070: 281f 51bd 8423 a2bd 69fb a43d 0c49 1cbd
00000080: abf3 123d 7b7b 913d 826e bdbc 4d24 e53d
00000090: 9fec 0d3c 06f2 12bd 1567 a13d 2278 03bc
000000a0: 5c53 7dbb 377b ca3d 3100 803d 9675 083d
000000b0: 6c75 473d d2aa 4f3d f212 a1bd 36b0 733c
000000c0: ce00 013c 36f5 743e d887 133d 1034 f43d
000000d0: c68f 593b 8eee a3bd f676 eabd d51a 9a3c
000000e0: ee6c 83bd 4efa 833d 7608 57bd 69d1 26bd
000000f0: 797e a63d 7aca 5ebd 8fbf d0bd b636 503c
00000100: 1e3a cb38 d7d9 4abb c184 4a3d 7ca7 71bb
00000110: 73f5 e13d 489e 173e fe5a 21bd 7a6c 92b9
00000120: 57be fdbb 4ee5 ce3d 3121 4e3c 7800 de3c
00000130: c768 a5bc 2139 2e3d 7990 b43d fc2d c9bd
00000140: b6dc 253e 7d72 833d d097 073c 35ff 873c
00000150: d1c3 d13c 4c65 cebd 04c8 ccbc fe7a a03d
00000160: d75e c53d 067f f33c 56f5 603c a11f fbbd
00000170: cdb3 c73c e97c 5fbd c75a cfbd 2272 11bc
00000180: 1f5c e63c 1282 2b3c fd12 f73c 3155 02be
00000190: 5687 c93b 4ffa 013e 493b 303e ee51 9e3d
000001a0: 9c46 1dbd 8870 0e3d ddc0 c7bd 2bbe 7b3d
000001b0: 1283 d7bd 9e0e 743d bd3c a73c 818e 9e3d
000001c0: 2107 e7bc 3cd6 443d 50e0 523c 092f 143d
000001d0: 0f84 a23d 5201 febd ee7e fdbc 7dc9 01be
000001e0: 2440 d0bc 2865 8f3d 14a3 493e 413f 68be
000001f0: 0cdb 493c 92da 013d 6c7c 0c3e 50ca 983e
00000200: bdc6 a93d 1a39 afbd cdcc d53d 6b32 49bd
00000210: a09c e83d 8967 4a3d 8431 6a3c 94b4 903d
00000220: 0ece bebd 13ba 2c3e 2c93 82bd a18c 1bbd
00000230: 6e65 d13d 8789 1a3d 7d2d 48bc 1fd4 b13e
00000240: 63c2 10bd 9cf0 e93d 4269 65bd cbfb d0bc
00000250: 4ef4 b43d 07dc 66bd 24b4 ef3d 2f11 c43c
00000260: f6ef b3bb a009 ffbd d22a 3f3d dd9b fcbc
00000270: 9a15 343d 4cf2 d8bd 4f6f 2c3d 77bb 40bb
00000280: f0e4 063d f2ac 89bd 76d8 8dbd cbc1 0abe
00000290: e7d9 3cbd b7c7 5ebb adc4 043d 571e cf3d
000002a0: 9476 88bd 8af0 83bd 185c 3ebd 69a8 e73c
000002b0: e37c 3abc 4ca7 a23c e7aa 533e 9070 a73d
000002c0: 46e1 9bba 27a6 c0bc 66bb f13d 73a9 f2bc
000002d0: 3d72 fe3d 9957 dcbd 0c1d 29bc 6cdb 803e
000002e0: 8579 023d e00b ef3a 1272 973b ed0e cfbd
000002f0: 3b7a 8c3d 9a8d 86bd ceae 593c 9455 dbbc
00000300: 4d47 093d 6e00 2cbc 1c57 d43d 1dfb 3bbe
00000310: 2f25 3abd ea4f 813d 83e2 e13d 3cce d83c
00000320: 062c 89bd 7fbc 043d 818e 6a3d d62a b3bd
00000330: a8f3 acbb e8f0 c63d 4ccf 163d 0a1e 0c3d
00000340: 1f3c 313d c33d 21bc 682d 403c 1978 f23d
00000350: 02e4 f13c fd6a c4bc 10d1 a1bd 2d85 2b3c
00000360: 3e2d 2c3d 2808 1d3d 2fae 0dbd c425 963c
00000370: 9ab0 d43e d138 b63c c257 243d 547d 83bd
00000380: 719a 27bd 0b7c 1bbe 3965 193c 5587 2abe
00000390: eceb 263e d6c9 20be a3a5 21bd 36a5 273d
000003a0: 9a6f 453d 3cc6 253d ea0a ec3d 02e6 f03d
000003b0: 5c50 25bc dfa9 4cbd 72ea ea3d f2b1 cbbc
000003c0: 0241 84bd 766c 60be 41e1 d93c c3f1 09be
000003d0: b70d 893d 12b4 18bd f5a0 ab3d 759a 853c
000003e0: de2b 9abc 7510 17bc 59fc 083a 1927 f33d
000003f0: 0cfd 0abe cad6 703c 14dc 46be a44b 2abe
0.1080085 0.01305109 -0.062725514 0.0068046725 0.034922786 0.0708442 0.15261643 -0.04565682
0.11815958 -0.079324044 -0.02178403 -0.049516674 0.05871434 -0.01928147 -0.04719011 -0.016793968
-0.123619735 -0.066181794 0.017680516 0.17383547 0.07134405 -0.027283242 -0.017653683 0.035853796
0.035622198 0.08275309 -0.20992671 -0.015042905 -0.051055104 -0.0791693 0.08055765 -0.0381556
0.03587691 0.0710363 -0.023123983 0.111885644 0.008662372 -0.035875343 0.078809895 -0.008024247
-0.0038654422 0.098867826 0.062500365 0.033315264 0.048695967 0.050700016 -0.07864942 0.014873555
0.007873727 0.23921666 0.036018223 0.11923993 0.0033197268 -0.08004485 -0.11448471 0.018811623
-0.06417261 0.06444226 -0.052498303 -0.040727053 0.081295915 -0.054392315 -0.10192787 0.012708357
9.6906195e-05 -0.0030952597 0.04944301 -0.003687351 0.11033144 0.14806473 -0.039393418 -0.0002792811
-0.0077436375 0.1010233 0.012581156 0.027099833 -0.020191563 0.04253495 0.088166185 -0.09823224
0.16197476 0.06418321 0.008275941 0.016601184 0.025606068 -0.100779146 -0.024997719 0.07835959
0.0963723 0.029723655 0.013730368 -0.12261892 0.024377728 -0.054562483 -0.10124736 -0.008877309
0.028120099 0.010468023 0.030160422 -0.1272781 0.0061501665 0.12693141 0.17210115 0.077304706
-0.038397416 0.034775287 -0.097535826 0.061460655 -0.105230466 0.059584253 0.020414704 0.07742024
-0.028201642 0.048055872 0.012870863 0.03617767 0.079353444 -0.124025956 -0.030944314 -0.12674518
-0.02542121 0.07001716 0.19691116 -0.2268038 0.012320291 0.031702586 0.13719338 0.29841852
0.082898594 -0.08555813 0.10439453 -0.049120348 0.11357999 0.049415145 0.014294032 0.070656925
-0.093166456 0.16867857 -0.06375727 -0.03797591 0.10224424 0.037728813 -0.0122178765 0.34732148
-0.03534163 0.11422846 -0.056008585 -0.02551069 0.0883566 -0.05636218 0.11704281 0.023933975
-0.005491252 -0.12453008 0.046671696 -0.03083604 0.043965913 -0.105930895 0.04209834 -0.0029408613
0.032933176 -0.0672244 -0.06926052 -0.13550489 -0.046106245 -0.003399355 0.032414127 0.10113209
-0.06663242 -0.064423636 -0.046474546 0.028278546 -0.011382314 0.019855164 0.20670663 0.081757665
-0.0011892698 -0.023516728 0.118033215 -0.029621815 0.12424133 -0.107588954 -0.010321867 0.25167406
0.03185417 0.0018237792 0.0046217525 -0.10110269 0.06859251 -0.06569977 0.013286306 -0.026774205
0.033515263 -0.010498149 0.10368177 -0.18357511 -0.045445617 0.063140705 0.11029532 0.026465528
-0.0669785 0.032406326 0.05726481 -0.08748405 -0.0052780695 0.09713918 0.036818787 0.034208335
0.043270227 -0.009841385 0.011729576 0.11839313 0.029527668 -0.023976797 -0.07901204 0.010468763
0.042035334 0.038337857 -0.034589943 0.018328555 0.41540986 0.022243889 0.040122755 -0.06420389
-0.04091877 -0.15184037 0.009362512 -0.16653188 0.16300935 -0.15701994 -0.039464604 0.04092904
0.048202135 0.040472254 0.11525519 0.117626205 -0.01008996 -0.04996669 0.11470498 -0.024865124
-0.06457712 -0.21916375 0.026596667 -0.13471131 0.06692069 -0.037281103 0.083803095 0.016309002
-0.018819746 -0.009220232 0.0005225591 0.11872692 -0.13573092 0.014699647 -0.1941989 -0.16630417

action_model._discrete_distribution.branches.2.bias f4 [3]
00000000: 3a23 3f3d f09b b1bd 6a72 0e3d
0.046664454 -0.08672321 0.034777083
