ML-Agents/results/obs-from-ultimate-volleyball/Volleyball/Volleyball-8999252.onnx (onnx, 291918 bytes, 15 tensors)

discrete_action_output_shape f4 [1, 4]
3.0 3.0 3.0 2.0
00000000: 0000 4040 0000 4040 0000 4040 0000 0040

network_body.observation_encoder.processors.0.normalizer.running_mean f4 [11]
0.13296677 0.12058083 0.5447315 0.62769276 10.4290905 -0.017964544 0.1751109 -0.00075940404
-2.8827038 4.4014653e-10 -1.2390489e-10
00000000: 7128 083e 15f3 f63d 8673 0b3f 79b0 203f
00000010: 8edd 2641 612a 93bc 4650 333e be12 47ba
00000020: 387e 38c0 1ef9 f12f 203c 08af

network_body._body_endoder.seq_layers.0.weight f4 [256, 11]
-0.23633793 0.068464965 0.13299416 -0.5565023 0.2920154 -0.015132161 -0.19962667 -0.12078517
-0.1495839 -0.09749897 0.35371476 -0.26069933 0.12062659 0.539383 -0.9614859 0.45507807
-0.018967386 -0.15040232 -0.043274466 0.039152246 -0.060625203 -0.11496848 -0.053971022 -0.51428145
0.2558309 0.07227445 -0.54213226 -0.12852843 -0.18547389 0.4120256 -0.33859614 0.0568774
-0.38640118 0.2912694 -0.47642493 -0.148532 0.118092895 -0.07119743 0.0041061365 0.30593136
0.17691688 0.66228354 -0.1892919 -0.25392532 -0.098442346 -0.10251029 0.023403062 0.12957098
0.10794353 -0.014381371 0.11757125 0.513582 -0.5229076 1.0730252 0.77559954 0.48596284
-0.45587578 -0.100628026 -0.07300085 -0.57850087 -0.038830154 -0.1599857 -0.12975474 0.23649417
-0.07188429 0.09717149 0.15808502 -0.45787752 -0.45811573 -0.2364937 -0.023254313 0.085407056
-0.38090184 0.2342307 -0.0168601 -0.7028448 -0.38328072 -0.4635952 0.3311726 -0.12589309
-0.58945245 -0.2389227 -0.52586335 -0.35983407 0.13826026 -0.8720198 0.6202323 0.18740802
-0.28657696 0.7123812 0.26910195 0.019564634 -0.68764 0.01413241 0.048235323 0.011501414
0.19235544 0.3802841 0.12321287 0.103287295 -0.46397975 0.32901812 0.16542783 0.34027886
0.3356008 -0.34389052 -0.39314184 -0.2662042 0.2029203 -0.27072152 -0.104909785 0.46943218
-0.45397425 -0.3338427 0.19577602 0.31007 0.1448562 -0.30389392 0.27288428 -0.6763803
-0.07092167 0.14332296 -0.41635695 -0.42309257 -0.7728619 -0.61609405 -0.03451058 -0.2573723
-0.082773335 0.110989206 -0.7574223 0.040185932 0.2135755 -0.45861077 -0.20398602 0.5049152
0.22834405 0.467554 0.050000083 0.6220282 -0.061776403 0.40331274 -0.46508464 0.06964711
0.25083995 -0.36468408 0.16842042 0.18109356 -0.14137176 0.4429117 0.18547268 0.065506086
0.91090935 0.12937978 0.51373017 0.31228083 0.4256185 0.6943606 -0.1341031 -0.2151063
0.37695828 0.16892439 0.13742833 -0.28093332 -0.7973165 -0.54037297 -0.18176487 -0.46067208
0.8460104 0.56045413 -0.1289474 -0.42123926 0.37823457 0.013603881 -0.23959763 0.09472506
-0.44725433 -0.1723883 0.68378156 0.18916067 0.3748083 -0.52934176 0.2267866 -0.29149172
0.21220092 -0.57101285 0.2978512 0.3199241 0.007886201 -0.8353882 -0.06427303 -0.115873426
-0.44952682 -0.73177177 0.3756759 -0.21542208 -0.0049604266 0.24051586 -0.80051756 0.28051716
0.42884237 0.45996633 0.24333245 -0.21766227 0.28611058 0.5434707 -0.09807103 0.27141738
0.11154231 -0.2700241 -0.5570274 -0.27417263 -0.48924655 0.24228048 0.11528445 0.06510671
-0.075164564 -0.18751349 -0.275774 -0.100602455 -0.31076986 0.32623878 -0.4491141 -0.24236861
0.3018537 0.034522973 0.30291018 -0.33790126 0.28401932 0.20203823 0.21999416 -0.5866788
-0.23529954 0.56864303 -0.04731056 0.115102 0.31863338 -0.16056727 -0.402225 -0.32523733
-0.057230532 -0.0050871056 0.21241115 -0.36918283 -0.4771636 -0.15011697 0.33405334 0.07254647
0.12995195 -0.45569867 0.045160674 0.20581704 -0.4836634 0.4489313 -0.23311464 -0.4339747
00000000: 9202 72be 5c37 8c3d 9f2f 083e ef76 0ebf
00000010: 0b83 953e e2ec 77bc ef6a 4cbe 375e f7bd
00000020: 862c 19be 8aad c7bd 1a1a b53e 627a 85be
00000030: 130b f73d 0115 0a3f f123 76bf feff e83e
00000040: 7e61 9bbc 1103 1abe 9140 31bd 1b5e 203d
00000050: 2252 78bd 9874 ebbd b810 5dbd f3a7 03bf
00000060: 45fc 823e a004 943d 2ec9 0abf f59c 03be
00000070: deec 3dbe 05f5 d23e 795c adbe 47f8 683d
00000080: 60d6 c5be 4321 953e f8ed f3be c618 18be
00000090: b0da f13d f5cf 91bd c58c 863b 09a3 9c3e
000000a0: b329 353e 6a8b 293f bcd5 41be 8002 82be
000000b0: 249c c9bd eaf0 d1bd c7b7 bf3c 41ae 043e
000000c0: 7f11 dd3d d89f 6bbc 32c9 f03d 1c7a 033f
000000d0: 46dd 05bf e458 893f b18d 463f 1fd0 f83e
000000e0: 8d68 e9be 1116 cebd 7881 95bd a218 14bf
000000f0: 5e0c 1fbd 4bd3 23be 6dde 04be 872b 723e
00000100: 1238 93bd d901 c73d 0ae1 213e ec6e eabe
00000110: 258e eabe 682b 72be d47f bebc e5e9 ae3d
00000120: 9105 c3be 2cda 6f3e 311e 8abc a3ed 33bf
00000130: 5f3d c4be 5a5c edbe 748f a93e 1eea 00be
00000140: 5be6 16bf 27a8 74be fb9e 06bf 2c3c b8be
00000150: 1994 0d3e b13c 5fbf 8bc7 1e3f e3e7 3f3e
00000160: 37ba 92be 9d5e 363f bbc7 893e 0346 a03c
00000170: 2d09 30bf a08b 673c 6792 453d 6d70 3c3c
00000180: d3f8 443e 99b4 c23e 0757 fc3d 4a88 d33d
00000190: c18e edbe 1075 a83e ea65 293e 0839 ae3e
000001a0: ded3 ab3e 6b12 b0be e349 c9be eb4b 88be
000001b0: 57ca 4f3e 039c 8abe f1da d6bd 6a59 f03e
000001c0: 506f e8be 6eed aabe 8279 483e 7fc1 9e3e
000001d0: 2f55 143e fc97 9bbe 7db7 8b3e 4227 2dbf
000001e0: 613f 91bd 41c3 123e bd2c d5be 979f d8be
000001f0: 47da 45bf 57b8 1dbf f75a 0dbd 4dc6 83be
00000200: 1185 a9bd 4f4e e33d 6ee6 41bf 019a 243d
00000210: 89b3 5a3e 08cf eabe b6e1 50be 1f42 013f
00000220: 06d3 693e 3d63 ef3e e3cc 4c3d 3d3d 1f3f
00000230: 4109 7dbd 027f ce3e 931f eebe 25a3 8e3d
00000240: 186e 803e dfb7 babe 6776 2c3e 9770 393e
00000250: c2c3 10be 53c5 e23e 8dec 3d3e 0e28 863d
00000260: 5b31 693f 227c 043e d283 033f 46e3 9f3e
00000270: abea d93e 9ec1 313f 5352 09be d344 5cbe
00000280: ad00 c13e 84fa 2c3e 03ba 0c3e 7ed6 8fbe
00000290: ef1c 4cbf e255 0abf 9220 3abe 36dd ebbe
000002a0: 2394 583f ec79 0f3f ca0a 04be acac d7be
000002b0: f6a7 c13e d0e2 5e3c 1559 75be 36ff c13d
000002c0: 85fe e4be 8f86 30be 4f0c 2f3f 56b3 413e
000002d0: e0e6 bf3e f182 07bf bf3a 683e 673e 95be
000002e0: 334b 593e e62d 12bf f47f 983e 17cd a33e
000002f0: 2035 013c 00dc 55bf 94a1 83bd 0c4f edbd
00000300: 6128 e6be 6555 3bbf 9758 c03e 9b97 5cbe
00000310: 138b a2bb ca49 763e b8ee 4cbf f29f 8f3e
00000320: 3a91 db3e b580 eb3e 242c 793e dce2 5ebe
00000330: 167d 923e e520 0b3f 77d9 c8bd 38f7 8a3e
00000340: 4b70 e43d 9940 8abe 5999 0ebf 5b60 8cbe
00000350: 867e fabe 6018 783e 411a ec3d ab56 853d
00000360: e1ef 99bd 8903 40be 4032 8dbe a908 cebd
00000370: 3a1d 9fbe c508 a73e 49f2 e5be 7a2f 78be
00000380: 918c 9a3e f667 0d3d 0b17 9b3e 6501 adbe
00000390: fb6a 913e 1ce3 4e3e 2646 613e 9530 16bf
000003a0: 5df2 70be 9792 113f b8c8 41bd 99ba eb3d
000003b0: ea23 a33e bf6b 24be 6ff0 cdbe 8285 a6be
000003c0: 906a 6abd bcb1 a6bb 4f82 593e 8805 bdbe
000003d0: ca4e f4be 43b8 19be 0a09 ab3e 3e93 943d
000003e0: 2012 053e 5651 e9be 66fa 383d b4c1 523e
000003f0: bba2 f7be 53da e53e 9bb5 6ebe ef31 debe

network_body._body_endoder.seq_layers.0.bias f4 [256]
-0.04675938 0.10892284 0.0060845045 0.09374907 0.095896624 0.003191534 0.0792302 -0.06881993
0.11860727 0.104462974 0.08998701 -0.0067747124 0.017474145 0.088153295 0.28962263 0.0805938
0.15169187 0.08671233 0.14046635 -0.07017071 -0.011792225 0.11462724 0.046908256 -0.0037459608
0.0315047 0.20457485 0.03843927 0.10372139 0.034139212 -0.018137146 0.049731504 0.05076208
0.12655096 0.19118118 0.17322604 0.059600394 -0.086203106 0.04097845 0.099162325 0.12487873
0.15595628 0.10692831 0.003853095 0.061197937 -0.008096571 0.08100532 0.20683405 0.11241221
-0.030775858 0.20698473 0.104989454 0.081366405 -0.0612851 0.14666842 0.17190233 0.08457009
0.035889257 0.13364439 0.20259288 0.050570853 0.052039538 0.1413897 0.07283455 -0.07743086
-0.09807003 0.10777454 0.15349069 0.18423738 0.06353553 -0.027446607 -0.04543006 -0.005677173
-0.045998476 -0.052783284 0.025931802 0.024219844 0.13415533 0.10312751 0.116013184 0.08129597
0.10692432 0.096939914 0.18002391 -0.0097355 0.016616363 0.076268904 0.12629795 -0.029782383
0.001846633 0.16419123 -0.00810335 -0.014180474 0.073348805 0.14041491 -0.080917776 0.058802087
0.10564242 0.08063932 -0.13021538 0.08395295 -0.031657636 0.11337433 -0.047314495 0.12164311
0.09861086 0.2015412 0.12479171 0.039794512 -0.010438731 0.055838432 0.060225066 0.19045424
0.11149234 0.055233434 0.047088917 0.11262591 0.10469601 0.0745615 -0.039558895 0.083679035
-0.080852516 -0.03053498 0.12560695 0.15673982 0.14217393 0.016118282 0.08001436 0.03774571
0.046145044 0.0140156355 -0.023427283 0.122770526 0.041270234 0.059480228 0.105995096 0.110661514
0.1782782 0.13202119 -0.0011971334 -0.0019803534 0.09431402 0.062622175 0.015060144 0.12830558
-0.09118215 0.055257548 -0.0194731 0.09131626 0.12980452 0.1160456 0.078536324 -0.015997704
-0.035381407 0.047243096 0.10769281 0.095826015 -0.001378774 -0.026409255 0.0541123 0.008827958
0.1401431 0.12764913 0.044741523 0.052733585 0.049649112 0.05257447 0.020328814 0.19234046
0.10639692 0.06833456 0.18081275 0.015478617 0.1096446 -0.063470244 0.048621852 -0.03190499
-0.027739074 0.14300716 0.120713055 0.11712429 0.10559212 0.04619541 0.093141526 0.0932673
0.083442874 0.10184948 0.16728841 0.00987591 0.063096575 -0.006108352 0.12026093 0.1852789
0.018300764 0.08566445 0.047829874 0.008759609 0.06529362 0.18449712 0.1352516 0.06149129
-0.07082388 0.16874991 0.10323012 0.12390685 0.08082849 0.16350117 0.10599481 0.15963161
0.1555938 0.027363759 0.091768816 0.07857218 0.06987149 -0.11924256 0.20622568 0.10831358
0.04038605 0.029481532 0.12378385 0.07750695 0.090089664 0.1664275 0.052300356 0.07970771
0.19039223 0.039254107 -0.017914122 0.07189405 0.16634722 0.11825541 0.056909442 0.0027181788
-0.043480847 0.15031587 0.17008543 -0.007891247 0.04169438 9.092136e-05 -0.0027025696 0.14658935
0.14419493 0.089930214 0.0676226 0.08267083 -0.0076820846 0.18118092 0.13688383 -0.0066347676
0.2622826 0.0552126 0.06824312 -0.04075717 0.042350195 0.08630478 0.0845109 0.14364937
00000000: c386 3fbd f012 df3d 8660 c73b 83ff bf3d
00000010: 7365 c43d 0e29 513b 7143 a23d 77f1 8cbd
00000020: 5ee8 f23d aff0 d53d 1c4b b83d 68fe ddbb
00000030: f025 8f3c b789 b43d 6b49 943e 5d0e a53d
00000040: 1d55 1b3e 3c96 b13d 69d6 0f3e a9b5 8fbd
00000050: 2d34 41bc b0c1 ea3d df22 403d cb7e 75bb
00000060: 130b 013d 127c 513e 7f72 1d3d e16b d43d
00000070: 8fd5 0b3d 5a94 94bc 43b3 4b3d e6eb 4f3d
00000080: 9396 013e 00c5 433e 2b62 313e 8b1f 743d
00000090: 418b b0bd 05d9 273d 9e15 cb3d 6bc0 ff3d
000000a0: 01b3 1f3e 3bfd da3d 3584 7c3b b0aa 7a3d
000000b0: 7ba7 04bc 1ee6 a53d 4ecc 533e 5f38 e63d
000000c0: a71d fcbc cef3 533e b604 d73d 6ea3 a63d
000000d0: 1606 7bbd 3f30 163e 2a07 303e 1533 ad3d
000000e0: 9d00 133d 13da 083e 8274 4f3e 6223 4f3d
000000f0: 6927 553d 76c8 103e 482a 953d 1294 9ebd
00000100: f1d8 c8bd e6b8 dc3d aa2c 1d3e b9a8 3c3e
00000110: ea1e 823d b5d7 e0bc df14 3abd 9407 babb
00000120: e668 3cbd 4933 58bd ee6e d43c b268 c63c
00000130: 0460 093e 8434 d33d 5298 ed3d 807e a63d
00000140: 23fb da3d 6f88 c63d 3058 383e a681 1fbc
00000150: 0a1f 883c df32 9c3d 4054 013e 2ffa f3bc
00000160: b90a f23a bf21 283e eac3 04bc 3855 68bc
00000170: e637 963d edc8 0f3e 38b8 a5bd 75da 703d
00000180: 0e5b d83d 3a26 a53d 2e57 05be 86ef ab3d
00000190: 70ab 01bd cd30 e83d d8cc 41bd 0620 f93d
000001a0: 7ef4 c93d d160 4e3e cc92 ff3d 92ff 223d
000001b0: 3607 2bbc d7b6 643d 8fae 763d 7006 433e
000001c0: 1956 e43d 743c 623d 4fe0 403d 6aa8 e63d
000001d0: dd6a d63d b3b3 983d 8208 22bd ea5f ab3d
000001e0: 0196 a5bd 7f24 fabc 1c9f 003e 6780 203e
000001f0: 0b96 113e 7d0a 843c 92de a33d 3f9b 1a3d
00000200: 9602 3d3d d6a1 653c 93ea bfbc 1d6f fb3d
00000210: fa0a 293d 8aa1 733d f513 d93d 81a2 e23d
00000220: 8f8e 363e 9030 073e 22e9 9cba d1c8 01bb
00000230: b527 c13d 0e40 803d d2be 763c 8a62 033e
00000240: b5bd babd bd55 623d 0d86 9fbc 0504 bb3d
00000250: 7aeb 043e 51a9 ed3d a7d7 a03d 9e0d 83bc
00000260: 18ec 10bd fa81 413d 0c8e dc3d 6e40 c43d
00000270: fab7 b4ba 3958 d8bc dca4 5d3d 24a3 103c
00000280: ac81 0f3e 74b6 023e e342 373d 2cff 573d
00000290: de5c 4b3d 5458 573d 9d88 a63c e6f4 443e
000002a0: a1e6 d93d fdf2 8b3d fa26 393e 069a 7d3c
000002b0: 598d e03d b0fc 81bd b527 473d cfae 02bd
000002c0: 0e3d e3bc 7870 123e 6838 f73d dcde ef3d
000002d0: ae40 d83d 6637 3d3d fcc0 be3d ed02 bf3d
000002e0: 19e4 aa3d 7696 d03d a74d 2b3e 92ce 213c
000002f0: c738 813d 9228 c8bb 5d4b f63d c1b9 3d3e
00000300: 7ceb 953c d870 af3d 42e9 433d 7784 0f3c
00000310: a9b8 853d d0ec 3c3e 657f 0a3e 4ade 7b3d
00000320: 1c0c 91bd c7cc 2c3e 506a d33d e0c2 fd3d
00000330: 6889 a53d da6c 273e cf13 d93d 7876 233e
00000340: fb53 1f3e f629 e03c 4af1 bb3d 73ea a03d
00000350: c918 8f3d 7135 f4bd d32c 533e 83d3 dd3d
00000360: d86b 253d 4183 f13c 6382 fd3d f7bb 9e3d
00000370: ee80 b83d f86b 2a3e e638 563d cc3d a33d
00000380: 2ef6 423e eac8 203d a3c0 92bc 303d 933d
00000390: ed56 2a3e e42f f23d e019 693d 7923 323b
000003a0: f918 32bd 67ec 193e e02a 2e3e 4a4a 01bc
000003b0: bac7 2a3d 09ad be38 981d 31bb 851b 163e
000003c0: d6a7 133e 552d b83d b87d 8a3d 534f a93d
000003d0: ffb9 fbbb 7e87 393e 462b 0c3e 7768 d9bb
000003e0: e849 863e 9b26 623d 0dc3 8b3d fef0 26bd
000003f0: 6677 2d3d 8fc0 b03d 0d14 ad3d d218 133e

network_body._body_endoder.seq_layers.2.weight f4 [256, 256]
-0.068807475 0.008599759 -0.12937321 0.05263419 -0.064476505 -0.04361755 -0.017926356 -0.16896476
0.078763105 -0.026016545 0.10911663 0.014297586 -0.13370268 -0.05757685 -0.0455719 0.0709156
0.18825965 -0.07912593 0.0095369145 -0.23441112 0.0241762 0.08459523 -0.08936571 -0.08224932
0.049489602 -0.03617071 0.023762776 0.050599918 0.18696389 0.035062656 -0.010221915 0.087777615
0.14910962 0.034599878 0.06643973 0.0019606191 -0.128247 -0.07571612 -0.05314519 -0.02947821
-0.08325277 -0.04389093 -0.021242233 0.10535786 -0.034393396 0.05598787 -0.044925626 0.0045527467
0.07613047 -0.021903204 0.17341882 0.11340726 -0.09052025 0.034450717 0.20175987 0.089713044
-0.11599322 -0.005519418 0.10897394 -0.063641414 -0.013317787 0.112759724 0.024632921 0.016651075
-0.13876776 0.051605213 -0.08222766 0.12159556 -0.07097816 -0.020984279 -0.14805092 -0.09840544
-0.023166519 -0.17099991 -0.03435154 -0.12848821 -0.116162755 0.09697861 0.038427595 0.0016069574
-0.06527986 0.12923665 0.039361212 0.074476585 0.20533565 -0.028841492 0.154031 0.02896335
-0.14424285 0.019894313 -0.105327785 -0.0026017404 0.07208164 -0.040060032 -0.13197897 -0.04738313
-0.03793119 -0.16482548 -0.049348556 -0.011890251 0.048260573 0.22189385 -0.0026504002 -0.020163825
0.03861452 0.006458132 0.04138837 0.001226516 -0.15249237 -0.09020009 -0.057434335 0.19006819
0.055020764 0.028798021 -0.23176943 0.1717825 0.068814114 -0.06558702 -0.057105966 -0.03222246
0.010709766 -0.040450893 -0.15144159 0.19209233 0.13357782 0.20456435 -0.12944321 0.06038142
-0.15103048 0.07131254 0.06942499 0.044020336 0.08184172 -0.0068180645 0.08964877 -0.02108216
0.02583538 0.051239412 -0.13776638 0.099684365 -0.07736162 -0.05134201 0.08809971 0.11561582
0.014860969 0.0021914963 -0.15496556 -0.15301424 0.115381114 0.03833621 -0.112301126 0.14143866
-0.10320752 0.04775355 -0.07318779 0.08662855 0.014052612 -0.025287528 -0.086893775 -0.15628096
0.12501845 -0.067598894 -0.13070159 -0.07649582 -0.004434839 -0.15310232 0.015024533 -0.22722033
-0.093227424 -0.05946845 -0.04544716 0.0007048438 0.1370622 0.0074568507 0.02450037 0.024192972
0.111993544 0.07991034 0.06510618 -0.032308556 0.018717894 -0.022722136 0.007599116 0.09341287
-0.013148806 0.13904773 0.061486438 -0.104131155 0.088974476 0.06457623 -0.060929723 0.044904996
-0.028434435 0.11485772 0.14292338 0.008085009 0.12067061 -0.05427007 0.082061015 0.10677296
0.01904575 -0.026130656 0.07075789 0.055868883 0.07355245 0.07109749 -0.01515248 -0.11524484
0.14236327 0.006690654 0.0033666543 -0.089955136 -0.012497303 -0.19334348 -0.07416781 -0.19148324
0.0674166 0.11551977 0.15238968 -0.057437893 0.03694117 -0.010847559 0.0591937 0.07351052
-0.022006102 -0.08942716 0.04120155 -0.12454238 -0.018924385 -0.20219928 0.090425745 0.058173437
-0.12562944 -0.025382558 0.12795848 -0.006850052 -0.03309808 -0.010340913 -0.08117176 -0.11600848
0.007607176 -0.0024128263 0.04678179 -0.1479553 -0.18414976 0.11323891 0.07046112 -0.039371572
0.07023656 -0.06928079 0.10587905 -0.07449857 0.028510982 0.16535378 -0.0063589304 -0.080378115
00000000: efea 8cbd 01e6 0c3c 697a 04be f396 573d
00000010: 420c 84bd 51a8 32bd 4bda 92bc 1905 2dbe
00000020: 8d4e a13d a620 d5bc 8a78 df3d 6c40 6a3c
00000030: 5be9 08be b4d5 6bbd 9aa9 3abd 333c 913d
00000040: 23c7 403e c70c a2bd b840 1c3c 7809 70be
00000050: 2b0d c63c 4440 ad3d 5f05 b7bd 5572 a8bd
00000060: 9cb5 4a3d bd27 14bd 27aa c23c dc41 4f3d
00000070: 7673 3f3e dc9d 0f3d d279 27bc c0c4 b33d
00000080: 31b0 183e 9ab8 0d3d 8e11 883d bb7d 003b
00000090: 2e53 03be 0e11 9bbd c5ae 59bd 497c f1bc
000000a0: 6e80 aabd fac6 33bd 3104 aebc ddc5 d73d
000000b0: 17e0 0cbd 8953 653d ef03 38bd 352f 953b
000000c0: 4bea 9b3d 596e b3bc b494 313e 1142 e83d
000000d0: ae62 b9bd 321c 0d3d 249a 4e3e 79bb b73d
000000e0: da8d edbd 3cdc b4bb bb2d df3d 6e56 82bd
000000f0: d932 5abc 92ee e63d fbca c93c d667 883c
00000100: 2319 0ebe fd5f 533d fa66 a8bd 1807 f93d
00000110: ff5c 91bd 39e7 abbc a99a 17be cb88 c9bd
00000120: b6c7 bdbc 9a1a 2fbe 33b4 0cbd 6a92 03be
00000130: bde6 edbd b99c c63d 4166 1d3d 8ba0 d23a
00000140: 72b1 85bd 9d56 043e 3939 213d 2e87 983d
00000150: 8243 523e fe44 ecbc 4dba 1d3e 8c44 ed3c
00000160: 66b4 13be 66f9 a23c 18b6 d7bd f681 2abb
00000170: 8a9f 933d fd15 24bd 7f25 07be d014 42bd
00000180: bc5d 1bbd 03c8 28be b621 4abd 54cf 42bc
00000190: e1ac 453d 2438 633e 56b2 2dbb 9b2e a5bc
000001a0: 422a 1e3d bd9e d33b da86 293d 0cc3 a03a
000001b0: f626 1cbe d3ba b8bd 4440 6bbd 3ca1 423e
000001c0: 745d 613d d4e9 eb3c f754 6dbe c0e7 2f3e
000001d0: 6aee 8c3d 7d52 86bd f2e7 69bd b3fb 03bd
000001e0: 0478 2f3c d6af 25bd 8113 1bbe dab3 443e
000001f0: a0c8 083e 5179 513e c38c 04be 8252 773d
00000200: bca7 1abe 4f0c 923d b02e 8e3d ab4e 343d
00000210: a29c a73d 126a dfbb c699 b73d 7eb4 acbc
00000220: b8a4 d33c 6be0 513d a112 0dbe 5127 cc3d
00000230: c56f 9ebd 004c 52bd 9f6d b43d fdc7 ec3d
00000240: 6c7b 733c 359f 0f3b 4baf 1ebe c4af 1cbe
00000250: ef4c ec3d 6e06 1d3d 22fe e5bd 4cd5 103e
00000260: 775e d3bd 3a99 433d 7be3 95bd 4f6a b13d
00000270: ed3c 663c ca27 cfbc 5df5 b1bd 1e08 20be
00000280: d604 003e 4a71 8abd a3d6 05be d7a9 9cbd
00000290: 2052 91bb dbc6 1cbe 7529 763c 72ac 68be
000002a0: 05ee bebd 3095 73bd cd26 3abd 44c5 383a
000002b0: 095a 0c3e 9958 f43b 00b5 c83c 5730 c63c
000002c0: df5c e53d 08a8 a33d 6456 853d fa55 04bd
000002d0: 4556 993c c623 babc 0102 f93b 3f4f bf3d
000002e0: 176e 57bc 8762 0e3e 34d9 7b3d b742 d5bd
000002f0: 4038 b63d 8b40 843d 7291 79bd 4dee 373d
00000300: 55ef e8bc 863a eb3d 825a 123e fc76 043c
00000310: 2722 f73d 4b4a 5ebd 9b0f a83d c8ab da3d
00000320: d505 9c3c f50f d6bc 83e9 903d c5d6 643d
00000330: aba2 963d 909b 913d 1c42 78bc 7d05 ecbd
00000340: adc7 113e 463d db3b 16a3 5c3b 663a b8bd
00000350: 7dc1 4cbc d5fb 45be 4be5 97bd 2f14 44be
00000360: b711 8a3d a195 ec3d 0a0c 1c3e ff43 6bbd
00000370: a04f 173d f6b9 31bc 1875 723d af8c 963d
00000380: 2446 b4bc 9625 b7bd f5c2 283d 1310 ffbd
00000390: 5007 9bbc 540d 4fbe 2231 b93d 4547 6e3d
000003a0: 01a5 00be 15ef cfbc 8c07 033e 6776 e0bb
000003b0: da91 07bd ef6c 29bc 613d a6bd db95 edbd
000003c0: 9e45 f93b 8220 1ebb 439e 3f3d 9881 17be
000003d0: c191 3cbe cde9 e73d eb4d 903d 1644 21bd
000003e0: 30d8 8f3d 16e3 8dbd 1ed7 d83d b592 98bd
000003f0: dd8f e93c 8052 293e 935e d0bb 489d a4bd

network_body._body_endoder.seq_layers.2.bias f4 [256]
0.11468363 0.02437033 -0.1102495 0.03120225 0.015776942 -0.015451099 0.0878287 -0.060672324
0.11047468 0.032752655 0.04265888 0.007156039 -0.0070880507 -0.005102859 0.005086318 -0.005795645
0.00048536528 -0.05577732 0.02801114 0.09601335 -0.004646583 0.024512712 -0.0016401617 0.08290752
-0.11602951 -0.0024710982 -0.04179919 -0.015253076 0.013063149 0.008482026 0.04408871 0.08799597
0.08763396 0.030594187 -0.022883305 0.042496573 -0.048079066 0.01845948 0.122854434 -0.08914307
0.0031074793 0.011316137 0.09782892 -0.02623554 0.08772843 0.010941878 0.0047038025 0.026801717
-0.020722864 0.0192306 0.010661628 -0.056858007 0.00044305518 -0.01246427 -0.00340564 -0.033723928
-0.039634883 0.0011036679 -0.062034763 -0.11286286 -0.099997446 -0.042833388 -0.011794529 -0.09364726
0.0047217864 0.0107196905 -0.024263052 0.0027658383 0.03922424 -0.082075864 0.034328952 0.062453035
0.039489344 -0.034021515 0.13073203 -0.0028283861 0.0443136 -0.022065436 -0.090895966 -0.021420017
0.00011478334 0.03767965 0.08959147 -0.060128115 0.070498385 -0.13921429 -0.07160997 -0.016125929
0.04187748 -0.036759466 -0.08242069 -0.015876247 0.02152882 -0.04501819 0.011764619 -0.028108923
0.085204326 -0.0017902744 -0.059841964 -0.12173687 0.03395252 -0.00055553985 0.10799546 0.023600262
0.004027617 0.0021363946 0.012641434 0.05778875 -0.042552266 0.04210611 -0.080461755 0.031060955
-0.16147044 -0.06858606 0.045093898 0.043466907 -0.011949275 -0.031426385 -0.014303022 -0.03842717
0.03166062 0.06008191 0.0682604 -0.08818273 0.029818134 0.14937574 0.08298035 0.0054525444
0.13346845 -0.048230965 -0.004978606 -0.029677363 0.022229053 0.06233936 0.121505275 0.014506789
0.08543959 0.024731714 0.022389749 0.005439405 -0.049035687 -0.016380139 -0.058293372 -0.07837271
0.092485264 0.11154691 -0.12094308 0.017267944 0.016787516 -0.039125893 0.11439991 0.03638703
-0.025887376 -0.1017289 0.07114025 0.045023784 0.16296895 -0.0753561 0.06872766 0.010912581
0.08644709 0.025138903 0.009025327 -0.07944723 0.06513304 0.060022607 -0.073028065 -0.023016121
0.080920584 0.038927585 0.031473547 -0.026342882 -0.12046737 0.012616668 0.025975274 1.4236335e-05
0.032043442 -0.01527325 -0.030060628 -0.046450827 0.04592499 -0.09675293 -0.018845558 0.033717357
0.0365922 -0.06375259 -0.118878655 -0.0001731554 -0.021644328 -0.06979639 0.024752546 0.035366427
0.038223006 0.06472136 0.079204634 -0.102683716 0.04024935 0.058994796 0.10312989 0.031728048
-0.11167185 0.070529446 -4.394199e-05 -0.10073219 -0.095499925 -0.027835965 0.07790438 0.026757948
0.0084179295 0.101704724 -0.02386306 0.16807291 0.014678482 0.010524116 0.054866 0.10877384
0.039245248 0.067899175 -0.02776678 -0.034686536 -0.06899368 0.022221541 0.021797659 -0.022737848
-0.0054783593 -0.15104619 -0.009842594 -0.10593958 0.0361408 -0.02114633 -0.021638475 0.030142907
0.14938898 0.08561683 -0.020223968 0.018845307 -0.013678915 -0.032255214 0.09705371 0.08073797
-0.13972624 -0.06603605 -0.011850205 -0.0626161 0.09964765 0.022739848 0.14627151 0.0729353
0.10114554 -0.13635677 0.0805011 -0.034863383 0.0029223291 0.038588397 -0.06264806 -0.10630553
00000000: 40df ea3d 49a4 c73c 7dca e1bd dc9b ff3c
00000010: a53e 813c 9b26 7dbc 89df b33d 8b83 78bd
00000020: 8d40 e23d a627 063d 14bb 2e3d 357d ea3b
00000030: e142 e8bb e235 a7bb 21ab a63b 65e9 bdbb
00000040: a078 fe39 c276 64bd 9e77 e53c a6a2 c43d
00000050: 5d42 98bb e2ce c83c b2fa d6ba 6bcb a93d
00000060: e1a0 edbd 26f2 21bb a135 2bbd 0ae8 79bc
00000070: d106 563c 32f8 0a3c 5d96 343d 3b37 b43d
00000080: 6f79 b33d a9a0 fa3c c575 bbbc e310 2e3d
00000090: 8eee 44bd 5638 973c 1b9b fb3d a490 b6bd
000000a0: daa6 4b3b 5267 393c 875a c83d eaeb d6bc
000000b0: f7aa b33d 9045 333c 5b22 9a3b 468f db3c
000000c0: ffc2 a9bc 7e89 9d3c 1cae 2e3c f1e3 68bd
000000d0: dc49 e839 f036 4cbc 2831 5fbb 1a22 0abd
000000e0: 3058 22bd f3a8 903a 2a18 7ebd a524 e7bd
000000f0: 76cb ccbd 1072 2fbd d73d 41bc 22ca bfbd
00000100: 37b9 9a3b a4a1 2f3c 4fc3 c6bc 1143 353b
00000110: 99a9 203d 6417 a8bd 849c 0c3d c1ce 7f3d
00000120: 94bf 213d 255a 0bbd 9ede 053e 725c 39bb
00000130: 2d82 353d 93c2 b4bc aa27 babd 0879 afbc
00000140: d6b7 f038 fa55 1a3d bc7b b73d e648 76bd
00000150: 7561 903d 318e 0ebe 3fa8 92bd 861a 84bc
00000160: b887 2b3d 1891 16bd 2ecc a8bd e70e 82bc
00000170: 355d b03c fe64 38bd 63c0 403c af44 e6bc
00000180: 9b7f ae3d a4a7 eaba d91c 75bd 2e51 f9bd
00000190: cc11 0b3d a6a1 11ba b92c dd3d 5655 c13c
000001a0: 1afa 833b c102 0c3b 041e 4f3c e5b3 6c3d
000001b0: 494b 2ebd 7577 2c3d 22c9 a4bd 8b73 fe3c
000001c0: 8258 25be d976 8cbd 61b4 383d 5b0a 323d
000001d0: e4c6 43bc f4b8 00bd 3957 6abc cf65 1dbd
000001e0: 91ae 013d 7318 763d 1ccc 8b3d 2699 b4bd
000001f0: 2945 f43c f4f5 183e 9af1 a93d 42ab b23b
00000200: f4ab 083e d58d 45bd 9323 a3bb f11d f3bc
00000210: b419 b63c 8f57 7f3d c2d7 f83d e2ad 6d3c
00000220: f4fa ae3d 2a9a ca3c b56a b73c 093d b23b
00000230: a5d9 48bd a42f 86bc 08c5 6ebd df81 a0bd
00000240: ea68 bd3d b572 e43d 01b1 f7bd 8175 8d3c
00000250: f985 893c 7942 20bd 804a ea3d 910a 153d
00000260: c311 d4bc 3e57 d0bd fbb1 913d dc6a 383d
00000270: 55e1 263e 4d54 9abd 16c1 8c3d afca 323c
00000280: 2c0b b13d 1af0 cd3c f7de 133c 3bb5 a2bd
00000290: 7964 853d 44da 753d bd8f 95bd 4e8c bcbc
000002a0: b1b9 a53d 8872 1f3d 68ea 003d 07cd d7bc
000002b0: 99b7 f6bd 24b6 4e3c 19ca d43c 98d8 6e37
000002c0: fc3f 033d a73c 7abc b541 f6bc 3943 3ebd
000002d0: d81b 3c3d 6626 c6bd 0062 9abc 361b 0a3d
000002e0: b4e1 153d b890 82bd a776 f3bd 0c91 35b9
000002f0: 724f b1bc 69f1 8ebd dac5 ca3c 63dc 103d
00000300: ba8f 1c3d a28c 843d 0a36 a23d d74b d2bd
00000310: 81dc 243d 87a4 713d c435 d33d 45f5 013d
00000320: 36b4 e4bd be71 903d 5a4e 38b8 ae4c cebd
00000330: 7795 c3bd 4008 e4bc 558c 9f3d 7c33 db3c
00000340: 5beb 093c 914a d03d 777c c3bc 4e1b 2c3e
00000350: 047e 703c 586d 2c3c 2cbb 603d d2c4 de3d
00000360: a0bf 203d b90e 8b3d 2977 e3bc 7813 0ebd
00000370: 8f4c 8dbd f309 b63c 0191 b23c b944 babc
00000380: cf83 b3bb daab 1abe d542 21bc daf6 d8bd
00000390: 6008 143d 113b adbc 2c43 b1bc 42ee f63c
000003a0: 6df9 183e e057 af3d bcac a5bc 7961 9a3c
000003b0: 871d 60bc 0b1e 04bd 18c4 c63d f359 a53d
000003c0: 6514 0fbe e93d 87bd 5d27 42bc df3c 80bd
000003d0: 1114 cc3d eb48 ba3c 33c8 153e 1a5f 953d
000003e0: 6525 cf3d 1ca1 0bbe c3dd a43d e8cc 0ebd
000003f0: 8c84 3f3b de0e 1e3d a04d 80bd b7b6 d9bd

action_model._discrete_distribution.branches.0.weight f4 [3, 256]
-0.04833261 0.008824319 0.102882676 0.07481252 0.02429668 0.0006171224 -0.0057175327 -0.027417896
-0.019694919 0.07348985 -0.033694156 -0.001989304 -0.08491541 0.0017312781 0.027113209 -0.022878163
-0.03437496 0.010005491 -0.08927215 -0.055123724 -0.0707592 -0.047018055 -0.015379318 -0.058542438
0.0418658 -0.03833669 0.013208444 -0.16058888 -0.010199362 0.07490402 -0.12333907 0.13389814
0.015523578 -0.01898022 0.10670445 -0.08770898 -0.10022499 0.1403789 -0.07700546 0.13009787
-0.10230695 0.0053880652 -0.021743214 0.024996476 0.013938805 -0.030818356 0.08642085 -0.005638746
-0.011945199 -0.26394442 0.029573223 -0.04323963 0.0002213696 0.059811674 0.05805068 0.015895747
0.12754932 -0.06781242 -0.047189042 0.07947365 -0.0068631237 0.027996987 0.062823124 0.041319676
0.011251689 -0.04645721 -0.049131274 -0.008989975 -0.06240766 0.02145381 0.043230083 -0.010531039
-0.059028644 -0.08935931 -0.017061794 0.017629435 -0.012507103 -0.04012069 -0.012791743 -0.022831192
-0.30267012 0.0018601733 -0.0071593304 0.057065733 0.05740317 0.021510025 0.090045735 -0.039173488
0.024121057 -0.002050516 -0.12572074 0.01128139 -0.010784939 -0.08791252 0.03856439 -0.055811793
-0.00096838974 0.031564962 0.07803366 0.07657038 -0.035147928 0.046798997 -0.068989076 -0.067005366
0.013188451 -0.007654986 0.17290732 -0.07734214 -0.041264392 -0.052225385 -0.017819922 0.030829072
0.062321294 0.007348635 0.008186376 0.032935727 0.04288771 0.060462937 -0.010964912 -0.023761673
0.07151523 -0.02298462 -0.22560307 0.072184265 0.04141825 -0.044845823 -0.07301295 -0.11529799
-0.044742268 0.010444129 -0.003490867 0.027806358 0.00071364216 -0.005000118 -0.043238673 0.05369641
-0.033854097 -0.046694487 0.087238684 0.032527797 -0.033862453 -0.08987649 0.119435586 -0.040165506
-0.02830689 -0.06753043 0.098710425 -0.06781147 0.022897648 -0.010241885 -0.050229624 -0.06543938
-0.002991471 0.09306586 0.022001995 -0.04134199 0.006322916 0.015582238 0.016455885 0.05706422
-0.056203824 0.0759338 0.09640183 -0.061341204 0.018434938 0.06738928 0.043228004 -0.043014266
0.12503098 0.16609667 0.077306874 -0.014478949 0.08305469 -0.14534791 -0.23529215 -0.13452254
-0.0057490305 0.006757064 0.052613057 -0.028822092 -0.17007686 0.005584853 0.003984703 -0.123025954
-0.050732907 -0.09862213 0.007965038 -0.06907289 -0.06013382 0.017102351 0.054035425 0.011786709
-0.008921914 -0.038321488 -0.026208544 0.07097305 0.011716697 -0.02779206 -0.06586626 0.048600234
0.03645972 -0.03870385 -0.009619136 0.07594343 0.05561503 0.0029222167 0.0077249887 -0.01730253
-0.07870671 0.09422964 0.045885596 -0.07825832 -0.1396488 0.03882993 -0.04118782 0.03241515
-0.07549246 0.022816068 -0.038626246 0.09247785 -0.040583864 0.011056232 0.051368643 0.04182865
0.03103771 0.20455499 0.008049447 0.20356789 -0.0754025 0.07908913 -0.057871915 0.02932912
0.0013536563 -0.030435784 -0.07554384 -0.23838931 0.045610998 0.06951431 -0.1276102 -0.003856853
0.15273121 0.023243992 -0.036987677 0.08168812 0.056248453 0.036632095 0.035899505 0.023928305
0.013758077 0.07043313 0.08342758 -0.0744529 -0.015009321 -0.2745233 0.20537035 0.15112408
00000000: 6af8 45bd e093 103c 27b4 d23d 4e37 993d
00000010: d509 c73c 62c6 213a 245a bbbb 7f9b e0bc
00000020: 3d57 a1bc d981 963d e202 0abd fc5e 02bb
00000030: 21e8 adbd 0eec e23a 851c de3c fc6a bbbc
00000040: c2cc 0cbd 12ee 233c 51d4 b6bd 6ac9 61bd
00000050: 33ea 90bd 0196 40bd 89f9 7bbc 32ca 6fbd
00000060: 797b 2b3d ef06 1dbd 3b68 583c 6971 24be
00000070: 3a1b 27bc 4767 993d 3299 fcbd 981c 093e
00000080: 9b56 7e3c 687c 9bbc dd87 da3d c4a0 b3bd
00000090: c242 cdbd 7dbf 0f3e 0ab5 9dbd 6038 053e
000000a0: 4e86 d1bd 5e8e b03b d31e b2bc 69c5 cc3c
000000b0: 965f 643c c776 fcbc 6afd b03d 3bc5 b8bb
000000c0: ccb5 43bc b923 87be 8b43 f23c 0a1c 31bd
000000d0: 731f 6839 16fd 743d 8dc6 6d3d cc37 823c
000000e0: 4a9c 023e 3de1 8abd 4c49 41bd 15c3 a23d
000000f0: 0ee4 e0bb f059 e53c 69a9 803d d23e 293d
00000100: 0159 383c ea49 3ebd e03d 49bd b04a 13bc
00000110: 2d9f 7fbd e7bf af3c 0712 313d 618a 2cbc
00000120: 05c8 71bd 0402 b7bd 2dc5 8bbc 9b6b 903c
00000130: 98ea 4cbc 9855 24bd 7594 51bc 7b08 bbbc
00000140: 94f7 9abe 0fd1 f33a d198 eabb c2bd 693d
00000150: 961f 6b3d cb35 b03c e669 b83d 6174 20bd
00000160: 8699 c53c f361 06bb f0bc 00be 94d5 383c
00000170: 50b3 30bc 7b0b b4bd b2f5 1d3d e89a 64bd
00000180: 89db 7dba 434a 013d 1dd0 9f3d eed0 9c3d
00000190: 46f7 0fbd 4eb0 3f3d 254a 8dbd 1c3a 89bd
000001a0: 5f14 583c add6 fabb 9e0e 313e 8e65 9ebd
000001b0: da04 29bd 49ea 55bd 16fb 91bc 408d fc3c
000001c0: 9d44 7f3d d1cc f03b 2620 063c 9de7 063d
000001d0: 06ab 2f3d fca7 773d 2da6 33bc d7a7 c2bc
000001e0: 9476 923d 3e4a bcbc 7e04 67be 58d5 933d
000001f0: 2fa6 293d 41b0 37bd d087 95bd 5a21 ecbd
00000200: ab43 37bd da1d 2b3c 08c7 64bb 29ca e33c
00000210: b713 3b3a 08d8 a3bb 091b 31bd c4f0 5b3d
00000220: 98aa 0abd b842 3fbd 32aa b23d de3b 053d
00000230: 5bb3 0abd 2a11 b8bd a59a f43d 9684 24bd
00000240: dae3 e7bc 654d 8abd b128 ca3d bde0 8abd
00000250: d993 bb3c 94cd 27bc 94bd 4dbd 1505 86bd
00000260: 8e0c 44bb 5099 be3d 873d b43c 3856 29bd
00000270: 7730 cf3b a54c 7f3c 7ece 863c 2cbc 693d
00000280: fb35 66bd 2e83 9b3d 536e c53d ea40 7bbd
00000290: de04 973c 6403 8a3d d90f 313d ba2f 30bd
000002a0: 1f08 003e 3f15 2a3e 1153 9e3d 1d39 6dbc
000002b0: 9418 aa3d 15d6 14be 6df0 70be 47c0 09be
000002c0: 5d62 bcbb 5c6a dd3b ca80 573d 4f1c ecbc
000002d0: a128 2ebe 2401 b73b 1d92 823b 08f5 fbbd
000002e0: 4fcd 4fbd 66fa c9bd ca7f 023c 1676 8dbd
000002f0: e14e 76bd 3b1a 8c3c 4054 5d3d 0a1d 413c
00000300: 382d 12bc fef6 1cbd 4db3 d6bc 525a 913d
00000310: 64f7 3f3c 2dac e3bc e4e4 86bd 0a11 473d
00000320: ca56 153d ee87 1ebd 9599 1dbc 3b88 9b3d
00000330: 96cc 633d a982 3f3b e721 fd3b 09be 8dbc
00000340: fc30 a1bd 78fb c03d 89f2 3b3d e645 a0bd
00000350: 1800 0fbe 220c 1f3d 8fb4 28bd c0c5 043d
00000360: ca9b 9abd c3e8 ba3c 8e36 1ebd 0765 bd3d
00000370: 443b 26bd 3325 353c ed67 523d 8554 2b3d
00000380: cc42 fe3c dd76 513e d4e1 033c 1a74 503e
00000390: a06c 9abd 7bf9 a13d 1a0b 6dbd 9f43 f03c
000003a0: 2b6d b13a 7754 f9bc bbb6 9abd 541c 74be
000003b0: 99d2 3a3d 855d 8e3d 40ac 02be 42c3 7cbb
000003c0: 9265 1c3e 2f6a be3c 6480 17bd 1a4c a73d
000003d0: c764 663d 890b 163d 5c0b 133d 4b05 c43c
000003e0: 8f69 613c 3f3f 903d 14dc aa3d c37a 98bd
000003f0: a8e9 75bc 518e 8cbe 9b4c 523e 45c0 1a3e

action_model._discrete_distribution.branches.0.bias f4 [3]
-0.026402647 0.042883035 -0.014991371
00000000: 5d4a d8bc 1fa6 2f3d 5e9e 75bc

action_model._discrete_distribution.branches.1.weight f4 [3, 256]
0.008505772 -0.050236296 -0.006550096 0.0018472283 0.0071766316 -0.022077335 -0.01794087 0.013343636
0.018871732 0.0066284863 0.017112153 -0.037245385 -0.013498895 -0.009240531 0.008552498 0.013348415
0.00070036046 0.06666832 0.00947681 0.010131778 0.03571625 0.01762192 -0.007758874 0.022756996
-0.01019905 0.034333847 0.0011029565 0.013070352 -0.024194082 -0.014742509 0.023873348 0.009157041
0.03502875 -0.01907883 -0.026521545 0.018479317 0.004119879 0.0034687768 -0.024035988 -0.00822451
-0.037556335 -0.01866631 0.005622734 -0.009555818 -0.0058547296 -0.021131929 -0.014199869 -0.031180723
-0.019673992 -0.007119671 -0.018843355 -0.0070626624 0.032174673 0.03173146 -0.05376273 -0.004660803
-0.018167347 -0.01577441 -0.018496959 0.018424237 0.0075319605 0.01641206 -0.061119683 0.015421619
-0.058200248 -0.027694682 -0.016768014 0.032885168 0.02709497 -0.053380612 -0.019360945 -0.015231035
-0.0017757674 -0.010072327 -0.0029495799 -0.019568235 0.0749323 -0.039348546 -0.011310361 0.068593994
0.017180886 -0.014731255 0.0072139264 -0.04679275 0.016492814 -0.017876932 -0.012811299 -0.057587046
0.002550864 0.05346698 -0.049228933 0.003693757 -0.0067114467 0.010017559 0.024896307 -0.013379253
0.0018124089 0.031524185 0.019194953 -0.0020534608 0.0023610129 -0.047559783 0.015044253 -0.027993655
0.00640307 -0.04558898 -0.014732963 -0.0030164346 0.030678492 0.010603253 0.011668924 -0.041195158
-0.010008561 -0.007858548 0.035216134 -0.011154716 0.0088727735 0.021653902 0.017522167 -0.036535654
-0.01135443 0.03718223 0.052201144 -0.0061059035 0.033625003 0.032932814 0.008451883 -0.0048506553
-0.008723135 -0.045378543 0.002220552 -0.026277496 -0.023254758 0.022724314 -0.0076670544 0.008850991
0.019094126 -0.0002972525 -0.013739498 0.04006105 -0.03313309 -0.029984636 0.017501155 0.0029773673
0.020261686 0.040611252 -0.01801871 -0.007270273 0.0011346041 0.029094435 0.006545589 -0.017077176
-0.02609377 -0.010686473 -0.014620562 0.03167713 0.040521815 0.02663084 -0.005228279 0.03424869
0.014851049 -0.010098777 -0.015983569 0.015181063 0.09962398 -0.0047888467 -0.0070695295 -0.00056622934
-0.008380473 0.0012875962 -0.0029815948 0.018473338 -0.017916355 -0.021869197 0.01679363 -0.016442645
0.010317441 0.03450277 -0.072791465 -0.0001281605 -0.00026306338 0.0059924438 -0.038442787 0.017706772
0.0042772857 -0.010005141 -0.009075974 0.019857584 -0.005734188 0.016824763 -0.01621558 -0.047857754
0.0033762462 0.015477725 0.010711864 -0.014785175 -0.0009166528 0.027133018 0.021847537 0.043159787
-0.014846808 0.0017347755 0.0152212735 -0.0021791242 0.008737866 -0.0057687606 0.014660376 -0.029152868
0.027587194 0.011107361 -0.020195588 0.035180688 0.00030890445 -0.03502303 0.033195835 0.020546595
-0.025833279 -0.010120193 0.036363553 -0.008046487 -0.02683246 0.025887588 -0.011192913 -0.00072469097
0.038013443 -0.017877193 -0.05642381 -0.018795209 -0.006725167 0.01865193 0.018439697 0.0022286589
0.009553572 -0.0045460034 0.013314646 0.00888285 -0.053562775 -0.02433401 -0.00492008 0.0340367
-0.011639599 0.020397557 -0.022100482 -0.008227222 0.016649347 -0.03531929 0.006113777 0.019454753
0.013069297 -0.014382009 0.05100294 0.0102133155 0.019186059 -0.0010111162 -0.02284785 -0.011730724
00000000: cb5b 0b3c 93c4 4dbd 30a2 d6bb b21e f23a
00000010: f329 eb3b 87db b4bc bbf8 92bc 449f 5a3c
00000020: e498 9a3c c633 d93b c92e 8c3c 9e8e 18bd
00000030: 782a 5dbc 9965 17bc c71f 0c3c 4fb3 5a3c
00000040: 6598 373a 6689 883d 9f44 1b3c c2ff 253c
00000050: 344b 123d d85b 903c 273e febb e16c ba3c
00000060: eb19 27bc a6a1 0c3d 1491 903a 0825 563c
00000070: ab32 c6bc 918a 71bc 0a92 c33c 6a07 163c
00000080: 4e7a 0f3d 354b 9cbc b643 d9bc f061 973c
00000090: 0d00 873b 6b54 633b 1fe7 c4bc 18c0 06bc
000000a0: acd4 19bd 17ea 98bc e93e b83b 0190 1cbc
000000b0: 08d9 bfbb de1c adbc 91a6 68bc b76e ffbc
000000c0: 5a2b a1bc 214c e9bb 615d 9abc e86d e7bb
000000d0: 97c9 033d d9f8 013d 4f36 5cbd a6b9 98bb
000000e0: b0d3 94bc 5639 81bc ef86 97bc 6dee 963c
000000f0: aace f63b 9672 863c a258 7abd f5aa 7c3c
00000100: 6263 6ebd f5df e2bc 135d 89bc 99b2 063d
00000110: 45f6 dd3c a1a5 5abd d89a 9ebc 978b 79bc
00000120: dec0 e8ba 6706 25bc bd4d 41bb 904d a0bc
00000130: 1b76 993d f12b 21bd 184f 39bc 027b 8c3d
00000140: eebe 8c3c 5d5b 71bc cd62 ec3b c1a9 3fbd
00000150: f01b 873c a572 92bc 7ce6 51bc 65e0 6bbd
00000160: 652c 273b 3100 5b3d 47a4 49bd f612 723b
00000170: b2eb dbbb b020 243c 57f3 cb3c a834 5bbc
00000180: 5a8e ed3a 811f 013d bc3e 9d3c 5b93 06bb
00000190: 39bb 1a3b 0cce 42bd 2c7c 763c f352 e5bc
000001a0: d8d0 d13b 83bb 3abd 8762 71bc 60af 45bb
000001b0: 7651 fb3c 44b9 2d3c 042f 3f3c 41bc 28bd
000001c0: f3fa 23bc 24c1 00bc cb3e 103d 45c2 36bc
000001d0: 1c5f 113c 8663 b13c a68a 8f3c 69a6 15bd
000001e0: ee07 3abc 654c 183d ded0 553d 0814 c8bb
000001f0: 5fba 093d 8fe4 063d c479 0a3c 3ff2 9ebb
00000200: 7beb 0ebc dade 39bd ae86 113b e743 d7bc
00000210: c380 bebc 5728 ba3c ea3b fbbb bf03 113c
00000220: 496b 9c3c 8ed8 9bb9 a21b 61bc 0e17 243d
00000230: 90b6 07bd 57a2 f5bc 955e 8f3c ef1f 433b
00000240: d6fb a53c fc57 263d f99b 93bc 783b eebb
00000250: ffb6 943a 7457 ee3c 617c d63b 6fe5 8bbc
00000260: 9ac2 d5bc 5116 2fbc 158b 6fbc e1bf 013d
00000270: 34fa 253d eb28 da3c fc51 abbb 5b48 0c3d
00000280: d051 733c 5775 25bc f9ef 82bc feb9 783c
00000290: a807 cc3d c2eb 9cbb 83a7 e7bb 026f 14ba
000002a0: 404e 09bc 8fc4 a83a dc66 43bb 6655 973c
000002b0: 52c5 92bc 0827 b3bc cb92 893c bab2 86bc
000002c0: 7c0a 293c c752 0d3d b113 95bd d262 06b9
000002d0: c5eb 89b9 435c c43b 2f76 1dbd cb0d 913c
000002e0: 7928 8c3b 9aec 23bc 65b3 14bc 5fac a23c
000002f0: dbe5 bbbb 16d4 893c 89d6 84bc 7e06 44bd
00000300: 0344 5d3b 4996 7d3c d080 2f3c 853d 72bc
00000310: 874b 70ba 1046 de3c 9bf9 b23c 51c8 303d
00000320: 0740 73bc 6861 e33a a662 793c a3cf 0ebb
00000330: 4429 0f3c df07 bdbb 1332 703c ffd1 eebc
00000340: 8afe e13c a6fb 353c 3871 a5bc a019 103d
00000350: 74f4 a139 4f74 0fbd 5bf8 073d 5551 a83c
00000360: 50a0 d3bc 2acf 25bc f3f1 143d 6ad5 03bc
00000370: bfcf dbbc 3512 d43c 7b62 37bc 30f9 3dba
00000380: fcb3 1b3d 3173 92bc a71c 67bd 69f8 99bc
00000390: ca5e dcbb efcb 983c d90e 973c b10e 123b
000003a0: 9686 1c3c a4f6 94bb ac25 5a3c 6089 113c
000003b0: a464 5bbd 1e58 c7bc 9f38 a1bb 116a 0b3d
000003c0: 04b4 3ebc c718 a73c 120c b5bc 78cb 06bc
000003d0: 3664 883c f6aa 10bd 1456 c83b 935f 9f3c
000003e0: 9b20 563c 85a2 6bbc 75e8 503d c055 273c
000003f0: 152c 9d3c 6e87 84ba 6a2b bbbc 3932 40bc

action_model._discrete_distribution.branches.1.bias f4 [3]
0.030301776 0.018364418 -0.045486625
00000000: 6e3b f83c fa70 963c 2f50 3abd

action_model._discrete_distribution.branches.2.weight f4 [3, 256]
0.051802848 0.007862155 -0.04578316 -0.0026559453 0.034071144 0.058015466 0.06289336 -0.023131944
0.05856467 -0.022309285 -0.012647881 0.0034506063 0.053995844 -0.03981836 -0.04973496 -0.015528633
-0.07646686 -0.077944115 0.0017170308 0.14255588 0.058440812 -0.016310964 -0.017070014 0.025767945
-0.009712838 0.0697784 -0.08565644 0.03671079 -0.019904982 -0.032425355 0.05902585 -0.011481196
0.052885726 0.004653884 -0.0038563428 0.09987901 0.010288181 -0.03032567 0.008698196 -0.034146022
-0.0032976991 0.06430334 0.043079168 0.02869025 0.02902582 0.044312645 -0.027621718 0.029418355
0.052681793 0.16140437 0.049489696 0.10172802 -0.0082278205 -0.029406229 -0.058294278 -0.020119164
-0.028783238 0.031353276 -0.03113247 -0.066133924 0.01813026 -0.03307283 -0.066831745 -0.0012397532
-0.022634922 0.0006852793 0.029355068 0.0004120189 0.09765646 0.081904136 -0.008064186 0.036356866
0.034336537 0.045744002 0.025942376 0.032375235 -0.0022833694 0.0699466 0.012932979 -0.047506023
0.15665622 0.033851136 0.026110625 0.020955114 0.032608557 -0.08163353 -0.055269387 0.059223942
0.031847067 0.010744879 -0.001914726 -0.02264831 0.024628915 -0.042729124 -0.055318408 -0.005373841
0.0072730677 -0.02594823 0.043553457 -0.06449751 -0.012208429 0.09058968 0.12612146 0.0775844
-0.02481254 0.0072942516 -0.058206458 0.026979856 -0.053697977 0.07092753 0.025018629 0.009298257
-0.030037269 0.04269572 -0.0029057816 0.009828281 0.067938544 -0.06949452 -0.016103394 -0.05064382
-0.024759838 0.051033035 0.18395661 -0.13076185 0.012016689 0.08447553 0.09469045 0.17671196
0.035645977 -0.050138727 0.05484586 -0.02456604 0.08237854 0.034699317 0.042906318 0.040333405
0.008063547 0.08887268 -0.021593245 -0.0039150924 0.04874517 0.026113218 -0.019920891 0.15612614
0.017360888 0.11269284 -0.05804701 -0.012642532 0.073465176 -0.020138191 0.0968829 0.02553998
0.014534244 -0.04315351 0.07936719 -0.009893518 0.013559953 -0.055979073 0.044542182 0.0023273681
0.013442444 -0.07292536 -0.043094814 -0.07169734 -0.02561035 0.016359234 -0.0054986104 0.07450201
-0.023007369 -0.04884309 -0.0047093923 0.0070598857 -0.011711158 0.06877083 0.13090645 0.073779576
-0.0012819809 -0.0038687445 0.07607204 -0.005175648 0.1127812 -0.051761054 0.00025042187 0.15808621
0.03215601 0.01626215 -0.03181004 -0.051521827 0.09975348 -0.039795894 0.029552458 -0.03801831
0.009026794 0.017881127 0.048747897 -0.12458253 0.013217065 0.06554353 0.0672063 -0.012186852
-0.030513136 0.027158968 0.027799115 -0.02862231 -0.022999762 0.060790446 0.027467765 0.0028851186
0.01052928 0.013859763 0.037691638 0.1195396 0.06061989 0.0028786834 -0.015460577 0.029712282
0.070210285 0.032792963 0.010063038 0.015402127 0.1944962 0.022997713 0.045914516 -0.024578549
-0.044653695 -0.13445896 0.037376296 -0.10999315 0.12022817 -0.1117968 -0.0047273915 0.035708472
0.013228446 0.010592264 0.10783049 0.14810033 0.029601842 -0.003524185 0.074319385 0.016923564
-0.06906186 -0.12126201 0.04826146 -0.07824586 0.057173315 0.0051209647 0.0422752 0.024016824
0.028475156 -0.04630548 0.0025453467 0.043102697 -0.08360949 0.089455865 -0.09884046 -0.096502
00000000: 392f 543d 45d0 003c 1f87 3bbd 5e0f 2ebb
00000010: 2f8e 0b3d a0a1 6d3d 3cce 803d 347f bdbc
00000020: 82e1 6f3d f6c1 b6bc 0f39 4fbc 9123 623b
00000030: bf2a 5d3d 9418 23bd e3b6 4bbd cf6b 7ebc
00000040: a89a 9cbd 2aa1 9fbd fe0d e13a 2bfa 113e
00000050: a25f 6f3d 929e 85bc 6ad6 8bbc 4c17 d33c
00000060: 9822 1fbc fae7 8e3d a56c afbd 0e5e 163d
00000070: c60f a3bc 73d0 04bd 17c5 713d a01b 3cbc
00000080: b49e 583d 9c7f 983b b2ba 7cbb 5e8d cc3d
00000090: c28f 283c 8a6d f8bc e182 0e3c b3dc 0bbd
000000a0: 361e 58bb 78b1 833d c873 303d d107 eb3c
000000b0: 8ec7 ed3c 2d81 353d f146 e2bc c3fe f03c
000000c0: ddc8 573d 3047 253e b5b5 4a3d c856 d03d
000000d0: fbcd 06bc 55e5 f0bc fbc5 6ebd f2d0 a4bc
000000e0: d3ca ebbc 4b6c 003d 8609 ffbc 3971 87bd
000000f0: e985 943c 6077 07bd 15df 88bd 377f a2ba
00000100: df6c b9bc 51a4 333a 0a7a f03c 3e04 d839
00000110: 1c00 c83d 5bbd a73d a61f 04bc f0ea 143d
00000120: 78a4 0c3d 105e 3b3d 1b85 d43c e59b 043d
00000130: 95a4 15bb 2a40 8f3d d8e4 533c ad95 42bd
00000140: 7d6a 203e 7da7 0a3d f3e5 d53c 0faa ab3c
00000150: 8d90 053d 7b2f a7bd 2762 62bd ce94 723d
00000160: 1272 023d 4a0b 303c 8bf7 faba f388 b9bc
00000170: 94c2 c93c bc04 2fbd 8e95 62bd 0c17 b0bb
00000180: ea52 ee3b 6291 d4bc 1c65 323d 4517 84bd
00000190: dd05 48bc 1587 b93d fc25 013e 92e4 9e3d
000001a0: ab43 cbbc 9e04 ef3b e569 6ebd dc04 dd3c
000001b0: 69f2 5bbd 7442 913d def3 cc3c b757 183c
000001c0: b810 f6bc b5e1 2e3d ed6e 3ebb cc06 213c
000001d0: 5d23 8b3d 2553 8ebd 44eb 83bc e56f 4fbd
000001e0: 25d5 cabc 0408 513d 1f5f 3c3e 6fe6 05be
000001f0: a6e1 443c 8201 ad3d 11ed c13d fbf3 343e
00000200: 8401 123d 445e 4dbd 0da6 603d b83e c9bc
00000210: 14b6 a83d df20 0e3d 89be 2f3d a434 253d
00000220: f81c 043c e102 b63d 51e4 b0bc 2d4a 80bb
00000230: 04a9 473d 63eb d53c 2331 a3bc 88df 1f3e
00000240: 6c38 8e3c 81cb e63d b4c2 6dbd 9f22 4fbc
00000250: e974 963d d9f8 a4bc 8b6a c63d 3839 d13c
00000260: 0a21 6e3c bcc1 30bd 448b a23d 6c18 22bc
00000270: 912a 5e3c 504a 65bd dd71 363d c286 183b
00000280: b23d 5c3c e459 95bd 3084 30bd 0ed6 92bd
00000290: cccc d1bc cd03 863c b02d b4bb 8394 983d
000002a0: f379 bcbc b10f 48bd 3f51 9abb 9d56 e73b
000002b0: 28e0 3fbc b9d7 8c3d 570c 063e bf19 973d
000002c0: 2408 a8ba c38a 7dbb a8cb 9b3d 7b98 a9bb
000002d0: d4f9 e63d 6603 54bd 0e4b 8339 5ae1 213e
000002e0: 05b6 033d 3338 853c 3f4b 02bd 8d08 53bd
000002f0: 8d4b cc3d 0501 23bd ff17 f23c 16b9 1bbd
00000300: 1ee5 133c 717b 923c e0ab 473d 2025 ffbd
00000310: 638c 583c b03b 863d 75a3 893d 5dab 47bc
00000320: aff6 f9bc 7c7c de3c f8ba e33c 5679 eabc
00000330: ff69 bcbc 67ff 783d 1404 e13c 4214 3d3b
00000340: 0083 2c3c 0f14 633c 8c62 1a3d 2ed1 f43d
00000350: 904c 783d 4ba8 3c3b 5c4e 7dbc 2c67 f33c
00000360: 69ca 8f3d ea51 063d 71df 243c 3459 7c3c
00000370: 032a 473e b365 bc3c dc10 3c3d f458 c9bc
00000380: cbe6 36bd 9caf 09be e317 193d 1744 e1bd
00000390: 303a f63d b8f5 e4bd 3ce8 9abb 0c43 123d
000003a0: 20bc 583c 2d8b 2d3c 3bd6 dc3d 9da7 173e
000003b0: 907f f23c 03f6 66bb c334 983d 49a3 8a3c
000003c0: 4e70 8dbd 3758 f8bd cfad 453d 5e3f a0bd
000003d0: 912e 6a3d c4cd a73b c328 2d3d eebe c43c
000003e0: bb44 e93c d1aa 3dbd d5cf 263b 748c 303d
000003f0: 743b abbd a334 b73d de6c cabd d7a2 c5bd

action_model._discrete_distribution.branches.2.bias f4 [3]
0.044753212 -0.07697596 0.027014783
00000000: 254f 373d 92a5 9dbd 1b4e dd3c
