ML-Agents/results/obs-from-ultimate-volleyball/Volleyball/Volleyball-42499964.onnx (onnx, 291918 bytes, 15 tensors)

discrete_action_output_shape f4 [1, 4]
000000 00 00 40 40 00 00 40 40 00 00 40 40 00 00 00 40
       3.0 3.0 3.0 2.0

network_body.observation_encoder.processors.0.normalizer.running_mean f4 [11]
000000 59 1f 2b 3e 03 6b ae 3d cb 90 11 3f d3 c3 2b 3f
       0.16711177 0.085165046 0.5686156 0.6709568
000010 0b 23 24 41 89 b6 93 bc 86 8b 48 bd ec f9 d7 3b
       10.258555 -0.018031375 -0.048961185 0.0065910723
000020 07 d7 cf bf 13 87 2a b6 28 e6 2d 35
       -1.6237496 -2.5410598e-06 6.4782444e-07

network_body._body_endoder.seq_layers.0.weight f4 [256, 11]
000000 52 8d ab be 0e 22 b7 3d 06 39 1f 3e 37 b1 1a bf
       -0.33506256 0.08942042 0.15549096 -0.6042666
000010 e6 c5 9a 3e 62 20 d0 bb 46 43 87 be e1 cb ec bd
       0.3022911 -0.0063515166 -0.26418513 -0.11562324
000020 2a 76 20 be ff 03 6d be 70 55 06 3f a2 34 7d be
       -0.15670076 -0.23146056 0.5247412 -0.24727109
000030 37 17 08 3e 8a 71 0b 3f 66 99 75 bf 96 6e e4 3e
       0.13290106 0.5447012 -0.9593719 0.4461562
000040 ae e6 9a 3c 87 bc 22 be 2c c3 8b bd 4a ec 04 3c
       0.018908825 -0.1589223 -0.068243355 0.008112976
000050 a9 1a 9a be 0f 28 c3 bd 11 7d f8 bd 48 4f f5 be
       -0.30098465 -0.09529125 -0.121332295 -0.4791205
000060 13 df 87 3e 11 51 8a 3d c6 52 21 bf 6b 22 99 bd
       0.2653738 0.067537434 -0.6301693 -0.07477268
000070 8d d6 47 be 93 52 aa 3e d8 df 01 bf ef 18 91 bd
       -0.19515438 0.33266124 -0.50732183 -0.07084834
000080 a8 fb a7 be c8 58 91 3e e6 3d 1b bf cb 4a 52 bb
       -0.32809186 0.28388047 -0.60641325 -0.0032088037
000090 77 ef a8 3d fe 43 66 3d 87 ec 91 3b 14 83 9a 3e
       0.08248799 0.056217186 0.004453245 0.3017813
0000a0 7c 49 83 3e 44 d0 89 3f 80 9c 4a be 78 44 48 be
       0.25642002 1.0766683 -0.19786263 -0.19557369
0000b0 1c a9 3c be 78 ec 35 be 1e 1a a5 3d 14 63 2d 3e
       -0.18423885 -0.17765987 0.08061622 0.16932327
0000c0 de 5e ce 3d 36 20 1d bd f3 d3 30 3e ef 71 11 3f
       0.10076688 -0.038360797 0.17268352 0.56814474
0000d0 85 8d 25 bf d7 6d 9f 3f ad 59 37 3f ef 02 05 3f
       -0.64669067 1.2455395 0.7162121 0.519576
0000e0 53 0d 05 bf 53 50 b3 bd 1b c8 be bd f4 85 2c bf
       -0.51973456 -0.08755555 -0.09315511 -0.67391896
0000f0 ee f6 9e bd f2 1a 36 be 47 56 1e be ea 3f 3b 3e
       -0.07761942 -0.17783716 -0.154626 0.182861
000100 fe 64 f9 bd 3a bf 91 3d ec 55 60 3e 5a 9e 00 bf
       -0.12177466 0.07116552 0.21907777 -0.50241625
000110 5c 2a d4 be d5 19 a1 be ad bd ba 3c fa 88 f7 3d
       -0.41438568 -0.3146502 0.022795523 0.12086673
000120 ed ab d7 be 94 36 86 3e 56 b3 bc ba 0f bf 60 bf
       -0.42123356 0.26213515 -0.0014396708 -0.8779153
000130 43 3f c8 be 9d 17 0e bf f1 99 ac 3e 22 2f 20 be
       -0.39110765 -0.5550478 0.33711198 -0.1564298
000140 11 34 11 bf 70 06 a3 be 93 f8 e5 be 68 99 b3 be
       -0.5672007 -0.3184085 -0.4491621 -0.35077977
000150 78 5f dc 3d 6c b5 5a bf e3 d6 15 3f 64 84 8f 3e
       0.10760397 -0.8543308 0.58531016 0.28030694
000160 c6 64 ab be 90 d7 34 3f ac f0 82 3e 83 a2 1a 3d
       -0.33475322 0.7064142 0.25574243 0.03775264
000170 72 16 47 bf 27 8a 84 3d 82 45 51 3d da f8 05 3b
       -0.77768624 0.06471663 0.05109168 0.0020442517
000180 07 9d 08 3e 40 6c b5 3e 97 d1 40 3e be 5a 9a 3d
       0.13341151 0.3543415 0.18829952 0.07536839
000190 f9 be f6 be 30 d1 b6 3e 1e 18 50 3e e3 fd a1 3e
       -0.48192576 0.35706472 0.203217 0.31639013
0001a0 06 dd b7 3e b9 2e af be 3e ec c2 be 88 e6 be be
       0.35910815 -0.34215334 -0.38070863 -0.37285256
0001b0 f0 05 67 3e 81 31 bb be e1 d0 18 be 05 4c e4 3e
       0.22560859 -0.36561206 -0.14923431 0.44589248
0001c0 16 79 b0 be 2b d2 cb be 14 76 a0 3e 7d 27 d6 3e
       -0.3446738 -0.39808783 0.31340086 0.41827002
0001d0 93 e0 43 3d 33 0f fd be a8 0d d6 3e 0d 88 60 bf
       0.047821593 -0.4942566 0.41807294 -0.87707597
0001e0 a2 1d b6 bc e2 f0 3b 3e 32 b1 e1 be 98 5d bf be
       -0.022230927 0.18353608 -0.44080502 -0.37376094
0001f0 df f6 59 bf bb 9d 25 bf 13 f4 6e bd f6 6d ad be
       -0.8514232 -0.646938 -0.058338236 -0.33872956
000200 3e 2f d5 bd 3b fb 13 3e 03 87 6c bf 2f 0a 7a bc
       -0.10409401 0.14451306 -0.9239351 -0.015261217
000210 04 f7 88 3e 79 52 17 bf 2d a4 d9 bd 17 2b f9 3e
       0.26750958 -0.5911022 -0.10627017 0.48665687
000220 84 75 31 3e 60 20 f4 3e c8 1d f2 3a ea 96 3a 3f
       0.17329985 0.4768095 0.001847201 0.72886527
000230 31 ab 89 be 09 fd 0b 3f c1 49 00 bf 33 5c a1 3d
       -0.2688842 0.54682976 -0.5011254 0.07878914
000240 d6 b9 ef 3d e8 82 ec be 1b bd b4 3e f4 d4 2d 3e
       0.11705367 -0.46193624 0.35300526 0.16975766
000250 dd 96 46 be 1b 91 01 3f a5 b1 ef 3d ff 03 38 bd
       -0.19393487 0.5061204 0.11703805 -0.044925686
000260 7c 38 a6 3f 2c eb 4f 3c 31 a7 f4 3e 55 0a 47 3e
       1.2985988 0.012690347 0.47783807 0.19437535
000270 12 d6 05 3f f8 20 46 3f 66 3a 1b be 5f eb 57 be
       0.5227977 0.77394056 -0.15158996 -0.2108588
000280 fc 02 c4 3e 1e 48 40 3e 81 68 49 3d c0 f3 85 be
       0.38283527 0.1877751 0.04917193 -0.2616253
000290 96 f5 46 bf b4 e0 0f bf db 3f 39 be d7 7d 1c bf
       -0.77718484 -0.56202245 -0.18090765 -0.61129516
0002a0 58 1b 97 3f d9 50 1d 3f c0 aa 02 be 3c ff f1 be
       1.180522 0.6145149 -0.12760448 -0.4726504
0002b0 07 65 f0 3e f5 0c 6a be e5 c3 05 be 5c 02 1d 3e
       0.46952078 -0.22856505 -0.13063009 0.15332931
0002c0 fb b9 f1 be ee 48 55 be ef 1d 39 3f fe 7e 7a 3e
       -0.47212204 -0.20828602 0.723113 0.24462506
0002d0 a0 64 b2 3e 0d 8c f7 be 35 3f 39 3e a9 29 a4 be
       0.34842396 -0.48349038 0.18090518 -0.32063034
0002e0 51 91 34 3e a9 18 2e bf 70 62 d0 3e f6 0a b5 3e
       0.17633559 -0.6800638 0.40700102 0.35359925
0002f0 88 93 b2 3b ae 26 5f bf d3 43 12 be 0f 76 94 bd
       0.005449716 -0.87168396 -0.14283685 -0.072490804
000300 a4 c8 01 bf 67 06 3b bf e8 27 cb 3e e7 e5 b2 be
       -0.5069678 -0.73056644 0.39678884 -0.34941027
000310 a3 93 cd 3d 9b 94 71 3e 80 38 5b bf b0 97 88 3e
       0.10037925 0.23591845 -0.8563309 0.26678228
000320 cd 46 ed 3e a1 69 f6 3e 57 fe 86 3e 24 f9 6e be
       0.4634308 0.48127463 0.2636592 -0.23337227
000330 9d f8 72 3e e5 8f 13 3f 53 c4 36 be 43 61 aa 3e
       0.23727651 0.5764144 -0.17848329 0.3327733
000340 90 6c b6 3d f3 4b 90 be e9 26 12 bf 24 eb 91 be
       0.089074254 -0.28182945 -0.5709062 -0.2849971
000350 3c 8c f4 be 22 1e 81 3e 36 88 4a 3e 15 bf ed 3c
       -0.4776324 0.25218302 0.19778523 0.02902178
000360 79 9f 7c bd b7 65 27 be a1 34 cd be f9 d5 50 be
       -0.061675522 -0.16347395 -0.40079215 -0.20394124
000370 67 a2 ee be 0f e1 c2 3e 15 68 05 bf a0 ec 2f be
       -0.46608278 0.3806233 -0.5211194 -0.17180109
000380 b6 66 e9 3e 24 12 27 3c 46 59 91 3e 59 a9 e9 be
       0.45586175 0.010197196 0.28388423 -0.45637015
000390 77 ca 05 3f be 78 a5 3e eb 06 4a 3e 1c 9b 30 bf
       0.5226206 0.3231868 0.19729201 -0.6898668
0003a0 ec b6 5f be b8 d5 15 3f ea 50 17 3c 07 ba f2 3d
       -0.21847123 0.58529234 0.0092356 0.11851888
0003b0 e4 d7 8b 3e 2e e5 19 be df d0 cc be de 52 be be
       0.2731315 -0.15028831 -0.40003106 -0.37172598
0003c0 bf ec 2d be 98 7b e3 bd 76 92 85 3e 13 dc df be
       -0.16984843 -0.11107558 0.26088303 -0.4372259
0003d0 a3 79 d9 be 07 84 4b be 2e f1 04 3f 81 2b 2d 3e
       -0.42475614 -0.19874583 0.5193051 0.16911127
0003e0 5e ee 0e 3e 14 16 0b bf 71 fe 51 3e d0 ef 91 3e
       0.13958117 -0.54330564 0.20507218 0.28503275
0003f0 68 2a 1d bf 85 ad 02 3f 3b 2c 91 be 3e 79 d2 be
       -0.6139283 0.5104602 -0.28354058 -0.41108125

network_body._body_endoder.seq_layers.0.bias f4 [256]
000000 7a 9c 9a bd 3a 02 0b 3e 9b b0 94 bd c0 4d 71 3e
       -0.07549377 0.13575068 -0.07260247 0.23564816
000010 28 5f 2b 3e 72 c7 f9 bc af 6b 75 3d 4f 81 ff bd
       0.16735518 -0.03049061 0.05991715 -0.124758355
000020 00 23 79 3d 8e 1c 4a 3e 3e f5 46 3e d0 b4 59 bd
       0.060824394 0.19737455 0.1942949 -0.05315095
000030 47 02 34 3e d1 ea 79 3e 21 ff f8 3e 0f 0d d7 3e
       0.17578994 0.24405982 0.48632148 0.4200215
000040 b5 54 97 3e cb 95 40 3d 89 62 45 3e 05 09 e1 bd
       0.29556814 0.047017854 0.1927587 -0.109880485
000050 c4 e6 05 3e 75 16 09 3e c5 db b8 3d 4d 1f 7f bd
       0.13076311 0.13387473 0.09026293 -0.06228571
000060 d5 bc 3c 3e 7d c7 7c 3e 09 64 c6 3d ba 54 94 3e
       0.18431409 0.24685474 0.09687049 0.2897089
000070 1c 8c 4d 3d 79 fc de bd f9 53 71 3c a9 b2 c3 3d
       0.050182447 -0.10887999 0.014729493 0.09555561
000080 d0 98 16 3e 18 31 bb 3e ad 04 d1 3e 09 80 3f 3d
       0.14706731 0.36560893 0.4082388 0.046752963
000090 99 db 24 be e3 cd c2 3d 4a 74 a6 3e 18 0a 06 3f
       -0.16099395 0.09511926 0.32510597 0.5235915
0000a0 40 45 79 3e 7d ab 9b 3e 57 6b f8 3c 21 67 00 3d
       0.24342823 0.30404273 0.030324621 0.03134835
0000b0 38 52 97 bd b5 96 68 3e da de 0c 3f ba b9 83 3e
       -0.07388729 0.2271374 0.55027544 0.25727636
0000c0 ff c4 c5 bd eb a7 a9 3e eb 2e da 3d 4d 38 68 bc
       -0.09656715 0.33135924 0.1065348 -0.014173579
0000d0 d8 d2 05 be b8 14 3e 3e 86 58 4c 3e 39 b5 c5 3c
       -0.13068712 0.18562591 0.19955644 0.024134265
0000e0 52 da 92 3b 70 b2 08 3e b6 01 c4 3e 09 08 d9 3d
       0.004481592 0.13349319 0.38282555 0.10597236
0000f0 1a 9c 28 3d 30 19 60 3e 4b 10 38 3e a1 eb 1c be
       0.041164495 0.21884608 0.17974965 -0.1532426
000100 97 0e f1 bd f9 55 40 3e e5 9a b9 3e f6 9e 82 3e
       -0.11770361 0.18782796 0.36250988 0.25511903
000110 cb 47 d4 3d 1d 64 0a bd 7c 1a ed bc 79 8c db bd
       0.10365256 -0.03378688 -0.028943293 -0.107201524
000120 1e 5c 00 3e a4 91 d8 bd bd 4f 49 3e 86 69 8e bd
       0.1253514 -0.10574654 0.19659324 -0.06953721
000130 41 09 ab 3e af d4 55 3e 7b 62 29 3e 53 eb 3b 3e
       0.33405498 0.20881914 0.16541474 0.18351488
000140 51 99 20 3e 1a cc 58 3d 37 cb b3 3e 02 ac 0f bd
       0.15683486 0.05292902 0.35115978 -0.03507615
000150 3c b1 63 bc 92 0f ac 3d d9 17 94 3e 4c 79 9e bd
       -0.013897236 0.08401407 0.28924444 -0.07737979
000160 63 aa c7 bd 23 fb c1 3e e7 43 dc bc 27 55 34 bd
       -0.097492956 0.37886915 -0.026887847 -0.04402652
000170 c8 02 e3 3e c4 b7 c4 3e ea e0 e8 bd cf 96 04 3d
       0.4433806 0.38421452 -0.11371024 0.032370385
000180 72 e6 8e 3e 31 5d 46 3e b6 f7 46 be f6 dd cd 3d
       0.2791019 0.19371487 -0.19430432 0.10052101
000190 03 9b c2 bd 2d 27 4c 3d f5 79 cb bb e2 5e bb 3e
       -0.095022224 0.04984205 -0.006209607 0.36595827
0001a0 18 cb 9e 3e c7 8f b6 3e d1 c4 16 3e 7e c1 56 3e
       0.31014323 0.35656568 0.14723517 0.20972249
0001b0 7e 9f b7 bd 9b d1 08 3d 8b d6 65 bc aa 97 92 3e
       -0.089659676 0.03340302 -0.014028202 0.28631335
0001c0 c9 88 dc 3e c7 01 a7 3e 9c a5 e9 3c ee f9 42 3e
       0.4307311 0.32618544 0.028521352 0.19040653
0001d0 94 e0 bf 3d 9a fd 92 3d 97 d9 ae bd 73 24 66 3e
       0.09369007 0.07177277 -0.08537596 0.22474842
0001e0 33 dd 09 be 61 0f ef bd fc d7 8f 3e e3 01 91 3e
       -0.13463287 -0.11672855 0.2809447 0.28321752
0001f0 7b 3d 62 3e 7b 08 11 bd f0 e6 d6 3e 85 57 e2 3b
       0.22093765 -0.03540848 0.41973066 0.006907406
000200 d1 d5 3e 3d 8b fe af bc 59 d6 e5 bd 8a 7b 74 3e
       0.04659063 -0.02148368 -0.11222524 0.23875251
000210 dc af 95 3a e0 4c 1d 3e 2d 4d d2 3d a8 12 f6 3d
       0.0011420208 0.15361357 0.10268626 0.12015277
000220 b7 ec 80 3e d7 5b 72 3e de 96 6b bd 71 53 0a bd
       0.251806 0.23667847 -0.057516925 -0.033770982
000230 e3 e1 2a 3e 83 40 b8 3d f6 89 e5 3d 12 7e bb 3e
       0.16687731 0.0899668 0.112079546 0.36619622
000240 9a ea ea bd 9f cb 11 3d cb 0b b9 bc e2 12 5a 3e
       -0.11470528 0.03559458 -0.022588631 0.21296266
000250 ed 2e 16 3e 47 09 34 3e a8 cd 3f 3e b3 c5 53 3d
       0.14666338 0.17581664 0.18730795 0.051702213
000260 fd 57 0e bd cd 41 10 3e a5 38 b0 3e 02 92 c0 3e
       -0.03475188 0.14087601 0.34418216 0.37611395
000270 a1 2e f3 bc 1f a0 e6 bd 74 93 dd 3d 32 8e ae bd
       -0.02968532 -0.112610094 0.1081914 -0.08523215
000280 57 fb 4c 3e eb d3 36 3e a9 10 3b 3e 67 2f a5 3d
       0.20017754 0.17854278 0.18268074 0.08065682
000290 19 be c3 3c 76 38 2f bb ad e5 f4 bc f5 1e a2 3e
       0.023894357 -0.0026736534 -0.029894674 0.31664243
0002a0 79 1e 64 3e d0 0a 75 3e e2 d0 b4 3e 77 19 b6 bd
       0.2227725 0.23929906 0.35315615 -0.08891576
0002b0 63 f9 ba 3e 12 e5 84 3d cf 23 8d 3d 75 03 08 be
       0.36518392 0.06489004 0.068915956 -0.13282569
0002c0 33 d7 d8 bd 71 1c 61 3e e2 bb 53 3e 07 a5 c3 3e
       -0.10587921 0.21983506 0.2067714 0.38211843
0002d0 32 e5 52 3e 50 da a7 3b c4 1c 85 3c 30 a9 3e 3d
       0.20595244 0.0051224604 0.016249068 0.04654807
0002e0 e8 6d 1c bd e0 56 6b 3e 29 b9 80 3e eb 61 81 3c
       -0.038190752 0.22982359 0.25141266 0.015793761
0002f0 6c b2 9f 3e f5 9f ee bd 49 24 c9 3e 61 59 81 3e
       0.31190813 -0.11651603 0.39285496 0.25263503
000300 72 35 fb bc 29 dd a0 3d 52 f7 63 3d 26 3d f4 bd
       -0.030665133 0.07854683 0.055655785 -0.11925726
000310 e2 8c 9e bb 60 7f e0 3e 76 2e 25 3e b4 6b 51 3d
       -0.004838572 0.4384718 0.16131005 0.051128104
000320 38 cc b2 bd f4 8e 0c 3f bf 3d 6b 3d c9 ae 5a 3e
       -0.08730358 0.5490563 0.057431933 0.21355738
000330 26 89 d4 3e 93 e7 c8 3e 30 4c aa 3d ac 09 9f 3e
       0.41510886 0.39239177 0.08315313 0.31062067
000340 9d 30 bf 3e ac ab b0 3d 76 6a 53 3d 68 12 44 3e
       0.37341776 0.08626494 0.0516152 0.19147646
000350 31 19 85 3e 50 99 4c be 77 96 01 3f b0 d4 8f 3e
       0.25995782 -0.19980359 0.50620216 0.28091955
000360 a5 67 a1 3c 68 fb fe 3d a2 f2 5f 3d 62 8e ec 3d
       0.019702742 0.12450296 0.054674752 0.11550595
000370 cc 0f f8 3d e8 b6 44 3e c0 5b f1 3b 57 72 83 3d
       0.12112388 0.19210398 0.007365674 0.06418293
000380 1f 86 93 3e 6d ec 95 ba 43 9c 21 bd 12 d7 6d bc
       0.28813264 -0.0011438258 -0.039455663 -0.014516609
000390 a3 0f 81 3e 05 31 a4 3e e9 66 69 3e ba 08 b5 3e
       0.25207242 0.3206865 0.22793163 0.3535822
0003a0 2d f5 23 be f1 47 70 3e fc af 99 3e 59 38 ba bd
       -0.16011496 0.23464943 0.30017078 -0.09092779
0003b0 fc 98 8d 3e 28 f6 ac bd 64 9d a3 3c 36 2e d2 3e
       0.2765578 -0.08445388 0.01997251 0.4105088
0003c0 fb d1 14 3e 18 21 03 3e 19 d6 fe 3d df bd 0b 3e
       0.14533226 0.12805593 0.1244318 0.13646649
0003d0 52 d1 86 bd 8d 96 c8 3e da 99 44 3e c7 d6 82 bc
       -0.065828934 0.3917736 0.19199315 -0.015971554
0003e0 ba 0f fa 3e 0e a1 a3 3e 03 40 c1 3e b0 54 64 bb
       0.48840123 0.31958812 0.3774415 -0.0034840517
0003f0 c3 ab ec 3d 91 d9 34 3d 2d c8 a0 3d cb da b5 3e
       0.115561984 0.0441528 0.078506805 0.35518488

network_body._body_endoder.seq_layers.2.weight f4 [256, 256]
000000 2a 76 96 3d 1c c2 fc 3d 86 de 24 be b3 2b cf bd
       0.07346757 0.12341711 -0.16100511 -0.10115757
000010 cc 93 b2 bd 24 fc 20 be 33 f7 0b be f5 2c 44 be
       -0.08719596 -0.15721184 -0.13668518 -0.19157775
000020 3c a0 3a 3c 5e 7d 59 bd 6f 11 c9 3d 07 8c 49 bd
       0.011390742 -0.053098075 0.09817778 -0.049205806
000030 35 b7 5a be 6a cd 19 be ea 56 15 be 1b 4c aa 3d
       -0.2135895 -0.15019765 -0.14583936 0.08315297
000040 d7 e0 64 3e 86 36 4a bd 3e 8e e9 3d b7 a5 51 be
       0.22351395 -0.049368404 0.11404084 -0.20473371
000050 21 37 00 bd 32 01 0c 3e 0f e8 2c be 09 4e 23 be
       -0.031302575 0.13672331 -0.16885398 -0.15947737
000060 b6 78 f5 3d 82 8a 13 be e0 00 92 bd 6a 46 2d 3c
       0.119859144 -0.14408305 -0.07129073 0.01057587
000070 a2 2a 1b 3e 9e 61 7a 3d d7 33 e8 3d 86 08 cc 3d
       0.15152982 0.06112825 0.11338013 0.09962563
000080 06 66 14 3e dc 28 6f bc 0d 54 5a bd d8 60 8c 3d
       0.14492044 -0.014597144 -0.053302813 0.06854409
000090 83 1d 25 be 35 74 2d be 5f 18 1c bd 39 8b 45 bd
       -0.16124539 -0.1693886 -0.03810918 -0.048228476
0000a0 f8 bd 39 bd 32 9a 1c bd 00 56 be bd ea b1 88 3d
       -0.045347184 -0.03823299 -0.09293747 0.066745594
0000b0 44 8b 4f 3d dc bd 8d 3d d1 85 a7 bd 7d 34 df bc
       0.050669923 0.069209784 -0.0817982 -0.027246708
0000c0 6b b9 83 bd 70 7f ff bd 2c 90 66 3e d2 92 2a 3e
       -0.0643185 -0.12475479 0.22515935 0.1665757
0000d0 14 a1 5b be 51 49 46 3c ee 86 82 3e 2f ff db 3d
       -0.21448165 0.012102441 0.25493568 0.10742032
0000e0 f6 e2 97 be ea f9 30 be 97 00 15 3e 43 da c6 bd
       -0.29665345 -0.17282835 0.14551006 -0.09709599
0000f0 2a 46 bd 3d 32 92 a9 3d d1 8e a6 3c c2 d0 ec bd
       0.09241898 0.08279838 0.020331772 -0.11563255
000100 a8 b8 bb bd 35 17 9d 3d 30 ef 88 bd d1 5a 2c 3e
       -0.0916608 0.07670442 -0.066862464 0.16831519
000110 16 b5 d6 bd 79 ad 44 bd 2e 5f 21 be b8 f6 4e bd
       -0.10483758 -0.048017 -0.15758964 -0.050528258
000120 25 4d 46 3d aa 1f 2c be fe a1 44 be 93 c5 95 be
       0.048413415 -0.16808954 -0.1920242 -0.292523
000130 89 f0 d7 bd 2d 35 35 bc 10 54 14 3e 92 7a 7f 3d
       -0.10543925 -0.011060041 0.14485192 0.06237275
000140 44 c9 c9 3c 70 3f 37 3e 5b ef 20 3c 8b c7 7e 3d
       0.024632104 0.17895293 0.009822692 0.062202018
000150 af 23 18 3e d3 94 20 bd 73 fe 8d 3e 2b 8c 5e 3c
       0.14857362 -0.03920443 0.27733192 0.013583223
000160 7b e2 3b be 0c ce 60 3d 63 9c b8 bd 64 63 88 bd
       -0.18348114 0.054884 -0.090142034 -0.06659582
000170 a1 0a d7 3d dc cb f7 bc d2 18 82 bd 32 82 01 be
       0.10500074 -0.030248575 -0.0635239 -0.12647322
000180 35 38 2f bd 9c db 35 be 66 76 fb bc 79 6d 41 3e
       -0.042778213 -0.17759556 -0.030696105 0.18889417
000190 5c e8 df bd 26 c4 91 3e 9f 39 06 3d af 2c c9 bd
       -0.10932991 0.28469962 0.032769796 -0.09822976
0001a0 4d 4e 0d bd 9f e8 00 be 06 e9 61 3c c3 38 15 3c
       -0.0344985 -0.12588738 0.013788467 0.009107771
0001b0 f3 12 1d be 29 ac 8a bd 4d 01 a9 3b 43 77 d4 3d
       -0.1533926 -0.06771118 0.005157626 0.1037431
0001c0 01 d5 ac 3d 68 ac 4f 3c 92 6d 6c be ae 5e 85 3e
       0.08439065 0.012675382 -0.23088673 0.26048797
0001d0 cb 68 97 bc 30 c6 4b be 68 98 78 bd cf f4 f8 bd
       -0.018482586 -0.19899821 -0.06069222 -0.121560685
0001e0 8a d2 26 bd 9f fc 46 be 8b 47 ed bd cd ca 1d 3e
       -0.04072813 -0.19432305 -0.11585911 0.15409394
0001f0 33 51 1e 3e b3 49 88 3e b6 74 9c bd 4d f6 81 3d
       0.15460663 0.26618728 -0.07639448 0.06345806
000200 62 a7 a6 be a2 d6 46 3c 46 dc fb 3c fc c0 01 3d
       -0.32549578 0.012136133 0.030744683 0.031678185
000210 56 06 17 3e 88 db 8f bd a0 f6 5e 3d a4 f8 c8 bd
       0.1474851 -0.07024294 0.05443442 -0.098130494
000220 dc 7c 7a 3d 37 e5 ab 3d 99 97 88 be 41 91 f3 3d
       0.06115423 0.08393329 -0.2667816 0.11892939
000230 94 15 b3 bd 88 aa a4 bd c1 ec b3 3d 85 14 2a 3e
       -0.0874435 -0.08040339 0.087853916 0.1660939
000240 1f 9e 5a 3d 9c 49 df bc e0 13 86 be ae 3b 51 be
       0.053373452 -0.02725678 -0.26187038 -0.20432922
000250 28 bd 1e 3e 4c db 73 3c 42 64 27 be f4 a9 3a 3e
       0.15501845 0.014883827 -0.16346839 0.18228894
000260 5d a4 36 be 5b 3a 58 3d 6a aa 3b bd 1b 9a f1 3d
       -0.17836137 0.052790027 -0.045816816 0.117969714
000270 15 df 25 bd c7 c7 f1 3c ba 9e eb bd 03 06 44 bd
       -0.04049595 0.029514207 -0.11504884 -0.047857296
000280 6f cd 28 3e 7e 0a c1 bd 44 01 fd bd 41 5e 40 be
       0.16484617 -0.09425829 -0.12353757 -0.18785955
000290 da 17 c2 bd ca 09 6e be 0e f5 d5 3d 99 9c 47 be
       -0.094772056 -0.23245922 0.10447131 -0.19493331
0002a0 b8 01 0f be 2e f1 b6 bd a5 92 9f bc c6 f4 d5 3d
       -0.139655 -0.0893272 -0.019479105 0.104470775
0002b0 f4 f6 e9 3d c4 df 0a 3c 53 21 21 be dc 79 c8 3c
       0.11424056 0.008476201 -0.15735368 0.02447217
0002c0 24 83 a7 3d b2 dc c5 3d 4b f0 94 3d 17 cd 74 bd
       0.0817931 0.09661235 0.07272395 -0.0597659
0002d0 7a a2 07 3d 13 ea 10 3d a0 75 a7 bd 93 cc 8b 3d
       0.033113934 0.03537948 -0.08176732 0.06826129
0002e0 3a d1 13 bd ef 12 57 3e a2 84 d0 3c 9e 97 42 be
       -0.036088206 0.21003316 0.02545387 -0.1900315
0002f0 72 ce 68 3d bc 93 b7 3c f6 82 d3 bd 1d c0 09 3c
       0.056837507 0.022409312 -0.10327713 0.00840762
000300 e9 48 07 be 8e af b4 3b 29 12 4b 3c bf 7a b3 bd
       -0.13211407 0.005514092 0.012394466 -0.08763646
000310 71 6c f9 3d 11 18 76 bb bb 9e ec 3d 62 4f d9 3d
       0.12178887 -0.0037550966 0.11553713 0.10610844
000320 f4 61 30 3e ce 7c 42 bd 56 7f 36 3d 80 56 09 bc
       0.17224866 -0.047482304 0.04455503 -0.00838244
000330 e8 eb ae 3d 51 b2 34 3c 1c 6c a3 bc 2a 33 1e be
       0.08541089 0.011028842 -0.019949012 -0.15449205
000340 62 a5 8d 3e 32 27 34 3b a5 6d a9 bd 66 c7 06 bc
       0.2766524 0.0027489183 -0.08272866 -0.008226251
000350 78 49 83 bb 3d 5e 25 be c2 31 f3 bc 70 66 43 bd
       -0.004006561 -0.1614923 -0.029686812 -0.047705114
000360 93 3f d8 bc b3 d6 19 3e 37 eb 41 3e a9 a0 c7 bd
       -0.026397502 0.15023308 0.18937384 -0.0974744
000370 fe 59 c1 3d 64 31 65 3d 8d 98 dd 3d 20 69 72 bd
       0.09440993 0.055955306 0.108201124 -0.059182286
000380 40 9c 80 bd 52 b5 7a be 75 39 6f bc ce 46 56 be
       -0.06279802 -0.2448323 -0.014601101 -0.20925447
000390 0a 81 5f bd 51 4d 98 be 99 f9 82 3d 4b ac 0b 3d
       -0.05456642 -0.29746488 0.06395263 0.03409986
0003a0 14 aa a7 bd ef ba da bd 66 15 df 3d 9d 40 32 bd
       -0.08186737 -0.10680186 0.10892753 -0.04351865
0003b0 96 ed 85 bd ef c5 48 3d cc c7 17 be 93 12 e6 bd
       -0.065394565 0.04901689 -0.1482231 -0.112340115
0003c0 34 82 1d bc 8d a0 a1 3d 77 1a 95 bc d5 7d 0b be
       -0.009613562 0.07891951 -0.018201096 -0.1362222
0003d0 e3 9e 14 be cb 60 b6 3d 6d 34 b2 3d 4e fa c3 bc
       -0.14513735 0.089051805 0.08701406 -0.023923066
0003e0 c2 9e 23 3d 6d 7a 02 be b2 b4 bd 3d cd 53 dd bd
       0.039946325 -0.12742014 0.092629805 -0.10806999
0003f0 41 ff 00 bd a8 b5 89 3e 65 df 33 be 2e e5 2d bd
       -0.03149343 0.26896405 -0.17565687 -0.04245489

network_body._body_endoder.seq_layers.2.bias f4 [256]
000000 9e 2b 1f 3e f3 dd 8e 3d 7c a0 6a be 28 ba 8f 3d
       0.15543982 0.06975927 -0.22912782 0.07017928
000010 9b 87 5b 3d 31 aa a5 bc a9 b6 b1 3d 03 93 47 be
       0.05359612 -0.020222755 0.08677418 -0.19489674
000020 f4 93 35 3e 61 09 91 3d ab 52 a3 3d 54 20 7b 3c
       0.17732221 0.07081867 0.07974752 0.015327532
000030 c2 fe 4f bd 52 fb 09 be ad 44 43 bd 46 2e 01 bd
       -0.050780065 -0.13474777 -0.047672916 -0.03153827
000040 e7 7c 19 3d dd 3e 3b be 48 28 4a 3b b9 a6 91 3d
       0.03747263 -0.18285699 0.0030846763 0.07111878
000050 42 46 59 bd ac 8d c4 3c 52 67 b9 bd a9 ed 20 3e
       -0.05304552 0.023993336 -0.0905291 0.1571566
000060 da 5b 33 be 28 75 43 3d c7 de b8 bd 54 a4 12 be
       -0.17515507 0.04771915 -0.090268664 -0.14320499
000070 ef 30 c6 3d d3 69 c8 3c af eb 8f 3d 2d 68 ab 3c
       0.09677302 0.024464523 0.07027375 0.020923698
000080 35 11 ec 3d 19 b7 2a be 2f 9c 8d bd 6e 70 75 bc
       0.115267195 -0.16671409 -0.06914555 -0.014980419
000090 07 ea 1c be d8 b3 24 3c bd bc 45 3e d4 1b df bd
       -0.1532365 0.010052644 0.19310279 -0.1089398
0000a0 c5 e0 de bd 19 e8 43 bd 52 57 19 3e ec 90 d4 bc
       -0.10882715 -0.047828767 0.14974716 -0.02594801
0000b0 57 43 16 3e fe 42 2b bd e7 72 8d 3c 9d ee e9 3d
       0.14674126 -0.041811936 0.017266704 0.11422465
0000c0 f1 d4 4b bd d2 28 67 bd d6 a4 19 3c 5b f7 3f be
       -0.049763624 -0.056435414 0.009377679 -0.18746702
0000d0 63 c1 4a bb 1f 57 ef 3c 4b ba c9 3c d6 68 0f bd
       -0.0030938021 0.029216347 0.024624964 -0.03501209
0000e0 1f 5a 93 bc 71 2d 37 bd 45 dd 58 be 93 f7 6d be
       -0.017987309 -0.04472107 -0.21178158 -0.23238973
0000f0 1e 90 6a be da 97 8d bd ec 4a 48 3d 02 0b 26 be
       -0.22906539 -0.06913729 0.048899576 -0.16215137
000100 68 ca 9c 3d 22 a0 e8 bc 90 33 9c 3c d5 5a 1f bd
       0.076557934 -0.02839667 0.019067556 -0.038904984
000110 be 22 80 3d af 34 fe bd 19 5e be 3d cb 70 6f 3d
       0.062566265 -0.12412392 0.092952915 0.058457177
000120 8b 87 07 3e 95 9d 03 be 18 ff 48 3e de dd 07 bd
       0.132353 -0.12853082 0.1962856 -0.033170573
000130 90 fd 43 3d 3c 1a c0 bd 7a f7 2e be de 1d f2 3c
       0.047849238 -0.09380004 -0.17086592 0.029555257
000140 7b d2 b0 bd e8 c1 3a 3d 5f 67 5d 3e 70 4b 32 3c
       -0.08633896 0.04559508 0.21621464 0.0108822435
000150 72 d0 08 3d 65 58 72 be 99 37 59 be e3 a3 25 bd
       0.033401914 -0.23666532 -0.21212615 -0.040439498
000160 cc 78 a2 bd 76 81 63 bc 44 e6 66 be c0 9c 69 bd
       -0.079331964 -0.013885846 -0.22548777 -0.057034254
000170 43 6e 0d bb f2 c4 33 be ff 5f 35 3c c2 40 fa bd
       -0.0021580614 -0.17555597 0.0110702505 -0.12219383
000180 ce e1 f4 3d c9 72 6d bc 85 ad 07 bd 2d f1 3b be
       0.11957131 -0.014492699 -0.033124465 -0.1835372
000190 85 21 c3 3d 5e a9 45 bd 84 b6 27 3e 6c 19 ab 3b
       0.09527878 -0.048257224 0.16378218 0.0052215364
0001a0 95 74 08 3e 9a b9 97 bc 4e 21 80 bd 8c 01 f3 3d
       0.13325723 -0.018521119 -0.06256352 0.118655294
0001b0 fa 61 25 bd 50 30 d7 3d 40 f5 51 be 18 5a 84 bd
       -0.04037664 0.10507262 -0.20503712 -0.064624965
0001c0 1a 5f 70 be e9 59 92 bd 7b 20 7d 3d ee ed aa 3d
       -0.23473778 -0.07146055 0.061798554 0.08346163
0001d0 4e cc 34 3c 5c a4 a3 bb 3d a6 cc bc 86 72 a4 bd
       0.011035038 -0.0049939584 -0.024981612 -0.08029656
0001e0 55 d6 61 bd ad 40 e0 3d 12 03 de b8 f7 a8 54 be
       -0.055136044 0.10949836 -0.00010586357 -0.2076758
0001f0 cc c4 21 3c b5 1e 8e 3e 9f 95 f1 3d 63 f6 de bc
       0.00987358 0.27757803 0.11796116 -0.027217096
000200 7b 0b 5d 3e 72 bb d5 bd e1 a9 01 bd 72 7e 0e 3d
       0.2158641 -0.10436143 -0.03165615 0.034788556
000210 b3 6d 02 be b2 cc 83 3d 10 23 80 3e 04 91 a5 bb
       -0.1273716 0.06435527 0.2502675 -0.0050526876
000220 28 11 a6 3d 76 47 30 3d 9b 16 b9 bd 03 35 39 3b
       0.08108741 0.0430369 -0.09037515 0.0028260357
000230 ad 9c 3d 3c 02 29 00 bd c1 a9 e2 bd 47 82 0c be
       0.011572999 -0.031289108 -0.11067534 -0.13721572
000240 fa 2a 1f 3e 46 93 29 3e 1e fc 29 be f7 51 29 3d
       0.15543738 0.16560087 -0.16600081 0.041337933
000250 6f bd 8d 3c 19 50 55 bd 54 9a 49 3e a4 e6 81 3c
       0.017302243 -0.05207834 0.19687778 0.015857048
000260 d0 83 7a bd 9b 22 bd bd 3f 6b b7 3d 12 be 94 3d
       -0.061160862 -0.09235116 0.089560024 0.072628155
000270 89 74 9d 3e 58 8a bc bd b3 c2 5f 3d 3c 1f eb 3c
       0.30752972 -0.092060745 0.05462904 0.028701417
000280 a8 ea d8 3d 90 fa 56 bb 77 4f 56 3d 06 08 d9 bd
       0.10591632 -0.0032803155 0.052321877 -0.105972335
000290 1d a9 86 3d ca 7c 64 3d c5 ca 56 be d6 1b 1e bd
       0.065752245 0.05578307 -0.20975788 -0.038600765
0002a0 8b 43 09 bc 46 c2 0b bd 29 8b 16 3c 39 19 d2 bd
       -0.00837792 -0.03412082 0.009188452 -0.10258717
0002b0 30 2a 1d be 06 a9 e6 bd f7 cf 56 bd 51 27 e4 3c
       -0.15348125 -0.112627074 -0.052444424 0.027850779
0002c0 a0 2f ab 3d ac f0 0d bd 1b 3b e1 bd c2 a0 a8 bc
       0.08358693 -0.03465335 -0.109976016 -0.020584468
0002d0 d0 c2 6f bd b4 d2 8b be 40 6a 26 bd dc dd 3d 3c
       -0.058535397 -0.2730919 -0.04062867 0.01158854
0002e0 31 a5 3e 3d 84 3a 44 be 95 b9 2a be e9 cb d7 bc
       0.046544258 -0.19162947 -0.16672356 -0.02634235
0002f0 7e 30 09 be 3d eb 5b bd 61 33 42 3d c4 24 d4 3d
       -0.13397405 -0.053691138 0.04741228 0.10358575
000300 9c bb 0e 3d 97 80 a0 3d 45 c2 1a 3e 5d 22 03 be
       0.034846887 0.078370266 0.1511317 -0.12806077
000310 ac ef 17 38 b7 3f 81 3d 28 f7 6a 3e b3 50 5a 3d
       3.6224417e-05 0.06310981 0.22945845 0.053299617
000320 19 0d 39 be 72 a3 38 3d 16 77 41 bd a0 e0 60 be
       -0.18071403 0.04507775 -0.04723271 -0.21960688
000330 8e 4d 3a be a8 47 9e bd 8e 6c b9 bd c5 79 82 bb
       -0.18193647 -0.07728511 -0.09053908 -0.003981801
000340 da f4 92 3c d2 ee 1d 3e 8a ad be bc 5b de 97 3e
       0.01793902 0.15423134 -0.02327611 0.2966183
000350 cd 88 c8 bc cf 9e 4a bb 37 3b b2 3d cd 15 23 3e
       -0.024479294 -0.0030917411 0.087027006 0.15926285
000360 ed 15 d4 3c e7 d3 e0 3d cf a4 7b bc 56 1a 0d 3d
       0.025889361 0.10977917 -0.015359118 0.034448944
000370 d0 03 c4 bd 6f 59 a2 3d 7f 10 ff 3c 8b 2b 86 bd
       -0.0957104 0.07927214 0.031135796 -0.06551274
000380 db a0 a7 3a 41 4c 6a be 75 7f 75 3d 1a 16 ed bd
       0.0012789028 -0.22880651 0.059936006 -0.11576481
000390 a0 90 24 bd 2b 9b c0 3b f4 0f d7 bc d8 0d 64 3d
       -0.040176988 0.0058778725 -0.026252724 0.055677265
0003a0 7e 16 8c 3e cf d4 12 3e 38 1d 2a be 15 72 d4 bd
       0.2736091 0.14338993 -0.16612709 -0.10373322
0003b0 fa 7c 57 bd 72 36 79 bd 5d a0 6c 3e 5a 09 2e 3e
       -0.05260942 -0.06084294 0.23108049 0.16995755
0003c0 f9 30 85 be bd 30 bc bd db f5 c6 3a eb 09 37 be
       -0.26013926 -0.091889836 0.0015179472 -0.17874877
0003d0 6b 8b e1 3d c5 2f 3f 3c 8b bd 63 3e 79 c8 a6 3d
       0.1101292 0.011669104 0.22240274 0.08143706
0003e0 06 80 3e 3e b6 f7 49 be 36 51 e7 3d 26 3a 9a bd
       0.18603525 -0.197234 0.11294787 -0.07530622
0003f0 ae 2d 81 bd fe 2b 99 bc 24 2b 3a be ff 63 05 be
       -0.06307541 -0.018697735 -0.1818052 -0.13026427

action_model._discrete_distribution.branches.0.weight f4 [3, 256]
000000 a0 3e 41 bd 46 7e fc 3c ed bb 14 bd f0 0b 3b 3e
       -0.047178864 0.03082193 -0.036312032 0.18266273
000010 be 4d 82 bd 37 a5 38 3d f8 02 04 be 0a 64 95 be
       -0.063624844 0.045079436 -0.12891757 -0.29177886
000020 a7 0d 8b bd 1e cb 09 3e 96 80 f8 3c 5f 3d 07 3c
       -0.06789713 0.1345639 0.030334752 0.008254378
000030 16 2c 5f bd da 5e f9 bc 0b 93 8e bc af 5b 47 bb
       -0.054485403 -0.030440737 -0.0174041 -0.0030419638
000040 f6 9e 94 3b 52 da d8 bc 2e d5 fb bd 3c 5f 5b bb
       0.004535551 -0.02647129 -0.1229652 -0.0033473512
000050 14 77 fd bd 02 6d 97 bd 08 9b b8 bc 99 16 63 bd
       -0.12376228 -0.073938385 -0.022534862 -0.055441473
000060 1b e7 74 3c e5 82 83 bc 04 02 3a 3d 15 6d 96 be
       0.014947678 -0.016053626 0.04541208 -0.29380098
000070 ac 22 25 3d cd 2f 54 3d dd 1e c8 bd 07 1c 96 3e
       0.04031627 0.0518034 -0.09771512 0.29318258
000080 e0 c4 3b 3c 0a d9 65 bd 89 d0 4e 3e 39 f2 a8 bd
       0.011460513 -0.056115188 0.20196737 -0.08249325
000090 c4 e1 57 be 0c 49 86 3e c3 cb fd bb e1 0d 5b 3e
       -0.21082217 0.26227605 -0.0077452376 0.21392013
0000a0 78 69 97 be be a8 b1 bd 0e a8 23 be 42 aa d1 3d
       -0.29572654 -0.08674763 -0.15982077 0.10237552
0000b0 67 f6 39 bc d7 04 8e bb 46 64 17 3e c4 27 de bd
       -0.011350251 -0.004334073 0.14784345 -0.108474284
0000c0 5f 76 13 bc 96 a9 f4 be 25 54 f9 3d 2c a3 b5 bd
       -0.00900039 -0.47785634 0.121742524 -0.08869013
0000d0 b2 b6 d1 bb 38 4c 06 3e 0a 15 dc 3c ca 7f 30 3c
       -0.006399953 0.13115013 0.026865501 0.010772655
0000e0 f8 f2 22 3e 53 5b e0 bd c3 7b 09 be 6b 13 42 bd
       0.15912998 -0.10954919 -0.13426118 -0.0473818
0000f0 a4 8e bb bd a9 b5 73 3d 51 02 2a 3c 88 c6 c1 3c
       -0.09158066 0.059499417 0.010376529 0.023654237
000100 66 af f6 b9 c9 0e 17 3c 9a 06 ce bc 59 a1 3c bd
       -0.00047051458 0.009219834 -0.025149632 -0.04605231
000110 8f b1 00 bd 09 0e 2c bd cc 1d af 3d 86 2b e9 bd
       -0.031419333 -0.042005572 0.08550605 -0.113852546
000120 e4 39 28 3d 2b 3d 3d be 74 ae e8 bd 11 00 53 bc
       0.041070834 -0.18480365 -0.11361399 -0.012878434
000130 70 9a 02 3d e1 7d fa bd 69 b8 d6 bd db a4 42 3d
       0.031885564 -0.12231041 -0.10484392 0.0475205
000140 e4 d7 fb be b9 98 17 bd 76 81 5e 3c 64 d6 47 3d
       -0.4918815 -0.037010882 0.013580671 0.048788443
000150 36 88 16 3d 06 02 a0 bd 29 75 26 3d 11 c9 b4 bd
       0.036750995 -0.07812886 0.040639076 -0.08827413
000160 d0 6a 63 bd be 00 cf bc c1 db 72 be 4c fd c3 3c
       -0.055521786 -0.025268909 -0.23716642 0.023924492
000170 8a 73 37 bd 09 bf 92 be da b1 1a 3e 84 32 bc bd
       -0.04478792 -0.28661373 0.15106907 -0.091893226
000180 7e 86 82 bd 1f 4c c7 3b a3 76 be 3d 90 b0 d0 3c
       -0.063733086 0.0060820724 0.09299972 0.025474817
000190 a7 b0 c8 bd c0 0a 31 3d 8c 7e 5c 3b fe f0 46 bd
       -0.09799319 0.043223143 0.0033644764 -0.04856967
0001a0 13 30 14 3d b6 b5 84 bc 9e 5b 21 3e 4c d6 01 be
       0.03617866 -0.016199928 0.15757605 -0.12679404
0001b0 d0 e2 26 bd 39 2a 36 3b af 86 b7 bd 78 42 e2 3c
       -0.04074365 0.0027796163 -0.08961236 0.027619585
0001c0 58 90 3d bd f7 62 d4 3d 37 af 33 3c 1d 54 4b 3d
       -0.046280235 0.103704385 0.010967067 0.049640764
0001d0 6d 62 eb bc 44 f9 05 3c 99 49 c2 3b 86 7b 6b 3d
       -0.028733457 0.008177105 0.0059291837 0.057490848
0001e0 50 2b 95 3d b0 47 a2 3b 7d d9 98 be ae 3d 7d 3c
       0.07283652 0.0049523935 -0.2985343 0.0154566
0001f0 13 34 25 3d 2c bd d0 bc 19 21 18 be 6f e7 03 be
       0.040332865 -0.02548083 -0.14856376 -0.12881254
000200 60 d2 ac bd 58 38 76 bc e7 8f 99 bc 4a af d0 3c
       -0.08438563 -0.015028082 -0.018745376 0.02547421
000210 7e 81 07 3d 6f 70 17 bd 70 32 3c bd c9 a2 ed 3d
       0.033082478 -0.03697246 -0.04594654 0.116033144
000220 96 4c 0d 3d d6 63 c9 bc 3b 16 84 3d b1 94 38 3b
       0.034496866 -0.024583738 0.064495526 0.00281648
000230 e3 3c 97 bd 33 0d 3e bc a7 74 7e 3d 6c eb 0d be
       -0.0738466 -0.011599827 0.062122967 -0.13859338
000240 18 4e 4f 3c 4c 68 2c bc e7 4e 28 bd bb 8e c1 3d
       0.012652896 -0.010522913 -0.041090872 0.09451052
000250 20 fd d6 3b bc 91 f8 3c 82 e8 ee 3c a3 fe f9 b9
       0.0065609366 0.030342929 0.029163603 -0.000476827
000260 47 8d a8 3d c6 f1 24 3e 50 d2 89 3d 32 8d 83 bd
       0.082300715 0.16107854 0.06729567 -0.06423415
000270 d1 f2 9c 3c d1 ed 63 bc cd b3 98 3c f3 b4 25 3d
       0.019158753 -0.01391168 0.018640423 0.04045577
000280 30 ba 07 bd 89 e3 ff 3d be 82 19 3e 10 47 df bd
       -0.033136547 0.12494571 0.1499128 -0.10902226
000290 80 1e ee 3a ef 09 62 3c 74 cb 3a bd fe 17 c8 bd
       0.0018167049 0.013796314 -0.045604184 -0.09770201
0002a0 00 53 be 3e e9 7f ae 3e c2 40 0b 3e 20 49 f6 bd
       0.371727 0.34081963 0.13598922 -0.12025666
0002b0 55 6b f3 3d 7e 72 4f be c4 23 d4 be 39 f4 a4 be
       0.11885706 -0.20258519 -0.41433537 -0.32217577
0002c0 6e 4b 29 3d a2 a6 ab 3c 49 b4 9f 3d 65 10 51 3b
       0.0413317 0.02095348 0.077980585 0.003190064
0002d0 ef f6 32 be 31 bc 9a be 4d 8b 9d 3d 94 a5 ed bd
       -0.1747701 -0.30221704 0.07692585 -0.11603847
0002e0 a1 cc 0b bc 9b 01 60 be 13 b6 4b 3d 59 9f ec bd
       -0.008532674 -0.21875612 0.049734186 -0.11553831
0002f0 9d b0 f5 bd 1c e8 cd bd b2 dd 5c 3d f6 d4 f4 3d
       -0.11996577 -0.10054037 0.053922363 0.119546816
000300 36 13 90 bd a4 ec a9 bd 98 c6 f5 3b e6 ed 65 bd
       -0.07034914 -0.08297089 0.007500481 -0.05613508
000310 df 46 97 3d 3e 71 fb bc 9b 22 d0 bc 26 fb 91 3d
       0.073865645 -0.030693647 -0.025407126 0.07127981
000320 0c 9f 25 bc 90 14 82 bd 61 08 0c bd 35 02 48 3c
       -0.0101087205 -0.06351578 -0.03418768 0.012207557
000330 bf b9 fd bc ac 18 0d 3d 35 b2 b3 bd 64 2e 32 bc
       -0.03097236 0.034447357 -0.08774225 -0.010875318
000340 f6 1b d3 bd 87 45 30 3e f5 6f ed 3d a4 df 23 bd
       -0.103080675 0.17214023 0.1159362 -0.040008202
000350 cc 6b 6f be 96 65 dc 3a 41 a3 24 be 1f f8 89 bd
       -0.23380965 0.0016814943 -0.16077901 -0.067367785
000360 8b d1 9d be 2c fd 4b 3d 7b 9b 0e bd cb ef 2d 3e
       -0.3082393 0.04980199 -0.034816246 0.16986005
000370 14 8b fd bc c1 02 99 3d 30 10 a3 3d be b1 83 3c
       -0.030950107 0.074712284 0.07962072 0.016075965
000380 cb 5a ab bb 06 1e 2d 3e 41 09 d6 bc 06 59 c6 3e
       -0.005229329 0.16905984 -0.02612746 0.38739794
000390 9d 27 75 bd b9 10 de 3d f6 d4 86 bc 80 9d 82 bb
       -0.05985223 0.10843033 -0.01645897 -0.0039860606
0003a0 db 25 30 bd 5d 48 0b be 27 d2 26 be 8a a4 d9 be
       -0.04300485 -0.13601823 -0.16291104 -0.42508346
0003b0 cd 57 86 3d 8f 7e 99 bc ed 3f 9a bd bd 4a 20 bd
       0.065597154 -0.018737106 -0.07531724 -0.039133776
0003c0 82 93 9e 3d 89 12 d7 3c c3 9a 9c bc d2 71 25 3c
       0.07742979 0.026253955 -0.019116765 0.010097938
0003d0 ef 05 be 3c a3 28 ae 3d b5 a5 66 bd 48 82 6b 3c
       0.023196189 0.085038446 -0.056310374 0.014374323
0003e0 e3 05 cc 3c 4a 68 2d 3c 6a 72 98 3d 52 3e 46 bd
       0.02490515 0.0105839465 0.07443698 -0.048399277
0003f0 4e e5 07 bd f8 db c6 be f7 c7 e1 3d 38 63 9c 3e
       -0.033177666 -0.38839698 0.110244684 0.30544448

action_model._discrete_distribution.branches.0.bias f4 [3]
000000 3d c8 1e 3c f7 ed 41 3c e6 04 96 bc
       0.009691295 0.01183652 -0.018312883

action_model._discrete_distribution.branches.1.weight f4 [3, 256]
000000 17 88 15 bc a4 9a 12 bd e1 30 15 bc 81 17 c2 3c
       -0.009126685 -0.035792008 -0.009105892 0.023692848
000010 39 d6 2e bb 07 30 d7 3c ce ae b7 bb 79 97 5d 3d
       -0.002667798 0.026268018 -0.005605555 0.054099534
000020 02 cf 20 3d af b7 97 3c 0b 57 27 3a 3b 35 cf 3b
       0.039259918 0.018520204 0.0006383515 0.0063234842
000030 42 65 5e 3b b9 b8 2d bd 9c ad e8 bb 3f 9d 20 3c
       0.0033934866 -0.042412493 -0.007100774 0.009803115
000040 c9 43 da bc df 9a 18 3d df 96 e5 bc ab 0d c6 3c
       -0.02664365 0.03725707 -0.028026043 0.02417644
000050 65 96 06 3d 7c 01 46 be 89 2f 92 bd a5 33 6e bc
       0.03285827 -0.19336504 -0.07137973 -0.01453868
000060 7c b2 91 3b c2 9f 2c 3d a9 4e b8 3b fe 4c af bc
       0.004446326 0.042144544 0.0056246114 -0.021399017
000070 50 df 04 bc a8 a2 83 bc 9d 8a 19 3d 2c fe 00 3d
       -0.0081098825 -0.016068771 0.037485708 0.031492397
000080 ca 87 fb bc e0 21 03 bd 70 11 f6 bc 81 fc 7b 3c
       -0.030704398 -0.032014728 -0.030037612 0.015380026
000090 fe af 63 3b 5b 60 38 3a 1d d7 8e 3c 8c b9 18 bc
       0.003474235 0.0007033401 0.017436558 -0.009321582
0000a0 1b 49 54 bd 86 5b 34 bd ad bb 4f bd bf d6 74 3a
       -0.05182753 -0.044032596 -0.05071609 0.0009339861
0000b0 39 7a 25 bd 80 68 6e 3c 46 82 f2 bb 9b 5f 6b bb
       -0.040399764 0.014551282 -0.0074007837 -0.003591514
0000c0 3d cd b7 3b a2 33 8d bd af 94 39 3c 94 ed 03 bd
       0.005609183 -0.06894614 0.011326953 -0.032208994
0000d0 04 f9 71 3d 8a a6 96 3d 28 1e 4e bd ea ac ab bc
       0.05907537 0.073559836 -0.050321728 -0.020956475
0000e0 e1 60 37 bd ad 55 f9 bc d4 7b 6b bd 1c 45 1b bd
       -0.044770125 -0.030436361 -0.05749114 -0.037907705
0000f0 ea 69 ee bc 39 59 0c 3c 0c 9b 2a bd 50 d1 81 3b
       -0.029103238 0.008566194 -0.04165177 0.0039617196
000100 c2 d0 1d bc 1b 09 78 bd 4a b2 9b 3c e8 e8 d5 3c
       -0.009632291 -0.06055556 0.019005913 0.026112035
000110 a1 88 17 3d 49 88 5c bd 25 53 cf 3c ea 64 96 3a
       0.036995534 -0.05384091 0.025308201 0.0011474167
000120 f9 11 72 bc c7 b2 10 bb b7 0d c7 3c e6 26 cd 3c
       -0.014774793 -0.0022079216 0.024298532 0.025042962
000130 72 b5 0e 3d 69 76 9f bd 96 99 b0 bd 2d 9f 1b 3e
       0.03484101 -0.07786257 -0.08623044 0.1519744
000140 5a 49 7e bd 13 b8 46 3d 23 6d fe 3c 80 83 97 bd
       -0.062081672 0.04851539 0.0310579 -0.073981285
000150 4d 17 3c 3d 92 44 80 bd d9 51 be 3b 4b ca c5 bc
       0.04592066 -0.06263079 0.005808097 -0.024144312
000160 33 58 ab 3d cc 2e 2a 3d ed 6d 93 bd 8e 59 29 ba
       0.08366432 0.041548535 -0.07198701 -0.0006460183
000170 1b 05 e1 3b 12 f3 0e 3d 71 4e 22 3e 6f cf 43 bd
       0.0068670637 0.03489978 0.15850236 -0.047805246
000180 76 66 f7 3a c5 75 e2 3b 68 be 79 3d 4b a7 64 bd
       0.001887514 0.006911012 0.0609726 -0.055823606
000190 20 fa dd 3c 58 a8 81 bd bd 39 bc 3c 1f d4 7e bc
       0.027096808 -0.06330937 0.02297675 -0.015553503
0001a0 d7 22 7e 3d 2d 16 e6 bc c8 8c 59 3c 31 31 00 bd
       0.062044945 -0.028086746 0.013278194 -0.031296913
0001b0 43 55 68 3d c2 06 7a 3c 18 d9 95 bc 19 e9 dc 3b
       0.056721937 0.0152604 -0.018291995 0.0067416546
0001c0 d3 71 ac bc 01 ff 4c 3d 63 61 86 3d 00 22 88 bb
       -0.02105037 0.05004788 0.06561544 -0.0041544437
0001d0 dc 92 a3 3c f9 06 16 bd 1b d6 a5 bc 38 5c 3c bd
       0.019967489 -0.036627743 -0.020243695 -0.045986384
0001e0 66 37 f7 bc a0 41 0f 3d 25 02 90 3d 1b 6b 6f bd
       -0.030177783 0.034974694 0.07031659 -0.058451753
0001f0 a5 47 6c 3c 41 2d 7f 3d 47 f7 11 bd b2 98 8c bc
       0.014421378 0.062299017 -0.035636213 -0.017162655
000200 67 5e 2b 3d 17 bf a9 bd 3b 43 36 3c 75 72 c0 3c
       0.041838076 -0.082884006 0.011124427 0.023492077
000210 b5 97 56 bc fe e1 7c 3b 00 c4 e3 3c 27 bd bc 3c
       -0.013097693 0.003858685 0.027803421 0.023039414
000220 10 0f e1 3c b9 29 a3 bc be 8c 94 ba d6 37 68 bd
       0.027473003 -0.019917356 -0.0011333448 -0.056693874
000230 a5 56 57 bd c6 a9 a5 bc 3d ab f5 3c ca b5 87 bc
       -0.052572865 -0.020222556 0.02998888 -0.016566176
000240 ab 9d 55 3d c4 7e c1 3c 4e 1e 23 bb d2 9d 71 3a
       0.052152317 0.023620017 -0.002488989 0.00092169375
000250 53 ae f9 3a 93 a3 54 bd dc a1 b0 3c 09 15 3e bc
       0.0019049145 -0.05191381 0.021561556 -0.011601695
000260 8e 4d ba bc a7 38 5c bc a5 ab f7 3c a2 e9 04 3d
       -0.02274206 -0.013441241 0.030233214 0.032449372
000270 ee 7b cc 3c 14 9b b6 3b 12 46 a3 3a 93 35 a9 bc
       0.024961438 0.005572686 0.0012456796 -0.020655429
000280 04 79 60 3c b2 47 cb bc a1 3a ef 3a 5b 07 7c 3d
       0.013700727 -0.02481446 0.0018251726 0.061530452
000290 91 ff 03 3e a2 ff c2 bc 14 6b 3a bd 00 50 c7 bc
       0.1289046 -0.023803536 -0.045512274 -0.02433014
0002a0 b9 4b df 3a a0 b6 c2 bc de a5 74 bc 0c df 6c 3d
       0.0017036117 -0.023768723 -0.014932124 0.0578299
0002b0 fc 99 d1 3c e6 0e a8 bd 59 4d 1a 3e 7b 5c 61 bc
       0.02558612 -0.08205967 0.15068568 -0.013754959
0002c0 29 5f 5f bc 56 71 31 bc 1a 3a a5 3c c4 51 77 3d
       -0.013633528 -0.010830244 0.020169307 0.060380712
0002d0 e8 44 19 3c 71 19 70 bd fb 1a d7 ba b6 89 8e bb
       0.009354807 -0.058618013 -0.0016411239 -0.0043499125
0002e0 f8 a5 b1 3c cb 41 af bd c8 61 f1 3c 93 71 d6 3c
       0.021685585 -0.08557471 0.029465571 0.026177203
0002f0 ed c9 ea bc 4f 93 8a 3d 68 64 d7 3c dd d0 79 3d
       -0.028660739 0.06766378 0.026292995 0.060990203
000300 86 8e 3e 3d f4 a6 a5 bb 6f 1f 2c 3c 11 3c 64 3b
       0.04652264 -0.0050553028 0.010505541 0.0034825841
000310 92 66 a9 3c 5b 32 87 3c 53 e3 f8 bb 12 c5 6a 3d
       0.020678792 0.016503504 -0.0075954585 0.057316847
000320 f5 13 58 bc b0 9f d9 ba f3 b1 6d 3c 0b 5f e9 bb
       -0.013188352 -0.0016603377 0.014507758 -0.0071219257
000330 d8 c5 28 bc ed ca 0a bc da ab be bc 05 8c 2c bc
       -0.010301076 -0.008471233 -0.023275305 -0.01053143
000340 14 80 c6 3c af c5 fb 3c 6a 4c 38 bc d4 2e 31 3d
       0.024230994 0.030733911 -0.011248687 0.04325755
000350 9d 07 91 bc d0 12 7b bd ac f0 70 3d 3f d0 40 3d
       -0.017703826 -0.061297238 0.058823273 0.0470736
000360 0d 36 1e bd 58 a9 6e bb 05 bd c3 3d f1 fb c7 3c
       -0.038625766 -0.0036416855 0.09557537 0.024412127
000370 5b 8a cc bd 9e f4 91 3c d2 84 3d bc 28 af 08 bb
       -0.09987327 0.017816838 -0.011567311 -0.0020856354
000380 7e 56 a9 3c ce fd 3a bd b6 88 98 bc f1 e4 76 bd
       0.020671126 -0.045652203 -0.018619876 -0.06027693
000390 a0 df 06 bc 33 a4 8d 3c 9c 82 d1 3d a4 aa 9b 3c
       -0.008232027 0.01729021 0.1022999 0.019002266
0003a0 27 db cf 3c 6e ff 0f bd 64 63 30 bc b5 73 d2 bc
       0.025373055 -0.035155706 -0.010765884 -0.025689939
0003b0 6c d9 8a bb 42 90 85 3d 9d b3 91 bc 77 d4 6d 3d
       -0.0042373445 0.065216556 -0.017785842 0.05806395
0003c0 7d 7b ff bc 49 79 d7 3b 17 fb df 3b 80 a7 be bc
       -0.031186813 0.0065757376 0.006835352 -0.02327323
0003d0 a1 d1 3e bc 11 2a e8 bc ef 5c ae bb fb 51 a0 3b
       -0.011646659 -0.028340371 -0.005321137 0.0048925853
0003e0 3a 37 3a 3c 9e 99 4d bc 15 d2 26 3d 06 89 9d bc
       0.011365706 -0.012548832 0.040727694 -0.019230377
0003f0 89 31 80 3c dd 95 95 bc 63 19 16 bd 9a 07 76 bc
       0.01564862 -0.018259937 -0.036645304 -0.015016461

action_model._discrete_distribution.branches.1.bias f4 [3]
000000 c2 c0 7c 3d ca f3 36 3d f2 e0 d7 bd
       0.061707266 0.04466609 -0.10540952

action_model._discrete_distribution.branches.2.weight f4 [3, 256]
000000 6c 89 f6 3d 52 1e b3 3c 8e 04 7d bc ac 6c 59 3c
       0.1203793 0.021865044 -0.01544298 0.013270538
000010 67 60 36 3c c8 b1 a8 3d ed 28 04 3e 73 ea fa bd
       0.011131383 0.08237034 0.12906237 -0.12251749
000020 f8 85 0e 3e 4b 60 ef bd 85 f6 6a bb da 53 8f bd
       0.13918293 -0.11688288 -0.0035852503 -0.06998415
000030 65 a5 df 3d 9c 00 3f bd ea 82 f6 bc 8a 24 ed bc
       0.109202184 -0.04663144 -0.030091722 -0.028948087
000040 15 e5 f9 bd 48 f8 1f bd 02 ba 87 39 b4 a9 6e 3e
       -0.12201897 -0.03905514 0.00025887793 0.23306924
000050 ac 97 f8 3d 2c 7b 7a bd c8 14 d0 bc 32 e0 69 3d
       0.12138304 -0.061152622 -0.025400534 0.057098575
000060 60 8e 71 3d 8a 0d fb 3d 5a 4e 85 be fd ef ea bc
       0.05897367 0.12258442 -0.2603634 -0.028678888
000070 4e db 57 bd e0 51 a8 bd 5a 80 e3 3d 68 23 31 bd
       -0.05269938 -0.082187414 0.111084655 -0.043246657
000080 2f 8f ec 3c 82 2f e3 3d de a3 ec bc cb 91 d2 3d
       0.028876869 0.11093046 -0.028886732 0.10281714
000090 b3 f2 45 bb 3c 01 8c bc b4 f5 c4 3d 65 c0 f9 3c
       -0.0030204474 -0.017090432 0.09617177 0.030487249
0000a0 04 5b e7 3c 3a d4 05 3d 70 fd 83 3d 5a 15 a9 3c
       0.028241642 0.0326731 0.06444824 0.020640064
0000b0 1f 7a e9 3c 23 d4 ad 3d e9 f9 08 be 0e 2f 21 bd
       0.028500615 0.084877275 -0.13376583 -0.039351515
0000c0 06 d0 ec bb 71 34 94 3e 83 93 7c 3d c9 2f 07 3e
       -0.0072269468 0.2894626 0.061664116 0.13201822
0000d0 4c 44 88 3c db 95 04 be b6 03 11 be ad 98 27 3c
       0.016634129 -0.1294779 -0.14161572 0.010229272
0000e0 ef 54 85 bd a0 fb 11 3e 41 5d a6 bd b5 26 9a bd
       -0.065103404 0.14256144 -0.081232555 -0.07526914
0000f0 a7 68 bf 3d 6f 87 7e bd a9 53 b6 bc 26 91 17 3d
       0.09346133 -0.06214088 -0.02225669 0.03700366
000100 0a 1e 7a bc ef 5d 27 3d d6 74 14 3d 78 b2 19 bc
       -0.015265951 0.040861066 0.036244236 -0.009380929
000110 ff ae 8a 3d 77 7e 2a 3e 00 5b 17 bd 0d b4 dc bc
       0.06771659 0.16649805 -0.03695202 -0.026941324
000120 09 42 c1 3a 8d 8e 16 3e 83 b4 d9 bc 62 f3 36 3c
       0.0014744411 0.14702816 -0.026575333 0.011166425
000130 f1 c3 0c bc 0b ff d7 3c 5c aa d8 3d 20 71 aa bd
       -0.008591638 0.026366731 0.105793685 -0.08322358
000140 74 4c 24 3e b0 a0 92 3d 09 1c 09 3d 58 7d 6c 3c
       0.1604479 0.07159555 0.033474002 0.014434181
000150 1a d2 60 3d e0 62 df bd b9 33 e8 3b 1b 5d cb 3d
       0.05488787 -0.10907531 0.007086244 0.09929868
000160 29 20 0c 3e d7 7f 76 3d 72 6f 23 3d 3d b1 0e be
       0.13684143 0.06018051 0.039901204 -0.13934799
000170 6d 17 47 3c 81 f4 32 bc bd 85 e3 bd d1 36 3c bd
       0.012151581 -0.010922552 -0.11109493 -0.045950714
000180 f6 84 15 3d 7c a3 9d 3d 38 3b bc bb 34 73 31 be
       0.036503755 0.07697198 -0.005744364 -0.17329103
000190 00 9a 0d bc 3a 5e ed 3d 49 10 43 3e 43 10 69 3d
       -0.0086426735 0.11590238 0.19049181 0.056900274
0001a0 c6 5c 5e 3b 16 c2 39 3c aa fb d4 bd 9b a7 92 bb
       0.003392981 0.011337778 -0.103995636 -0.0044755465
0001b0 44 61 06 be b1 e1 3d 3d e6 55 ff 3c d8 29 9d 3d
       -0.13123041 0.046357814 0.03116889 0.07673997
0001c0 06 e1 d5 bc 11 58 b8 3d 52 15 b7 3b 2c 27 0d 3d
       -0.026108276 0.09001172 0.0055872584 0.034461185
0001d0 6e c4 70 3d 49 7c cd bd 59 4c 37 bd 48 a0 18 be
       0.05878108 -0.10033471 -0.044750545 -0.14904892
0001e0 ed 1b 83 bd 09 a3 90 3c f8 e2 3e 3e f0 c5 7e be
       -0.06401811 0.017655866 0.18641269 -0.24880195
0001f0 06 ac 0a bd 2c 98 0d 3d 4d 8b 62 3e 2f 4c 91 3e
       -0.03385546 0.03456895 0.22123452 0.28378436
000200 a7 cc ba 3d 6a 52 0f be 5e 5f d6 3d 06 a9 93 bc
       0.091210656 -0.13996282 0.104674086 -0.018024933
000210 0c 96 e4 3d 98 96 a2 3d 50 a8 26 3b eb 3d aa 3d
       0.11161432 0.0793888 0.0025429912 0.08312591
000220 37 0a 2b be 50 b8 7a 3e 3e 1e 80 bd ef 44 8e bd
       -0.16703115 0.24484372 -0.06255768 -0.06946742
000230 92 c9 cc 3d 00 e3 2f 3d d5 df d4 3a cb b2 ae 3e
       0.09999384 0.042941093 0.0016241024 0.34120783
000240 60 37 7b bd 95 6a ae 3d f2 f2 12 bd 97 fa 46 bd
       -0.061332107 0.08516423 -0.035876222 -0.048578825
000250 e4 da 8d 3d ce be ab bd d9 9d fb 3d 7e 71 d6 3a
       0.06926516 -0.083860025 0.122859664 0.0016360728
000260 0b 21 e7 bc 74 86 f5 bd 04 f0 58 3d e7 c4 19 bc
       -0.028213998 -0.119885355 0.05296327 -0.009385324
000270 95 fd 31 3d 20 43 09 be 36 4d 3e 3d b7 37 93 bd
       0.043454725 -0.13404512 0.046460353 -0.07188361
000280 18 5d 5d 3d 54 44 87 bd a5 88 0c be 9c 02 12 be
       0.05404386 -0.066048294 -0.13724001 -0.14258808
000290 dd ab 53 bd 1c 30 31 bd a2 69 97 3a 7f eb a9 3d
       -0.051677573 -0.04325877 0.0011551867 0.082968704
0002a0 c6 62 66 bd ee 42 95 bd c6 ac d3 bc ae b0 dd 3d
       -0.05624654 -0.072881564 -0.02583922 0.108247146
0002b0 6f 12 55 bd 65 d8 d2 3b 7b 32 81 3e d5 b1 bf 3d
       -0.052019533 0.0064344876 0.25233826 0.09360091
0002c0 b7 8d 60 bd 20 7c b0 bd 07 26 00 3e f2 9e d0 bc
       -0.05482265 -0.08617425 0.12514506 -0.025466416
0002d0 8f 28 26 3e 6a 64 80 bd a2 44 72 bd 11 72 99 3e
       0.1622641 -0.062691525 -0.059147485 0.29969838
0002e0 89 b3 21 3c 2a 7d 3a bd 48 59 db 3c 5d be 08 be
       0.009869465 -0.045529522 0.026775971 -0.13353868
0002f0 f6 51 b2 3d 2d b1 9e bd 5f 54 83 bc d4 a6 8e 3c
       0.08707039 -0.07748637 -0.016031442 0.017413534
000300 45 d9 f4 bb f1 d7 ba bd ae 2f 14 3e d1 2b 40 be
       -0.0074721896 -0.09123219 0.14471313 -0.18766715
000310 aa 27 b6 bd 2b 01 38 3d a3 c3 03 3e a7 61 9c 3d
       -0.08894284 0.04492299 0.12867598 0.07635813
000320 48 72 67 bd f3 b7 8c bd f0 db b7 3d 58 9e d2 bc
       -0.05650547 -0.06871023 0.089774966 -0.02571027
000330 35 99 a0 3c 8b 54 f9 3d b3 1a 90 3d f2 7e 94 3d
       0.019604305 0.121743284 0.070363425 0.072507754
000340 df bc 37 3d 2f 1f ca bb c9 a7 9a bb 3a 31 f1 3d
       0.044857856 -0.006168268 -0.0047197086 0.11776967
000350 aa 41 de 3c 23 30 ee 3c 69 6b c2 bd 9a 65 a7 bb
       0.02713092 0.029075688 -0.09493143 -0.0051085474
000360 f8 23 b3 3c 27 a6 1e 3d 21 9b 29 bd 9c e5 13 3d
       0.021867737 0.038732674 -0.041407708 0.036107644
000370 ac 89 e2 3e d0 e3 f9 3c dc af e1 3c 96 f9 a5 bd
       0.4424566 0.030504137 0.027549677 -0.08104245
000380 c9 3c 9e bd c5 a7 0e be 6e b8 5c 3d 94 1d 35 be
       -0.077264376 -0.13931186 0.053886823 -0.17687064
000390 ea 6d 2f 3e 9f 53 21 be c5 cf 70 bd 04 41 92 3d
       0.17131773 -0.15754555 -0.058791894 0.07141307
0003a0 67 ed f5 3c 69 d5 4f 3d 0c 7e 0a 3e e2 22 ca 3d
       0.030020429 0.050740633 0.13524646 0.098699346
0003b0 aa a9 86 bb d3 ad a8 bc 04 34 df 3d b7 bf 94 bd
       -0.004109581 -0.020590698 0.10898593 -0.07263129
0003c0 17 1f 03 bc 67 ce 7e be 69 c1 d2 3b 58 e2 d5 bd
       -0.008003018 -0.24883424 0.0064317477 -0.10443562
0003d0 70 cb b4 3d 46 05 0a bd 80 47 af 3d 67 85 e6 3b
       0.08827865 -0.033696435 0.085585594 0.007034946
0003e0 30 3d e7 bc 68 b5 58 3c 89 34 87 39 e1 3d fc 3d
       -0.028227419 0.013226844 0.00025788348 0.1231649
0003f0 84 7a ba bd 50 82 84 3d bc cb 78 be a8 07 2b be
       -0.09105399 0.06470168 -0.24296468 -0.1670214

action_model._discrete_distribution.branches.2.bias f4 [3]
000000 93 58 8b 3d ab 5a e2 bd 91 28 02 3d
       0.068040036 -0.1105245 0.03177697
