ML-Agents/results/obs-from-ultimate-volleyball/Volleyball/Volleyball-7999856.onnx (onnx, 291918 bytes, 15 tensors)

discrete_action_output_shape f4 [1, 4]
000000 00 00 40 40 00 00 40 40 00 00 40 40 00 00 00 40
       3.0 3.0 3.0 2.0

network_body.observation_encoder.processors.0.normalizer.running_mean f4 [11]
000000 ae c2 16 3e e6 f0 ff 3d 04 30 07 3f 9a 4e 23 3f
       0.14722702 0.124971196 0.5280764 0.6379181
000010 9d e2 2b 41 5d c3 a9 bc 6c 1d 42 3e c9 7c 4e ba
       10.7428255 -0.02072304 0.18956536 -0.0007876871
000020 c4 2b 44 c0 00 80 14 30 00 00 fa ae
       -3.0651712 5.4023985e-10 -1.1368684e-10

network_body._body_endoder.seq_layers.0.weight f4 [256, 11]
000000 0b cf 72 be 92 7d 8b 3d 2a 9a 05 3e 06 1b 0e bf
       -0.23711793 0.0681106 0.1304709 -0.55509984
000010 94 1d 97 3e 3a 70 6c bc ec e5 56 be 4f a3 0a be
       0.29514754 -0.014431054 -0.20986146 -0.1353886
000020 5a 64 18 be 01 6c af bd 77 bb af 3e 77 27 89 be
       -0.14882031 -0.08565522 0.34322712 -0.26787922
000030 33 3b f7 3d e8 95 08 3f 12 15 75 bf bc d5 e9 3e
       0.12071838 0.5335374 -0.95735276 0.4567088
000040 4e 18 9f bc cd df 28 be 82 ef 46 bd 28 e8 14 3d
       -0.019420769 -0.16491623 -0.048568256 0.036354214
000050 95 fb 35 bd ad 7f e6 bd 90 11 29 bd 65 7a 03 bf
       -0.04442938 -0.11254821 -0.041276515 -0.51358634
000060 04 a0 84 3e 15 a3 8e 3d 0b bc 07 bf d1 72 01 be
       0.25903332 0.06964699 -0.53021306 -0.12641455
000070 d6 5b 3b be 01 f0 d4 3e 88 ff a7 be 6e df 81 3d
       -0.18296751 0.41589358 -0.32812142 0.06341444
000080 83 f5 b8 be ed 06 99 3e 6c b6 f1 be e8 64 29 be
       -0.3612481 0.29888096 -0.4720949 -0.16542399
000090 84 10 0b 3e 3a c2 6d bd 9c 03 2e bc 7e c7 a2 3e
       0.13580519 -0.058046557 -0.010620978 0.31792825
0000a0 3d a8 42 3e 48 1f 26 3f a5 21 40 be 8f d5 84 be
       0.1900949 0.6489148 -0.18762834 -0.25944182
0000b0 32 52 cc bd 9d 0e c1 bd af 22 91 3c d5 17 09 3e
       -0.09976615 -0.094266154 0.017716734 0.13387997
0000c0 d0 a2 f3 3d b8 3c f7 bb b0 24 0c 3e d9 b3 00 3f
       0.118962884 -0.00754508 0.1368587 0.50274426
0000d0 12 2c 05 bf a4 e4 86 3f a8 d3 44 3f 50 f4 f9 3e
       -0.5202037 1.0538526 0.7688546 0.48819208
0000e0 9f 68 e7 be 41 9b d3 bd 33 c3 8e bd 98 b7 10 bf
       -0.45197007 -0.10332347 -0.06970825 -0.5653014
0000f0 55 84 3e bd 04 ae 26 be 81 f6 03 be 95 33 6d 3e
       -0.04651292 -0.16277319 -0.12887003 0.23164208
000100 f9 b0 a2 bd f8 3b cc 3d 9a 27 2b 3e 00 d7 e5 be
       -0.07943911 0.09972376 0.16714326 -0.44890594
000110 a9 36 ea be 6b 72 6f be 17 cf 06 bc 4d d7 b9 3d
       -0.45744827 -0.2338349 -0.008228085 0.090742685
000120 5a 94 c5 be 1d 98 6b 3e 0d 02 bb bc 27 65 32 bf
       -0.38589746 0.23007245 -0.022828126 -0.69685596
000130 2c 81 bc be cb 1d eb be b5 6a a6 3e 33 21 04 be
       -0.368173 -0.45921168 0.32503286 -0.1290329
000140 92 c6 16 bf d9 fe 75 be 8b 41 08 bf e7 39 ab be
       -0.58896744 -0.24022998 -0.5322501 -0.33442613
000150 1c 40 ed 3d 5d b0 5c bf 2e 06 20 3f 9a 87 4a 3e
       0.115844935 -0.8620661 0.6250943 0.1977829
000160 37 a7 94 be 89 f6 34 3f 21 a7 8c 3e 17 37 a6 3c
       -0.29033825 0.7068868 0.2747126 0.02028994
000170 c6 a6 31 bf ab 40 61 3c 3a d2 53 3d e4 c6 7d 3c
       -0.693951 0.013748328 0.05171416 0.015489314
000180 eb 78 49 3e 16 0b c3 3e a3 b1 f1 3d 9b 8d de 3d
       0.19675033 0.38094395 0.1180146 0.10866853
000190 14 7e ee be 4a 2a a7 3e 39 c7 2c 3e 94 3f b0 3e
       -0.46580565 0.32649451 0.16872872 0.34423506
0001a0 7a 88 ac 3e 33 c3 ac be 13 e0 c9 be 80 65 87 be
       0.33697873 -0.33742675 -0.39428768 -0.26444626
0001b0 93 02 47 3e 99 05 88 be 17 f7 cf bd 98 a2 f6 3e
       0.19434576 -0.2656677 -0.101545505 0.48170924
0001c0 88 a9 eb be ae 80 a4 be 59 ae 4d 3e f2 dd 9a 3e
       -0.4602778 -0.32129425 0.2008604 0.30247456
0001d0 6c 19 13 3e 05 dd 97 be c5 b3 8f 3e 9e ff 2c bf
       0.14365166 -0.29660812 0.2806684 -0.6757754
0001e0 b4 c9 a0 bd 2d 01 18 3e 2f 3a d5 be 53 6a d9 be
       -0.07850972 0.14844199 -0.41645953 -0.4246393
0001f0 68 37 45 bf 0d 6e 1b bf 93 69 24 bd 8e 03 83 be
       -0.7703767 -0.607148 -0.040139746 -0.2558865
000200 ce ec b8 bd 90 26 c5 3d 78 a0 3d bf 0a 4d 79 3d
       -0.09029542 0.09626496 -0.7407298 0.060864486
000210 cf d2 58 3e 49 0a e5 be 91 85 4c be d9 56 fe 3e
       0.21174167 -0.4473441 -0.19972827 0.49675635
000220 be 39 5a 3e d4 fa ec 3e df e2 6e 3d d2 4f 1d 3f
       0.2131109 0.46285117 0.05832183 0.6144992
000230 a1 ee 6a bd 83 c8 ca 3e f0 25 ef be 09 f2 94 3d
       -0.05735648 0.39606103 -0.46708632 0.07272727
000240 31 98 82 3e db bc b6 be e7 42 23 3e 72 d3 31 3e
       0.25506738 -0.3569096 0.1594349 0.17365816
000250 92 8b 10 be 83 d5 ef 3e d3 f9 2d 3e 48 78 a3 3d
       -0.14115742 0.46842584 0.16989832 0.07981926
000260 8c 44 67 3f bc 3c fb 3d b3 b1 04 3f 56 1a 9c 3e
       0.9033897 0.122674435 0.5183365 0.30488843
000270 08 e5 d7 3e 2d 3c 2e 3f 3d 8d 05 be 86 e0 59 be
       0.42166924 0.6806057 -0.1304216 -0.21277055
000280 12 15 c5 3e 41 9b 2a 3e b2 03 08 3e aa 9f 8b be
       0.38492638 0.16660787 0.1328266 -0.27270252
000290 7b c8 4b bf 61 43 08 bf b4 35 37 be 2f ff ef be
       -0.79602784 -0.5322781 -0.1789158 -0.46874377
0002a0 d2 8a 5b 3f bf 96 0d 3f 26 35 02 be c8 21 d3 be
       0.857587 0.55308145 -0.12715587 -0.4123671
0002b0 dd a7 bf 3e 14 c7 c3 3c 9e 5f 7d be fa 76 9f 3d
       0.37432757 0.023898639 -0.24743506 0.07786365
0002c0 2e f5 e5 be 43 fd 29 be 26 2a 2f 3f 58 85 38 3e
       -0.4491362 -0.16600518 0.6842369 0.18019617
0002d0 de 72 be 3e a3 58 03 bf 91 b1 5d 3e 0c e7 8e be
       0.37197012 -0.51307124 0.21649767 -0.2791065
0002e0 dd f2 55 3e 44 50 0e bf ff 16 95 3e 3d 77 a2 3e
       0.20893426 -0.55591226 0.29119107 0.31731597
0002f0 52 a3 ab ba be ba 54 bf eb 2a 96 bd 7b f9 fa bd
       -0.0013094938 -0.83097446 -0.07332405 -0.12254616
000300 14 f2 e0 be fe 5f 3d bf 26 1e bb 3e a2 f6 4d be
       -0.4393469 -0.739746 0.3654644 -0.20113614
000310 0e f1 94 bc 6e c9 67 3e 25 86 4e bf 2e a6 92 3e
       -0.01818135 0.22635433 -0.8067344 0.2864241
000320 83 85 d9 3e 01 8e e9 3e 86 04 6e 3e ee 91 64 be
       0.42484674 0.45616153 0.23243913 -0.22321293
000330 57 54 99 3e 8d 58 0c 3f 7e 18 b5 bd 39 e1 87 3e
       0.2994716 0.5482262 -0.08842562 0.2653902
000340 89 57 fb 3d 40 74 86 be c6 a8 0f bf a4 d7 89 be
       0.122725554 -0.26260567 -0.561169 -0.26922333
000350 d8 b1 fa be 95 82 7f 3e 46 5a de 3d 42 1a 8f 3d
       -0.4896381 0.24952157 0.10857062 0.0698743
000360 a6 6f a9 bd 23 17 49 be c4 1a 8d be 34 ed 94 bd
       -0.082732484 -0.19637732 -0.27559483 -0.072718054
000370 d0 0c 9f be 7d a4 9d 3e 4a 00 e3 be a6 0a 76 be
       -0.31064463 0.30789557 -0.44336158 -0.240275
000380 a8 6b 9f 3e 9a b8 ce 3c 3d 14 98 3e 35 bd aa be
       0.31136823 0.02523451 0.2970294 -0.33347479
000390 46 21 92 3e 93 b8 47 3e 6c 0c 51 3e 27 5c 16 bf
       0.2854101 0.19504003 0.20414895 -0.58734363
0003a0 34 ef 72 be f3 2a 11 3f 37 1d 4f bd 5c b9 e1 3d
       -0.23724061 0.5670616 -0.05056497 0.110216826
0003b0 bc 7d a0 3e 10 f9 1d be d8 b8 ce be a2 36 9d be
       0.31345928 -0.15427041 -0.403754 -0.30705744
0003c0 a9 e2 53 bd 3b 68 c7 3a 80 cc 4c 3e 8b 5a bd be
       -0.05172983 0.0015213558 0.19999886 -0.3698314
0003d0 4d ce f0 be 86 45 1e be 33 22 a8 3e 2f a9 32 3d
       -0.47032395 -0.15456209 0.32838592 0.043618377
0003e0 37 46 f3 3d 36 03 ec be 3e 06 53 3d 9f c8 48 3e
       0.11878627 -0.460962 0.051519625 0.19607781
0003f0 80 1f f9 be 9d 36 ea 3e 36 e9 68 be 32 7d dd be
       -0.48656845 0.45744792 -0.22745213 -0.4325958

network_body._body_endoder.seq_layers.0.bias f4 [256]
000000 a4 22 3d bd a0 e7 d7 3d 77 e8 e5 3b b2 6f bd 3d
       -0.046175614 0.10542226 0.0070162374 0.0924982
000010 ea 46 b4 3d 8f 98 5e 3b 02 b7 a4 3d 99 23 8a bd
       0.08802588 0.0033965444 0.080427185 -0.06745071
000020 87 34 01 3e cd 63 c9 3d cb 11 b8 3d f4 76 01 bc
       0.12617694 0.098334886 0.08987769 -0.007901896
000030 1d 86 54 3c 38 12 b6 3d bf 74 90 3e 98 93 b9 3d
       0.012971428 0.08890194 0.2821407 0.090613544
000040 d5 e9 14 3e 25 c5 ae 3d 37 f7 0b 3e dd d1 87 bd
       0.14542325 0.08533696 0.13668524 -0.06631825
000050 d6 d6 38 bc a7 f9 e5 3d 1f ef 4b 3d 2f 72 53 bb
       -0.01128169 0.11229258 0.04978859 -0.0032264104
000060 4a 6c 0d 3d 7d df 4d 3e 83 36 31 3d 70 a3 e6 3d
       0.0345271 0.20104785 0.043264877 0.11261642
000070 e8 1f 1a 3d 14 c8 62 bc 71 0b 53 3d b6 ab 4b 3d
       0.037628084 -0.013841648 0.051524583 0.049724303
000080 e7 bc ff 3d 05 29 41 3e 8c 9d 24 3e 3f 17 72 3d
       0.12487202 0.18863304 0.16075724 0.0591042
000090 d1 64 a4 bd e2 4f 1a 3d ef 1e bd 3d b8 a1 ea 3d
       -0.08027042 0.03767384 0.09234416 0.11456627
0000a0 05 5b 20 3e 39 4e ca 3d cf 18 40 3c 10 13 7c 3d
       0.15659721 0.09878201 0.011724665 0.061541617
0000b0 cf 54 20 bc 62 1d 9e 3d 95 c9 43 3e 13 a2 d7 3d
       -0.009785845 0.07720448 0.19119866 0.1052896
0000c0 84 93 c4 bc 7b 58 47 3e b3 15 e3 3d f0 c9 ac 3d
       -0.023996122 0.19467346 0.11088123 0.08436954
0000d0 e2 40 6c bd 0b 66 16 3e 13 97 30 3e 32 4f b5 3d
       -0.057679065 0.14687364 0.1724513 0.08852996
0000e0 99 06 12 3d ad 22 10 3e 79 ac 4a 3e d9 53 5c 3d
       0.035650823 0.14075728 0.19792356 0.0537909
0000f0 e4 66 45 3d 84 7d f2 3d d8 80 a1 3d 90 d4 97 bd
       0.048193827 0.118403465 0.07885903 -0.0741359
000100 09 51 c1 bd bc d5 ce 3d 1a f9 16 3e 75 82 33 3e
       -0.09439284 0.1009936 0.14743462 0.17530234
000110 15 34 84 3d 3f f3 fc bc f8 24 3f bd 0d e8 d5 bb
       0.06455246 -0.030877708 -0.046666116 -0.0065279067
000120 fb f4 4b bd 14 0f 5b bd f0 5b b3 3c c5 e0 0e 3d
       -0.04979418 -0.053481176 0.021894425 0.034882326
000130 8f 3a 04 3e 35 2e e1 3d dd a7 e5 3d 6d ee a2 3d
       0.12912963 0.109951414 0.11213658 0.07955632
000140 14 d8 c9 3d 55 32 c6 3d f9 87 38 3e a0 46 08 bc
       0.09855667 0.09677569 0.1802062 -0.00831762
000150 4c 22 ac 3c c0 99 a3 3d 59 6a f2 3d 85 4b f3 bc
       0.021012448 0.0798831 0.118366905 -0.029699096
000160 2c ec 7d 3c 22 f4 21 3e 0a 5e 04 bc bf 4f 40 bc
       0.015498202 0.15815786 -0.008079061 -0.011737763
000170 7e 2f 76 3d 74 7e 09 3e 58 5f 9b bd 01 63 76 3d
       0.060103886 0.13427144 -0.07586545 0.06015301
000180 9d 40 d7 3d 99 2a 97 3d bd c7 ff bd ed 0e a3 3d
       0.10510371 0.07381172 -0.12489269 0.07961831
000190 c3 b9 e4 bc eb 20 ec 3d 73 62 31 bd 1f bc e0 3d
       -0.02792061 0.11529716 -0.04330678 0.10973381
0001a0 1f 66 d9 3d 02 e3 39 3e 3d 56 fa 3d 83 8c db 3c
       0.10615181 0.18153003 0.1222348 0.0268004
0001b0 f9 a0 af ba 6a e2 7e 3d 64 32 83 3d 99 a8 42 3e
       -0.0013399414 0.062227644 0.064060956 0.19009627
0001c0 fb e2 be 3d 54 7e 72 3d b7 aa 20 3d 76 37 d7 3d
       0.09320637 0.059202507 0.039225306 0.10508625
0001d0 d5 13 d8 3d 14 ce a6 3d d8 9b 18 bd 91 5f 8c 3d
       0.10550658 0.08144775 -0.037258 0.06854165
0001e0 98 73 9a bd 4e 17 c1 bc aa 1d ee 3d 4a 85 17 3e
       -0.07541579 -0.023570683 0.11626752 0.1479694
0001f0 32 94 08 3e 44 9a b6 3c e3 5c 85 3d c1 35 28 3d
       0.13337782 0.022290356 0.06511857 0.04106689
000200 4c fb 45 3d bf ab 91 3c 09 42 82 bc e3 56 f4 3d
       0.04833536 0.01778209 -0.015900629 0.11930635
000210 ef d3 30 3d 8f 70 83 3d b7 57 dc 3d 68 b6 dd 3d
       0.043170866 0.06417953 0.10758918 0.10825807
000220 d5 d6 2f 3e 05 58 0b 3e a8 3f 22 bb 0b 44 b0 bb
       0.17171796 0.13607796 -0.002475718 -0.005379205
000230 34 e0 bd 3d 99 f5 8e 3d db 2b 7e 3c ee 09 e9 3d
       0.09271279 0.06980438 0.015513386 0.11378847
000240 b0 d6 a4 bd 00 65 2c 3d 94 6f 96 bc 7c 03 cd 3d
       -0.08048761 0.04208851 -0.018363751 0.1001043
000250 11 51 06 3e c5 7f ee 3d c8 bd 90 3d b7 4c bb bc
       0.13116862 0.11645464 0.07067448 -0.022863729
000260 ce b8 0b bd 1c e0 45 3d f5 22 d6 3d 50 8b bd 3d
       -0.03411179 0.04830943 0.10455886 0.092550874
000270 74 3d 18 bb 04 85 ba bc 11 a7 73 3d 20 d4 31 3c
       -0.0023229988 -0.022768505 0.0594855 0.010853797
000280 14 fb 03 3e 64 1a fb 3d 51 a9 1a 3d 9e 10 58 3d
       0.12888747 0.12260893 0.03775913 0.052750222
000290 fa bf 5b 3d 4b f6 42 3d 6b 2f 9b 3c 4b 7d 42 3e
       0.05364988 0.047598165 0.01894351 0.18993108
0002a0 87 c3 c7 3d fa 10 a3 3d 1d e6 3d 3e 67 01 81 3c
       0.09754091 0.079622224 0.18544813 0.015747739
0002b0 fa 08 d5 3d 14 87 75 bd fc 75 62 3d 85 88 f9 bc
       0.10402103 -0.059943274 0.0552883 -0.030460605
0002c0 0a d4 a2 bc 33 68 09 3e af 4d f4 3d 79 e2 dd 3d
       -0.019876499 0.13418655 0.119288795 0.10834212
0002d0 0c b5 d5 3d 1e 24 45 3d f3 dc be 3d f4 a2 b6 3d
       0.104349226 0.048130147 0.093194865 0.089177996
0002e0 c1 fe 9a 3d a0 61 ce 3d 63 4c 22 3e 34 22 2f 3c
       0.07568122 0.10077214 0.15849452 0.010689307
0002f0 fa f0 75 3d b2 72 17 ba 77 b6 e5 3d 68 e0 33 3e
       0.060044266 -0.0005777284 0.11216443 0.17566073
000300 ff c1 b9 3c a5 82 bb 3d 3f 25 4b 3d b4 28 4b 3c
       0.022675512 0.09155778 0.049596068 0.012399841
000310 10 21 89 3d b6 ae 27 3e 40 4a 00 3e 51 af 85 3d
       0.06695759 0.1637524 0.12528324 0.065275796
000320 3b 52 8b bd 28 20 1a 3e d1 8b dd 3d bb 9c fc 3d
       -0.068027936 0.15051329 0.108176835 0.123345815
000330 5b 24 92 3d 7c 28 18 3e 49 cb d2 3d 3f 72 24 3e
       0.071358405 0.14859194 0.1029268 0.16059206
000340 92 72 10 3e 6b 79 94 3c ca 37 c9 3d db ba 97 3d
       0.14106205 0.018124303 0.09825094 0.07408687
000350 0d 3e 77 3d 55 55 ef bd 06 99 40 3e 9d ad cc 3d
       0.06036191 -0.11686198 0.18808374 0.099940516
000360 63 fe 2c 3d c2 75 0d 3d 6c c5 01 3e 5c bf a3 3d
       0.04223479 0.03453613 0.12672967 0.07995483
000370 49 53 a7 3d 54 58 23 3e 19 02 4d 3d 67 38 af 3d
       0.08170182 0.15951663 0.05005083 0.0855568
000380 4a b9 3e 3e cb c9 17 3d 56 ae 38 bc ae 9b 9a 3d
       0.1862537 0.03705768 -0.011272034 0.07549225
000390 33 8b 30 3e ce 10 de 3d 1e 1c 95 3d 1f cd e8 3b
       0.172406 0.10843049 0.072807536 0.0071045305
0003a0 84 69 19 bd 63 21 13 3e 77 26 29 3e 1c bf b9 ba
       -0.037454143 0.14368205 0.1651858 -0.0014171335
0003b0 25 5d e5 3c 56 2d 06 3c f2 1f 42 ba 33 14 15 3e
       0.027998516 0.00818952 -0.0007405273 0.14558487
0003c0 cb e1 10 3e 77 f3 ad 3d e6 d3 75 3d dc e8 9e 3d
       0.14148633 0.08493703 0.060016535 0.07759258
0003d0 dd 32 de ba 0d 01 31 3e 81 48 07 3e f6 ea 41 bb
       -0.0016952414 0.17285557 0.13211252 -0.002958951
0003e0 71 5f 82 3e 6f e7 3e 3d 32 f1 91 3d 49 8d 08 bd
       0.2546344 0.04660743 0.071260825 -0.033337865
0003f0 a8 39 55 3d 4d 24 a1 3d 44 3d ad 3d 60 10 0f 3e
       0.05205694 0.07868252 0.08458951 0.1397109

network_body._body_endoder.seq_layers.2.weight f4 [256, 256]
000000 31 e5 b6 bd d2 99 22 bc 1d ec ea bd cf 9c 41 3d
       -0.089304335 -0.009924369 -0.11470816 0.047268685
000010 30 88 6d bd 9a 2e 45 bd d0 a8 00 bc f3 6a 29 be
       -0.057991207 -0.048140146 -0.007852748 -0.16544704
000020 2f 06 94 3d 18 5f e1 bb 8e 97 cf 3d 77 84 b0 3c
       0.07227742 -0.006877791 0.10136329 0.02154754
000030 4b aa dd bd a1 7a 49 bd 97 23 1b bd 62 87 81 3d
       -0.108234964 -0.049189214 -0.037875738 0.0632465
000040 c4 35 2a 3e 71 0f a3 bd ea 77 07 3c 18 8a 68 be
       0.16622072 -0.079619296 0.008268336 -0.22708929
000050 0f 98 a3 3c f2 cb b1 3d 66 15 7a bd 24 2f b3 bd
       0.019969968 0.086814776 -0.061055563 -0.08749226
000060 0b c5 2b 3d c0 07 08 bd 4c d3 ae 3c fe 32 95 3d
       0.04193596 -0.033210516 0.021340989 0.072851166
000070 7f bf 41 3e 63 fb 52 3d b7 38 61 bc bb 95 c0 3d
       0.18920706 0.051509272 -0.013746432 0.09403559
000080 62 ce 0b 3e aa fc c1 3c 49 1f 96 3d c7 e2 57 bc
       0.13652948 0.02368005 0.07330186 -0.0131766265
000090 c6 56 cf bd 21 99 8b bd 16 fa 73 bd c0 36 a5 bc
       -0.101239726 -0.068163164 -0.059564672 -0.020167708
0000a0 ec c1 a0 bd aa 80 38 bd a9 81 49 bc d8 9f cb 3d
       -0.07849488 -0.04504458 -0.01229898 0.09942597
0000b0 ff 01 43 bd 42 8e 32 3d 68 eb 4a bd 08 39 98 ba
       -0.047609325 0.0435927 -0.049540907 -0.0011613676
0000c0 ba 88 94 3d ef a5 0e bd ca 87 24 3e 48 06 e1 3d
       0.07252641 -0.034826215 0.16067424 0.10987526
0000d0 6b e6 8d bd fc e2 25 3d 7c 59 3b 3e 2a bb b7 3d
       -0.06928714 0.040499672 0.18295854 0.089712456
0000e0 b9 b6 d1 bd 4d 25 69 3c 0c 60 f0 3d d0 53 8a bd
       -0.1023993 0.014230085 0.117370695 -0.06754267
0000f0 99 17 da bc 4a 88 c3 3d 9c cd de 3c ed 77 84 3c
       -0.02662258 0.095474795 0.027197652 0.016170466
000100 c3 f1 16 be ea 9f 81 3d 88 e3 b2 bd 89 80 fc 3d
       -0.14740662 0.06329329 -0.087348044 0.12329204
000110 28 d1 9b bd 29 33 f7 bc ea e8 08 be c8 c1 da bd
       -0.07608253 -0.030175762 -0.133701 -0.10681492
000120 df 37 28 bd 56 8c 1c be 4e eb 67 bc d7 74 f4 bd
       -0.041068908 -0.15287909 -0.014155222 -0.11936348
000130 ba 46 ec bd b0 60 d1 3d 5b c9 db 3c 20 ec da bb
       -0.115369275 0.1022352 0.026829412 -0.0066809803
000140 d8 6c 95 bd 60 15 dd 3d 06 9a f5 3c b4 81 ab 3d
       -0.07296151 0.107950926 0.02998067 0.08374348
000150 21 45 68 3e 18 f3 34 bc 57 38 03 3e b9 18 e9 3c
       0.2268262 -0.011044286 0.1281446 0.028454171
000160 cd f9 0b be 4c 1f 14 3c f7 f9 e0 bd 26 8e 95 3c
       -0.1366951 0.009040665 -0.10985177 0.018256258
000170 04 d8 8a 3d 54 74 3a bd ce 68 09 be 84 af 4c bd
       0.06779483 -0.045521095 -0.13418886 -0.049972072
000180 2f 03 20 bd cd 67 2d be 34 fa 0b bd 49 04 12 bd
       -0.039065536 -0.16934128 -0.03417416 -0.035648618
000190 ff 1f 66 3d 20 bb 5b 3e bd ba 9d 3c 89 c8 b5 bc
       0.056182858 0.21458101 0.019254083 -0.02219035
0001a0 8b 19 66 3d e1 37 ee 3b 07 e5 1a 3d ce bd 0d bc
       0.056176703 0.007269845 0.037816074 -0.00865121
0001b0 ab 62 16 be 43 6b c0 bd 9b 2c 66 bd 52 c1 3f 3e
       -0.14686076 -0.093954585 -0.056194883 0.1872609
0001c0 4c 83 3d 3d 45 b1 3e 3d 66 0c 57 be 17 a4 17 3e
       0.046267793 0.046555776 -0.21000823 0.14808689
0001d0 da ab 9b 3d 2f 58 fd bc bb ef 84 bd 91 9c e2 bc
       0.076011375 -0.030925838 -0.064910375 -0.027662547
0001e0 17 df 86 3b 62 03 0a bd aa a8 1c be d8 e0 32 3e
       0.00411595 -0.033694632 -0.15298715 0.17468584
0001f0 35 b5 03 3e 33 b3 42 3e 63 53 0c be a6 41 4f 3d
       0.12862094 0.19013672 -0.13703685 0.050599717
000200 75 e2 03 be c3 d9 84 3d a2 af a1 3d 2b 7e ef 3c
       -0.12879355 0.06486847 0.078948274 0.029234966
000210 37 9a 71 3d 9d 18 6f bc 2f 07 e2 3d 57 c0 d5 bc
       0.05898496 -0.014593271 0.110365264 -0.026092691
000220 26 39 1b 3c 3a 72 51 3d 38 96 0c be 27 54 c2 3d
       0.0094740745 0.051134326 -0.13729179 0.09488707
000230 76 1e ab bd db f8 84 bd a1 06 b5 3d b5 42 f1 3d
       -0.08355419 -0.06492778 0.08839155 0.117803015
000240 89 e9 84 3b d5 7e 11 3a b1 d3 04 be f2 6e 0e be
       0.00405616 0.00055502105 -0.12971379 -0.1390951
000250 0f c5 d2 3d 71 5d 36 3d 74 54 f1 bd df 7e 05 3e
       0.10291492 0.044522706 -0.11783686 0.13036679
000260 51 54 eb bd 0b 19 5f 3d ee 26 99 bd cd a0 ac 3d
       -0.114906915 0.054467242 -0.074781284 0.08429108
000270 7a c6 7f 3c 87 c1 bc bc d2 ba 98 bd 2a fc 23 be
       0.015611285 -0.0230415 -0.07457508 -0.16014162
000280 f4 19 db 3d 5a b8 8c bd 87 f9 0b be 64 88 6b bd
       0.106983095 -0.068711 -0.13669406 -0.05750312
000290 a3 da 17 3c 27 b7 0e be 3e 8e a9 3c a6 e2 6b be
       0.009268436 -0.13937055 0.02069771 -0.23035678
0002a0 6a 3b c9 bd 43 f0 4b bd 33 4d 35 bd 65 1f 9b 3a
       -0.098257855 -0.04978968 -0.044263076 0.0011834918
0002b0 fe 3c 19 3e 68 0a 01 3c 53 4b 21 3d 5b f1 1a 3d
       0.14964673 0.007876016 0.039378475 0.03782783
0002c0 78 d7 d9 3d b2 63 a3 3d e7 58 75 3d cd a7 12 bd
       0.106368005 0.07978 0.059899237 -0.03580456
0002d0 62 ac 02 3c 63 fc b0 bc 8c e6 cb 3b dd 53 c1 3d
       0.00797567 -0.021604722 0.0062225517 0.09439824
0002e0 84 30 6d bc 23 1c 0a 3e fe 37 6f 3d 46 f0 ab bd
       -0.014476899 0.13487296 0.058403008 -0.08395438
0002f0 51 f8 ab 3d f2 f5 66 3d 51 9d 93 bd b1 f2 cc 3c
       0.08396972 0.056386895 -0.0720774 0.025018068
000300 28 df aa bc 5a 61 ea 3d 6f db 29 3e 22 ac a6 3b
       -0.020858362 0.114443496 0.16587614 0.005086438
000310 6f 05 e7 3d f1 8b 89 bd ed 67 88 3d 74 8a ca 3d
       0.11280333 -0.06716145 0.06660447 0.09889689
000320 9b 85 b4 ba 59 a7 24 bd c1 d5 a9 3d 2a 4d 57 3d
       -0.0013772728 -0.040198658 0.082927234 0.052563824
000330 b5 db 84 3d fc b3 75 3d 8f c8 c1 bc aa 9b b1 bd
       0.06487218 0.0599861 -0.023655204 -0.08672269
000340 f0 ee 04 3e 52 bc ca bb 7b c3 0e 3c 78 a3 c4 bd
       0.12981772 -0.0061870003 0.008713598 -0.09601492
000350 a2 3d 5c bb b4 45 39 be e2 e9 b4 bd fc 43 58 be
       -0.0033606072 -0.18092996 -0.08833672 -0.21119684
000360 19 e8 99 3d 6f 69 d2 3d ee fa 16 3e 02 23 43 bd
       0.07514972 0.10274016 0.1474416 -0.047640808
000370 ac c2 a2 3c 5c f2 be bc 33 b6 3c 3d 93 6f b0 3d
       0.019868217 -0.023308925 0.046072196 0.08615031
000380 a4 1c 78 bc c3 0f af bd 6a 96 60 3d 2f a3 fd bd
       -0.015143547 -0.08547928 0.054830946 -0.123846404
000390 a0 5b 0e bd 03 d4 34 be 20 c0 da 3d 9d 39 83 3d
       -0.03475535 -0.17659001 0.10681176 0.06407473
0003a0 3d bd e6 bd 06 06 0d bd 49 b5 db 3d 70 62 93 3c
       -0.11266563 -0.034429573 0.10727937 0.017991275
0003b0 25 f7 8e bc 32 75 29 bc 88 a1 91 bd c7 ce f3 bd
       -0.017451832 -0.010342883 -0.07110888 -0.11904674
0003c0 50 c9 e1 3b 90 ce b5 bc b7 a1 36 3d 97 d2 1b be
       0.0068904534 -0.022193223 0.044587817 -0.15217052
0003d0 d8 1d 3b be b0 3b dd 3d eb 00 50 3d 2d 12 04 bd
       -0.18273103 0.108024 0.050782125 -0.032243896
0003e0 02 68 8b 3d 2f 59 72 bd c3 86 cd 3d 41 21 90 bd
       0.06806947 -0.059167083 0.100354694 -0.07037593
0003f0 12 89 2c 3d 59 63 20 3e dc a7 4a 3b d9 27 ab bd
       0.042122908 0.15662898 0.0030922806 -0.0835721

network_body._body_endoder.seq_layers.2.bias f4 [256]
000000 73 3a dc 3d 07 18 b7 3c 7a fa d3 bd 9e bc ff 3c
       0.10753336 0.022350324 -0.10350509 0.03121787
000010 ac d2 aa 3b 01 1d e0 bb 8e bd b3 3d 41 f9 4d bd
       0.0052131023 -0.006839395 0.08776389 -0.050286535
000020 9c 4a d6 3d e6 45 d8 3c bf 7b 13 3d 67 66 3e 3c
       0.10463449 0.026400518 0.036006685 0.011621094
000030 97 47 22 bb e0 2d 49 ba 9f c3 c2 3b b1 93 2c bc
       -0.002476191 -0.00076743774 0.00594373 -0.010533259
000040 19 a9 82 3a cc 72 62 bd 86 76 d6 3c a0 32 cd 3d
       0.0009968608 -0.05528526 0.026179563 0.100194216
000050 5d d1 8a bb 9f e6 ba 3c 74 81 72 bc 45 54 a0 3d
       -0.004236384 0.022815047 -0.014801372 0.07828573
000060 2e a7 d9 bd 0f 8e c7 ba 85 0b 0a bd 91 41 8e bc
       -0.1062759 -0.0015224832 -0.033702392 -0.017365249
000070 4f 2a c8 3c 61 43 21 3c f2 28 37 3d e4 13 ae 3d
       0.024434237 0.009842725 0.044716783 0.084998876
000080 e3 a5 af 3d 7e 66 06 3d b7 cb ae bc 3b d1 26 3d
       0.08576562 0.032812588 -0.021337373 0.04072688
000090 23 40 52 bd 53 9e a7 3c 3b a8 01 3e b5 07 ac bd
       -0.051330697 0.020461237 0.12661831 -0.083999075
0000a0 10 c2 c5 3b 1a b6 8d 3c 36 83 b5 3d 84 40 b3 bc
       0.006035097 0.017298747 0.08862917 -0.02188135
0000b0 30 c3 a8 3d 59 95 6a 3c 81 84 de 3b 0f 7e 0b 3d
       0.08240354 0.014317834 0.006790698 0.034055766
0000c0 65 b1 42 bc 58 0c df 3c e6 f6 df 3c ff 61 49 bd
       -0.011883114 0.027227566 0.02733941 -0.049165722
0000d0 66 07 68 bb f8 c5 63 bc 49 45 67 bc 3b 6b 48 bd
       -0.00354048 -0.01390218 -0.01411564 -0.048930388
0000e0 c6 82 30 bd 48 17 e0 b7 b2 b4 a0 bd 65 2e e2 bd
       -0.043093465 -2.6713722e-05 -0.07846965 -0.11044005
0000f0 a8 e7 c2 bd 3c b1 10 bd b0 2d 49 bc cb cb bf bd
       -0.09516841 -0.035325274 -0.012278959 -0.09365042
000100 e4 74 4f bc d4 23 f8 3b 3a 6f 6e bc 75 1d 01 3c
       -0.012662146 0.0075726304 -0.014552886 0.007880558
000110 49 ec 29 3d 1e 49 a8 bd c7 d1 44 3d 68 3b 70 3d
       0.041485105 -0.08217071 0.04805162 0.058650404
000120 0e 9b 35 3d 20 c3 c7 bc 92 49 04 3e 25 34 9c bb
       0.044337325 -0.024385035 0.1291869 -0.0047669583
000130 22 32 12 3d 53 4a c4 bc ae fb b5 bd e7 41 a3 bc
       0.03569234 -0.023961222 -0.08885895 -0.019928886
000140 3e a9 31 3c 62 6a 13 3d f8 06 b7 3d 07 66 49 bd
       0.010843573 0.035990126 0.08936876 -0.049169566
000150 91 80 9c 3d f1 29 0c be 8f b0 8f bd d1 a9 9c bc
       0.076417096 -0.13687874 -0.07016098 -0.019123944
000160 b0 f8 17 3d c1 55 16 bd 6d 50 b0 bd 7a 87 50 bc
       0.0371024 -0.036702875 -0.0860909 -0.012727613
000170 77 e3 e3 3c 21 6f 38 bd a0 d6 9c 3c f3 e6 be bc
       0.027818425 -0.045027856 0.01914531 -0.023303485
000180 93 4f 9e 3d cc c8 c6 bb 28 f7 6d bd b1 53 f6 bd
       0.07730021 -0.0060664173 -0.058097035 -0.120276816
000190 0b cf 47 3d 79 d7 8e bb 0b 7d ce 3d 34 e5 83 3c
       0.048781436 -0.0043591824 0.10082444 0.016100504
0001a0 5a 7d 50 3c 03 2a ee bc 1f 8c 81 3c b7 f6 66 3d
       0.012725199 -0.029072767 0.015813885 0.05638763
0001b0 dd bc 31 bd 94 0d 2c 3d 3d 2c 9e bd ae f9 09 3d
       -0.043393005 0.042005137 -0.077232815 0.03368538
0001c0 75 9b 23 be 7c 1e a0 bd f7 2c 20 3d d2 d0 3e 3d
       -0.15977271 -0.078183144 0.03910538 0.046585865
0001d0 fb 2c a1 bc e0 24 0b bd ab 38 c6 bc de 59 07 bd
       -0.019674769 -0.033970714 -0.024196943 -0.03304469
0001e0 e5 8b 23 3d e0 a8 84 3d 62 66 91 3d a7 79 b2 bd
       0.039928336 0.06477523 0.07099606 -0.087146096
0001f0 b2 18 c2 3c c6 43 1f 3e 0e da a7 3d 76 b9 37 3b
       0.023693416 0.15553197 0.081958875 0.0028034127
000200 a1 32 f5 3d f5 11 78 bd 91 8f 81 bb 5b db 02 bd
       0.11972547 -0.060564 -0.003953882 -0.031947475
000210 b2 8d e2 3c 36 cc 8e 3d 82 3f e5 3d f6 58 92 3c
       0.027655456 0.06972544 0.11193754 0.017864686
000220 ce 02 b7 3d 5e a9 eb 3c 71 1a bc 3c 05 0b 29 bc
       0.08936082 0.028767284 0.022961827 -0.010317569
000230 ed 97 13 bd 66 35 8f bc 6e 79 68 bd 7f 39 8b bd
       -0.03603356 -0.017481517 -0.05675643 -0.06798076
000240 39 f4 b4 3d cc bb da 3d 1e 64 02 be d4 de a8 3c
       0.08835644 0.10680351 -0.12733504 0.020614065
000250 88 a7 88 3c 08 cb 3a bd 72 cb d2 3d 58 53 03 3d
       0.016681448 -0.045603782 0.1029271 0.032061905
000260 23 ba 25 bc c6 41 c5 bd b2 53 a4 3d 96 15 3d 3d
       -0.010115179 -0.09631686 0.08023776 0.046163164
000270 b8 6a 15 3e 7a fe 9e bd a5 bf af 3d 4e d6 88 3a
       0.14591491 -0.07763381 0.08581475 0.0010439844
000280 8f 1c 97 3d 92 5b 9f 3c f6 ee 88 bb 7d 9e a5 bd
       0.07378494 0.019452844 -0.004178877 -0.0808687
000290 e1 a3 72 3d e7 ac 69 3d 50 98 9e bd 39 c1 e0 bb
       0.05923832 0.05704966 -0.07743895 -0.0068589714
0002a0 6e 3b a0 3d 53 1c 22 3d 2d 21 10 3d 78 0e 08 bd
       0.07823835 0.039577793 0.03518789 -0.033216923
0002b0 55 8f fc bd 11 a6 c4 3c f3 71 c7 3c fa 75 ac 3b
       -0.12332026 0.024004968 0.024346327 0.0052630873
0002c0 79 71 f0 3c 87 37 b1 bc 2d ec b1 bc 5a bb 3e bd
       0.029350983 -0.021632923 -0.021719063 -0.04656539
0002d0 89 8e 6b 3d 53 a1 b7 bd ca 51 3e bc 93 1a 11 3d
       0.05750898 -0.08966317 -0.01161618 0.035425734
0002e0 48 7b 35 3d 7b ed 60 bd 9f 6a e6 bd ec 59 dc bb
       0.044307023 -0.05491398 -0.11250805 -0.0067245867
0002f0 df 44 bd bc 45 be 84 bd af 30 bf 3c 6f c6 0d 3d
       -0.02310413 -0.064816035 0.023338644 0.03461307
000300 d4 fd 1d 3d b9 66 6f 3d 47 a0 82 3d 7a 45 cc bd
       0.038572147 0.058447573 0.06378227 -0.09974189
000310 4a 49 41 3d 6f 48 73 3d 4d fa af 3d 93 52 1b 3d
       0.047189035 0.05939525 0.08592663 0.037920546
000320 b6 9a e2 bd cc 2e 93 3d e6 e0 c2 b7 8a 65 c2 bd
       -0.11064665 0.0718666 -2.3231329e-05 -0.09492023
000330 19 e3 d0 bd 3b 77 1c bd a5 d5 8c 3d 6d 02 d3 3c
       -0.101995654 -0.038199645 0.06876687 0.025757993
000340 df d1 1e 3c 00 2a b9 3d 39 1a b4 bc 1d 33 20 3e
       0.009693592 0.09041214 -0.02198516 0.15644498
000350 01 cf 97 3c 4a 8e fa ba 16 42 63 3d e5 fb d2 3d
       0.018531324 -0.0019115892 0.055482946 0.10301951
000360 cc ad 22 3d 21 a6 63 3d 0d 2d c9 bc 49 1e fc bc
       0.039716527 0.055578355 -0.024557615 -0.03077616
000370 52 cd 7e bd 4e 0a 7f 3c ea 67 85 3c e1 d8 c1 bc
       -0.062207527 0.015566422 0.016284902 -0.023662986
000380 b5 1f fe bb 9a 3c 15 be f3 d1 6c bc 1c f8 d4 bd
       -0.0077552446 -0.14573899 -0.014454353 -0.103988856
000390 a2 aa 04 3d 94 3e ee bc 73 ca 86 bc 28 70 05 3d
       0.03238929 -0.029082574 -0.016453957 0.032577664
0003a0 d9 71 10 3e c5 ee 9e 3d 71 6f 4d bc f4 f2 c5 3c
       0.1410593 0.077603854 -0.012538777 0.0241637
0003b0 6e 13 56 bc 16 e1 1e bd f5 83 b9 3d b6 05 a7 3d
       -0.013066156 -0.038788877 0.09058372 0.08155386
0003c0 27 c6 09 be 2e 67 75 bd fe 93 cb bb ac a8 5c bd
       -0.13454495 -0.059912853 -0.0062127104 -0.053871796
0003d0 ca d8 cd 3d c9 cf 75 3c 65 b4 08 3e ec 68 9a 3d
       0.10051115 0.015003153 0.13350065 0.075395435
0003e0 49 22 9c 3d 9a 4f 06 be e1 11 9b 3d 05 b1 00 bd
       0.07623727 -0.13116303 0.075717695 -0.03141882
0003f0 2e 8f b6 b8 d3 c0 1f 3d 9f 1c 53 bd 67 0d dc bd
       -8.7051056e-05 0.03900225 -0.051540967 -0.10744744

action_model._discrete_distribution.branches.0.weight f4 [3, 256]
000000 1e b5 23 bd e1 46 51 3c e7 26 b5 3d 1a 44 9d 3d
       -0.03996765 0.0127732465 0.08845311 0.07679005
000010 28 68 8a 3c 42 d5 98 bb 6f 9b 6a 3b 8d ec 34 bd
       0.016895369 -0.004664094 0.0035798212 -0.044170905
000020 74 ad 44 bc 51 7c 92 3d a4 fb 04 bd 67 51 68 bb
       -0.012004245 0.07152618 -0.032466546 -0.003544891
000030 86 c0 af bd ab ac 54 3c 80 68 03 3d 82 1d dd bc
       -0.08581643 0.01298062 0.03208208 -0.02699161
000040 e2 4a bb bc ef 22 3c 3b b4 3c af bd 97 cd 68 bd
       -0.022862855 0.0028707345 -0.085565 -0.05683669
000050 94 e6 83 bd d7 5e 24 bd 6d bf 1b bc 2e 75 40 bd
       -0.06440464 -0.04012951 -0.009506089 -0.04698675
000060 80 a6 16 3d c9 a0 30 bd 64 e6 65 3b 36 5a 14 be
       0.03677988 -0.043122087 0.003507995 -0.14487538
000070 f0 7b 89 3b 35 16 a0 3d 2a c4 00 be b2 e3 f3 3d
       0.0041956827 0.07816736 -0.1257483 0.11908664
000080 01 c8 9b 3b 48 54 86 bc f7 30 c2 3d 71 ba b5 bd
       0.004754067 -0.01639761 0.094819956 -0.088734515
000090 ee 41 ad bd f9 6b ff 3d 1e 96 9d bd fb f5 f1 3d
       -0.08459841 0.12471766 -0.07694648 0.11814495
0000a0 ed 43 bf bd aa c0 41 3b 0a c3 93 bc 7f 0c 6a 3c
       -0.09339128 0.00295643 -0.018037338 0.014285206
0000b0 c8 26 ea 3c 49 53 10 bd 9e a1 8a 3d 73 ef e8 bb
       0.028582945 -0.035235677 0.06769107 -0.0071086227
0000c0 67 77 7b bc 9c b5 7c be a4 aa e2 3c 4a c6 46 bd
       -0.015348292 -0.24678653 0.027669258 -0.048528947
0000d0 30 ca 2f 3c 65 ef 5e 3d 13 5b 07 3d 0a 68 a3 3c
       0.010729358 0.054427523 0.03304584 0.01994707
0000e0 e3 1a ec 3d 32 37 80 bd 7d f3 c9 bc 16 16 aa 3d
       0.11528566 -0.06260528 -0.024652237 0.08304994
0000f0 a1 d4 26 3a d6 de a9 3c 07 89 7e 3d fd d3 3d 3d
       0.00063640816 0.02073614 0.0621424 0.046344746
000100 af f8 38 3c 8e bc 22 bd 6e 8c 32 bd 6c 72 0f bc
       0.01128976 -0.0397306 -0.043590955 -0.008755308
000110 51 12 76 bd 7b 09 4c 3c 43 2a 55 3d 5d 81 21 bc
       -0.06007606 0.012453432 0.052042257 -0.009857503
000120 64 ef 4f bd c2 37 b2 bd 71 57 24 bc 9d 79 86 3c
       -0.05076541 -0.08702041 -0.010030613 0.016415412
000130 04 ac 22 bc 85 60 27 bd c6 30 59 bc cd 80 b4 bc
       -0.009928707 -0.040863533 -0.013256257 -0.022034073
000140 4c f4 8a be 4b 83 70 bb f1 bd 69 bc d0 48 50 3d
       -0.2713951 -0.003669935 -0.014266477 0.05085069
000150 33 57 45 3d 4b 12 c5 3c 24 65 ad 3d b2 1e 0c bd
       0.048178863 0.024056574 0.08466557 -0.03420896
000160 7a 4d 0b 3d 90 db 7f bb d1 76 ed bd e5 a8 bc 3c
       0.034009434 -0.0039040782 -0.11594928 0.023029754
000170 d5 2e c5 bc 16 0c 9a bd 49 a5 06 3d a7 7f 68 bd
       -0.024070183 -0.075218365 0.032872472 -0.056762364
000180 20 24 60 3c 74 5d da 3c 71 87 90 3d 6f 28 ab 3d
       0.013680488 0.02665589 0.070570834 0.083573215
000190 21 b7 08 bd 7a 78 e6 3c 9a 5a 95 bd d8 70 83 bd
       -0.03337777 0.02813362 -0.072926715 -0.064180076
0001a0 1d 35 e5 3c 31 59 ba 3b 01 d5 23 3e 87 b5 8a bd
       0.027979428 0.005686902 0.15999223 -0.06772905
0001b0 57 33 15 bd cd ae 5b bd 1a 26 91 bc ce dd e1 3c
       -0.036425915 -0.0536335 -0.017718364 0.027571585
0001c0 c4 ac 83 3d 45 32 22 3b 3e 0f d2 3b 36 45 df 3c
       0.06429437 0.0024749201 0.0064105084 0.027254682
0001d0 46 08 1a 3d e0 b6 1e 3d 1f 59 6b bb c3 0d 89 bc
       0.037605546 0.038748622 -0.0035911275 -0.016730195
0001e0 6a 7f 6e 3d ec 58 c2 bc 51 42 61 be bc f8 90 3d
       0.05822698 -0.023724042 -0.21997954 0.07078692
0001f0 5f b9 2c 3d bf c4 37 bd 4e e2 91 bd fa 1f e9 bd
       0.04216897 -0.044865366 -0.07123242 -0.11383052
000200 11 23 20 bd a0 55 05 3b 6a 77 0a bc 18 7a d1 3c
       -0.039095942 0.0020345226 -0.008451322 0.025570914
000210 2c fd 44 bb 08 54 68 bc 2e ab 34 bd 55 d1 58 3d
       -0.0030058129 -0.014180191 -0.044108562 0.05293401
000220 55 70 2e bd cb 34 53 bd aa 1f a9 3d 96 b5 b0 3c
       -0.042587597 -0.05156402 0.082579926 0.021570962
000230 a8 c6 ec bc 50 25 b0 bd e5 3b 00 3e bc 09 25 bd
       -0.02890332 -0.08600867 0.12522848 -0.040292487
000240 b6 b6 c6 bc 41 6e 8b bd 76 b4 d1 3d 7a fc 7d bd
       -0.024257045 -0.06808139 0.10239498 -0.06200836
000250 d7 a8 bc 3c 5c 47 3b bc 8d b3 46 bd 01 c0 8b bd
       0.023029728 -0.011430588 -0.048511077 -0.06823731
000260 59 96 1c bc 83 b0 af 3d 11 2d 7a 3c ee 6e 2f bd
       -0.00955733 0.08578589 0.015269534 -0.0428304
000270 4b 89 92 38 75 e1 a5 3c 4d 67 c2 3c a2 3a 0c 3d
       6.987395e-05 0.020249108 0.023730898 0.034235604
000280 f4 b7 81 bd 23 93 a1 3d ab 66 75 3d 5c eb 34 bd
       -0.063339144 0.07889392 0.059912365 -0.04416977
000290 43 b3 6a 3b 45 9d 9f 3d d6 7a 2c 3d 9d e7 0d bd
       0.0035812415 0.07793669 0.042109333 -0.03464471
0002a0 d9 83 dc 3d 88 53 1a 3e 81 f4 a6 3d 7e 1e 8c bc
       0.107673354 0.15070927 0.08152104 -0.017104384
0002b0 35 23 a6 3d 32 46 13 be 2b 83 6b be 07 ad fb bd
       0.08112184 -0.14382246 -0.22999255 -0.12288862
0002c0 ad bc 97 ba 28 8e 33 3c a8 88 29 3d 09 4c 7f bc
       -0.0011576616 0.010959186 0.04139009 -0.015582093
0002d0 47 0b 30 be 89 d9 40 3c b5 5d de 3b c5 9d 02 be
       -0.17191802 0.011770614 0.006786073 -0.12755497
0002e0 95 6a 62 bd d6 0f ca bd ff 01 a7 3b 65 9f 8e bd
       -0.055277426 -0.09866302 0.0050966735 -0.06963996
0002f0 b3 56 69 bd ba 2e 65 3c b6 91 4a 3d b7 1e de 3c
       -0.05696745 0.013988191 0.049455367 0.027114255
000300 27 e7 15 3b 12 5e 0d bd ad 50 e7 bc 2b 7c 8e 3d
       0.0022873373 -0.03451354 -0.028236711 0.06957277
000310 55 f9 93 3c 01 39 16 bd 88 c3 8d bd 08 e8 20 3d
       0.018063227 -0.036675457 -0.0692206 0.039283782
000320 98 4d 0f 3d 26 75 05 bd d9 28 4f bb 5f 57 91 3d
       0.03498611 -0.032582425 -0.003161004 0.07096743
000330 3a c2 83 3d 8d 0e ce 3b 83 00 d4 3c 97 ed eb bb
       0.0643353 0.0062883557 0.02587915 -0.007199954
000340 67 44 6f bd 18 3f a8 3d a2 a2 38 3d 62 86 9a bd
       -0.058414843 0.08215159 0.045076974 -0.07545163
000350 bb 9c 06 be 08 74 0d 3d 86 c1 01 bd a9 c5 40 3d
       -0.13145725 0.034534484 -0.0316787 0.047063503
000360 29 ee 97 bd 86 b7 bc 3c 5d 7b 10 bd a1 55 9f 3d
       -0.07418472 0.02303673 -0.0352739 0.07780004
000370 b3 5d 39 bd 62 9b 04 3c 89 b9 2b 3d a6 de 2b 3d
       -0.045255374 0.008093687 0.041924987 0.04196038
000380 c1 b8 d0 3c ee a1 3e 3e df d2 7f 3c e7 ab 40 3e
       0.025478723 0.18616459 0.01561424 0.18815576
000390 32 5e 93 bd 33 42 9f 3d d3 36 a6 bd 21 27 94 3c
       -0.07195701 0.077762984 -0.08115926 0.018085064
0003a0 e2 c4 21 3b 48 f4 58 bc e3 b3 a4 bd 38 7d 74 be
       0.0024684002 -0.013241835 -0.08042123 -0.23875892
0003b0 08 f2 c4 3c b9 df 59 3d c6 77 00 be 73 e5 ba 3a
       0.02404119 0.053191874 -0.1254569 0.0014259055
0003c0 c3 90 0a 3e ed 34 5e 3c ec e9 16 bd b0 c0 ad 3d
       0.13531785 0.013562423 -0.03684418 0.08484018
0003d0 41 c4 81 3d c6 a0 86 3c 22 fc 4a 3d 64 d3 1b 3c
       0.063362606 0.016434085 0.04955686 0.009510849
0003e0 98 fd 11 3c 1f 40 86 3d b4 d1 8b 3d 0a 49 88 bd
       0.008910559 0.06555199 0.06827107 -0.06654556
0003f0 0d be 39 bc d0 c8 86 be 99 35 3f 3e 8f 68 14 3e
       -0.011336816 -0.26325083 0.1867279 0.14493011

action_model._discrete_distribution.branches.0.bias f4 [3]
000000 1e 03 a1 bc 4b 7c 17 3d 73 e5 83 bc
       -0.019654807 0.03698377 -0.01610062

action_model._discrete_distribution.branches.1.weight f4 [3, 256]
000000 16 30 48 3c 9e eb 3e bd 8f 12 01 bc 02 7e e8 ba
       0.012218496 -0.04661142 -0.00787796 -0.0017737749
000010 80 b1 88 39 11 27 c5 bc 01 a7 40 bc 84 a8 c7 3c
       0.0002607219 -0.02406648 -0.011758567 0.024372347
000020 a0 c6 6c 3c f4 1f f5 bb be 45 98 3c 05 0d 0a bd
       0.014451653 -0.0074806157 0.018587943 -0.033703823
000030 c7 e3 5d bc 5d 91 1b bb 14 a2 89 39 d7 90 2f 3c
       -0.013543076 -0.0023737766 0.00026251434 0.010715685
000040 77 5a 23 bc f0 93 73 3d 36 c7 46 3c b7 7f 0c 3c
       -0.009970299 0.059467256 0.0121324565 0.0085753715
000050 87 cb 44 3d 6b b3 46 3c 48 1d 24 bc e2 92 74 3c
       0.04804566 0.0121277375 -0.010016747 0.014927598
000060 74 9e 0d bc ef 1b 20 3d 41 2a 13 3b 39 af 91 3c
       -0.008643735 0.03908914 0.0022455605 0.017783748
000070 f5 1c 9f bc c2 0b 42 bc 1a af 8d 3c ae 9a 2a 3c
       -0.019422987 -0.011843624 0.017295409 0.010412855
000080 c2 db db 3c a6 70 43 bc c8 96 c8 bc 8c d3 3a 3c
       0.026838187 -0.011928713 -0.02448596 0.011402976
000090 73 9a 4f 3c 62 56 66 3c ad 48 e5 bc c6 bf 28 3b
       0.012671101 0.014058681 -0.027988756 0.0025749072
0000a0 9c 8f 0e bd e6 0e 91 bc 04 cc 35 39 a2 3c 7a bc
       -0.034804925 -0.0177073 0.00017337507 -0.015273245
0000b0 8d 4a 81 bb bb 30 a6 bc 22 1e e3 bb bd b1 d4 bc
       -0.0039456547 -0.020286908 -0.0069310823 -0.025963658
0000c0 5e 68 dc bc bf 69 5e bc a3 de 9e bc 0d d9 00 ba
       -0.026905235 -0.0135750165 -0.01939327 -0.00049151556
0000d0 c6 ff 06 3d c3 52 e7 3c ff 04 06 bd ff ac 1f bc
       0.03295877 0.028237706 -0.03271961 -0.009745835
0000e0 78 30 a9 bc b6 89 5d bc 45 df 9c bc ef 3a f8 3c
       -0.020652995 -0.013521602 -0.019149432 0.03030154
0000f0 0a 54 e4 3b fd ab 09 3c 30 69 90 bd fa e6 97 3c
       0.006968026 0.008402822 -0.07051313 0.018542755
000100 f3 7f 7f bd 38 df 31 bd 73 bd c5 bc 6f e4 24 3d
       -0.06237788 -0.04342577 -0.024138188 0.040256914
000110 44 81 dc 3c ce f5 26 bd 43 f5 a2 bb e4 73 7b bc
       0.026917107 -0.04076176 -0.004973085 -0.015347455
000120 71 58 29 bc e4 09 23 bc 31 5c 67 ba 5a ba ac bc
       -0.0103360275 -0.009951089 -0.0008825688 -0.021084953
000130 9a c3 a6 3d 31 0c 24 bd a3 4f 91 bc bc 8c 71 3d
       0.08142777 -0.04005069 -0.017738169 0.058972105
000140 f3 b3 82 3c de f6 03 bc 0d 8f 8b 3c f8 a1 1c bd
       0.015954947 -0.008054463 0.017035985 -0.038240403
000150 82 11 eb 3c 90 45 cb bc 7e 2c c6 bb 15 12 6b bd
       0.028694872 -0.024813443 -0.0060477844 -0.05739029
000160 17 ce 27 3b 57 8c 77 3d 93 3d 20 bd 08 2e ec 3b
       0.0025605017 0.060436573 -0.03912122 0.007207636
000170 2c 19 5e bc 82 2a fb 3b 49 12 ac 3c 52 21 94 bb
       -0.013555806 0.0076649794 0.021004813 -0.0045205737
000180 a6 89 04 bb 87 53 e9 3c 31 04 e8 3c c4 17 1d 3b
       -0.0020223646 0.028482212 0.028322311 0.0023970464
000190 d5 a1 97 3b cc f5 1a bd a3 a5 64 3c 07 d8 0f bd
       0.004627446 -0.037832066 0.0139555065 -0.03511813
0001a0 89 fd 03 3c e2 f1 f5 bc b3 6e 5d bc 20 23 21 bc
       0.008056053 -0.030022565 -0.013515162 -0.009835035
0001b0 b6 a2 10 3d 7f e0 b4 3b 79 98 89 3c 1d f5 e7 bc
       0.035311423 0.005519926 0.016796337 -0.028315121
0001c0 1f 35 f9 ba 86 f9 af bc 2b 7e 08 3d 99 29 20 bb
       -0.0019013024 -0.021481287 0.03332345 -0.0024438857
0001d0 a2 f8 2d 3b 1c 7a 10 3d fd 6d 9b 3c d5 b4 36 bd
       0.0026545902 0.035272703 0.018973345 -0.04460605
0001e0 1f 89 74 bb f7 aa 15 3d 61 08 59 3d 2c 83 26 bb
       -0.0037313176 0.036539998 0.052986506 -0.0025407774
0001f0 12 a9 c5 3c f4 a5 1c 3d c8 c1 e5 ba 44 7d cd bb
       0.02412847 0.038244203 -0.0017529065 -0.0062710363
000200 2c 95 34 bc 3a 12 61 bd 34 51 c5 3b 1c f4 5f bc
       -0.0110218935 -0.054949023 0.006021643 -0.01366904
000210 b7 4f c0 bc fb 5a 8b 3c f1 5c 99 3b 55 b0 37 3c
       -0.023475511 0.017011156 0.004680269 0.011211474
000220 4a 6d 84 3c dc 29 86 bc 8e eb 5a bc 35 91 b2 3c
       0.016165394 -0.016377382 -0.013361825 0.021797756
000230 26 9b d7 bc ec 77 03 bd 50 77 d0 3c c3 8e 4c 3c
       -0.026319098 -0.03209679 0.025447518 0.012485209
000240 0b 42 33 3c a0 12 01 3d 42 8f 84 bc d9 cf 89 bb
       0.010941039 0.031511903 -0.016181592 -0.0042056856
000250 da c0 c9 bb 96 61 8c 3c a9 e1 96 39 69 de c9 bc
       -0.006157023 0.017136376 0.0002877836 -0.024642186
000260 30 97 dc bc a9 b5 a0 bb d6 e7 c5 bc bc ae 00 3d
       -0.02692756 -0.004904468 -0.0241584 0.03141664
000270 9a 13 12 3d 4d c1 01 3d 88 69 49 3b a1 18 0f 3d
       0.035663225 0.031678487 0.0030733068 0.034935597
000280 a1 41 e3 ba b8 79 0c ba fa 79 4d bc 04 aa bd 3c
       -0.0017338285 -0.00053587137 -0.0125412885 0.023152359
000290 4e bb c3 3d 01 66 0f bb af 69 91 b9 45 7f f7 ba
       0.0955721 -0.0021880867 -0.00027735296 -0.0018882534
0002a0 fb 15 3a bc 52 05 d6 3b ad f2 b8 3a dc fc 4e 3c
       -0.01135778 0.006531396 0.0014110409 0.012633529
0002b0 f5 7d 8d bc 10 42 97 bc 66 6f 4a 3c bc 70 b2 bc
       -0.017271975 -0.018464118 0.012355661 -0.021782272
0002c0 d9 74 7f 3b a9 4a e5 3c 1d 61 5a bd 7f 40 64 3b
       0.0038979559 0.027989702 -0.05331527 0.0034828482
0002d0 6f 6e e8 bb e2 43 80 3c e3 04 26 bd 0a 73 13 3b
       -0.007093243 0.015657369 -0.040532004 0.0022498989
0002e0 f2 ea 3c 3b cd 9e 20 bc 8b b6 5d bc 51 76 c4 3c
       0.0028826562 -0.009803486 -0.013532291 0.023982199
0002f0 39 41 9e bb ca 0f 8c 3c 8e 9d 7e bc 9e 1d 2f bd
       -0.0048295525 0.017097373 -0.015540494 -0.042752855
000300 ec 59 a3 3b f6 53 96 3b 71 5b 12 3c 75 9a 25 bc
       0.0049850848 0.0045876456 0.008932934 -0.010107626
000310 32 c8 e0 bb 04 07 6a 3c ec 5c 6c 3c 8d 0e 50 3d
       -0.0068598026 0.014283899 0.014426451 0.050795127
000320 e1 a9 a9 bc 30 08 fd 3a d0 33 3b 3c 49 03 0b 3b
       -0.020710887 0.0019304808 0.011425927 0.0021211675
000330 a3 39 63 3c 20 8f 25 bc 2a 14 92 3b 72 f5 b2 bc
       0.013868722 -0.010104924 0.00445797 -0.021845553
000340 58 be c1 3c 5e d5 66 3b a7 9b a4 bc e1 84 c8 3c
       0.023650333 0.0035222392 -0.020093752 0.024477424
000350 cb 77 cd bb 51 af af bc 87 dd 86 3c 50 de 79 3c
       -0.006270384 -0.021445902 0.016463054 0.015250757
000360 29 a4 02 bd b0 f1 a0 bc 0b 48 24 3d 7d 7d 0b 3b
       -0.031894837 -0.019646496 0.040107768 0.0021284514
000370 3e f2 9f bc f9 bf 05 3d 13 85 8a bc 4c 9d d5 3b
       -0.01952469 0.032653783 -0.016909158 0.0065189954
000380 b7 79 f9 3c b4 ca 25 bc ee c9 30 bd 02 fa 4b bc
       0.030453546 -0.010119129 -0.043161325 -0.012449743
000390 36 3a 02 bc a2 f0 e0 3b ff 44 0b 3d 06 a8 00 3c
       -0.007948449 0.006864623 0.034001347 0.00785256
0003a0 33 32 3c 3c fb f7 e4 ba be 5a 09 3c 54 bb b7 3b
       0.011486578 -0.0017468923 0.008383451 0.005607048
0003b0 3f d0 05 bd ef ca e6 ba a4 25 6d bc 16 d3 0d 3d
       -0.032669302 -0.0017608086 -0.014474306 0.034625135
0003c0 8a 1b d8 bb 24 cd 18 3c 8a 4f dd bc 23 75 4e bb
       -0.00659508 0.009326253 -0.027015466 -0.0031502924
0003d0 a9 e6 64 3c d4 d0 84 bc 82 92 91 3b bc 74 44 3c
       0.013971009 -0.016212858 0.004442514 0.011990722
0003e0 c6 4f 5b 3b 58 5b 8b bc 55 61 3c 3d 63 6a 10 3c
       0.0033464297 -0.01701133 0.04599126 0.008814427
0003f0 e9 e5 80 3c 23 96 d8 bb fa e6 6d bc 4d 0d 97 3a
       0.01573463 -0.0066096946 -0.014520401 0.001152435

action_model._discrete_distribution.branches.1.bias f4 [3]
000000 47 af aa 3c 08 e5 b9 3c 3d a4 1d bd
       0.020835532 0.022692218 -0.038486708

action_model._discrete_distribution.branches.2.weight f4 [3, 256]
000000 a1 27 72 3d 9c 23 49 3c 1c e1 40 bd 52 a2 83 ba
       0.059119824 0.012276556 -0.04708968 -0.0010042882
000010 c0 cf 0c 3d 71 34 60 3d 64 bf 67 3d b5 3b fc bc
       0.034377813 0.054737512 0.05657901 -0.03079019
000020 39 be 44 3d 7a 88 aa bc 60 d1 3a ba 44 b3 fc 3b
       0.048032973 -0.02081703 -0.0007126536 0.0077118
000030 87 0b 46 3d 6b 76 1e bd e6 70 35 bd 0b 55 99 bc
       0.048350837 -0.03868715 -0.04429712 -0.01871731
000040 33 20 8b bd 5b b6 9d bd 15 98 70 ba b6 45 0c 3e
       -0.06793251 -0.07700797 -0.00091779354 0.13698468
000050 0a ba 56 3d 8b 9c 97 bc 78 3a 24 bc bb f7 f5 3c
       0.052423514 -0.018507263 -0.010023706 0.030025354
000060 53 7c 79 bc 19 88 8b 3d 7e 2d 92 bd 67 59 0e 3d
       -0.015227395 0.06813068 -0.07137583 0.03475323
000070 4f bb 9f bc d6 61 16 bd 03 0f 73 3d 32 11 c0 bb
       -0.019498495 -0.036714397 0.05934049 -0.005861425
000080 9d 97 5c 3d 01 c2 12 bb 55 a4 5f bb a1 c4 cc 3d
       0.053855527 -0.0022393467 -0.003412505 0.099984415
000090 4d d4 e1 3a 10 44 cc bc 77 ee 9a 3c 3e fd 12 bd
       0.0017229408 -0.024934798 0.018912537 -0.03588604
0000a0 f3 90 22 bb d7 1c 90 3d 21 52 27 3d 6b ee b3 3c
       -0.0024805635 0.07036751 0.04084981 0.021964272
0000b0 df 7f bf 3c 61 42 30 3d 2a 1f be bc 45 64 c5 3c
       0.023376403 0.043032054 -0.02320822 0.024095664
0000c0 05 29 5a 3d 91 c8 14 3e 67 41 49 3d c7 22 c2 3d
       0.053261776 0.14529635 0.04913464 0.094792895
0000d0 05 87 c2 ba d9 8c 17 bd 8c 9e 4d bd 9e 6e 87 bc
       -0.0014841264 -0.036999557 -0.05020003 -0.016532239
0000e0 a8 b1 d6 bc 8b 73 00 3d 9c ba 39 bd 55 24 9a bd
       -0.02620776 0.03136019 -0.04534398 -0.07526461
0000f0 9f 14 5b 3c 15 96 c7 bc 90 2a 85 bd cc 9d 98 bb
       0.013371616 -0.024363557 -0.06502259 -0.0046574827
000100 7e 34 cd bb f3 f0 a2 3c 84 53 d5 3c 22 4f d7 3a
       -0.006262361 0.019890284 0.0260408 0.0016426782
000110 8b 0d ce 3d 04 ea 9b 3d d5 16 b4 bb f7 47 03 3d
       0.10061177 0.07612994 -0.005495886 0.032051053
000120 fd 31 f9 3c 07 1e 2f 3d b9 3a b7 3c fd 36 04 3d
       0.030419344 0.042753246 0.022366868 0.032279003
000130 12 e0 4c 3c 86 d5 7a 3d 57 0d 10 3c 73 bf 7b bd
       0.012504594 0.061238788 0.008792243 -0.061461877
000140 e3 a0 0e 3e cc 29 da 3c ae e8 f0 3c 11 1f 5f 3c
       0.13928561 0.026631258 0.029407825 0.013618247
000150 74 22 e1 3c 7a 5c a8 bd 1b ad 53 bd a0 a2 5d 3d
       0.027482249 -0.082207635 -0.051678758 0.05411017
000160 b3 48 ff 3c c1 1f 9e 3b 30 a2 1b 3c aa 9e 9d bc
       0.031162595 0.0048255627 0.009499118 -0.019240696
000170 b3 29 f8 3c b7 13 39 bd bb 77 6a bd 0e 74 1f bc
       0.030293321 -0.045184817 -0.05724309 -0.009732259
000180 db 38 09 bb 87 da cf bc 97 aa 25 3d 24 2b 9c bd
       -0.002093843 -0.025372757 0.04044589 -0.07625416
000190 ca 2c 32 bc 2b 17 b0 3d 93 ba f4 3d a1 00 93 3d
       -0.010874936 0.08598169 0.11949649 0.07177854
0001a0 f4 59 7c bc 08 7c a5 3c 8f c1 6a bd 95 b2 91 3c
       -0.015402306 0.020200744 -0.057313498 0.01778535
0001b0 27 e3 5a bd 00 52 91 3d 8c 23 3a 3c 64 d5 e2 3c
       -0.053439286 0.070957184 0.011361014 0.027689643
0001c0 c8 60 12 bd e3 69 2d 3d 9e 14 a1 3b b1 bf 5e 3c
       -0.03573683 0.04233731 0.004915788 0.0135955075
0001d0 2c 93 88 3d 94 91 77 bd aa a3 85 bb 87 f1 44 bd
       0.06668696 -0.06044157 -0.004078348 -0.0480819
0001e0 22 56 b2 bc 52 b2 56 3d 31 2a 38 3e c0 a2 00 be
       -0.021769587 0.052416153 0.17984845 -0.12562084
0001f0 3a 9d a3 3c 0d 2b b2 3d 19 0c c5 3d 1c 3e 2b 3e
       0.019972432 0.086996175 0.09621448 0.16722912
000200 94 b6 27 3d fd 91 3e bd bd e7 2f 3d 7d f1 c0 bc
       0.040945604 -0.046525944 0.042945612 -0.02355265
000210 16 e1 a2 3d cb 6b 33 3d f6 12 2e 3d e4 bf 08 3d
       0.07953088 0.04380397 0.04249855 0.033386126
000220 d9 9c 4f 3c 25 fd a4 3d 2b 86 c2 bc 5e cd 72 3c
       0.012671673 0.08056096 -0.023745617 0.014819471
000230 61 e8 2d 3d 76 84 ac 3c e2 2d bf bc 28 e2 15 3e
       0.042457942 0.021059256 -0.023337308 0.14637053
000240 c8 2e af 3c a2 98 d1 3d db c5 76 bd 21 dd 1f bc
       0.021384612 0.102341905 -0.060247283 -0.009757311
000250 ac 16 91 3d cd c7 bb bc 65 0a c3 3d 27 62 cc 3c
       0.070844024 -0.02292242 0.09523467 0.024949146
000260 8f 11 9a 3c dc b7 3e bd cd a5 9b 3d 88 9a 07 bb
       0.0188072 -0.04656206 0.07599983 -0.0020691473
000270 e8 c3 6b 3c 2e da 60 bd 11 27 41 3d 5d 58 5d 3c
       0.014389969 -0.054895572 0.047156397 0.013509837
000280 0a 62 81 3b 5c a9 8e bd 07 3d 0b bd 8b 46 a1 bd
       0.0039484547 -0.069658965 -0.033993747 -0.07874783
000290 de a2 94 bc cc 19 8a 3c f6 37 47 bc a8 a9 85 3d
       -0.018144067 0.016858004 -0.012159338 0.065265
0002a0 38 4d 72 bc 60 9d 34 bd 9f 79 7d bb f1 82 cd 38
       -0.014788918 -0.044095397 -0.0038677228 9.7995515e-05
0002b0 1e 38 5e bc 4d b9 78 3d 2b 17 07 3e fa 3b 83 3d
       -0.013563184 0.06072359 0.13192432 0.06407924
0002c0 f2 e3 24 bc fa 20 0b bb f1 89 8a 3d 7f ac 2f bc
       -0.010064112 -0.0021229372 0.067645915 -0.010722279
0002d0 3e 95 dd 3d 54 dd 73 bd c6 27 72 bb 19 23 18 3e
       0.10819481 -0.059537247 -0.0036949976 0.14857139
0002e0 d5 6c 1d 3d e2 db 62 3b 4e 14 e3 bc c3 cb 3e bd
       0.03843387 0.0034615924 -0.027719643 -0.04658104
0002f0 a0 36 c0 3d f3 6d 1d bd 0a dd da 3c 6b e3 cd bc
       0.09385419 -0.038434934 0.026716728 -0.025132855
000300 c9 22 07 3c 9a 34 3c 3c 34 8e 48 3d a7 83 f4 bd
       0.0082480395 0.011487151 0.04896374 -0.11939173
000310 ac c8 e6 3c bd 76 77 3d bc 05 87 3d 78 03 e5 bb
       0.02817186 0.060415972 0.065928906 -0.006988939
000320 69 b9 0b bd f1 5c 0f 3d 22 15 ed 3c e6 07 eb bc
       -0.034112368 0.035000745 0.028940741 -0.02869029
000330 64 fc c0 bc 03 3b 66 3d 79 f9 b8 3c b6 e8 16 3d
       -0.02355785 0.05620862 0.022579895 0.036843024
000340 1e 04 5d 3c 33 c4 4c 3c 5d b7 11 3d 17 2f f6 3d
       0.013489751 0.012497949 0.03557526 0.120207004
000350 8d f9 7e 3d 8c 9c af ba 5f 8d a6 bc 21 c8 e0 3c
       0.06224971 -0.0013398095 -0.020331083 0.027439179
000360 c2 e0 76 3d 9e fa 08 3d a1 f5 16 3c f7 8b 7e 3c
       0.06027294 0.033442132 0.009213836 0.0155363
000370 3b a5 31 3e be b2 b5 3c 2c 92 37 3d 17 92 a0 bc
       0.17348187 0.022179957 0.044817135 -0.019600911
000380 6a 36 25 bd 50 f7 08 be 4f 22 f0 3c 8b 8b d2 bd
       -0.040335096 -0.13375592 0.029313235 -0.10280522
000390 f4 d3 ed 3d 44 ee e3 bd 6d 0e 2b bc e2 9f e7 3c
       0.116126925 -0.1112943 -0.010440451 0.02827448
0003a0 e8 1d 85 3c d3 69 77 3b eb 42 e1 3d 0f 05 1f 3e
       0.016249612 0.0037752285 0.10999092 0.15529273
0003b0 45 e1 19 3d 27 c5 8c 3b 18 1a 93 3d e2 02 bb 3c
       0.03756835 0.0042959633 0.07182711 0.022828523
0003c0 23 d0 95 bd 66 7a cf bd 8d c1 3e 3d 45 a5 97 bd
       -0.073150896 -0.101307675 0.046571303 -0.074045695
0003d0 aa 01 37 3d 1d c3 58 bb 25 68 16 3d fe de de 3c
       0.04467932 -0.003307528 0.036720414 0.02720594
0003e0 e5 af fe 3c b0 2c 3d bd 2d 94 81 b7 29 89 2c 3d
       0.031089732 -0.046185195 -1.5446998e-05 0.042122994
0003f0 25 d5 a4 bd f5 01 c1 3d f3 98 c3 bd 89 53 bf bd
       -0.080484666 0.094242014 -0.09550657 -0.09342105

action_model._discrete_distribution.branches.2.bias f4 [3]
000000 81 b4 6b 3d ee dd b0 bd e2 09 a7 3c
       0.05754519 -0.0863608 0.020390455
