ML-Agents/backup/results/v3.0.1-with-fixed-server-position-3/Volleyball/Volleyball-1297100.onnx (onnx, 333204 bytes, 15 tensors)

discrete_action_output_shape f4 [1, 4]
000000 00 00 40 40 00 00 40 40 00 00 40 40 00 00 00 40
       3.0 3.0 3.0 2.0

network_body.observation_encoder.processors.0.normalizer.running_mean f4 [51]
000000 64 14 6a bc 95 e5 43 bb 6b 65 dc 3e b7 68 aa 3e
       -0.014287088 -0.002989148 0.43046126 0.33283016
000010 95 e5 43 bb 6b 65 dc 3e b7 68 aa 3e d2 9d 66 41
       -0.002989148 0.43046126 0.33283016 14.41353
000020 c4 39 97 c0 48 fd ab ae f8 fd 00 ae 9e be 00 c1
       -4.7258015 -7.8211715e-11 -2.93294e-11 -8.046537
000030 93 6f d0 3f 16 88 cf 41 ff 1c c7 3e 9b 75 c6 3e
       1.628405 25.941448 0.3888931 0.387616
000040 2a 92 78 3e 00 00 00 00 e5 8a 8a bc 00 00 00 00
       0.24274507 0.0 -0.016911933 0.0
000050 95 03 73 3f e1 de 00 c1 9d 53 d0 3f ea cc cf 41
       0.9492734 -8.054414 1.6275517 25.975056
000060 9c 0e 9f 3e 8b 76 c7 3e e7 92 8a 3e 00 00 00 00
       0.31065834 0.3895763 0.27065203 0.0
000070 e1 91 5c bc 00 00 00 00 05 6a 72 3f 78 ab 34 c1
       -0.013462515 0.0 0.9469302 -11.2918625
000080 37 4e d0 3f f8 0f fe 40 0c 80 ce be 24 59 cb 3e
       1.6273869 7.9394493 -0.40332067 0.39716446
000090 62 55 79 be 00 00 00 00 a4 24 4d bc 00 00 00 00
       -0.24348977 0.0 -0.012520943 0.0
0000a0 cb 27 71 3f 5d de 33 c1 55 d6 ce 3f 7a 6f fe 40
       0.94201344 -11.241788 1.6159159 7.951108
0000b0 18 40 b8 be 16 63 c8 3e 39 b8 7d be 00 00 00 00
       -0.359864 0.39138097 -0.24777307 0.0
0000c0 15 e9 86 bc 00 00 00 00 61 aa 72 3f
       -0.016468564 0.0 0.9479123

network_body._body_endoder.seq_layers.0.weight f4 [256, 51]
000000 e2 0e 0d 3d ed 9d f2 bc 07 cd dc bd 08 f2 0d be
       0.03443802 -0.02961632 -0.10781293 -0.13861859
000010 91 c4 b3 3c 7c 03 4e be 84 de 35 3b 60 ed da be
       0.021944316 -0.20118517 0.0027751038 -0.42759228
000020 95 57 6e be 27 24 2c 3e b1 6b d0 be bf b1 2a 3e
       -0.23275597 0.16810666 -0.40707162 0.16669367
000030 57 5d 10 3e 09 59 c8 bd e7 3e bf 3d 3e 6e 40 be
       0.14098106 -0.09782607 0.093381695 -0.18792054
000040 8c 0d f5 3d 4a 2e ba 3d 4b 53 b5 bd 5c 70 32 be
       0.119654745 0.0909086 -0.088537775 -0.17425674
000050 e5 ba 23 3e 63 b6 df 3d 36 c5 97 bc a8 f3 29 bd
       0.15989263 0.109234594 -0.018526655 -0.041492134
000060 68 ac 1e be 6a d4 1e 3e ca 4e ce 3c 4d 5a 3f 3e
       -0.15495455 0.15510717 0.025184054 0.18686791
000070 72 00 f3 bd 28 99 8c be 52 2b fd bd e7 ac 1f 3d
       -0.11865319 -0.274606 -0.12361778 0.038983252
000080 a7 d1 20 be 8d e4 f0 be 28 f6 21 be 39 dc 79 be
       -0.15704976 -0.4704937 -0.15816557 -0.24400415
000090 a3 a8 bb be 42 4b 2b be 19 dc 4c be bf fd 80 bd
       -0.36652097 -0.16727927 -0.20005836 -0.06298398
0000a0 5c af 23 bd 0e 30 eb 3d 50 53 de 3d 94 20 4f 3d
       -0.039962158 0.11483775 0.10855734 0.05056818
0000b0 99 39 30 be 51 1b 77 3e b0 71 c7 bd 68 25 d7 3c
       -0.17209472 0.24131514 -0.09738481 0.026262954
0000c0 b2 3a f8 3d d6 11 4a 3d eb 4c 66 3e f0 85 3c 3e
       0.1212057 0.049333416 0.2249028 0.18410468
0000d0 b2 bb 77 bd e5 a6 e8 bc c2 48 a5 3d a6 6f 82 be
       -0.060481735 -0.028399894 0.08070518 -0.25475806
0000e0 7b af 23 3e 9b 9b 12 be ab 73 83 be 90 3d 17 be
       0.15984909 -0.14317171 -0.25674185 -0.14769578
0000f0 2d a7 27 3e ef f8 8e bd bc 2b a9 3d 27 47 a5 3e
       0.16372366 -0.06981074 0.08260295 0.32280847
000100 80 0a 90 3e ec 08 39 3e a7 6d 88 3d 93 12 30 bd
       0.2813301 0.1806981 0.066615395 -0.042986464
000110 26 10 8e 3d 58 ed d0 bd 11 3e a3 3c bc d4 0f 3e
       0.06936674 -0.1020152 0.019927057 0.14045995
000120 e4 23 1d bd 5f f2 0b 3e aa a3 fc bd cb ba d6 3d
       -0.038364306 0.13666676 -0.12335904 0.10484847
000130 9d 4e 14 be e4 79 62 be bf 58 64 bd f7 e5 1e be
       -0.14483114 -0.2211681 -0.055748697 -0.15517412
000140 9e 05 ad 3d b9 6c 43 3e c3 7f 31 3e f5 06 08 3e
       0.08448337 0.19084443 0.17333893 0.13283904
000150 62 58 81 3d 27 26 f4 3c 7d fd 05 bc ab 72 21 3e
       0.06315686 0.029803349 -0.008178112 0.15766399
000160 0d 72 62 3d ed c9 a4 3d ab 75 91 3c 96 61 03 3e
       0.05528455 0.08046327 0.017756304 0.12830195
000170 df 73 0f 3e 8e c7 ed 3d 71 7f 6c 3c 40 c0 32 3d
       0.14009045 0.11610328 0.014434681 0.043640375
000180 77 dc 27 be d9 5b 21 bd 87 23 16 be 12 cb a0 be
       -0.16392694 -0.039394233 -0.1466199 -0.3140493
000190 3c 80 8e 3d 24 63 1c be e2 e3 8d bc b2 cd f0 3d
       0.069580525 -0.15272194 -0.017320577 0.11757983
0001a0 62 0a 05 3e bc 54 5e 3d 49 1b 42 3d d7 d4 ad 3d
       0.12992242 0.054280028 0.047389302 0.084878616
0001b0 8f 4d b7 3d e9 6c 11 be ad 7b 5c be 1c da 5a 3e
       0.0895034 -0.14201702 -0.21531554 0.21372265
0001c0 ac bd 82 be ac 2d c9 bd f9 82 e4 bb 18 b7 42 be
       -0.25535333 -0.09823164 -0.006973621 -0.19015157
0001d0 b0 6e 68 be ab 56 4a bd 65 94 23 be 2a a8 89 3d
       -0.22698474 -0.04939906 -0.15974577 0.06721528
0001e0 99 7c b6 bd 45 e8 f9 bd 05 d8 d2 3c 96 87 1d 3e
       -0.08910484 -0.12202505 0.025737772 0.15383753
0001f0 a1 7a f1 bb 8e 5c 19 3e 42 e7 0c be ce a0 8b bc
       -0.007369355 0.14976713 -0.13760093 -0.017044451
000200 1d 64 65 bd dd b7 5c 3d 76 49 1f be 32 b2 3d bd
       -0.05600368 0.053886283 -0.15555367 -0.04631252
000210 ba c5 5c 3e d9 5d 4b 3e 6a 9e 6d be 79 0a 51 be
       0.21559802 0.19860019 -0.23204961 -0.20414151
000220 64 92 75 bd 0d 6f 68 3c e0 30 bd bb 81 41 59 bd
       -0.059954062 0.014186633 -0.0057736486 -0.053040985
000230 8b f2 00 be 86 f7 11 be 3c 4e 71 3d 01 7b 3a 3e
       -0.12592523 -0.14254579 0.0589125 0.18210985
000240 c3 a7 8b bd 9e db 57 be ba cf 13 3d 7b 7f 90 bd
       -0.068191074 -0.21079871 0.036086775 -0.07055565
000250 99 be 69 be 3b ee 71 3e 2c 88 55 bd cb 2a 19 be
       -0.22826613 0.23626034 -0.052131817 -0.1495773
000260 f6 ec a6 3c d2 b9 e5 bd fd d1 3c 3e 7b 5f 35 bd
       0.020376664 -0.11217083 0.18439479 -0.04428051
000270 b5 a2 c3 bd 79 94 65 3e c8 5b fa bc 93 f1 c0 3d
       -0.09552518 0.22419919 -0.030561343 0.094210766
000280 fd 1e e3 3d cf 93 ef bc 3a e1 c0 bd b8 27 89 be
       0.11089895 -0.029245285 -0.094179586 -0.26788116
000290 be 4e 1e 3d 71 5a cb bd 30 e1 b8 3d 70 87 d9 3e
       0.038649313 -0.0992936 0.09027326 0.42486143
0002a0 dd 02 53 3e 89 5b 64 3d e5 38 f9 bd 47 2a 9b bc
       0.20606561 0.055751357 -0.12169055 -0.018941058
0002b0 4c d6 29 3e 29 a5 2b 3e a2 61 45 bc a5 aa d3 3c
       0.16585654 0.16762222 -0.012047203 0.025838206
0002c0 4e 90 b5 bd 0e 0e 62 be 73 a9 14 3e d8 71 bc bd
       -0.088654146 -0.22075674 0.14517765 -0.092014015
0002d0 aa f1 2d 3e b9 30 f2 3d 52 09 54 3e e3 64 04 3e
       0.16986719 0.11825699 0.2070668 0.1292911
0002e0 2e c6 d1 bd f1 63 48 be 44 65 07 3e 93 53 e3 bb
       -0.10242878 -0.19569375 0.13222224 -0.006937453
0002f0 a0 1d a0 3d ab ae 09 be cb 44 2e 3d bf 43 8e 39
       0.078181505 -0.13445537 0.042546075 0.00027134825
000300 cd 23 d7 bd 77 54 84 3e 47 37 e8 bd 1f dc 85 be
       -0.10504875 0.25845692 -0.11338668 -0.26144502
000310 8e af 4a 3d cd 1b ca 3d f8 00 49 3c 64 02 6d bd
       0.04948383 0.09868584 0.012268297 -0.057863608
000320 bd db 47 be 0f ac b2 3e ef bd 8d 3d d4 ab 1c 3e
       -0.19517417 0.34896895 0.069209926 0.15299922
000330 3c 83 8d 3c 66 c7 92 bb d1 7f 77 bd b1 9c 3c be
       0.017274491 -0.0044793366 -0.06042463 -0.18419148
000340 7b 36 0f bd 8d b8 c6 3b db e8 df 3d 18 8a 96 3d
       -0.034964066 0.0060644806 0.109330855 0.07350558
000350 72 fa 37 3e 00 48 cd bc 67 4f fd 3e ac c2 19 3e
       0.17966631 -0.025058746 0.49474642 0.15015668
000360 65 e7 a3 3d cc a7 e3 bd ef ee 52 3c 04 f0 65 3e
       0.080031194 -0.11115989 0.012874349 0.2245484
000370 bd ef 17 3d 8f f3 d1 bd b1 f7 ca bd 10 ff 73 3d
       0.037093867 -0.10251533 -0.09910525 0.05956942
000380 75 71 dc 3d ee 17 4c bd 3b b7 4f 3d a8 7e fe 3c
       0.10763828 -0.04982751 0.05071185 0.031066254
000390 28 b3 b1 bd ec 49 83 ba 7c 66 af 3d 01 af eb 3d
       -0.086767495 -0.0010016537 0.08564469 0.11507989
0003a0 c4 7d 79 3c e0 cb b4 3d ba 92 91 be ac 91 d9 bd
       0.015227739 0.088279486 -0.28432256 -0.10623488
0003b0 6b ee 82 be 59 fa 01 be 22 9f 5a 3c b1 d3 a8 3d
       -0.25572523 -0.12693156 0.013343604 0.08243502
0003c0 76 9b 75 3e ed 24 00 be 8e 40 13 be e7 4e 80 3d
       0.23985085 -0.12514086 -0.14380094 0.062650494
0003d0 f5 31 0d 3e 29 67 53 3e 2b 66 c1 bd e8 8f 44 3c
       0.13788588 0.20644821 -0.09443315 0.011997201
0003e0 2a 5e 86 3b 61 8a 04 be 61 5a 1c bb ff e2 28 3c
       0.0041005807 -0.12943412 -0.002385758 0.010308026
0003f0 d2 33 ac be 0b f8 a1 bd d4 d8 20 3d a5 ad 23 3d
       -0.33633286 -0.079086386 0.039269283 0.039960522

network_body._body_endoder.seq_layers.0.bias f4 [256]
000000 6f d6 b0 39 8e 6d 01 bb da db b7 3c 89 cd 09 3d
       0.000337291 -0.0019749138 0.0224437 0.03364328
000010 18 fd 27 3d a8 e9 a0 3c d4 be 32 3c e8 ff 34 bc
       0.041012853 0.019642666 0.010909755 -0.011047341
000020 41 6d 3b 3d d9 10 36 3d 49 64 1b bd 1e 38 a9 3c
       0.04575849 0.04444966 -0.037937436 0.020656642
000030 fc 96 dd 3c e3 7d 9a bb 69 05 24 3d df 28 8b 3c
       0.027049534 -0.004714714 0.040044222 0.016987262
000040 ed e8 37 3d aa 22 16 3d 23 3b f7 3c 55 66 da 3c
       0.04489987 0.036654152 0.030179566 0.026660124
000050 60 9d dd 3c b2 f3 73 3d 58 5b 38 bc de 27 e0 3c
       0.027052581 0.059558578 -0.011252247 0.02736276
000060 f1 2e 34 3d 04 b6 13 3d 5e d9 3f 3d 6a cb 2b 3c
       0.04399008 0.036062256 0.046838157 0.010485509
000070 20 04 c2 3b 20 9d 5a bc c9 d7 29 bb bc c6 32 3c
       0.005920902 -0.013343126 -0.0025915971 0.01091164
000080 fe 50 10 3d 22 86 1d 3d 56 92 02 3c 7e 72 8a 3b
       0.03523349 0.038457997 0.0079694595 0.0042250743
000090 04 4e 8c 3c c7 a8 d8 3c c1 a5 e4 3c 25 52 20 3c
       0.017127044 0.026447667 0.027911069 0.00978521
0000a0 2a 61 1e 3d fd 35 61 3c ac 99 27 3d 69 40 63 3a
       0.03866688 0.013745782 0.040918037 0.00086689607
0000b0 5a 7a 04 3c 60 a9 2e bc dc 00 c3 3c dc 95 cf 3c
       0.0080858115 -0.010660499 0.02380412 0.025340013
0000c0 ca 6a cb 3c 3d a3 06 3d e9 11 c3 3c 6d 1b ea 3c
       0.024831194 0.03287052 0.023812251 0.02857753
0000d0 d4 ac ac 3b ad 5e 62 3b 98 26 44 bc 53 72 3d 3c
       0.005269626 0.0034541294 -0.011972092 0.011562902
0000e0 84 65 7d 3c 07 93 20 3d 9f 24 bc 3c 25 71 f8 bb
       0.015466098 0.039202716 0.022966681 -0.0075818473
0000f0 75 af 57 bc 2c 82 4d 3d b2 90 81 3d fb b7 f6 3c
       -0.013164391 0.05017297 0.063264266 0.030117026
000100 72 58 d1 3c a6 75 fc b9 5e 1f c2 3c a6 24 5c 3d
       0.02555487 -0.0004815284 0.023696598 0.05374589
000110 9a 8b 87 bc 62 8c 53 3d fa 21 2b 3c 2d 06 eb 3c
       -0.01654606 0.05164755 0.010445112 0.028689468
000120 c4 1d 31 bc ab 5a db 3a b0 62 47 3d d9 87 b8 3c
       -0.010810319 0.0016735395 0.0486781 0.022525715
000130 b9 e0 14 3b e5 78 0e 3d de ef b3 3c 15 a9 62 3d
       0.0022716953 0.034783263 0.021964964 0.05533703
000140 89 4a 59 3d bb ca ee 3b 2c be cc 3c b1 37 4a 3c
       0.053049598 0.007287351 0.024993025 0.012342379
000150 2a 0e 06 3d 83 93 7a 3c c1 51 36 3d 4b 2b 77 3d
       0.03272835 0.015293959 0.04451156 0.06034402
000160 f7 8d 98 3c d8 2e 31 3d f3 90 4d 3d 09 23 44 bc
       0.018622382 0.043257564 0.050187062 -0.011971244
000170 cf 07 9b 3c 5a 31 10 3d bd f7 2f 3d eb 0e 6b 3c
       0.018924622 0.035203315 0.04296087 0.014346818
000180 04 37 42 3c e0 30 38 3c c7 da cf 3b 1c 2d d1 3c
       0.011853937 0.011242121 0.006343219 0.025534205
000190 ea d6 ac 3c 3d 34 9f bb e0 e3 c5 39 d6 c7 dc 3c
       0.021098573 -0.004858522 0.00037744548 0.026950758
0001a0 5d cb 2d 3d f9 b4 80 3c 0f b5 9b 3b 91 e5 93 3c
       0.04243027 0.015711294 0.0047518085 0.018053802
0001b0 77 c2 95 3c 7a 34 ea 3c 16 28 ce b7 37 40 4f bc
       0.018281205 0.028589476 -2.457578e-05 -0.012649587
0001c0 7f 66 87 3c 72 12 3b 3d c0 bf b3 38 9c 89 af 3c
       0.016528366 0.045671888 8.571101e-05 0.021427922
0001d0 ca 78 1d 3d 28 9c 14 3b 5a 34 c3 3b 7a f8 85 3c
       0.03844527 0.0022676084 0.0059571685 0.016353834
0001e0 9f d5 b4 3a 48 a7 a9 3c 04 28 f4 3c 49 bd 22 3c
       0.0013796574 0.020709649 0.029804237 0.009932824
0001f0 81 eb f7 3c 7d c6 33 3d 1c fe 17 3d 7d 90 36 bc
       0.030263664 0.043890465 0.037107572 -0.011142847
000200 c7 bb eb 3c 66 b3 d7 3c 3a 91 e8 3c bf a5 26 3d
       0.028776063 0.026330661 0.028389562 0.04068541
000210 d0 1d fa 3c 0e b9 0e 3d df c2 1e 3d d6 27 a3 3b
       0.030531794 0.03484445 0.038760062 0.004979114
000220 bf 4e 82 bb 48 5e 0a 3d 4e d7 b2 3b 81 a9 d6 3c
       -0.0039766724 0.03378132 0.005457795 0.026203873
000230 42 3e 84 bc 72 cf 35 3d a7 d2 93 3c 09 b0 6c 3d
       -0.016142968 0.04438729 0.018044783 0.057785068
000240 d8 5f af 3c 96 91 59 3d d4 21 70 3c 72 fa 51 3c
       0.021408007 0.053117357 0.014656503 0.0128160585
000250 65 a7 38 3c de c4 13 3d b1 cd 0a 3d ff 9b 02 3c
       0.011270379 0.03607642 0.03388757 0.007971763
000260 73 a0 19 3c dd 6a 0f 3d c5 1c 19 3c 66 67 e5 3b
       0.009376633 0.035014022 0.009345238 0.0070008514
000270 77 b9 4c 3d a5 fa 3e 3d f2 a5 57 bc 0a a3 02 bc
       0.04998156 0.046625752 -0.013162123 -0.007973442
000280 12 1a 1b 3d 39 f4 c4 bb d7 ef a8 3d 8c dc 0c 3d
       0.03786666 -0.006010559 0.08248871 0.034390017
000290 68 88 7b 3c 30 3b 1a 3d 2b cd 63 bc 16 64 94 3b
       0.015352346 0.0376541 -0.013903896 0.0045285327
0002a0 d4 d0 60 3c 6a f2 f1 bc 74 d3 42 3d 93 eb 8c 3c
       0.0137216635 -0.029534537 0.04756494 0.017202174
0002b0 c0 45 d8 3b aa 54 e1 3c e4 75 db 3c 2a cd cc 3c
       0.0066001117 0.027506191 0.026789613 0.025000174
0002c0 5a 2e c9 bb c2 bf 9c 3c 90 4c bf 3c cf 3b 93 3c
       -0.0061395587 0.019134406 0.023351938 0.017972855
0002d0 3d 63 0c 3d c6 aa 6a 3c 07 b8 92 3c 20 e2 d9 bb
       0.03427433 0.014322942 0.017910017 -0.0066492707
0002e0 d5 ac 4c 3c 36 0c ea 3c 12 55 d6 3c 4b 75 73 bb
       0.012492378 0.028570276 0.026163612 -0.003714877
0002f0 53 c5 06 3d 2a ea 85 bc 4e d4 59 3c fc 46 d3 bb
       0.032903027 -0.01634701 0.013295246 -0.006447671
000300 fd 5b cd 3c 6b 4c 3b bb 00 a4 01 3d f6 3e 3a 3c
       0.025068277 -0.0028579484 0.031650543 0.01136755
000310 c1 6a 0d 3c 8e 1d 81 bb 47 27 6f 3d e7 35 1a bc
       0.008631409 -0.003940291 0.058387067 -0.009412265
000320 3b 0a e3 3c 5c 88 c9 3c 1e 8e 33 3c c4 a8 a2 3c
       0.02771484 0.024601154 0.010959176 0.019855864
000330 ec 1d 00 3c 33 23 01 3d a7 ef 7f 3c 43 d9 07 3d
       0.007819634 0.03152771 0.015621102 0.03316618
000340 c0 13 ee 3b 63 d2 34 3d 92 de 55 3c e0 10 a4 bb
       0.007265538 0.044145953 0.013053553 -0.0050068945
000350 84 04 1c 3d 83 c7 1e 3d 8d a0 a5 3b b6 01 49 3b
       0.038090244 0.038764488 0.0050545395 0.0030671186
000360 1d d6 9e 3c e0 eb 38 3d 93 85 a9 3c 2d c9 16 bc
       0.019389207 0.045146823 0.020693576 -0.0092032375
000370 55 a2 33 3d 3f 17 d3 3c 98 cf a4 3c 96 ee e2 bb
       0.043855984 0.02576792 0.02011852 -0.0069254143
000380 0d e1 37 3d cb 7f 85 3c 15 ea 91 3b 06 cb e4 bb
       0.04489236 0.016296288 0.0044529536 -0.00698221
000390 f8 45 dc 3c 36 07 16 3c b2 a2 90 3c c6 15 ed 3b
       0.026888832 0.009156993 0.017655704 0.0072352616
0003a0 8d 0d d8 3c 8e 45 69 3d e0 9d 1c 3d 86 22 4d 3d
       0.026373649 0.0569511 0.0382365 0.050081752
0003b0 9d 7a 6e 3d 78 c4 d8 bc 15 82 8a bc 58 0f e1 3c
       0.058222402 -0.026460871 -0.016907731 0.027473137
0003c0 8e ab 08 3c f5 5c 09 3d 68 15 f7 3c bf 4f 31 3c
       0.008341683 0.033535916 0.030161574 0.010822236
0003d0 c9 9e d7 bb 9a 29 c0 3c 3a 1f fd 3c cf 21 c3 3c
       -0.006580208 0.023457337 0.030898679 0.023819832
0003e0 82 69 49 3d f2 f5 fe 3c f8 2e 1f 3d c2 6b 00 3d
       0.049172886 0.031123135 0.038863152 0.031352766
0003f0 57 25 04 3b 67 63 1b 3c ad 84 d8 3c 76 85 f3 3c
       0.0020163858 0.009484149 0.026430452 0.029726725

network_body._body_endoder.seq_layers.2.weight f4 [256, 256]
000000 1a dd 0e bd b1 18 2d 3a 4c cd de 3c b9 69 8a 3d
       -0.034878828 0.00066031056 0.027197503 0.06758446
000010 03 31 6c bc a2 c3 90 3c 11 3e b1 3c c4 9c b7 bc
       -0.014415982 0.01767141 0.02163604 -0.022413619
000020 12 d2 ee 3d 58 17 f6 3c c8 d9 a0 bd 82 dc d5 3c
       0.116611615 0.030040428 -0.078540385 0.026106123
000030 9a 67 22 3d 43 f1 a5 bd dd 89 d8 3d 59 2b c1 bd
       0.039649583 -0.08102658 0.1057317 -0.09432096
000040 c2 42 07 be 9e 54 b0 3c 6a 9f 8e 3d 7a 29 06 bd
       -0.1320906 0.021524724 0.069639996 -0.0327544
000050 31 91 60 3d 9b 7a e6 3c 5b e2 1e bd 12 65 cd bd
       0.054825965 0.028134635 -0.03879009 -0.10029043
000060 41 ef f5 3d d9 90 93 3c 10 84 63 3e 15 e5 cf bb
       0.12008525 0.018013405 0.22218347 -0.0063444474
000070 bd e2 da 3c b6 9b 77 3d 81 d3 fe bd ee ca 2f 3c
       0.026719445 0.060451232 -0.12442685 0.010729535
000080 09 83 97 3c 9b 0a 61 bd 19 43 a0 3d 0c 21 e3 bb
       0.0184951 -0.054941755 0.07825298 -0.0069314297
000090 08 27 1d 3d 4f a7 3b 3d 8d f5 d1 bd df 6c 15 bd
       0.0383673 0.045813855 -0.10251913 -0.03648078
0000a0 36 31 4a 3c 05 e6 19 3e cb d4 9a 3c 3a 86 31 3d
       0.012340834 0.15029152 0.018900296 0.0433409
0000b0 44 24 5a ba c3 bf 13 3d 6a 6e dc bd cd 77 96 bc
       -0.0008321444 0.03607155 -0.10763247 -0.018367672
0000c0 32 63 59 3e 2a 81 98 3d 92 cc 80 3c e8 f9 df bd
       0.21229246 0.07446511 0.015722547 -0.10936338
0000d0 6d 30 73 3c a0 11 4f bb 17 d0 2c bd 4d b3 ad bc
       0.014843089 -0.0031596199 -0.042190637 -0.021203661
0000e0 38 2b d0 3c 87 eb 9a bd 0c d2 d2 3d 71 a0 a1 bd
       0.025411233 -0.075644545 0.102939695 -0.0789193
0000f0 7d f7 2a 3d a3 ff bb bd de e5 30 3c c0 3b 7b 3d
       0.04173993 -0.09179618 0.010796992 0.06133628
000100 83 aa c7 bd ad e9 3e bd 0f 3f aa 3d b4 df ca bd
       -0.097493194 -0.04660957 0.08312809 -0.09905949
000110 c1 f9 fa 3c 4f 92 b2 bd 17 d4 1d be 58 c3 73 bd
       0.03063667 -0.087193124 -0.15412937 -0.059512466
000120 38 2a 92 3d 72 b1 70 bd 59 00 0f 3d 75 0a 6f 3d
       0.07136959 -0.058762975 0.03491244 0.058359582
000130 51 d5 ad bd e1 00 38 3b ce 8b d7 bd 56 0b 04 3d
       -0.084879525 0.0028076696 -0.105247125 0.032237373
000140 b7 66 e4 3d 18 bd c7 3d 29 fb 81 3b e9 28 17 be
       0.11152404 0.09752864 0.003966708 -0.147617
000150 52 01 91 3c 43 e8 69 bd d4 49 14 3c b3 ef ec 3d
       0.017700825 -0.057106268 0.009050805 0.115691565
000160 21 71 93 bb e4 cc a6 3c e3 56 eb bd 16 64 6b 3c
       -0.00449957 0.020361371 -0.11491182 0.014367124
000170 3f 3e 93 bd bd 9d 16 3d 8a 15 09 bd 7e 0a b5 bd
       -0.07189607 0.036771525 -0.033467807 -0.08839892
000180 83 d6 06 bd 80 d3 7f bd 2b 75 c7 bc 7f b8 98 3b
       -0.032919418 -0.06245756 -0.024347862 0.0046606655
000190 79 02 cf bc 80 d8 d9 3c 4e a1 d5 bc 5d de d1 3b
       -0.025269734 0.026592493 -0.026077893 0.0064046816
0001a0 7e 60 25 bd 2d 16 85 3d 6f 03 70 bc 83 a3 8e 3d
       -0.040375225 0.0649837 -0.014649256 0.06964781
0001b0 3b cd 01 3d 70 c3 07 be f5 f2 48 bb 77 52 9d bb
       0.031689864 -0.13258147 -0.0030662392 -0.0048010903
0001c0 80 5c 72 3d 47 c6 bf 3b 3b 60 00 bc ad c2 cc 3d
       0.059170246 0.005852494 -0.007835443 0.09998069
0001d0 9c 92 4f bd 1a fe fb bc 00 0b 0f be e7 1e 22 3d
       -0.050676927 -0.030760814 -0.1396904 0.039580252
0001e0 2b 00 3e 3c a1 88 91 bb a3 57 5a 3d 43 2d b9 bc
       0.01159672 -0.0044413363 0.053306233 -0.02260459
0001f0 bc f3 9e bd 49 8f 04 3d bd 28 8b 3d 93 99 c1 bd
       -0.077613324 0.03236321 0.067948796 -0.0945312
000200 ec 16 9e 3d 0d 6a 88 3c 80 80 83 3d a2 e9 21 3e
       0.07719216 0.016652131 0.06420994 0.1581178
000210 fb a6 89 3d ac 46 db bd b1 0d 48 bc fb 7a 4c 3d
       0.06721302 -0.10706839 -0.012210296 0.04992197
000220 11 23 dd bc 74 a3 c1 bd b8 57 3a bc 27 bd ee 3a
       -0.02699426 -0.09455004 -0.011373453 0.0018214331
000230 3c 7c ca bc 81 1e 4e bc d2 01 9d bb d3 8c fd bd
       -0.024717443 -0.012580515 -0.0047914768 -0.12380376
000240 68 fc 86 bd 88 5f b2 3d 7f ff 40 bd c7 b9 c7 bd
       -0.065911114 0.087096274 -0.04711866 -0.09752231
000250 61 a4 5a bd 95 cf 1e bb 5d ea 12 be 52 bc 9a 3d
       -0.05337942 -0.0024232615 -0.14347215 0.075554505
000260 00 9d f4 3d 24 fe 49 3d 05 c4 c2 bd 18 37 c8 3d
       0.11944008 0.049314633 -0.09510044 0.09776133
000270 ff 44 ed 3c 06 23 6a 3c 72 31 fd 3c 3b af b8 bd
       0.028963564 0.014290577 0.030907366 -0.090177976
000280 7c ed 7a 3c 6b 92 4b 3c 1a 74 fa 3d ad e6 d8 bb
       0.01531541 0.0124250455 0.12229176 -0.0066192956
000290 db 19 ba bd 4c 7a 25 3d d7 c5 ff bc b9 96 8a 3c
       -0.09086963 0.040399835 -0.031222267 0.016917573
0002a0 2e df 0b be 51 d1 cc bd 4a 1a 24 3d 3e 2d 1a bd
       -0.13659355 -0.100008614 0.040064134 -0.037640803
0002b0 b3 23 79 bc 06 f6 9f bc 05 0e e2 bc 9e 52 24 be
       -0.015206265 -0.019526493 -0.027594576 -0.16047141
0002c0 a9 4a e7 3b 53 c3 94 3b 5d 10 82 bc da 0d 82 bd
       0.0070584607 0.004539886 -0.015876943 -0.06350298
0002d0 24 1a c4 bd 8f 00 6e bd 53 be f7 b9 74 d6 a1 3a
       -0.095752984 -0.058106 -0.00047253314 0.0012347237
0002e0 f1 98 0a ba 97 6e 1e 3e 97 76 82 3d a0 48 e1 bd
       -0.0005287072 0.15471874 0.063702755 -0.1100018
0002f0 fd be 0f 3e 59 6e fc 3d cc 56 93 bd d4 c8 36 3d
       0.140377 0.12325735 -0.071942896 0.04462512
000300 92 0b 0d bd 73 75 81 bd 54 73 71 be aa 11 f3 bc
       -0.034434862 -0.0632123 -0.2357915 -0.029671509
000310 16 b1 44 bc eb 38 c7 bd 5a a3 89 3c c9 ea c9 3a
       -0.012005111 -0.09727653 0.016801525 0.0015405054
000320 e8 d1 c1 3d df 75 2b bd 18 0c 92 bd db 3e 50 3d
       0.094638646 -0.041860458 -0.07131213 0.050841194
000330 39 44 90 bd 9b a4 c7 3c a5 41 08 3d 64 20 2b ba
       -0.070442624 0.024370482 0.03326573 -0.0006527959
000340 37 2b 5b 3c e6 12 1a bd 39 4d 99 3d dd 19 bb bd
       0.013377002 -0.03761568 0.07485432 -0.091357924
000350 c2 f4 c6 3d 75 a7 80 bb f6 a1 82 3c 8d 08 e5 3b
       0.097146526 -0.0039262124 0.01594637 0.0069895447
000360 0a 21 41 be 2d 90 09 3c 31 66 73 bc e3 8a db 3c
       -0.1886026 0.008396191 -0.014855907 0.026799625
000370 f2 fa f2 3c 84 78 05 3d 8a 78 19 3b 18 57 2b bd
       0.029660676 0.032585636 0.0023417794 -0.041831106
000380 66 17 0a bd 22 61 e7 bd 27 e2 80 bd 34 66 3b 3d
       -0.03371372 -0.112978235 -0.06293135 0.045751765
000390 88 3a 5b bc 88 d4 56 3d 11 e3 f5 3c d1 a9 54 bd
       -0.013380654 0.05244878 0.0300155 -0.051919762
0003a0 2d e8 10 3c da 9a 3b 3d 29 1c d2 3c 85 0d bd 3d
       0.0088444175 0.045801975 0.025648193 0.09231094
0003b0 30 31 5f 3d 8e be ef bc 7c 0d 04 3d 12 fa b5 3d
       0.05449027 -0.029265668 0.032239422 0.08885588
0003c0 c7 69 e5 bd 47 e1 be bc a8 e1 b2 3d bd 05 8e 3d
       -0.11201816 -0.02330078 0.08734447 0.06934688
0003d0 b3 fb 17 bd 34 39 4a bc 99 cc 8f 3d 63 53 c1 bd
       -0.037105273 -0.01234274 0.07021446 -0.09439733
0003e0 3c 47 3b be 0c be 0c be fe bd d5 bd bf 07 07 3e
       -0.18288893 -0.13744372 -0.10436629 0.13186549
0003f0 0b 6e eb bd 1d a4 84 bd ca 38 54 bd 8f 74 14 be
       -0.114955984 -0.064766146 -0.05181197 -0.14497589

network_body._body_endoder.seq_layers.2.bias f4 [256]
000000 d7 88 09 3c 19 90 86 3c e3 48 e5 3c 17 4c 09 bc
       0.008394442 0.016426133 0.027988857 -0.008379958
000010 80 ac 13 3d 73 fe 80 3c 23 94 2d 3c 65 95 96 3b
       0.03605318 0.01574633 0.010594401 0.004595446
000020 e7 66 42 3c 7b 34 0d 3c 02 fe 47 3b 18 c4 ab 3c
       0.011865354 0.008618469 0.003051639 0.020967528
000030 19 d9 a6 3b 44 ff c4 3c b3 c1 03 bb b6 3d 17 3c
       0.005091798 0.024047501 -0.0020104467 0.009231022
000040 7c f0 50 3c c8 bf 96 3c 3a 6e c8 3c df a8 d0 3a
       0.012752648 0.018401995 0.024466623 0.0015919468
000050 84 0e ca 3c 3d 91 e7 bb c3 01 88 bc 72 5b bd 3c
       0.024665125 -0.0070668743 -0.016602403 0.023114894
000060 b7 99 e5 3c f4 62 01 3d 42 1f 9e bc 4d aa 49 3c
       0.028027399 0.03158851 -0.019302014 0.012308669
000070 af 62 22 bc 9c fc dc 38 42 5a c9 bb 8d 4f 08 3c
       -0.009911223 0.0001053747 -0.006144793 0.008319748
000080 16 f0 d3 3c d4 31 6c 3c e0 4c 94 3a eb c1 4a 3c
       0.025871318 0.014416177 0.0011314414 0.012375335
000090 11 1c 19 bc d0 6f 9a 3c 65 11 33 3c da 51 e3 3c
       -0.00934507 0.018852144 0.01092944 0.02774899
0000a0 26 ab 7d 3c 5e cc 75 3c 26 61 27 3c d7 dc ae ba
       0.0154826995 0.015002338 0.010216033 -0.0013340962
0000b0 1e 35 1c 3c 6d 2f ed 3c f7 11 a3 3c fa 6e 6a 3c
       0.0095341485 0.028953278 0.019906027 0.014308685
0000c0 77 fc 42 bc 66 9a 3b 3c e7 39 af 3c 79 e7 4c 3b
       -0.011901013 0.011450386 0.021389915 0.0031265898
0000d0 85 6c a8 3c 41 ea 14 3d 30 cc fc 3a fd bd e7 3b
       0.020559559 0.036356214 0.0019286927 0.007072209
0000e0 63 bf 77 3c 7c 61 00 3c 98 e7 75 39 9a 4e a7 3c
       0.015121314 0.007835742 0.00023451296 0.020423222
0000f0 8d 43 5a 3c df 12 9e 3c 93 4d 3f 3d 06 7e 9b 3c
       0.013321769 0.019296108 0.04670484 0.018980991
000100 ab a7 bc bc c5 52 06 bb 8e 91 b3 3b bb 45 30 3d
       -0.023029169 -0.0020496112 0.005479998 0.04303525
000110 79 cd a9 bb 1b 18 fb 3b 3a 9f 81 3c 53 a7 9d bb
       -0.005181965 0.0076627857 0.015822995 -0.0048112064
000120 41 70 07 3d f5 10 2c 3c fd 9f d4 3b 3d bf e4 3c
       0.033066038 0.01050209 0.0064887987 0.02792322
000130 2e e1 b5 bc bd b2 39 bc ac 31 9c 3c e3 25 95 3b
       -0.0222021 -0.011334118 0.019066654 0.0045516356
000140 f7 5f 88 3a 51 72 62 3c 34 21 c5 3c da 1b ac 3b
       0.0010404576 0.0138212005 0.024063684 0.0052523436
000150 cd 81 d6 3b 00 0e 84 3c 13 09 a4 bb 3b c0 85 3c
       0.006546235 0.016119957 -0.0050059645 0.016327014
000160 26 8e 79 3b bd 0e 89 bb 56 af 7f 3c e5 69 0c bc
       0.0038079112 -0.004182665 0.015605768 -0.008570169
000170 df 8e e7 3c 55 a4 eb 3a 5f 6e 8b 3c 23 36 53 bb
       0.028266368 0.0017978052 0.017020402 -0.0032228313
000180 05 a7 aa 3a a8 89 b1 bc ee 96 19 3d 7e 19 5f 3c
       0.0013019746 -0.021672085 0.037497453 0.013616918
000190 56 a9 76 bc 8d 0f 19 3c bd 06 cd 3c fe a7 3e bb
       -0.015055021 0.0093420865 0.025027627 -0.002909183
0001a0 36 0e 09 3d 61 c7 d6 3c b4 e8 14 3d b4 46 a3 bb
       0.03346082 0.026218118 0.036354735 -0.0049827937
0001b0 15 03 8f 3b 2b da f4 bb 13 38 94 3c 92 12 5b 3c
       0.004364381 -0.0074722967 0.018093145 0.013371127
0001c0 a1 5b ba 3c c2 bc e8 3c f4 c1 c3 bb 56 31 2f 3c
       0.02274877 0.02841032 -0.0059740487 0.010692915
0001d0 1a 50 70 3c b3 3d a6 3c f0 9a c2 3b ab 40 aa 3b
       0.014667535 0.020293092 0.00593888 0.0051956973
0001e0 c6 a1 1b 3d 78 1f d8 3c 91 5f 47 39 ea de 02 3d
       0.037996076 0.026382193 0.0001901372 0.03195087
0001f0 b7 7e e1 3b 3b 14 0b bc c5 33 19 3d 05 48 f9 3b
       0.0068815607 -0.00848871 0.037402887 0.0076074624
000200 0a c2 f4 bb 7e 5d 4e bc 21 91 9c bc 8f ef a6 3a
       -0.0074694203 -0.012595532 -0.019112172 0.0012736189
000210 f9 19 17 3b b1 4b 96 3c 2e a3 d0 3b c7 02 95 3c
       0.0023056252 0.01834664 0.006367109 0.0181898
000220 5d 8e bb 3a a4 60 16 3d 76 43 01 3c 64 86 20 3c
       0.0014309395 0.036713257 0.007889619 0.009797666
000230 54 34 03 3b bf b4 93 bb 3d d6 63 3c 32 be a0 3c
       0.0020020204 -0.0045076306 0.013906059 0.019621942
000240 4d d4 f4 3c cb 1b b5 3b 0f 57 ac 3c 41 e9 28 bb
       0.02988639 0.005526995 0.021037607 -0.0025773796
000250 c4 d2 01 bb 94 83 e6 3c 3c 3a e4 3c a1 62 72 3b
       -0.0019809464 0.028138913 0.0278598 0.0036985057
000260 e4 90 59 3c c5 b6 42 3c 09 7c 08 3d 96 1b 1d bd
       0.0132791735 0.011884396 0.033321414 -0.038356386
000270 3e ef fe bb 87 b2 8c 3c 1a b6 e2 3b bd 9e 32 bc
       -0.0077799847 0.017174972 0.006918681 -0.010902104
000280 50 36 ca 3b 63 2b ac 3b c3 be c2 3c 8c 7b ec bb
       0.0061710253 0.0052541955 0.023772603 -0.0072168764
000290 5e 83 32 3b 7f 35 50 bc 76 0b de 3c f3 8b 8a 3c
       0.0027238945 -0.012708067 0.027105074 0.016912436
0002a0 26 9a 93 3c 5c d9 4f bc c1 13 31 3b e7 af 96 3c
       0.01801784 -0.0126861 0.002701983 0.018394424
0002b0 da cc aa 3c 3e 19 06 3c 04 f2 70 3c 60 6b 11 3c
       0.020849634 0.008184729 0.0147061385 0.008875698
0002c0 91 ef 1e 3c e2 64 68 3c 38 b2 04 3d 97 6d 04 3d
       0.009700672 0.014184209 0.032396525 0.032331076
0002d0 a3 95 dd 3b 78 90 50 3c 2d 05 35 bc 19 f4 9d 3c
       0.006762223 0.0127297565 -0.011048597 0.019281434
0002e0 fb 8d 90 3b ac bb 1c 3c b5 d3 05 bc ed f7 69 3c
       0.0044114566 0.009566229 -0.008168151 0.0142803015
0002f0 64 bc b0 ba 0b d7 94 3c 56 00 4b 3c 3c 81 65 3a
       -0.0013483879 0.018168947 0.012390217 0.0008754914
000300 e0 84 55 bc 67 6b 25 bc b1 b5 25 3d 65 1b 05 3d
       -0.013032168 -0.0100964075 0.040456478 0.03249683
000310 6a 75 11 3c 18 98 55 3c 87 6a 70 bc e3 3a ab 3c
       0.008878091 0.01303675 -0.014673836 0.020902103
000320 c4 0d 93 3c 4e 7e ef bb 2f f7 9b 3c 08 86 77 3c
       0.0179509 -0.007308758 0.019038765 0.015107639
000330 54 b8 63 3c d4 01 42 bb a0 ca 30 3c 17 6f c3 3b
       0.013898928 -0.002960314 0.010790497 0.0059641707
000340 ff b8 fc 3c fb e3 a9 3c 2e b9 79 3a 6f c3 a5 3c
       0.030849932 0.020738592 0.000952619 0.020234792
000350 f2 c3 b5 3c 2f 23 67 3b 55 15 f7 ba 7e 0a c0 3c
       0.02218816 0.0035268774 -0.0018850962 0.023442503
000360 30 5c 5c bc 7f 9a 84 3c 80 fe cb 3c 52 0d f9 bb
       -0.013449714 0.01618695 0.024901628 -0.007600465
000370 92 23 71 3c 6e d8 c3 bb e6 53 64 bb 9b 65 e8 bb
       0.014717953 -0.005976728 -0.0034840046 -0.0070921904
000380 1c 8b f2 bb 9a 0f 50 3b ae d1 dc 3c bd 3f 92 3c
       -0.007401837 0.003174758 0.026955452 0.017852658
000390 e7 c7 d2 ba 33 26 51 bb bc ad 88 3b 78 1e fd 3a
       -0.0016081304 -0.0031913638 0.0041711014 0.0019311449
0003a0 df be ac 3c cd a1 10 3c 39 eb d6 bb f3 fb 7d 3b
       0.021087108 0.008827639 -0.0065588024 0.003875491
0003b0 49 6a 82 3c 08 88 ec 3c 77 b1 04 3c 18 37 fb 3b
       0.015919821 0.028873459 0.008098952 0.00766648
0003c0 10 04 1d bb d6 96 08 3d a7 37 bb 3c 98 9d 0e 3c
       -0.002395872 0.033346973 0.022853686 0.008704565
0003d0 af e7 94 3c b9 8c c5 3b b1 0a 99 3b dd dc 16 3c
       0.018176882 0.0060287383 0.004670464 0.009207931
0003e0 96 78 0a 3b c0 69 d0 3c 1b 1d ac bb a9 7b 0d 3c
       0.0021129004 0.02544105 -0.005252493 0.00863544
0003f0 da 9a a6 3b cf 94 d0 3c 83 bf fa bb e6 c7 7a 3c
       0.0050843777 0.025461582 -0.0076522245 0.015306449

action_model._discrete_distribution.branches.0.weight f4 [3, 256]
000000 ae 2b 82 3d b4 97 a4 bb 24 ed f4 ba 58 b3 8c bc
       0.063559875 -0.0050229672 -0.0018686396 -0.017175362
000010 50 61 2f 3d 19 e7 c6 3c 47 7b 4e 3d f3 da 0a bd
       0.042817414 0.024280118 0.050410535 -0.033900212
000020 1c 38 3f bd 97 45 4c bc 4a 59 88 3c 66 34 bf 3c
       -0.04668437 -0.012467763 0.016644139 0.023340415
000030 05 31 14 bc ba 0c 96 bc 66 f3 af bb 15 5d f9 bc
       -0.00904489 -0.018316615 -0.0053695915 -0.030439893
000040 d1 76 69 3d 6c c1 e6 bc 5e 02 fa 3c 8e 3d 62 3a
       0.056998078 -0.028168403 0.030518707 0.0008630388
000050 f7 0b 19 3c f0 92 87 3c ba 9e 44 3c 8a 04 56 3d
       0.009341232 0.016549557 0.012000734 0.052250423
000060 1e 87 38 3d 09 91 ed 3c b6 bb 8e bc 51 40 3d 3d
       0.045050733 0.028999822 -0.017423492 0.046203915
000070 00 a3 f4 ba c2 26 73 3c a1 7f 29 bc 94 a5 fe 3c
       -0.00186643 0.014840784 -0.0103453705 0.031084813
000080 79 c4 39 bc 70 33 6e 3d 1b 09 b0 bc 18 2c 1e bc
       -0.011338347 0.058154523 -0.021488717 -0.009654067
000090 cf e6 b8 3c e1 bd 30 3b 72 34 52 3d f5 0d c0 3c
       0.022570996 0.0026968645 0.051319547 0.023444155
0000a0 8e f0 2d bd 75 15 6e 3b e1 79 e0 3b b5 19 a4 bc
       -0.04246574 0.0036328707 0.0068504666 -0.02003179
0000b0 03 28 1b 3d 66 95 e0 bb 37 62 c0 3c 32 36 92 3c
       0.037879955 -0.006853747 0.023484332 0.017848108
0000c0 be 37 27 bc ef c4 9b bc d3 b3 21 3d 9c 71 cf 3a
       -0.010206161 -0.019014804 0.039478134 0.0015826705
0000d0 82 d9 53 3c f1 91 ef 3c f1 b3 d3 bc 64 5d 54 3d
       0.012930276 0.029244395 -0.025842639 0.051846877
0000e0 69 1a cd 3b 24 08 4e 3d 2a f4 e0 3c 81 3f 66 bc
       0.006259252 0.050300732 0.027460176 -0.014053226
0000f0 0e 60 36 3d de 28 1e 3c 44 95 3c 3c 9a e3 dc bb
       0.0445252 0.009653298 0.011510197 -0.0067409994
000100 17 b1 aa 3c 38 ca 2c bc 1d a6 6d bc b9 20 89 3d
       0.020836396 -0.01054626 -0.0145049365 0.066956945
000110 e8 d3 56 bc f2 8f 77 bc 5c f8 78 bb 53 b9 99 bc
       -0.013112046 -0.015110003 -0.003798983 -0.018765127
000120 dc 37 1a 3d 39 9c f1 bb 4b 93 df 3c 52 11 cf 3b
       0.037650928 -0.0073733595 0.027291914 0.0063192034
000130 51 74 16 3c b6 b0 4b bd 11 6d 2b 3d 24 f2 fe bc
       0.009183005 -0.04972907 0.04185206 -0.031121321
000140 04 7c 54 bc 13 ee 07 bd 3b e6 9c ba f8 6f 5f 3b
       -0.012969021 -0.03318603 -0.001197047 0.0034093838
000150 c9 bc 3b bd b9 b7 13 3d 75 88 24 bc 67 92 9f 3b
       -0.045834336 0.036063883 -0.0100422995 0.0048697474
000160 44 5c 10 bd e1 ed 10 3d 57 ed e3 3c 91 e1 0d bc
       -0.03524424 0.03538311 0.027823133 -0.008659736
000170 89 89 2a 3c d4 66 56 3c d9 52 8b bc 10 98 cf 3b
       0.0104087675 0.01308604 -0.017007278 0.006335266
000180 72 aa 84 bb 5b 9a 2e bc ae 70 1e 3c 8b 7e d1 3b
       -0.004048639 -0.010656918 0.00967042 0.006393259
000190 b7 5d 96 bc f6 7f ae 3c 80 f2 f9 3c 4b c9 b9 bc
       -0.018355234 0.02130125 0.03051114 -0.022678992
0001a0 dc 79 8c 3c 67 6f 0b ba 31 67 08 3c 2b 0d 05 bc
       0.01714795 -0.00053190294 0.008325384 -0.008120815
0001b0 9f 9d b3 bc fe 68 0a bd 8e 88 1a bd 46 8e 9c 3c
       -0.021925746 -0.033791535 -0.037727885 0.01911081
0001c0 ce 01 15 3d 93 a2 e2 bb 01 de 9b 3c 9a 29 aa 3b
       0.036378674 -0.006916353 0.019026758 0.0051929476
0001d0 5d 55 88 3c 9e 41 b1 bc 36 ec 69 bc 4f 9f de ba
       0.016642267 -0.021637734 -0.0142775085 -0.0016984734
0001e0 00 1d 8e 3d bc 09 ef 3c 7b 32 9d 3c a0 8d 33 3d
       0.06939125 0.029179446 0.01918911 0.043836236
0001f0 87 8f 5d 3d fa ac 28 bb 18 7a 5d 3d 65 28 ad bc
       0.054091956 -0.0025737868 0.054071516 -0.021137426
000200 cf 67 d4 3b ab a0 1d 3c 7b 77 d3 bb 56 2e 09 bd
       0.0064821015 0.009620826 -0.006453452 -0.033491455
000210 9c fd 8d 3d 06 ce 06 3d e6 b5 0c bd 44 7e 29 3c
       0.06933138 0.032911323 -0.03435316 0.0103450455
000220 66 b1 f9 bb 36 d2 12 3d de e8 c4 3b 3b 8b b2 bc
       -0.0076200245 0.035845004 0.0060092052 -0.021794906
000230 67 ef 3b 3d ab c6 83 3b 5e ad 30 3c ad 85 0d 3d
       0.04588261 0.004021486 0.010783521 0.03455131
000240 ca 19 93 3c 73 4f 0d bd 2e 37 ba 3a ec 05 cc 3c
       0.017956633 -0.034499597 0.0014207119 0.024905168
000250 3e b7 28 3b 4b 3f ea 3c f9 59 5c 3c 0d 13 be bc
       0.0025743986 0.028594634 0.0134491855 -0.023202443
000260 c5 a0 f7 ba 7b 57 e4 3c 22 e5 eb bb df d1 3d 3b
       -0.0018892518 0.027873745 -0.0071989456 0.0028964204
000270 26 88 7a 3b ac 47 2a ba c7 23 f9 bb 68 6d 37 bc
       0.0038228123 -0.00064956653 -0.007603142 -0.011195518
000280 9e b6 5b bb 1b 1e b3 bb 0d 65 54 bc 46 3c 01 bc
       -0.0033525596 -0.0054662353 -0.0129635455 -0.007887905
000290 65 2f 95 3a 85 92 ba bc ab 25 4e 3c d8 3b f8 3b
       0.0011381923 -0.022774944 0.012582223 0.0075754933
0002a0 5b aa 5e 3b 27 3f 05 bb fb 22 04 3c 85 c0 12 bc
       0.0033976051 -0.0020331831 0.008064981 -0.008957033
0002b0 d3 45 29 3a 38 99 94 3b 6c a0 8d 3c fb f5 84 3d
       0.0006457243 0.0045348667 0.01728841 0.064922296
0002c0 97 b5 8e 3b 49 6e 70 bc 64 de 40 3d 5c 87 3b 3d
       0.0043551433 -0.0146747315 0.04708709 0.045783386
0002d0 23 37 5c bb 8d e5 0d bc 8f d0 81 3c 10 63 f2 bb
       -0.00336022 -0.008660686 0.015846519 -0.007397063
0002e0 af bb 05 3c 02 c7 e6 3c 11 7e c9 bb 6d d9 27 3d
       0.008162423 0.028171066 -0.0061490615 0.040978838
0002f0 83 c0 87 3c d1 4b 12 bc 51 af d6 bb 05 2d 1d 3c
       0.016571289 -0.008929209 -0.006551661 0.009593253
000300 12 94 eb 3c d7 4b 43 3b 64 4f 15 3c 86 5f e6 bc
       0.028757129 0.0029799843 0.0091131665 -0.028121721
000310 e4 6e c3 bc 64 1a e3 3c 1b 1d c6 bc 79 cb ac 3c
       -0.023856588 0.027722545 -0.0241838 0.021093117
000320 55 b0 7c 3c 60 e5 7c 3b 70 0a bd bc ff c2 5f bb
       0.0154229 0.0038588867 -0.023076266 -0.0034143326
000330 ed 5c 21 3d 47 6d 99 3b 9c 06 2b 3d cb 9b 85 bc
       0.03939526 0.0046822163 0.04175435 -0.01630964
000340 49 b9 97 bd 63 d8 e2 3c c7 32 0c 3b 36 e5 97 3d
       -0.07408387 0.027691072 0.002139257 0.074167654
000350 f0 5a 16 3c 79 1e 2b bc 2b c7 05 bc 0b 16 0b 3d
       0.009176955 -0.010444277 -0.008165161 0.03395657
000360 a9 b5 45 bb 83 32 0d bb df c8 42 3d e5 fb 01 3d
       -0.0030168092 -0.0021545 0.047554847 0.031734366
000370 f7 fd 39 bc a5 e2 b4 bb 11 31 5d 3d 41 3b a3 3a
       -0.011352054 -0.005520182 0.05400187 0.0012453572
000380 6b 7d 90 3c 65 4d 39 bc b0 6a dd bb e4 48 31 bc
       0.017637929 -0.011309956 -0.006757103 -0.010820601
000390 8f fa a4 bc bd 8c b8 bc 88 25 d3 bc 7e d8 42 3c
       -0.020139007 -0.022528047 -0.025774732 0.011892436
0003a0 86 71 b2 3b 24 0e ea 3b df d5 79 3b 80 6b af bc
       0.005445662 0.007142799 0.0038121862 -0.021413565
0003b0 bc 94 5c bc e3 bf 82 bc 19 03 95 3c 96 dc a3 3b
       -0.013463195 -0.01596064 0.018189954 0.005000661
0003c0 6b 75 07 bd e1 5f bf bc 59 ac db 3c 06 e3 86 bb
       -0.033070963 -0.023361148 0.02681558 -0.004116419
0003d0 5c fb 3d bc f4 93 95 bb 78 17 c0 bc ab ca aa 3b
       -0.011595573 -0.0045647565 -0.02344869 0.005212148
0003e0 c1 03 95 3c 2a a7 07 bd 9c fe 0c ba 25 a6 c8 3c
       0.018190267 -0.033118404 -0.0005378516 0.024493286
0003f0 c5 95 cc bc 4c b3 5a 3d ca eb e7 bb 18 e0 d5 bc
       -0.02497376 0.053393647 -0.007077669 -0.026107833

action_model._discrete_distribution.branches.0.bias f4 [3]
000000 1c 12 44 3c c8 65 84 bc a0 4d 70 3b
       0.011967208 -0.016161814 0.0036667362

action_model._discrete_distribution.branches.1.weight f4 [3, 256]
000000 b0 9c c6 ba e9 d3 9d 3b 2f 0a 8b 3c 53 09 18 3c
       -0.0015152898 0.0048165214 0.01697263 0.009279567
000010 c9 72 c5 bb 23 26 27 3c 98 c1 be bb 00 12 ee 3c
       -0.0060256463 0.010201964 -0.005821418 0.029061317
000020 91 e1 93 3c cc b9 4b 3b 26 03 17 bd b4 00 d1 3c
       0.018051894 0.0031086085 -0.036868237 0.02551303
000030 14 ad 03 bc 0d b9 12 3c ba 40 8b bb 44 43 6b 3a
       -0.0080368705 0.008955252 -0.0042496594 0.0008974562
000040 6d 41 2e bc 50 f8 16 3d 9d ad 97 bc 91 4d 95 bc
       -0.010635716 0.036857903 -0.018515402 -0.018225463
000050 3a ed 70 3c c1 b7 46 bc 2f 1c 07 bd f9 d4 8b bc
       0.014704997 -0.012128771 -0.032985862 -0.017069327
000060 7a 46 ba bb 2e 71 8f bb 76 63 c8 bc e1 30 1e 3b
       -0.005684671 -0.0043775057 -0.02446149 0.002413802
000070 66 b9 9d 3c 90 4f 31 bb 97 b5 40 ba 47 e9 d9 3b
       0.019253444 -0.002705548 -0.0007351278 0.0066501233
000080 ce cb 95 3c 73 bd 80 3c bb 2e 68 bc 5f 95 28 ba
       0.018285658 0.015715336 -0.014171298 -0.00064309494
000090 03 d4 f4 3a 1a 5a 01 3d 7d b7 e6 bc 0c 23 af bc
       0.0018678907 0.03158007 -0.028163666 -0.021379016
0000a0 5a e8 04 3d 93 f1 9f 3c c4 a3 18 ba 26 55 1b bc
       0.03244815 0.019524371 -0.0005822743 -0.00948075
0000b0 dc ee ac bc ab 5b b1 3c 02 02 eb bb 9a c0 21 ba
       -0.02110999 0.021650156 -0.00717187 -0.00061703625
0000c0 25 d1 37 bb 78 2a b7 3c 17 22 95 bc 03 17 1a 3c
       -0.0028048244 0.022359118 -0.018204732 0.0094049005
0000d0 65 f5 01 3d 6e 05 77 bb e2 54 11 3c 1d 93 e8 3a
       0.031728167 -0.0037692445 0.008870335 0.0017744038
0000e0 20 e2 61 bc 63 2e 6b 3c 77 0d 4c bc dd b4 56 3b
       -0.013786823 0.014354321 -0.012454382 0.0032761612
0000f0 21 77 b4 3c 44 51 16 bc c0 26 3e 3c 57 ac 9c 3b
       0.022029461 -0.009174649 0.011605918 0.0047812867
000100 d8 1b 0f 3c d6 33 87 bc 61 12 2d 3d 85 e7 98 3c
       0.008734666 -0.01650421 0.042253856 0.018665085
000110 50 2a d1 3c 1a c8 20 3c 35 c4 14 3b e0 25 1a bc
       0.025532871 0.009813333 0.0022699956 -0.009408444
000120 53 23 8c 3c 5c 51 be 3c aa 77 d0 ba 6d 8d d0 bb
       0.017106688 0.023232155 -0.0015904803 -0.0063645155
000130 43 cd ac 3b 77 80 cb ba 75 a5 93 3b 13 74 d1 3c
       0.0052734925 -0.0015525956 0.004505808 0.025568044
000140 d3 7a 2d bc fd 67 6c 3c e4 dd e6 39 f2 a7 57 3c
       -0.010588366 0.01442909 0.0004403434 0.0131626
000150 32 c0 22 3c c4 a0 ef 3a 32 8d 0b bd 1a 1e f3 39
       0.009933518 0.0018282165 -0.0340702 0.00046371
000160 a8 9c f3 bc 53 0b 8b 3b f5 df 54 bc ef b2 67 bc
       -0.029737785 0.0042432933 -0.012992849 -0.014141782
000170 35 07 b8 3b cc 7d 43 bc 7f 2f 02 3d a9 a9 d4 3b
       0.0056160935 -0.011931848 0.031783577 0.0064899516
000180 61 68 ca 3a 21 a5 b9 3c 31 86 91 3b fd 23 1c bd
       0.0015442484 0.022661747 0.0044410457 -0.03812026
000190 b6 7f 37 bc e5 e5 30 bd c3 ba 7a bc 52 01 cc 3b
       -0.011199882 -0.043187995 -0.0153033165 0.0062257433
0001a0 bc c5 0f 3c a4 93 d2 3c aa cc db 3c 5e dd 77 bc
       0.008775171 0.025705166 0.02683099 -0.015128462
0001b0 f6 e1 9e 3c dd 03 42 3b 33 19 da 3c 96 42 c4 bb
       0.019394856 0.0029604353 0.026623344 -0.005989383
0001c0 74 98 d4 3b f7 a8 9e 3c bb b1 b3 3b ab b7 e3 3c
       0.0064879004 0.019367678 0.0054838336 0.02779754
0001d0 fa 48 96 bc 99 7f 6e 3c aa bb 10 3c 35 6b 66 bc
       -0.018345345 0.014556789 0.008833805 -0.014063646
0001e0 0f 02 d9 3c b8 7b fa 3c ab 3d 83 bc fc 1e 98 3c
       0.02649024 0.030576572 -0.016020617 0.018569462
0001f0 67 c2 35 3c 7c 51 8b bc a5 66 c4 bb 78 d0 2e 3d
       0.011093712 -0.017006628 -0.0059936815 0.04267928
000200 c9 93 36 bc 87 58 cf bb e7 e5 9e 3b 5b a1 98 bc
       -0.011143633 -0.006327692 0.004849184 -0.018631628
000210 f7 5e fe 3b 7c e2 f1 bc a5 f7 d3 3c 33 f9 d7 bc
       0.0077627855 -0.029526941 0.025874922 -0.026363945
000220 9f a2 88 bc 22 30 89 3c fc b2 e9 3b 8d 53 6d bb
       -0.016679106 0.016746584 0.0071319323 -0.003621313
000230 9e 46 40 bc fd 7d 66 bc 81 18 70 bc a3 5e 96 3c
       -0.011735586 -0.014068124 -0.01465428 0.018355673
000240 ca 86 b5 3c 0f d3 18 bb ca 8c 35 3d 75 cf c7 ba
       0.022158999 -0.002331916 0.04432372 -0.0015244322
000250 5e dd ea 3b 73 a7 ae bb 94 d3 2d bc 66 e0 08 bc
       0.0071675023 -0.00533002 -0.010609526 -0.008354282
000260 1c 24 62 3c ff 15 a8 bc 16 09 e3 b8 59 42 f7 bb
       0.013802554 -0.020518301 -0.00010825896 -0.007545751
000270 e5 65 79 3c ff 98 4c bc 3b 22 c5 3c 44 a1 82 3b
       0.015222047 -0.012487649 0.024064174 0.0039865095
000280 01 86 ad 3a 06 34 ef bb a7 32 e6 3c b5 99 05 3d
       0.0013238789 -0.007299903 0.028100325 0.03261729
000290 a4 e0 92 bc 99 93 7a bc c6 88 0b 3c 22 d3 53 3c
       -0.017929383 -0.015293979 0.008516496 0.012928756
0002a0 fe 9a c3 bb 0a ce bd bc 84 e5 6c bc 49 6e 1f bc
       -0.0059694042 -0.023169536 -0.014459018 -0.009730884
0002b0 71 da c9 3b 68 5a 25 bc 4b c0 93 bb d9 17 84 3c
       0.0061600734 -0.010092355 -0.004509007 0.016124653
0002c0 8c 60 4a 3c 80 44 94 3c 83 3d 95 bc 10 c0 c0 bc
       0.01235212 0.01809907 -0.018217808 -0.023529083
0002d0 89 12 7f bb 37 ef ae 3c e1 34 87 3b ac 45 64 3b
       -0.003892096 0.0213543 0.0041261767 0.0034831567
0002e0 81 e7 95 bc 0e 15 26 bd ee fd 14 bb 1e 34 e4 3b
       -0.018298866 -0.040547423 -0.0022734362 0.0069642207
0002f0 b5 43 43 3b f0 fe 89 3c aa 52 83 bc 8d 1c 27 bd
       0.0029794995 0.016845196 -0.016030628 -0.040798713
000300 7a 0e a7 bc 08 2d 61 bc 7d 3f 1d 3c 2f bf 84 bc
       -0.020392645 -0.013743646 0.009597656 -0.016204445
000310 7b 9b 76 3b 51 a1 dd bc 60 c5 39 3b 9a 86 64 3b
       0.0037629295 -0.02705446 0.0028346404 0.0034870268
000320 31 04 9c 3c 8b 69 c5 bc a3 5c f7 3c 35 a6 c7 3b
       0.019044967 -0.024098178 0.03019554 0.0060928115
000330 b5 a4 08 bc ef 9c 8b 3c e0 80 c8 3b ae a8 21 3c
       -0.0083400505 0.017042605 0.0061188787 0.0098668765
000340 7d 74 44 3c 0c 22 7e 3c 50 36 0a bc e3 33 76 3c
       0.011990664 0.015511047 -0.008435801 0.015027019
000350 56 97 c4 bc 16 f9 ef bc 30 bd 80 bc 6f e1 72 3c
       -0.023997944 -0.029293578 -0.015715212 0.014824255
000360 cf b8 39 bc e5 0e 05 bd d4 a6 5a 3b 77 0c d1 bb
       -0.011335566 -0.032484908 0.0033363597 -0.0063796598
000370 8b 0b 3d 3b 7d 7b 34 bc a3 22 1c bc d4 01 66 3c
       0.0028845991 -0.01101577 -0.009529742 0.014038522
000380 4b 3c 52 3c 48 b5 3c 3c d2 e3 b4 3a 76 50 15 3c
       0.012831758 0.01151783 0.0013800806 0.009113422
000390 e0 54 1d bc d9 6a 6c 3b b1 5a d4 3c 7d 15 a0 bc
       -0.009602755 0.0036074428 0.025922151 -0.019541496
0003a0 d6 a1 18 bc e5 95 32 bc c4 28 98 3c 92 a7 21 3c
       -0.009315928 -0.010899995 0.018574126 0.009866612
0003b0 24 b1 74 bb 38 7d bb 3c a5 c4 96 3c 3d e3 c0 3b
       -0.003733703 0.022886857 0.018404314 0.005886464
0003c0 20 c9 d4 3c 67 47 21 3c c5 01 0c ba b9 8c 7a bc
       0.02597481 0.009843684 -0.000534084 -0.01529234
0003d0 cc ae a9 3b 75 c9 ff bc fd fe 5b 3c d2 f4 b2 bb
       0.005178308 -0.031223992 0.013427493 -0.0054613138
0003e0 3b 21 c1 bc 2c 43 f4 3b 33 33 8e bc f2 e6 f5 bc
       -0.023575416 0.0074542966 -0.017358398 -0.03001735
0003f0 61 2f 33 3b f8 0f bc 3c dc ce c5 bb c7 18 0f bd
       0.0027341472 0.022956833 -0.0060366224 -0.03493574

action_model._discrete_distribution.branches.1.bias f4 [3]
000000 12 a3 a2 3b cd 14 6d 3b 05 ed 14 bc
       0.004963287 0.0036175728 -0.009089713
