ML-Agents/results/v3.0.1-with-fixed-server-position/Volleyball/Volleyball-1015912.onnx (onnx, 333204 bytes, 15 tensors)

discrete_action_output_shape f4 [1, 4]
00000000: 0000 4040 0000 4040 0000 4040 0000 0040
3.0 3.0 3.0 2.0

network_body.observation_encoder.processors.0.normalizer.running_mean f4 [51]
00000000: 119b 9f3d 6c60 3dbc 9fc8 dc3e ab20 ac3e
00000010: 6c60 3dbc 9fc8 dc3e ab20 ac3e 8470 6241
00000020: b85a 97c0 bdc6 e72e dac8 af2d 2d0e 04c1
00000030: 683b d23f 5282 ce41 a768 723e 92c3 d63e
00000040: a895 913d 0000 0000 bcf1 a33d 0000 0000
00000050: 6229 703f e4bd 03c1 fee9 d23f 5e1b cf41
00000060: 3da0 4b3e 0bb2 d93e 805a a13d 0000 0000
00000070: 2069 a13d 0000 0000 7c58 703f 140d 32c1
00000080: 79b7 d23f 348a 0041 d331 93be 2b57 d63e
00000090: 40f1 bdbd 0000 0000 30ea a43d 0000 0000
000000a0: 9367 6d3f 2092 30c1 e109 d23f 6c61 0141
000000b0: 6633 5fbe 1d02 d73e 5944 20bd 0000 0000
000000c0: 1edb a53d 0000 0000 a8e1 6d3f
0.077932484 -0.011558633 0.43121812 0.33618674 -0.011558633 0.43121812 0.33618674 14.15247
-4.729824 1.0539967e-10 1.9984393e-11 -8.253461 1.6424379 25.813633 0.23672734 0.41946083
0.07108623 0.0 0.080050915 0.0 0.93813145 -8.23386 1.6477659 25.888363
0.19885345 0.42518649 0.0787859 0.0 0.07881379 0.0 0.93885016 -11.128193
1.6462241 8.033741 -0.2874895 0.4186338 -0.092745304 0.0 0.0805248 0.0
0.92736167 -11.035675 1.6409265 8.086285 -0.2179695 0.419938 -0.03912768 0.0
0.08098434 0.0 0.9292245

network_body._body_endoder.seq_layers.0.weight f4 [256, 51]
00000000: 7c65 023e f2bd f93d b01a 1a3b fcfb 54bd
00000010: 92b9 d1bd bf88 ac3e 4a59 53be 9351 59be
00000020: 7cc9 bdbd 209b e83c 727f 48bd fec0 873d
00000030: 0c3a 22be b952 3e3e eec9 03bd 8529 96bc
00000040: f66c 3a3d 9e7f 353d 9121 6bbe d01b 3d3e
00000050: 1081 01be ddd5 fa3c 8e99 473e 5e76 623d
00000060: ec45 353e 3342 4cbe 727b bc3e a412 12bd
00000070: 89e0 ccbd d69a 14be bea6 4ebe 809e 383e
00000080: edf1 74bd 0454 45bd 4e6a 23bd 59ac 863c
00000090: 13ab 67be 0cfd 1ebe 3b24 ebbd 57d1 103d
000000a0: 255e a13e 9c7c 52bd c896 8fbd c234 1bbe
000000b0: 053e d03d bc5b 15bd 4ec5 86be 0916 353e
000000c0: 1bc8 083d 8806 83be 5dde 413e 6889 90bd
000000d0: c8db a4be 2574 86be 2d43 3fbe 570b 5e3d
000000e0: 575d 3abe 6f61 bd3d 16cf de3b c87d 28be
000000f0: 9587 95bc 8b06 86be a849 40be 0eeb 093e
00000100: a8e8 063d 2f4b e2bd 44a5 8ebd 9b64 c2bd
00000110: 3e9c 143e 74ed aebd 0aeb 903e 1063 41bd
00000120: 6189 31be cdb8 75be 5ded 533e 9184 063e
00000130: f819 693e d5f9 37be 811e 683d 0397 e4bd
00000140: 56e8 9cbe 6480 44be 4f92 44bd ee50 203e
00000150: a3db f63d 4abf c03a b654 e33d 60b7 e83d
00000160: 5ed2 babd 7830 11be 9826 13bd 0ea9 babc
00000170: 62a0 ebbb ef43 433d 95e9 43be 2ff8 c4bd
00000180: 804c 263e 9d28 dabd cded af3c 4e09 8fbe
00000190: a80a d23d 144d 0c3e 97f2 093e 0750 88bd
000001a0: 3596 153e 9f73 763c 5f59 3ebd 9ee1 063e
000001b0: 294b 21bd cdb4 113d ee95 75be c54d fbbd
000001c0: a5c9 6d3d 8f78 923e 6b4c 583e 2837 7cbd
000001d0: 07a1 c43c a737 f43d bad6 bd3d 857f 193d
000001e0: ff6b 003e 994e cc3d db00 85bd 0062 123c
000001f0: f4a2 3f3b 7fbe 5dbd 49cb 313d 3bf7 cbbd
00000200: fc26 c7bd ec07 dc3d 72d8 63be dafa a2be
00000210: dfff 6e3e e7f9 763e b371 3cbe bd72 5e3e
00000220: 8d90 ac3a aeaa 733d 2aae 82bd f5af 9abe
00000230: b2fc a63e 0694 25be b684 30be f43c 853c
00000240: e8b1 f5bd 9a50 793d a70a d33d 1081 e03c
00000250: 74a9 4d3c 1100 80be 54da 80be 6c92 71be
00000260: 05e4 32bd 20b4 3abe 4946 283e e758 863e
00000270: 8707 113d 0124 e8bd 249f 5dbd d94d 3d3d
00000280: ad2e f4bd d3ad 0abe 7ce4 503e 7301 8b3e
00000290: 0af3 59be 5ffe 25bd 543b b43d e150 2f3e
000002a0: ea0f a23d 0d8c 40bd 4d03 c6bd 8a28 5bbc
000002b0: fedd 7fbb 8d51 2d3d 4442 703d 8c79 513c
000002c0: c3a9 db3c acd1 51be 5342 163d cedc 4f3d
000002d0: 1563 573d 927e 5abe 3481 1dbe 5fa2 a4bc
000002e0: 562d 3f3e b025 783e 1bea 343e bc36 ddbd
000002f0: 9519 503d a5ff 27bd 7519 d93d 6083 9dbc
00000300: 639b eebc 42c2 863d e4eb f9bc 7937 f83b
00000310: ab85 19be 9589 a7bd 84e7 c5bb 61c7 10be
00000320: fb47 623d 5642 91bc a983 a03a 4752 34bb
00000330: 8149 46be 13be 20be 0428 9f3d ebcf 43be
00000340: a5dc 2abd cbab f2b9 9e7e 2ebc 0113 d2bd
00000350: 6981 dc3d e8b4 bdbd d299 243c d62e 21be
00000360: 2566 0d3e 18e9 533d 19dd c23c c9dc 55bc
00000370: 1017 4fbe 71c7 f63d 22c4 99be 36b5 983d
00000380: 5cb8 4ebe 2100 8ebd 4a2f 193d b17b 9e3e
00000390: ddc8 973e ab21 82be 67ab f9bd 39d3 2dbc
000003a0: 9c2b 9cbd 8f8e b2bd 19a8 13be d3e6 11be
000003b0: 8d73 cd3d da41 43be 53c9 11bd 4603 f3bc
000003c0: aab2 063e 3ea8 bbbc cde1 10be a3b8 67bd
000003d0: 451b 94bd 8480 2fbe 8e8e dcbd 45d1 c4bd
000003e0: 411a 4dbe 3548 ac3d 88db e6bd 2090 163d
000003f0: 9728 c53d 71a9 003e 4320 3fbe 6a14 943c
0.12734026 0.12194432 0.0023514442 -0.051998124 -0.10240473 0.3369808 -0.2063953 -0.21222524
-0.09266946 0.028394282 -0.048949666 0.06628607 -0.15842456 0.18586244 -0.032174997 -0.018330345
0.04551407 0.04431116 -0.22962023 0.18467641 -0.1264689 0.030619556 0.1949217 0.055288665
0.17702454 -0.19947128 0.3681293 -0.03566231 -0.10003764 -0.1451219 -0.20180795 0.18029213
-0.05980103 -0.048175827 -0.039896302 0.016439604 -0.22623853 -0.15526217 -0.1148152 0.035355892
0.3151714 -0.051388368 -0.07011181 -0.15156844 0.10168079 -0.036464438 -0.26322407 0.17684187
0.03339396 -0.2559092 0.18932481 -0.07057458 -0.3219893 -0.26260486 -0.1867797 0.054210033
-0.18199669 0.092470996 0.006799589 -0.16454232 -0.018253127 -0.26176867 -0.18778098 0.13468572
0.032936722 -0.110494964 -0.06965116 -0.09491845 0.14512727 -0.08541384 0.2830432 -0.047213614
-0.17337562 -0.23996277 0.20696016 0.13136508 0.22763813 -0.17966397 0.056669716 -0.11161616
-0.30646008 -0.19189602 -0.047991093 0.15655872 0.12053611 0.0014705446 0.11100142 0.11363101
-0.091221556 -0.14178646 -0.035925478 -0.02278569 -0.00719075 0.04767221 -0.19132073 -0.0961765
0.1624012 -0.106522776 0.021475697 -0.27936786 0.10255939 0.13701278 0.13471447 -0.06655889
0.1460808 0.015042215 -0.04647195 0.13172004 -0.03937832 0.035572816 -0.23982975 -0.12270693
0.05805363 0.28607604 0.21122901 -0.06157604 0.024002565 0.11924677 0.092694715 0.037475128
0.12541197 0.09975929 -0.06494304 0.008934498 0.0029241415 -0.05413675 0.04340676 -0.09959265
-0.097242326 0.107436985 -0.22250536 -0.3183201 0.23339795 0.24118768 -0.18402748 0.21723457
0.0013165638 0.059488945 -0.063808754 -0.3021237 0.32614666 -0.16169748 -0.17238125 0.016264416
-0.119968235 0.060867883 0.10304766 0.027405292 0.012552608 -0.2500005 -0.2516657 -0.23591012
-0.043674488 -0.18232775 0.16433062 0.26239702 0.03540757 -0.11334992 -0.054106846 0.04621682
-0.11922965 -0.13542871 0.2039966 0.27149543 -0.21284118 -0.04052579 0.088003784 0.17120697
0.079131916 -0.047008563 -0.09668598 -0.0133763645 -0.003904223 0.0423141 0.058656946 0.012785327
0.026814347 -0.2049014 0.036684345 0.050747685 0.052584726 -0.21337345 -0.15381318 -0.020096956
0.18669638 0.24233127 0.17667429 -0.108014554 0.050805647 -0.041015286 0.10600559 -0.019227684
-0.029126829 0.065800205 -0.03050799 0.007574972 -0.14992397 -0.081805386 -0.0060395617 -0.14138557
0.055244427 -0.017731827 0.0012246269 -0.0027514861 -0.19363977 -0.15697508 0.07771304 -0.19122283
-0.04171433 -0.00046285833 -0.010650305 -0.10257531 0.107668705 -0.09263021 0.010046439 -0.15740523
0.13808496 0.051735967 0.023787068 -0.013053128 -0.20223641 0.12049759 -0.3003245 0.07456438
-0.20187515 -0.06933618 0.037398614 0.30953744 0.29645434 -0.25416312 -0.121908955 -0.010609441
-0.07625505 -0.08718597 -0.14419593 -0.14248209 0.10031805 -0.19068089 -0.03559239 -0.029664647
0.13154092 -0.022907373 -0.14148636 -0.056572568 -0.07231764 -0.17138869 -0.10769378 -0.096102275
-0.20029546 0.0841221 -0.11272341 0.036758542 0.096268825 0.12564637 -0.1866465 0.01807614

network_body._body_endoder.seq_layers.0.bias f4 [256]
00000000: c22e 0b3d eb34 293c 73d4 353c 93da 6c3b
00000010: a336 c23c 810c 39bc fa23 db3c 7bbe c939
00000020: f845 df3c b6c3 ec39 1cb2 1a3c 0dc0 213d
00000030: 4156 963c 11be d33c 6a2d 40bc 5bab 823c
00000040: 024b 073d 1d30 353c 3b59 743c 6c36 e1bb
00000050: 4b74 9e3c 87ec 583c 8758 553c 3c7a 3d3d
00000060: 00bc 463d ac8e cd3c 534a 7b3c ca5b 3b3c
00000070: fe45 a33c e660 b23b 7025 013d 08ba 123d
00000080: ebca 8a3c f04e 173d 916e 063c f654 4c3d
00000090: fc29 a0bb 3c2d b83c 5b67 a23c 7bc9 a73b
000000a0: 6efe fb3b 776d 063d 95e2 b33c 3505 03bc
000000b0: 48fe 3b3d 10c3 3fbb 0175 cb3c 2e40 1eba
000000c0: 6e72 d63c e0f6 2d3c d2de 3c3c eef8 3f3d
000000d0: 211b af3c 0fb5 30bc 93fd cdba ba5b c43b
000000e0: 0259 9b3c 2792 da3a c6ed 283d 9b08 debb
000000f0: 0913 903c 4f3b 40bb db3f 833c 0f39 0a3d
00000100: 9730 393d 36c2 033d ad0c cf3c 4417 993a
00000110: 787c 8e3c 37d6 bf3c 63b4 bb3c 3d13 053c
00000120: 7a7b 8c3c f7c0 133c 33cb 3e3d fb9d 4a3c
00000130: 735b 3cbc 97ce c93c b3af 273d 9c1b 4a3c
00000140: 6ef6 6c3a 55e9 a23c 5096 b43b 9a52 053d
00000150: e08f 40bb e7b7 c23c c781 353c a4a9 92bb
00000160: 54ee 3a3d 2ffd 233c f257 673c 6122 abbb
00000170: 3ac1 a938 be50 553c be02 d4ba fbbe 3d3d
00000180: be06 4f3d 5213 89bb d619 ef3c 55f4 9c3b
00000190: 5ac5 143d c9d8 393c ec0a 023d 76b3 b5bb
000001a0: 8c32 763c 9c7c 083d 89e7 9a3c 1535 273d
000001b0: 867a fb3b 590c a73b 64e3 a4bb 2706 f33c
000001c0: 54d7 003c ca7e d63c 007f 8dbc 566a e83b
000001d0: d001 fa3c 8b5d ca3c 4479 f93c eede 813c
000001e0: 44ff 36ba e362 953c 8b46 9b3c a5ec 093d
000001f0: aaf7 1e3c ab09 2f3c 7ce3 65bb 0140 cb3c
00000200: 162e c33b f715 143d 91a9 d83c cc83 e43c
00000210: 7408 3f3c 97c8 653c 8032 a53c 4511 e33c
00000220: e94a 0c3c 69a8 91b9 cda8 f63c b486 e93c
00000230: 287d 8bbb 7c83 1f3d 2ccf b23c 90fe 7c3c
00000240: 88f0 4a3c 8cf3 cc3c cde1 983c 529a f53c
00000250: d20c 153d 3780 89bb eae9 e53b d39a 403a
00000260: face 5dbb 49c8 093d d5ad ff3c a6b9 a13b
00000270: 2029 573c 9fa8 2e3c 194b 2a3c 32d2 ff3c
00000280: 2ebc 2b3d 41c7 77bc fc88 8c3d 807e 583c
00000290: 9045 463c 6276 703c 4bc5 d23c e333 d43c
000002a0: d4c0 a93c 0462 e83c aaa8 9fba fa19 d5ba
000002b0: 44b3 0a3c 7299 463b a3e4 6c3c d32c bdbb
000002c0: 170e 10bc 2bc9 e73c 59ae 1c3d 6819 0bbc
000002d0: 0b7d 5c3d fc06 773c 910b f4bb 780b 783c
000002e0: 8639 013d 919f 4f3c 1931 9dbc b556 7f3c
000002f0: 3a90 463c a5fe 4b3d b870 d13c c0c5 7bbb
00000300: b3fd 473c 82a5 263c 976e 093d b077 9eba
00000310: 2c78 b83c acfb a1bb 5792 5e3d 982b 0d3d
00000320: b206 9b3b ac61 a53c f66a 6a3c 02c1 ae3c
00000330: 28cd 9e3a b94f 413c 8a07 de3c 6e8b 643c
00000340: d22c 1fbc 7295 f83c 68a6 d1bb 8820 6c3c
00000350: d853 90bc 5999 ec3b a9b0 ab3b 0ca9 143d
00000360: c550 883c a419 193d f725 e73c cbde 913c
00000370: f940 d53c c42e 243d f779 a03b 9393 033d
00000380: b691 133c 75c1 07bc 9db8 d53c 2665 1c3d
00000390: bf71 d53c 5dab fc3c ed93 2a3d c746 143d
000003a0: fcab 1a3d b27c 88bb 2956 3b3d e20f aabc
000003b0: e502 a73c 8235 ed3c b68b 1abc 0094 3f3c
000003c0: ec7c 173b 0fbe 2c3c 8eec c0ba 6852 553c
000003d0: 364c 9c3b faf0 a33c a6e2 f93c d8fa 4f3c
000003e0: 70d4 f93c 203e cf3b 908e e73b 6181 783a
000003f0: f1d5 0f3c 1718 853c 178f 203c 3b76 143d
0.03398014 0.010327558 0.011098015 0.0036141023 0.023707693 -0.011294485 0.026750553 0.00038479627
0.027255043 0.00045159244 0.009441879 0.039489795 0.018351676 0.025847467 -0.011729578 0.01595085
0.033030517 0.011058834 0.014913852 -0.0068729427 0.019342562 0.013239986 0.013021595 0.04625915
0.048519135 0.025092445 0.0153375445 0.011435458 0.019930836 0.00544368 0.031529844 0.035821944
0.016942462 0.036940515 0.008205072 0.049885713 -0.0048878174 0.022482507 0.019824674 0.005120454
0.0076902425 0.032819238 0.021958629 -0.007996847 0.0458968 -0.0029260553 0.024836065 -0.0006036785
0.026177611 0.010617942 0.011527734 0.046868257 0.02137524 -0.010785355 -0.001571583 0.00599238
0.01896334 0.0016675637 0.041242383 -0.006775928 0.017587202 -0.0029332226 0.01602166 0.03374582
0.045212355 0.032167636 0.025274599 0.0011679907 0.017393336 0.023417575 0.022913164 0.008122263
0.017148722 0.009018174 0.046580505 0.012366767 -0.011496413 0.024634643 0.040939044 0.012335684
0.00090394064 0.019886652 0.0055110827 0.032549478 -0.0029382631 0.023769332 0.011078305 -0.004475789
0.045637444 0.010009094 0.014120089 -0.005222604 8.094539e-05 0.013019739 -0.0016175134 0.04632471
0.05054354 -0.0041832114 0.029187124 0.004789869 0.03632102 0.0113431895 0.031748697 -0.005545075
0.0150267 0.03332196 0.018909233 0.040822107 0.007674518 0.0050979075 -0.00503199 0.02966602
0.007863838 0.026183505 -0.017272472 0.0070927544 0.030518442 0.024702808 0.030453332 0.015853371
-0.00069807866 0.01823563 0.018954536 0.033672947 0.009702602 0.010683457 -0.0035078218 0.024810793
0.0059564216 0.03615376 0.026448043 0.027894877 0.01165973 0.014024875 0.020165682 0.027718196
0.008562782 -0.0002778203 0.030109787 0.028506614 -0.004256863 0.038943753 0.021827303 0.015441552
0.012386449 0.025018476 0.018662358 0.029980812 0.03638918 -0.0041961926 0.00701641 0.00073472894
-0.0033845291 0.033638272 0.03121082 0.004935461 0.013132364 0.01066032 0.010393881 0.031228159
0.04192751 -0.015123189 0.06862065 0.013213754 0.012101546 0.014676662 0.025728842 0.025903648
0.02072183 0.02836705 -0.0012181003 -0.0016258352 0.008465592 0.0030303863 0.014458808 -0.0057731657
-0.008792422 0.028294167 0.03825221 -0.008489944 0.053830188 0.015077349 -0.007447668 0.015139453
0.031549 0.012672321 -0.01918845 0.015584637 0.012119347 0.049803395 0.025566444 -0.0038417429
0.012206483 0.010171296 0.033552732 -0.0012090113 0.02251824 -0.0049433317 0.05433878 0.034465402
0.0047310228 0.020188175 0.014307728 0.021332268 0.0012115585 0.0117987925 0.027103204 0.013949258
-0.009715276 0.030344699 -0.006398011 0.014412053 -0.017618105 0.007220429 0.0052395654 0.03629403
0.016640076 0.03737797 0.028216345 0.017806431 0.026031958 0.04008366 0.004897352 0.03212316
0.009006908 -0.00828587 0.026089007 0.0381824 0.026055215 0.030843431 0.04164498 0.03620031
0.037761673 -0.0041652555 0.045736466 -0.020759527 0.020387122 0.028956179 -0.009432724 0.011693001
0.002311523 0.01054336 -0.0014718936 0.013020135 0.0047698272 0.020012368 0.030503582 0.012694083
0.030496806 0.0063245445 0.0070665553 0.0009479728 0.008779035 0.016246838 0.00979974 0.036245566

network_body._body_endoder.seq_layers.2.weight f4 [256, 256]
00000000: 2308 db3d 899b 65bd c785 13bc 3880 13bd
00000010: e384 9f3b d4c5 b1bd eed2 c3bd e339 dc3b
00000020: 7bd9 15bc 7fca 753d f51e c73c 55b5 7b3d
00000030: f2b6 38be 91ee 0abe 240b a23d dcc3 813d
00000040: 68eb babd 4d29 9ebd 96a3 2fbd 2d92 0ebd
00000050: 20df 083d e486 a3bc 11ef b0bc f7e5 22bd
00000060: 52ea 453c 2aeb 10bd 34be cc3c cabe 2e3d
00000070: 75e8 8fbd d5f0 91bb ca1f a8bc b381 033e
00000080: e914 8fbd 7a98 673c d7c5 203d 2001 51bd
00000090: 1991 dfbb 1a96 3e3c d252 23bd c21f 9b3d
000000a0: 6af4 95ba b25d 2c3a 706b e4bd dcaa f5bd
000000b0: 6ff3 17bd 88c4 4fbd 1ced 423c 1070 b03d
000000c0: 02c4 85bd beb9 2dbd 0518 94bd c05c b23d
000000d0: 013b 5f3c ec7d c43c d9a0 1dbd af73 413d
000000e0: 6d05 9cba 55c4 103e eca4 973d 63e5 c43d
000000f0: b6a3 99bd 984c e33d 376f ae3d 558a 9b3d
00000100: b37c 87bc d169 dc3d eab2 e1bd 54bc e3bc
00000110: 9d71 3dbe bc2f 85bd f2f9 12be c8a7 213d
00000120: 3695 ac3d 4cab 1abe 7ae5 983d 3d0a c1bd
00000130: 3b39 413d e8f5 13bb 2190 43bc cc9b cbbb
00000140: 954a 01bd c56d 21be d85b 1dbd e563 a23c
00000150: 9935 29bd b3a8 c7bb 9248 5dbc b696 60bd
00000160: b9d8 99bc e820 c5bd 7790 70bd 16c9 87bd
00000170: 0e76 883d 8f45 843d d734 5abd 1b51 82bd
00000180: 03b1 a5bd b811 81bb 03ee 55bc f737 a03c
00000190: 79c0 abbd 0e78 dcbb c061 d7bb 6d26 943c
000001a0: 3eb1 98bd c0d2 9abb b7fd b33d 3623 423d
000001b0: 2e55 ce3c b391 af3b 06bf 153c 9ce8 023e
000001c0: 44ef 56bd 2d7a b93d 3c10 bf3d 0d63 31bd
000001d0: 4ce3 7f3d 1ab2 9bbd 0f00 27bd d796 0ebd
000001e0: f8a5 08be 6c96 40bd 55d8 643d 51f3 8abd
000001f0: 87b7 f6bc d402 143c 884e 8fbd eea0 fb3b
00000200: 1700 2d3d 2483 863c 4307 1b3c 630f 593d
00000210: b5b6 803c 1b2f 2cbd 701d 6ebd 3fb3 263d
00000220: ff9c 36bd d8ba 60bc 534c b83c 38fa a63d
00000230: 77bd 8f3c 8883 01bd b4fe 1a3d 2c99 713d
00000240: a7ad 893d 7879 28bc 3e87 b139 9933 da3b
00000250: 71c0 a7bd 0fdb a63d 78a5 82bd 452d 48bd
00000260: 5c89 abbb 07e5 01bd 9225 273d ee60 d93d
00000270: ad99 fb3c e3bc fcbb e4e8 9fbd 49ae 74bc
00000280: eda9 4cbd 52da 58bd 2703 3ebd a711 bcbc
00000290: 45b2 213d dbe8 32bc 167c afbd 78bc 8c3d
000002a0: 1a3a 0ebd ba59 46ba f92b cb3d 22a0 0abb
000002b0: 72c7 963d d685 f23c bdd9 c53c 2aa2 56bc
000002c0: 915f 83bc 2faf 073e 35a4 c7bb 70ab 24bd
000002d0: d5fb c33b fc00 d8bb 18bd 34bd 0634 a739
000002e0: f5b8 db3d b1c9 39be 1460 eabd 699e 5bbc
000002f0: 5553 f2bc d734 20bd e366 b6bc 522c 63bc
00000300: 4c6c a83b 1db2 cbbc 70d1 38bd ffe2 7a3c
00000310: 9892 493d 59f0 e5bc 60a0 053e d299 2abd
00000320: fc0e 05be ad3d bfbc 109d a83c 250f b43d
00000330: e5be 243d d8d2 85bc 6355 4b3d d036 a238
00000340: 8851 8bbd af8e 343d 732a e43d eceb bdbd
00000350: 7106 393d 82f6 c93b 3a05 193d dd7c 993c
00000360: 937a 20bd 4349 25bd 143f 9c3c 515d 253d
00000370: 0542 d7bc 198a f03b 8726 90bd 4a7c 8c3d
00000380: 69c1 f8bd 6b74 18bd 1817 6d3d e223 c73c
00000390: a9c3 01bd 7e59 48bc 3d8f 10bc 0ee3 35bd
000003a0: cc92 973c 1267 76bc 914e 873d 6d9c 513d
000003b0: d898 833d ec57 5b3c 4fe9 a73d 65ad d5bc
000003c0: da75 d2bd c7ea 93bd 61fa 023e e65f 06bd
000003d0: aae0 04be 0d15 ecbb 9f0f 953d 0ea5 513b
000003e0: ad59 efbd 8871 683d cb53 473d b894 aebd
000003f0: d01e 3dbe 753b fcbc c25c e9bd 9875 60bd
0.10694911 -0.056056533 -0.009004063 -0.03601095 0.0048681363 -0.08680311 -0.09561716 0.006720768
-0.00914609 0.06000757 0.024306754 0.06145223 -0.18038538 -0.13567568 0.07912281 0.06336185
-0.091269314 -0.07722721 -0.042880617 -0.034807373 0.033415914 -0.019961782 -0.02159837 -0.039770093
0.012079792 -0.03538052 0.02499304 0.04266242 -0.070267595 -0.0044537582 -0.02052297 0.12842445
-0.0698641 0.014135474 0.039251175 -0.051026464 -0.006822717 0.011632467 -0.039873905 0.07574417
-0.0011440639 0.0006575241 -0.111533046 -0.119954795 -0.03709739 -0.050724536 0.011897352 0.08615124
-0.06531526 -0.042413466 -0.07231144 0.08709097 0.0136249075 0.023985825 -0.038483474 0.047229465
-0.0011903472 0.14137395 0.07404503 0.096140645 -0.075019285 0.110985935 0.08517306 0.07594744
-0.016538953 0.107623704 -0.11020453 -0.027799763 -0.18500371 -0.06503245 -0.14353159 0.03946665
0.08426897 -0.15104407 0.07465644 -0.09425781 0.04717372 -0.0022576991 -0.0119362185 -0.006213641
-0.031565268 -0.1576453 -0.038417667 0.019823024 -0.04131088 -0.0060931086 -0.013506072 -0.05483123
-0.0187801 -0.09625417 -0.058731522 -0.06630151 0.06663142 0.0645858 -0.05327305 -0.06363126
-0.08090403 -0.00393888 -0.013057235 0.019557936 -0.083863206 -0.006728179 -0.006572932 0.01808473
-0.07455681 -0.0047248304 0.08788627 0.04739686 0.025187101 0.005357945 0.009139782 0.12784046
-0.052474275 0.09056506 0.09329268 -0.043307353 0.062472627 -0.076023296 -0.04077154 -0.03481182
-0.13344562 -0.047018453 0.055870373 -0.0678469 -0.03011681 0.009033877 -0.069974005 0.0076790964
0.042236414 0.016419955 0.009462181 0.05299319 0.015712122 -0.04203711 -0.058133543 0.040698286
-0.044583317 -0.013716422 0.022497332 0.08153194 0.017546399 -0.03161958 0.03784056 0.058983967
0.06722575 -0.010282867 0.00033860834 0.006658983 -0.08191002 0.08147251 -0.06379217 -0.048871297
-0.0052348804 -0.031712558 0.040807314 0.10614191 0.030712927 -0.0077129467 -0.07808092 -0.014934131
-0.04996674 -0.05294258 -0.046389725 -0.022957636 0.03947665 -0.010919775 -0.085685894 0.06871885
-0.03472338 -0.0007566471 0.099204965 -0.0021152576 0.0736226 0.029604834 0.024151677 -0.013100186
-0.01603678 0.13250421 -0.006092573 -0.040202558 0.0059809485 -0.006591914 -0.044125646 0.00031891483
0.10728637 -0.18143345 -0.11444107 -0.013404467 -0.029580751 -0.039112892 -0.022265857 -0.013865547
0.005139863 -0.024865204 -0.04512161 0.015312909 0.04921207 -0.028068708 0.1304946 -0.0416506
-0.12993997 -0.023344839 0.020582706 0.08791951 0.040221114 -0.01633589 0.049641978 7.7349716e-05
-0.0680266 0.044081386 0.11140909 -0.09273514 0.04517216 0.006163419 0.0373585 0.018736297
-0.039179396 -0.04035307 0.019073047 0.040372197 -0.026276598 0.0073406813 -0.070385985 0.06859644
-0.12146265 -0.0372204 0.057883352 0.024309102 -0.031680737 -0.012228368 -0.008823213 -0.04440599
0.018502615 -0.015039222 0.06606782 0.05117457 0.06425637 0.013387661 0.08198797 -0.026083658
-0.10276385 -0.072225146 0.12790824 -0.0328063 -0.12976328 -0.007204658 0.0727837 0.003198925
-0.11687026 0.056748897 0.048663896 -0.085244596 -0.18468785 -0.03079007 -0.11394645 -0.054799646

network_body._body_endoder.seq_layers.2.bias f4 [256]
00000000: 3e8b 293b b06c 963c 8785 49bc 1b9a 68bc
00000010: f877 e13c 4db0 c53c ab58 3c3c e275 bd3c
00000020: 36ce a1bc 7a9e 0e3c 4c91 273c 1f0e 673c
00000030: d93c ee3c 2059 8abc 30ce 943b e279 af3b
00000040: 8eee f6b9 86d1 b13c 357b 933b 0456 1b3b
00000050: 3cf3 183b f988 0d3c f758 843c 81b8 113c
00000060: 869b 293b e62e aa39 15ca c0b9 2e53 ca3a
00000070: 2d3e 8eb9 dee4 8d3b ab7f 993c 6b94 d0bb
00000080: d1cf c83c 1cfb a73c 4908 a63c 063a 963c
00000090: 5685 eebb 63e3 b33b 842b 8d3b 1b27 a53c
000000a0: 041a 863c 8ff5 1b3b 8a66 113d 6e0a 18bc
000000b0: 1440 b33c 9759 3ebc f3d6 a63c b292 cd3c
000000c0: 4902 6c3c 58d5 9bbb 9e7b 7bbb 622d f83a
000000d0: 6259 febb 66d6 b13b 19db 72bb 8060 fd3c
000000e0: 81ac 6a3c 5baf 123d ca17 a3bb 62d0 253c
000000f0: 17d5 333c 536a 6f3c 8570 c53c 56a0 8a3b
00000100: aef0 2d3c a6ab 943b d244 e0bb 8e51 253b
00000110: 528e 543c 7a46 bc3c 1833 4e3c 9054 333c
00000120: 81a9 20bc 4a48 ef3c f3f0 36bc fffb ab3a
00000130: 786a 4d3c 7022 bd3c 8e3e 513b bdb4 caba
00000140: 622b 843b 054a ac3c f9a1 2a3b 3f22 303c
00000150: 3d57 cebb 5e58 0f3c 73d4 9d3b cc41 f33c
00000160: 7ad9 823c 68da c93b b07f 853c 186d 823b
00000170: f26f 8a3c 49e7 e23c fc18 863c f803 8d3c
00000180: fea0 f4bb 137a 813c 8be6 b7bb eded 863b
00000190: 1460 ce3b 1191 f1bb 2d43 883c 621b 0b3d
000001a0: fa3f dc3c 73d6 703c ad4c 6f3b e90d 91bc
000001b0: 6e5d be3c 2df7 033b 40b0 58bb 4504 ed3c
000001c0: 76c7 26bb fbe9 f239 9496 3f3c 76a7 9f3c
000001d0: 3c14 263c 6f5e 953c c786 ff3c a86e c33b
000001e0: a4b2 7cbb fa47 d4ba 19ec 2bb9 1b4d b43c
000001f0: 3580 b8b8 b26e 5cbb 5236 cf3a 1b52 0d3c
00000200: 25b7 fb3c 922c aa3c 7c6e e7b9 cd0a ad3b
00000210: e416 99bb 6808 813b 4c1b 35bc a6a8 21bb
00000220: 3174 5dbb 6a17 3cbc c1f3 98ba fab4 3a3c
00000230: 8c80 d13b 9237 903c f1aa b13c 30f0 5b3c
00000240: 41e0 80bc 6bf1 603c 6d8c 52ba ce61 a43c
00000250: 607b 713c 1d60 463c 9b97 213b acda 95bb
00000260: ce70 c53a 6682 ab3c 0022 f93b 313c c5ba
00000270: 8a23 743c d3a4 783c aed1 643c 2412 f83b
00000280: b2b0 003b d1ed 763b c229 82bb 4141 f03b
00000290: 7df0 a13c 43e1 8b3b 55d1 0e3d be00 fe3c
000002a0: 8cf7 c6bb e6e8 553c 4bce 3abb 2c5e eeb9
000002b0: 71d7 8ebc 683a 9cbb f76c abbb 44a7 bf3c
000002c0: 5311 2abc 8014 843c 2a60 813b fe8c 5b3b
000002d0: 4843 113c 7ac4 8c3c 0dbc ba3c 6d7b 4f3b
000002e0: 7274 13bc f8a4 66bc 0472 9a3c 875c 503c
000002f0: f880 6d3b a520 093d f829 ad3c 7b5c 0cbc
00000300: 7bd8 1b3c 754a e13c c8db 04ba e688 1c3c
00000310: 3924 20bb f5a3 1e3a d98e 98ba 7592 b83c
00000320: 7087 ecbc 3fc7 ae3a 86b4 373b 40ed 163c
00000330: 1eed d03b 7196 c93c f4c8 e43b 2047 8b3c
00000340: 35a2 d83c 2ab5 e23b c220 ce3c fec5 8c3b
00000350: 33d0 783c a4e8 2a3c ad1c fa3c 38c4 02bc
00000360: ee32 ec3c faaf a53c 2903 053c 5048 de3c
00000370: 56b3 8aba 8849 4e3c 9e39 613c 9894 883c
00000380: 2cbf 8dbc 5f6a dd3b 4564 063c ffa5 b93c
00000390: d394 ad3c fcf7 903c e0aa 053d c9fd a13c
000003a0: 64ad 713a 81f5 8f3c 6445 863c 95a1 b93b
000003b0: 82fd fc3a 84af 5f3b 172b 593c d257 bb3b
000003c0: 7883 123d e0bf 0fbc e01f 7b3c 0ed7 75b9
000003d0: 6833 98bb d19f 5c3c 7ded c13c 91fe 5a3c
000003e0: 08a2 233b ab18 963c ba0f debb 8fb0 1b3c
000003f0: 4982 03bc dde9 fb3c 8168 923b c49a 233c
0.0025870348 0.018362373 -0.012299902 -0.014196898 0.027523026 0.024131918 0.0114957495 0.0231275
-0.01975165 0.008704776 0.010227513 0.014102488 0.029081749 -0.016888201 0.004541181 0.0053551057
-0.00047098513 0.021706354 0.0045007714 0.0023702392 0.0023338338 0.008638614 0.016155703 0.008894087
0.0025880053 0.0003245987 -0.00036771657 0.0015436166 -0.00027130675 0.0043302616 0.018737635 -0.006365349
0.024513157 0.02050548 0.020267623 0.018338215 -0.0072790785 0.005489753 0.004308166 0.020160249
0.016369827 0.0023797487 0.03549818 -0.00927983 0.02188114 -0.01161804 0.020366168 0.025094364
0.014404842 -0.004755657 -0.0038373242 0.0018934424 -0.00776212 0.0054271696 -0.0037056862 0.030929804
0.014323355 0.035811763 -0.004977201 0.010120483 0.010976098 0.014612752 0.024101505 0.0042305393
0.010616465 0.0045370637 -0.0068441415 0.0025225612 0.012973385 0.022982825 0.012585424 0.010945454
-0.009806038 0.029209275 -0.011165845 0.0013121365 0.012537591 0.02308771 0.0031928155 -0.0015465241
0.004033492 0.021031389 0.0026036485 0.010750352 -0.0062970207 0.008749096 0.0048165857 0.02969446
0.015972842 0.0061600693 0.016296238 0.00398029 0.016899083 0.027698176 0.016369335 0.017213807
-0.007465481 0.01580528 -0.0056121997 0.0041177184 0.0062980745 -0.0073720296 0.016633594 0.03396166
0.026885975 0.014699566 0.0036514208 -0.017706828 0.02323791 0.0020136342 -0.0033064038 0.0289327
-0.0025448478 0.00046332166 0.0116936155 0.019489031 0.01013666 0.018233506 0.031192197 0.005964119
-0.0038558627 -0.0016195767 -0.00016395784 0.022009423 -8.797684e-05 -0.0033635315 0.0015809035 0.0086255325
0.030726979 0.020773206 -0.0004414207 0.0052808286 -0.004671918 0.0039377697 -0.011053871 -0.0024667173
-0.003379118 -0.011480192 -0.0011669324 0.011395687 0.006393498 0.017604623 0.021687957 0.013423964
-0.015731933 0.0137294335 -0.00080317893 0.020066168 0.014738888 0.012107876 0.0024657014 -0.004573187
0.0015063526 0.020936202 0.00760293 -0.0015047846 0.014901051 0.015176016 0.013966007 0.007570522
0.0019636569 0.003767837 -0.003972263 0.0073319976 0.019767994 0.0042687966 0.034867603 0.031006213
-0.0060719904 0.013056016 -0.0028504308 -0.0004546506 -0.017436715 -0.0047677048 -0.0052314955 0.023395188
-0.010380107 0.016123056 0.003948231 0.0033500786 0.008866139 0.017183531 0.022794748 0.003165926
-0.008999931 -0.014077418 0.018853195 0.012717373 0.0036240201 0.033478398 0.021138176 -0.008566971
0.009512062 0.027501324 -0.00050681503 0.0095541235 -0.0024435653 0.0006051653 -0.0011639252 0.022530774
-0.028873175 0.0013334526 0.0028031184 0.009211838 0.006375923 0.024607869 0.0069819633 0.017001688
0.026444534 0.006918569 0.025162105 0.0042960634 0.015186357 0.010431442 0.030531252 -0.0079813525
0.028832879 0.020225514 0.008118429 0.02713409 -0.0010582011 0.012590773 0.013746647 0.016672418
-0.017303072 0.006757065 0.008202617 0.02266216 0.021189129 0.017696373 0.032633662 0.019774335
0.00092192576 0.01757312 0.01639051 0.005665014 0.0019301625 0.0034131715 0.013254902 0.005717256
0.03576991 -0.008773774 0.015327424 -0.00023445135 -0.0046448 0.013465838 0.023672814 0.013366357
0.0024968404 0.01832231 -0.006776777 0.009502544 -0.008026668 0.030751163 0.0044680242 0.0099856295

action_model._discrete_distribution.branches.0.weight f4 [3, 256]
00000000: b6a6 a2bc 38de 88bc 01d6 aabc dad1 9dbc
00000010: d06f 1e3d c9f1 033d eb91 a0bb 159e f53c
00000020: 04d4 5a3b ef2c ccbb 5d24 803c 1d0d 8b3c
00000030: 7037 323d 166f 86bc 4345 563c 1a87 a8bc
00000040: de79 1a3d 5de1 e13c 48fe 9cbb 96be 64bc
00000050: 570c e6bc 1913 523a e303 013c fc5a cc3c
00000060: 8bdf 3c3c 3149 39ba 41f3 193c ab9c b4bb
00000070: 9fc7 bebc 6ec9 e33b fd86 4e3c 145d 8cbc
00000080: 1f55 3c3d 76be d23c fa72 4f3d 8d64 613c
00000090: 2259 59bc 6fb4 ef3c 5797 f43c ac82 003c
000000a0: 06aa b23c a63f 8a3c e23a 5e3b 6be1 b6bc
000000b0: cb45 26bc a9ac cbba 5d7c b03c 8c0c 03bd
000000c0: 093f f83b 0a6a 8bbc 9af6 d03b 8489 04bb
000000d0: 4c55 ecbc 448f 2dbc dd49 18bb 20fa d1bb
000000e0: 4d47 a0bb 1aa4 d63c e7e9 ec3a a4b1 79bc
000000f0: b945 553c 20c5 8d3c 55bc 743d a96b 733c
00000100: 72c3 f43a 1f60 0c3c a136 ebbc 2460 633b
00000110: 2cac 753c 5c79 cf3c d31a 6ebc 8d31 30bd
00000120: 72d6 c5bb d56d 213d 83cf a8bc 6aa1 74bc
00000130: de4d e03c 6c24 09bc c793 72bc 19b9 e03b
00000140: 15a9 7abc 65bc f63c 3b9f 0cbc 4daf 79ba
00000150: 930e 3abc 8e91 6bbc 4182 5d3b fd27 f63c
00000160: 904d b23a 7b48 4e3d e326 c43b a03a 643b
00000170: 82d0 933c ae34 993d c8b7 fd3c b4f6 d5bb
00000180: 2fb1 acbb 46d4 e6bc f6e4 2bbb ae6f a13c
00000190: 1de1 1d3d e0c2 733c 7200 4d3c 164b 50bb
000001a0: 7c96 083d d24d 703c 5d51 6ebc 0dbd 2c3b
000001b0: e3b2 68bc df3b e5bc 936e a3bc 5b26 143d
000001c0: 0cf5 653b 236b 043d 7eb7 ed3c ee74 293b
000001d0: 8a8c 873a 60ed e43b 23b0 c33c aa8d 043c
000001e0: f0a8 6c39 4f97 1cbb 3a17 e63b 4a46 f7bb
000001f0: aa20 bebc 5d13 aabb ea8d dabb e4a1 8b3c
00000200: 503e 423d 3630 233d 8ea6 8a3c de1f b53c
00000210: 2878 a5bc 8866 773c bbe9 95bc b5b2 6abc
00000220: 32c0 b2bc a224 b8bb d139 5a3c 6552 e63c
00000230: 2924 193d 4186 463c b3e5 92bb 4929 e3bc
00000240: b9d4 73bc 83f2 cd3b cbd4 49bc be0e 9a3c
00000250: a878 22bc 3ce3 a83b 3e5a 853c 95ac b1bb
00000260: 6dc9 08bd 4669 f6bc 2b78 873a 902c 8fbb
00000270: 20d4 9c3c d190 813c d007 1e3c 3169 063c
00000280: 520c 94bc 2f70 98bb 2de3 1b3c 4c64 29bb
00000290: 31a8 90bb 236b a6bc d525 acbb a8ee 6c3d
000002a0: b44e 053b b733 e63c fe27 203c 1084 c43c
000002b0: d104 f9bb 1bf1 163b 14f1 f0bc 8c86 213c
000002c0: 2720 98bc 24c7 1a3d 1a2a 19ba 5dbc 2ebc
000002d0: d644 223d 283d 013d 94ee d03b 5a39 c63c
000002e0: 3010 5eba a006 35bb 96bc 223d 1d3f 60bc
000002f0: aaf7 8bbb fed7 7cbc f75c ba3c 3556 13b8
00000300: db7f 4a3b 103f a53c c0b9 cbbc 2060 fdbb
00000310: 3c8f f23b c135 513b c4b2 f4bb 89e6 3b3d
00000320: ac08 f4bb ec9e 8e3c 8785 8eba f320 08bc
00000330: 7e79 59bc 1626 c63b b1ff 323d f704 9dbc
00000340: bcc3 553d a2d9 193b 35eb b53c cfe1 413c
00000350: 515a 803c 70f6 d93c 6a5d d2bb dd78 56bc
00000360: 36af 093d 6bf0 6b3d 3d1e abbc 5733 c6bc
00000370: 1b46 39bc d90f ffbb 1202 0cbd 0950 0b3d
00000380: b568 50bc 4b1a 85bc ab70 9ebb 1fd9 e93c
00000390: b9d0 de3c 3302 1b3d ace2 e33c 8b31 5f3c
000003a0: f39a 4cbb 92e5 553b c888 033d bcf3 39bb
000003b0: 3482 353c cb41 ad3b e00e 023b c4d8 3abb
000003c0: c555 283d 74cb b8bc 266d 69bb 386c aaba
000003d0: 53fb 6fbc 2a8c 89bb a329 3f3c 56cd 933c
000003e0: b647 923c b120 223d 5b7a 093c 8945 59bc
000003f0: 89b2 e9bc 0095 23bb b1e5 513a 0038 0b3d
-0.019854885 -0.016707525 -0.020853998 -0.019265104 0.03868085 0.032213006 -0.0049002073 0.029982606
0.0033390531 -0.0062309424 0.01564234 0.016974026 0.0435099 -0.016410392 0.013078037 -0.020572234
0.037713878 0.027573282 -0.004791055 -0.013961455 -0.028082056 0.000801371 0.007874462 0.024945728
0.011527906 -0.00070680963 0.009396375 -0.0055118403 -0.023288546 0.0069515025 0.012605426 -0.017134227
0.045979615 0.025725584 0.05064676 0.013756883 -0.01326588 0.029260842 0.02985732 0.007843655
0.02180959 0.016876053 0.0033909609 -0.022324285 -0.010148476 -0.0015539128 0.021543676 -0.031994388
0.0075758738 -0.017018337 0.0063770534 -0.0020223567 -0.028849266 -0.010593239 -0.0023237385 -0.006407991
-0.004891312 0.026201297 0.001807508 -0.015240107 0.013017111 0.01730591 0.05974992 0.014857211
0.001867397 0.008567839 -0.028712573 0.0034694755 0.014994662 0.025326423 -0.014532763 -0.043016005
-0.0060375268 0.039411385 -0.020606762 -0.014931062 0.02738088 -0.0083705 -0.014805741 0.006858003
-0.015299101 0.03011913 -0.008582885 -0.0009524718 -0.011356014 -0.014377965 0.0033799561 0.030048365
0.0013603438 0.05036209 0.005986081 0.0034824982 0.01804376 0.07480751 0.030971423 -0.0065296534
-0.0052701454 -0.028177392 -0.0026229 0.019706573 0.038544763 0.014878005 0.012512313 -0.0031783036
0.033346638 0.014666991 -0.014545766 0.00263578 -0.014202806 -0.02798265 -0.019950187 0.03616939
0.0035088686 0.032328736 0.02901816 0.002585705 0.0010341567 0.006986305 0.0238877 0.008090416
0.00022569648 -0.0023893898 0.007021812 -0.007546221 -0.023208935 -0.0051902966 -0.0066697495 0.017044969
0.047422707 0.0398409 0.016925123 0.022109922 -0.020198897 0.015100129 -0.018299928 -0.014324834
-0.021820161 -0.0056196013 0.013319449 0.02811546 0.037388 0.01211697 -0.0044829487 -0.027729647
-0.01488226 0.006285013 -0.0123188 0.018805858 -0.009916462 0.0051540416 0.016278382 -0.0054221847
-0.03339522 -0.030079495 0.0010335495 -0.004369326 0.019144118 0.015816124 0.009645417 0.0082037905
-0.018072281 -0.004652045 0.009514612 -0.0025847135 -0.004414581 -0.020314759 -0.0052535334 0.057844788
0.00203411 0.028100831 0.00977516 0.023988754 -0.007599451 0.0023031894 -0.02941183 0.009858739
-0.018570019 0.03778757 -0.00058427604 -0.0106650265 0.03961643 0.031552464 0.006376097 0.02419727
-0.000847104 -0.0027622357 0.03973063 -0.013686922 -0.004271467 -0.015432356 0.022749407 -3.5127818e-05
0.0030898962 0.020171672 -0.024868846 -0.0077324063 0.007402329 0.003192291 -0.0074675996 0.045874152
-0.007447323 0.017409764 -0.0010873534 -0.008308637 -0.013273595 0.0060470207 0.043700878 -0.019167406
0.05218862 0.0023475667 0.022206882 0.011833622 0.015668066 0.026606768 -0.006419827 -0.0130903395
0.03361436 0.057602327 -0.020888442 -0.024194403 -0.011308218 -0.0077838716 -0.034181662 0.034011874
-0.012720277 -0.016247889 -0.0048352084 0.028545914 0.027199136 0.037843894 0.027818047 0.013622652
-0.0031220287 0.0032638055 0.032112867 -0.0028374037 0.011078406 0.005287384 0.0019845292 -0.002851055
0.04109742 -0.022557952 -0.0035618036 -0.0013002222 -0.014647323 -0.004197617 0.011667642 0.018042248
0.01785646 0.03958196 0.008390988 -0.013261207 -0.028527515 -0.0024960637 0.0008006944 0.033988953

action_model._discrete_distribution.branches.0.bias f4 [3]
00000000: c379 803c 7905 5fbc c596 86bb
0.01568306 -0.013612145 -0.0041073286

action_model._discrete_distribution.branches.1.weight f4 [3, 256]
00000000: afb2 393c a762 8c3b 9ea4 be3c c9db 363c
00000010: c709 443c 5ff5 a43c 9aab c7bc 23b1 7f3c
00000020: 0b33 15b8 95ad 493b 62de 3abc 6058 42bc
00000030: e764 213b 8432 383c 07ba 2e3c 815b dbbb
00000040: 3077 723b 343f a93b f9d5 183c dbfc 5bbb
00000050: 87ab 48bc 052e 3dbc 5d22 b23b 28ad 16bc
00000060: 1c2a c43b 06ae 8cbc 89f7 f03b 373d 06bc
00000070: eba4 023c 6824 e4bb 455b 8e3b 7d4a 32bb
00000080: 839b 003b d6e4 ab3c c45b 9f3c d313 3fbc
00000090: a735 4fbc 3e1a 513c 4658 1f3b 85c8 e13c
000000a0: 14b6 473c 2ad6 333c 7af7 803b 170e 31bc
000000b0: ea8e 02bb 945e 3a3b 2942 0b3c 081e 453c
000000c0: cf49 6f3c 7d42 9c3b 8b54 e0bc 2b16 febb
000000d0: b97f a3bc 0091 dfba 308d 90bc 5664 9fbc
000000e0: 26de fcba d5d5 f3b8 9b97 89bc ee3e 1bbc
000000f0: 06a5 5abb f091 c0bb e0c2 e1b9 697b 08ba
00000100: 3905 c63c 1ef4 803b b85f 68ba c1d9 803c
00000110: f07d 0d3c bd9d 113d 2a5c 093c bb3a 6abc
00000120: 82c2 1d3c 8cfe 293c 0b74 ca3b 4329 2f3c
00000130: c1df 8e3c 754b 723c b19a 91bc 0f29 28bc
00000140: 0940 f6bb 354b 683c 0106 6fbc ec09 0ebd
00000150: 623c 413c c955 23bc 90cd 1f3d 360a 8cba
00000160: 5426 90bb e211 093c d98c 82bb 38e5 abbb
00000170: a2a4 433c bba9 333c e5cc e03c 61cf 543c
00000180: 9166 e7bb b935 5bbb 80bf 7f3c b15d 723c
00000190: e8a0 e03b 0290 efba 2cc7 883c f745 3aba
000001a0: 7934 5f3c c021 11b9 f8db d73c ef1e 19bc
000001b0: 1a36 73bc 4f0d 3d3b f52e 713c 2c71 7cbc
000001c0: cc3c afbc f187 cf3c eb0d c03b 91dc 7cbb
000001d0: 7dde 0d3c a2ff 41bd df6f be3b 40a0 57bc
000001e0: 6672 083c e874 84ba 82cd 63bc 24ff 09bd
000001f0: cfd7 36bc 45d0 bd3b ca6d 01bd f9e1 68bc
00000200: 9405 313c d015 003c 0366 13bc a560 a03b
00000210: 3ef7 e2bb a593 f13b 2d27 823c ab79 d4ba
00000220: 0147 50bc 0007 c93c 7a73 243c 9350 4a3c
00000230: f26c 5e3c f044 3a3c a577 9fbc 87ef 3bbb
00000240: 3b4d b03b 7fe5 b7ba 0b48 4f3c 73ad a93b
00000250: e885 ca3a 21ad 5b3a b8ae 893c e1fb c1bb
00000260: a5e3 c8bb c450 a5b9 ec25 bbbc 6e82 c8bb
00000270: 7193 adbc c6d2 9d3c 14f9 a4bc 535f f33b
00000280: d6e7 fa3c fe46 63bc ef35 423c 82a9 35bc
00000290: 277c cdbc c878 f23b ee49 9cbc a60c a4bc
000002a0: 2945 7cbc bba9 1d3c bed7 2bbc 59c8 96bb
000002b0: 507d ef3b 7d63 10ba 0216 67bc 49f9 8c3b
000002c0: c01b bc3b ee23 c63c b972 f9ba 83d7 f4bb
000002d0: 7427 ac39 6ecd 263b 36fa f4bb 3661 11bc
000002e0: 2033 763c af69 f43b d129 453c 2b30 9f3c
000002f0: c1d6 753c 4589 c13c 97e9 20bd 575f f4ba
00000300: 7416 e737 01a2 4e3c 18d3 6fbb 4289 103c
00000310: 5052 a8bb 4d8a c5bc 5a3d 08bb 521d 85bc
00000320: 4c1c 07ba 659e 66bc a66d 82bb 7d17 e9bc
00000330: b09b dc3c 1f8b 433a 23fe 443c 4bd9 93bc
00000340: cad3 893c 4267 543c 56e4 4a3c e73a 4f3c
00000350: 887f 48bc d0eb 933c e379 4e3c 5c3a 03bc
00000360: eccb a1bc dc49 db3b 6508 833b dae5 103c
00000370: e183 d3bb 6818 e5bc 188d 79bb b383 9f3c
00000380: 56e2 1fbc cdee 47bb 5b5d d139 40a7 df3c
00000390: da75 3f3c 9173 403b 4cf3 63bc 6610 e8bb
000003a0: 0568 533c 6474 f5bb db4a 363b 703a a63c
000003b0: 6af4 d53c 3ce5 1d3b 12a1 98bc f676 58bc
000003c0: e13d a8ba fcfd 973c de66 b43b 00e2 fa3b
000003d0: ceae 743b f5d1 a6bc 7b1c b23b 05b5 08bc
000003e0: 9ae9 013a ae7f 9c3b 03f7 90bc 38b9 9c3c
000003f0: f14e c6bb cb81 be3b f403 11bc 784e 433b
0.011334105 0.004284221 0.023271855 0.011160799 0.011965222 0.020136533 -0.024373818 0.0156061975
-3.5571906e-05 0.003077363 -0.011405559 -0.011861891 0.0024626793 0.011242513 0.01066447 -0.0066942577
0.003699731 0.005165005 0.009328359 -0.0033567462 -0.012247927 -0.011546616 0.0054362253 -0.009196557
0.005986465 -0.017172825 0.0073537272 -0.008193306 0.00797389 -0.006962348 0.0043443763 -0.0027205043
0.0019623942 0.02098314 0.019452937 -0.011662441 -0.012647069 0.012762604 0.002431409 0.027561435
0.012189407 0.010976354 0.0039357515 -0.010806582 -0.001992161 0.002843772 0.0084996605 0.012031086
0.014605 0.004768668 -0.027384063 -0.0077541075 -0.019958364 -0.0017056763 -0.017645448 -0.019457024
-0.001929228 -0.00011626972 -0.016795924 -0.009475453 -0.0033362522 -0.005876772 -0.00043060537 -0.0005206378
0.024172412 0.003935351 -0.0008864361 0.015728833 0.008635983 0.03555082 0.00838379 -0.014296229
0.009628894 0.01037563 0.006178384 0.01069099 0.017440679 0.014788498 -0.017773958 -0.010263695
-0.007514958 0.014178087 -0.014588834 -0.03467743 0.011794182 -0.009969183 0.0390144 -0.0010684195
-0.0043991003 0.00836608 -0.0039840755 -0.005245831 0.011941107 0.01096576 0.027441451 0.012988896
-0.0070617874 -0.003344877 0.015609622 0.014792846 0.006855119 -0.0018277171 0.016696535 -0.00071057625
0.01362335 -0.0001384085 0.026350006 -0.009345754 -0.014844442 0.0028847044 0.014720668 -0.015407842
-0.021391295 0.025333377 0.005861034 -0.0038583616 0.008659002 -0.04736293 0.005811676 -0.013160765
0.008328056 -0.0010105642 -0.013903977 -0.033690587 -0.011159851 0.00579265 -0.031598844 -0.014214032
0.010804553 0.0078177005 -0.008996489 0.0048943334 -0.006926446 0.007372337 0.015887821 -0.0016210576
-0.012712241 0.02453947 0.010037297 0.012348312 0.013575779 0.011368975 -0.01946623 -0.0028676705
0.0053803003 -0.0014030187 0.012651454 0.0051781475 0.0015451284 0.0008379985 0.016806945 -0.005919919
-0.006130653 -0.00031531428 -0.022845231 -0.006119064 -0.02118847 0.019265544 -0.020138301 0.007427135
0.030628126 -0.013871906 0.011853679 -0.011087777 -0.025083615 0.007399652 -0.019078221 -0.020025562
-0.015397348 0.009622986 -0.010488449 -0.00460152 0.0073086396 -0.0005507989 -0.014104368 0.004302178
0.0057406127 0.024187054 -0.0019031382 -0.00747198 0.0003283579 0.0025452035 -0.0074761165 -0.008873275
0.015026838 0.0074588875 0.012033896 0.019432148 0.015004815 0.023625026 -0.03928527 -0.0018644136
2.7547801e-05 0.012611867 -0.0036594328 0.008821787 -0.0051367655 -0.024113799 -0.0020788522 -0.016249333
-0.0005154058 -0.01407585 -0.0039803563 -0.028453583 0.026929706 0.00074593903 0.012023482 -0.01804795
0.016824622 0.012964072 0.012383541 0.012648321 -0.012237437 0.01805678 0.012602302 -0.008009519
-0.019750558 0.0066921543 0.0039988034 0.008843863 -0.00645493 -0.02796574 -0.0038078483 0.019471979
-0.009758553 -0.0030507327 0.00039933142 0.02730143 0.011685813 0.0029365758 -0.013912987 -0.007082033
0.012903218 -0.0074906815 0.0027815613 0.020291537 0.026117522 0.0024092933 -0.018631492 -0.013211956
-0.0012835824 0.018553726 0.005505427 0.007656336 0.0037335637 -0.020363787 0.005435524 -0.00834394
0.0004955769 0.004775963 -0.01769591 0.019131288 -0.006051891 0.0058138124 -0.00885104 0.002980141

action_model._discrete_distribution.branches.1.bias f4 [3]
00000000: fc4b 59bb fed6 92bb f17d 0f3c
-0.0033156862 -0.0044811955 0.008758054

action_model._discrete_distribution.branches.2.weight f4 [3, 256]
00000000: 9934 7fbc 9d8e 5abc 0e0e ad3a 876b de3b
00000010: 6072 1b3d 49e0 ac3c 670d b8bc 1264 2b3d
00000020: 323b 78ba 5691 9f3c 892d 5f3a 2d81 093d
00000030: 03e8 573b 75d3 b1ba 0c9d 493c 9aaa 85bb
00000040: 1bf4 153b 3513 3c3d c6a7 ddbc 812a 8b3c
00000050: 01e6 a7bc 0aad cbbb 10b2 963c 4568 7c3c
00000060: e8a1 083d de4a d63c dd32 163b eadf 543c
00000070: 881d 13bd da5c ac3b d734 9bbb 8e82 b43a
00000080: 3c97 153d ce42 133d c604 1e3d b814 523b
00000090: ae2e 7bbc 654d 833c 3d13 57bc 7ec0 b03c
000000a0: 099e db3c 793a 103a bfdc 9d3c 6d7f 37bc
000000b0: a127 debc c978 31bc f9b1 0abc 71d7 cabb
000000c0: 81ac e63c fe11 bfbc c436 81bc 5081 353c
000000d0: c380 bcbc fa0a d03c 6122 9dbc 9a5f 093c
000000e0: e463 be3b 4c35 c73c bbb8 cebc b9fd 9bb8
000000f0: 2b6c 63bb 89c6 db3c 2022 5d3d a9d2 4d3c
00000100: 92a5 5ebb 1dd6 0f3c 014c aebc ecae f73c
00000110: b4b9 cebb 3bc6 663c 0b85 a73c c482 83bc
00000120: 5c05 dcbc 5bc9 7abc a5b8 003c c4da a83b
00000130: af58 993b e2ed e7bb a696 41ba 3b77 1f3c
00000140: 2cb4 1abc 5910 3e3d 8198 3ab8 72a5 e0ba
00000150: 4283 693b 988c 9a3c 74fa 983b 1eec 063d
00000160: 4083 81ba 9a39 d03c a86e 903c 2f37 bd3c
00000170: 3476 ee3b d6d1 553d f0b8 6b3d 6537 4bbd
00000180: f62d d0bb 5790 de3c 6687 2cbb 1989 d93c
00000190: 0521 663a 6cfd 3abc 75e6 173d 33e7 82bb
000001a0: d400 353c 3ab7 e03c 9470 673c a8ac 2dbb
000001b0: 65b8 8bbb c178 173a deb4 443c 34b7 063d
000001c0: 696a 393c b0e5 153d 028c 8c3b 2577 8abc
000001d0: a851 3a3b 4e36 73bb a029 ce3c 59cf a73b
000001e0: 082e 12bc cdc9 4d3c 39c1 9ebc e4ba 01bd
000001f0: d991 b03c e847 973c add3 debb cca6 e5bc
00000200: 4ca8 1e3d 6769 2b3d 4648 08bc 4d7d 953c
00000210: 488a 2f3c 1105 123c baf9 283a c625 20bc
00000220: 0557 78bb 3e77 0e3b f26e e03b 0322 05bc
00000230: d84f 33bc 0481 9b3c fd94 1dbb 1b78 9bbc
00000240: 0358 1aba e32d 8bbc 702b 8f3c a490 053d
00000250: bf27 51bb 2b2a 13bb 9a6f 21bc fd4e 76bc
00000260: dd7a c2bc 00af 14bd f06b e4bb a1e5 01bc
00000270: 0e5f a9bb 62b4 9d3c d1f0 a6ba 3535 233d
00000280: dbe9 cb3b 037d 09bd 980e 8f3b 5935 b73c
00000290: 0313 48bd 5f2a 75bc 62b4 123d d436 503d
000002a0: e96b 19bc 9bb2 b33c e8ad 25bc 9343 6abb
000002b0: ee58 0cbb 5fbf 5dbc fd18 09bd a9ba e0bb
000002c0: b315 99bc 9abe 983c 9821 903c 0cfe 123c
000002d0: d9cb e33c 8fb1 083d 2900 58bc 04aa 203d
000002e0: d10b d53c 2b24 afbb 1561 8dba 23fa e63b
000002f0: df24 1e3c b661 473d e708 90bc 5574 6abc
00000300: b8e0 f2bb 56f6 7b3c 3cc8 fdbb b16a 5abc
00000310: 8ae2 05bc 9674 d73a 5ca7 bebb fe3f 553d
00000320: e201 8cbc fb35 ca3c 68d8 043c c040 e7bb
00000330: 5c9b d13c 1111 89ba 6271 4c3c 850d 8d3b
00000340: dc6a 813d b50b 57bc 7664 86bb 2be4 ae3b
00000350: b42f 50bc 46f7 8f3c 28a0 e13c 715f 45bc
00000360: 6f0f 363d eb72 1f3d ab9b b1bc 2ac6 84bb
00000370: 3f26 4abc cf48 36bd 2cf9 9b3a 2fa0 b53c
00000380: 3991 d6bc cd34 01bd d403 4abb 919c 153d
00000390: f841 633c fb12 3f3d c983 b13c 9cdb 383c
000003a0: 4346 6dbc 82ce d7bc b313 ab3c c92c 6a3c
000003b0: fa70 873b 69ec 1d3c a7e0 153c 93ba b33c
000003c0: a89b 033d aa38 183c 66c8 88bc 8747 d03b
000003d0: b0b4 fa3b a62e 953c 3be1 643c dacd 2a3c
000003e0: c517 7f3c 02a0 fa3c cd90 c2bc db95 ceb9
000003f0: db20 29bc 99a0 beba 1a9f d6bc 9258 dc3c
-0.015576505 -0.013339666 0.0013203041 0.0067877206 0.037950873 0.021103041 -0.022467328 0.04184348
-0.000946927 0.019478481 0.000851356 0.033570457 0.0032944686 -0.0013567047 0.012305509 -0.004079175
0.0022881094 0.045916755 -0.02705754 0.01698804 -0.020495417 -0.006215696 0.018395454 0.015405719
0.03335753 0.026158746 0.00229185 0.012992838 -0.035916835 0.005260092 -0.0047365236 0.0013771818
0.03652118 0.03595238 0.03857877 0.0032055806 -0.0153309535 0.016028116 -0.013127145 0.021576162
0.026808755 0.0005501877 0.019270299 -0.011199814 -0.027118506 -0.01083202 -0.008465284 -0.0061902334
0.028158428 -0.023324009 -0.015773185 0.011078194 -0.023010617 0.025395859 -0.019181432 0.00838461
0.0058102477 0.024317406 -0.02523457 -7.4382355e-05 -0.0034701924 0.026828067 0.053987622 0.012562432
-0.00339732 0.008779076 -0.021276476 0.030234776 -0.0063087586 0.014085348 0.020449182 -0.016053565
-0.026858024 -0.015306796 0.007856523 0.005153032 0.0046797614 -0.0070779184 -0.0007384814 0.009733017
-0.00944237 0.04640231 -4.4487886e-05 -0.001713915 0.0035631214 0.018865868 0.004668528 0.032940023
-0.0009881034 0.025418092 0.01763089 0.023097603 0.0072772745 0.05220207 0.057549417 -0.049613375
-0.006353135 0.027168436 -0.002632582 0.026554631 0.0008778724 -0.01141296 0.037085015 -0.0039948463
0.011047561 0.02743112 0.014125962 -0.0026500616 -0.004263925 0.00057781866 0.012006013 0.03288956
0.011316874 0.036596 0.004289151 -0.016902516 0.0028430019 -0.0037111226 0.025166333 0.0051211533
-0.0089221075 0.01256032 -0.019379245 -0.031672373 0.02155392 0.018466905 -0.006800136 -0.028033637
0.03873472 0.041848566 -0.008318013 0.018248225 0.010714121 0.008912341 0.00064459036 -0.009774631
-0.0037893665 0.0021738554 0.006849163 -0.008125785 -0.010944329 0.018982418 -0.0024045103 -0.01897817
-0.00058877486 -0.016989654 0.017476767 0.032608643 -0.003191456 -0.0022455554 -0.009853268 -0.015033481
-0.023740226 -0.036299706 -0.006970875 -0.007928283 -0.005168802 0.019251052 -0.0012736564 0.039845664
0.006222946 -0.033566486 0.0043657534 0.022364305 -0.048846256 -0.014963715 0.035816558 0.05083354
-0.009364107 0.021935752 -0.010112263 -0.0035745844 -0.002141531 -0.013534396 -0.033471096 -0.006858189
-0.018687105 0.018645573 0.017594144 0.008971702 0.027807163 0.033372458 -0.013183632 0.03922464
0.026006611 -0.0053448877 -0.0010786379 0.0070488616 0.009652345 0.04867717 -0.01758237 -0.014309962
-0.0074120425 0.015378555 -0.007744817 -0.013331101 -0.008171687 0.0016437944 -0.0058182906 0.05206298
-0.017090742 0.024683943 0.008108236 -0.0070572793 0.025586776 -0.0010457357 0.012478204 0.00430459
0.0631921 -0.01312535 -0.0041013313 0.0053372583 -0.012706686 0.017573964 0.027542189 -0.012046681
0.044448312 0.038927954 -0.021680674 -0.0040519433 -0.01233822 -0.04450303 0.001189982 0.022171108
-0.026192294 -0.031544495 -0.0030825036 0.036526266 0.013870709 0.04664896 0.021669285 0.011282828
-0.014482084 -0.026343588 0.020883417 0.014292904 0.004133341 0.009638884 0.0091478 0.021939551
0.032130867 0.0092908535 -0.01669712 0.006356183 0.007650934 0.01821072 0.013969715 0.010425055
0.015569632 0.030593876 -0.023750687 -0.00039403033 -0.010322775 -0.0014543711 -0.026198912 0.026897702

action_model._discrete_distribution.branches.2.bias f4 [3]
00000000: 6faa 353c 00c2 37bc de13 15b9
0.011087998 -0.011215687 -0.00014217148
