ML-Agents/backup/results/v2.0.0.0/Volleyball/Volleyball-39161.onnx (onnx, 298113 bytes, 15 tensors)

discrete_action_output_shape f4 [1, 4]
000000 00 00 40 40 00 00 40 40 00 00 40 40 00 00 00 40
       3.0 3.0 3.0 2.0

network_body.observation_encoder.processors.0.normalizer.running_mean f4 [17]
000000 d6 b0 d8 ba bb 79 2b 3b 79 f4 c3 3e 63 bc db 3e
       -0.0016532193 0.0026165086 0.38272455 0.42917165
000010 f5 14 25 41 c4 68 16 bc 78 e8 7b 3f 2a e9 61 3e
       10.317616 -0.0091802515 0.98401594 0.22061601
000020 a1 7b ea c0 15 e0 ff 3b b7 36 74 bb 6e 3c 2c bc
       -7.3275914 0.007808695 -0.0037264058 -0.010512454
000030 a1 7b ea c0 24 8f 0c 3c 5f 91 14 42 56 b4 93 40
       -7.3275914 0.008579049 37.141964 4.6157637
000040 a5 55 3d c3
       -189.33455

network_body._body_endoder.seq_layers.0.weight f4 [256, 17]
000000 5b 0b fc bd 2c fb 10 3e 01 f9 8c 3c 15 1f 57 bd
       -0.123068534 0.14158314 0.017208578 -0.052519877
000010 5a 44 d5 3e 37 d1 6e be e2 9e 26 3e 76 16 4e 3e
       0.4165371 -0.23321997 0.16271546 0.20125756
000020 ef 8b 9a 3e ac 23 1e be 09 b4 77 3e 43 a7 1e 3c
       0.30184886 -0.15443295 0.24189772 0.009683433
000030 0c 43 92 bd 40 d8 2b 3e 99 e4 4f bd bc 60 38 3e
       -0.071416944 0.16781712 -0.050755117 0.18005651
000040 f5 05 6b be dd 5e 06 be fe a5 88 be fe 0d 3e 3e
       -0.22951491 -0.13122125 -0.26689142 0.18560025
000050 c0 15 1b 3e 0a fa 2a 3e 55 58 e2 3e 6f 46 2a bd
       0.15145016 0.16696945 0.44208017 -0.041571077
000060 fc b8 69 3e fd a3 71 be 6b 88 94 bc a4 df c8 bd
       0.22824472 -0.23597713 -0.018131455 -0.09808281
000070 07 43 21 be d5 d6 9d bc 6c 3e 30 3c f6 fb c5 bd
       -0.15748225 -0.019267479 0.01075707 -0.09667198
000080 7f 0a f9 be a8 51 b7 3e 80 76 8c 3e ae af 3a 3f
       -0.4864082 0.35804486 0.27434158 0.72924316
000090 3b 57 0f 3e 0c 79 9e be 33 31 a1 3e e5 ed e7 3c
       0.1399812 -0.30951726 0.3148285 0.02831168
0000a0 71 83 6a be 9a b7 f7 3d 49 ac 4a bd ec 9d 19 be
       -0.22901703 0.12095566 -0.04948071 -0.15001649
0000b0 9d 64 af be ee 66 c3 3d 41 c2 04 3e 56 d4 87 bd
       -0.3425645 0.09541117 0.12964727 -0.06632297
0000c0 55 c1 f7 bd cf 1c 68 be 75 bb 0e be 70 ea ce 3e
       -0.12097422 -0.2266724 -0.13938697 0.40413237
0000d0 18 08 54 bd cc 59 a0 be 7b 3e e1 be 9e 54 e5 3e
       -0.05176553 -0.3131851 -0.4399298 0.4479112
0000e0 a1 25 43 3d f5 13 8c be 3f 14 92 bd e9 0c 8a 3e
       0.047643308 -0.27358976 -0.07132768 0.26962975
0000f0 54 ee 60 3e 6e 0b 31 be 5f 76 23 3e c4 ab 8b 3e
       0.21965915 -0.17289516 0.15963124 0.27279484
000100 29 9c 06 be 60 29 9d 3d ec ab e0 3d 3f 17 0e be
       -0.13145508 0.07673907 0.109702915 -0.13876055
000110 d3 bc a3 3e e7 42 ae 3e 21 d5 5c bd 8a 16 8f be
       0.3198 0.34035417 -0.053914193 -0.27946883
000120 62 8a c5 bc 43 d0 83 be 91 49 ba be e1 25 25 3e
       -0.024113838 -0.2574483 -0.36384252 0.16127731
000130 ed 3a f0 3c 98 42 38 be 9d 27 89 3e 64 a9 6f bd
       0.029324973 -0.17994153 0.26788035 -0.058511153
000140 2d a8 45 be 74 10 2b be 8e 53 70 be 0c 79 18 bf
       -0.19302435 -0.16705495 -0.23469374 -0.595597
000150 54 a5 57 be d8 88 9e bd 59 23 0d 3e 46 0f 47 3e
       -0.21059161 -0.077409446 0.13783015 0.1943942
000160 31 c7 36 3e 09 db 5e be 8c 23 f7 bc 41 b6 02 be
       0.17849423 -0.21763243 -0.030168317 -0.12764837
000170 dd 0c 8a be 5a f5 9d 3c c8 bf 11 3e 0a b9 39 bd
       -0.2696294 0.019282032 0.14233315 -0.045342483
000180 39 e0 99 3e bc be 54 3e 94 a1 8e 3e 1b 8e 18 be
       0.3005388 0.20775884 0.2785765 -0.14897959
000190 27 0a 60 3c c5 f2 10 be da 7d 20 3e 87 cb 13 3e
       0.0136742955 -0.14155109 0.15673009 0.14433108
0001a0 b6 98 1e 3f bf 73 a3 bd a0 29 ef 3e 0a 4a d0 bc
       0.6195177 -0.07981061 0.46711445 -0.02542593
0001b0 d4 b9 43 3e bd b6 88 be 12 08 89 be 9f 11 b5 3e
       0.19113857 -0.26701918 -0.2676397 0.35365006
0001c0 79 72 89 be 15 b9 b5 be 62 9d 66 bd 4d ff a3 bd
       -0.26845148 -0.3549277 -0.056302436 -0.08007679
0001d0 cc 3c 9e 3d 8c af 6c be 42 47 55 3f ca e9 86 bd
       0.0772644 -0.23113841 0.83311856 -0.065875605
0001e0 d3 12 7c be 84 5c 85 3e b9 a2 ac 3d f9 0b 10 3e
       -0.24616556 0.26047146 0.084294744 0.14067067
0001f0 d2 37 85 be eb 76 e2 3d 3f 0f a2 3c 61 e4 f1 3e
       -0.2601915 0.11057838 0.01978266 0.47244552
000200 f9 75 c2 bd 5a dd 6e 3b 00 94 df 3d 67 38 22 3e
       -0.09495158 0.0036447854 0.10916901 0.15841828
000210 19 ac 4e be 78 74 4f 3d b3 fb 4f be e8 fe 85 be
       -0.20182838 0.050648183 -0.2031086 -0.2617104
000220 34 04 aa 3e 3d 86 61 3d 27 3d 87 3c 55 14 3f bd
       0.33206332 0.05505966 0.016508652 -0.04665025
000230 09 6a 45 3e b0 8c 6e be aa e5 fc bc 33 3d f4 3e
       0.1927873 -0.23295856 -0.030871231 0.4770294
000240 38 3e 79 3e 6e df ee bc 28 85 c6 3e b9 0b 67 be
       0.24340141 -0.029159274 0.38773465 -0.22563066
000250 9b c0 16 3e 88 7d a7 be 0a 21 37 be 9f 18 ca bd
       0.1472191 -0.3271296 -0.17883697 -0.09867977
000260 aa 89 17 be b3 91 88 bd 36 88 a5 3d 45 a2 ec 3d
       -0.14798608 -0.06668415 0.08082621 0.11554388
000270 86 f5 f2 3e da 39 62 3e d3 3f f9 3d 26 13 67 3e
       0.47452945 0.22092381 0.12170377 0.22565898
000280 cf 38 6e be 4e 7c cc 3c f0 0d d5 be bf 50 43 3f
       -0.23263858 0.024961617 -0.41612196 0.76295084
000290 33 8d 4e be 84 ca 88 bd 27 05 9e 3d 93 fb 29 bf
       -0.2017105 -0.06679252 0.077158265 -0.66399497
0002a0 4c 53 1f bd 48 54 a3 3d 7b dc 5b bd fe 78 9a bb
       -0.038897797 0.0797506 -0.053677063 -0.0047141304
0002b0 22 dd 7b 3e ae 8c 76 bc ae 3b 41 3b c4 ca 66 bd
       0.24596074 -0.015048189 0.0029485035 -0.056345716
0002c0 bd 12 43 be fb 6f 26 be 31 f0 28 3e 85 32 8f 3e
       -0.19050117 -0.16253655 0.16497876 0.2796823
0002d0 d0 2d 66 3d 86 be b3 3e 57 b2 75 3d dd 3a 6b 3e
       0.056196034 0.35106295 0.05998453 0.22971673
0002e0 2b ba 97 3e bc 76 88 be 93 40 c3 be 30 79 90 3e
       0.29634222 -0.26653087 -0.38135204 0.2821746
0002f0 ae 34 89 3e c1 fe da 3d 12 55 bd 3b ee 2c fd be
       0.26798004 0.10693122 0.0057779634 -0.4944834
000300 b9 f0 9e 3e 9d 8b 25 be 3a 98 0d 3e f2 72 cf bd
       0.31043032 -0.1616654 0.13827601 -0.10129346
000310 e7 6a 5e bd ab 33 03 3e b2 47 d9 3d 7b 82 e8 3d
       -0.05430117 0.12812679 0.10609378 0.11353012
000320 cd 8b 31 3d 57 a9 3e be da 8e 3a 3e 54 56 f1 bc
       0.043346215 -0.18619286 0.18218556 -0.02946011
000330 26 18 54 3e 7e 65 a1 3e 6a 62 26 3c e5 ee ef be
       0.20712337 0.31522745 0.0101553 -0.4686195
000340 35 9d 11 bb 45 16 d9 3e 40 e0 61 bd 85 18 29 be
       -0.0022218947 0.42399803 -0.055145502 -0.1651326
000350 30 15 b8 be e2 0b c1 3e 57 10 aa be f8 f2 91 be
       -0.35953665 0.37704378 -0.3321559 -0.28505683
000360 bb 2a 7b 3e 67 e2 66 3d 23 55 bb bd dc 39 1c 3e
       0.24528019 0.056368258 -0.09147098 0.15256447
000370 3b cd 63 bc 66 2b ed bd 30 77 20 3d 85 18 08 bd
       -0.013903911 -0.11580543 0.039176166 -0.03322651
000380 d6 ea c2 bd aa ed 3e 3d 5a 2d c8 3e 4d 92 4a 3c
       -0.09517448 0.046613373 0.390971 0.012363982
000390 c0 b1 8a 3e 77 09 bb bd ad ea da 3e f2 75 03 3e
       0.27088737 -0.09132665 0.42757168 0.12837961
0003a0 0e 8f 46 bc 95 b4 8c 3e fe 88 05 bf f3 34 e9 3d
       -0.012119068 0.27481523 -0.5216216 0.113870524
0003b0 13 fb 8a 3e 2a d7 3e 3e b0 dd bd bd e6 0c ef bc
       0.2714468 0.18636766 -0.09270799 -0.029180955
0003c0 cf 24 6b 3e 66 29 16 bf 1f e7 12 be de f7 57 3d
       0.2296326 -0.5865692 -0.14345978 0.05272662
0003d0 cb f6 1f 3d 4f ff 37 be 41 b3 ff bd 58 3e 7e 3e
       0.03905372 -0.17968486 -0.12485362 0.2482847
0003e0 a4 2b 15 bd 7c ee d2 be e2 7d 7b be 1c 0f f0 be
       -0.036418572 -0.41197574 -0.24559739 -0.46886528
0003f0 a1 a7 5e 3d 98 8b 95 be 0a 2e cf be 6d d4 34 be
       0.054359082 -0.29208064 -0.40464813 -0.17659159

network_body._body_endoder.seq_layers.0.bias f4 [256]
000000 61 ef 7c 3b 40 70 83 b9 35 22 01 bb 9b 73 63 ba
       0.003859483 -0.000250699 -0.0019704227 -0.00086765894
000010 cd 69 0e ba 44 64 40 bb b8 dd 2e 3b 31 00 23 3a
       -0.00054326357 -0.0029356638 0.0026682448 0.0006217985
000020 c3 b3 f6 3a a8 ea fe ba 7b c5 81 ba 7e 65 17 bb
       0.0018821884 -0.0019448595 -0.0009900773 -0.0023101266
000030 69 5e a2 3a 12 a5 bb ba c6 e8 46 3a c5 07 c0 38
       0.0012387756 -0.0014316163 0.00075877865 9.1567206e-05
000040 b2 f4 85 ba 36 8a 06 3b 53 26 3c 3b 7a 0a d2 b9
       -0.001022002 0.0020529157 0.0028709366 -0.00040062127
000050 4b db ae ba 14 ff 5a 3b 3f 0c e1 3a b5 80 32 bb
       -0.0013340501 0.0033416199 0.0017169787 -0.002723736
000060 13 c9 50 3a 2e 8d c8 ba 4a 7a 7f ba a2 e2 4e bb
       0.00079645327 -0.0015300864 -0.00097457005 -0.003156819
000070 3d 26 ae ba ca 18 9b 38 57 f6 3b 3b 22 64 b1 b8
       -0.0013286542 7.395593e-05 0.0028680766 -8.458669e-05
000080 3a 89 95 bb 6c 7d 1c 3a de 71 22 bb 2b 29 0d ba
       -0.004563478 0.0005969617 -0.0024787108 -0.00053848576
000090 93 0d d2 ba 14 7e 59 bb ea ba 21 b7 38 cb 1a 36
       -0.0016025774 -0.003318672 -9.639867e-06 2.3066077e-06
0000a0 99 05 6a bb d0 79 10 3b dc c0 64 3b 85 94 0c bb
       -0.0035708903 0.0022045262 0.0034904992 -0.002145083
0000b0 9a 38 7e 39 f2 e7 9c 39 d4 b9 90 3b aa 3d 8e 3b
       0.00024244413 0.0002992745 0.0044166837 0.004340847
0000c0 16 5b 2d 3b 7e c2 2b 37 a2 e9 6e 3b 5e 8f 00 ba
       0.0026451997 1.0237678e-05 0.0036455174 -0.0004904176
0000d0 28 7c 33 ba 29 6d c8 ba f3 30 16 3b 36 f0 94 39
       -0.0006846809 -0.0015291321 0.002291736 0.0002840773
0000e0 69 a9 38 3b ef dc 9f 39 80 b5 18 3a 79 7d a0 b8
       0.0028177148 0.00030491452 0.00058253855 -7.6527656e-05
0000f0 be 66 49 3b 71 1e 98 ba ec 37 7b 3b 08 dd 90 3a
       0.0030731405 -0.0011605752 0.0038332893 0.00110522
000100 00 ee 2c 3b a1 e2 2f ba 96 6a d2 b9 be 13 2a 3b
       0.0026386976 -0.00067094906 -0.00040133734 0.0025951709
000110 cc 61 10 3b 94 c5 9f bb 61 b0 5b bb 0e 48 18 3b
       0.0022030948 -0.004875848 -0.0033521878 0.0023236307
000120 b3 24 46 3b b8 f3 34 3a ce bb 4e bb 45 49 eb b8
       0.0030234277 0.0006902772 -0.0031545046 -0.00011219321
000130 23 c0 81 3b f5 0b ea ba fc a5 6a 3a b7 e7 74 ba
       0.003959672 -0.0017856347 0.0008951125 -0.00093423895
000140 2a d7 27 3b 9e 03 d3 b8 17 b8 dc b7 ff f5 0e bb
       0.0025610426 -0.00010061938 -2.6311767e-05 -0.0021814106
000150 73 6e b5 39 bc 6e 16 3b 01 78 8d bb a8 ad e4 3a
       0.000346053 0.0022954186 -0.004317284 0.0017446773
000160 3b 96 a4 3a 10 c7 99 3b b6 c4 f5 3a d4 71 30 bb
       0.0012556979 0.0046929196 0.0018750641 -0.0026923316
000170 19 df 81 3a 2e 39 ab ba 70 b0 e8 3a f7 b9 05 3b
       0.0009908407 -0.0013063306 0.0017752778 0.0020405033
000180 ff e4 98 3a 74 fe 15 bb e8 3d ca b9 98 7b 87 3b
       0.0011664926 -0.0022887262 -0.00038574566 0.0041346066
000190 0b e6 2c ba 79 2c c7 ba 12 47 39 ba 84 fc 51 3a
       -0.00065955584 -0.0015195749 -0.000706778 0.0008010345
0001a0 59 4a b5 3a 8b 14 f7 ba c9 44 1a ba 84 12 8c b9
       0.0013831361 -0.0018850727 -0.00058848836 -0.00026716676
0001b0 cc ad 66 39 32 55 78 3b ac b0 b3 3a 67 06 01 ba
       0.00021999254 0.0037892577 0.0013709269 -0.00049219135
0001c0 9c f0 5f bb 25 05 60 3b 87 8f a0 3a 31 86 7a 39
       -0.0034170514 0.0034182754 0.0012249806 0.00023891848
0001d0 00 00 6f 39 cf bf 66 bb c0 25 ef 3a 46 f8 e1 3a
       0.00022792816 -0.0035209542 0.0018245503 0.0017240129
0001e0 f6 99 f3 b8 9f b1 1d 3b fd ee 5b b9 10 47 b5 3a
       -0.000116158204 0.002406217 -0.00020974498 0.0013830382
0001f0 e8 25 99 3a ca b5 62 3b 9a f3 95 b8 50 e0 60 3b
       0.001168427 0.0034593218 -7.150248e-05 0.0034313388
000200 2c 01 3a 3b 5c 6b 3e bb 31 0a 9d ba 61 da f9 3a
       0.0028382046 -0.002905569 -0.0011981187 0.0019062274
000210 e6 b3 b4 3a f1 60 26 3b b5 cc 95 bb 72 c4 a1 b8
       0.0013786524 0.0025387371 -0.004571522 -7.713669e-05
000220 f3 cb 76 3b e0 3c d2 ba 73 41 2e 3b 5c 3b 98 ba
       0.0037658184 -0.0016039871 0.0026589304 -0.001161437
000230 06 86 2d 3b 34 76 f3 ba 94 68 91 ba 07 bf 8c ba
       0.002647759 -0.0018574656 -0.0011093789 -0.0010738083
000240 0d 01 05 ba 54 46 b6 3a c5 4e f3 ba b6 69 95 b9
       -0.0005073704 0.0013906457 -0.0018562904 -0.00028498255
000250 0a ca dd ba 44 f6 51 3b 17 27 b7 b9 0e 67 be 3a
       -0.0016921174 0.0032037655 -0.00034933604 0.0014526562
000260 80 69 05 3b 87 5c 5d 3a ae f7 5d 3a 2a 6c 9b 3b
       0.0020357072 0.00084442686 0.0008467388 0.004743119
000270 1b f4 15 bb 78 cf 83 3a d3 ec c0 ba 6c 8e 8f b8
       -0.0022881094 0.0010056337 -0.0014719017 -6.8452995e-05
000280 2b fe 96 39 51 a2 57 ba 1d 35 fe ba 32 3d 94 ba
       0.000287996 -0.0008225786 -0.0019394491 -0.0011309742
000290 dc 3b 9f b9 05 62 5b ba 98 4f 65 3b c6 04 5e 3b
       -0.00030371442 -0.0008368793 0.0034990069 0.0033877357
0002a0 f4 64 76 bb 3e 80 b1 3a 48 58 3d ba cc a7 93 3b
       -0.0037596794 0.0013542247 -0.0007222933 0.004506087
0002b0 ce b7 c0 ba 52 99 bf ba d7 7a 81 3a 6b 8c 21 ba
       -0.0014703216 -0.0014617837 0.0009878528 -0.00061625865
0002c0 31 54 20 bb a9 84 17 3b b1 5a 03 bb c4 12 8b bb
       -0.0024464244 0.0023119843 -0.002004307 -0.0042441804
0002d0 3a ee 35 3b 1c 65 ed 39 b7 05 3d 3a 49 c6 15 3b
       0.0027760402 0.00045279495 0.00072106294 0.0022853783
0002e0 43 cc 05 bb b1 8b 27 bb f7 39 40 bb e6 a2 9b 3a
       -0.002041594 -0.002556544 -0.0029331425 0.0011874109
0002f0 a8 bb 87 3b 83 d0 34 bb 2c 24 ba ba af db 19 3b
       0.0041422434 -0.0027590103 -0.0014201454 0.002347689
000300 60 e8 9f 3a b8 19 35 bb e3 37 34 3a aa f4 ab ba
       0.001219999 -0.0027633738 0.0006874783 -0.001311918
000310 24 4a 89 ba af 8d 13 3b 9a e9 70 bb dc 66 4c bb
       -0.0010474366 0.002251487 -0.003676033 -0.0031189239
000320 70 aa 95 bb 95 ce 58 ba 82 a8 1b bb 83 39 b6 38
       -0.004567437 -0.0008270529 -0.0023751562 8.689149e-05
000330 30 b2 b5 ba fb 89 7c 3b 85 0c f0 ba de e5 58 bb
       -0.0013862308 0.0038534391 -0.0018314278 -0.0033095996
000340 be b3 26 3b 59 2c 14 bb d8 0b a1 ba d3 f0 0e 3b
       0.0025436725 -0.002260944 -0.0012286855 0.0021811023
000350 0a a0 c9 ba 9b 08 76 39 69 9d e9 ba 7c e4 62 bb
       -0.0015382778 0.00023463594 -0.0017823401 -0.003462105
000360 da d3 c1 3a 5e a0 fb ba be 44 47 3b 15 6d af ba
       0.0014787868 -0.0019197573 0.0030405964 -0.0013383949
000370 f1 99 52 ba 46 16 08 bb 7d cd 2e 3a 2c 6b 8c 3a
       -0.00080338033 -0.002076523 0.00066681934 0.0010713092
000380 d8 d9 0e 3b 81 57 82 bb 8c 69 77 3b 8e 86 ee 38
       0.0021797325 -0.0039777164 0.003775212 0.00011373787
000390 48 c1 da ba ca e1 1a 3a 25 de 21 ba b4 6a 0f 3b
       -0.0016689682 0.0005908279 -0.0006174765 0.0021883668
0003a0 42 1d b1 ba f5 3e 70 3b b5 dd bb 3a 50 e2 7b 3b
       -0.0013512748 0.003665862 0.0014333042 0.0038434453
0003b0 88 49 a3 bb 12 a3 59 ba 29 90 5f 3b 66 fb a5 3b
       -0.004983131 -0.00083021924 0.0034113026 0.0050653694
0003c0 24 e4 dc 3a 23 f0 44 bb 16 32 43 3b 4f 8b 9c ba
       0.0016852659 -0.003005036 0.0029784492 -0.0011943373
0003d0 6c d6 63 3b 79 8a 78 bb 88 44 be 3a a2 1f 8e ba
       0.0034765257 -0.0037924333 0.0014516274 -0.0010843168
0003e0 ea e9 20 3b 9f 38 b1 3a aa 87 26 bb 68 8b fc ba
       0.0024553486 0.0013520903 -0.0025410452 -0.001926762
0003f0 71 82 52 3b a0 06 15 39 70 d3 ef 3a c3 d6 49 3b
       0.0032121206 0.00014212215 0.0018297266 0.0030798174

network_body._body_endoder.seq_layers.2.weight f4 [256, 256]
000000 44 38 6a bd 22 ce 14 be b4 0e 2c 3c 3b 8d 41 3d
       -0.057182565 -0.14531758 0.010501552 0.04725383
000010 bc 55 c4 3c 8f c1 af 3d c7 ec d2 3d 3e 18 7b bd
       0.023966663 0.0858184 0.10299068 -0.061302416
000020 26 12 8d bd b6 a9 f3 3c e8 78 b9 3c 18 23 1a 3d
       -0.06888227 0.02974401 0.02264066 0.037631124
000030 89 f9 f4 3d 93 db 92 bd 68 2e a1 ba a4 8f cb bd
       0.119616576 -0.07170787 -0.0012297155 -0.09939507
000040 6b 51 3d bd 83 f3 b9 3c 08 69 83 3d c7 64 22 bd
       -0.046220224 0.022699123 0.064165175 -0.03964689
000050 aa 1e 53 3d ed 9b 84 bd 00 62 99 3d fa 4c 30 3d
       0.051542915 -0.06475053 0.07489395 0.04304216
000060 9b d2 24 bd b2 90 87 3b a5 fb 55 bd 9c 37 ec bd
       -0.04023991 0.004137122 -0.05224194 -0.11534044
000070 61 14 40 3d 33 e0 0a 3d 55 e8 bd 3c e3 2e 12 3d
       0.046894435 0.03390522 0.023182074 0.035689246
000080 7d d3 ba 3c 14 b5 b9 bc 8c 38 8d 3d ff 36 5b 3c
       0.022805924 -0.022669353 0.06895551 0.013379811
000090 76 ce c5 bd 3d f9 a7 3d 5a 37 b5 3d 48 f4 4c bd
       -0.0965852 0.08201835 0.08848448 -0.050037652
0000a0 ff af f3 bb cd 07 4d bd 5d d8 f9 bc 02 2b f9 3d
       -0.007436752 -0.050056268 -0.030498678 0.12166406
0000b0 49 16 28 3c 1f f2 30 3d 54 01 4b bb 8d ab b6 3a
       0.010259219 0.043199655 -0.0030976133 0.0013936624
0000c0 5f 08 f9 bc 31 29 4c 3d ca f9 5c 3c de 6a 28 3d
       -0.0303995 0.04984397 0.013487289 0.04111754
0000d0 0b 7c 27 bd d0 6a de 3d 22 31 c9 3d 6a dc d8 bc
       -0.04088978 0.108602166 0.098238245 -0.02647229
0000e0 92 5f 4a 3c 60 89 bb 3c c3 dc d2 bd 82 c2 97 3c
       0.012351887 0.022892654 -0.10296013 0.018525366
0000f0 7e 70 de bd 73 6f 60 3c 1e a3 41 bc 37 c1 a0 bb
       -0.108613 0.013698447 -0.011818675 -0.0049058455
000100 88 29 e6 bd df 46 9d 3d 12 fd e6 bd 34 7a 14 3e
       -0.1123839 0.07679533 -0.11278738 0.14499742
000110 1c b5 75 3d 07 06 b3 3d 71 94 31 bd 06 51 b0 3d
       0.059987172 0.08741384 -0.043354455 0.08609204
000120 fb 15 2f 3a bb 3b d2 bc 26 56 9b bd 39 40 18 bc
       0.00066789956 -0.025663247 -0.07584791 -0.009292656
000130 4e 49 41 bd d2 ae 83 3c 15 7f a9 bd 38 4e cb 3c
       -0.04718905 0.016074572 -0.08276192 0.024817571
000140 31 8e e8 bd 38 80 7a bc 45 e2 8c 3c 23 92 81 bd
       -0.11355246 -0.015289359 0.017197737 -0.063267015
000150 d7 c6 e3 bb ff 79 a5 bc b1 76 47 3c d5 b1 32 bd
       -0.006951194 -0.020199774 0.012174294 -0.043626625
000160 09 b2 93 bd c7 03 ff 3a 87 03 82 bd 10 31 f6 bc
       -0.07211692 0.0019456082 -0.06348329 -0.030052692
000170 ec 30 e3 3d 64 67 53 3b 3b 85 78 3d e5 eb 1f 3d
       0.110933155 0.003225767 0.060673933 0.039043326
000180 41 9d 2a 3e ec 9a 83 bd f5 f5 08 bd 97 de 2c bd
       0.1666155 -0.064260334 -0.033437688 -0.042204466
000190 3a 5f ba bb d5 81 19 3c 8b 15 82 3d f7 a5 a1 bc
       -0.0056876214 0.009369333 0.06351765 -0.019732459
0001a0 44 6b b6 bc ce c2 80 3d ed f0 14 3d 5c 25 f2 39
       -0.022267945 0.06287156 0.036362577 0.00046185672
0001b0 b3 8e e9 3c 24 24 ca bc 2d ae 29 3c b3 30 10 bd
       0.028510427 -0.024675436 0.010356468 -0.035202693
0001c0 f9 0d 4d bd db 92 e4 3d d9 a9 e0 38 91 18 1f 3d
       -0.050062153 0.11160823 0.00010712789 0.038841788
0001d0 87 ec ea bd fc 66 0f 3e 15 d4 ff 3c c2 f9 1e 3e
       -0.11470895 0.14004129 0.031229058 0.15524963
0001e0 87 5c 95 3c 92 f8 82 bc 81 84 75 3c 72 9d bc 3d
       0.018232597 -0.015987668 0.014985205 0.09209718
0001f0 b4 00 5c 3d 9d 8f 30 3d da 16 80 3d a8 91 53 3d
       0.053711608 0.04310571 0.062543586 0.05165258
000200 ec a1 d6 3d 0a f5 81 3c 3f a5 2a 3d 83 58 4a 3d
       0.10480103 0.015863914 0.041661497 0.049400818
000210 f6 7f a4 bd 0e dc 29 3d e9 06 53 bc c8 74 81 3c
       -0.08032219 0.041469626 -0.0128800655 0.015802756
000220 5d 0a b5 3c e8 ad 81 3d 44 6f ce bc 32 e7 76 3b
       0.022099668 0.06331998 -0.02519954 0.0037674424
000230 2b 17 d5 bc f3 eb ee 3b de 25 fe bc 03 23 27 3b
       -0.026012024 0.007291311 -0.031023916 0.0025503046
000240 4a 64 9e 3d d4 76 c9 3d 16 78 24 3b 1b 15 35 3d
       0.07733972 0.09837118 0.002509599 0.04420958
000250 5e 91 f9 3c 1f 45 8e 3d 3c 82 27 bc 8d f9 0f bd
       0.030464824 0.069467776 -0.010223921 -0.0351501
000260 b8 ac ee bd 20 cc 75 bd 02 24 eb bd 1f 43 3a 3d
       -0.11654037 -0.060009122 -0.11481477 0.045474168
000270 ed 91 eb 3c 2f 3f fc bb 25 ea 4b bd 16 96 6e bd
       0.028756106 -0.0076979618 -0.049783845 -0.0582486
000280 3b 0b 2c bc 92 dd 09 3b 6a 72 46 bd b5 1b f6 bc
       -0.010500724 0.0021036607 -0.048448958 -0.030042509
000290 22 c5 b8 3d 41 4e a1 bb a8 a9 f3 3c 13 96 f7 3c
       0.09021975 -0.0049226587 0.029743984 0.030222928
0002a0 a8 b3 c9 bc ca c9 60 bd 46 08 5f 3d 0f 34 ca 3d
       -0.0246218 -0.05487994 0.05445125 0.09873211
0002b0 f2 27 19 3d bd 03 fb bb 41 be 81 3b c2 3f 48 bd
       0.03739161 -0.0076603577 0.0039594476 -0.04888893
0002c0 37 b7 ac 3b ac 41 48 bd e2 e8 d9 bd 56 31 97 bd
       0.0052708643 -0.048890755 -0.10640122 -0.07382457
0002d0 46 c5 a0 bd 6d bb c5 bb 6d b0 75 bd 10 b4 06 bd
       -0.07850127 -0.006034306 -0.059982706 -0.032886565
0002e0 40 fe 8a bd a5 b4 81 39 42 81 ee bd 03 e7 3e bd
       -0.067867756 0.00024739388 -0.11645748 -0.04660703
0002f0 89 bf 1a 3d 0f 51 94 3d 4f 16 f0 bb 20 d4 b7 3d
       0.03778032 0.07242023 -0.007326878 0.089760065
000300 d8 10 96 3d f6 ff e2 bd 6d 0e 53 bd ee 77 eb bb
       0.073274314 -0.11083977 -0.05152743 -0.0071859276
000310 b7 7b 0e 3e 1c 5a cb bc f7 d5 32 bd eb 45 be bd
       0.13914381 -0.024823241 -0.043661084 -0.092906795
000320 12 78 9a 3d 8b 32 bc 3c 5f 16 05 bd d6 63 28 bd
       0.07542433 0.02297332 -0.032492038 -0.041110836
000330 7e 1f 71 bc ac 79 4d 3d 8f a8 d8 bd e2 5b 94 3c
       -0.014716981 0.050164863 -0.10579025 0.01811022
000340 92 a8 38 3d ec 37 f1 3b 35 61 61 bd 86 dd f8 bb
       0.045082636 0.0073614027 -0.055024344 -0.007594767
000350 56 34 02 be 5a 5b 38 bc c2 e6 a9 3d fe a1 2f 3c
       -0.12715277 -0.011252249 0.08295967 0.010719774
000360 69 df f5 bc 4b f4 79 bb 59 a3 2b 3d d8 76 89 bd
       -0.030013757 -0.0038139995 0.041903827 -0.06712121
000370 92 e5 90 3d 02 42 a7 bd d7 9b 23 3c 46 19 d8 bd
       0.07075037 -0.08166887 0.009985886 -0.105516955
000380 e2 46 01 bd 35 75 a4 bd 11 34 e7 3a b8 88 73 3d
       -0.03156174 -0.08030168 0.0017639418 0.059456557
000390 23 9f 61 3d de c3 ec 3c 90 b7 96 3d 62 25 45 3c
       0.055083405 0.02890199 0.073592305 0.012032839
0003a0 5b ac 69 bc d2 50 9c 3d 54 89 bd bd de b3 bc bc
       -0.014262284 0.07632603 -0.09254709 -0.023034986
0003b0 00 a9 20 bd e0 92 6a 3d 22 c1 5f 3c a5 02 d2 bd
       -0.03922367 0.057268977 0.013656886 -0.10254411
0003c0 89 a0 d1 bc 38 5f 13 3d dc e3 99 bc 3b 38 bd 3d
       -0.025589244 0.03597948 -0.01878541 0.09239241
0003d0 77 c1 81 bd cd c5 93 bc 4b e0 78 bd 4f a2 d0 bd
       -0.063357286 -0.018038655 -0.060760777 -0.10187208
0003e0 07 a6 de bd 73 39 3f 3d 4f 54 a6 bc bc 95 1f 3d
       -0.10871511 0.046685647 -0.020303873 0.038961157
0003f0 d0 be 99 3d ba 2f 5c 3d 35 9f f3 3d 67 78 5a bd
       0.07507098 0.053756453 0.11895601 -0.05333748

network_body._body_endoder.seq_layers.2.bias f4 [256]
000000 49 0f 97 ba d1 0e 17 bb a1 1c 3b bb 18 d3 1c 3b
       -0.0011524941 -0.0023049603 -0.0028551 0.0023929533
000010 12 81 72 3b 15 58 54 3b 5f 8a 57 ba 4f 7e 6f 3a
       0.0037003201 0.0032401134 -0.0008222218 0.0009135948
000020 22 d6 cf b9 64 48 1c b9 93 f7 d3 3a 74 14 d0 ba
       -0.00039641658 -0.00014904287 0.0016171805 -0.0015875236
000030 4c 92 8e 3b 5a 42 1a 3b e6 73 24 39 05 ef 7c b9
       0.004350936 0.0023538084 0.00015683434 -0.00024121634
000040 93 16 93 3a 22 47 f5 3a 33 28 7a 3a ab f2 88 ba
       0.0011221938 0.0018713216 0.00095427333 -0.0010448297
000050 05 9d d2 39 54 2b 97 38 46 d8 dd ba 49 f0 ca ba
       0.0004017131 7.2083116e-05 -0.0016925416 -0.0015482988
000060 9f 23 25 3a 53 34 f2 3a 74 f1 a8 3a b7 09 09 bb
       0.00062995584 0.0018478729 0.0012889341 -0.0020910332
000070 42 fa 29 bb ae 24 1d 3b 05 1e 0f b9 46 4c 6a bb
       -0.0025936519 0.0023978162 -0.00013648726 -0.003575103
000080 57 43 71 ba b2 84 17 3b 84 fb 76 3a ed 1a 2e ba
       -0.0009203455 0.0023119864 0.0009421634 -0.00066415855
000090 d9 66 53 ba 97 08 78 bb 30 3f 33 bb 51 46 8e b9
       -0.0008064337 -0.0037846917 -0.0027350895 -0.0002713674
0000a0 b7 22 8f 3b 71 ba 25 bb 43 85 05 39 11 ba 04 ba
       0.004368152 -0.002528813 0.00012733512 -0.00050631264
0000b0 6d 2e 51 3b 2f 1c bf ba 7f aa 25 bb 47 6f 76 3b
       0.003191854 -0.0014580543 -0.0025278626 0.0037602948
0000c0 a9 6f fa ba c2 cc 33 bb 89 a9 d0 3a 0c 82 62 3a
       -0.0019106764 -0.0027435278 0.0015919666 0.00086405943
0000d0 d2 4e b9 ba 4c b2 47 3a e3 81 ee ba fa d5 9f 3a
       -0.001413787 0.0007617816 -0.0018196668 0.0012194507
0000e0 cf 9a 99 3a b5 53 27 39 03 81 f2 3a b5 65 d6 3a
       0.001171911 0.00015957544 0.0018501583 0.0016357215
0000f0 10 68 4e 3a 73 57 95 39 b6 0c 0c ba 74 ce 00 3b
       0.0007873783 0.0002848465 -0.000534247 0.0019654306
000100 e7 18 49 3b a8 a6 84 bb 34 c6 82 ba cb 49 7b 3a
       0.003068501 -0.0040481873 -0.0009977282 0.0009585886
000110 f1 14 4a 3b 14 f3 19 bb bb 53 3f 3b b4 5c f7 ba
       0.0030835236 -0.0023490833 0.0029194194 -0.0018872232
000120 01 07 84 3b 75 c3 c1 3a 97 37 76 3b 1c 9b a2 ba
       0.0040291552 0.0014782982 0.0037569755 -0.0012405845
000130 8e 8a 54 bb 9e 5d e6 3a ad 89 e5 ba 4b 2a 50 3b
       -0.0032431218 0.0017575508 -0.0017512344 0.003176349
000140 15 47 73 3b 51 18 1e bb df 27 01 3b 3b af 2d 3b
       0.0037121226 -0.002412338 0.0019707603 0.002650215
000150 ce 3a e5 3a c7 76 df ba 02 e8 e4 ba bc aa 38 3b
       0.0017488839 -0.0017048948 -0.0017464163 0.0028177937
000160 5a 65 b4 ba aa 91 88 ba 9f 4b 86 bb 90 da 2c 3b
       -0.0013763115 -0.0010419388 -0.00409837 0.002637539
000170 0d 2b c9 3a a4 cb 0b 3b a6 7c ac ba e0 93 7f bb
       0.0015347913 0.0021331096 -0.0013159707 -0.0038998052
000180 bc 66 1d 3b 11 c8 e2 ba 61 a7 1c b9 92 ed ed 39
       0.0024017533 -0.0017302056 -0.00014939673 0.00045381166
000190 37 c6 dc ba 20 a2 6d 3b 29 88 b1 3b b9 ac 7f ba
       -0.0016843741 0.0036259964 0.005417843 -0.00097532157
0001a0 8f fb 11 3a ed 22 82 ba c0 e6 ca 3a 4d c9 0f 3b
       0.0005568796 -0.0009928622 0.0015480146 0.0021940053
0001b0 58 14 25 ba e4 bc ed b9 6a 68 96 bb 82 5c 7b 39
       -0.0006297282 -0.00045344897 -0.004590084 0.00023971687
0001c0 d3 18 38 3a ad b2 64 3a e9 1e 5e bb f3 d9 93 3a
       0.0007022742 0.00087241345 -0.0033892936 0.0011280164
0001d0 95 f4 2c 3b f7 70 01 3a ff 00 df b8 1a ef 67 bb
       0.00263909 0.00049377925 -0.00010633654 -0.0035390318
0001e0 4e f7 be ba d8 08 50 3b 93 84 32 3a c8 c7 e7 3a
       -0.0014569552 0.0031743553 0.0006809916 0.0017683441
0001f0 63 17 70 bb 5b a5 40 bb b3 a5 03 3b a4 77 0e 3a
       -0.0036635033 -0.0029395435 0.0020087778 0.0005434698
000200 86 de 02 bb a5 bb 23 bb 74 ec 54 ba aa 61 43 bb
       -0.001996906 -0.002498367 -0.00081223925 -0.002981285
000210 21 97 1c 3b 66 29 67 bb 34 40 48 ba 75 20 4f 3a
       0.002389379 -0.0035272478 -0.00076389615 0.000790126
000220 92 19 44 3b da a2 74 39 01 85 1e bb 5a 81 8e 3a
       0.0029922468 0.0002333032 -0.0024188163 0.001087229
000230 94 db d0 3a 12 e6 05 3b 33 5f 0b 39 18 0e 1b bb
       0.001593458 0.0020431322 0.00013291537 -0.0023659524
000240 f3 b4 44 b8 8d 4e 00 3a 31 65 a8 ba 71 a3 51 3a
       -4.6898564e-05 0.00048945175 -0.001284754 0.0007997072
000250 d4 1d c6 b9 aa 05 31 b9 e4 26 0c bb f3 c2 72 3b
       -0.00037787727 -0.00016882145 -0.0021385485 0.0037042468
000260 dd 56 83 ba 1e 0c e8 3a da 61 ff 3a df 58 98 3b
       -0.0010020394 0.0017703807 0.0019484118 0.004649266
000270 83 bc 68 3b b3 d2 c4 ba aa e1 7c ba de 06 6e ba
       0.0035512752 -0.0015016407 -0.00096466637 -0.0009080003
000280 b7 60 52 ba 01 cc 4c bb ce d4 31 3b 74 56 99 3b
       -0.0008025276 -0.0031249525 0.0027134898 0.0046794955
000290 e2 6a 21 3b 45 9c 87 bb 0b 30 c4 38 b1 fe 5b 3b
       0.0024630358 -0.004138502 9.354957e-05 0.0033568556
0002a0 a4 68 04 ba 9e 74 05 3a db 3e eb 39 af c0 fe ba
       -0.0005050993 0.00050909247 0.00044869524 -0.0019436086
0002b0 b8 fb da ba 29 12 e9 ba 3a 64 69 bb 76 6e a7 3a
       -0.0016707098 -0.0017781901 -0.0035612718 0.0012774009
0002c0 f2 1c 8e b9 63 5e 33 3a f8 48 4c bb d8 a2 e4 ba
       -0.00027105917 0.0006842373 -0.0031171422 -0.0017443551
0002d0 b5 43 d3 39 97 f6 6c 3a f0 1b bb bb 59 1d ed ba
       0.00040295502 0.00090394303 -0.0057101175 -0.0018090411
0002e0 4a 74 02 bb c2 51 13 ba df 41 6e 3b 4d 24 ba ba
       -0.001990574 -0.0005619788 0.003635518 -0.0014201492
0002f0 00 d5 2b ba 40 6e ed 3a c6 16 35 3b 1c c0 06 ba
       -0.0006554872 0.0018114522 0.0027631982 -0.0005140321
000300 ff f0 84 3b bf 5e a2 39 8e 6e c8 ba f8 97 39 3b
       0.0040570493 0.0003096964 -0.0015291737 0.002831934
000310 b5 b7 86 ba 9a fa ba 3b 77 64 16 bb 45 76 91 3b
       -0.0010278138 0.0057061436 -0.0022948065 0.0044391477
000320 88 3d f1 ba 9c 37 4f ba e5 44 29 3b 20 95 92 ba
       -0.0018405179 -0.000790471 0.0025828418 -0.0011183359
000330 74 f1 17 3a 92 82 05 3b 9a 15 bd b9 a7 72 29 3a
       0.0005796172 0.0020372015 -0.00036064984 0.0006463923
000340 ae e6 09 bb e5 74 89 3b 58 3e 37 ba 4d 07 7e 3a
       -0.0021042037 0.004194843 -0.0006990186 0.0009690419
000350 5f 6e a5 3a fa cf 4f 3b ed c3 bf b9 91 04 7e 3b
       0.0012621394 0.0031709657 -0.00036576335 0.0038760046
000360 86 4f 42 3b 02 31 2b 3a 6c e2 99 3b 03 45 86 3b
       0.002964945 0.0006530435 0.004696181 0.0040975823
000370 d1 b1 ed ba 91 cb 19 3b 7e 0d e5 ba 35 80 40 bb
       -0.0018134658 0.0023467282 -0.0017475334 -0.0029373292
000380 77 83 cb ba 77 a2 91 3b f6 72 18 bb 03 ad 70 3a
       -0.001552685 0.004444416 -0.0023261881 0.0009181054
000390 d1 0b 6e bb b4 93 35 3a 8f d0 4f 3b ae 56 bb ba
       -0.003632296 0.00069266115 0.0031710004 -0.00142928
0003a0 3c d7 44 bb 52 b8 36 3b 7f f4 1c 3b 56 5e 9e b7
       -0.0030035516 0.002788086 0.0023949442 -1.8878996e-05
0003b0 cc 4a 64 3a 0b b5 e8 b9 b0 14 d0 3a 25 4b 9e 3a
       0.00087086554 -0.00044385376 0.0015875306 0.0012076838
0003c0 22 6b 32 bb 57 56 e7 38 a4 1e 8a bb 74 ad 2f 3b
       -0.00272245 0.000110310204 -0.0042150784 0.0026806267
0003d0 8b ed b6 ba 65 12 81 b8 40 c9 5b 3a 1b e6 06 3b
       -0.0013956291 -6.1546256e-05 0.00083841756 0.002058393
0003e0 40 58 19 3b 82 7f dd b9 35 16 75 ba 61 00 90 ba
       0.0023398548 -0.00042247406 -0.00093493174 -0.0010986441
0003f0 83 a7 82 ba d6 33 e8 3a a5 4d 21 3b 79 0c 02 3b
       -0.0009968135 0.0017715644 0.002461293 0.001984386

action_model._discrete_distribution.branches.0.weight f4 [3, 256]
000000 5e c8 8d 3a 06 74 db 3b 12 94 a3 3a 5d 08 c2 3b
       0.001081716 0.0066971807 0.0012480041 0.005921407
000010 b6 4d 6f 3c d6 d6 5d 3b 5a 61 3b bc 8c cf 56 bc
       0.01460593 0.0033849976 -0.011436785 -0.0131110065
000020 96 5f 32 3c 6c 20 13 39 18 8f 2f bb a5 07 84 bb
       0.010887047 0.0001403109 -0.0026788171 -0.0040292316
000030 79 07 08 bc 47 a1 c5 bb 68 d7 42 bc 3e 6c 1d 3c
       -0.008302563 -0.0060311886 -0.011892177 0.0096083265
000040 97 20 d3 3a 06 a2 7a bb 0b f7 68 3c c2 14 b2 3a
       0.0016107735 -0.0038243546 0.014219056 0.0013586509
000050 92 5b db bb 75 48 a5 bb 63 46 f8 bb ed 69 48 bb
       -0.0066942656 -0.005044038 -0.00757675 -0.0030580715
000060 47 d2 83 3b b7 74 d3 3b 38 c0 13 bc d2 22 b5 bb
       0.0040228697 0.0064531225 -0.0090179965 -0.0055278325
000070 fa 97 26 3c d5 83 50 3b bb e5 c5 3b 9f dc 39 3b
       0.01016807 0.003181686 0.006039349 0.002836026
000080 3a 45 a6 39 9a a3 2e 3c 52 cf 83 3a 61 52 b0 3b
       0.00031713565 0.010659123 0.0010056293 0.005380914
000090 6b 9d 13 3c 6b 06 bb bb 50 d4 39 bc 87 d7 ef 3a
       0.009009699 -0.005707552 -0.011342123 0.0018298485
0000a0 14 b1 49 3c ee af 3c bb 03 fc 0e bc 94 22 71 3b
       0.012310285 -0.0028791386 -0.008727076 0.0036794292
0000b0 bc 38 96 3b 4f cc 11 bc ad 67 24 3b 88 f8 ae 3a
       0.0045844 -0.008898809 0.002508621 0.0013349215
0000c0 b4 25 1a bb b4 a9 93 3b 83 06 e2 3b 4e f7 41 3c
       -0.0023521008 0.004506314 0.006897749 0.011838747
0000d0 0b 58 14 bc 1b b0 52 bb 11 08 56 3c a6 39 93 ba
       -0.009054194 -0.0032148424 0.013063447 -0.001123239
0000e0 0a d0 31 bc dd 57 d7 ba 9c 16 df b9 4a 69 20 bc
       -0.010852823 -0.0016429384 -0.0004255072 -0.009790728
0000f0 2f 2a c3 ba 09 45 30 bb 2f 41 1d 3b d5 2a df bb
       -0.0014889891 -0.0026896617 0.0023995151 -0.006810526
000100 83 4a 84 3b 06 e9 0a bb 35 db 1d bb 67 53 6b 3b
       0.004037203 -0.0021196022 -0.0024086956 0.0035907866
000110 f3 9a 55 3b 7c 41 9f 3b 60 d4 ed 3a bf ba ae 3b
       0.0032593578 0.0048601013 0.0018144958 0.0053323205
000120 72 b3 c7 bb dd 82 1b 3a d5 14 1d 3c d7 6a ba ba
       -0.0060943896 0.0005932281 0.009587486 -0.0014222515
000130 9f 69 0d 3b 12 62 6f 3b 9a fb 69 bb 08 ab 60 3c
       0.0021577848 0.003652696 -0.0035702945 0.013712652
000140 95 c3 67 bb 38 bd c4 3b 5b f4 e1 3b 42 82 54 bb
       -0.0035364379 0.006004002 0.0068955845 -0.0032426273
000150 a0 99 0d bb 18 fe 59 ba 46 6f a9 3b a7 f6 e1 bb
       -0.002160646 -0.0008315756 0.0051707355 -0.0068958583
000160 da 53 b2 bb 3c f8 99 3b f9 40 fb bb 5c 7c 22 bc
       -0.005442125 0.0046987813 -0.0076676575 -0.009917345
000170 9b 5a 03 bc 75 da 16 3c bc de d4 3b a2 cd 6c b9
       -0.0080172075 0.009207358 0.0064962786 -0.00022583318
000180 8a 6c 01 bc 6e e4 f6 bb 14 44 4e 3b e6 be 07 3b
       -0.007899413 -0.007534555 0.0031473683 0.002071315
000190 da 50 fd 3b 9a 7f 26 3b 32 5f 49 bc d8 c5 84 3b
       0.0077305855 0.0025405646 -0.012290763 0.004051905
0001a0 e7 0c 12 3b 2c ac 00 3a d4 07 07 3c ee 93 0c 3c
       0.0022285522 0.0004908468 0.008241612 0.008580191
0001b0 53 87 9a 3b 6c ec 58 3b cd ed 55 3c cc c7 f5 3a
       0.004715839 0.0033099903 0.013057184 0.0018751561
0001c0 86 3c f4 ba d7 d1 68 3c 2b 7e 83 bb 18 fe a6 3b
       -0.001863376 0.014210186 -0.004012843 0.0050962083
0001d0 8b 2e c7 ba 16 45 e8 3a 13 76 c1 3a c1 93 12 bc
       -0.0015196366 0.0017720785 0.001475992 -0.00894636
0001e0 4f b1 bc ba b6 fd 69 3b 7e 74 53 3b 94 e4 0b bb
       -0.0014396104 0.0035704202 0.003226548 -0.002134596
0001f0 b3 08 10 b9 6c 57 0c 3c 5e fd aa bc cb 99 f8 3b
       -0.00013736151 0.008565765 -0.020872768 0.007586693
000200 bf da b4 bb 5c 28 53 bb fe 94 29 ba 29 4b 00 ba
       -0.0055192406 -0.00322201 -0.000646904 -0.0004894012
000210 5c dc 22 3a d0 54 a4 3a 52 c8 09 bc 14 9f 78 bb
       0.00062126457 0.0012537483 -0.0084095765 -0.0037936615
000220 34 4b 0e bc f0 8e 29 3c 8b 3d 55 3c 63 b8 d5 37
       -0.008684922 0.01034902 0.013015161 2.547744e-05
000230 a8 c4 7e bb 06 78 1d 3c bc 54 07 bc ea 59 cc ba
       -0.003887454 0.009611135 -0.008259948 -0.0015590761
000240 d3 74 09 ba af d8 19 bc 01 2e 1b 3c ff 20 0f bb
       -0.00052435434 -0.00939004 0.009471417 -0.0021839736
000250 03 84 29 3c 8e c5 7e bb 71 5b 62 bb a0 31 1c bc
       0.010346415 -0.0038875076 -0.0034539367 -0.009533316
000260 3c b8 c3 bb b4 10 b0 3b cb 69 df ba 23 55 6e ba
       -0.00597289 0.005373085 -0.0017045079 -0.0009091666
000270 6d 2b 79 bb be 76 10 bc 30 1d 43 3b b4 67 ce ba
       -0.0038020269 -0.008817373 0.0029772036 -0.0015747459
000280 ad cd 01 3c 4b 2c 40 3c e7 5a df 3b 80 6f 1c ba
       0.007922572 0.01172931 0.0068162563 -0.00059675425
000290 e8 b8 7d bb ab 1e bf bb e3 1b 55 3c 24 78 b2 bb
       -0.003871495 -0.0058325133 0.013007137 -0.005446451
0002a0 34 27 ce bb cb 5a dd 3a e9 5c a4 3b 7b d7 b5 bb
       -0.0062912945 0.001688802 0.0050159586 -0.005549369
0002b0 ac 7f d2 38 fb ae b2 3b 41 91 9e bb 8c ec 4e 3b
       0.00010037361 0.005452988 -0.004839093 0.0031574098
0002c0 f4 a4 33 3a 07 f9 d7 bb ff 14 73 3b 2c ab 01 3b
       0.0006852888 -0.0065909657 0.0037091372 0.0019785864
0002d0 f4 c5 26 bb 73 f0 a8 3b 17 66 9b bb 76 cd 41 3b
       -0.002544758 0.005155617 -0.0047423947 0.0029571927
0002e0 e7 2d 1a 3b 09 c9 5d 3c de c1 d8 3b ef d6 d2 3a
       0.0023525895 0.0135367 0.0066149076 0.0016085784
0002f0 28 67 ef 3b 5e 3e 44 3c 04 9f 8a ba 6c af d4 3a
       0.0073059984 0.01197776 -0.0010575955 0.0016226596
000300 3f cb fd 3a de 50 d8 bb 9b 74 5c 3a 17 95 67 bb
       0.001936294 -0.006601437 0.00084097096 -0.0035336667
000310 9e 1d 11 bc 48 6f 03 3b 50 29 13 bc b2 d7 88 bb
       -0.008857159 0.0020055342 -0.008982018 -0.0041761035
000320 33 13 c5 3b ca f8 26 3c ce 9b b0 3b 73 df 60 3b
       0.0060142516 0.010191152 0.005389667 0.0034312874
000330 fa d4 1e bb 7a 1c 80 3b fc de 8a bb 22 ce d9 3a
       -0.002423583 0.0039096447 -0.0042380076 0.0016617218
000340 5a 28 95 3b bf 18 68 bb 7f ab cd 3a d9 aa 19 bb
       0.0045519294 -0.003541514 0.0015691369 -0.002344778
000350 c0 b0 86 3b 91 3c ef ba 3b 2b 11 bc 22 a2 55 bc
       0.0041104257 -0.0018252303 -0.008860405 -0.013039144
000360 59 38 59 3b 6a b3 cc 3a 19 ef 50 3b 8e 5e ac bb
       0.0033145158 0.0015617434 0.0031880795 -0.0052602952
000370 70 5d a2 bb d7 2d 1f 3b 1c 95 69 3c 30 94 1f 3c
       -0.0049549863 0.0024288797 0.014256742 0.0097399205
000380 56 f7 d0 3b a3 96 ac 3b 3a 18 f0 bb bc f3 d2 3a
       0.006377141 0.0052669807 -0.007327107 0.0016094367
000390 90 a3 1f 3c 06 bb 86 bb 9f 6b bd 39 46 47 b3 bb
       0.009743586 -0.0041116504 0.00036129073 -0.005471143
0003a0 e0 ec 90 bb 08 7a 06 3b 6b 31 01 ba 4a 93 b7 3b
       -0.004422769 0.0020519514 -0.00049283233 0.005602275
0003b0 6f 6d 56 bb c7 ce 0e bc 0a 7c 9f 3b 62 35 34 3c
       -0.0032719036 -0.008716292 0.0048670815 0.010999056
0003c0 ac 37 7e bc 20 6a a9 3b e1 38 a4 ba 0c 00 6e bb
       -0.015516203 0.005170122 -0.0012529158 -0.0036315946
0003d0 15 53 c7 3b 50 c7 8f bb 78 8f ee 3b 38 58 ed 3a
       0.006082902 -0.0043877736 0.0072802864 0.0018107956
0003e0 f9 7e 02 3c eb de 69 bb 3c fa 98 3b 3f 56 08 bc
       0.007964843 -0.0035685848 0.004668502 -0.008321344
0003f0 21 60 24 bb 11 c8 63 bc 13 ca f1 3a 41 01 d3 3a
       -0.0025081711 -0.01390268 0.0018447064 0.0016098396

action_model._discrete_distribution.branches.0.bias f4 [3]
000000 34 12 fd 39 20 7e 49 3b 8f 2f 56 bb
       0.00048269483 0.0030745342 -0.0032682156

action_model._discrete_distribution.branches.1.weight f4 [3, 256]
000000 96 a9 23 bb 21 20 6b 3c 04 59 8a bb 78 15 93 ba
       -0.0024972907 0.014350922 -0.0042220373 -0.0011221608
000010 14 f6 0e 3b 06 b3 3b 3a 6e 7a 36 3c 47 bb d3 3b
       0.0021814154 0.00071601605 0.011137588 0.006461534
000020 9a fe 39 bb cb 60 05 3c 39 4b 45 3b 2c dc c4 bb
       -0.0028380514 0.008140753 0.003010465 -0.006007692
000030 84 fa 23 3c 15 7c 2f 3c cc 23 96 bb 6e 53 4a 3b
       0.010008458 0.010710736 -0.004581904 0.0030872482
000040 42 81 94 3b 81 9e 18 3b 88 34 c6 bb da 4a 51 bc
       0.0045320103 0.0023287835 -0.0060487427 -0.012774194
000050 0f aa 22 3b f9 ab f5 3a 0c 7f b7 bb c5 b0 25 3b
       0.00248206 0.0018743268 -0.005599862 0.0025282365
000060 71 ba 89 3b 4c 34 6b 3b e6 88 fd ba a6 35 1f bb
       0.0042031338 0.0035889326 -0.0019343167 -0.0024293452
000070 cd 09 42 bc 9e b9 10 3c a6 62 10 3b 09 39 97 3b
       -0.011843157 0.008833317 0.0022031455 0.0046149534
000080 1f e7 ac 3b 71 4f 4d bb bb 03 44 bb c8 47 f8 3a
       0.005276575 -0.0031327868 -0.002990945 0.0018942291
000090 b7 b9 b7 bb d6 dd 02 bc b3 72 8c bb cc 00 a3 3b
       -0.0056068557 -0.00798746 -0.004286134 0.00497446
0000a0 06 c0 56 bb 9e 2d 04 3c cc 1b b6 bb fc 11 ca 3b
       -0.0032768263 0.008067517 -0.005557513 0.0061666947
0000b0 c6 74 11 bc 01 ab 26 3b f7 e6 42 3b 59 7e 26 bc
       -0.008877939 0.0025431516 0.0029739717 -0.01016196
0000c0 0d 52 23 3a 6c 72 c4 bb b1 6b 0c 3b 97 d8 6b 39
       0.0006230183 -0.0059950855 0.0021426494 0.00022492032
0000d0 f8 60 4c 3c 20 82 1d bb b1 cf 91 3b 93 62 9e bb
       0.012474291 -0.002403386 0.0044498076 -0.0048335283
0000e0 79 c0 81 bb 70 8b 69 bb 4f 8e b3 3b 22 9f 55 3c
       -0.003959712 -0.003563609 0.005479611 0.0130384285
0000f0 cd b1 cd bb af 57 8e 3b 3b 66 b2 bb aa 7c 63 bb
       -0.006277299 0.004343949 -0.0054443157 -0.0034711757
000100 fa d4 55 bc 2c 58 ae 3a 04 67 5b 3b e5 55 89 3b
       -0.013051266 0.0013301424 0.003347815 0.0041911476
000110 03 2f ab ba 40 61 b3 bb 46 17 bf b9 f7 d2 1a 3c
       -0.0013060275 -0.0054742396 -0.000364477 0.009449712
000120 46 c3 89 3c 37 23 a5 3a 2d 21 89 3a 52 63 45 bb
       0.016816746 0.0012598996 0.0010462158 -0.0030119014
000130 2c 84 36 3c 24 31 49 bb 89 87 95 bb 7e f3 ab ba
       0.011139911 -0.0030699456 -0.004563276 -0.0013118831
000140 f5 5f 18 bc 2e fa 51 3c 6b e8 b1 bb ec 60 e8 3b
       -0.009300222 0.012815995 -0.0054293177 0.007091632
000150 60 f1 03 3c d7 ac fb bb 3a 99 0f bc dc c6 18 3c
       0.008053154 -0.007680516 -0.008764559 0.0093247555
000160 82 1c f6 bb d9 a7 4f ba a1 6e dc 3b 16 e0 d6 3a
       -0.0075107226 -0.00079214346 0.006727055 0.0016393687
000170 3b 25 cd ba d2 68 02 bc 19 d2 02 bc 55 b5 dd b9
       -0.0015651354 -0.007959561 -0.0079846615 -0.00042287508
000180 22 3a 33 3b 90 90 05 bc e0 f8 9e 3b fa 1d 5c 3c
       0.0027347882 -0.008152142 0.0048514456 0.013434881
000190 e1 e8 11 bb be 8c bf bb 2c 17 78 3c 07 9c c9 3b
       -0.002226405 -0.005845635 0.015142243 0.006152633
0001a0 89 28 5d bc 23 db d7 3a 0b 01 23 ba 5f a2 cb bb
       -0.013498434 0.0016468506 -0.0006218112 -0.0062144245
0001b0 b7 fa 2e bc cf 2a 37 bb 87 ab 0a bb 39 5c a2 b9
       -0.010679892 -0.00279491 -0.0021159367 -0.0003096776
0001c0 33 05 9e 3b 12 53 92 39 fb 2e 23 3c ec c4 88 b6
       0.004822397 0.00027909182 0.0099599315 -4.0760406e-06
0001d0 af f4 28 3b 28 c4 b1 3a d6 c5 53 bc 73 b1 c8 3b
       0.0025780608 0.0013562487 -0.012925586 0.006124669
0001e0 52 86 2e 3c f4 1d 64 bb 4d 03 13 3c ec 35 c5 3b
       0.010652142 -0.0034807893 0.008972955 0.006018391
0001f0 aa e0 df 3b 3f 51 02 bb 64 58 c2 3b 56 61 6a bb
       0.006832202 -0.0019884852 0.005930947 -0.0035763583
000200 85 30 28 bb a8 c8 d0 3b 68 4c f7 3b e7 3c 45 39
       -0.0025663686 0.0063715763 0.00754695 0.00018810072
000210 53 32 b0 bc 80 f4 ce b9 d4 42 37 bc 6f 75 f1 3b
       -0.021508371 -0.00039473549 -0.011185367 0.0073687355
000220 b2 b7 18 bc f8 68 7c 3c 78 95 63 bb 51 ce a6 bb
       -0.00932114 0.015405886 -0.0034726541 -0.005090513
000230 72 69 fa bb 65 0f 1c b9 f9 50 00 bb 0e bb a3 bb
       -0.0076419646 -0.00014883054 -0.0019579513 -0.004996664
000240 94 10 d3 bb 2c 3e 8e bb 28 7f b7 bb a6 38 8b bb
       -0.0064411853 -0.0043409076 -0.005599875 -0.0042486964
000250 e4 99 a8 3a 89 cb 3d bc bf af 54 bb 24 cf 86 bb
       0.0012863246 -0.011584171 -0.0032453386 -0.0041140486
000260 c7 00 1a bb ae c9 a5 3b e2 ec 1d 3c 11 cb f0 3a
       -0.0023498998 0.0050594425 0.009638997 0.0018371065
000270 85 cb 3c 3c f6 9c 45 3c 0a f5 f8 ba 47 82 1a 3c
       0.011523132 0.012061348 -0.0018993926 0.009430475
000280 c6 3c 8e bb 6e e5 d8 bb 49 f4 b4 3b 46 f3 c4 39
       -0.004340741 -0.006619147 0.005522285 0.00037565286
000290 9b 83 04 bc 6e 7d 9a 3a 45 f9 a1 3b c5 99 88 bb
       -0.008088018 0.0011786649 0.0049430453 -0.0041687214
0002a0 be 18 81 3b 57 c4 e2 3a 90 69 cb 3a 4b 35 bd bb
       0.003939717 0.0017300945 0.0015519131 -0.0057741753
0002b0 1c 59 26 39 a8 61 40 ba fa ba 20 bb 8a ae 16 bb
       0.0001586419 -0.00073387707 -0.002452551 -0.0022992217
0002c0 31 e4 7c 3b fa ca 52 bb fc 8d 3e bb cd b8 bc 3a
       0.003858816 -0.003216444 -0.0029076329 0.0014398337
0002d0 5a 42 bb bb ee 95 dd 3a 46 cb 00 bb 83 2b b7 bb
       -0.005714697 0.0016905644 -0.001965241 -0.005589904
0002e0 dd 42 19 bc 86 27 3b 3c 1f 03 99 3a bf 4b 3c 3c
       -0.00935432 0.011422997 0.0011673904 0.011492669
0002f0 6c 9d c1 bb f7 ca 26 bb 42 9e 4e 3c e6 e0 8d 3b
       -0.0059086587 -0.0025450566 0.012610974 0.0043297885
000300 5e 2f ac bb ac 58 3c 3b b2 06 0d ba 0c 67 76 bb
       -0.00525467 0.0028739376 -0.0005379721 -0.0037598042
000310 3b 5b 86 3b 86 a1 0f 3c 6f 9b 8a 3b 61 9a 41 bc
       0.004100231 0.0087665375 0.004229955 -0.011816592
000320 db 93 f4 bb a1 e2 1a bc c8 04 15 3b b1 81 76 bb
       -0.007463915 -0.009453447 0.0022738446 -0.0037613923
000330 59 7a c1 3b 73 7d 32 bc 3e 5b 36 bc f7 50 b3 b9
       0.0059044776 -0.010894167 -0.011130152 -0.00034201864
000340 df 9a 1a bb 70 38 04 bc 5d 93 23 bc 5e 3d 78 bc
       -0.0023590846 -0.008070096 -0.009983865 -0.01515135
000350 bf d4 3f 3c c7 4c 9a 3a ba 99 c5 ba 60 99 1b bc
       0.011708437 0.0011772149 -0.0015075721 -0.009497017
000360 41 6f aa bb c6 b6 0c bc 8b 08 da bb 5a 30 50 3c
       -0.005201251 -0.008588498 -0.0066538504 0.01270684
000370 b9 bf 8e 3b 3f e0 f6 3b 3d 6f 8b bb 99 28 55 bb
       0.004356351 0.0075340564 -0.004255204 -0.0032525419
000380 db 80 0a 3b 3d 87 b0 3b 2e 18 74 3b 66 a2 a0 bb
       0.0021133933 0.0053872154 0.0037245858 -0.004902172
000390 77 4d 09 3b 61 33 25 bc ad f1 db bb 35 ea 60 3a
       0.0020950714 -0.0100830505 -0.0067121596 0.00085798214
0003a0 13 79 1f 3c 2f e6 4f bb 88 91 99 ba cc 30 c1 3a
       0.009733456 -0.0031722893 -0.0011716345 0.0014739274
0003b0 ce e9 03 3c 53 69 ec 3b 11 af 6b bc 1b 70 52 3c
       0.008051349 0.007214704 -0.014385001 0.012844111
0003c0 c0 da 76 b8 ae 18 ba ba b2 fe 52 bc 63 8f 7d 3a
       -5.8854697e-05 -0.0014198029 -0.012878107 0.00096725504
0003d0 68 f3 21 bb 95 1e ab ba 9f dc d2 3b 4e 29 d7 ba
       -0.0024711732 -0.0013055379 0.0064349915 -0.0016415508
0003e0 d2 4a f3 3a 97 f8 82 bb ea 02 6e bc b4 78 33 bb
       0.0018561727 -0.0039969194 -0.014527062 -0.0027385177
0003f0 1e c4 2b bc 80 ab 65 3b 63 e4 8a 3a 5c 08 69 3b
       -0.01048377 0.003504485 0.0010596629 0.003555796

action_model._discrete_distribution.branches.1.bias f4 [3]
000000 54 6e 7b 3a 73 e0 37 bb fd 42 19 3b
       0.00095913303 -0.0028057366 0.0023385875
