ML-Agents/backup/results/v2.0.0.0/Volleyball/Volleyball-231241.onnx (onnx, 298113 bytes, 15 tensors)

discrete_action_output_shape f4 [1, 4]
3.0 3.0 3.0 2.0
00000000: 0000 4040 0000 4040 0000 4040 0000 0040

network_body.observation_encoder.processors.0.normalizer.running_mean f4 [17]
-0.048508883 0.005867032 0.3986644 0.43329006 10.277629 -0.13475652 1.0048877 0.047205213
-7.2786527 0.0030006259 0.004261139 0.0046738912 -7.2786527 0.003247372 37.133507 4.627036
-189.5288
00000000: 40b1 46bd 3b40 c03b be1d cc3e 32d8 dd3e
00000010: 2b71 2441 9dfd 09be 29a0 803f 415a 413d
00000020: b9ea e8c0 26a6 443b 06a1 8b3b 7127 993b
00000030: b9ea e8c0 ddd1 543b b688 1442 ae10 9440
00000040: 5f87 3dc3

network_body._body_endoder.seq_layers.0.weight f4 [256, 17]
0.16552179 -0.1781146 0.1457382 0.16881639 -0.07597177 0.24459626 0.071222164 -0.6057441
-0.08779433 0.29687667 0.49713576 -0.10451099 0.3473421 0.19862232 -0.09846833 -0.17959504
0.042803038 0.14311819 0.34500435 0.2620308 -0.1297369 -0.12568738 0.010181212 -0.07031689
-0.015567889 -0.063904166 -0.2713156 0.25486448 0.036510687 -0.078397505 -0.15669806 0.0056509078
-0.21108188 0.23024549 -0.29641506 0.10398113 0.29434624 0.084064305 -0.48036134 0.08593468
-0.018420434 -0.026644133 -0.1249747 -0.087515466 0.04573601 0.12436862 0.5089427 -0.035369255
-0.07120252 -0.22215493 -0.55818576 0.38630313 -0.12089334 -0.08733815 0.28276023 -0.40620458
0.4958779 -0.0890939 0.16352907 -0.12312443 -0.03474578 0.23915818 0.42633417 0.19682094
0.07223349 0.49744868 -0.21640736 -0.1631254 0.23074228 0.07543011 -0.11286518 0.027454656
0.29049435 0.1863227 -0.33415568 0.3221665 0.07290569 0.16968465 -0.29583907 0.6236317
0.056701384 0.013330189 0.11038491 0.1407053 0.117455184 0.39883128 -0.3176626 -0.20308158
0.22189666 0.08332124 0.08369414 -0.06631883 -0.053205468 0.33105808 -0.035285056 0.10752709
-0.13433619 0.03549319 0.026962267 0.22039495 0.25470474 0.024013417 0.062030155 0.0034991747
-0.21018867 -0.029061645 0.109631196 0.07877535 -0.014041819 0.17034252 0.08992891 -0.2892893
-0.13398375 0.0723901 0.10175922 0.005046947 -0.17921126 0.07878355 0.055441607 0.090814926
0.24358827 0.024535244 0.116587535 -0.40914008 -0.09366551 0.010282171 0.11212548 -0.054057114
-0.11624779 -0.31738007 -0.19101828 0.06453454 0.15271561 0.49344516 -0.36046547 0.28568995
-0.034425147 -0.09919135 -0.38903943 0.03728112 0.13273184 -0.08806637 0.4798609 0.08458325
-0.036681965 0.45515707 -0.4953367 0.08914458 -0.025953794 0.048268627 0.0833119 -0.10523572
0.08556369 -0.026593082 0.07795325 -0.17310497 0.29422933 0.027028292 0.11598378 -0.41940334
0.22112979 -0.27093524 0.047809552 -0.10508446 0.016184773 -0.039082613 -0.04874847 0.1246291
-0.21466634 0.21435222 0.23931809 0.44105956 0.2768412 0.42098248 -0.16947629 0.30307084
-0.0718689 -0.13041581 0.13494296 -0.12885514 -0.10487894 0.7565502 0.27992475 0.35600033
0.51934975 -0.11157989 0.16986613 0.081554785 0.020490322 0.10908336 -0.12246026 -0.30495128
0.32556948 0.42135024 -0.16761072 0.014075784 -0.22837976 0.10739628 -0.011362285 -0.26767406
-0.03603287 0.16385776 0.24453399 0.39629495 -0.050078396 0.27429324 -0.20878157 -0.003741997
0.06663972 0.24751829 -0.11840844 -0.25477347 -0.08974612 0.25788748 0.104200214 0.110843904
-0.03695423 0.22768341 -0.058573674 -0.2828573 0.017109426 -0.028704805 0.07460313 0.4402436
0.32649398 -0.20591402 0.26590723 -0.02165358 -0.023408541 0.14523983 0.11294654 0.26947236
-0.035396583 -0.31343055 -0.07011061 -0.5002421 -0.13021022 0.040619265 -0.30249423 0.25131315
-0.19294913 0.47828344 0.0056447433 0.06414616 0.30892634 -0.43366957 0.11440937 0.60152084
0.06439229 -0.013121987 -0.07815431 -0.2711761 -0.09877902 -0.1539684 0.25198722 -0.085570455
00000000: 8b7e 293e ac63 36be 653c 153e 34de 2c3e
00000010: 1697 9bbd 7177 7a3e eddc 913d 0c12 1bbf
00000020: 84cd b3bd 3800 983e 9488 fe3e dc09 d6bd
00000030: d3d6 b13e a663 4b3e c4a9 c9bd c3e7 37be
00000040: 3d52 2f3d 938d 123e 69a4 b03e e728 863e
00000050: c0d9 04be 31b4 00be 19cf 263c 4d02 90bd
00000060: 7610 7fbc 30e0 82bd e1e9 8abe 997d 823e
00000070: 3b8c 153d df8e a0bd 7575 20be 402b b93b
00000080: d925 58be 79c5 6b3e b7c3 97be 0ff4 d43d
00000090: 8db4 963e e829 ac3d ecf1 f5be 86fe af3d
000000a0: 73e6 96bc cc44 dabc bcf2 ffbd 4f3b b3bd
000000b0: af55 3b3d fab4 fe3d 124a 023f 5adf 10bd
000000c0: a0d2 91bd 957c 63be 43e5 0ebf 86c9 c53e
000000d0: ed96 f7bd 58de b2bd f3c5 903e 0cfa cfbe
000000e0: b5e3 fd3e dd76 b6bd 2a74 273e a928 fcbd
000000f0: 9751 0ebd e2e5 743e 7948 da3e 6e8b 493e
00000100: 27ef 933d 98b1 fe3e e499 5dbe 580a 27be
00000110: b447 6c3e 1a7b 9a3d dc25 e7bd 96e8 e03c
00000120: adbb 943e 61cb 3e3e 7416 abbe 02f3 a43e
00000130: 944f 953d d0c1 2d3e 3878 97be 54a6 1f3f
00000140: b63f 683d dd66 5a3c 7c11 e23d 0d15 103e
00000150: 588c f03d 9d33 cc3e aca4 a2be 9ef4 4fbe
00000160: e138 633e 54a4 aa3d d567 ab3d 2bd2 87bd
00000170: faed 59bd 7280 a93e 1087 10bd 2a37 dc3d
00000180: 6d8f 09be 4f61 113d f9df dc3c 37af 613e
00000190: a968 823e c9b7 c43c 5513 7e3d 6952 653b
000001a0: b33b 57be b012 eebc 5286 e03d f854 a13d
000001b0: a80f 66bc 456e 2e3e a62c b83d ba1d 94be
000001c0: 0933 09be 4341 943d 2367 d03d dc60 a53b
000001d0: 2883 37be 4559 a13d bd16 633d 2dfd b93d
000001e0: 346f 793e 23fe c83c 72c5 ee3d cf7a d1be
000001f0: b4d3 bfbd 8d76 283c 0ba2 e53d fe6a 5dbd
00000200: 5213 eebd a47f a2be 4c9a 43be af2a 843d
00000210: 7b61 1c3e d8a4 fc3e ee8e b8be f445 923e
00000220: 6201 0dbd d624 cbbd 2d30 c7be 16b4 183d
00000230: dbea 073e 245c b4bd 54b0 f53e fc39 ad3d
00000240: d43f 16bd 590a e93e c69c fdbe 6f91 b63d
00000250: 0d9d d4bc 53b5 453d 6e9f aa3d d385 d7bd
00000260: 043c af3d bcd9 d9bc f4a5 9f3d 6e42 31be
00000270: 3aa5 963e 706a dd3c e788 ed3d 09bc d6be
00000280: d96f 623e 06b8 8abe f3d3 433d 8536 d7bd
00000290: ee95 843c 1715 20bd 7aac 47bd 8b3d ff3d
000002a0: 7ed1 5bbe 267f 5b3e cd0f 753e 8fd2 e13e
000002b0: 21be 8d3e 048b d73e 318b 2dbe 1a2c 9b3e
000002c0: 0030 93bd b98b 05be 7d2e 0a3e 9af2 03be
000002d0: c5ca d6bd 46ad 413f 4c52 8f3e ad45 b63e
000002e0: 1bf4 043f ff83 e4bd 63f1 2d3e 3206 a73d
000002f0: 52db a73c 1967 df3d 72cc fabd 9322 9cbe
00000300: 0bb1 a63e 38bb d73e 25a2 2bbe 1e9e 663c
00000310: 62dc 69be 95f2 db3d e128 3abc 930c 89be
00000320: 3497 13bd 54ca 273e 1e67 7a3e 2ce7 ca3e
00000330: 011f 4dbd 2a70 8c3e d6ca 55be 4b3c 75bb
00000340: 687a 883d 6f75 7d3e 2080 f2bd ab71 82be
00000350: d0cc b7bd d409 843e ec66 d53d 2102 e33d
00000360: 525d 17bd d725 693e f3ea 6fbd acd2 90be
00000370: 1129 8c3c 5726 ebbc 87c9 983d 9c67 e13e
00000380: 382a a73e 20db 52be fe24 883e d962 b1bc
00000390: 45c3 bfbc c0b9 143e 8450 e73d 48f8 893e
000003a0: 02fc 10bd f879 a0be 2796 8fbd de0f 00bf
000003b0: d455 05be 6360 263d 86e0 9abe 1eac 803e
000003c0: 7594 45be 91e1 f43e 8af7 b83b 105f 833d
000003d0: 982b 9e3e f009 debe 764f ea3d 45fd 193f
000003e0: 1be0 833d 9afd 56bc 5e0f a0bd 98d7 8abe
000003f0: a84c cabd e4a9 1dbe 7804 813e 903f afbd

network_body._body_endoder.seq_layers.0.bias f4 [256]
0.017234862 0.0028580695 0.02336259 -0.008021215 -0.025811886 0.0014492442 0.016944544 0.00046376933
0.012845925 0.01187465 0.012059476 0.012119248 -0.002643858 0.015219499 0.0072243237 0.011642096
0.01351909 0.0033261327 -0.00044811185 0.00032239174 0.01524791 0.014254748 -0.009727889 -0.0030216668
-0.0031786188 -0.0014984763 0.011838625 -0.012398947 0.019442238 0.024737274 0.015579573 0.0019010741
0.010877263 0.01369422 0.01682723 -0.0008086821 0.0010730921 0.0009747083 0.0019636408 0.002812103
-0.0108373985 0.007577114 0.012301682 -0.004281409 0.0131674 0.017015083 0.020589098 0.024734285
0.020735305 0.0055372487 -0.0066332445 -0.0044311695 0.032825105 0.009719699 0.006072371 -0.0017391416
0.009458128 -0.008725668 0.021676473 -0.009856278 -0.009051404 0.017712336 0.0058930484 0.0082467515
0.037702102 -0.002833392 0.0301909 0.024295716 0.014619082 0.016536376 0.01933187 0.00039325864
0.00070387777 0.0297728 0.013471141 0.0017793628 0.0051320973 -0.01146534 0.023734836 -0.014717607
0.016557895 0.0068453876 0.025210124 0.016321614 0.009082724 0.01611261 0.0014381066 0.014001262
0.012693893 0.012205883 0.013747489 0.010281973 0.0014940233 0.012786314 0.002581991 0.005019211
-0.007706401 0.026014438 0.029996745 0.033382334 0.0034250487 -0.008686694 0.018319014 0.02270489
0.029675115 0.017051093 0.00066346535 -0.0007774869 -0.004231522 0.0061096204 0.01015425 -0.005561597
0.022416698 0.014869058 0.01765738 -0.0016225143 0.022779047 0.017938947 0.006784433 0.014149934
-0.007118072 0.003293678 0.007635916 -0.008800251 -0.011886923 0.0125951255 0.008084496 0.016193183
0.0077353604 -0.019006683 0.005415593 -0.0075818305 0.0046828697 0.0074077295 0.012540134 -0.0042558275
-0.019320548 -0.010419319 0.023563609 0.005938045 0.008221426 0.013986222 0.0035434612 -0.0058246762
0.008304566 0.01564513 0.020986846 0.021799823 0.00571482 -0.008982798 0.023367453 0.0013895818
0.013232152 0.006392694 0.0018618994 0.018469794 -0.006844365 0.026802395 0.0033967383 0.009353361
0.029749176 0.018150015 -0.008288193 0.015802318 0.011448865 0.038298525 0.034960665 0.015435437
0.007895593 0.015938263 0.007513111 0.023741927 0.013552562 0.033945296 0.011706025 -0.01107997
0.040453613 0.022128036 -0.009964332 0.0095157875 -0.011673282 -0.004527805 0.029379832 -0.0024770838
-0.011297977 -0.007040051 0.0005633859 0.015683915 8.397238e-05 0.013051967 0.034534555 -0.005158577
0.012144063 0.010473112 -0.00819683 0.006701622 -0.005942873 0.029765844 -0.00094754895 0.014570984
0.024271032 0.014316145 0.0052728043 0.0029747142 0.012095972 0.015772156 0.013507649 0.012458731
-0.005755132 0.0035880387 0.008749724 0.008516758 -0.0075353975 -0.013256105 0.03210917 0.00997907
0.0019289501 0.010503293 0.010741601 0.014143273 0.0069417837 0.018776163 0.010525426 0.015473674
0.01549155 0.011115099 0.008267355 0.00523221 0.014913896 -0.0013534948 0.01311416 0.021843927
0.012959673 0.00077751675 0.018649166 0.0120845325 0.011666467 -0.004279712 0.012855527 -0.0027136605
0.03986252 0.0182634 -0.013795749 -0.005096908 0.014997883 0.011686536 0.012169639 -0.010397839
-0.018246291 -0.009438075 0.0043119905 0.015522053 0.012177556 0.018259594 0.012285887 0.013751512
00000000: 2030 8d3c 734e 3b3b e762 bf3c 6a6b 03bc
00000010: 7373 d3bc 91f4 bd3a 49cf 8a3c 1126 f339
00000020: b777 523c e48d 423c 1c95 453c cf8f 463c
00000030: 9444 2dbb 355b 793c 05ba ec3b 7dbe 3e3c
00000040: 2c7f 5d3c 3ffb 593b 8ef0 eab9 b006 a939
00000050: 5fd2 793c bf8c 693c b961 1fbc 2807 46bb
00000060: 6050 50bb 8568 c4ba cbf6 413c f424 4bbc
00000070: 5445 9f3c d3a5 ca3c 7741 7f3c 762d f93a
00000080: 8c36 323c b95d 603c 42d9 893c bdfd 53ba
00000090: ffa6 8c3a 9183 7f3a 6db0 003b 424b 383b
000000a0: 588f 31bc 7049 f83b fe8c 493c 104b 8cbb
000000b0: 14bc 573c 3763 8b3c 78aa a83c 8e9f ca3c
000000c0: 16dd a93c cf71 b53b b05b d9bb 5833 91bb
000000d0: 9e73 063d 5f3f 1f3c bdfa c63b e9f3 e3ba
000000e0: 44f6 1a3c 1bf6 0ebc dc92 b13c 3a7c 21bc
000000f0: 574c 14bc 7619 913c 791a c13b 621d 073c
00000100: 856d 1a3d 6eb0 39bb e852 f73c cf07 c73c
00000110: e084 6f3c 4b77 873c df5d 9e3c 482e ce39
00000120: 7084 383a 16e6 f33c 10b6 5c3c 8239 e93a
00000130: 272b a83b 1fd9 3bbc 8f6f c23c 1e22 71bc
00000140: 6ca4 873c 464f e03b 7685 ce3c e8b4 853c
00000150: b5cf 143c 98fe 833c da7e bc3a 8d65 653c
00000160: 0cfa 4f3c 2ffb 473c 263d 613c b875 283c
00000170: 1ad3 c33a b07d 513c 9f36 293b 3278 a43b
00000180: fa85 fcbb 3b1c d53c bcbb f53c eabb 083d
00000190: c876 603b a352 0ebc c211 963c 9bff b93c
000001a0: 3a19 f33c bcae 8b3c 68ec 2d3a 43d0 4bba
000001b0: 94a8 8abb 3633 c83b 035e 263c 0f3e b6bb
000001c0: 39a3 b73c 599d 733c 36a6 903c 8caa d4ba
000001d0: 209b ba3c b3f4 923c f34f de3b 20d5 673c
000001e0: b73e e9bb bfda 573b b536 fa3b ee2e 10bc
000001f0: 5ec1 42bc c95b 4e3c d574 043c 91a7 843c
00000200: e878 fd3b e7b3 9bbc 4975 b13b 0171 f8bb
00000210: c272 993b 8abc f23b 2275 4d3c 7874 8bbb
00000220: 2046 9ebc cbb5 2abc 7808 c13c ef93 c23b
00000230: 29b3 063c 7826 653c 6a39 683b eddc bebb
00000240: e00f 083c 372a 803c 9bec ab3c 8b95 b23c
00000250: 6343 bb3b 962c 13bc 1a6d bf3c a122 b63a
00000260: abcb 583c ce79 d13b fa0a f43a f74d 973c
00000270: b246 e0bb b290 db3c d09b 5e3b d73e 193c
00000280: 8bb4 f33c 57af 943c 33cb 07bc dd73 813c
00000290: 0594 3b3c eade 1c3d ea32 0f3d eae4 7c3c
000002a0: 845c 013c f690 823c 8b30 f63b 6e7e c23c
000002b0: 910b 5e3c 390a 0b3d a1ca 3f3c c388 35bc
000002c0: b0b2 253d db45 b53c 7041 23bc 1be8 1b3c
000002d0: 4b41 3fbc fb5d 94bb f9ad f03c 9256 22bb
000002e0: 261b 39bc 3ab0 e6bb 30b0 133a 8e7b 803c
000002f0: 541a b038 ebd7 553c 1b74 0d3d 4809 a9bb
00000300: e4f7 463c 6a97 2b3c ff4b 06bc 4899 db3b
00000310: 6fbc c2bb 80d7 f33c ef64 78ba 23bb 6e3c
00000320: 0bd4 c63c 448e 6a3c 7dc7 ac3b 6cf3 423b
00000330: 2f2e 463c 9c34 813c 304f 5d3c b51f 4c3c
00000340: 8c95 bcbb 4d25 6b3b 015b 0f3c df89 0b3c
00000350: 7feb f6bb 2230 59bc e884 033d 417f 233c
00000360: d3d4 fc3a 0116 2c3c 8afd 2f3c 30b9 673c
00000370: e777 e33b 78d0 993c d672 2c3c 4b85 7d3c
00000380: 45d0 7d3c 1b1c 363c cd73 073c f572 ab3b
00000390: 6a59 743c c067 b1ba c6dc 563c 09f2 b23c
000003a0: cf54 543c 44d2 4b3a 23c6 983c 34fe 453c
000003b0: b624 3f3c d43c 8cbb fd9f 523c abd7 31bb
000003c0: e246 233d 209d 953c 9107 62bc f703 a7bb
000003d0: aeb9 753c e278 3f3c 2a63 473c b35b 2abc
000003e0: 3f79 95bc 28a2 1abc 994b 8d3b 3650 7e3c
000003f0: 5f84 473c 2595 953c bf4a 493c 064e 613c

network_body._body_endoder.seq_layers.2.weight f4 [256, 256]
0.08543647 0.04254257 -0.075114764 0.07173613 0.0522515 -0.033859022 -0.032449186 0.06330181
-0.12046575 -0.07602024 0.09559538 -0.011778322 -0.013146151 0.015894784 -0.17424966 -0.042765565
0.021655845 -0.029127304 0.051376216 -0.046029076 -0.035047214 -0.00932712 -0.08585457 0.022554243
0.11147646 -0.056114417 -0.016069748 -0.10995704 -0.07782429 -0.0053369384 -0.037656475 -0.06045783
0.043189123 -0.009636572 -0.087127544 0.10127035 0.036974154 -0.072152525 -0.016539576 0.039358873
-0.049690276 0.055860505 0.087535135 -0.04090582 0.02885886 -0.049538907 0.041165628 -0.019246764
-0.07565272 0.051400624 0.043815598 -0.089689404 -0.05009617 -0.08960934 0.006532068 0.014890344
0.025360517 0.07291476 -0.073819354 0.10778752 -0.088310495 -0.019868819 -0.07596374 -0.018935585
-0.10476235 -0.014823548 0.028989948 -0.072746396 -0.045095798 -0.0054595903 -0.009039078 -0.016579133
-0.122528866 -0.06814222 0.02608334 0.0072162813 -0.08033157 -0.008060829 0.027143437 -0.046378702
0.011309746 -0.012702886 0.05357248 -0.04282025 -0.07448931 -0.060943436 0.08365137 0.0054954775
0.05863728 -0.0022424478 0.015495226 0.053669922 -0.08067975 -0.038877428 -0.04149917 0.018303327
0.04340302 0.024572443 -0.09908615 -0.01041356 -0.057184238 -0.07988418 0.031185172 -0.013631391
-0.101138055 0.08784984 -0.031174313 -0.046348814 -0.02893871 -0.0678816 -0.07794962 -0.02964739
-0.008735027 -0.06495186 -0.024045102 0.14869116 -0.015788505 -0.01866558 0.0017590206 0.07480774
-0.023445148 -0.060281567 0.020979764 0.060232893 -0.071989015 -0.07559062 0.03752116 -0.010861679
-0.12541814 -0.09397898 0.049873587 0.10014567 0.110773705 -0.0013423099 0.023908302 -0.0053744568
-0.0113852415 -0.025342686 -0.058508724 0.029175157 -0.0061061555 -0.051405307 -0.030554965 0.039693575
-0.012026478 -0.01779297 -0.004288979 -0.009069542 0.019450627 -0.027180005 -0.018349703 -0.023326064
-0.03669135 -0.025730519 -0.035216253 -0.10672797 0.055687673 0.06660287 -0.08799781 0.07146761
-0.021963304 -0.029481607 -0.0559758 0.028694298 0.09717974 0.101409785 -0.014067459 -0.020673905
0.018931624 0.02135179 -0.07053602 -0.04146288 0.033836152 -0.13773127 0.0047957487 0.05233328
-0.0139445895 -0.06936468 -0.15183043 0.15023649 0.026471077 -0.039678637 -0.10412172 0.050747983
-0.080881804 0.016361762 0.024730425 -0.043134645 -0.06225252 -0.078845136 -0.0466663 0.116744824
0.043610968 -0.06717444 -0.0780545 0.04119678 -0.022068258 0.10273744 -0.030307341 0.06300301
0.028465992 -0.079388924 -0.046822947 0.043529768 -0.055333186 -0.060277574 0.0092283655 -0.13377537
0.072692454 0.07385487 0.05831797 -0.0036674847 0.1362699 -0.09463847 -0.052946355 -0.08443955
-0.06620507 -0.042991277 -0.05235913 0.0028140196 -0.06847652 -0.044316106 0.01873305 0.038801737
-0.0496499 0.05284241 0.10957278 -0.03008229 0.23084542 0.05874178 0.07596628 -0.08506939
-0.02171877 0.029902907 -0.09819483 -0.028500898 -0.02619178 0.042162094 -0.018428216 -0.08393138
0.009024588 0.0065738386 0.019145524 0.020824391 -0.11252817 0.05457982 0.02315706 0.0029778534
0.06747299 -0.05487188 -0.08034911 -0.086278796 0.0284089 -0.07231196 0.048153292 -0.058432985
00000000: 51f9 ae3d 1e41 2e3d c5d5 99bd 64ea 923d
00000010: ab05 563d c2af 0abd 70e9 04bd 61a4 813d
00000020: bfb6 f6bd 80b0 9bbd 83c7 c33d ddf9 40bc
00000030: f462 57bc c735 823c 816e 32be f22a 2fbd
00000040: 9967 b13c 629c eebc de6f 523d fc88 3cbd
00000050: ab8d 0fbd c7d0 18bc 85d4 afbd adc3 b83c
00000060: c54d e43d 3bd8 65bd b4a4 83bc 2831 e1bd
00000070: 5762 9fbd 7ce1 aebb ad3d 1abd a1a2 77bd
00000080: 14e7 303d b6e2 1dbc ed6f b2bd d466 cf3d
00000090: 3672 173d b4c4 93bd 017e 87bc c536 213d
000000a0: 0888 4bbd fccd 643d 9f45 b33d dc8c 27bd
000000b0: 6a69 ec3c 4fe9 4abd 4a9d 283d 64ab 9dbc
000000c0: d0ef 9abd 7689 523d fc77 333d 14af b7bd
000000d0: a431 4dbd 1a85 b7bd f50a d63b a1f6 733c
000000e0: dcc0 cf3c 5554 953d 9a2e 97bd b4bf dc3d
000000f0: 22dc b4bd efc3 a2bc e192 9bbd cd1e 9bbc
00000100: a58d d6bd 77de 72bc 547c ed3c 10fc 94bd
00000110: 5fb6 38bd 5de6 b2bb a418 14bc f6d0 87bc
00000120: 6af0 fabd 268e 8bbd bbac d53c 8e76 ec3b
00000130: e184 a4bd 9111 04bc ea5b de3c 98f7 3dbd
00000140: 834c 393c c41f 50bc d16e 5b3d 4964 2fbd
00000150: da8d 98bd d39f 79bd 6951 ab3d 6813 b43b
00000160: a52d 703d 08f6 12bb b0df 7d3c fed4 5b3d
00000170: 6d3b a5bd f03d 1fbd 09fb 29bd dcf0 953c
00000180: 5dc7 313d 264c c93c aeed cabd a39d 2abc
00000190: 053a 6abd 519a a3bd 0c78 ff3c 3356 5fbc
000001a0: 7821 cfbd 9eea b33d 4661 ffbc 41d8 3dbd
000001b0: e010 edbc 8205 8bbd 0da4 9fbd 15df f2bc
000001c0: 5c1d 0fbc 7b05 85bd 3cfa c4bc 7f42 183e
000001d0: e556 81bc 8fe8 98bc f08e e63a cd34 993d
000001e0: 0a10 c0bc cee9 76bd c1dd ab3c c4b6 763d
000001f0: fa6e 93bd 41cf 9abd caaf 193d 2ff5 31bc
00000200: 9d6d 00be 0d78 c0bd 3f48 4c3d 2c19 cd3d
00000210: 53dd e23d 72f0 afba 58db c33c 361c b0bb
00000220: 2a89 3abc 779b cfbc d8a6 6fbd bd00 ef3c
00000230: 2516 c8bb 5f8e 52bd 684e fabc bb95 223d
00000240: b40a 45bc 90c2 91bc 908a 8cbb 6b98 14bc
00000250: ec56 9f3c 9aa8 debc 1e52 96bc 4d16 bfbc
00000260: ab49 16bd cfc8 d2bc eb3e 10bd 3294 dabd
00000270: c218 643d 1667 883d 3238 b4bd 9c5d 923d
00000280: 63ec b3bc 6983 f1bc e146 65bd 4e10 eb3c
00000290: 2c06 c73d efaf cf3d 337b 66bc 525c a9bc
000002a0: 7e16 9b3c f3e9 ae3c 3075 90bd fbd4 29bd
000002b0: c797 0a3d 6d09 0dbe a825 9d3b 6c5b 563d
000002c0: d977 64bc 120f 8ebd 7079 1bbe 98d7 193e
000002d0: dfd9 d83c 1186 22bd c53d d5bd 1edd 4f3d
000002e0: 5ca5 a5bd 1a09 863c 7697 ca3c f4ad 30bd
000002f0: 80fc 7ebd 8f79 a1bd 2a25 3fbd e917 ef3d
00000300: 6aa1 323d c192 89bd 0adb 9fbd f4bd 283d
00000310: 7ec8 b4bc 0268 d23d 1a47 f8bc b907 813d
00000320: 8331 e93c a996 a2bd 6bc9 3fbd 454c 323d
00000330: 0da5 62bd 9ee5 76bd 9232 173c 69fc 08be
00000340: c8df 943d 3941 973d d3de 6e3d 2f5a 70bb
00000350: 568a 0b3e d0d1 c1bd 47de 58bd a5ee acbd
00000360: 8696 87bd 9f17 30bd 8776 56bd 6a6b 383b
00000370: 6b3d 8cbd ce84 35bd 0e76 993c 92ee 1e3d
00000380: b25d 4bbd 4871 583d b267 e03d 226f f6bc
00000390: be62 6c3e 399b 703d 3694 9b3d dc38 aebd
000003a0: 90eb b1bc f1f6 f43c 5f1a c9bd b77a e9bc
000003b0: 2590 d6bc 29b2 2c3d c5f6 96bc 37e4 abbd
000003c0: dedb 133c 5b69 d73b 13d7 9c3c ea97 aa3c
000003d0: 2b75 e6bd 178f 5f3d e0b3 bd3c 1728 433b
000003e0: 472f 8a3d 56c1 60bd 138e a4bd f0b2 b0bd
000003f0: c8b9 e83c 4b18 94bd 633c 453d 6d57 6fbd

network_body._body_endoder.seq_layers.2.bias f4 [256]
-0.01218215 -0.0016263264 0.007066869 0.005247409 0.012731165 0.013876277 -0.0019164779 0.008864173
-0.007427847 0.007800487 0.013236172 0.011519796 0.016380899 0.001849332 -0.01765782 0.01961524
-0.0029755933 0.008884998 -0.0073199854 0.021445444 0.0073750126 0.00025033276 0.021459427 0.016319744
0.007931135 0.0030778649 0.0148755275 0.007595185 -0.0088512525 0.012861749 0.011528417 0.004337137
-0.017366579 0.005637148 0.0064366483 0.014736598 -0.021549243 -0.019389251 0.015261015 0.012700974
-0.006962881 0.007007455 -0.009402014 0.009998569 0.0069891303 -0.008087337 0.019482164 -0.009348633
0.020682562 0.005235353 0.010818641 -0.01615827 0.012147307 0.015165433 0.006274646 0.009182928
0.012120371 -0.007744618 0.014040283 0.00482844 -0.0007278701 -0.013615484 0.002640483 -0.010387664
-0.0048006964 -0.008100857 0.021307018 0.0038644033 -0.004530702 -0.009662219 0.0019094932 -0.008647506
-0.005487821 0.013319375 0.004850638 -0.01069828 0.023078514 0.0088345995 0.005605746 -0.0108143715
0.013597486 0.000831641 -0.00025150136 -0.01876358 0.00055969367 -0.01073409 0.008416615 0.014168724
0.021644827 0.004966248 0.022837328 -0.006239436 0.020782754 -0.00018218422 -0.011815329 0.0022829028
0.015596673 0.014895809 -0.0066072303 0.016376894 0.000680062 0.007163512 0.007647927 0.0038139203
-0.010667693 -0.002063869 0.005215896 0.014899918 -0.0034834985 0.0037328254 0.0014819293 0.0060518784
-0.008063204 0.003298142 0.002552297 0.0037380732 0.023784924 -0.0030515848 0.024572449 0.0221086
0.0016097805 0.0011443988 0.014745557 0.013202164 0.012209549 -0.004187408 0.012294331 -0.0066850395
0.014569899 0.012925946 0.0049128053 -0.0019334956 0.015811382 -0.004042388 0.015074806 -0.0001747454
-0.0052775955 -0.0023927377 0.008684703 0.014229896 0.01704891 0.0035554345 0.00022089649 -0.018065484
0.0010320949 0.0025645145 0.009758438 0.014046729 0.008695871 0.005645162 -0.013457901 0.011544602
0.00076112826 0.0015722982 0.024245381 -0.0050988835 -0.009835546 0.0125861475 0.012966895 0.0053752023
0.0020652532 -0.0044447663 0.011583237 0.014465618 -0.00517561 0.0100532565 0.018491013 -0.00794852
0.023465717 0.012778692 0.011655293 -0.0020322367 -0.00018652905 -0.008992378 0.0047192397 -0.0072765937
0.005720573 5.681251e-05 0.009394529 -0.004765348 0.002907375 0.0059390585 0.012902539 -0.016915848
0.01877404 0.010767433 0.008359345 0.0065812874 0.006569796 0.02102243 0.018382147 0.03491563
-0.0044788034 0.0027798442 0.014268073 -0.013880721 0.0054171965 0.007666538 0.011816977 0.025131777
0.0018124803 -0.0032249072 0.017894961 0.02070258 0.02240344 0.014870641 -0.008345529 0.013765785
0.007997291 0.010943279 -0.0021992878 -0.019603943 -0.0054617343 0.01607086 -0.0099635 0.0034313349
-0.0033437924 -0.00342313 0.009397603 -0.0037480365 0.014546979 0.0011785896 -0.0064110197 0.015533198
-0.010246307 0.008891429 0.018105451 0.0019805706 0.00514472 -0.010978111 -0.00821743 -0.008395409
0.010808492 0.011495185 0.0013319243 0.01632316 0.003231622 0.008053494 0.013063384 0.008362549
0.014007559 0.02467293 0.0015695471 0.021515105 0.016841246 0.012460043 -0.010768115 -0.012998985
0.01698689 0.015951846 0.015274863 -0.0022074184 0.005247655 0.010378507 -0.00443458 -0.0018698307
00000000: a497 47bc 752a d5ba 3291 e73b 75f2 ab3b
00000010: 6096 503c 5359 633c 5432 fbba 093b 113c
00000020: 4c65 f3bb 3a9b ff3b 87dc 583c 87bd 3c3c
00000030: 3c31 863c 4965 f23a 22a7 90bc 24b0 a03c
00000040: 2c02 43bb 6292 113c 7ddc efbb 5bae af3c
00000050: 17aa f13b 183f 8339 aecb af3c fcb0 853c
00000060: 97f1 013c 01b6 493b 7cb8 733c 08e1 f83b
00000070: d804 11bc 16ba 523c afe1 3c3c 8b1e 8e3b
00000080: 5b44 8ebc d3b7 b83b 85ea d23b c671 713c
00000090: 0a88 b0bc 35d6 9ebc 5609 7a3c bf17 503c
000000a0: e128 e4bb cb9e e53b e80a 1abc 0ad1 233c
000000b0: 1305 e53b c080 04bc 0f99 9f3c 022b 19bc
000000c0: 7a6e a93c 538d ab3b ab40 313c 595e 84bc
000000d0: 8005 473c 7078 783c 8c9b cd3b fe73 163c
000000e0: 8594 463c 91c6 fdbb 3709 663c e437 9e3b
000000f0: 89ce 3eba 7b13 5fbc f40b 2d3b 0531 2abc
00000100: 294f 9dbb 75b9 04bc 0e8c ae3c ee41 7d3b
00000110: 4876 94bb 494e 1ebc f647 fa3a 45ae 0dbc
00000120: 2ed3 b3bb 8239 5a3c 1af2 9e3b d747 2fbc
00000130: 270f bd3c ffbe 103c 68b0 b73b c32e 31bc
00000140: fdc7 5e3c 7c02 5a3a f1db 83b9 14b6 99bc
00000150: 68b8 123a 09de 2fbc d8e5 093c f023 683c
00000160: 7e50 b13c e8bb a23b 5915 bb3c 2f74 ccbb
00000170: 9840 aa3c b408 3fb9 1595 41bc c19c 153b
00000180: 3089 7f3c 8d0d 743c 7781 d8bb d628 863c
00000190: 3046 323a e5bb ea3b 769b fa3b f7f2 793b
000001a0: 8cc7 2ebc fa41 07bb 1bea aa3b c91e 743c
000001b0: 684b 64bb 6ba2 743b 4c3d c23a d64e c63b
000001c0: 871b 04bc a425 583b 7044 273b 76fa 743b
000001d0: 9ad8 c23c 19fd 47bb 294c c93c 181d b53c
000001e0: 45ff d23a a7ff 953a 5997 713c e44d 583c
000001f0: 8f0a 483c 8636 89bb 296e 493c 2d0e dbbb
00000200: 96b6 6e3c 59c7 533c 99fb a03b 596d fdba
00000210: df86 813c 0276 84bb 52fc 763c dc3b 37b9
00000220: aeef acbb 7acf 1cbb 494a 0e3c 8224 693c
00000230: 28aa 8b3c 4b02 693b 73a0 6739 11fe 93bc
00000240: 5c47 873a 6a11 283b dbe1 1f3c 4024 663c
00000250: 2079 0e3c 0dfb b83b 877e 5cbc 9225 3d3c
00000260: 7486 473a 9315 ce3a 409e c63c 8914 a7bb
00000270: 4525 21bc 2136 4e3c 1973 543c 7722 b03b
00000280: 3359 073b 67a5 91bb 9ec7 3d3c 3301 6d3c
00000290: 2a98 a9bb 6ab6 243c 777a 973c 823a 02bc
000002a0: 2d3b c03c b85d 513c d8f5 3e3c 462f 05bb
000002b0: 0397 43b9 c454 13bc daa3 9a3b 7e70 eebb
000002c0: a573 bb3b f849 6e38 83eb 193c a326 9cbb
000002d0: a989 3e3b 6f9c c23b 2c65 533c 1b93 8abc
000002e0: 04cc 993c e369 303c a2f5 083c d7a7 d73b
000002f0: 7147 d73b 3b37 ac3c 2896 963c b103 0f3d
00000300: edc2 92bb 0c2e 363b a3c4 693c f76b 63bc
00000310: bd82 b13b 9537 fb3b fe9b 413c 28e1 cd3c
00000320: bf90 ed3a f758 53bb 7498 923c 7598 a93c
00000330: 6b87 b73c fda3 733c b0bb 08bc e389 613c
00000340: 1207 033c 704b 333c ed21 10bb 7398 a0bc
00000350: 59f8 b2bb 09a7 833c f33d 23bc 3fe0 603b
00000360: 8723 5bbb 9756 60bb 67f8 193c 9ea1 75bb
00000370: 7456 6e3c e87a 9a3a 8813 d2bb f47e 7e3c
00000380: 20e0 27bc 5bad 113c e251 943c 76cc 013b
00000390: 0a95 a83b 89dd 33bc 66a2 06bc e68c 09bc
000003a0: 1a16 313c 4d56 3c3c f793 ae3a 26b8 853c
000003b0: 9fc9 533b cdf2 033c ce07 563c 1303 093c
000003c0: f67f 653c e21e ca3c 43b9 cd3a 7240 b03c
000003d0: a7f6 893c 3525 4c3c bf6c 30bc b2f9 54bc
000003e0: 1728 8b3c 72ad 823c 6b43 7a3c 56aa 10bb
000003f0: 85f4 ab3b 9d0a 2a3c f44f 91bb 1b15 f5ba

action_model._discrete_distribution.branches.0.weight f4 [3, 256]
-0.0028914858 0.007232099 -0.00869837 -0.0056600813 0.00999346 -0.0021998144 -0.0010734492 0.005678611
-0.0033433037 -0.0009420497 -0.007454526 -0.014376031 -0.0003946292 -0.0070018093 -0.019582748 0.01199526
-0.007530842 0.002947932 0.0070661856 -0.009567026 0.008119487 -0.01685907 0.011115097 -0.007224277
0.001968535 0.006226564 0.018093476 0.010731134 -0.016878443 -0.010176573 0.0053092516 0.012598071
0.0033654382 -0.01580371 0.012988125 -0.017745959 -0.030074814 -0.010925553 0.005077511 -0.0042587067
0.0004135202 0.020505074 0.0022635101 0.0034544757 0.0013834074 0.00027413713 0.004431955 -0.002892116
0.0068771443 0.0098515665 0.0072594057 -0.010088281 0.012369475 0.009320582 0.0069937385 0.0008773397
0.0004220903 -0.014827766 0.0066241333 0.0010338249 0.021226082 0.009446195 -0.0011320969 -0.0032209447
0.0022606554 -0.0017214181 0.012058718 0.004395844 0.0032881997 -0.020018753 0.011217909 0.0019662718
-0.0052732225 0.002558676 0.0009745639 -0.023164429 0.012739689 0.00072532997 -0.0040528513 0.0030894915
-0.0013276666 -0.011384978 -0.013445074 -0.015240655 -0.0037950124 0.00096446724 -0.0010936037 0.002465316
0.010202646 0.0029539182 0.0059693563 0.00068168476 0.024578813 0.0113106305 -0.01674722 0.0011605558
0.0056691663 -0.010530964 -0.0016688372 -0.011588671 -0.003389923 0.0032488988 0.0062194476 -0.0054213856
0.0059609027 -0.024186429 -0.0021026086 -0.005535137 -0.02165926 -0.0044388105 0.009031353 0.01552339
-0.009550906 -0.0012960207 0.0045507564 -0.013303683 0.022197708 -0.0015103023 0.017961042 0.015287185
0.01812873 0.0033254141 -0.0018691347 0.0031662707 0.003284025 0.008556025 -0.0031641326 0.0005654843
0.02149048 0.009416581 0.0028525458 -0.0011486289 -0.0027054213 0.018959016 0.0058710086 -0.011606668
-0.009387707 0.0023382013 0.014628105 0.011128481 -0.002689236 0.0013662908 0.0139569 -0.01930778
0.015170051 -0.0020256988 0.007982126 -0.0105152065 -0.0053950413 0.0017190059 -0.0013294674 0.011535059
0.005372857 0.0044194907 0.007129215 0.019012617 -0.02204983 0.0059154276 -0.001696093 -0.0037577187
0.010142568 -0.011337174 -0.0077463654 0.0020913447 -0.0047002863 0.0093436595 0.023196558 0.0046382034
-0.004098037 0.018794307 0.010465035 0.016598435 0.01050859 -0.00090763986 -0.00041487167 0.0064646513
-0.0031107457 0.0031009167 -0.0052760644 -0.0035188813 -0.00050531724 0.0015653966 -0.008573487 -0.010165149
0.0106261475 0.020382551 -0.0049086385 -0.008736921 0.009845241 0.006716335 0.0071434285 0.0053386553
0.0002223075 0.004048393 0.0064931023 -0.014044499 0.0011351837 -0.0009404753 0.0020374977 0.016485205
-0.005360139 -0.006922233 0.0111857345 0.00052690995 0.0020445818 0.008981888 0.005809836 0.006190515
-0.008637166 0.0033144234 7.9746664e-05 -0.0095398985 -0.004280458 -0.010496805 0.0006497726 -0.0017462465
0.008617054 0.009321598 0.006585393 -0.007198587 -0.0043104095 -0.0013272888 0.012043923 0.014916425
-0.013348689 0.005258897 0.010959709 0.0034771585 -0.00768331 -0.00010209674 -0.0043976186 -0.009635221
0.008886177 0.011651802 0.009751919 -0.0018947733 -0.003341945 0.015933443 -0.0003827276 -0.005081058
0.0019997717 -0.0011252922 0.019974232 0.0064585083 0.0013419522 -0.0025648326 0.002423977 0.000976405
-0.0015938601 0.003918155 0.02142065 0.0051609776 -0.005691832 -0.004251139 0.007337581 -0.0057645645
00000000: 157f 3dbb 3efb ec3b 9c83 0ebc 3478 b9bb
00000010: 9cbb 233c c32a 10bb fab2 8cba a413 ba3b
00000020: 541b 5bbb e3f3 76ba 1945 f4bb 7289 6bbc
00000030: 3ce6 ceb9 6f6f e5bb 006c a0bc c487 443c
00000040: 48c5 f6bb 1832 413b 768b e73b 04bf 1cbc
00000050: 9907 053c 081c 8abc 191c 363c a1b9 ecbb
00000060: 8902 013b 3408 cc3b c538 943c a3d1 2f3c
00000070: a944 8abc a4bb 26bc 3bf9 ad3b 2468 4e3c
00000080: af8e 5c3b c876 81bc 25cc 543c f95f 91bc
00000090: 755f f6bc 1701 33bc 4061 a63b 9f8c 8bbb
000000a0: becd d839 42fa a73c 6657 143b 7c64 623b
000000b0: 7353 b53a 10ba 8f39 ef39 913b a889 3dbb
000000c0: ab59 e13b 7768 213c 4fe0 ed3b 5149 25bc
000000d0: 57a9 4a3c 5bb5 183c bb2b e53b 45fd 653a
000000e0: 004c dd39 29f0 72bc 420f d93b 6881 873a
000000f0: 52e2 ad3c 37c4 1a3c de62 94ba 7c16 53bb
00000100: 8127 143b 35a1 e1ba ee91 453c 030b 903b
00000110: d67e 573b 5efe a3bc 52cb 373c 91dc 003b
00000120: ffca acbb 76af 273b e079 7f3a 54c3 bdbc
00000130: 21ba 503c 1224 3e3a c8cd 84bb 1179 4a3b
00000140: 1905 aeba 0f88 3abc ba48 5cbc f1b3 79bc
00000150: beb5 78bb 4dd4 7c3a 4057 8fba 2491 213b
00000160: 0029 273c 8696 413b 979a c33b 17b3 323a
00000170: 8259 c93c 3950 393c 7731 89bc ca1d 983a
00000180: 6ac4 b93b 108a 2cbc e2bc daba 69de 3dbc
00000190: 7829 5ebb 7aeb 543b 82cc cb3b e1a5 b1bb
000001a0: ad53 c33b 9e22 c6bc ebcb 09bb 1860 b5bb
000001b0: c36e b1bc 7173 91bb 3df8 133c d155 7e3c
000001c0: 677b 1cbc 3ddf a9ba 831e 953b b1f7 59bc
000001d0: f8d7 b53c 56f5 c5ba 0923 933c 1a77 7a3c
000001e0: b482 943c 31ef 593b c1fd f4ba 3581 4f3b
000001f0: cc38 573b 922e 0c3c 565d 4fbb 023d 143a
00000200: ce0c b03c 0148 1a3c c7f1 3a3b 978d 96ba
00000210: 704d 31bb f04f 9b3c 9761 c03b e529 3ebc
00000220: e6ce 19bc 823c 193b b8aa 6f3c 3b54 363c
00000230: e53d 30bb 1d15 b33a 7bab 643c 592b 9ebc
00000240: ce8b 783c 96c1 04bb 77c7 023c f947 2cbc
00000250: e3c8 b0bb 4450 e13a 8641 aeba 8bfd 3c3c
00000260: cb0e b03b 60d1 903b 319c e93b 59c0 9b3c
00000270: d8a1 b4bc 34d6 c13b 704f deba 0f44 76bb
00000280: 032d 263c 8ebf 39bc 39d5 fdbb f10e 093b
00000290: dc04 9abb 2616 193c b506 be3c 12fc 973b
000002a0: d348 86bb 85f6 993c 8a75 2b3c 71f9 873c
000002b0: 392c 2c3c aeee 6dba 2283 d9b9 6dd5 d33b
000002c0: a7dd 4bbb c038 4b3b d6e2 acbb 089d 66bb
000002d0: 4477 04ba fe2d cd3a d077 0cbc ba8b 26bc
000002e0: 4b19 2e3c 4ff9 a63c a5d8 a0bb 4d25 0fbc
000002f0: ef4d 213c b414 dc3b 6c13 ea3b e3ef ae3b
00000300: 371b 6939 62a8 843b 17c4 d43b e61a 66bc
00000310: 72ca 943a 3b8a 76ba 8a87 053b fb0b 873c
00000320: 1ba4 afbb e6d3 e2bb 5f44 373c 5420 0a3a
00000330: 64fe 053b c528 133c 7060 be3b ced9 ca3b
00000340: e682 0dbc cc36 593b aa3d a738 3c4d 1cbc
00000350: 1643 8cbb cbfa 2bbc 8055 2a3a 4fe2 e4ba
00000360: 8b2e 0d3c 9eb9 183c 48ca d73b 20e2 ebbb
00000370: 563e 8dbb 6cf8 adba e053 453c 0564 743c
00000380: 76b4 5abc d352 ac3b 5a90 333c 0ae1 633b
00000390: 47c4 fbbb c51c d6b8 e619 90bb 0cdd 1dbc
000003a0: 5497 113c 33e7 3e3c 83c6 1f3c 0b5a f8ba
000003b0: 8804 5bbb da86 823c d4a8 c8b9 017f a6bb
000003c0: 9a0e 033b 8a7e 93ba 00a1 a33c e5a1 d33b
000003d0: 72e4 af3a c016 28bb 96db 1e3b 6ef5 7f3a
000003e0: 12e9 d0ba de63 803b 5c7a af3c 6b1d a93b
000003f0: 8c82 babb 234d 8bbb 1770 f03b ace4 bcbb

action_model._discrete_distribution.branches.0.bias f4 [3]
0.015385261 -0.010588283 -0.00448917
00000000: 7612 7c3c 7a7a 2dbc e319 93bb

action_model._discrete_distribution.branches.1.weight f4 [3, 256]
0.024136102 0.0068798545 -0.014643786 0.014182149 -0.015469264 -0.0064462363 0.0025238844 -0.0024461253
0.00990712 -0.0058959536 -0.005099428 -0.0075270897 0.00915704 -0.017529093 0.02534755 -0.0073520904
0.008425258 -0.0069697723 0.015457191 -0.018164318 -0.0075692493 0.017330285 -0.008603133 -0.015308164
-0.0077321893 -0.0052375183 0.0012480234 -0.00032923147 -0.0028052593 0.0017116626 -0.00035480855 0.00527238
0.0129183605 -0.013201858 0.0045790323 0.009310714 0.0035186687 0.010967568 -0.005552732 0.0024543963
0.006786558 0.012348081 0.013549735 -0.009832197 -0.032478586 0.008556756 -0.0038165732 0.008063985
-0.00863455 -0.0016221916 -0.010831 0.011681436 -0.015753875 -0.004227842 -0.011237863 0.001967334
0.008033997 0.020161144 -0.01819929 -0.0036404927 0.002208249 -0.0069080563 -0.007321123 0.013577511
0.005221963 -0.005162298 -4.3111737e-05 -0.001733392 0.012536775 0.020607207 0.0036544618 0.0049428036
0.002053131 -0.005317081 0.00840086 0.012585697 -0.015804281 -0.007952718 0.0048918994 0.0012080647
-0.012726835 0.001412072 0.003281231 0.013974037 0.006425049 0.0016135153 -0.012563123 -0.0031933931
-0.016518109 0.0064272378 0.0071106297 0.0031741876 -0.011952715 0.004273874 0.012857295 0.0034623747
-0.016115196 -0.0037100897 0.0014352401 -0.003623208 0.0075449324 0.007571376 -0.00029005954 0.0020638849
0.022371873 0.008192681 -0.012367884 -0.010817286 0.011596703 -0.0060652466 0.0004655735 0.009609387
-0.004504616 0.0010808618 0.0040827775 -0.0064936853 -0.019545013 -0.004284847 -0.013697659 0.0047868504
0.012896583 0.0018812906 -0.0038041181 -0.022181887 0.0015651938 -5.1277355e-05 0.0032342242 0.003997921
0.0029387525 0.004977954 0.007353762 -0.0024082253 0.0017733556 0.0023620676 -0.008817281 -0.002388582
-0.007771388 0.010144086 -0.006816489 -0.0079891505 -0.008623219 0.0058998885 0.000998771 0.015444026
0.0047961217 -0.0048683016 -0.0049646427 -0.0031889556 -0.016049357 0.00021281616 0.01865781 -0.011459735
-0.0024215858 0.004582584 0.0004022629 0.008142087 -0.009510866 -0.0008408125 -0.01927087 -0.0027265295
-0.0030528149 0.017370813 0.008410411 -0.011510723 -0.0020628867 -0.009106256 -0.011976525 -0.009863849
-0.006455654 -0.0029280758 0.00082017115 0.00039205782 0.0062550176 0.006323789 0.007190382 0.024610277
0.0044301036 0.0082149245 -0.01975012 0.01120386 0.014203385 -0.011412252 -0.0041797026 0.011271966
-0.0031017612 0.004580058 -0.00684477 0.004995449 0.0073835216 -0.025595605 -0.008578339 -0.012279484
-0.007997801 -0.0021187125 0.00470404 0.020970192 -0.004275373 0.001492049 -0.005237906 -0.012190784
-0.010876549 -0.0030796302 0.004755768 -0.0029044533 0.0074691754 -0.025461987 0.0007864395 -0.0007774152
-0.0015856187 0.022592189 0.008407497 0.016970992 0.010993318 -0.014611062 0.0045900987 0.0012718008
0.019791765 -0.008720628 -0.003995917 0.017624767 -0.0050421483 -0.0046010083 0.007018858 -0.014041305
-0.01600781 -0.0135503905 -0.0079823425 -0.005885312 -0.006178612 0.0055798613 0.0026929718 0.0016037922
-0.015296122 -0.015779166 -0.0015531344 -0.0076671843 6.196038e-05 -0.0046795337 0.0019562119 -0.02061493
0.009087313 -0.009560728 -0.0062774667 -0.0036869973 -0.031204918 -0.0017193075 -0.00067608035 0.018321438
-0.0060027074 0.010679314 -0.006978653 -0.006479688 -0.008784954 0.00017292381 0.011641832 0.015561687
00000000: 13b9 c53c 6770 e13b 7dec 6fbc 3f5c 683c
00000010: cc72 7dbc f33a d3bb c167 253b 2c4f 20bb
00000020: 7951 223c d832 c1bb 1a19 a7bb cea5 f6bb
00000030: 6907 163c 2c99 8fbc aaa5 cf3c cee9 f0bb
00000040: 180a 0a3c b062 e4bb 2840 7d3c 56cd 94bc
00000050: 7707 f8bb 3ef8 8d3c 28f4 0cbc 18cf 7abc
00000060: 4e5e fdbb 7d9f abbb b794 a33a b39c acb9
00000070: 71d8 37bb de59 e03a 9905 bab9 eec3 ac3b
00000080: 88a7 533c 9b4c 58bc b50b 963b f78b 183c
00000090: 7799 663b 50b1 333c b1f3 b5bb f0d9 203b
000000a0: c661 de3b 9b4f 4a3c b5ff 5d3c 3917 21bc
000000b0: 4408 05bd a331 0c3c 791f 7abb ce1e 043c
000000c0: ed77 0dbc b89f d4ba 8274 31bc 7e63 3f3c
000000d0: 450e 81bc b689 8abb 041f 38bc 63ee 003b
000000e0: 07a1 033c fc28 a53c ad16 95bc 5595 6ebb
000000f0: 45b8 103b fa5c e2bb 08e6 efbb 3574 5e3c
00000100: 001d ab3b 7f28 a9bb e0d2 34b8 fc32 e3ba
00000110: 0c67 4d3c 72d0 a83c b27f 6f3b 3ef7 a13b
00000120: d28d 063b e93a aebb c3a3 093c 3d34 4e3c
00000130: fb77 81bc 1e4c 02bc 3a4c a03b ed57 9e3a
00000140: 3784 50bc 4615 b93a ec09 573b 5cf3 643c
00000150: 3889 d23b 977c d33a 8fd5 4dbc 3f48 51bb
00000160: fc50 87bc 949b d23b 4900 e93b 0806 503b
00000170: 52d5 43bc db0b 8c3b 67a7 523c 02e9 623b
00000180: 0404 84bc fa24 73bb ab1e bc3a 5873 6dbb
00000190: 7b3b f73b 4e19 f83b 2213 98b9 3e42 073b
000001a0: 3845 b73c 983a 063c aaa2 4abc fc3a 31bc
000001b0: 1900 3e3c fabe c6bb 3818 f439 b170 1d3c
000001c0: 759b 93bb b4ab 8d3a d2c8 853b fbc8 d4bb
000001d0: dd1c a0bc e767 8cbb 256c 60bc 03db 9c3b
000001e0: 314c 533c a395 f63a 834e 79bb cab6 b5bc
000001f0: 3027 cd3a a412 57b8 47f5 533b fe00 833b
00000200: 1698 403b 1b1e a33b d4f7 f03b 51d3 1dbb
00000210: f16f e83a ebcc 1a3b 5b76 10bc c289 1cbb
00000220: 21a7 febb 6133 263c db5c dfbb ede4 02bc
00000230: 6748 0dbc da53 c13b 32e9 823a f108 7d3c
00000240: c928 9d3b 4686 9fbb 71ae a2bb ccfd 50bb
00000250: f179 83bc 6727 5f39 43d8 983c 9dc1 3bbc
00000260: 78b3 1ebb 8029 963b d0e6 d239 6366 053c
00000270: 77d3 1bbc f969 5cba f2dd 9dbc 93af 32bb
00000280: bc11 48bb 3c4d 8e3c d2cb 093c 7997 3cbc
00000290: 7f31 07bb 6832 15bc 3039 44bc fb9b 21bc
000002a0: f389 d3bb f6e4 3fbb c100 573a 1c8d cd39
000002b0: e4f6 cc3b c937 cf3b 4c9d eb3b 7e9b c93c
000002c0: 672a 913b e497 063c 01cb a1bc 6590 373c
000002d0: 51b5 683c 74fa 3abc e3f5 88bb 0dae 383c
000002e0: eb46 4bbb 5014 963b 184a e0bb ddb0 a33b
000002f0: 78f1 f13b e0ad d1bc 298c 0cbc e42f 49bc
00000300: 3509 03bc 19da 0abb 5924 9a3b aec9 ab3c
00000310: 6e18 8cbb db90 c33a bda2 abbb dbbb 47bc
00000320: 8e33 32bc 9fd3 49bb 46d6 9b3b a458 3ebb
00000330: fcbf f43b a895 d0bc 1029 4e3a 73cb 4bba
00000340: 89d4 cfba 4113 b93c 99bf 093c c006 8b3c
00000350: 511d 343c 3c63 6fbc 8a68 963b 8eb2 a63a
00000360: 5722 a23c f7e0 0ebc 2ef0 82bb d161 903c
00000370: 9b38 a5bb 0ec4 96bb 73fe e53b 800d 66bc
00000380: d022 83bc 7502 5ebc 5fc8 02bc 93d9 c0bb
00000390: f475 cabb 45d7 b63b 927c 303b 5636 d23a
000003a0: 969c 7abc 4f43 81bc 8b92 cbba 013d fbbb
000003b0: baf0 8138 c656 99bb ca33 003b a4e0 a8bc
000003c0: f4e2 143c 9aa4 1cbc 35b3 cdbb 8da1 71bb
000003d0: 75a1 ffbc 635a e1ba fc3a 31ba d716 963c
000003e0: 5cb2 c4bb 4af8 2e3c 2fad e4bb 9053 d4bb
000003f0: c5ee 0fbc e252 3539 62bd 3e3c 72f6 7e3c

action_model._discrete_distribution.branches.1.bias f4 [3]
-0.012024667 0.0074424623 0.002196816
00000000: 1c03 45bc e6df f33b 75f8 0f3b

action_model._discrete_distribution.branches.2.weight f4 [3, 256]
0.015156877 0.015997494 -0.0026533925 -0.0019575001 -0.015115018 0.001548769 0.0023190805 0.011538089
-0.013114237 0.0025752585 0.0027698248 -0.005120642 -0.0012321011 -0.002692578 0.008750869 -0.013155978
0.0068672597 -0.0075143245 -0.003651228 -0.0044504437 0.01216504 -0.0031543865 0.011934945 -0.014500628
0.00985339 -0.002626303 -0.003343797 -0.009261815 0.011834343 0.0071243676 -0.010894363 -0.009871306
0.0008278447 0.006411679 0.0130676925 5.3705095e-05 0.0066903452 0.007916322 -0.005167319 0.00827211
-0.0010582618 0.006910144 0.0045657908 0.0038976464 -0.009356805 0.0034786924 0.008261461 0.0029262106
0.0021751157 -0.013815772 0.0024993483 0.00122896 -0.00275768 -0.0069381795 0.0014612229 0.006015758
-0.010359211 0.0040744017 -0.019072812 -0.0068995305 -0.004079149 -0.00397501 -0.0012134708 0.013614701
-0.008123208 0.002765933 -0.005878734 -0.0147103 0.002368769 0.021701474 -0.002045407 0.0037517778
-0.006242222 -0.000719424 -0.0018437727 0.0025931802 -0.0023702579 -0.012723789 -0.008852581 -0.006339837
0.0013525895 -0.017763129 0.023121655 0.008295703 0.012178445 -0.0012122878 -0.0037393055 -0.015904233
-0.008670137 -0.0074946047 -0.0032394172 -0.017244762 -3.1621414e-05 0.0010583727 -0.0036383523 0.0011053127
-0.003657726 0.009104913 0.019059338 -0.006182731 -0.0020321426 -0.014819844 0.006448271 -0.019940065
0.008422076 -0.012337278 0.011389925 -0.012570463 0.022143183 0.012703627 -0.009188848 0.016537728
0.007731388 -0.010147003 -0.0087034255 -4.565643e-06 -0.011960082 -0.002863374 -0.010150507 -0.002740368
0.003521788 -0.0064862906 6.6017965e-05 -0.0225408 0.010028544 8.730031e-05 0.0021049571 0.0012214713
-0.0024008595 0.0139852585 0.0007792903 0.011500564 0.0033773326 -0.0062626866 -0.0068156924 -0.008624091
-0.003111059 -0.00032577393 -0.008996778 -0.019788217 0.004620049 -0.0018106425 -0.0007550713 -0.0016474348
0.0007393655 -0.0056962725 -0.0028500967 -0.0051115686 0.019243719 0.00035748153 -0.0010187167 0.005293441
-0.008798406 -0.0034953183 0.008010741 -0.0022420317 0.0071142474 0.00034394758 -0.005819627 -0.018405348
0.00037723256 -0.009384761 -0.0055283234 -0.0025944298 0.010495281 -0.016844325 -0.011715272 0.012009925
-0.01642002 0.0040713004 -0.005622314 0.01573345 0.0034302503 0.0013922132 0.005115404 -0.0013890621
-0.0013513742 -0.012829095 -0.020213401 -0.0012617382 -0.008664385 -0.005596616 0.0017856692 0.0124332635
-0.0015786734 -0.012069291 -0.016887182 0.011460434 -0.00394598 -0.012780749 0.00085586036 0.0027660034
0.0117342025 -0.02458136 0.0043381923 -0.0028908849 0.0029212714 0.0010156168 0.003852288 -0.0062647616
-0.009086162 -0.0051986137 0.005507916 0.014137207 0.008725492 -0.013078283 0.010630655 -0.008529663
0.00077641424 -0.008848706 -0.011192037 0.0018037779 0.014956025 -0.005291276 0.007689309 0.022535404
0.014334782 0.0031999152 -0.00031413423 -0.0005731463 0.0047960794 0.00048516836 0.010341465 0.0052461643
0.0039246813 0.0011782713 0.003681774 0.00042321938 -0.006534423 -0.0008530372 0.0032996687 -0.01288517
0.004106103 -0.008590089 0.0009765258 0.028943362 -0.0119964825 -0.007936454 -0.013822006 -0.011741874
-0.0021274732 -0.0044332687 0.0063417074 0.0019454639 -0.005191615 -0.0042225476 0.0006724787 0.0140577685
-0.01482743 0.007649435 0.002395144 -0.0027265628 -0.0050688195 -0.0133443475 -0.010445399 -0.013591574
00000000: 8d54 783c 2d0d 833c 8ae4 2dbb 6749 00bb
00000010: fba4 77bc 1000 cb3a b7fb 173b 410a 3d3c
00000020: 19dd 56bc abc5 283b f385 353b 0fcb a7bb
00000030: 747e a1ba f675 30bb ce5f 0f3c 2c8c 57bc
00000040: c006 e13b b93a f6bb 7149 6fbb 07d5 91bb
00000050: e04f 473c d3b9 4ebb ca8a 433c 0b94 6dbc
00000060: 1d70 213c 0d1e 2cbb 9b23 5bbb debe 17bc
00000070: d5e4 413c 8773 e93b 457e 32bc 42bb 21bc
00000080: b803 593a 1019 d23b e019 563c 6841 6138
00000090: af3a db3b 76b3 013c 9d52 a9bb be87 073c
000000a0: 60b5 8aba 7d6e e23b a19c 953b a86f 7f3b
000000b0: 494d 19bc c6fa 633b 145b 073c abc5 3f3b
000000c0: 638c 0e3b 8c5b 62bc 1bcc 233b 0e15 a13a
000000d0: 31ba 34bb ab59 e3bb 8186 bf3a d61f c53b
000000e0: aeb9 29bc 8f82 853b 963e 9cbc 7515 e2bb
000000f0: 62aa 85bb cd40 82bb 530d 9fba 3210 5f3c
00000100: 3417 05bc a844 353b 65a2 c0bb 7803 71bc
00000110: 593d 1b3b 4ac7 b13c 3c0c 06bb 63e0 753b
00000120: 8e8b ccbb ba97 3cba bfaa f1ba 58f2 293b
00000130: 5456 1bbb 7077 50bc 6a0a 11bc 68be cfbb
00000140: 5f49 b13a fb83 91bc a069 bd3c b3ea 073c
00000150: 1a88 473c a1e5 9eba 230f 75bb 9849 82bc
00000160: 310d 0ebc 4d95 f5bb 674c 54bb e344 8dbc
00000170: 3ca1 04b8 18b9 8a3a 6c71 6ebb 24e0 903a
00000180: 76b6 6fbb c62c 153c 5422 9c3c 8298 cabb
00000190: b22d 05bb eece 72bc 054c d33b 5959 a3bc
000001a0: bffc 093c 4b22 4abc cf9c 3a3c 58f4 4dbc
000001b0: 9f65 b53c e022 503c d28c 16bc 217a 873c
000001c0: 9557 fd3b 9e3f 26bc d098 0ebc 9332 99b6
000001d0: 38f4 43bc 72a7 3bbb 504e 26bc bf97 33bb
000001e0: cccd 663b f38a d4bb 2073 8a38 7ca7 b8bc
000001f0: c34e 243c ff14 b738 52f3 093b c719 a03a
00000200: bd57 1dbb 6d22 653c 4949 4c3a dd6c 3c3c
00000210: 3d56 5d3b 3937 cdbb 2c56 dfbb 0f4c 0dbc
00000220: e9e2 4bbb a3cc aab9 3967 13bc e61a a2bc
00000230: c863 973b 1553 edba faef 45ba bdee d7ba
00000240: fbd1 413a cca7 babb b0c8 3abb f27e a7bb
00000250: 01a5 9d3c 5c6c bb39 7686 85ba 9a74 ad3b
00000260: 3127 10bc b611 65bb 7c3f 033c 0def 12bb
00000270: a21e e93b dd53 b439 92b2 bebb d0c6 96bc
00000280: 4cc7 c539 8ac2 19bc f026 b5bb 4f07 2abb
00000290: 66f4 2b3c 1cfd 89bc 6af1 3fbc 47c5 443c
000002a0: 4783 86bc 8b68 853b 633b b8bb 70e3 803c
000002b0: 0dce 603b ec7a b63a 1e9f a73b 3111 b6ba
000002c0: 9820 b1ba 2031 52bc 9396 a5bc e960 a5ba
000002d0: 11f5 0dbc d163 b7bb 1e0d ea3a e3b4 4b3c
000002e0: 7deb ceba 47be 45bc fd56 8abc 8bc4 3b3c
000002f0: 484d 81bb 5966 51bc d15b 603a d645 353b
00000300: d040 403c d95e c9bc 6527 8e3b 0075 3dbb
00000310: cd72 3f3b 721e 853a ab76 7c3b a148 cdbb
00000320: 20de 14bc 2259 aabb c07b b43b be9f 673c
00000330: 5ef5 0e3c 4b46 56bc 332c 2e3c 00c0 0bbc
00000340: 4788 4b3a 2afa 10bc ce5e 37bc be6c ec3a
00000350: 1e0a 753c 7162 adbb 99f6 fb3b 2b9c b83c
00000360: 6fdc 6a3c abb5 513b 62b2 a4b9 323f 16ba
00000370: 6e28 9d3b 325e fe39 3f6f 293c 04e8 ab3b
00000380: 9d9a 803b 3970 9a3a eb49 713b 8be3 dd39
00000390: b71e d6bb 5c9e 5fba 413f 583b 521c 53bc
000003a0: 7d8c 863b 72bd 0cbc 89fd 7f3a a11a ed3c
000003b0: e58c 44bc e707 02bc b275 62bc fd60 40bc
000003c0: 146d 0bbb f444 91bb 19ce cf3b f0fe fe3a
000003d0: 6c1e aabb 4c5d 8abb 4849 303a 8e52 663c
000003e0: c0ee 72bc 1da8 fa3b d9f7 1c3b 22b0 32bb
000003f0: 5718 a6bb 40a2 5abc 2e23 2bbc 31af 5ebc

action_model._discrete_distribution.branches.2.bias f4 [3]
-0.0029694482 0.007266026 -0.0025693434
00000000: 139b 42bb d817 ee3b 6e62 28bb
