ML-Agents/backup/results/v3.0.0-remove-last-hitter-check/Volleyball/Volleyball-6999974.onnx (onnx, 330108 bytes, 15 tensors)

discrete_action_output_shape f4 [1, 4]
3.0 3.0 3.0 2.0
00000000: 0000 4040 0000 4040 0000 4040 0000 0040

network_body.observation_encoder.processors.0.normalizer.running_mean f4 [48]
-0.19464503 -0.021241631 0.41493407 0.66610795 11.789236 -2.8754587 -1.9658464e-06 1.809799e-06
25.052704 1.6430038 -20.911804 -0.016638352 0.16713724 0.9279969 0.0 -0.17840436
0.0 0.81339335 24.83714 1.6636441 -20.916803 -0.11048135 0.15646495 1.0849842
0.0 -0.20910193 0.0 0.73323953 25.328552 1.6435658 -39.379677 0.1460282
0.17014179 -1.0176665 0.0 -0.18087876 0.0 0.7809818 25.464474 1.6717936
-39.501747 0.13068515 0.17346694 -1.0811963 0.0 -0.22151056 0.0 0.77413046
00000000: 0751 47be ee02 aebc 3d72 d43e 0d86 2a3f
00000010: b6a0 3c41 8407 38c0 fcec 03b6 38e8 f235
00000020: f06b c841 f34d d23f 604b a7c1 274d 88bc
00000030: 0626 2b3e 3491 6d3f 0000 0000 a2af 36be
00000040: 0000 0000 8c3a 503f 76b2 c641 4af2 d43f
00000050: 9d55 a7c1 0c44 e2bd 5938 203e c3e0 8a3f
00000060: 0000 0000 d11e 56be 0000 0000 96b5 3b3f
00000070: e0a0 ca41 5d60 d23f ca84 1dc2 6b88 153e
00000080: a639 2e3e e542 82bf 0000 0000 4838 39be
00000090: 0000 0000 6cee 473f 3eb7 cb41 55fd d53f
000000a0: ca01 1ec2 54d2 053e 51a1 313e a464 8abf
000000b0: 0000 0000 aad3 62be 0000 0000 6a2d 463f

network_body._body_endoder.seq_layers.0.weight f4 [256, 48]
0.030655934 -0.049783792 -0.25341865 -0.13393351 -0.06995341 -0.2653629 0.13357912 -0.053555753
-0.023065055 -0.28307754 -0.028356127 0.15109475 -0.04035503 -0.10496022 0.05183114 -0.20918368
-0.09575757 0.3452667 -0.07589818 -0.07680526 0.10607258 -0.1723146 0.07754925 -0.25120178
0.021041 -0.10192231 0.07803305 0.29014596 0.010957669 -0.121447444 -0.124922894 0.02297839
0.00073027436 -0.014571424 -0.14128621 -0.060613714 -0.19177236 0.2590782 -0.2916177 -0.17383674
-0.18530928 0.104406275 0.0133242 -0.054325502 0.06567159 0.08723889 0.016245706 -0.13427493
0.022785533 -0.14362821 0.40436754 -0.19032739 -0.28236976 -0.12913688 0.24391407 0.073510244
-0.034215916 0.14119743 -0.012628199 0.13200003 0.047145512 0.107063666 0.16721109 -0.09262585
0.1399716 0.042209215 -0.22026896 0.06450732 -0.17347476 0.033720367 -0.096250765 0.143621
-0.16031194 -0.18970552 -0.070507616 -0.0075005717 -0.18830863 -0.5788902 0.045853104 0.19493876
0.08269641 0.12502046 -0.043567065 0.016554777 -0.0019519376 0.08836488 -0.12585005 -0.049276657
-0.07023009 -0.26327404 0.31704786 0.071964525 -0.039142925 -0.10403633 -0.23918167 0.07617698
-0.26271328 0.12776342 -0.2632688 0.14759912 -0.4109775 0.1782736 0.0353622 -0.17661253
0.11858616 0.047065444 0.34068742 -0.19022308 0.0027289842 0.14785 0.088223614 0.22518961
0.21146038 0.23813073 -0.12180245 -0.07604254 -0.19455647 -0.31108674 -0.3699904 0.081029914
-0.15872373 -0.20146815 -0.11514577 0.07382367 -0.04015735 -0.20465416 0.09448922 0.032205284
0.047600795 0.120453306 0.15705858 -0.19346073 0.20204198 0.20996079 -0.01871116 -0.067079276
0.032683562 -0.16929348 0.14169165 -0.26503628 -0.2064287 -0.07135158 0.07250586 0.24823843
-0.26421213 -0.017488966 -0.15212429 0.036356837 0.0679865 0.21531704 -0.5716911 -0.23653178
-0.10990692 0.57253873 -0.26396582 -0.34319884 0.13733226 -0.08749723 -0.043122176 -0.019094702
-0.010210873 -0.08616167 -0.29296076 0.034525115 -0.22193056 0.018472556 0.04026091 -0.13426667
0.014052448 -0.08646943 0.044173636 0.20989524 -0.23175298 0.42192486 0.10038942 0.02414064
0.016909407 -0.07359835 0.027701288 0.07394231 -0.045684844 -0.12685151 0.040740125 0.1803011
0.16965432 0.0905145 0.18409763 0.10228553 0.2594738 -0.066752374 0.15752596 -0.30058974
0.19335914 -0.066779725 -0.18569475 0.018897342 -0.055462983 0.119258866 0.12938598 -0.08640056
0.2333191 0.13841592 0.28948408 -0.10545693 0.018212458 0.14896843 0.1650735 -0.18841825
-0.027768657 0.16006015 -0.03776177 -0.07034574 0.142549 -0.051977947 -0.2748035 -0.0874962
0.019530056 -0.17116086 0.083831444 -0.008512261 0.1658034 0.035274938 -0.19603057 -0.03848017
0.033017866 -0.14242943 -0.05104357 -0.18589196 -0.054005373 0.10679972 -0.19314276 -0.0846182
0.13322698 -0.21207234 0.37339473 -0.008665514 0.11633665 0.3282216 0.098102935 -0.1028565
-0.28093597 0.27827305 0.24517833 -0.024582615 -0.23287131 -0.3536605 0.07697567 -0.25250965
-0.1503991 0.18288234 -0.11638878 0.10940241 0.24423757 -0.10002319 0.13435487 0.031585876
00000000: 2722 fb3c 17ea 4bbd 17c0 81be de25 09be
00000010: bc43 8fbd a5dd 87be f7c8 083e 475d 5bbd
00000020: edf2 bcbc 8aef 90be 1c4b e8bc 95b8 1a3e
00000030: 514b 25bd 62f5 d6bd e44c 543d 3f34 56be
00000040: 8b1c c4bd ccc6 b03e 8170 9bbd 134c 9dbd
00000050: 953c d93d 3d73 30be 24d2 9e3d 859d 80be
00000060: 2d5e ac3c a5bc d0bd cbcf 9f3d 038e 943e
00000070: cb87 333c 70b9 f8bd 93d7 ffbd 2d3d bc3c
00000080: e26f 3f3a fbbc 6ebc 55ad 10be 1646 78bd
00000090: f95f 44be e6a5 843e ea4e 95be 4202 32be
000000a0: b7c1 3dbe f5d2 d53d bf4d 5a3c 6b84 5ebd
000000b0: d47e 863d 4eaa b23d b715 853c 5e7f 09be
000000c0: baa8 ba3c 4613 13be 4309 cf3e 2fe5 42be
000000d0: c592 90be 753c 04be 9cc4 793e 8a8c 963d
000000e0: fd25 0cbd 0f96 103e 81e6 4ebc 042b 073e
000000f0: a71b 413d 3244 db3d 6239 2b3e 9fb2 bdbd
00000100: b754 0f3e 92e3 2c3d 308e 61be 6a1c 843d
00000110: 5ea3 31be 5e1e 0a3d 1f1f c5bd 6211 133e
00000120: d028 24be 2a42 42be 4c66 90bd 5bc7 f5bb
00000130: fad3 40be 2632 14bf 77d0 3b3d 079e 473e
00000140: bc5c a93d 5d05 003e 6173 32bd e29d 873c
00000150: 28d8 ffba a5f8 b43d d6de 00be 52d6 49bd
00000160: cbd4 8fbd dbcb 86be 1954 a23e 2362 933d
00000170: 5554 20bd 0011 d5bd 0aec 74be ad02 9c3d
00000180: 5b82 86be 6ad4 023e 2bcb 86be 3924 173e
00000190: a56b d2be 5b8d 363e f4d7 103d ead9 34be
000001a0: 4ddd f23d b2c7 403d 956e ae3e d7c9 42be
000001b0: c2d8 323b fe65 173e 95ae b43d 1b98 663e
000001c0: 1289 583e 8bd8 733e 9073 f9bd 31bc 9bbd
000001d0: d039 47be c346 9fbe 626f bdbe 03f3 a53d
000001e0: 7988 22be ab4d 4ebe 8cd1 ebbd dd30 973d
000001f0: 097c 24bd dc90 51be 9083 c13d b0e9 033d
00000200: 0df9 423d 39b0 f63d f7d3 203e 921a 46be
00000210: 18e4 4e3e f6ff 563e 2648 99bc dc60 89bd
00000220: 33df 053d 455b 2dbe 9e17 113e d6b2 87be
00000230: 0c62 53be c720 92bd f47d 943d 3732 7e3e
00000240: d046 87be 0545 8fbc 78c6 1bbe e8ea 143d
00000250: 823c 8b3d 127c 5c3e 595a 12bf 6335 72be
00000260: e116 e1bd e691 123f 8726 87be c2b7 afbe
00000270: d4a0 0c3e bf31 b3bd e1a0 30bd 7e6c 9cbc
00000280: 814b 27bc 8875 b0bd f4fe 95be 356a 0d3d
00000290: c441 63be c253 973c a0e8 243d 347d 09be
000002a0: 3d3c 663c e216 b1bd 6aef 343d c7ee 563e
000002b0: a750 6dbe 8906 d83e f898 cd3d 97c2 c53c
000002c0: 9985 8a3c bbba 96bd d0ed e23c 116f 973d
000002d0: 0820 3bbd 5de5 01be 1edf 263d daa0 383e
000002e0: ddb9 2d3e ab5f b93d 1784 3c3e 137b d13d
000002f0: c0d9 843e 78b5 88bd 7c4e 213e e6e6 99be
00000300: f0ff 453e cfc3 88bd c426 3ebe 99ce 9a3c
00000310: 272d 63bd fe3d f43d c27d 043e c7f2 b0bd
00000320: 34eb 6e3e e7bc 0d3e 4237 943e cef9 d7bd
00000330: 4b32 953c 2e8b 183e 0709 293e b7f0 40be
00000340: 187b e3bc cfe6 233e 16ac 1abd 6d11 90bd
00000350: 5df8 113e d4e6 54bd 0bb3 8cbe 3531 b3bd
00000360: 7ffd 9f3c cb44 2fbe d2af ab3d 0377 0bbc
00000370: 5ec8 293e 747c 103d 3dbc 48be 629d 1dbd
00000380: be3d 073d 05d9 11be 1013 51bd 765a 3ebe
00000390: bd34 5dbd d0b9 da3d 37c7 45be 4f4c adbd
000003a0: a76c 083e 7e29 59be 982d bf3e cdf9 0dbc
000003b0: e941 ee3d a90c a83e 31ea c83d 6ea6 d2bd
000003c0: d7d6 8fbe ce79 8e3e 0710 7b3e 7b61 c9bc
000003d0: d175 6ebe fd12 b5be 6ca5 9d3d f248 81be
000003e0: 3902 1abe 8245 3b3e 3e5d eebd 5f0e e03d
000003f0: 6a19 7a3e f5d8 ccbd 5394 093e 3160 013d

network_body._body_endoder.seq_layers.0.bias f4 [256]
0.06926072 0.024883414 0.06109262 0.06752469 0.0037114006 -0.013728914 0.0006622093 0.026341679
-0.007991758 0.14870778 0.0057153665 0.051082432 0.025698334 0.02650805 0.052786037 0.07567284
0.0654015 0.09535789 0.09593455 -0.0076976083 0.08616707 0.051184308 -0.02738481 0.03666859
0.018591983 0.073069885 0.05467854 0.02904317 0.06725885 0.0034772323 0.037779383 0.04922573
0.038502447 0.019644782 0.021521633 0.07166651 0.07587266 0.0914736 0.0362728 0.056957982
0.048790395 0.09183782 0.01005357 0.0016652668 0.07586971 0.11519471 0.010223286 0.08972037
0.11590089 -0.0073333043 0.039878674 0.036341082 0.05617609 -0.015135683 0.05719264 -0.011096741
0.02916527 0.027168829 0.018232634 0.08978143 0.08976694 0.052603226 0.1268023 0.056470986
0.019838931 0.050001577 0.014311715 0.124004446 0.065735295 0.077889636 0.04721149 0.049470194
0.0054989853 0.07834563 0.1147475 0.081308134 -0.02138872 0.01064665 0.017174853 0.021164678
0.06073052 0.038784698 0.05077956 0.002060078 0.06368801 -0.041068275 0.015698034 0.075652264
0.06610313 0.08054725 0.058235228 0.0013413952 0.019472767 0.024939492 0.09107039 -0.023257177
0.042415153 0.1121257 -0.0125684785 -0.0028418808 0.034242094 0.0097657 0.009605189 0.039589807
0.036712203 0.031248476 0.0032053057 0.022433838 0.020821266 -0.001476102 0.09821289 0.028956544
-0.048466384 0.008825774 0.04100547 0.050680976 -0.071606144 -0.008174612 0.1128532 0.0628812
0.19178233 -0.00026978846 0.06776361 -0.0058699115 0.027957596 0.114207394 0.029851675 0.060675614
0.042790666 0.06129704 0.07623155 0.014620761 0.031851415 0.11842171 -0.012797988 0.005538173
0.09042926 0.051631313 -0.00080596376 0.0660935 0.04205256 0.03871574 0.036506206 0.03653857
0.019107815 -0.003407678 0.03408141 0.027548997 0.017325902 0.062006168 -0.0012677597 -0.0206854
0.026367005 0.10181815 0.012099992 0.07858643 0.015835563 -0.01724445 0.014537379 -0.004586842
0.020449903 0.06919292 0.0065080402 0.059926696 0.088142425 -8.4736515e-05 0.06813947 0.020466799
0.05424384 0.012242134 0.07376594 0.008242545 0.006524091 0.044189647 0.119554564 0.07791651
0.030234393 0.039607204 -6.825955e-05 -0.004603926 0.054125965 0.041725613 -0.012870475 0.04620117
0.1112562 0.0033766504 0.013932895 0.021681597 -0.01147973 0.050439678 0.01075084 -0.005465124
0.045260873 0.037431818 0.17317043 0.0063898666 0.07708173 0.09344111 0.1681255 0.032762926
0.16020796 0.04582767 0.042362895 0.033775788 -0.018012289 0.037310433 0.02546159 0.015018179
0.007042719 0.12180479 0.10307008 0.1033864 0.060784698 0.037405625 0.05880609 0.052680586
0.117817916 0.08242716 0.018851127 -0.005408995 0.060932573 -0.0034935842 0.09890295 0.00914965
0.03357646 0.043964487 0.013997343 -0.00714423 0.010423283 0.031711534 0.015317323 0.012403037
0.081988715 0.0720835 0.016059525 0.019662661 0.072337136 0.11113577 0.066407375 0.051092315
-0.021745447 0.10116145 -0.011266414 0.08842446 0.012512321 0.012227544 0.06888204 -0.016191632
0.04702334 0.0046184217 -0.01129847 0.039973717 0.047884643 -0.0028286192 0.06447866 0.10748819
00000000: 90d8 8d3d 4dd8 cb3c 413c 7a3d 624a 8a3d
00000010: f83a 733b 3def 60bc 1d98 2d3a 81ca d73c
00000020: ddef 02bc da46 183e f847 bb3b d03b 513d
00000030: 5085 d23c 6927 d93c 2c36 583d 5dfa 9a3d
00000040: 39f1 853d ff4a c33d 5579 c43d 383c fcbb
00000050: 5c78 b03d a3a6 513d 1c56 e0bc ce31 163d
00000060: 374e 983c aaa5 953d 9bf6 5f3d f1eb ed3c
00000070: 02bf 893d 47e2 633b 8ebe 1a3d eba0 493d
00000080: beb4 1d3d 18ee a03c 234e b03c e4c5 923d
00000090: 2063 9b3d 8356 bb3d ca92 143d c64c 693d
000000a0: 70d8 473d 7815 bc3d bbb7 243c 1545 da3a
000000b0: 9461 9b3d 34eb eb3d 927f 273c 50bf b73d
000000c0: 725d ed3d 374c f0bb d257 233d 63da 143d
000000d0: e618 663d a8fb 77bc d442 6a3d 1bcf 35bc
000000e0: 01ec ee3c 2a91 de3c 9b5c 953c 54df b73d
000000f0: bbd7 b73d 7b76 573d 76d8 013e 1f4e 673d
00000100: 4185 a23c 74ce 4c3d af7b 6a3c 0bf6 fd3d
00000110: 3aa0 863d 9a84 9f3d d660 413d 42a1 4a3d
00000120: d530 b43b ac73 a03d bd00 eb3d e184 a63d
00000130: 6637 afbc 496f 2e3c 47b2 8c3c 8c61 ad3c
00000140: 91c0 783d b4dc 1e3d 3afe 4f3d 6002 073b
00000150: dc6e 823d 3537 28bd 2a99 803c 93ef 9a3d
00000160: 1461 873d f5f5 a43d 1088 6e3d c1d1 af3a
00000170: 5a85 9f3c e84d cc3c 1d83 ba3d d685 bebc
00000180: 83bb 2d3d 29a2 e53d 05ec 4dbc d93e 3abb
00000190: 7041 0c3d 5100 203c 155f 1d3c ec28 223d
000001a0: 895f 163d cefc ff3c 1b10 523b 2bc7 b73c
000001b0: 5c91 aa3c c479 c1ba d723 c93d 4636 ed3c
000001c0: b084 46bd fb99 103c 5af5 273d db96 4f3d
000001d0: 3ea6 92bd cfee 05bc 941f e73d dcc7 803d
000001e0: 9662 443e 6572 8db9 a6c7 8a3d 6358 c0bb
000001f0: 5407 e53c 91e5 e93d 808b f43c fe86 783d
00000200: 4445 2f3d 9b12 7b3d 491f 9c3d eb8b 6f3c
00000210: a176 023d 1587 f23d a7ae 51bc 9079 b53b
00000220: fa32 b93d 5b7b 533d 5047 53ba 075c 873d
00000230: 4e3f 2c3d 6594 1e3d 8887 153d 78a9 153d
00000240: fe87 9c3c 5a53 5fbb f398 0b3d 6fae e13c
00000250: 0def 8d3c 2efa 7d3d f52a a6ba 6e74 a9bc
00000260: 9eff d73c 0986 d03d 0b3f 463c ecf1 a03d
00000270: 95b9 813c 3c44 8dbc 302e 6e3c 384d 96bb
00000280: 8e86 a73c 05b5 8d3d 6641 d53b b275 753d
00000290: 0484 b43d 92b4 b1b8 b58c 8b3d fda9 a73c
000002a0: ca2e 5e3d 3b93 483c 9912 973d bd0b 073c
000002b0: 0bc8 d53b 3400 353d 06d9 f43d b192 9f3d
000002c0: 1eae f73c 2a3b 223d 9126 8fb8 88dc 96bb
000002d0: 30b3 5d3d 7ae8 2a3d afde 52bc 703d 3d3d
000002e0: 4ada e33d cb4a 5d3b cc46 643c 9b9d b13c
000002f0: 7a15 3cbc d699 4e3d 4b24 303c c814 b3bb
00000300: 7763 393d 1b52 193d 9753 313e 1662 d13b
00000310: 07dd 9d3d 0d5e bf3d 1729 2c3e 6b32 063d
00000320: 8e0d 243e cbb5 3b3d b784 2d3d 7b58 0a3d
00000330: 828e 93bc d3d2 183d d394 d03c cf0e 763c
00000340: 9cc6 e63b ca74 f93d 6816 d33d 40bc d33d
00000350: 60f9 783d a436 193d a8de 703d 99c7 573d
00000360: 854a f13d 92cf a83d ae6d 9a3c f03d b1bb
00000370: 6f94 793d 9ef4 64bb a18d ca3d 6ae8 153c
00000380: 7887 093d 1b14 343d 1d55 653c 251a eabb
00000390: 6bc6 2a3c f4e3 013d 82f5 7a3c 1c36 4b3c
000003a0: b3e9 a73d 84a0 933d 448f 833c 9713 a13c
000003b0: 7e25 943d 279b e33d 9700 883d 2d46 513d
000003c0: 8223 b2bc bc2d cf3d c496 38bc e217 b53d
000003d0: 7a00 4d3c 0956 483c 0712 8d3d 50a4 84bc
000003e0: 8c9b 403d 2156 973b 381d 39bc 7bbb 233d
000003f0: b022 443d 5b60 39bb 630d 843d c522 dc3d

network_body._body_endoder.seq_layers.2.weight f4 [256, 256]
-0.13509685 0.021515304 0.020672673 0.021651264 -0.091994576 0.06221979 0.073013715 0.0014664559
0.05648163 -0.07605916 0.22037525 -0.10841264 -0.024122246 0.014358816 0.0068114116 -0.13856772
0.14471382 -0.04704048 0.027821688 -0.037385464 -0.15088777 -0.10855799 0.07384715 -0.10227401
-0.01913827 0.001392187 -0.025657706 0.0046403087 -0.03050812 -0.07256475 -0.053481486 -0.044019107
0.017181246 -0.16785364 0.0005833499 -0.07182339 -0.011858438 -0.09217759 0.04365751 -0.015645863
-0.27781135 -0.033204347 -0.017831266 -0.0007013414 0.009428867 0.07095081 0.11573725 -0.15202276
-0.06343562 -0.006547464 -0.089999646 0.10123713 0.06613052 -0.015912913 -0.21099922 0.027272617
-0.023212744 -0.117446214 0.02727233 -0.035788722 -0.022970915 0.035546955 -0.073470786 0.065061875
-0.030041648 -0.046581183 -0.10724582 -0.2137449 0.110388294 -0.12424546 -0.057518188 -0.084892504
0.013308941 -0.029865013 -0.049434584 -0.17873566 0.060027212 0.020588778 -0.006946916 0.028305152
-0.10318701 -0.11078503 0.04737612 0.09676357 0.0048509967 0.019936923 -0.13262787 -0.07382639
-0.16304399 -0.1038863 0.11550886 0.015805876 0.009339695 0.095342666 -0.1217876 -0.104062155
0.030235035 -0.07514586 0.10464941 0.033921853 0.0021616046 -0.076172404 -0.020426532 -0.03752489
-0.03713156 -0.1164241 0.15594463 0.15764837 0.12708624 0.057819836 -0.17555852 0.069970176
0.10956581 0.02797359 -0.19770531 -0.050847184 -0.025523206 -0.06587001 -0.11942188 -0.0660212
-0.14032508 -0.048575535 0.013275783 -0.031207416 0.02566028 -0.06898343 -0.02346856 -0.053061545
0.060930315 -0.04378447 -0.17589633 0.13512982 -0.19021457 -0.085615605 0.08244878 0.07715093
-0.10203842 0.091376804 -0.033525776 -0.036577836 -0.033175547 0.13640165 0.099772796 -0.11977157
0.009879722 -0.0264013 -0.10530647 0.06193589 0.0076758997 -0.022556392 0.10703928 0.14970298
0.0027425988 -0.094521396 -0.028259898 -0.1541199 -0.056374505 -0.030115845 -0.0074642096 0.00913744
0.18029253 -0.23600721 -0.0020905652 0.0749045 -0.04900362 0.0734845 0.014735598 -0.047453374
-0.013322505 -0.050813004 -0.10492994 -0.19633444 -0.14792135 0.027016185 -0.18256365 0.061365582
0.0316814 -0.089167446 0.032453556 0.004045674 0.13127072 0.23121238 -0.059821893 0.060829032
-0.03762083 0.01718028 -0.11997838 0.07435101 0.040921893 -0.10265002 0.033796027 0.03125147
-0.01753352 -0.09184181 -0.10757643 0.114218056 0.015011308 0.05103499 0.0052451426 0.048870213
-0.12551306 0.061169066 0.071767256 -0.14441298 0.2167729 -0.09218052 -0.21501374 -0.009651489
0.030946955 0.060217984 -0.16211621 -0.18892671 0.042001482 0.013579507 -0.02529952 0.10095813
0.1337757 -0.00022214913 0.06396575 0.08420659 0.012316699 0.074130416 -0.111278854 0.01688518
-0.028996656 0.00010332892 0.006527442 0.08062065 0.053402465 0.03901045 0.032819536 0.1069308
-0.012124047 -0.041848816 0.030475188 -0.14089155 -0.05291199 0.009210826 -0.079141624 -0.14125115
0.08685922 -0.07922522 0.04391642 -0.18355185 0.05492903 -0.023174822 -0.028749492 -0.02023993
0.05936941 0.03075001 0.065050505 -0.10698518 -0.03470393 -0.01934667 -0.03876253 -0.057941683
00000000: d456 0abe dd40 b03c bd59 a93c fe5d b13c
00000010: a767 bcbd 2eda 7e3d 3788 953d 1836 c03a
00000020: 4859 673d e8c4 9bbd 0daa 613e 7207 debd
00000030: 049c c5bc 3d41 6b3c 4332 df3b b2e4 0dbe
00000040: dc2f 143e 85ad 40bd 4fea e33c 8021 19bd
00000050: 5382 1abe a753 debd 2d3d 973d 0975 d1bd
00000060: dcc7 9cbc 0b7a b63a 1c30 d2bc bb0d 983b
00000070: 2aec f9bc d49c 94bd 670f 5bbd 614d 34bd
00000080: afbf 8c3c d3e1 2bbe f3eb 183a 2418 93bd
00000090: e549 42bc 9bc7 bcbd 38d2 323d c12b 80bc
000000a0: 4a3d 8ebe 4801 08bd e012 92bc 3ada 37ba
000000b0: 897b 1a3c a94e 913d a707 ed3d dbab 1bbe
000000c0: 89ea 81bd 1c8c d6bb bc51 b8bd 6a55 cf3d
000000d0: 706f 873d cc5b 82bc 2e10 58be d36a df3c
000000e0: a728 bebc a487 f0bd 396a df3c 3297 12bd
000000f0: 802d bcbc af99 113d da77 96bd 293f 853d
00000100: e719 f6bc e9cb 3ebd b2a3 dbbd f1df 5abe
00000110: 4213 e23d 6774 febd 3198 6bbd 1fdc adbd
00000120: bf0d 5a3c 79a7 f4bc eb7b 4abd 7b06 37be
00000130: 18df 753d cca9 a83c f5a2 e3bb 35e0 e73c
00000140: b653 d3bd 43e3 e2bd 760d 423d fb2b c63d
00000150: 1cf5 9e3b c252 a33c 9acf 07be 4a32 97bd
00000160: 01f5 26be 57c2 d4bd e98f ec3d 537b 813c
00000170: 8505 193c 0443 c33d c76b f9bd 8a1e d5bd
00000180: 77af f73c 13e6 99bd 6e52 d63d a4f1 0a3d
00000190: b5a9 0d3b 4700 9cbd 8b55 a7bc b3b3 19bd
000001a0: 4317 18bd c26f eebd f3af 1f3e 936e 213e
000001b0: e522 023e 7ed4 6c3d 9dc5 33be 864c 8f3d
000001c0: 0a64 e03d df28 e53c 4373 4abe 2345 50bd
000001d0: 0b16 d1bc dbe6 86bd 7593 f4bd 1f36 87bd
000001e0: 61b1 0fbe 24f7 46bd ab82 593c b2a6 ffbc
000001f0: 8235 d23c 2f47 8dbd 2341 c0bc 1057 59bd
00000200: 1192 793d 5857 33bd 2b1e 34be 795f 0a3e
00000210: 9cc7 42be 3c57 afbd e8da a83d 4f01 9e3d
00000220: 85f9 d0bd c323 bb3d 5352 09bd a4d2 15bd
00000230: 15e3 07bd e0ac 0b3e ae55 cc3d cc4a f5bd
00000240: 8fde 213c 8a47 d8bc ebaa d7bd 7db0 7d3d
00000250: 1d86 fb3b 2fc8 b8bc 6937 db3d bd4b 193e
00000260: 2cbd 333b 6f94 c1bd 4d81 e7bc 9bd1 1dbe
00000270: f4e8 66bd 81b5 f6bc 5496 f4bb 33b5 153c
00000280: 9b9e 383e e0ab 71be dd01 09bb 8867 993d
00000290: 05b8 48bd 0b7f 963d 946d 713c 785e 42bd
000002a0: a346 5abc 4c21 50bd 82e5 d6bd e50b 49be
000002b0: b278 17be 0c51 dd3c f7f1 3abe 7a5a 7b3d
000002c0: 5bc4 013d 6c9d b6bd 05ee 043d 9391 843b
000002d0: d56b 063e f0c2 6c3e cd07 75bd dd27 793d
000002e0: 4d18 1abd a9bd 8c3c 3ab7 f5bd 5845 983d
000002f0: b79d 273d 2c3a d2bd b46d 0a3d 8b01 003d
00000300: 75a2 8fbc 8f17 bcbd 0851 dcbd 28eb e93d
00000310: fdf1 753c 110a 513d 72df ab3b 222c 483d
00000320: 7f86 00be 6a8c 7a3d b6fa 923d ffe0 13be
00000330: b7f9 5d3e 24c9 bcbd 902c 5cbe 4721 1ebc
00000340: 7884 fd3c 22a7 763d cb01 26be 0176 41be
00000350: bf09 2c3d 957c 5e3c f040 cfbc 23c3 ce3d
00000360: 7ffc 083e b4f0 68b9 7a00 833d 8174 ac3d
00000370: fbcb 493c b0d1 973d 2be6 e3bd ca52 8a3c
00000380: 658a edbc 4bb2 d838 27e4 d53b 701c a53d
00000390: 8bbc 5a3d 6cc9 1f3d c76d 063d 89fe da3d
000003a0: f0a3 46bc aa69 2bbd 1aa7 f93c e045 10be
000003b0: 3eba 58bd 01e9 163c 0115 a2bd 24a4 10be
000003c0: 3fe3 b13d d540 a2bd b4e1 333d 04f5 3bbe
000003d0: 43fd 603d 20d9 bdbc 0e84 ebbc 36ce a5bc
000003e0: 572d 733d 72e7 fb3c 3339 853d 0c1b dbbd
000003f0: b525 0ebd e87c 9ebc 75c5 1ebd 4254 6dbd

network_body._body_endoder.seq_layers.2.bias f4 [256]
-0.030231621 -0.008105759 -0.04665937 -0.0043178117 -0.008529109 -0.020106262 -0.035486188 -0.04896311
0.0010684023 0.031537674 0.023849424 0.009634194 0.026550904 -0.024918472 0.0016334283 -0.023559358
-0.023471665 0.00079350895 -0.022109328 -0.014734658 -0.012971075 -0.027830094 0.021516664 -0.017603602
0.022681335 0.0061703776 0.019188873 0.010632277 -0.0017804297 -0.06959554 -0.08520715 -0.030948317
0.0469782 0.018302456 0.017697513 -0.021398168 -0.0043784752 0.026251316 0.0071988036 -0.0383465
-0.009207213 -0.009380723 -0.0061774952 0.012046627 0.013364034 0.028742017 0.0060036085 0.029286293
-0.041955587 0.05072855 0.023897847 0.016931761 0.025212247 -0.011693602 0.050022803 -0.010624742
-0.015874429 -0.021794548 -0.001149876 -0.022188645 -0.015933285 0.035659004 -0.032112036 -0.013707943
-0.021369958 -0.051396776 0.042402808 -0.013154339 0.040887743 0.019369088 0.052778527 0.06513496
-0.017076638 0.022345228 0.012870291 0.021464253 0.008486275 0.002635046 0.0034421717 0.055162273
0.06543446 -0.010913901 -0.041720405 -0.010947546 0.066975944 0.027036754 0.01895362 0.016693247
-0.04592477 0.010872359 0.02250099 0.034245543 0.021382634 -0.017219782 -0.009668234 0.0019386486
-0.021984493 -0.009556208 -0.044980057 -0.038196407 -0.0016130779 -0.0010744601 -0.034726594 0.0033461004
-0.028384112 0.048219964 -0.015692223 -0.003672235 -0.009633914 0.02641911 0.019486222 -0.025214681
0.021323452 0.036997143 -0.029421862 0.030060498 0.017585298 -0.047459293 -0.032547757 0.005322591
-0.013724017 0.0029922666 -0.015788835 -0.0021086454 -0.041187298 -0.010655588 -0.004816602 0.03063568
0.06641659 0.044785637 -0.02377076 -0.024084263 0.008783297 0.007230899 0.009717761 -0.00021313457
0.0020511297 -0.019405635 0.016912136 0.0039107916 0.026325153 -0.033935115 0.02242941 0.013411847
0.029226184 0.049676836 0.029629262 -0.013067326 -0.0077796606 0.020719802 0.009741836 0.008067703
0.0065216273 -0.031045657 0.03292608 0.012690538 0.04530284 0.027267726 -0.029363226 0.010946631
-0.004198984 -0.03331945 0.019579979 0.010296928 -0.011718384 0.028957734 -0.0053327046 -0.0058432375
-0.029050674 0.01029054 -0.015258469 0.04697649 -0.016483914 -0.012534319 -0.015005455 0.048685566
0.0056241374 -0.0018300379 0.017211948 -0.037012953 -0.0012973577 0.0035122 -0.017379405 -0.053435564
-0.03388009 -0.014914284 0.025278082 0.015548146 -0.009635361 -0.046907734 0.0047965087 -0.052077536
-0.0054972703 0.011542849 -0.0067196637 -0.03414501 0.004428431 0.008827567 0.0015703788 -0.02347846
-0.014005039 0.0008289455 0.022987906 -0.041242737 0.01650616 0.017342038 -0.043095186 0.008529453
-0.013764162 -0.016152104 0.0039154165 -0.012626585 0.001533538 -0.01723108 -0.032639794 -0.027577417
0.0017060656 0.0075011384 -0.0010828155 0.012509179 0.0048318636 -0.00588463 -0.00042120874 0.04068992
-0.010770724 0.0073790397 -0.015272142 -0.014973721 -0.0055602714 -0.018162481 -0.012027035 0.011259272
0.0024652588 0.04934304 0.012144013 -0.022636618 0.016488567 0.0269022 1.34050415e-05 0.009567955
0.023111396 -0.01643007 -0.034377117 -0.016530948 -0.028046565 -0.0406026 -0.03423475 0.0054666675
0.007852922 0.005683231 0.025595782 -0.03527854 -0.0009530993 -0.0014429082 -0.0064127636 0.05283058
00000000: 4ea8 f7bc 04ce 04bc e51d 3fbd 6e7c 8dbb
00000010: adbd 0bbc e3b5 a4bc f759 11bd 8b8d 48bd
00000020: a209 8c3a a62d 013d de5f c33c bdd8 1d3c
00000030: 4881 d93c d321 ccbc c218 d63a 8eff c0bc
00000040: a647 c0bc 7c03 503a 9f1e b5bc a369 71bc
00000050: a284 54bc f0fb e3bc b743 b03c 6e35 90bc
00000060: 35ce b93c e130 ca3b fc31 9d3c 0033 2e3c
00000070: 4f5d e9ba 1b88 8ebd 1681 aebd 5387 fdbc
00000080: 376c 403d 08ef 953c 60fa 903c 364b afbc
00000090: 5079 8fbb 000d d73c f1e3 eb3b 3811 1dbd
000000a0: dad9 16bc 9bb1 19bc 966c cabb 375f 453c
000000b0: d2f4 5a3c 6174 eb3c ebb9 c43b cfe9 ef3c
000000c0: 9fd9 2bbd bdc8 4f3d 6bc5 c33c 7ab4 8a3c
000000d0: ea89 ce3c 8696 3fbc b6e4 4c3d 6613 2ebc
000000e0: 170b 82bc 7b8a b2bc 70b7 96ba f6c4 b5bc
000000f0: 8586 82bc 2d0f 123d e987 03bd 4897 60bc
00000100: 0d10 afbc 6d85 52bd 91ae 2d3d 4c85 57bc
00000110: e879 273d ecab 9e3c 4c2e 583d 7a65 853d
00000120: 4ee4 8bbc 570d b73c eadd 523c cdd5 af3c
00000130: 040a 0b3c bcb0 2c3b 0f96 613b d6f1 613d
00000140: 8102 863d 38d0 32bc 04e3 2abd 565d 33bc
00000150: af2a 893d 2f7c dd3c 9f44 9b3c 47c0 883c
00000160: 9d1b 3cbd fb21 323c ff53 b83c 0e45 0c3d
00000170: a22a af3c 8010 8dbc 8367 1ebc 411a fe3a
00000180: d318 b4bc a491 1cbc 023d 38bd d673 1cbd
00000190: ea6d d3ba e6d4 8cba 793d 0ebd 404a 5b3b
000001a0: cc85 e8bc 4c82 453d fa8c 80bc e1a9 70bb
000001b0: 90d7 1dbc e46c d83c 92a1 9f3c 058f cebc
000001c0: 85ae ae3c 518a 173d 1e06 f1bc 6f41 f63c
000001d0: 0b0f 903c ad64 42bd cc50 05bd 2169 ae3b
000001e0: b3da 60bc e719 443b 9657 81bc 3331 0abb
000001f0: 03b4 28bd c694 2ebc 96d4 9dbb adf7 fa3c
00000200: 6c05 883d 2571 373d e6ba c2bc 5c4c c5bc
00000210: d1e7 0f3c 2df1 ec3b 3e37 1f3c e07c 5fb9
00000220: 3f6c 063b 91f8 9ebc 528b 8a3c 1926 803b
00000230: d9a7 d73c 8cff 0abd e2bd b73c 5dbd 5b3c
00000240: c06b ef3c f079 4b3d 11b9 f23c 5618 56bc
00000250: 86ec febb 93bc a93c 399c 1f3c 662e 043c
00000260: 60b3 d53b 7653 febc 7fdd 063d f9eb 4f3c
00000270: 798f 393d 9160 df3c 268b f0bc 8059 333c
00000280: a197 89bb fa79 08bd 3166 a03c 72b4 283c
00000290: 77fe 3fbc c538 ed3c f8bd aebb a178 bfbb
000002a0: aefb edbc a799 283c a8fe 79bc 6c6a 403d
000002b0: 4609 87bc bf5c 4dbc 71d9 75bc 846a 473d
000002c0: af4a b83b e2dd efba 1200 8d3c e59a 17bd
000002d0: 1a0c aaba f02c 663b 415f 8ebc 40df 5abd
000002e0: d9c5 0abd 0b5b 74bc fb13 cf3c a7bd 7e3c
000002f0: a2dd 1dbc 5322 40bd 082c 9d3b 414f 55bd
00000300: 7222 b4bb 381e 3d3c a030 dcbb a3db 0bbd
00000310: 5f1c 913b 80a1 103c 2bd5 cd3a e655 c0bc
00000320: 6475 65bc 974d 593a 2251 bc3c 25ee 28bd
00000330: ed37 873c e410 8e3c 9484 30bd 1ebf 0b3c
00000340: 1483 61bc 6b51 84bc e54c 803b bcdf 4ebc
00000350: ff00 c93a 3228 8dbc 4eb1 05bd 09ea e1bc
00000360: 109e df3a 1ccc f53b 42ed 8dba 4df3 4c3c
00000370: 9c54 9e3b dbd3 c0bb aed5 dcb9 79aa 263d
00000380: b177 30bc dfcb f13b 0238 7abc 5654 75bc
00000390: f032 b6bb 7cc9 94bc 0a0d 45bc cf78 383c
000003a0: 2e90 213b ed1b 4a3d aff7 463c 6e70 b9bc
000003b0: 0813 873c 0162 dc3c 37e6 6037 e9c2 1c3c
000003c0: 1c54 bd3c 5b98 86bc 05cf 0cbd e96b 87bc
000003d0: e9c1 e5bc e94e 26bd bd39 0cbd bb21 b33b
000003e0: 8ba9 003c 663a ba3b 3fae d13c 3b80 10bd
000003f0: 69d9 79ba f71f bdba 2922 d2bb e164 583d

action_model._discrete_distribution.branches.0.weight f4 [3, 256]
0.13642554 0.089592196 -0.020596104 0.012297123 -0.054107293 -0.01755639 -0.06721552 -0.036071587
-0.019941786 0.003339086 -0.059051972 -0.022466471 -0.04829592 -0.027187105 0.0213201 0.046233766
0.013870803 -0.09323434 -0.06306052 -0.005469157 -0.008934155 -0.004289517 -0.06640813 -0.089266196
-0.021815214 0.025303412 0.020756528 -0.043437675 0.0057537113 -0.008718845 0.0023898294 0.1340544
-0.11355223 0.045995776 0.044111684 0.06967617 -0.04033813 -0.021620981 0.050175637 0.09339471
-0.017802546 0.014311371 -0.0652913 0.06197597 -0.026523462 -0.0018373744 0.07670902 0.008698065
0.030356199 0.029810252 0.0030477187 0.032187913 0.040594537 -0.05034939 -0.005457988 0.07514878
-0.05221356 -0.033053968 0.0096044205 -0.016043788 0.017017677 0.009158274 -0.05280058 0.014686495
0.029545454 0.09025543 -0.014854076 -0.07070303 -0.024827253 0.041900247 -0.020178959 0.016074333
0.14684403 0.03746887 -0.0147212455 -0.2475886 0.12888764 0.039843366 -0.10890653 -0.016576596
-0.0028339233 -0.015151698 0.008588521 -0.006578946 -0.017248256 -0.0015425298 0.010982434 0.04126593
0.076705165 -0.05730206 -0.02699596 0.014111403 0.043672364 0.07557499 0.006870428 -0.026874162
-0.047989506 0.108835705 0.15729989 -0.0040094 0.029792648 -0.092765234 0.07913334 -0.07080314
0.008857057 -0.012274832 -0.008544683 -0.026684405 0.061442528 -0.0015178273 -0.08274676 -0.016511139
0.084836826 -0.0063446485 -0.00923904 -0.042457394 0.025858399 -0.04965714 0.048790265 0.016330095
0.023059325 0.10146977 0.1554378 0.028917372 0.12568988 -0.0019486018 -0.042317837 0.008671822
0.02904245 -0.018583804 0.07870945 0.013542049 0.06604055 -0.0001739927 0.03582306 -0.0031310124
-0.022513114 0.020035507 -0.04697439 -0.07802155 -0.04905712 0.06906784 -0.0011132258 -0.0075244205
0.017659605 0.018029239 -0.08475025 -0.037693147 0.07129646 -0.053683814 0.028945979 -0.0031410684
-0.013001897 0.057958774 -0.03825659 -0.028872635 -0.0909125 -0.047658447 0.03676406 -0.16668002
-0.059786107 -0.016047737 0.014950843 0.029397998 -0.0277223 0.006687584 0.008495892 -0.03088322
-0.03164093 -0.060535472 0.044871483 0.0022364003 -0.03218915 -0.030805714 -0.010130781 -0.0077066473
-0.09057399 0.057772268 -0.04964151 0.06053796 -0.047966935 -0.014373546 0.009118908 0.02752389
-0.01925809 0.03571933 0.0007436332 0.019146202 -0.016325401 0.085636266 0.017589614 0.07626154
-0.0058721853 -0.04302128 0.031862147 -0.033131402 0.0039387727 0.028505396 -0.0011843125 0.021744039
-0.03282366 -0.07544059 -0.037047304 0.06988386 0.04598075 0.020762939 0.049431395 -0.008455301
0.037658732 -0.008641845 -0.022382587 0.010343738 0.04739902 -0.039232224 0.0753359 0.023243565
0.0031411464 0.04740621 -0.033488527 -0.006867467 0.050347008 0.058189075 0.0803974 0.023918726
-0.008583118 -0.029023109 0.053677313 0.04959645 -0.04045656 -0.030553577 -0.098574415 0.043887183
-0.07013119 -0.045129973 0.01189957 0.04084447 -0.00015022593 0.01525666 -0.020013487 0.036453307
-0.0129034575 -0.026879633 0.10869894 0.037927523 0.1283153 0.08946946 9.543895e-05 0.033885304
0.077243164 -0.058358703 0.013335931 -0.007728105 -0.029396864 -0.062380116 -0.05317465 -0.051834837
00000000: 23b3 0b3e 1d7c b73d 29b9 a8bc df79 493c
00000010: 9c9f 5dbd 6bd2 8fbc 4aa8 89bd cdbf 13bd
00000020: f55c a3bc 91d4 5a3b 7be0 71bd 9b0b b8bc
00000030: f1d1 45bd 7eb7 debc 7ea7 ae3c 9e5f 3d3d
00000040: 5d42 633c a5f1 bebd e025 81bd 9d36 b3bb
00000050: 9060 12bc 148f 8cbb fc00 88bd 32d1 b6bd
00000060: d2b5 b2bc 1a49 cf3c 9809 aa3c b4eb 31bd
00000070: a189 bc3b 7dd9 0ebc af9e 1c3b 8e45 093e
00000080: 128e e8bd 1166 3c3d 74ae 343d 61b2 8e3d
00000090: 9839 25bd 7c1e b1bc f884 4d3d ba45 bf3d
000000a0: a5d6 91bc 3e7a 6a3c 72b7 85bd 84da 7d3d
000000b0: bb47 d9bc 0ed4 f0ba 9e19 9d3d 5482 0e3c
000000c0: 90ad f83c a134 f43c 3cbc 473b 79d7 033d
000000d0: 7546 263d 293b 4ebd ecd8 b2bb 9be7 993d
000000e0: e3dd 55bd 9963 07bd dc5b 1d3c 436e 83bc
000000f0: a868 8b3c 960c 163c 6c45 58bd a09f 703c
00000100: 4f09 f23c d7d7 b83d 835e 73bc c0cc 90bd
00000110: 8662 cbbc 989f 2b3d 584e a5bc 52ae 833c
00000120: 485e 163e f578 193d 6131 71bc de87 7dbe
00000130: 1ffb 033e cc32 233d 630a dfbd a4cb 87bc
00000140: 58b9 39bb d43e 78bc deb6 0c3c 3394 d7bb
00000150: 374c 8dbc b62e caba abef 333c 7706 293d
00000160: 9917 9d3d 91b5 6abd a226 ddbc 8433 673c
00000170: cbe1 323d 0fc7 9a3d 5421 e13b 3427 dcbc
00000180: a590 44bd 41e5 de3d 3913 213e 4961 83bb
00000190: b60f f43c b3fb bdbd a910 a23d 3d01 91bd
000001a0: 311d 113c 611c 49bc 00ff 0bbc 4199 dabc
000001b0: 29ab 7b3d d5f1 c6ba 2277 a9bd 5e42 87bc
000001c0: eebe ad3d c5e6 cfbb 585f 17bc cee7 2dbd
000001d0: fed4 d33c 4965 4bbd 4dd8 473d b1c6 853c
000001e0: e9e6 bc3c 62cf cf3d 162b 1f3e 20e4 ec3c
000001f0: d9b4 003e 3a68 ffba 7855 2dbd 4214 0e3c
00000200: 6fea ed3c 103d 98bc 6c32 a13d 78df 5d3c
00000210: 4540 873d cf71 36b9 33bb 123d ac31 4dbb
00000220: 6c6d b8bc 8121 a43c 3868 40bd c3c9 9fbd
00000230: 1ef0 48bd 7173 8d3d a9e9 91ba 6a8f f6bb
00000240: e0aa 903c 0eb2 933c 8a91 adbd 2164 1abd
00000250: e103 923d 8fe3 5bbd 1e20 ed3c 62da 4dbb
00000260: e905 55bc 2e66 6d3d f1b2 1cbd 4e86 ecbc
00000270: 5530 babd 8135 43bd e995 163d 2bae 2abe
00000280: 47e2 74bd 8b76 83bc 61f4 743c 12d4 f03c
00000290: e019 e3bc 8523 db3b 5b32 0b3c cefe fcbc
000002a0: eb99 01bd 0bf4 77bd 29cb 373d 9290 123b
000002b0: c5d8 03bd 445c fcbc 93fb 25bc 0b88 fcbb
000002c0: db7e b9bd 9da2 6c3d e554 4bbd a7f6 773d
000002d0: fa78 44bd 057f 6bbc 7967 153c c879 e13c
000002e0: 24c3 9dbc 6f4e 123d 61f0 423a 7fd8 9c3c
000002f0: d9bc 85bc 1162 af3d 1818 903c 032f 9c3d
00000300: 766b c0bb 1537 30bd e281 023d cbb4 07bd
00000310: d210 813b 2684 e93c ef3a 9bba 8e20 b23c
00000320: 1a72 06bd 9980 9abd eabe 17bd 451f 8f3d
00000330: 5056 3c3d 0a17 aa3c 9378 4a3d 1a88 0abc
00000340: 0b40 1a3d 8696 0dbc b05b b7bc c878 293c
00000350: 7a25 423d f8b1 20bd b549 9a3d 4a69 be3c
00000360: b1db 4d3b 042d 423d 442b 09bd 7d08 e1bb
00000370: aa38 4e3d ab57 6e3d 64a7 a43d 34f1 c33c
00000380: 35a0 0cbc dfc1 edbc bedc 5b3d a625 4b3d
00000390: c7b5 25bd 7f4b fabc 62e1 c9bd 0cc3 333d
000003a0: f1a0 8fbd 35da 38bd 6af6 423c 884c 273d
000003b0: f785 1db9 12f7 793c 53f3 a3bc 1050 153d
000003c0: 0669 53bc ad32 dcbc 8d9d de3d e459 1b3d
000003d0: 1665 033e c43b b73d 6526 c838 51cb 0a3d
000003e0: aa31 9e3d 8909 6fbd f37e 5a3c 0b3c fdbb
000003f0: b1d1 f0bc 4b82 7fbd a9cd 59bd c450 54bd

action_model._discrete_distribution.branches.0.bias f4 [3]
0.022699542 -0.061154217 0.033460513
00000000: 64f4 b93c d87c 7abd e40d 093d

action_model._discrete_distribution.branches.1.weight f4 [3, 256]
-0.005070151 0.011391102 -0.026421519 0.018516777 -0.0020725592 -0.007762377 0.021740353 -0.006393541
-0.0009191428 -0.014546638 0.0244574 0.035446834 0.0038261774 0.008169134 -0.029493788 -0.044282675
-0.003481782 0.01753576 -0.033483572 0.031069161 -0.030190866 0.014656733 -0.013264704 0.0118804835
-0.009185552 0.016262513 -0.010897269 -0.016777625 -0.00549993 -0.019718528 -0.0143328905 -0.004622434
0.01970217 0.013198593 0.00041398578 0.02001451 -0.042614352 0.009208538 0.038762964 -0.00029041374
-0.0024806096 0.0018966825 0.021947525 0.0469792 -0.003980975 -0.0151979 -0.019653581 0.009166585
0.009018242 0.030314913 0.031127475 -0.051559694 0.021587785 -0.04100588 -0.0040825624 -0.01223509
-0.002665431 0.013993133 0.027654916 -0.050579015 0.0036749248 0.017227346 -0.025177484 -0.0074689556
0.016716033 -0.06573434 0.006054738 -0.049231123 0.012987089 0.015052505 0.025012447 0.009201364
-0.019483792 0.02281775 0.05105317 0.024570925 -0.011910125 -0.010510332 0.033901896 -0.00083081046
0.017179463 0.0029967332 -0.02913122 0.0120459655 -0.015642785 0.0012701617 0.030578293 0.025740493
-0.031190488 -0.041245546 -0.01670432 -0.018782075 0.012838835 0.012428551 -0.00787703 -0.039147858
-0.010890768 -0.02275904 -0.02792732 -0.036131475 0.09159479 0.027310127 -0.017879285 -0.02611596
0.033911258 -0.022033604 -0.007971998 -0.053198546 0.027344866 -0.008158476 0.0011622565 0.001638437
0.03403312 0.013217478 -0.019622019 -0.012394905 0.03150348 0.031575702 -0.012626474 0.011848769
-0.028815687 0.018489333 -0.017292617 -0.025428675 -0.008350489 0.0467185 0.008880655 -0.005306159
0.026287474 -0.07504047 0.024040328 0.0039032765 -0.010674178 0.019198798 -0.025662942 -0.016191186
0.04111517 0.0058111525 0.010526154 0.00042499293 -0.017545694 -0.012774721 -0.0025580013 -0.009905496
-0.03159507 0.006499812 -0.0061310935 -0.028681694 -0.020921487 -0.0032488487 0.021312496 -0.011079373
-0.0044091158 -0.012721573 -0.0035675522 0.0032249147 0.0057474724 0.023221208 0.015495005 -0.006197372
0.0005788167 0.036924 0.004985457 0.046037965 -0.010924848 0.05712307 -0.052874707 -0.05785452
0.024344334 0.011936535 -0.058168776 -0.013898399 0.01978694 -0.003950285 -0.03641429 0.038223118
-0.046896007 0.012773538 0.04452168 0.016129185 0.07204867 -0.03290291 0.043399848 0.0051824595
0.052690472 -0.018452866 0.0047023916 0.03157147 0.005994904 -0.036054976 -0.015095644 -0.011160621
0.024763493 0.04801634 -0.015670039 0.018731017 0.015659027 0.04889757 -0.028130965 0.020327125
-0.0029573208 0.04183268 0.01940316 0.0038243616 0.0073011266 0.019770423 -0.004114771 0.020447355
-0.024204336 0.009732467 0.0065169903 0.015102393 -0.027017256 -0.008104024 0.01915536 -0.048553504
-0.0036692356 0.008539939 -0.04101971 -0.009821224 -0.04094147 -0.0085196365 0.0118153235 -0.0013616611
-0.013817731 -0.0017242577 0.013339969 -0.03370874 0.004610989 -0.024428159 0.02282412 0.052012943
0.04274047 0.025584048 0.0073718093 -0.036933977 0.05190364 -0.021480167 -0.006568517 0.017008564
0.0012488049 0.026943874 -0.00972188 -0.00066679524 -0.0025983138 -0.0203644 0.036935844 0.033805855
0.03048906 0.019641792 0.014068162 0.03825666 -0.0006920955 0.0060314042 0.010317541 0.016683035
00000000: 8223 a6bb bfa1 3a3c f171 d8bc 7fb0 973c
00000010: c6d3 07bb 8a5b febb d318 b23c e980 d1bb
00000020: a1f2 70ba 0655 6ebc e35a c83c b330 113d
00000030: 9bc0 7a3b d5d7 053c f59c f1bc c061 35bd
00000040: 9c2e 64bb 27a7 8f3c 1226 09bd c184 fe3c
00000050: d652 f7bc cb22 703c 3354 59bc 5ca6 423c
00000060: ff7e 16bc f638 853c 758a 32bc 3b71 89bc
00000070: c238 b4bb c088 a1bc 80d4 6abc c977 97bb
00000080: 7266 a13c e93e 583c 3b0c d939 78f5 a33c
00000090: 638c 2ebd 68df 163c eac5 1e3d ac42 98b9
000000a0: b991 22bb 1b9a f83a 4ccb b33c 436d 403d
000000b0: d772 82bb 9d00 79bc 8c00 a1bc 722f 163c
000000c0: 40c1 133c fb56 f83c 0cff fe3c 4230 53bd
000000d0: ded8 b03c c8f5 27bd 04c7 85bb b075 48bc
000000e0: 83ae 2ebb 7443 653c 908c e23c f12b 4fbd
000000f0: 02d7 703b 5d20 8d3c 0341 cebc 24be f4bb
00000100: 10f0 883c ba9f 86bd d366 c63b 93a6 49bd
00000110: cdc7 543c c89e 763c e7e6 cc3c 51c1 163c
00000120: 799c 9fbc 4aec ba3c 211d 513d f748 c93c
00000130: af22 43bc 8733 2cbc b7dc 0a3d bfca 59ba
00000140: f2bb 8c3c d764 443b 99a4 eebc 715c 453c
00000150: 4c25 80bc 8e7b a63a 547f fa3c badd d23c
00000160: 3283 ffbc 17f1 28bd 80d7 88bc dedc 99bc
00000170: fa59 523c 1fa1 4b3c a90e 01bc 8159 20bd
00000180: 316f 32bc 2b71 babc d6c7 e4bc 99fe 13bd
00000190: 0d96 bb3d 7db9 df3c 9477 92bc 23f1 d5bc
000001a0: 88e6 0a3d d17f b4bc fc9c 02bc b8e6 59bd
000001b0: 5702 e03c 21ab 05bc db56 983a d3c0 d63a
000001c0: 5066 0b3d 1f8e 583c 5bbe a0bc 0014 4bbc
000001d0: cb09 013d 8655 013d 45df 4ebc 5721 423c
000001e0: e00e ecbc f176 973c 3fa9 8dbc cc4f d0bc
000001f0: 7dd0 08bc e65b 3f3d 2b80 113c 4adf adbb
00000200: d458 d73c d1ae 99bd 39f0 c43c 1dce 7f3b
00000210: bfe2 2ebc cc46 9d3c 173b d2bc 61a3 84bc
00000220: 6168 283d 7b6b be3b e475 2c3c 96d1 de39
00000230: fdbb 8fbc 104d 51bc 24a4 27bb a94a 22bc
00000240: d569 01bd 60fc d43b 57e7 c8bb dff5 eabc
00000250: 8a63 abbc a3ea 54bb 8b97 ae3c 4286 35bc
00000260: 587a 90bb 256e 50bc 98cd 69bb 1759 533b
00000270: 4b55 bc3b 673a be3c c3de 7d3c 5313 cbbb
00000280: bbbb 173a 9f3d 173d 0b5d a33b 4e92 3c3d
00000290: 22fe 32bc e1f9 693d 2693 58bd dcf8 6cbd
000002a0: c56d c73c 7591 433c 6242 6ebd 1cb6 63bc
000002b0: 3918 a23c 6471 81bb 2727 15bd d88f 1c3d
000002c0: 0716 40bd 1a48 513c 5d5c 363d 5a21 843c
000002d0: 418e 933d 34c5 06bd 0ac4 313d 9fd1 a93b
000002e0: f7d1 573d 772a 97bc 8516 9a3b 1651 013d
000002f0: e670 c43b 62ae 13bd b853 77bc 0adb 36bc
00000300: cfdc ca3c c8ac 443d 745e 80bc ca71 993c
00000310: 5c47 803c d248 483d e972 e6bc 1285 a63c
00000320: 9ccf 41bb bf58 2b3d 60f3 9e3c 24a2 7a3b
00000330: 4a3e ef3b 95f5 a13c 33d5 86bb 3681 a73c
00000340: 2c48 c6bc ed74 1f3c 7a8c d53b 0770 773c
00000350: 4b53 ddbc bec6 04bc b4eb 9c3c 0ae0 46bd
00000360: 8f77 70bb 1aeb 0b3c 4904 28bd 33e9 20bc
00000370: 3eb2 27bd f295 0bbc 0f95 413c c479 b2ba
00000380: c463 62bc 7d00 e2ba e38f 5a3c 2d12 0abd
00000390: c717 973b 901d c8bc a6f9 ba3c 860b 553d
000003a0: a210 2f3d a395 d13c 388f f13b 1548 17bd
000003b0: e998 543d 2df7 afbc b73c d7bb 8b55 8b3c
000003c0: f0ae a33a 66b9 dc3c 8548 1fbc dfcb 2eba
000003d0: 7948 2abb 3ed3 a6bc 0a4a 173d 0278 0a3d
000003e0: 31c4 f93c d3e7 a03c 267e 663c 04b3 1c3d
000003f0: be6d 35ba 16a3 c53b e70a 293c dcaa 883c

action_model._discrete_distribution.branches.1.bias f4 [3]
0.008753349 0.014020446 -0.021440098
00000000: 356a 0f3c 03b6 653c 25a3 afbc

action_model._discrete_distribution.branches.2.weight f4 [3, 256]
0.07202475 -0.009616489 0.008416019 0.032091416 -0.012095652 -0.0823219 -0.00852435 -0.035922315
0.066925086 0.013154249 -0.039162073 0.039857034 0.0066847354 0.021124478 0.007459896 -0.046805702
-0.003742766 -0.022170426 0.0076409862 0.014821526 0.0031722842 -0.06475547 0.033600766 0.03523198
0.060260423 0.01898506 0.011736618 0.028003074 -0.018022308 -0.061831426 -0.043004856 0.12198433
0.04380437 0.051718403 -0.02927418 0.05421845 -0.012483762 -0.01564242 0.04677409 0.0018577974
-0.018677836 0.016164785 -0.032208156 0.018665051 -0.0006438527 0.03686523 0.00305693 0.051936068
-0.022515317 0.040388174 0.03379466 0.03759679 0.026066968 -0.006403298 0.0508157 -0.021072628
-0.055022188 0.01708973 0.0113919 -0.040537573 0.05969253 0.032463804 -0.041289125 0.026204847
-0.009703878 0.02878316 0.06327856 -0.012146572 0.012414252 -0.023904543 0.014828957 -0.0029884474
0.10490823 0.15020232 -0.023900282 0.075280875 0.06444177 0.02028667 0.043393023 0.008975088
0.02181095 0.0021661266 -0.003830709 -0.12543973 0.011847246 0.028747983 0.046371147 0.06395151
0.029711967 0.08151891 0.045744482 0.017317617 0.0110806525 0.049042996 0.052715544 -0.03818063
0.01906126 0.051465817 0.081828736 -0.0893693 -0.017299825 0.024458459 0.033904653 0.052765515
0.021351695 0.06632451 -0.03350822 -0.016971914 0.0583564 -0.0055396273 0.010754237 -0.06659394
0.10462516 0.03754452 0.02818393 0.007124014 0.044144206 -0.049363993 0.017508965 0.044671055
-0.013357694 0.07180744 0.09160213 -0.0011826362 0.07412735 -0.035775725 0.027249832 0.08074713
0.010569293 0.008612185 0.042206906 -0.0034657018 0.0040826723 0.00839208 0.053327505 0.005503125
-0.06186663 0.01194517 0.030914126 -0.08045579 0.015568476 7.185446e-05 -0.08459617 0.0024138729
-0.053269442 0.077387035 -0.03839776 -0.002677929 0.018572345 0.015208387 0.014664345 0.015982036
0.007724439 0.028572557 0.0359403 0.05355081 0.048074167 -0.0005740684 0.047980458 0.09449409
0.01981543 -0.076786354 -0.0089906035 -0.0037134662 -0.059356973 -0.07588898 0.052603997 -0.051493783
-0.02778481 0.031489402 0.03669803 -0.005389254 0.049250674 0.019603148 -0.08690644 -0.0012614693
0.0071701086 -0.006859752 -0.039268445 -0.007649258 -0.00044252796 -0.002210427 -0.016626451 0.007080516
0.028206106 -0.05457001 0.03054438 0.02188549 0.021018725 0.016171062 0.017783515 0.054145824
-0.10132441 0.06502178 -0.028717818 -0.013220778 -0.049469847 -0.030952837 -0.0014925818 0.020839073
-0.0011984399 0.00954901 -0.0020033978 -0.0094249165 0.057416264 0.0018230681 0.05572265 -0.0352855
-0.022528555 -0.0284923 0.02869017 0.02153425 0.004323302 -0.015762193 -0.0013585024 -0.014989581
0.019018063 0.022353612 0.001451332 -0.025164992 0.010590433 0.029090904 0.019082502 0.09105544
0.06083678 -0.009539151 0.016793936 -0.026843078 0.03284817 0.027086535 0.01153928 0.08848222
-0.088869326 0.08416394 -0.038907878 -0.030932276 0.0028175667 -0.008558829 0.027521579 0.00609901
-0.030636085 0.0029296721 0.020257715 0.043269392 0.06479439 0.04176549 -0.04997612 0.103392065
0.06319322 0.022644192 0.005805784 0.014154813 -0.011598498 0.019273352 0.045770373 0.05541056
00000000: b681 933d 7a8e 1dbc 58e3 093c 4a72 033d
00000010: d72c 46bc 6298 a8bd b7a9 0bbc 4723 13bd
00000020: 0510 893d eb84 573c 6968 20bd 2141 233d
00000030: a00b db3b 3e0d ad3c 2572 f43b 56b7 3fbd
00000040: 3249 75bb c19e b5bc 3d61 fa3b fcd5 723c
00000050: 19e6 4f3b 849e 84bd f5a0 093d 694f 103d
00000060: a2d3 763d 8e86 9b3c f24a 403c b466 e53c
00000070: 85a3 93bc f342 7dbd dc25 30bd ecd2 f93d
00000080: 366c 333d add6 533d 68d0 efbc 2a14 5e3d
00000090: b188 4cbc 8824 80bc 3096 3f3d 5681 f33a
000000a0: 4302 99bc 036c 843c b3ec 03bd 73e7 983c
000000b0: 39c8 28ba ffff 163d c656 483b eaba 543d
000000c0: 0b72 b8bc 126e 253d 456c 0a3d 17ff 193d
000000d0: 658a d53c c2d2 d1bb 2024 503d 81a0 acbc
000000e0: f25e 61bd c3ff 8b3c 17a5 3a3c ba0a 26bd
000000f0: 2880 743d c4f8 043d c91e 29bd 8cab d63c
00000100: 04fd 1ebc a9ca eb3c 3198 813d 6a02 47bc
00000110: 2665 4b3c 76d3 c3bc 27f5 723c d4d9 43bb
00000120: 20da d63d a3ce 193e 86ca c3bc dc2c 9a3d
00000130: 0cfa 833d 3b30 a63c e2bc 313d 3f0c 133c
00000140: e1ac b23c 93f5 0d3b a20c 7bbb 4673 00be
00000150: f41a 423c e480 eb3c acef 3d3d 02f9 823d
00000160: 8366 f33c 63f3 a63d 915e 3b3d addd 8d3c
00000170: a08b 353c 4fe1 483d 41ec 573d 4b63 1cbd
00000180: 5c26 9c3c d2cd 523d d395 a73d 4007 b7bd
00000190: 5db8 8dbc 1b5d c83c 9bdf 0a3d a720 583d
000001a0: c0e9 ae3c 25d5 873d ea3f 09bd af08 8bbc
000001b0: 1f07 6f3d c385 b5bb 8a32 303c 6762 88bd
000001c0: b745 d63d 48c8 193d fce1 e63c 9070 e93b
000001d0: 8ed0 343d e631 4abd f66e 8f3c fff8 363d
000001e0: 3bda 5abc c70f 933d e699 bb3d b002 9bba
000001f0: 14d0 973d 9189 12bd 0a3b df3c c05e a53d
00000200: d42a 2d3c 1f1a 0d3c 26e1 2c3d d420 63bb
00000210: f0c7 853b ef7e 093c f16d 5a3d 8f53 b43b
00000220: dd67 7dbd adb5 433c 9f3f fd3c 01c6 a4bd
00000230: ec12 7f3c 92b0 9638 c240 adbd 1132 1e3b
00000240: 0f31 5abd 187d 9e3d f846 1dbd 3180 2fbb
00000250: 0825 983c 992c 793c b942 703c c2ec 823c
00000260: 4a1d fd3b ff10 ea3c 2336 133d 1858 5b3d
00000270: 6be9 443d 147d 16ba 2887 443d 1e86 c13d
00000280: f853 a23c 2a42 9dbd 534d 13bc a05d 73bb
00000290: 4c20 73bd ae6b 9bbd 4a77 573d 25eb 52bd
000002a0: f89c e3bc 08fb 003d ac50 163d 5798 b0bb
000002b0: 13bb 493d c896 a03c 01fc b1bd e357 a5ba
000002c0: 3bf3 ea3b c5c7 e0bb f3d7 20bd a0a6 fabb
000002d0: 1903 e8b9 d0dc 10bb 3234 88bc ac03 e83b
000002e0: 7e10 e73c ce84 5fbd 3538 fa3c 3349 b33c
000002f0: 762f ac3c 2d79 843c bcae 913c 03c8 5d3d
00000300: 2c83 cfbd 242a 853d a141 ebbc f69b 58bc
00000310: e5a0 4abd ce90 fdbc bca2 c3ba b4b6 aa3c
00000320: f814 9dba 7373 1c3c 704b 03bb f76a 1abc
00000330: 512d 6b3d 04f4 ee3a 6f3d 643d 8787 10bd
00000340: ce8d b8bc af68 e9bc a607 eb3c 9868 b03c
00000350: 7caa 8d3b b71f 81bc c70f b2ba dc96 75bc
00000360: c5cb 9b3c ec1e b73c 9f3a be3a d026 cebc
00000370: 7f83 2d3c 0c50 ee3c e852 9c3c 467b ba3d
00000380: fd2f 793d 194a 1cbc 7093 893c 04e6 dbbc
00000390: cd8b 063d 95e4 dd3c 400f 3d3c 2b36 b53d
000003a0: 1f01 b6bd 255e ac3d de5d 1fbd af65 fdbc
000003b0: eda6 383b 553a 0cbc ef74 e13c 34da c73b
000003c0: 87f8 fabc beff 3f3b 82f3 a53c 3f3b 313d
000003d0: ecb2 843d 4a12 2b3d c3b3 4cbd 38bf d33d
000003e0: 726b 813d 5080 b93c 723e be3b 97e9 673c
000003f0: a007 3ebc 26e3 9d3c b779 3b3d 2ff6 623d

action_model._discrete_distribution.branches.2.bias f4 [3]
0.027107725 0.0015441224 -0.031830695
00000000: 0511 de3c 2664 ca3a e760 02bd
