ML-Agents/results/ppo/Volleyball/Volleyball-891.onnx (onnx, 291918 bytes, 15 tensors)

discrete_action_output_shape f4 [1, 4]
00000000: 0000 4040 0000 4040 0000 4040 0000 0040
3.0 3.0 3.0 2.0

network_body.observation_encoder.processors.0.normalizer.running_mean f4 [11]
00000000: 33bf 0cbd 29f5 1fbd 3ac5 d23e 3c2c d43e
00000010: 0812 2141 102f b03d 77c3 17bf 33ab 7e3e
00000020: 6b89 edc0 cbe6 dabc 5ce4 96bd
-0.03436203 -0.039052162 0.41166097 0.41439998 10.066902 0.086027265 -0.5928263 0.24869995
-7.4230247 -0.026721379 -0.07367775

network_body._body_endoder.seq_layers.0.weight f4 [256, 11]
00000000: ce52 bbbe 9fdc bc3d 9624 333f 44c0 36be
00000010: 3531 39be d3b8 9dbe fb24 303e e8f5 ad3e
00000020: e8c1 c2be e9e8 603e 7664 91be 9469 b4bc
00000030: b0f8 603c 9a6e 9f3e 15dd 9b3e 5385 c03e
00000040: b1d8 833e 0df5 a0be 65ab fabd b456 03bd
00000050: e77d 853e 766c bd3e 2e16 d03e 2a2b 273e
00000060: f53d b03e f6fb 953e 5f45 78be aca0 423e
00000070: 1001 8a3d bb12 e6bd 6547 2c3d e0af 81bc
00000080: 9693 1e3e 0ba3 00be 7246 1d3f dd43 4abe
00000090: b937 803e af13 5c3e cb09 9e3d 3cf7 d13e
000000a0: 84d4 313e 1745 ae3e 118d 8fbd d6d5 e83e
000000b0: 6823 3b3e a5a9 d2be 13bd 063e fda8 043f
000000c0: d43b 333e df9d cebe 8ea7 8e3d 3dd4 51be
000000d0: 4ef8 ee3d eb34 323e b03f e9be e8a0 153f
000000e0: 2e60 f0bd 4881 823d 74ea f83e 28a4 c73e
000000f0: abe8 173f e268 9c3e 0c14 d9bd 00b6 0dbd
00000100: 5be6 b6bd ebe7 04bf 8fa6 1e3e 9fce 3d3e
00000110: c341 013f 4bc6 ba3d 5330 753d 6355 6dbd
00000120: e6a7 dabe 3956 1f3f 1385 bc3d 36ae 7fbd
00000130: b0dc bcbc 579c 17be 9da1 643e 2f63 1ebe
00000140: 9ee6 0abf 23c6 b5be e33f f13e 5c93 fd3d
00000150: 17d1 913e f08f 433e ed51 dbbe 23b4 80be
00000160: bb8a 46be b3ee 633e a9ff 103f a79e 5e3e
00000170: 8895 11be d1c3 6ebe c759 553e 6ed9 233e
00000180: 97e5 103f 279a 93bd 062b 3b3e 7aba bfbe
00000190: 8898 4fbe b472 103e 24b1 293f ad83 44be
000001a0: 4391 3cbe df01 57bc 594b 6dbd 82b8 57be
000001b0: af55 1f3f 555c 0ebe abe0 253f 20fa a3bd
000001c0: 81e9 893d b386 543e 8997 3a3d 385e 14bd
000001d0: 5288 d83d 48da 17bf e3af 283e 1a39 4bbe
000001e0: 3ff2 69be 33f8 7ebe 3292 63be 53ac 97be
000001f0: 0f55 99be b4bc c83e 3ec3 0a3d c2e8 333f
00000200: bc91 8c3d 3c4f c7bd 0d96 523d ca49 9f3d
00000210: 284c 9ebe 9af1 14be 6880 30bd bd35 0abc
00000220: 1b4e 5b3d 015d e1bd 1b43 eabd 3888 90bd
00000230: 7f0b 7abe 36d6 173e fa64 49be d981 e23e
00000240: fd4c 51be 1c38 51be 63ca 3b3f f9fb 233e
00000250: 4a49 62bc a520 a3bd 1560 8e3e 9bb1 2a3d
00000260: 27f6 6ebe 54d9 0e3f dbf4 b53c ba32 debd
00000270: 9de6 3cbd 3284 8cbd 2a93 833e 0f84 09bf
00000280: c4aa b63e 3edd 82be ef88 3dbe 893f 043f
00000290: 7c9e 79be 3e15 01bc 7b4f 0abe 2ace 963e
000002a0: b70a 76be fe1e 583e 703e e9bd 7cc4 293e
000002b0: 4bb4 c33e de34 d6be a3af a03e 1802 f9b9
000002c0: d4e4 5d3e 89ee 043e cf88 a83e 2148 da3d
000002d0: 8e3f febe e4b0 aabe 0908 16be 162d 5c3e
000002e0: 6442 9a3c cc7b 6b3e 51c3 183e 57d9 9abd
000002f0: 3ae8 f33d 63da 413f 49c3 dc3e ed8c 07be
00000300: fdfa 7c3d c5c1 713e 9173 343e 17c4 8bbb
00000310: 4c6c c93e 2c0f bb3d 98fb de3e 7ef9 79bf
00000320: 363c c8be f9b9 17bf a454 853d 350e 9d3e
00000330: bbaf f93e d8f0 a53d 5fd1 adbe c69b 853e
00000340: 6a2a 73be cb37 cabd 03a5 48be 56cb 333e
00000350: d1a1 11bf 2584 d83e 45a0 423e 488d b1be
00000360: 5196 7a3e da6a cdbd 4eed 25bd 6410 bf3e
00000370: cb88 3cbe d50f 1ebf 2aa0 70bb 56c7 febe
00000380: a96b 74be 4b4f a23e a60b 533e ca96 aebe
00000390: 4b3f 95be 2f51 d23e 64e2 7a3e 6ddc 4c3e
000003a0: 2f64 02be 25f2 edbe fc34 c43d c999 f43d
000003b0: d071 9b3e 88ca 623d 3c34 b3be ccb4 84be
000003c0: eb6c eabe 153f 46be 1f52 ba3d f94d 3a3e
000003d0: dbf3 323e c941 68be 3717 f23d 0318 54bc
000003e0: f1d9 7bbe deb2 623e 9107 a4bd acdb 9a3e
000003f0: 0a45 923d 5c12 273f 9c3a 9dbd 387d 8f3e
-0.36586612 0.09221768 0.699777 -0.17846781 -0.18085177 -0.30805072 0.17201607 0.33976674
-0.38038564 0.21963848 -0.28396958 -0.022023 0.013731167 0.3113907 0.3044211 0.37601718
0.2575126 -0.3143696 -0.12239722 -0.03206511 0.26072618 0.36996812 0.40641922 0.1632506
0.3442227 0.29293793 -0.24245213 0.19006604 0.06738484 -0.11234041 0.042060275 -0.015830934
0.15485987 -0.12562196 0.61435616 -0.1975245 0.25042513 0.21491884 0.077167116 0.41008937
0.17366225 0.34037086 -0.07009328 0.45475644 0.18275225 -0.41145054 0.13158064 0.51820356
0.17503291 -0.4035482 0.06965552 -0.20491119 0.11668454 0.17402999 -0.45556402 0.5844865
-0.11737095 0.06372315 0.48616374 0.3899243 0.593394 0.3054877 -0.10599527 -0.034597397
-0.089306556 -0.5191638 0.15493225 0.18535851 0.5049097 0.09119853 0.05986054 -0.05794276
-0.4270622 0.6224094 0.092050694 -0.062422 -0.02305445 -0.14805733 0.22327276 -0.15467523
-0.54258144 -0.3550273 0.47119054 0.12381622 0.28479835 0.19097877 -0.42835942 -0.25137433
-0.19388859 0.22259025 0.56640106 0.21740209 -0.14217198 -0.23316886 0.20835029 0.16000912
0.56600326 -0.072071366 0.18278131 -0.37446958 -0.2027303 0.14106256 0.6628592 -0.19190855
-0.18414788 -0.013123005 -0.057933185 -0.21066478 0.6224012 -0.1390241 0.6479594 -0.08006692
0.067339905 0.20754509 0.04555467 -0.036222667 0.10572876 -0.59317446 0.16473345 -0.19846001
-0.22846316 -0.24899368 -0.22223738 -0.2962366 -0.29947707 0.3920647 0.033877604 0.70277035
0.06863734 -0.0973191 0.05141263 0.07777746 -0.30917478 -0.14545289 -0.043091208 -0.008435664
0.053541284 -0.11004067 -0.114385806 -0.07057232 -0.24418448 0.14827809 -0.19667426 0.4423969
-0.20439525 -0.2043156 0.7335569 0.16014089 -0.013811419 -0.07965211 0.2780768 0.041673284
-0.23336087 0.55800366 0.022211483 -0.10849519 -0.046118367 -0.06861152 0.25698215 -0.5371713
0.3567716 -0.2555942 -0.18509267 0.51659447 -0.24376863 -0.0078786 -0.13506882 0.29454166
-0.24027525 0.21105573 -0.11388862 0.16578859 0.3822349 -0.4183721 0.31384 -0.0004749454
0.21669322 0.12981619 0.32916877 0.10658289 -0.49657863 -0.33338082 -0.14651503 0.21501574
0.018830486 0.22996444 0.14918257 -0.075609855 0.11909528 0.75723857 0.4311774 -0.13237353
0.0617628 0.23609073 0.1762221 -0.004265319 0.39340436 0.09133753 0.43551326 -0.9764632
-0.39108437 -0.59268147 0.065102845 0.30674902 0.48766884 0.08102578 -0.339488 0.26095408
-0.23746648 -0.09873923 -0.19594197 0.17558035 -0.5688754 0.42288318 0.1900645 -0.34678102
0.24471404 -0.10030146 -0.040509515 0.37317193 -0.18411557 -0.6174291 -0.003671656 -0.49761456
-0.23869194 0.3170112 0.20609912 -0.34099418 -0.2914985 0.41077563 0.24500424 0.20005961
-0.1273353 -0.46473804 0.095804185 0.11943395 0.3036027 0.05536893 -0.3500079 -0.25919187
-0.45786223 -0.19360001 0.090976946 0.18193807 0.17475836 -0.22681345 0.11820834 -0.012945178
-0.24594857 0.22138545 -0.08009256 0.3024572 0.071420744 0.6526239 -0.076771945 0.28025222

network_body._body_endoder.seq_layers.0.bias f4 [256]
00000000: 0000 0000 0000 0000 0000 0000 0000 0000
00000010: 0000 0000 0000 0000 0000 0000 0000 0000
00000020: 0000 0000 0000 0000 0000 0000 0000 0000
00000030: 0000 0000 0000 0000 0000 0000 0000 0000
00000040: 0000 0000 0000 0000 0000 0000 0000 0000
00000050: 0000 0000 0000 0000 0000 0000 0000 0000
00000060: 0000 0000 0000 0000 0000 0000 0000 0000
00000070: 0000 0000 0000 0000 0000 0000 0000 0000
00000080: 0000 0000 0000 0000 0000 0000 0000 0000
00000090: 0000 0000 0000 0000 0000 0000 0000 0000
000000a0: 0000 0000 0000 0000 0000 0000 0000 0000
000000b0: 0000 0000 0000 0000 0000 0000 0000 0000
000000c0: 0000 0000 0000 0000 0000 0000 0000 0000
000000d0: 0000 0000 0000 0000 0000 0000 0000 0000
000000e0: 0000 0000 0000 0000 0000 0000 0000 0000
000000f0: 0000 0000 0000 0000 0000 0000 0000 0000
00000100: 0000 0000 0000 0000 0000 0000 0000 0000
00000110: 0000 0000 0000 0000 0000 0000 0000 0000
00000120: 0000 0000 0000 0000 0000 0000 0000 0000
00000130: 0000 0000 0000 0000 0000 0000 0000 0000
00000140: 0000 0000 0000 0000 0000 0000 0000 0000
00000150: 0000 0000 0000 0000 0000 0000 0000 0000
00000160: 0000 0000 0000 0000 0000 0000 0000 0000
00000170: 0000 0000 0000 0000 0000 0000 0000 0000
00000180: 0000 0000 0000 0000 0000 0000 0000 0000
00000190: 0000 0000 0000 0000 0000 0000 0000 0000
000001a0: 0000 0000 0000 0000 0000 0000 0000 0000
000001b0: 0000 0000 0000 0000 0000 0000 0000 0000
000001c0: 0000 0000 0000 0000 0000 0000 0000 0000
000001d0: 0000 0000 0000 0000 0000 0000 0000 0000
000001e0: 0000 0000 0000 0000 0000 0000 0000 0000
000001f0: 0000 0000 0000 0000 0000 0000 0000 0000
00000200: 0000 0000 0000 0000 0000 0000 0000 0000
00000210: 0000 0000 0000 0000 0000 0000 0000 0000
00000220: 0000 0000 0000 0000 0000 0000 0000 0000
00000230: 0000 0000 0000 0000 0000 0000 0000 0000
00000240: 0000 0000 0000 0000 0000 0000 0000 0000
00000250: 0000 0000 0000 0000 0000 0000 0000 0000
00000260: 0000 0000 0000 0000 0000 0000 0000 0000
00000270: 0000 0000 0000 0000 0000 0000 0000 0000
00000280: 0000 0000 0000 0000 0000 0000 0000 0000
00000290: 0000 0000 0000 0000 0000 0000 0000 0000
000002a0: 0000 0000 0000 0000 0000 0000 0000 0000
000002b0: 0000 0000 0000 0000 0000 0000 0000 0000
000002c0: 0000 0000 0000 0000 0000 0000 0000 0000
000002d0: 0000 0000 0000 0000 0000 0000 0000 0000
000002e0: 0000 0000 0000 0000 0000 0000 0000 0000
000002f0: 0000 0000 0000 0000 0000 0000 0000 0000
00000300: 0000 0000 0000 0000 0000 0000 0000 0000
00000310: 0000 0000 0000 0000 0000 0000 0000 0000
00000320: 0000 0000 0000 0000 0000 0000 0000 0000
00000330: 0000 0000 0000 0000 0000 0000 0000 0000
00000340: 0000 0000 0000 0000 0000 0000 0000 0000
00000350: 0000 0000 0000 0000 0000 0000 0000 0000
00000360: 0000 0000 0000 0000 0000 0000 0000 0000
00000370: 0000 0000 0000 0000 0000 0000 0000 0000
00000380: 0000 0000 0000 0000 0000 0000 0000 0000
00000390: 0000 0000 0000 0000 0000 0000 0000 0000
000003a0: 0000 0000 0000 0000 0000 0000 0000 0000
000003b0: 0000 0000 0000 0000 0000 0000 0000 0000
000003c0: 0000 0000 0000 0000 0000 0000 0000 0000
000003d0: 0000 0000 0000 0000 0000 0000 0000 0000
000003e0: 0000 0000 0000 0000 0000 0000 0000 0000
000003f0: 0000 0000 0000 0000 0000 0000 0000 0000
0.0 0.0 0.0 0.0 0.0 0.0 0.0 0.0
0.0 0.0 0.0 0.0 0.0 0.0 0.0 0.0
0.0 0.0 0.0 0.0 0.0 0.0 0.0 0.0
0.0 0.0 0.0 0.0 0.0 0.0 0.0 0.0
0.0 0.0 0.0 0.0 0.0 0.0 0.0 0.0
0.0 0.0 0.0 0.0 0.0 0.0 0.0 0.0
0.0 0.0 0.0 0.0 0.0 0.0 0.0 0.0
0.0 0.0 0.0 0.0 0.0 0.0 0.0 0.0
0.0 0.0 0.0 0.0 0.0 0.0 0.0 0.0
0.0 0.0 0.0 0.0 0.0 0.0 0.0 0.0
0.0 0.0 0.0 0.0 0.0 0.0 0.0 0.0
0.0 0.0 0.0 0.0 0.0 0.0 0.0 0.0
0.0 0.0 0.0 0.0 0.0 0.0 0.0 0.0
0.0 0.0 0.0 0.0 0.0 0.0 0.0 0.0
0.0 0.0 0.0 0.0 0.0 0.0 0.0 0.0
0.0 0.0 0.0 0.0 0.0 0.0 0.0 0.0
0.0 0.0 0.0 0.0 0.0 0.0 0.0 0.0
0.0 0.0 0.0 0.0 0.0 0.0 0.0 0.0
0.0 0.0 0.0 0.0 0.0 0.0 0.0 0.0
0.0 0.0 0.0 0.0 0.0 0.0 0.0 0.0
0.0 0.0 0.0 0.0 0.0 0.0 0.0 0.0
0.0 0.0 0.0 0.0 0.0 0.0 0.0 0.0
0.0 0.0 0.0 0.0 0.0 0.0 0.0 0.0
0.0 0.0 0.0 0.0 0.0 0.0 0.0 0.0
0.0 0.0 0.0 0.0 0.0 0.0 0.0 0.0
0.0 0.0 0.0 0.0 0.0 0.0 0.0 0.0
0.0 0.0 0.0 0.0 0.0 0.0 0.0 0.0
0.0 0.0 0.0 0.0 0.0 0.0 0.0 0.0
0.0 0.0 0.0 0.0 0.0 0.0 0.0 0.0
0.0 0.0 0.0 0.0 0.0 0.0 0.0 0.0
0.0 0.0 0.0 0.0 0.0 0.0 0.0 0.0
0.0 0.0 0.0 0.0 0.0 0.0 0.0 0.0

network_body._body_endoder.seq_layers.2.weight f4 [256, 256]
00000000: fc67 afbb 7650 593d 9773 e8bd deb6 bfbc
00000010: 216b 7ebd 1870 0abc b7dd e9bd 7302 48bd
00000020: dbe7 dfbd 64a4 e23d 0915 873d cb1b f7bd
00000030: b0f8 43bd a352 af3d 1e93 e83c cf37 583d
00000040: b910 113c e0ec 513d be3e 3abd 8e40 d23d
00000050: bc28 9bbd 7d6b 6dbd 95cd 8ebb a018 dfbd
00000060: da88 10bd 4f6c b63d cf77 d8bd a28e 473c
00000070: c45a 243d 0cae 50bd b898 143d 29b8 3a3d
00000080: 4fb0 b33c cc5d 403d 8fbc 0e3e 5c63 913d
00000090: 8640 083e 8313 183d b292 4ebd 9a31 8abd
000000a0: fa00 fd3c f43c 71bd 2178 023e 9439 bbbd
000000b0: 3b82 ec3c 5443 debd 159d e1bd 6458 3bbd
000000c0: 9acd 863d 6190 04bc de09 3a3d cae0 3bbd
000000d0: 5823 283e 3b4e a9bc 167d be3d a9a4 b03c
000000e0: 3eb4 e73c e94f 193d 1540 0abe 314d cfbd
000000f0: 3e9f 98bc ecde 7fbd c00e db3d 2490 85bc
00000100: 8099 be3d 756a f5bc 96db ed3c 0984 143d
00000110: f2d2 183d d78e 5abd b1df 07bc 7569 c83d
00000120: dba4 acbb c172 19be d8d0 873d 84fa c1bd
00000130: ed00 57bc 72f3 2fbd 9c8b 9cbc 8027 40bd
00000140: bc21 5e3d d36f 0b3b 6fe7 7e3d e73e 8e3a
00000150: 0699 65bd f26d 2bbd eb93 48bd fec7 9d3b
00000160: fd89 cb3d 24cd 86bd 391c 63bd e57f 39bd
00000170: fd96 2e3c 7fb6 30bd 9da3 aebd a221 1bbd
00000180: 2111 323d e927 6dbd 538d d73d 0df2 fb3c
00000190: 69a2 9b3d c3fc f2bc 9e8e d83d 227d 713d
000001a0: a45a 093d a979 96bd a6a9 e0bd e05c 9c3b
000001b0: d7b4 ad3c e034 433d 99af 41bd 4bff 8ebd
000001c0: a213 acbc 7f79 323c 7e8e ac3c 7987 843d
000001d0: 452e a9bd 3326 c03d ed48 923d d40f d93d
000001e0: ebc2 a1bd ec6c 1a3d c61f 50bc 1f28 dd3c
000001f0: 0324 0e3d a01a 84bd c1e5 efbd 7f5f cc3d
00000200: 784f a83c 6d36 89bb 3fa6 043c 3457 09be
00000210: bd40 d2bd 98f9 703d 6031 913d 564b 683d
00000220: 7716 bcbb ba66 35bd afe6 0dbc 1147 763b
00000230: 53d2 143c 43d1 b63c 2e0a 8ebd 4c08 503c
00000240: 4738 8c3d 7c35 b9bd c396 88bd 4bc5 29bd
00000250: d780 c2bd a3d5 db3d 673f 573d 30af 8fbd
00000260: cfe7 823d 86f6 b8bc 1f74 aebd 1ddb c9bd
00000270: 9356 c6bc aedc 89bd 2b8f 2fbd 5995 803c
00000280: e3bb 80bc 26be 9f3d b45d c0bd e4f1 42bd
00000290: da83 423d d5b7 81bd 9c84 69bd 7e73 41bd
000002a0: 46ec 843d b5c0 8cbc 0571 3fbc 438b 093d
000002b0: 5072 283d c64f 92bc e9aa 543e f755 f4bc
000002c0: c4ea 803d be1b 4f3c 10bb ed3d 6196 8a3d
000002d0: 740a 95bd da43 b7bd ba08 8dbd 7b6c 68bd
000002e0: 987d 423c dd58 923c 6938 ad38 46ff 08bd
000002f0: d53d cbbc 5eb9 65bc 351f 92bd 64d3 26bd
00000300: a3b5 953d bf79 4d3c 02f9 b7bd 5c16 f6bc
00000310: 4f61 963d dadb 953d 4145 d63c 55d9 ac3c
00000320: 0e50 403d 6912 9ebb 7243 cc3b 40a2 17be
00000330: 8c39 7f3c f1ef c5bd 9f36 ef3c c94f a33c
00000340: a012 abbc 153c b23b 041d b3ba 132a 0b3d
00000350: 5185 3a3d 5251 1fbd c816 883c 5409 0fbd
00000360: f1d0 26bd b994 15be 4a10 babc 0d21 59bd
00000370: 4d00 1ebd f28b bcbc 5705 7cbd 6c75 533d
00000380: 05ab 08bd 5cad 503d a7d1 0f3d 3256 ef3c
00000390: 3652 823d 6c84 06bc c7f2 d2bc a427 8b3d
000003a0: a2ea 3cbd 1b0e 77bc 0c3f 353b c071 163d
000003b0: 9879 b9bc 6e41 36bd 05d6 ddbc cc15 e33d
000003c0: 9992 b63c 09fa c1bb 7d5b 5c3d b5bf 3d3d
000003d0: 674f 833c a164 d8bc a341 72bd b594 11bd
000003e0: d6bd 72bd 8eb7 e83c a931 24bc 293b b03d
000003f0: 0923 a2bd ae0d f8bb 060b 1e3d a7ef bc3c
-0.005352972 0.05305525 -0.11350172 -0.023402628 -0.062113885 -0.008449577 -0.11419242 -0.04883046
-0.10932895 0.11066511 0.06595809 -0.12065848 -0.04784459 0.085606836 0.028390463 0.0527876
0.008854085 0.051251292 -0.045469992 0.10266219 -0.07576129 -0.057963837 -0.0043580034 -0.10893369
-0.03528676 0.08907377 -0.10569727 0.012180002 0.040125623 -0.050947234 0.036278456 0.045585785
0.021934656 0.04696445 0.13939117 0.070990294 0.13305864 0.037127983 -0.05043287 -0.06747742
0.030884255 -0.05889602 0.12741138 -0.091418415 0.028870692 -0.108526856 -0.11016289 -0.045738593
0.06582184 -0.008091063 0.045419566 -0.045868672 0.16419733 -0.020667186 0.09301202 0.021562891
0.028284188 0.037429724 -0.13501008 -0.10122145 -0.01863062 -0.062468454 0.10696173 -0.016304083
0.093066216 -0.02995799 0.02903537 0.03625873 0.037310548 -0.05335888 -0.008293078 0.09785739
-0.0052686757 -0.14985181 0.06631631 -0.0947161 -0.013122779 -0.042956777 -0.01910954 -0.04691267
0.05423139 0.002127637 0.06223243 0.0010852487 -0.056054138 -0.0418529 -0.04896919 0.0048151007
0.099384286 -0.06582096 -0.055446837 -0.045287985 0.010656116 -0.04314279 -0.085273005 -0.03787387
0.043473367 -0.05789939 0.10525002 0.030755067 0.07599337 -0.029661542 0.10574077 0.058957227
0.033533707 -0.073474236 -0.10969858 0.0047718138 0.021204395 0.047657847 -0.047286604 -0.06982287
-0.021005455 0.010893225 0.02106404 0.06471152 -0.08260778 0.09382286 0.07142816 0.10598722
-0.07898506 0.037701532 -0.012702888 0.02699667 0.034702312 -0.06450391 -0.11713744 0.09979152
0.020545706 -0.0041873963 0.008096277 -0.13412172 -0.10266254 0.05883178 0.07089496 0.05671247
-0.0057399827 -0.04428742 -0.008660956 0.003757898 0.009083348 0.02231658 -0.06935535 0.012697291
0.068466716 -0.090434045 -0.066693805 -0.04144792 -0.094972305 0.10734107 0.0525507 -0.07015836
0.0639187 -0.022578489 -0.08518242 -0.09856246 -0.024211204 -0.067315444 -0.042861145 0.015696215
-0.015714591 0.0779994 -0.093928725 -0.047593966 0.047489025 -0.06333891 -0.05701123 -0.047229283
0.06490378 -0.017181734 -0.011684661 0.033580076 0.041124642 -0.017860305 0.20768322 -0.029826147
0.06294778 0.012640892 0.11607945 0.06766964 -0.072773844 -0.089484885 -0.0688643 -0.05674408
0.011870764 0.017864639 8.25979e-05 -0.033446573 -0.024809757 -0.014021246 -0.071348585 -0.04072894
0.07310035 0.012541234 -0.08983041 -0.030039959 0.07342779 0.07317324 0.02615607 0.021099726
0.046951346 -0.004823972 0.006233626 -0.14807987 0.015577685 -0.09664906 0.02920085 0.019935505
-0.020882905 0.0054392912 -0.0013665264 0.033975672 0.045537297 -0.038895912 0.016612425 -0.034921005
-0.040726606 -0.14607514 -0.022712845 -0.053010035 -0.038574506 -0.02301595 -0.06152853 0.051625654
-0.033366222 0.05094658 0.03511205 0.029215906 0.06363337 -0.008210283 -0.02575053 0.0679467
-0.0461222 -0.015079047 0.0027655987 0.036729574 -0.022640988 -0.044495992 -0.027079592 0.11088142
0.0222867 -0.005919699 0.053798188 0.046325404 0.016029073 -0.026415171 -0.059144627 -0.03554221
-0.059263073 0.028407838 -0.0100216055 0.08605034 -0.07916839 -0.00756999 0.03858473 0.023063494

network_body._body_endoder.seq_layers.2.bias f4 [256]
00000000: 0000 0000 0000 0000 0000 0000 0000 0000
00000010: 0000 0000 0000 0000 0000 0000 0000 0000
00000020: 0000 0000 0000 0000 0000 0000 0000 0000
00000030: 0000 0000 0000 0000 0000 0000 0000 0000
00000040: 0000 0000 0000 0000 0000 0000 0000 0000
00000050: 0000 0000 0000 0000 0000 0000 0000 0000
00000060: 0000 0000 0000 0000 0000 0000 0000 0000
00000070: 0000 0000 0000 0000 0000 0000 0000 0000
00000080: 0000 0000 0000 0000 0000 0000 0000 0000
00000090: 0000 0000 0000 0000 0000 0000 0000 0000
000000a0: 0000 0000 0000 0000 0000 0000 0000 0000
000000b0: 0000 0000 0000 0000 0000 0000 0000 0000
000000c0: 0000 0000 0000 0000 0000 0000 0000 0000
000000d0: 0000 0000 0000 0000 0000 0000 0000 0000
000000e0: 0000 0000 0000 0000 0000 0000 0000 0000
000000f0: 0000 0000 0000 0000 0000 0000 0000 0000
00000100: 0000 0000 0000 0000 0000 0000 0000 0000
00000110: 0000 0000 0000 0000 0000 0000 0000 0000
00000120: 0000 0000 0000 0000 0000 0000 0000 0000
00000130: 0000 0000 0000 0000 0000 0000 0000 0000
00000140: 0000 0000 0000 0000 0000 0000 0000 0000
00000150: 0000 0000 0000 0000 0000 0000 0000 0000
00000160: 0000 0000 0000 0000 0000 0000 0000 0000
00000170: 0000 0000 0000 0000 0000 0000 0000 0000
00000180: 0000 0000 0000 0000 0000 0000 0000 0000
00000190: 0000 0000 0000 0000 0000 0000 0000 0000
000001a0: 0000 0000 0000 0000 0000 0000 0000 0000
000001b0: 0000 0000 0000 0000 0000 0000 0000 0000
000001c0: 0000 0000 0000 0000 0000 0000 0000 0000
000001d0: 0000 0000 0000 0000 0000 0000 0000 0000
000001e0: 0000 0000 0000 0000 0000 0000 0000 0000
000001f0: 0000 0000 0000 0000 0000 0000 0000 0000
00000200: 0000 0000 0000 0000 0000 0000 0000 0000
00000210: 0000 0000 0000 0000 0000 0000 0000 0000
00000220: 0000 0000 0000 0000 0000 0000 0000 0000
00000230: 0000 0000 0000 0000 0000 0000 0000 0000
00000240: 0000 0000 0000 0000 0000 0000 0000 0000
00000250: 0000 0000 0000 0000 0000 0000 0000 0000
00000260: 0000 0000 0000 0000 0000 0000 0000 0000
00000270: 0000 0000 0000 0000 0000 0000 0000 0000
00000280: 0000 0000 0000 0000 0000 0000 0000 0000
00000290: 0000 0000 0000 0000 0000 0000 0000 0000
000002a0: 0000 0000 0000 0000 0000 0000 0000 0000
000002b0: 0000 0000 0000 0000 0000 0000 0000 0000
000002c0: 0000 0000 0000 0000 0000 0000 0000 0000
000002d0: 0000 0000 0000 0000 0000 0000 0000 0000
000002e0: 0000 0000 0000 0000 0000 0000 0000 0000
000002f0: 0000 0000 0000 0000 0000 0000 0000 0000
00000300: 0000 0000 0000 0000 0000 0000 0000 0000
00000310: 0000 0000 0000 0000 0000 0000 0000 0000
00000320: 0000 0000 0000 0000 0000 0000 0000 0000
00000330: 0000 0000 0000 0000 0000 0000 0000 0000
00000340: 0000 0000 0000 0000 0000 0000 0000 0000
00000350: 0000 0000 0000 0000 0000 0000 0000 0000
00000360: 0000 0000 0000 0000 0000 0000 0000 0000
00000370: 0000 0000 0000 0000 0000 0000 0000 0000
00000380: 0000 0000 0000 0000 0000 0000 0000 0000
00000390: 0000 0000 0000 0000 0000 0000 0000 0000
000003a0: 0000 0000 0000 0000 0000 0000 0000 0000
000003b0: 0000 0000 0000 0000 0000 0000 0000 0000
000003c0: 0000 0000 0000 0000 0000 0000 0000 0000
000003d0: 0000 0000 0000 0000 0000 0000 0000 0000
000003e0: 0000 0000 0000 0000 0000 0000 0000 0000
000003f0: 0000 0000 0000 0000 0000 0000 0000 0000
0.0 0.0 0.0 0.0 0.0 0.0 0.0 0.0
0.0 0.0 0.0 0.0 0.0 0.0 0.0 0.0
0.0 0.0 0.0 0.0 0.0 0.0 0.0 0.0
0.0 0.0 0.0 0.0 0.0 0.0 0.0 0.0
0.0 0.0 0.0 0.0 0.0 0.0 0.0 0.0
0.0 0.0 0.0 0.0 0.0 0.0 0.0 0.0
0.0 0.0 0.0 0.0 0.0 0.0 0.0 0.0
0.0 0.0 0.0 0.0 0.0 0.0 0.0 0.0
0.0 0.0 0.0 0.0 0.0 0.0 0.0 0.0
0.0 0.0 0.0 0.0 0.0 0.0 0.0 0.0
0.0 0.0 0.0 0.0 0.0 0.0 0.0 0.0
0.0 0.0 0.0 0.0 0.0 0.0 0.0 0.0
0.0 0.0 0.0 0.0 0.0 0.0 0.0 0.0
0.0 0.0 0.0 0.0 0.0 0.0 0.0 0.0
0.0 0.0 0.0 0.0 0.0 0.0 0.0 0.0
0.0 0.0 0.0 0.0 0.0 0.0 0.0 0.0
0.0 0.0 0.0 0.0 0.0 0.0 0.0 0.0
0.0 0.0 0.0 0.0 0.0 0.0 0.0 0.0
0.0 0.0 0.0 0.0 0.0 0.0 0.0 0.0
0.0 0.0 0.0 0.0 0.0 0.0 0.0 0.0
0.0 0.0 0.0 0.0 0.0 0.0 0.0 0.0
0.0 0.0 0.0 0.0 0.0 0.0 0.0 0.0
0.0 0.0 0.0 0.0 0.0 0.0 0.0 0.0
0.0 0.0 0.0 0.0 0.0 0.0 0.0 0.0
0.0 0.0 0.0 0.0 0.0 0.0 0.0 0.0
0.0 0.0 0.0 0.0 0.0 0.0 0.0 0.0
0.0 0.0 0.0 0.0 0.0 0.0 0.0 0.0
0.0 0.0 0.0 0.0 0.0 0.0 0.0 0.0
0.0 0.0 0.0 0.0 0.0 0.0 0.0 0.0
0.0 0.0 0.0 0.0 0.0 0.0 0.0 0.0
0.0 0.0 0.0 0.0 0.0 0.0 0.0 0.0
0.0 0.0 0.0 0.0 0.0 0.0 0.0 0.0

action_model._discrete_distribution.branches.0.weight f4 [3, 256]
00000000: 876d 183c 778b 4cbb c78f cabb e016 56bb
00000010: 5fdd dd3b 2349 cd3b 9519 06bb 1664 4b3b
00000020: 655c f939 ed06 8e3b cdb6 02bc 3bef 8e3c
00000030: 953b 83bc 6dac f7bb 25fc beba c713 373b
00000040: d9cb 0cbb 9ba6 c43b 2889 823b 71b0 96bb
00000050: a71d b83b 57fe 31bc 29a6 29ba d0b2 4f39
00000060: 99f2 8cba 2f0a 9c3b 08fd 2ebb e582 293c
00000070: 1692 1839 a5f9 6ebc 43a2 8239 e361 a13b
00000080: e758 6c3b ab78 95bb 5f7f 753c c0a2 8dbb
00000090: 56d1 48bb 89a0 42bb 6fef e53a 1aac 8b3b
000000a0: 0359 213a ac2b 98bb 554d 79bb 91f8 853b
000000b0: a850 883b f02b 3f3b 35da e9bb 79f0 98ba
000000c0: 0d1f b9ba 2bc6 b039 cf58 ca39 4bc0 c2bb
000000d0: b3a5 7fba 5388 983b d639 8bbb a9b8 2abc
000000e0: 6705 0cbc 49d1 023c 495b b9bb 559f e83a
000000f0: b3c4 d4ba 40dc 3c3c 2f87 01bc 9951 c5bb
00000100: 54a4 0e3a 0511 af3b 0acd 603b 1fd0 383c
00000110: 5ce4 c63b 805f e0b6 08d6 66bc 9f48 713b
00000120: 2cf6 b4b8 11ab 0e3c 9fc7 38ba 33d4 46bb
00000130: 2fa9 20bc 95ae e739 80ff ef3b a72b 363a
00000140: 7ea9 233b 2ee5 1f3c 91df 123c b0ef 9b3b
00000150: 237e ccbb a5ea c8bb 8339 05bc 9f38 69ba
00000160: 1b2e 3b3c 81db 193c ca17 bbb7 c563 05bb
00000170: 7be8 0a3c d566 cf3a 61e6 c23b 7167 94bb
00000180: 3b21 ef3a 811e 8c3b 4098 853a 245e 853c
00000190: 7f9a fd3b eae3 cfbb 1505 6139 59f2 893a
000001a0: 9c9a 393b 959a bcba aa94 f2ba 7b66 663b
000001b0: 9a6d 02bc a930 c6ba 1b43 f0ba 0450 0cbc
000001c0: dc76 183b b1a5 263a dd1f 523c 5faa f33a
000001d0: ef4e 90ba 70ef 6dbb 3ef0 c43b af23 01bc
000001e0: 75cf 413c a01c 853b d727 213b 5cbb 8439
000001f0: 5bf4 b4bb 3fb5 aa3b 20dd 94bb d7e7 4e3a
00000200: ebdb 503b 7f60 b73b 411d b9ba fd95 c9bb
00000210: 7ff8 853b f825 b73b 2a87 8cbb 4bd0 17bc
00000220: 18e9 8abc 9344 e63a 3f8c 80bc 37e2 d0ba
00000230: e3a8 15bb bbea 333b a3db f8b9 2d7d dbbb
00000240: b0ed 17bc fb94 913a 6ace 2dbb 6fe9 56b9
00000250: 82d8 c1b9 c58d b03a 1229 623b b264 ecbb
00000260: 700a 4abb 220a 043b a7c4 823c 3de7 6d38
00000270: 4f36 d9bb b796 2ebb d2bb 5f3b a439 80bb
00000280: 924c 563c e398 1b3c 2b5d 23bc c8fa 14bb
00000290: 7861 0c3a 8f4e dc3a ef62 363b f372 8e3b
000002a0: e4ed 05bc 7959 9c3b 2993 463b f3c1 4a3b
000002b0: 9285 11bb dfff 963a b666 93bb 653f 343a
000002c0: bd35 273b a3f4 0fba 2f32 503c f5c4 253b
000002d0: f1ba 833b cc34 0bbc 1326 50bb b59d 3d3c
000002e0: a326 0bbc 45c6 b4bb 54e2 0d3b bb5f f2bb
000002f0: 1f33 803b b206 763c dd4f 433c 58d3 cf3a
00000300: bc8a 81b9 e3a2 e8bb bf9f 4d3b 218b 223b
00000310: 73b0 d73a f088 e439 6786 4bbb 7ef7 8bbb
00000320: 5b6d cdbb 1b6d 8eb9 d8b9 cabb e2a8 a2bb
00000330: 0bdd a7bb 91a5 1b3b 4236 fb3a 70e6 8bbb
00000340: 1087 e63b b0e0 1f3a 622d b43b ed75 76bc
00000350: 4c14 aabb b3ff b4ba 5f52 3fbc 172e 93bb
00000360: 2f02 6e39 a519 9bbb df49 863a e7b1 a83a
00000370: fe79 91ba 6076 f0bb cd24 95ba 453c d9bb
00000380: 3b46 353b 59a1 943b e758 b5bb 1d90 1cbc
00000390: 09d7 3ebc 2204 44bb d244 933a 182b 023b
000003a0: e25c b2bb 36b6 4cbc e82a cfba 437b 5c3b
000003b0: 5e30 95ba 0dfe 0a3c efc6 9d3b a7ba 003c
000003c0: 8ba9 013a 8bbf dcbb 10a2 0c3b 72ac 613b
000003d0: 1786 1e3a b565 19bc 56fb 2ebb e574 10bb
000003e0: b18e 1a3c 5236 37bb d357 18bc bded 5cba
000003f0: 1a54 a03b d699 193c 53d0 b03c 592d a83c
0.009303457 -0.0031211057 -0.0061816904 -0.0032667443 0.0067707743 0.006264822 -0.0020462025 0.0031034998
0.0004756182 0.0043343217 -0.007978153 0.017448058 -0.016019622 -0.0075583966 -0.0014570995 0.0027935372
-0.0021483807 0.006001306 0.0039836355 -0.00459867 0.005618769 -0.010863862 -0.0006471598 0.00019807671
-0.0010753452 0.004761956 -0.0026701111 0.010346149 0.00014550271 -0.014585887 0.00024916427 0.004924999
0.0036063732 -0.004561504 0.014983981 -0.00432238 -0.0030642352 -0.0029697737 0.001754267 0.0042624595
0.00061549264 -0.004643878 -0.0038040478 0.0040884693 0.0041600056 0.0029170476 -0.007136608 -0.0011668346
-0.0014123634 0.00033716983 0.0003859461 -0.0059433333 -0.0009752169 0.004654923 -0.004248838 -0.010420003
-0.00854621 0.007984468 -0.005656634 0.001774768 -0.0016232937 0.011527121 -0.007905765 -0.00602169
0.0005441357 0.005342605 0.00343019 0.011280089 0.006069703 -6.686838e-06 -0.014089115 0.0036816967
-8.628922e-05 0.008707778 -0.0007048789 -0.0030338883 -0.0098059615 0.00044189827 0.007324159 0.0006949254
0.0024972851 0.009759231 0.008964435 0.0047587976 -0.0062406226 -0.0061314874 -0.008131388 -0.0008896682
0.011424567 0.009390713 -2.2303215e-05 -0.0020353657 0.008478279 0.0015823493 0.0059478735 -0.0045289327
0.0018244156 0.0042760973 0.0010192469 0.016280241 0.0077393646 -0.006344308 0.00021459565 0.0010524496
0.0028320914 -0.0014389331 -0.001850744 0.0035156298 -0.007960701 -0.0015120703 -0.0018330546 -0.008563999
0.0023264205 0.00063570874 0.01282498 0.0018590203 -0.0011009852 -0.0036306046 0.0060100844 -0.007882043
0.011829247 0.0040622503 0.0024590397 0.00025316596 -0.0055222935 0.0052095945 -0.0045429617 0.0007892823
0.0031869363 0.00559622 -0.0014123098 -0.006151913 0.004088461 0.005589243 -0.0042885737 -0.0092659695
-0.01695685 0.0017568044 -0.015691875 -0.0015936558 -0.002283626 0.0027453143 -0.00047465888 -0.0066982717
-0.009272978 0.0011107022 -0.0026520737 -0.00020495591 -0.0003697314 0.0013469985 0.0034509343 -0.0072141523
-0.0030828975 0.0020147641 0.015962912 5.672056e-05 -0.0066287885 -0.0026640126 0.003413905 -0.0039131213
0.013079779 0.0094969 -0.009970943 -0.0022732485 0.00053551 0.001680808 0.0027829965 0.004347199
-0.008174393 0.004771408 0.0030300117 0.0030938357 -0.0022204858 0.0011520347 -0.004498328 0.00068759016
0.0025514208 -0.0005491471 0.012707277 0.0025294397 0.004020088 -0.0084964745 -0.0031760975 0.011573245
-0.008493098 -0.0055167996 0.0021649795 -0.007396666 0.003912344 0.015016245 0.011920896 0.0015855832
-0.00024708163 -0.0070994957 0.0031375734 0.0024802166 0.0016455784 0.00043589575 -0.0031055452 -0.0042714467
-0.0062691397 -0.0002716564 -0.006186705 -0.00496398 -0.005122786 0.0023749808 0.001916595 -0.0042694137
0.0070351437 0.00060988497 0.005498574 -0.015042764 -0.005190408 -0.0013809114 -0.011677354 -0.0044915783
0.00022698262 -0.0047332817 0.0010245404 0.0012870402 -0.0011098979 -0.00733833 -0.0011378765 -0.006629499
0.0027660269 0.0045358357 -0.0055342796 -0.009555844 -0.011647948 -0.002990969 0.001123572 0.0019862112
-0.0054432014 -0.012494614 -0.0015805634 0.0033642806 -0.0011382212 0.008483422 0.0048149745 0.007857001
0.00049462233 -0.006736701 0.0021458901 0.003443506 0.00060472026 -0.009362628 -0.00267001 -0.002204233
0.009433434 -0.0027955961 -0.009298283 -0.000842776 0.004892838 0.009375056 0.021583712 0.020529436

action_model._discrete_distribution.branches.0.bias f4 [3]
00000000: 0000 0000 0000 0000 0000 0000
0.0 0.0 0.0

action_model._discrete_distribution.branches.1.weight f4 [3, 256]
00000000: faaf 58bc d34c 26bc 6ed3 403b 4ca7 bebb
00000010: 4bf6 4d3b ef51 9a3a 2e20 9fbc 58f7 053c
00000020: 5b0d 5f3b ea7c 9dba 0abc 243a f9d5 273b
00000030: 5a0e e33b b386 9a3a 3c96 c2bb c7c5 ca3b
00000040: 6a11 dbba 83a5 a53b 224b d4bb 6ff5 123b
00000050: 87b4 113b 1e5b 45bb d861 afbb ba1a 043a
00000060: 736d 943b d068 91b9 2684 c4bb 236c 483b
00000070: 5310 4ebc cfdf c5bb 97c5 243b 3bcd 2f3c
00000080: 0582 c0ba a05e 013b 6f2a abb9 ba81 72bb
00000090: 2af7 463b f2dd f43b 676d 553b 4b6d c9bb
000000a0: af4c 693b cd6c f4ba b5e5 93b9 358f dcb9
000000b0: f70d 67b8 53df bcbb 5165 12bb dde2 353c
000000c0: f5d7 0a3b 8630 8cbc 5a61 febb bfbe 9b3a
000000d0: 55e6 58bc a8bf 29bb 4d0f 94ba d699 c4bb
000000e0: d51f bb3a 2d0a 093c 107c d53b ee48 97bb
000000f0: fbd6 603b 86f4 403a b098 733c 9721 6bbc
00000100: 8d90 2c3c c812 e3ba 87fd b23a b290 37bb
00000110: 3a3c abbb d834 e6bb 17b8 47bc 6d34 a2bb
00000120: 12d3 003c aa60 3f3c c0bc 7c3b 9cbe c1ba
00000130: a575 db3a 425e a93b 8e04 c9bb 8acd caba
00000140: 0eca 1fbc d587 243c afff 01bb 3377 54bb
00000150: 4f35 8e3b cf6a f9b9 1de4 b43a e3db 7c3b
00000160: f5fb 593b 0734 d5bb 2a2a f8bb df85 fbbb
00000170: 3008 b6bb 7d63 69b9 1184 b43a 8b34 2aba
00000180: 882e 1a3c a073 14b9 9d1a df3a 82d4 93bb
00000190: 49e3 ad3a dd1d 2c3c 2b79 20bb 1e07 263c
000001a0: 1755 4a3b ef23 023b 415e 353c f438 833c
000001b0: 6559 0e3c 71a9 27bb f1e5 2bbb 8235 b43b
000001c0: cd26 04bb 6f80 6bbb 6f02 d7bb 031c f53a
000001d0: 6db0 1d3c 98c3 4ebb 2cbe 193c 0359 a43b
000001e0: 79b1 48bc c7c2 083c e2f8 c93b 7ab4 053c
000001f0: 4f0d 783b 2bf4 cabb ed20 62bb b552 52bc
00000200: 1dc8 aebb 5a38 72bb b07a 213c cddf 7cbc
00000210: a72c d93b 2737 87bb dd92 4dbb 25c1 08b9
00000220: e89d 48bb 8aeb c63b 4dbc 74bc 3954 3f3b
00000230: 9397 44bc 55cc dcb9 3e2a 103a ef9f 063c
00000240: 4564 5dbc bf3f 2fbc bae9 8bbb 29d0 0bbc
00000250: ba96 cfbb a621 9f3a 18c8 babb a45a 32bc
00000260: 99f6 243c 9ddd 4dbb 10bf a1ba 4be6 023c
00000270: 4fd1 2bbb 337a 68bb 7bdf 3ebb 736a 2fba
00000280: 896c 84bb 50a8 bb3a 40f1 313b 811b bd3b
00000290: 2a33 d6bb 5390 5db9 a85a 96bb 1bfb 9dbb
000002a0: 0d68 e63a 15e4 953b b185 b03b b308 d53a
000002b0: ef51 903b b467 1e3c eb9f 14bc 31c1 9d3a
000002c0: 47ff 913b 0b02 cfba 7328 143c f70a 813b
000002d0: 7fdd 44bb af31 00bc 6f6e 39ba b9b2 3dbb
000002e0: c377 233c 629b 38bc 7f80 e6bb 8aa6 c93b
000002f0: 9200 b9ba 28cd 28b6 0b43 7bbb 0a01 ac3a
00000300: 305a 823a ac19 9cbb ae16 a93a 133f a33b
00000310: fb75 bc3a 9d84 fdba b570 dab9 c22f 5cbb
00000320: 8033 8db9 5518 0abb 4f2e 5cbb b8c6 513b
00000330: 53c1 113c 2b18 8e3b 943d a6b7 1dc8 56bb
00000340: 0733 16b9 0a18 dcbb ea8c c0bb c8e0 82bb
00000350: 6cbf 9f3a 0f93 823a 1839 2abb 830c 27bb
00000360: c502 cdbb af4d 013c d365 bc3b e8d3 9f3b
00000370: 83d3 6c3b 5cb6 0dbb 10a6 e3b9 3f41 3cbb
00000380: b7d5 063c fa71 7d3b ea65 8b3b 3150 a93b
00000390: 7d40 6e3a 7c7a 023b 7b78 ab3b 4f9e c83b
000003a0: ac27 003c b123 bcba 0976 433c 9580 2ebc
000003b0: 2b78 e53a e2f7 6fbb 0717 feb9 4f2c 683a
000003c0: 759a 523c e5d6 ad3b 4aa5 15bc 7524 8e3b
000003d0: 7bb1 9ebb 6e0e 063c 2007 513a 0741 b33a
000003e0: d0c0 d6bb 92d8 563b ced4 07bc 8799 293c
000003f0: 2262 6d3b a7ff 93bb b73d f538 5ba7 e5b9
-0.01322555 -0.010150152 0.0029422897 -0.005818283 0.003142732 0.0011773686 -0.019424524 0.008176647
0.003403506 -0.0012015377 0.00062841235 0.0025609715 0.006929201 0.0011789411 -0.0059383195 0.0061881277
-0.0016713564 0.005055131 -0.006478683 0.0022424122 0.0022232847 -0.0030114125 -0.00535224 0.0005039383
0.004529649 -0.00027734647 -0.0059971986 0.0030582033 -0.012577134 -0.006038643 0.0025142187 0.010730083
-0.0014687186 0.0019740239 -0.00032647277 -0.0037003593 0.0030359724 0.007472747 0.003256643 -0.006147062
0.0035598685 -0.0018648148 -0.0002820917 -0.00042068367 -5.5087698e-05 -0.005763927 -0.0022338221 0.011101452
0.002118585 -0.017112982 -0.00776307 0.0011882408 -0.013238509 -0.002590159 -0.0011296064 -0.005999784
0.0014276454 0.0083642425 0.0065150335 -0.004616848 0.0034307826 0.00073606556 0.0148679465 -0.01435127
0.0105325105 -0.0017324323 0.0013655879 -0.002800983 -0.0052256854 -0.0070253424 -0.0121898865 -0.0049500973
0.007862823 0.011680761 0.0038564652 -0.0014781537 0.0016743435 0.005168707 -0.006134576 -0.0015472632
-0.009752763 0.0100421505 -0.0019836237 -0.003241968 0.004339851 -0.0004757256 0.0013800893 0.003858321
0.003326175 -0.0065064463 -0.0075733857 -0.007675871 -0.0055551752 -0.00022257674 0.0013772269 -0.0006492815
0.009410508 -0.00014157454 0.0017021481 -0.004511417 0.0013266589 0.010505167 -0.0024486284 0.010133533
0.0030873471 0.0019857844 0.011069835 0.016018368 0.0086883055 -0.0025583173 -0.0026229585 0.0054995427
-0.0020164729 -0.0035934707 -0.0065615694 0.0018700365 0.009624583 -0.0031549688 0.009383719 0.005015494
-0.012249344 0.00834722 0.0061637023 0.008160705 0.003784973 -0.006193658 -0.0034504489 -0.012837102
-0.005333914 -0.0036959858 0.009855911 -0.015434218 0.0066276374 -0.0041264477 -0.0031368055 -0.00013041923
-0.0030611698 0.006070559 -0.0149374725 0.0029194488 -0.011999029 -0.0004211391 0.00054994586 0.008216842
-0.013512676 -0.010696351 -0.0042698057 -0.008533516 -0.0063351067 0.0012140765 -0.0057001226 -0.010885868
0.010068559 -0.003141261 -0.0012340266 0.007989476 -0.0026217287 -0.0035473227 -0.0029124904 -0.00066915824
-0.0040412587 0.0014317129 0.0027151853 0.005771101 -0.006536861 -0.00021129967 -0.004588444 -0.004821194
0.0017578617 0.0045743086 0.005387031 0.0016253203 0.0044042985 0.009668279 -0.009071331 0.0012035725
0.0044554803 -0.0015793456 0.009042847 0.0039380747 -0.0030039249 -0.0078243455 -0.0007073646 -0.0028945638
0.009977284 -0.011267515 -0.007034361 0.006153886 -0.001411455 -2.5153367e-06 -0.0038339521 0.0013122868
0.0009945091 -0.0047638025 0.0012900436 0.0049818843 0.0014378423 -0.001934189 -0.00041664173 -0.0033597802
-0.00026931986 -0.0021071632 -0.0033596938 0.0032009315 0.00889619 0.004336377 -1.9817417e-05 -0.0032773085
-0.00014324124 -0.006716733 -0.0058761733 -0.003994081 0.0012187785 0.000996204 -0.0025973972 -0.0025489635
-0.0062564337 0.007892056 0.005749443 0.004877556 0.0036136813 -0.0021623587 -0.0004342054 -0.0028725413
0.0082296645 0.0038672672 0.0042540925 0.0051670303 0.0009088589 0.0019909432 0.0052328683 0.0061223875
0.0078219585 -0.0014353899 0.011929997 -0.0106507735 0.0017507126 -0.0036616256 -0.00048463812 0.00088567
0.012854208 0.0053051584 -0.009133646 0.004337842 -0.0048429347 0.008182151 0.0007973779 0.0013675996
-0.0065537468 0.0032782895 -0.008290483 0.010351545 0.0036221822 -0.00451656 0.00011694006 -0.00043802973

action_model._discrete_distribution.branches.1.bias f4 [3]
00000000: 0000 0000 0000 0000 0000 0000
0.0 0.0 0.0

action_model._discrete_distribution.branches.2.weight f4 [3, 256]
00000000: 914e 83bb eb8d cb3b e0e2 b3bb 7ddb 4bbc
00000010: 79af 94bb 179e 223c 6f5b 36bc 9718 73bb
00000020: 3499 333b 5255 16bc 1dbc 5dbc 43a7 cb3b
00000030: 77c6 aabb 3d83 7e3b bf18 8cbb 431c 673a
00000040: 6658 913b 86cb 98ba 7ec4 aabb 32e4 6a3b
00000050: b664 883b feec ad3b 6314 3cbb 60ec 86bb
00000060: 36a8 93ba b143 203c 80c1 b73b fb57 0d3c
00000070: 9daa ea3b 4b8a 07bc c065 2abc a047 f739
00000080: 0ec5 0f3c eaf5 1cbc a651 adbb 379a 303c
00000090: 8c1e acbb 4fd2 a63b c018 3cbc c3ff f53a
000000a0: f655 883b 5ba0 b93a 98a7 393b 675f 523b
000000b0: c766 1d3c 7385 9239 7d05 fc3b 0523 5b3b
000000c0: 7e78 c43b e337 903b 6c8e a2bb 91af 293b
000000d0: 479d 883b c0e1 d7bb 0ac8 053c 33c0 2aba
000000e0: 9040 7abb c1fa 8fbb 4ffe 853b 6a9f 10bc
000000f0: 2bb6 2f3c edd0 dcbb 532e b33b e27c 7639
00000100: 2b4c 17ba 759b f63a 2324 043c 174e ee3a
00000110: 1942 283c 88af 593b c954 89bb f052 5ebb
00000120: f519 e638 e8d5 25bb 1449 983b a2c8 e83a
00000130: 43b3 03bb 47cf 933a 8db9 333c 0da5 f13b
00000140: 4cc7 12bb 702a 60bb 1817 cf39 d317 003b
00000150: 3759 a33a 6bf0 bc3b af39 a1bb 3b54 e7bb
00000160: 91b1 4cbc f765 8abb ab12 cd3a e327 e9b8
00000170: fd2a bfbb 5f0d 863a 7f73 56bc f317 d8b9
00000180: 2f65 15bc 7ceb 913a 6cb4 1cbc dded 0f3b
00000190: 8bc0 42b9 555a dbbb 517f 843a 2572 cbbb
000001a0: 2700 87b9 e163 9cba 0d1b d43a 4242 fcbb
000001b0: ab2a 9dbb 43a0 063c 9776 74bb 88b3 caba
000001c0: 91c4 b3bb 7502 653a 03b7 4c3a 9665 103c
000001d0: 5acc 9d3b 53af 553b 2f84 14bb 7092 2cbb
000001e0: 692e 2b3c 3396 2e3c 853d ffba 90ff 5cb9
000001f0: 8347 883c 095f 1a3b 615d 4b3b 75c7 153a
00000200: e584 8e3b cc93 273c 74e0 90bb 58ab 173b
00000210: e7c4 1d3b bcf3 07bb 83e3 13bc dfed 55bc
00000220: 7cc3 a43b 4b48 b8bb 366c 9f3b f721 ceba
00000230: 8292 0a3c e79f 2d3c b9db 1ebc ab4d 1abc
00000240: 6a2f 113c 6fda c73b 2202 c739 4bee 953b
00000250: b0f6 203b 9373 af3b cb9b ef3b 12fe 9e3b
00000260: 1796 e7ba d313 c1ba 0341 85ba 8f47 d03b
00000270: 9171 34bc 17a1 c8ba c9d7 abba 60ac 53bb
00000280: 73ad cdbb dd75 ee3b e59c e8bb 676a 393b
00000290: 17e0 adbb 5d71 e6bb 5d6a cfbb 9759 ac3a
000002a0: 2917 a2ba b033 e3bb fbe0 8c3b 50f9 f6ba
000002b0: 462c 9abb 9777 1ebc ffab 3f3b 8956 c8bb
000002c0: 6b0b 99b9 d23f eabb 64d2 1a3b bb31 f73b
000002d0: 0bb5 2d3c 3f50 03bb 3fdc aa3a 3316 bbbb
000002e0: eade 23bc f211 ecbb fbc0 dd3b 4bf5 1cbb
000002f0: ab7e 293b 40dc fabb eba0 96bb 104a 8cba
00000300: 0805 71bb 52fa 6dbb 4745 853b e036 9cbb
00000310: 0a8f 193c 0bb8 6c3a d5c2 d53b 5cc0 b1bb
00000320: 3fc6 3939 f88e f63a 90a9 263c 6b4f d5ba
00000330: da1e 0c3b faf9 d33b f54d c7b9 1bad 0c3b
00000340: 0aad 1f3b ca70 f3b8 a7d8 54bb cb7d 06bb
00000350: 7db1 2abb d5c1 9a3b 732b d6ba e364 8fbb
00000360: 3f4e f93b 071f aebb 4f3c 0c3b e6d6 093c
00000370: deb2 2b3b ca5d ef3b 4f10 1e3b 1f3f 47bc
00000380: f767 03bb bfa6 b8bb ed46 52bb ae7c 90bb
00000390: 09a5 973b 8e5f 3fbc 0f43 213b 4a08 ed3b
000003a0: eed4 22ba 2844 59ba 27eb 9fbb 36bf 08b9
000003b0: 3b3b b7bb 8f6f 863c a8ea a5bb bed2 0dbc
000003c0: 7c6a 023c b7e5 303b 55e3 b73b 8713 fc3b
000003d0: d685 21bb 8f54 60ba ddde 69bb 3754 903b
000003e0: 9aab 0e3c 638a f03a f38c 37bb c37a 8e3b
000003f0: d366 ac3a eb6d 5bbb b93a 053a 1b5e 8fbb
-0.0040071686 0.0062119863 -0.005489692 -0.012442467 -0.0045375195 0.009925387 -0.011130198 -0.0037093514
0.0027404549 -0.009175615 -0.013533619 0.0062150075 -0.005211647 0.0038835548 -0.004275411 0.0008816162
0.0044355867 -0.0011657334 -0.005211412 0.0035841581 0.0041623963 0.0053077927 -0.0028698675 -0.0041175336
-0.0011265341 0.009781764 0.005607784 0.008626933 0.007161452 -0.008272718 -0.010400236 0.00047164876
0.008775009 -0.009580115 -0.0052892743 0.010778955 -0.005252665 0.0050909887 -0.01148051 0.001876824
0.004160638 0.001416217 0.0028328653 0.0032100321 0.009607024 0.00027946717 0.007691084 0.0033437621
0.005995809 0.0044011935 -0.0049608257 0.0025892 0.0041691395 -0.006588191 0.008165369 -0.0006513625
-0.0038185455 -0.004393906 0.004089154 -0.00882707 0.010724585 -0.006738773 0.0054681688 0.0002350691
-0.0005771543 0.001881464 0.008065256 0.0018181232 0.010269665 0.0033216197 -0.0041910154 -0.0033923946
0.000109720895 -0.00253045 0.0046473835 0.0017759989 -0.0020095862 0.0011276983 0.010969532 0.007374412
-0.0022396622 -0.0034204982 0.00039499323 0.001954545 0.0012462501 0.0057659647 -0.0049202065 -0.0070596016
-0.012493507 -0.004223581 0.0015645822 -0.00011117735 -0.005833982 0.0010227374 -0.01308906 -0.00041216574
-0.009118362 0.0011132802 -0.0095645 0.0021961846 -0.0001857301 -0.006694118 0.0010108744 -0.0062086754
-0.0002574932 -0.0011931622 0.0016182378 -0.0076983282 -0.004796346 0.00821692 -0.003730213 -0.0015464881
-0.005486079 0.0008736023 0.00078092533 0.0088132825 0.0048156204 0.0032605722 -0.0022661795 -0.00263324
0.010448077 0.0106559275 -0.001947329 -0.0002107604 0.016635662 0.002355518 0.0031031 0.00057136203
0.0043493384 0.010228109 -0.004421288 0.00231429 0.0024073662 -0.0020744642 -0.009026411 -0.013057201
0.0050281864 -0.0056238524 0.0048651947 -0.0015726675 0.008457782 0.010597206 -0.009695941 -0.009417932
0.008861402 0.0060990374 0.00037957827 0.004575526 0.00245611 0.0053543537 0.007312273 0.004852065
-0.0017668632 -0.001473064 -0.001016647 0.0063561867 -0.0110134045 -0.0015306798 -0.0013110574 -0.0032298788
-0.0062767803 0.007277234 -0.0070987814 0.002829218 -0.0053062546 -0.007032557 -0.006329818 0.0013149258
-0.0012366521 -0.006933652 0.0042992807 -0.0018842611 -0.004704985 -0.009672067 0.0029246805 -0.0061138314
-0.0002919094 -0.0071487213 0.0023623938 0.00754377 0.010602246 -0.0020036844 0.0013035609 -0.0057094335
-0.010001877 -0.0072042877 0.00676739 -0.0023949917 0.0025862854 -0.0076556504 -0.0045968196 -0.0010703225
-0.003677668 -0.0036312533 0.0040670964 -0.004767284 0.009372482 0.000903011 0.00652347 -0.0054245424
0.00017716827 0.0018810919 0.010172263 -0.0016274279 0.0021380694 0.0064690085 -0.0003801432 0.0021465484
0.0024364614 -0.000116081515 -0.0032477768 -0.0020521756 -0.0026045733 0.0047228136 -0.0016339853 -0.0043760403
0.0076082046 -0.0053137573 0.0021398251 0.008413052 0.0026199142 0.0073048817 0.0024118607 -0.012161045
-0.0020050982 -0.005635112 -0.0032085732 -0.004409394 0.004627828 -0.011680497 0.002460662 0.007233654
-0.00062115386 -0.0008288049 -0.0048803273 -0.00013041202 -0.0055917776 0.016410617 -0.0050633736 -0.008656202
0.007959958 0.002699239 0.005611817 0.0076927575 -0.0024646423 -0.0008557522 -0.0035685815 0.0044045704
0.008707905 0.0018351789 -0.0028007596 0.0043481304 0.0013153203 -0.0033482264 0.0005082298 -0.004375232

action_model._discrete_distribution.branches.2.bias f4 [3]
00000000: 0000 0000 0000 0000 0000 0000
0.0 0.0 0.0

action_model._discrete_distribution.branches.3.weight f4 [2, 256]
00000000: a5d9 643b 4393 b4bb f995 103b bb35 f13b
00000010: 77f0 feb7 3268 f4ba b8ea 943a 5d99 1d3c
00000020: aa1f c43a 430f fcbb 786e 8ebb 1982 283c
00000030: 3dee 6abb 7367 5cbc b84c 10bc 75c0 fbb9
00000040: 78fb 44bc 1751 873c f561 3ebb dadb 58bb
00000050: 1389 b53a 13b8 163c 5312 d0bb fab8 6dba
00000060: 3f71 f93a c756 b2bb e043 5c3b c50e 6c3b
00000070: 2a5c dfba c8a1 1a3c d572 e739 d981 8d3b
00000080: a2a5 9cba 64b9 8eba cc3b 403c 10bf 2eba
00000090: 4ae3 d53b 05dc a338 a7a1 b1ba 6802 95bb
000000a0: f87e 6ebb 17e9 3ebb 91a0 a6bb 0475 85bb
000000b0: fd5e 783a 0e26 88ba dfd1 72bc 87b0 313c
000000c0: e926 b7bb 0b71 16bc c773 f43b 3db7 613b
000000d0: 2bae 6ebb 49b1 88bb e14b 0a3c ba4b e33a
000000e0: 4f24 bbb9 b860 f9ba 6fcf 97ba 251b a8bb
000000f0: e7a6 20bb e8a2 03bc 2f58 513a c8b4 d53b
00000100: 45f3 b5bb 008d 803b 6d07 993b 8e9d 44bc
00000110: 77f4 21bb 7709 963b 3784 bbba 8b8e 393b
00000120: 8bb2 003a 60d9 3dbb 02d4 e73b 1110 1bb8
00000130: da66 b43b af57 a9bc f645 a7bb 90a4 08bb
00000140: cbde 0b3c 1a43 d039 3902 0bbc 1235 44bc
00000150: 1d7a 2fbb 5ba2 20bc 3bed 493a 1101 ba3b
00000160: 29bb b3bb 2074 db3b 0d90 ac3b 9530 de3a
00000170: 7272 493c 03a1 9abb e287 c63a e0ff 6bb9
00000180: 4d63 43bc a09d e9bb 8451 b8ba 4fe4 073c
00000190: 74fd 063c 4f3a f73b f380 f2bb 2d62 baba
000001a0: 82f2 d33b f9b0 34bc 305f 8abb 601e 6dbc
000001b0: d44f 983b d040 993a 7acc bcbb 5718 11bc
000001c0: 754d dbbb f09d db3b 429e 0f3b cabd c03b
000001d0: c8f0 5dbc b5e3 d63b fc9e c83b a7fb 8e3b
000001e0: 886a d7bb 7613 c2bb 4b6a 463b 3435 803b
000001f0: 0376 72bc 3fa5 9bbb df97 c63b 379a fa39
00000200: 8b92 9f3b 0396 2b39 ff6f 3abc 1707 8bb8
00000210: e0fe 1abb af2d 13bc 3f0d f23a 3a91 dfbb
00000220: 200c 503a 0785 833b b0a2 d8b9 b5b9 29bb
00000230: 9d78 96bb a9a1 183c 87e1 9cbb 9e5b b3bb
00000240: bfa7 63bb 1a70 a13a e3fa 443b d587 0cbb
00000250: ad23 06bc cab6 eabb fd9e a4bb bad3 77bc
00000260: f51c 823b 572c b7bb faf3 1e3c 6fd0 bb3c
00000270: cf43 f6bb 5bf9 87bc f2b6 d9bb 2361 bdbb
00000280: ad23 053c 0706 7eba f0e6 6839 d8b3 46bb
00000290: 1752 533b 0714 85bb 87ff 8eba 0dcc 943c
000002a0: 5252 ee3b 1d7f 82bb 9c8f a63a cdbd 8db9
000002b0: 8026 0d3c e11b 25b9 d8f9 a93a c386 043c
000002c0: 153f 733c b97f a73b 5375 103a a239 a83a
000002d0: ac4b 4a3b 1c6c 8c3b fb94 3cba 5d10 813b
000002e0: 7a80 28ba 1a19 9c3b 9799 b6bb 04e9 9f3b
000002f0: ef9d 103b ff58 8ebc 586b a93b 881d e2ba
00000300: 05cc 39bb 0d83 1fbc dfdc d639 7adb df3a
00000310: c74d 233b a4d9 253c fe78 3fbb 55d1 3dbb
00000320: ba70 e83a 7bf7 ccbb ef44 f4b9 1303 eaba
00000330: 5bf1 4a39 5f69 6ebb 8bda 00bc a00c 713b
00000340: 71a6 b5bb 2718 07bc af64 303c 5f71 b9bb
00000350: 1525 32bb 7969 c437 b738 fa3a 734e d6bb
00000360: 433d 4e3c 3747 a4ba 163f 91bb f318 2a3b
00000370: 8ec0 a73b f6f5 073c 2d64 da3a 644b 05ba
00000380: 7210 363c 7fa8 18bb ca75 77bb 3cca 8ebb
00000390: 707e e23b 29d6 4238 a532 293c bec6 1fbb
000003a0: 108c f0bb 4a8f 653b 12cc 19b9 a886 39bb
000003b0: 0f58 2c3b 4843 78bb ad5f e23b 2490 11bb
000003c0: 6ad6 6ebb b561 91bb 1ef6 c83b 68b6 46b6
000003d0: bd76 d4bb 8df3 e0bb 18a5 3f3c 88a4 62bb
000003e0: a8af 29bc 3f79 113c 8717 603b 6333 b3ba
000003f0: a3af c3bb d80a b2bb 4e40 323b 7777 17bc
0.0034919765 -0.005510719 0.0022062047 0.0073611415 -3.0391135e-05 -0.0018646775 0.0011361456 0.009619084
0.001496305 -0.007692249 -0.004346665 0.010284924 -0.0035847567 -0.013452399 -0.008807354 -0.00048017842
-0.012022845 0.016518159 -0.0029050086 -0.0033090026 0.0013850055 0.00919916 -0.0063498407 -0.0009068396
0.0019030942 -0.0054424736 0.0033609793 0.0036019546 -0.0017041017 0.009437986 0.0004414531 0.0043184576
-0.0011951218 -0.0010888991 0.011733007 -0.0006666044 0.006527339 7.8134275e-05 -0.0013552204 -0.004547406
-0.0036391597 -0.0029130632 -0.005085059 -0.0040727872 0.00094746036 -0.0010387318 -0.014820545 0.01084531
-0.0055893552 -0.009182225 0.007460091 0.0034441494 -0.003641973 -0.0041715247 0.0084409425 0.0017341294
-0.0003569447 -0.0019026017 -0.0011582206 -0.005130189 -0.0024513544 -0.008034445 0.00079858577 0.006521795
-0.0055526816 0.0039230585 0.0046700747 -0.012000455 -0.0024712363 0.004578765 -0.0014306371 0.0028313722
0.00049094175 -0.0028968677 0.007074834 -3.6969843e-05 0.005505425 -0.020671694 -0.0051047755 -0.002085004
0.008537005 0.00039722846 -0.008484417 -0.011975544 -0.0026775666 -0.009804334 0.00077028916 0.0056763967
-0.0054849577 0.006697193 0.0052661956 0.0016951734 0.012295352 -0.004718901 0.0015146697 -0.00022506667
-0.011925531 -0.007129386 -0.001406238 0.008294179 0.008239139 0.0075447927 -0.007400626 -0.0014219932
0.006468118 -0.011028522 -0.004222773 -0.014472574 0.004648188 0.0011692289 -0.00576168 -0.008855901
-0.006692583 0.006702177 0.0021914397 0.0058819996 -0.013546176 0.0065579065 0.006122468 0.0043634954
-0.006573979 -0.00592273 0.0030275758 0.0039125923 -0.014798644 -0.0047499235 0.006060585 0.00047798615
0.004869764 0.00016363715 -0.011379241 -6.629357e-05 -0.0023650452 -0.00898306 0.0018467082 -0.0068227323
0.0007936377 0.004013661 -0.00041319942 -0.0025898044 -0.004592015 0.009315887 -0.004787627 -0.005473568
-0.0034737436 0.0012316734 0.0030056767 -0.0021443267 -0.008187217 -0.0071629034 -0.0050238357 -0.015126163
0.003970737 -0.0055900025 0.009701723 0.022926537 -0.0075154076 -0.016598394 -0.0066441232 -0.005779402
0.008126182 -0.0009690229 0.00022211275 -0.0030319598 0.0032244974 -0.0040612253 -0.0010909893 0.018163705
0.007272997 -0.0039824382 0.0012707594 -0.00027035028 0.008615136 -0.00015746012 0.0012968136 0.00808877
0.014846583 0.0051116613 0.0005510647 0.0012834559 0.0030867858 0.0042853486 -0.00071938307 0.0039387182
-0.0006427836 0.0047637345 -0.0055725086 0.0048800725 0.0022066792 -0.017376421 0.005170267 -0.0017251233
-0.0028350365 -0.009735835 0.00040981823 0.0017078959 0.0024918185 0.01012269 -0.0029216404 -0.0028963883
0.001773379 -0.006255088 -0.00046590666 -0.0017853699 0.00019354133 -0.0036378724 -0.007864605 0.0036781207
-0.005543523 -0.008245504 0.010766192 -0.005659267 -0.0027182747 2.3414135e-05 0.0019090389 -0.0065401136
0.012587848 -0.0012533431 -0.0044325693 0.0025954812 0.00511939 0.008298388 0.0016661935 -0.00050847814
0.011112319 -0.002329379 -0.0037759417 -0.0043576043 0.006912045 4.6452657e-05 0.010327016 -0.0024379934
-0.0073409155 0.0035028034 -0.00014667239 -0.002830902 0.0026297604 -0.00378819 0.006908378 -0.0022211159
-0.0036443719 -0.0044366964 0.006132855 -2.9610474e-06 -0.0064838813 -0.006864971 0.011697076 -0.0034582932
-0.010356821 0.008879005 0.003419371 -0.0013671931 -0.0059718653 -0.0054334216 0.0027198973 -0.009244791

action_model._discrete_distribution.branches.3.bias f4 [2]
00000000: 0000 0000 0000 0000
0.0 0.0

97 f4 [11]
00000000: adca a43e 863b ac3e f840 c03e d5fd 223f
00000010: e196 c240 1443 2a40 c5d9 a340 f050 1d40
00000020: f1b5 8c40 5264 c03f b232 993f
0.3218588 0.33639163 0.37549567 0.63668567 6.080918 2.6603441 5.120333 2.458065
4.3972096 1.5030615 1.1968596
