ML-Agents/backup/results/v1.1.0/Volleyball/Volleyball-26499691.onnx (onnx, 291918 bytes, 15 tensors)

discrete_action_output_shape f4 [1, 4]
00000000: 0000 4040 0000 4040 0000 4040 0000 0040
3.0 3.0 3.0 2.0

network_body.observation_encoder.processors.0.normalizer.running_mean f4 [11]
00000000: 3fa6 98bd 611b 433b 251d e83e f52d 293f
00000010: f0eb 0d41 6060 f03d c2a0 4bbd 940f acba
00000020: 3792 88bf 1868 313f cab5 3fbb
-0.07453584 0.0029770958 0.45334736 0.6608575 8.870102 0.11737132 -0.049713857 -0.0013127201
-1.0669621 0.6929946 -0.0029252642

network_body._body_endoder.seq_layers.0.weight f4 [256, 11]
00000000: d345 973e 326a 07bf 1b7e 63be 7ea4 613e
00000010: 14f8 8f3d b5ea cf3e 8012 f63e 2f06 1bbf
00000020: 44d6 18bd d120 c53e a28f a0bc 1c78 dfbd
00000030: e822 2fbe a007 9c3d 5313 733e 5bd3 debe
00000040: f393 0dbc b4b6 ce3d a8cd 553e 2a0d e7be
00000050: 5ba3 b7be b8a1 0cbd 346e 063e 78f7 a43f
00000060: 822b 903d 9a02 e83e a9ee 10be 49b8 62be
00000070: b219 9c3e 3c9a edbd aa75 66be 2875 423d
00000080: 8221 4cbf 568f 363e c67e 333f 3932 b3be
00000090: ec42 4abf 9b79 68bf e11f 06bf 7329 90be
000000a0: 1718 743e af36 64be 17eb a4be 400e 933e
000000b0: 2bee 2dbe aab1 23be 1831 80bd 2236 72be
000000c0: d80e a5be a34f b53e 45bd 283e df38 343e
000000d0: 4f98 b3be 2039 48be 155f b4be 86ab 4ebe
000000e0: 62c1 00bf 3086 f6be 4f6e 39bd 5e8a 13be
000000f0: 4870 193e 1fff 19bf d706 88be d3d2 1bbc
00000100: eb7f 983e ae76 94bd aae4 113e 0483 84be
00000110: 0ef9 4d3f 0995 1fbf e0d0 0e3f 7495 8dbd
00000120: 970c 1dbe c995 73be 0b20 a4be 81db 23be
00000130: 5235 9c3e 7c40 3ebf cde3 e3be 223f aaba
00000140: ee0b 6e3e 05a6 99be 3e7e 07bf 38ba ad3d
00000150: 01d1 8cbe dda3 64be f94a 2e3e 33ac 12be
00000160: 70dc d4be 1d47 083e c6f5 ab3e 030c afbe
00000170: adc4 0a3f e963 35be 08be 3bbf 538e 20bd
00000180: f416 6dbe d9be 8f3e de72 c13d b30b ecbc
00000190: f2fb aabd 49f8 843e c9e6 30be f3ef 13bf
000001a0: f392 b6be ddb7 6bbe b3f9 40bd 9c2a 52be
000001b0: bcbe cb3e 60f1 2fbe 61d2 eb3d cf9a 82be
000001c0: 95de b53e 3a33 6a3e fb6d fdbe aca7 cfbd
000001d0: 2e82 d93d d976 59bf 4b3b 1dbd f1aa f53d
000001e0: 5bff acbe 8337 8bbe 6839 a1be a234 3fbf
000001f0: be3b 683f 750f bfbe aa8e 0b3e 553c 61bf
00000200: a877 25be 6e8f 3f3b 0c53 5b3e 22a3 c4bd
00000210: 5d44 3f3f c180 dd3e bb5c e5be 6517 df3e
00000220: 9844 42bf 742d e33d 22b9 85bc 5ff0 08be
00000230: 7e78 0e3e c331 cfbd 1d09 9e3c 5dcf debe
00000240: d029 223f 2579 8ebe 65bd a03e 1d53 09bf
00000250: 66c6 6c3e 488d 0b3f f078 903e 09b1 9e3e
00000260: 8251 03bf 7ff5 143e 40db b4bd f458 673e
00000270: 9a0c b63e bbf5 bc3e dbc4 4ebe 4bd3 64bf
00000280: 81d2 9d3e 58ba 483e 55e5 c63c 9ad8 333b
00000290: 3c99 213e b290 ed3e cc14 1abf 0139 1cbe
000002a0: 9269 063f d6e8 c3be 71e6 55be 55a3 853e
000002b0: 93f2 9ebc f4dc 9cbe 635e 6cbe 4070 64be
000002c0: 99ff ec3d 1b1e 0bbf 777f c0be f78e 22be
000002d0: db57 ab3d 09f5 c23d 660f 82bf beda 1abf
000002e0: 141e d8bd 2ebe 13be 4961 c93e 0518 b9bd
000002f0: 013f a9bc 36c4 bb3e 8bdc 0dbf 236c b13e
00000300: c0c4 a3be f329 28be d650 dcbe 6b94 c43e
00000310: 696d 9e3e fa18 febd 321b 01be 2c68 4bbf
00000320: 3119 1d3d 9ad3 213f a39f 2dbe 6f0a 10bd
00000330: 92de ac3d 4988 2ebe 9e33 f53d ac58 3f3f
00000340: eef2 2b3f 30d4 a53e 9f65 87be b7a4 f8bd
00000350: ecd5 cb3e 5c1e 013b a4b7 1dbf 95bb fabe
00000360: d55c 29bf 79e7 b13d ee20 193e e27f 04bf
00000370: e5c6 16be 148c ac3e dd80 283e 9318 b93e
00000380: 6310 8bbe 27f3 0fbf 5def 81be c80e 1fbf
00000390: 564a 653c 4610 563b eaa5 f63e 2111 d9be
000003a0: b8e4 243f 1f36 9c3e 19ba 423f b732 bdbe
000003b0: d51b babd addd adbe fd3e 313e a781 483e
000003c0: d146 e0be 349b 5e3e a534 ba3e d1a9 533e
000003d0: ec1c 503e da3a 8d3e 4947 27bf d877 813e
000003e0: 9129 333f 98bd 55be bad0 753e 38f3 263e
000003f0: 52c1 55bd 1e38 a7be 561e 32bf 2dc5 5bbe
0.2954546 -0.52896416 -0.22216074 0.22035405 0.07029739 0.40608755 0.4806099 -0.6055631
-0.037313715 0.385016 -0.01959974 -0.10911581 -0.1710316 0.07618642 0.2373784 -0.43520626
-0.008641231 0.100934416 0.20879233 -0.4512723 -0.35866818 -0.034333915 0.13127977 1.2888021
0.070395485 0.45314485 -0.14153542 -0.22140612 0.30488354 -0.116016835 -0.22505823 0.04747501
-0.7973863 0.17828116 0.70115316 -0.34999254 -0.79008365 -0.90810555 -0.52392393 -0.28156623
0.23837315 -0.22286485 -0.3221061 0.2872181 -0.16985385 -0.15985742 -0.06259364 -0.23653463
-0.32237887 0.3541232 0.1647845 0.1759982 -0.3507714 -0.19553041 -0.35228792 -0.20182618
-0.5029508 -0.48149252 -0.045271214 -0.14408252 0.14984238 -0.6015491 -0.26567718 -0.009510714
0.29785094 -0.07249199 0.14247385 -0.25881207 0.8045815 -0.62336785 0.5578747 -0.069132715
-0.15336834 -0.23787607 -0.32055697 -0.16001703 0.3050943 -0.74317145 -0.44509736 -0.0012988786
0.23246738 -0.30009475 -0.52927005 0.08482784 -0.27503207 -0.22328134 0.17020787 -0.14323501
-0.4157443 0.13308378 0.33585948 -0.34188852 0.54206353 -0.17713894 -0.7333684 -0.03919823
-0.23153287 0.28075293 0.09445737 -0.028814172 -0.08348836 0.25970677 -0.17275538 -0.5778801
-0.35658988 -0.23019357 -0.04711313 -0.20524067 0.39793956 -0.17181921 0.11514736 -0.25508735
0.3552138 0.22871104 -0.4949797 -0.10139403 0.10620533 -0.8494697 -0.038386624 0.11995495
-0.3378857 -0.2719079 -0.3148911 -0.74689686 0.9071616 -0.3731648 0.13628641 -0.87982684
-0.16158926 0.0029229778 0.21418399 -0.096014276 0.7471369 0.43262294 -0.4479731 0.43572536
-0.75885916 0.11092654 -0.01632363 -0.13372944 0.13913152 -0.10116913 0.019291455 -0.4351758
0.6334505 -0.278268 0.31394497 -0.53642446 0.23122558 0.54512453 0.28217268 0.30994442
-0.51296246 0.14546774 -0.08830881 0.22592527 0.3555649 0.36906227 -0.20192282 -0.8938491
0.30824664 0.19602334 0.024279276 0.0027442337 0.1578111 0.46399456 -0.60187984 -0.1525612
0.5250484 -0.38263577 -0.20888688 0.26101175 -0.019402778 -0.30637324 -0.2308288 -0.22308445
0.11572189 -0.5434281 -0.37597248 -0.1587485 0.083663665 0.09519393 -1.0160949 -0.60490024
-0.10552612 -0.14428017 0.39332035 -0.090377845 -0.020659925 0.36673135 -0.55414647 0.34652814
-0.31986046 -0.16422252 -0.43030423 0.38394484 0.30942848 -0.12407108 -0.1260803 -0.7945583
0.038354103 0.63213503 -0.16955428 -0.0351662 0.084408894 -0.17044176 0.11972736 0.7474468
0.67167556 0.3238845 -0.26444718 -0.12140792 0.39811647 0.0019701933 -0.6160834 -0.4897124
-0.66157275 0.08686728 0.14953968 -0.51757634 -0.1472431 0.3370062 0.16455407 0.3615156
-0.2716094 -0.56230396 -0.25377932 -0.6213193 0.013994774 0.0032663508 0.48173457 -0.4239588
0.644115 0.3051004 0.7606521 -0.36952755 -0.0908734 -0.33958188 0.17309184 0.19580708
-0.4380403 0.21738893 0.3636829 0.20670249 0.20323533 0.27583963 -0.6534315 0.25286746
0.699853 -0.20873106 0.24005404 0.16303718 -0.052186318 -0.32660002 -0.6957754 -0.21461935

network_body._body_endoder.seq_layers.0.bias f4 [256]
00000000: de4c 033e 747b 78bd c5dc 5f3e 2cdd 31bd
00000010: de7b f4bd ff06 5c3e 7b5d 44bd 94f6 4b3d
00000020: 2b29 233d ee1f c2bd 076b 2dbd 0a6c bc3e
00000030: a919 a03e 73dc 753e 6e7a 09bc e60e fe3d
00000040: 6aa8 2a3c 8542 193c 3b03 bd3e aa68 0d3e
00000050: d820 013d 857b ac3e 65d4 6c3e ce0e b83e
00000060: 1f4a 6a3e ca69 d23e 0f97 8d3e ebc4 23be
00000070: d0b3 863e 5e44 11be 3d4f adbc a24a 96bd
00000080: 6b9f c73e 6a05 65bd ba1d ffbd a26c f13d
00000090: f960 d93d d039 ec3c cf64 733b f822 263d
000000a0: 1801 0f3e e0ab 42bd a05e c23d d9c6 0f3d
000000b0: 9ab8 6f3e b53a 833d 4d32 2a3e 2f9c 58bd
000000c0: b385 333d 3b1f 2f3d b387 0e3f 70a3 2fbd
000000d0: 2350 cf3d f8e5 2f3d edbe 053e 2ae1 243f
000000e0: 00e0 58bd ea1b 443e 8ab7 3c3e 44d6 723d
000000f0: 5eba d83c b501 76bd 8d41 ed3d 3706 983e
00000100: 2dac 84bd 553d 2bbd ea16 9a3e ea99 8f3e
00000110: fc60 9c3d cc41 16be f858 bbbd 059c 923e
00000120: a251 363e 0eae 2d3d 64c3 093e 2163 603e
00000130: 3969 d4bc 1d5f 66bd 1d06 51be 5143 2a3e
00000140: 2723 d13c a99c 02be e580 a43d 755d 56bd
00000150: bb24 31bd 2978 273e 6e8f 7f3e da1b 6b3e
00000160: 56e1 c33d e6f1 14bd 59d3 713d 3838 103f
00000170: f023 1d3e 8aa9 053e 0940 613d f17b 513e
00000180: 3278 b7bd f36a 5d3e c469 97bd 7251 8a3e
00000190: f22d 633d e435 72bb ab6c 8a3e 27e7 33ba
000001a0: 765b 273e 849f fcbd b336 bbbd 0c26 7fbd
000001b0: 22e1 b9bc 8ab7 55ba 8034 fdbc 78fa 59bd
000001c0: d110 bebb 93d9 31bc ef10 d73e 5663 2d3d
000001d0: c3a0 903e 2e28 d33c e864 e1bd 9a19 413f
000001e0: a1fb b3bd 609e d2bc f898 b93e fe49 7abd
000001f0: 975d 9ebd a3fb 333e c209 3c3e c0b9 883e
00000200: b710 f23a 9a09 a13d fe90 c83d c1be 053f
00000210: fd10 a8bd cd57 533e c6f1 053d 331d 423e
00000220: f6b2 1a3d efb8 43bc 4f08 c8bd 0aab a5bd
00000230: d912 673d 594e 2a3e 3284 ea3d 08de cabd
00000240: 674a a6bd 33a2 d03d 2cbd b4bd 957b e23e
00000250: be24 01bc 405f 753d b8e1 613d 98e5 973d
00000260: 4247 d83d b9ef 363d cf7e c13e ddf3 e93e
00000270: 06f1 7c3e 59e6 c33e c316 393d 1657 e8bd
00000280: efc4 a83c 30bd 90bc 509a e93e 142c 9fbc
00000290: 972f dcbc 554a 7fbb d77c 3a3d d5f6 06be
000002a0: 22ad e53c 5fe4 cc3d a650 dd3e a0ea c93e
000002b0: 5e4c e8bc 42d3 133f e9a4 d83d 34ea ec3e
000002c0: 8cdb b5bd 8d62 4f3e ba59 f33d aaf4 cfbc
000002d0: 8ca7 16bc 7541 123e b9d2 65bd 802b 8f3d
000002e0: 6c3b 8c3e caed 903c a9bb f83d a847 4a3e
000002f0: 1550 33bd e975 883e 7338 e63e fb8a b9ba
00000300: 1e6f de3e 87a9 ca3d 44a2 8e3e 9f0b 8c3e
00000310: 7fb4 9a3e e418 16bd 2dd8 493e a6f6 733e
00000320: 816b 213e e702 b7bc b622 6a3e ceff 1d3e
00000330: 4c80 c63e 44c6 993d 5801 073e 13c5 dc3e
00000340: 0955 983e 4ef7 a43d 667a 1f3f 16bf ad3d
00000350: 761b c53e 44d0 d8bd 8efd b53e 5b4d cfba
00000360: b341 af3d 0baa c83d 21bf a83e ebe5 613d
00000370: dee1 3f3e 283d 843d 19cc 273e 4c57 ca3e
00000380: b99f a53e eedb 05be 4e2f 683c 39e3 883d
00000390: 9dcb c9bc e4ae dcbd 0162 af3d 0add 08be
000003a0: 7692 b33e 4337 9d3b 9b27 cf3d 8ea6 233e
000003b0: 6f3e ea3e 4e76 eb3d 6110 343e 10a8 353d
000003c0: e3b9 093e f46b ab3e 82ce a73d f67a 9f3d
000003d0: f78a e53d a185 633e 5335 1f3d cdda 4fbd
000003e0: 49f0 993d 568a 32be 5be4 8ebd 88e4 923d
000003f0: 1a93 903e 6c8c 5a3d a767 043f 6985 4a3d
0.12822291 -0.06066461 0.2186156 -0.043423817 -0.11937688 0.21487044 -0.047940712 0.049795702
0.039834183 -0.09478746 -0.042338397 0.36801177 0.31269577 0.24009876 -0.008391006 0.124051854
0.01041613 0.009354238 0.36916527 0.13809457 0.031525463 0.33687988 0.23127897 0.35948795
0.22879837 0.41096336 0.2765431 -0.15993087 0.2630906 -0.14186236 -0.021155948 -0.07338454
0.38988814 -0.055913366 -0.12456842 0.11788298 0.10614199 0.02883616 0.0037138944 0.040560693
0.13965261 -0.047527194 0.094907045 0.035101745 0.23410264 0.06407682 0.1662075 -0.052883323
0.043828677 0.042754393 0.5567581 -0.042880476 0.10122707 0.042943925 0.13061114 0.64406073
-0.052947998 0.19151273 0.1842939 0.05928637 0.026456054 -0.06006022 0.115847684 0.29692242
-0.064781524 -0.041806538 0.30095607 0.28047115 0.07635686 -0.14673537 -0.09147829 0.28634658
0.17804578 0.04240232 0.13453442 0.21912815 -0.02592908 -0.05624305 -0.20412488 0.16627242
0.025529457 -0.12755074 0.08032397 -0.05233522 -0.04324792 0.16354431 0.24957058 0.22959843
0.09564464 -0.036363505 0.059039447 0.56335783 0.1534574 0.13052955 0.05499271 0.20457436
-0.08958472 0.21622829 -0.0739322 0.27015263 0.05546374 -0.003695839 0.27036032 -0.00068627525
0.16343483 -0.12335113 -0.091412924 -0.062292144 -0.02269036 -0.00081526546 -0.030908823 -0.05321738
-0.0058003445 -0.010855096 0.42005107 0.042331062 0.2824765 0.025775995 -0.110055745 0.7542969
-0.08788229 -0.025710285 0.36249518 -0.06110572 -0.077326946 0.1757646 0.18363097 0.26704216
0.0018468116 0.078631595 0.0979328 0.5224419 -0.08206365 0.20638962 0.032701276 0.18956451
0.037768327 -0.011945947 -0.0976721 -0.08089264 0.05641446 0.1663145 0.114509955 -0.0990563
-0.0811966 0.10187187 -0.08825144 0.4423491 -0.007882295 0.05990529 0.055146903 0.074168384
0.10560466 0.04466221 0.3779206 0.45693865 0.24701318 0.3826168 0.045187723 -0.11344735
0.020601718 -0.017668337 0.45625544 -0.019430198 -0.026878161 -0.0038954217 0.045529213 -0.13180096
0.028036658 0.10004496 0.43225592 0.39436817 -0.028356727 0.5774423 0.10578329 0.46272433
-0.08879766 0.20252438 0.11882348 -0.02538522 -0.00919522 0.14282782 -0.056109164 0.06990719
0.27389085 0.017691512 0.12145168 0.19753897 -0.043777544 0.26652458 0.44964942 -0.0014155799
0.4344415 0.09895616 0.27858174 0.27352616 0.30215833 -0.03664483 0.19711371 0.23824558
0.15763666 -0.022340251 0.22864804 0.15429613 0.38769758 0.07508519 0.13184106 0.43119106
0.29752377 0.08054982 0.6229614 0.084837124 0.38497514 -0.105865985 0.3554501 -0.00158159
0.08557453 0.09798058 0.3295832 0.055150907 0.18738505 0.06456977 0.16386451 0.39519727
0.3234842 -0.13072178 0.014171435 0.06683964 -0.024633223 -0.10775545 0.08563615 -0.1336557
0.35072678 0.0047978475 0.10114976 0.15981504 0.45750758 0.11497174 0.17584373 0.04434973
0.13449816 0.334808 0.08193685 0.07787125 0.11208146 0.22218944 0.038869213 -0.050745774
0.07516534 -0.17435583 -0.06977149 0.07172495 0.2823723 0.053356573 0.5172066 0.049443636

network_body._body_endoder.seq_layers.2.weight f4 [256, 256]
00000000: 485b d8bd 5849 4d3e f4cb 7bbd c029 f7bd
00000010: cfe6 e93a d8e0 97bc 482f 12be 4702 86bd
00000020: 45b4 843d 0306 0f3c 4263 a1bc 8d49 72bd
00000030: 4f42 10bc 5aa6 163d 0033 58bd 4db1 08bc
00000040: 3f64 853d 0636 80be fe8d 10be 2363 18bd
00000050: 5ea0 0abe b18d 483d 20c4 35be 3300 b1bc
00000060: 75df 8f3c b00c 94bb cc86 873c c900 5f3d
00000070: ad0d a23d 681e c0bd 5366 fa3a 7028 88ba
00000080: 6020 31be 03b6 c2bd 147f aabd d6a2 06be
00000090: 1fa1 e23b 9181 43bc d052 70be ce87 1a3c
000000a0: beb8 833d bc1c 813c 8166 7b3c 5e00 b2bc
000000b0: 5272 e53d 9972 f4bc 1161 913d c2c4 993d
000000c0: 983e e2bd 7a79 0abe 8fb6 b8bd ef8a 30bb
000000d0: bcd3 223b c552 6fbd 636c ab3c 95c5 303e
000000e0: 04f9 35be ac77 273d 9686 82bd f9ae 34be
000000f0: e8f8 943d e0ee ce3d e365 58bd cb55 82bd
00000100: d418 1fbe 6140 42bc 6545 fabc 968c 22bd
00000110: 73df 67bd 0046 dfbd 95f4 fb3c b524 6a3c
00000120: f01a f7bd 7755 07bd 2d39 053e d5b8 183e
00000130: f615 5ebd 6726 103d 7cc6 033d 145b 20bd
00000140: c14e a0bd a205 c03d 0e40 b7bd f592 0e3c
00000150: 39cf a7bd 4f3f e13d b4db 5fbb 3791 0dbd
00000160: 3f6b 013e b22c 423d ba3d 33bd f53f f6bd
00000170: 9af8 86bc 1f44 203c dd65 3b3d 97e4 1bbe
00000180: a48a 93bd fc45 dfbd 2500 8abd 117a 8bbd
00000190: c9bc 9fbd 84e0 bcbd 5186 8ebd 4815 c4bd
000001a0: 2529 31be 0185 903d bc4f 713d 9d1e 413e
000001b0: 9050 debd 105c 6c3d 6c6d 173c 6983 bbbd
000001c0: dc80 373e 8fa8 7b3d d9a4 c03c 4b8e 2a3c
000001d0: c694 7e3c 5b71 aa3d 3371 0cbd 21f7 1bbd
000001e0: 46ba e03c b650 1b3c cd4d c6bd 8872 103d
000001f0: b300 29bd f379 1f3d 821c 313d a992 e03c
00000200: 211f 44be de57 b4bd b9ce c4bd 1a4e 41bd
00000210: 99e3 043d 5752 173e 6867 853d fc36 cebc
00000220: fb89 283e ad04 77bd 6b05 273e 8869 92bd
00000230: 792c 873d 5eab 6a3d 3f85 0a3d 4d68 b43d
00000240: 5a2d da3d 28bf 893c 2a98 d93d 0aa9 b9bc
00000250: 7d93 1f3e 3a70 ed3d 1957 54bd f5de d5bd
00000260: 593e b3bd ec23 31be c260 a1bd 614c 70bd
00000270: e90b 9c3c 1c26 bd3c f874 88bd de4e aabd
00000280: 6345 b23c 3a32 833d 3fc1 d7bc 0b92 393e
00000290: 0b6f 973d b42f e0bd 16a9 583c f43b ae3d
000002a0: 6f40 c43d 4096 39be 4578 f1bd e634 94bd
000002b0: 4cb0 0dbd 1215 78bd 5101 5ebd 45b6 113d
000002c0: b792 0abe af17 95bd 6acb 9dbc 8968 333c
000002d0: b52b 8a3d d4fb 1e3d e876 703d 9897 d23d
000002e0: 1326 c03d ad88 f9bd 688d b6bd 9cfd ddbd
000002f0: cf1d d03c 1379 ad3d 7553 60bd 8a8a 063c
00000300: 00b9 41bc 5711 08be 0012 ebbd ed7b 21be
00000310: ce36 73be 7fdb cf3d 8a88 833d 6930 52be
00000320: 2bba 8fbc d87d 05be 0ded 743d 8e06 f6bd
00000330: 3fb5 ce3d 4318 2cbb 4cae edbc 7196 cd3d
00000340: 00ca 003e a7cb 46be b2e5 183d 3058 8abd
00000350: d457 dabd b578 fc3b 6633 45bd 72d5 503b
00000360: fc62 02bc b443 69bd 77c8 12bd 8318 b7bd
00000370: 0088 323d 6e93 c3bc bcd6 ca3c 2077 3c3d
00000380: cb13 6cbd ba1c eebc bd82 9d3c 7aab e8bd
00000390: f8fb c2bc 6628 883d a878 1a3d e98b 953c
000003a0: f16c b33c 6720 0fbb 8324 df3c 252b 223c
000003b0: 2c51 92bb 95be e0bc ba7e e5bd cdfd d83c
000003c0: 9aea ab3c 1cb2 f33c 9d79 0b3e 4a32 3c3c
000003d0: 64e9 9c3d 81cf fdbc 0823 623d 8621 bf3c
000003e0: ab12 adbc 91ff aabd 65a8 8abd f2da 553d
000003f0: 6d48 4d3d 3d92 f4bc 5212 703c 4eb6 1fbd
-0.105642855 0.2004751 -0.0614738 -0.1206851 0.0017845276 -0.018539831 -0.14275849 -0.06543403
0.06479696 0.008729461 -0.01970065 -0.059152175 -0.008804872 0.03677974 -0.052783012 -0.008343053
0.06513261 -0.25041217 -0.14116666 -0.03720392 -0.13537738 0.048963252 -0.17750597 -0.02160654
0.017562607 -0.004518114 0.016543768 0.05444411 0.07912765 -0.093807995 0.0019103981 -0.0010388028
-0.17297506 -0.09507372 -0.083250195 -0.13148054 0.00691618 -0.0119327465 -0.2346909 0.009431792
0.06431721 0.015760772 0.015344263 -0.02172869 0.112034455 -0.0298398 0.07098592 0.07508232
-0.11047095 -0.13522902 -0.09019195 -0.002693828 0.0024845442 -0.058428545 0.020925706 0.17262872
-0.17770773 0.040885612 -0.063733265 -0.17644872 0.072740376 0.101041555 -0.05283154 -0.0636402
-0.15536815 -0.011856169 -0.030550668 -0.039684854 -0.056609582 -0.10902023 0.030756274 0.014290978
-0.12065685 -0.03304049 0.13010092 0.14914258 -0.054220162 0.035192873 0.03217171 -0.03914936
-0.07827521 0.093760744 -0.08947764 0.0087020295 -0.081938215 0.10998403 -0.0034158053 -0.034562316
0.12638567 0.047405906 -0.04376004 -0.120239176 -0.016475964 0.009781866 0.04575144 -0.15223919
-0.07204178 -0.1090202 -0.06738309 -0.06810392 -0.0779968 -0.092225105 -0.069592126 -0.095743716
-0.17300852 0.070566185 0.05891393 0.18859334 -0.1085521 0.057704985 0.009242397 -0.09155924
0.1792025 0.061440047 0.023516105 0.010409902 0.0155384 0.08322402 -0.034287643 -0.038077477
0.027432572 0.009479692 -0.09682808 0.035265476 -0.041260432 0.03893466 0.043240078 0.027413683
-0.191525 -0.08805822 -0.09609742 -0.047193624 0.032443617 0.14777504 0.06513864 -0.025172703
0.16458885 -0.060307194 0.1631066 -0.07149035 0.06600279 0.057292335 0.03381848 0.08808956
0.106531814 0.016814783 0.10624726 -0.022663612 0.15583606 0.11593671 -0.051840875 -0.10442916
-0.08752126 -0.1729886 -0.07879783 -0.05866659 0.019048648 0.023089461 -0.06662935 -0.08315824
0.021761602 0.06406064 -0.026337264 0.18122117 0.07394227 -0.10946599 0.013223907 0.08507529
0.09582602 -0.18123722 -0.11790518 -0.07236652 -0.034591958 -0.06056697 -0.054200474 0.035574216
-0.1353253 -0.07279908 -0.019262034 0.010950216 0.06746618 0.03881438 0.058707148 0.102828205
0.09382262 -0.12184272 -0.0891369 -0.10839388 0.025404839 0.08470359 -0.05476709 0.008211741
-0.011823893 -0.13287865 -0.114780426 -0.1576993 -0.23751375 0.101492874 0.06422527 -0.2052628
-0.017544826 -0.13036287 0.05979638 -0.12012969 0.10093164 -0.0026259578 -0.029013775 0.1003846
0.12577057 -0.19413625 0.03732843 -0.06755102 -0.10661283 0.007704819 -0.04814472 0.0031865505
-0.00795817 -0.056949332 -0.03583571 -0.08940222 0.04358673 -0.02387401 0.024760596 0.046012044
-0.057636064 -0.029066432 0.01922738 -0.113608316 -0.023801789 0.066483304 0.037712723 0.01825519
0.021902533 -0.0021839382 0.02723909 0.009897982 -0.004465243 -0.027434627 -0.11205812 0.02648821
0.02098589 0.029748015 0.1362061 0.011486599 0.07661703 -0.030982735 0.05520919 0.023331415
-0.021127066 -0.08349527 -0.067704 0.052210756 0.0501179 -0.029854888 0.014652805 -0.03899222

network_body._body_endoder.seq_layers.2.bias f4 [256]
00000000: 195e 1cbd 38d7 3dbd eb4c 003c 06db 1fbd
00000010: 4cdc 86bd e884 1a3c 140e 3bbc 9099 563d
00000020: 9e3d 10bc 3389 45bd 0b23 29bd f672 99bc
00000030: 3c9b fcbd fd99 3cbd 734b c6bd 96d9 4a3c
00000040: 3149 19bd ffc3 4c3d 818a 12bd 8a6a 4abd
00000050: 960d f4bb fe88 f1bc 8aa5 3c39 dfa3 03bc
00000060: 9592 64bb d804 a2bd ac6c cabd e036 52bd
00000070: 795b 043d 1e82 813d dc2f 123d 30ec 91bd
00000080: 2532 a9bc 942a f1bc ea6a 94bd 9ded 1d3c
00000090: 80ba 343d 636b 11bd a540 17bd 8b21 bd3a
000000a0: ab1b 9cbc 10d1 3dbd 8f48 1dbd d5a6 d6bc
000000b0: 6bea b9bd 68ec e2bd d53f 9d3b af8d dfba
000000c0: 10e3 53bd 71a4 10bd 1bb8 2c3c 01f1 82bd
000000d0: 45e2 85bc 4d2b cbbc 091c 4dbd 4ac3 8cbd
000000e0: 2b2e 02bd ae9a 04bd ce1b b5bd 8066 3bbc
000000f0: 0cf2 0abe 854a ab3c b124 f3bb 62bb 00be
00000100: 1b0e 9bbd 0d30 7abb 68dd 903c 3e61 c2bd
00000110: 32d5 66bd 68a6 73bd be71 b3bd a4f7 89bd
00000120: 08f0 86bd 960d 08bd 0bf7 45bd 15c5 3f3d
00000130: 2cc6 5dbd 3d91 c03d 93b4 19bb 8779 2dbd
00000140: b955 7bbd 1384 83bd 455b c0bc 8f15 21bd
00000150: fcc3 9e3c 20cf 35be f1e5 2d3d 4a9d 69bd
00000160: 546b 1fbe 80f5 443c d6fe 87bd ba84 eebd
00000170: 3a8c bdbd 06a3 f3bc 65d2 acbc b355 a3bd
00000180: 60cf 36bd 40b3 e9bc 585a 6c3d c920 37be
00000190: 1aac bf3b a4d4 7abd 0057 d3bb 7cf8 d9bd
000001a0: 53a9 c0bd 9915 dd3c dc25 55bc f073 05bd
000001b0: b797 a2bd ef95 233c 677b fa3c 9c56 5dbd
000001c0: 6e26 93bc a312 bcbd 14fb 84bd 6d8d c6bc
000001d0: b40f 40bd 4dac e53b 068e 89bd a9e6 97bd
000001e0: 1500 2abd 701e 20bb aaac f2bc ffd7 bcbc
000001f0: de62 c4bd 54f8 75bd 7470 99bd 37b3 07be
00000200: ca0a a7bd b2c4 d53b b770 22be f1ca b2bd
00000210: 2616 77bd f93d c4bd 82fa 94bc 2756 45bd
00000220: 3ffe 9fbc 528d b5bc 2046 403d f758 76bd
00000230: f89a 5bbc 4e2f 92bd 8188 e3bc 4743 9fbd
00000240: 4952 1bbd 1743 7ebd c11c 9abc 1146 d8bd
00000250: 9f8b 483c a5f8 9abd 4afa c73b 85a7 b7bb
00000260: fd27 c3bc eb12 9ebd 343d a5bd 44e0 58bd
00000270: b4de 7ebd bae7 92bd 47b6 5cbd 6863 3bbd
00000280: c7e3 ddbc d127 46ba e851 a8bd ab6f 073d
00000290: 2df4 2c3d ec19 42bd d2f5 4cbd 3365 60bd
000002a0: e61d 8abd 99c5 3bbe 25f0 65bd d41d 7abc
000002b0: 367b b83c 9fd2 c8bc 82a1 5dbd 1010 7ebd
000002c0: cd85 d2bc d60a e7bc 8802 95bc f3e4 89bc
000002d0: ad79 13be b96d 8abd 0dbe 30bd 1c9c 07bc
000002e0: 93fa b8bc 0744 76bd 40e8 873c 81fc 993c
000002f0: 7f99 84bd 1cce 103d 28e1 73bd 6310 17be
00000300: f8e5 e23b ac12 06bd b841 aabd d66a 89bd
00000310: cc05 2e3d b6f7 50bc 02e1 863c f5a6 c2bc
00000320: 9a50 bc3c 3510 bb3b 59cc ff3c 9832 d9bd
00000330: dcc7 453a f8e3 e3bc a183 73bd 7bd5 ba3b
00000340: bd49 8a3c 1afc 95bd 1942 84bc 05b2 06bd
00000350: d910 49bd 0f10 d3bd 6e12 513d 22b0 63bc
00000360: b833 5d3d f8cd 26bd 5278 2f3b 2d1a 8b3b
00000370: b57c 41bc 0217 fabc 8a32 bfbd f091 2fbc
00000380: 35a3 963d 74bf 41bd 8780 9cbd 19bb 28bd
00000390: e519 e0bb 4b75 3fbd c2c0 aabc c7b7 1ebd
000003a0: 322a cf3c ca80 f0bc 8395 a939 b2dd c7bc
000003b0: cbe0 583c b0a1 3cbd 99bf 47bc 8254 5bbd
000003c0: 74bd 64bd b933 73bd f107 8c3b 10ff d33b
000003d0: df9f c4bd 9c97 1bbd 5298 ee3c 9dd9 7dbd
000003e0: a79a c9bd c8e7 07bc 1ec3 dbbc ef21 93bb
000003f0: 84cc 15bd 3745 54bd 4bd6 bcbd a5d9 58bc
-0.038175676 -0.046347827 0.007830839 -0.039027236 -0.06584987 0.009431101 -0.011416931 0.052392542
-0.008803753 -0.048226546 -0.041293185 -0.018731575 -0.12334296 -0.046045292 -0.096823595 0.012380978
-0.037423316 0.049991604 -0.03577662 -0.04941801 -0.0074479086 -0.029484268 0.00017990745 -0.008034675
-0.0034877409 -0.0791108 -0.09884009 -0.051321864 0.032313798 0.06323646 0.035690174 -0.07125127
-0.020653794 -0.029439248 -0.07246955 0.009639171 0.044123173 -0.035502803 -0.036926884 0.0014429552
-0.019056162 -0.046341956 -0.038399275 -0.026202599 -0.09077915 -0.11080247 0.004798869 -0.0017055775
-0.051730216 -0.035313074 0.010541941 -0.06393624 -0.016343245 -0.02480092 -0.050075565 -0.06873186
-0.03178231 -0.032374077 -0.08843194 -0.011438012 -0.13568896 0.020909557 -0.0074201454 -0.12571481
-0.0757105 -0.0038175613 0.0176837 -0.09491204 -0.056355663 -0.05948487 -0.08761929 -0.06736687
-0.06588751 -0.03321608 -0.0483313 0.04681881 -0.05414407 0.09402702 -0.0023453578 -0.042352226
-0.06136105 -0.064216755 -0.02348102 -0.0393272 0.019380562 -0.17754793 0.042455617 -0.05703477
-0.15568286 0.012021422 -0.06640403 -0.11646409 -0.09255262 -0.029740822 -0.021096418 -0.0797533
-0.044631362 -0.028527856 0.057703346 -0.178836 0.0058493735 -0.061237946 -0.00644958 -0.10643098
-0.09407296 0.026987838 -0.013009515 -0.03258127 -0.079390936 0.009984477 0.030576421 -0.054037675
-0.01796266 -0.09183242 -0.06493202 -0.024237359 -0.046889976 0.0070090652 -0.06716542 -0.07417042
-0.041503984 -0.0024432205 -0.029623348 -0.023052214 -0.0958917 -0.060051277 -0.07492152 -0.13251959
-0.08156355 0.006523692 -0.1586331 -0.08730114 -0.060323857 -0.09582133 -0.018185858 -0.048177864
-0.019530414 -0.022162113 0.046941876 -0.060143437 -0.013403647 -0.07137929 -0.027775051 -0.07776504
-0.03792027 -0.0620757 -0.018812539 -0.10560239 0.0122403195 -0.075669564 0.006102835 -0.0056046867
-0.023822779 -0.07718452 -0.08068314 -0.05294825 -0.062224105 -0.071731046 -0.05388477 -0.045749098
-0.027086152 -0.00075590337 -0.082187474 0.03306548 0.04222505 -0.047388002 -0.05003912 -0.05478401
-0.06743984 -0.18337096 -0.056137223 -0.015265901 0.022519689 -0.024514494 -0.054109104 -0.062027037
-0.025698567 -0.02820341 -0.018189684 -0.016832804 -0.14401884 -0.06759209 -0.043149997 -0.0082769655
-0.02258042 -0.06012347 0.016590238 0.018797161 -0.064745896 0.03535281 -0.059540898 -0.14752345
0.006924387 -0.03273265 -0.08313316 -0.067098305 0.042485997 -0.012754371 0.016464714 -0.023761252
0.022987653 0.005708719 0.03122537 -0.10605353 0.0007544735 -0.027818665 -0.059451703 0.0057017184
0.016880864 -0.07323475 -0.016144799 -0.032884616 -0.049088333 -0.10305797 0.051042967 -0.013896974
0.0540044 -0.04072377 0.0026774597 0.0042450638 -0.011809518 -0.03052855 -0.093358114 -0.010715947
0.07355348 -0.047301725 -0.07641702 -0.041194055 -0.0068390244 -0.04674272 -0.020843867 -0.038749482
0.025288675 -0.029358286 0.00032345587 -0.024397705 0.013237189 -0.046052635 -0.012191677 -0.05354739
-0.05584474 -0.0593755 0.0042734076 0.006469615 -0.096008055 -0.037986383 0.029125366 -0.06197511
-0.09843951 -0.008295007 -0.026826438 -0.004490129 -0.036571994 -0.05182382 -0.09220561 -0.013235484

action_model._discrete_distribution.branches.0.weight f4 [3, 256]
00000000: af86 13bd b775 b63d c6ea 563c 7bea 763c
00000010: c682 b93d 48f3 89bc 0f46 a0bd 1e50 1b3d
00000020: d6fe 5dbc f81e 88bc 9adc c73c 2362 96be
00000030: 3a51 8b3d fc49 a9bd bf7e 57bd bb7a bf3c
00000040: c45a ff3c 853c fabd 8efe de3d 3385 f13d
00000050: 78dd 0abd 9365 c7bd e6e7 e83d 673d aabb
00000060: 080f 2f3d 0b69 923d b819 77bd 92b1 573b
00000070: e4bf 363b cccd 223d 4c5d 6cbd 0708 9cbd
00000080: 6303 4ebc f7e0 013e 0dc4 6ebd f156 ebb8
00000090: f962 c43d 950a cdbb e1c8 9abd 628b 023d
000000a0: 1060 5d3d f6eb 7d3d 5858 6a3c f0a4 94bc
000000b0: d95a dbbc 099c 9d3b 6e10 6bbc a1a2 0cbe
000000c0: ae2c c53c a8f9 2e3d df0c aebc d29b 1ebd
000000d0: c918 9fbd 8b91 14bd 42a7 c53c d5f9 2b3c
000000e0: e318 abbc d62b 4d3c d6fa 113d ce1c ba3c
000000f0: 062e a83c 91f9 203d 2138 4dbd 5c24 173c
00000100: 147b 87bc 7451 37bd 08e1 d2bd 4304 93bd
00000110: dfaf 0a3d 4bc3 853c 6b0f 3d3d 6fde 713d
00000120: beae 93bd c677 2fbd 9fba 163c 1738 b63b
00000130: 75a1 013c 2510 4e3b 6536 d33c 6801 80bd
00000140: bc3c d43c 9a75 58bd 3a78 083c 6c3e b6bb
00000150: e56c 2f3c 0f7e 69bd 1dcc 52bd 75aa 97bc
00000160: 8982 0ebe 62e5 1cbd fd3e 963d 006b bf3a
00000170: 134e 7e3d 7663 343d de51 983b fb45 ffbb
00000180: 624c 30bc b54c 3ebc ae90 0e3d 024c 053d
00000190: 3598 bcbb 850c 8c3d 3d13 afbb 267a 5e3d
000001a0: 46c7 02bc 5a76 a23d ecc5 a4bc 9e13 fd3c
000001b0: db0a cbbc 869b 27bd 10ed 62bd 78d4 953d
000001c0: d662 443d 73dd 71bd 59ef 16bd ce1b 7ebc
000001d0: cfd6 1f3d cf41 713c f819 733d 860f d6bb
000001e0: 59da e4bc 28af a93c 4ed6 063d 872c 7a3d
000001f0: f0d4 d33c a836 6a3c 2d7c 90bc cfcd a33d
00000200: 1057 7f3d f526 60bb 76e0 3abd babd 973d
00000210: a7b6 803d d18d 44bd 057b ebbd c79b abbd
00000220: 6c53 383c 835b 12bc d64b 8abd 6e68 ce3c
00000230: 6cfa 2ebe 9f40 77bd 40be a63d cded c3bc
00000240: a252 0fbd 7383 64bc db65 583b ffea 30bc
00000250: 6d29 093e e129 2a3d cb5f 8fbd aab8 93bd
00000260: 3df4 a9bd 2454 1fbc c341 50bc 8799 283c
00000270: d4c8 84bb 71be d2bd 5a9c b9ba e03f a6bd
00000280: 44f7 04bd ba59 a23c eb83 1abc 7d80 0dbd
00000290: 6817 193c 7f0d 8f3d d601 4d3d 8e60 20bd
000002a0: bc70 223d da31 a1bd 4d26 93bd a562 43bd
000002b0: ac97 7abc ef5b 11bd f1f9 f53c 40b8 a0bb
000002c0: 6fce 173c d8c7 a83c 85c6 23bd 2b58 e6bc
000002d0: b1ae 133d 17f0 6dbc 37c2 273d 1105 fe3c
000002e0: 9266 c23d 0cf6 3e3d dee3 663d ad97 5ebc
000002f0: 2b9d 2c3d f18b 763c 8baa d6bb e144 6abd
00000300: 6d36 4b3d 8fa3 263b 156b 47bd c4d5 23be
00000310: 2905 6cbd 2fb2 80bd bcd3 2c3c 480c 7f3c
00000320: 756d c5bc 8b41 4ebe 1a0f 1b3d ce16 793d
00000330: 73ad 743d eb0c b63c 1ade 9a3d e1c2 05bd
00000340: 3b04 eabd 1406 233d bbd4 843d 0f42 153d
00000350: 42ef 57bc 0fca 16bc 7200 9f3c d1c2 1ebd
00000360: 6090 713d 01f0 50bc e7bb e8bd c76c e73c
00000370: 7eab 023d 65c0 0b3d 0f9e c7bd 3053 52bc
00000380: 38d2 c13c a7df 613c 5e70 04bd da62 f83c
00000390: d817 1f3d 5521 d23d fc59 9c3d 5de5 fabd
000003a0: 8695 e73c bed7 8fbc 051b 32bd dcf9 5a3d
000003b0: de40 823d 0661 2dbc 0675 073d 0ac4 9f3c
000003c0: 5e04 03bd f7d0 a4bd c93d b4bc 8822 2e3d
000003d0: dc90 10bd 5596 9ebc be3b ba3c a6d9 3e3d
000003e0: c15e 74bc 269c 7d3c ea6e 9a3d 9dc8 8ebc
000003f0: 5dd1 503d a22d afbd e402 353d 590b 0a3d
-0.036017116 0.08909171 0.013117498 0.015070553 0.09058146 -0.016839638 -0.078258626 0.037918203
-0.013549527 -0.01661633 0.024397183 -0.29371747 0.06802602 -0.082660645 -0.05261111 0.023373952
0.03117121 -0.122185744 0.10888396 0.11792984 -0.033902615 -0.097361706 0.11372356 -0.005195308
0.042738944 0.071489416 -0.06032726 0.0032912237 0.0027885372 0.039747044 -0.057706162 -0.076187186
-0.01257405 0.12683474 -0.058292437 -0.00011221867 0.0958919 -0.006257365 -0.07557846 0.031871207
0.05404669 0.061992608 0.014303289 -0.018145055 -0.026776718 0.0048098606 -0.014347179 -0.13733913
0.024069156 0.04271856 -0.021246372 -0.03872282 -0.07768399 -0.036271613 0.024127606 0.010496576
-0.02088589 0.012522658 0.035639606 0.022718813 0.020529758 0.039300505 -0.050102357 0.009224977
-0.01653818 -0.044755414 -0.102968276 -0.07178547 0.03385913 0.016328475 0.04615728 0.05905002
-0.07211064 -0.042838834 0.009199767 0.0055608856 0.0079120295 0.0031442728 0.025782773 -0.06250268
0.025907867 -0.05284653 0.0083294455 -0.0055616405 0.010707115 -0.057004984 -0.05146419 -0.018513897
-0.13916983 -0.038304694 0.07336233 0.0014604032 0.062086176 0.044040166 0.004648431 -0.0077903247
-0.010760399 -0.011614968 0.034805946 0.03254319 -0.005755449 0.068383254 -0.0053428696 0.05431571
-0.007982081 0.0793273 -0.020113908 0.030893143 -0.02478545 -0.040919803 -0.05540186 0.07315916
0.04794582 -0.05904908 -0.036849353 -0.015509559 0.039023217 0.014725163 0.059350938 -0.0065326123
-0.027936148 0.020713404 0.03291922 0.06107762 0.025858372 0.014295258 -0.017637337 0.07998239
0.06233889 -0.0034202908 -0.04562422 0.07409234 0.06284838 -0.04798681 -0.114980735 -0.083793215
0.011250358 -0.008932951 -0.06752746 0.02519628 -0.17087716 -0.06036436 0.08141756 -0.023917103
-0.034990914 -0.013947356 0.0033019695 -0.010798215 0.13394709 0.041543845 -0.07000693 -0.07212956
-0.08298538 -0.0097246505 -0.012710991 0.01029051 -0.004052261 -0.1029023 -0.0014160976 -0.08117652
-0.032462373 0.019818176 -0.009430866 -0.034546364 0.009343959 0.06984996 0.05005058 -0.03915458
0.039658293 -0.078708366 -0.0718504 -0.047701497 -0.01529495 -0.035488065 0.030026408 -0.004904777
0.009265526 0.020603105 -0.039984245 -0.028118214 0.03605527 -0.014522574 0.040956702 0.031008275
0.0949222 0.046621367 0.056369655 -0.013585967 0.042142075 0.015048013 -0.006551092 -0.057194594
0.04961245 0.0025427078 -0.048686106 -0.15999514 -0.05762211 -0.06283986 0.010548528 0.015566893
-0.024100045 -0.2014219 0.0378562 0.060812764 0.059735727 0.022222957 0.07561894 -0.032656554
-0.11426588 0.03980072 0.064858876 0.03643995 -0.013179602 -0.009203448 0.019409392 -0.03876001
0.058975577 -0.012752534 -0.113639645 0.028250111 0.03190183 0.03411903 -0.09746944 -0.012837216
0.02365981 0.013786233 -0.032333724 0.030320574 0.0388411 0.10260264 0.07634351 -0.12250779
0.02826954 -0.017558929 -0.0434828 0.05346094 0.06360029 -0.010582214 0.033070587 0.019502658
-0.031986587 -0.080476694 -0.022002118 0.0425134 -0.0352944 -0.019358793 0.022733565 0.046594284
-0.014915169 0.015479123 0.075406864 -0.017429644 0.050980914 -0.08553626 0.04419221 0.03370223

action_model._discrete_distribution.branches.0.bias f4 [3]
00000000: 192f ea3c 2dca b7bc f812 91bb
0.028586911 -0.022435272 -0.00442731

action_model._discrete_distribution.branches.1.weight f4 [3, 256]
00000000: 474d 0dbd c03d 4b3d 115a febb d2e2 ce3c
00000010: 24c9 efbb aa6d c73c d7f9 d8bc 6951 86bc
00000020: 5807 47bd 3f8f 16bc fa91 3a3d ff68 73bc
00000030: 8957 603d 7064 fc3c 261c 853c a21c 453b
00000040: cf98 04bd 465f cebb c33f 993d ade6 593d
00000050: 657c 9abc dddf 9cbd c445 e2bc a1f2 22bb
00000060: f83e 423d e9be 253d 05b1 443c 5e8d b9bd
00000070: 27e7 78bd 084f 603c cba7 3a3c 1525 40bd
00000080: a23e 243d d054 46bd 5d24 b9bd 365e aa3d
00000090: 690c 0dbd 563a 3cbb fa36 d6bc 9896 003d
000000a0: c534 9d3b 30af 38bd dfa3 043d 6397 c03c
000000b0: a63a cabc fc48 d0bd 66f6 15bd 726c 06bd
000000c0: e172 63bb 5f7c da3a fc51 883c 6f11 9fbd
000000d0: eff8 18bd a3a3 883d 7c1c 94bd f0d2 70bc
000000e0: e614 eebc 4188 98bc c706 073d 44ae 2b3d
000000f0: c9ad 1abd 0643 893c a5a9 993d 01c7 e83b
00000100: bb52 ba3c 8ffb ff3c ac95 70bc 135e 63bd
00000110: 4777 a8bc be39 19bd cef8 9c3c d499 babc
00000120: 0bb3 263b 7191 563d 166e e0bc 68c9 cd3d
00000130: b854 2c3d e8e3 54bb deef aabd 0466 54bc
00000140: 24ea 6d3c 23fa 57bd 54c4 513c 21fa a93b
00000150: 5f79 87bd e9ea 1eba 3d2c 2b3d c5ed 643c
00000160: 0424 b8bc 7f6e 173d df75 533d 02b4 a33d
00000170: 5b55 93bc 4d79 7f3c aabe 163d 3d19 ccbb
00000180: b127 ca3d 9435 09bc e556 283d 5150 0bbd
00000190: 24ef 0c3c fced b53c d509 0fbc 4e99 2b3d
000001a0: fe6f 653d df8e 8e3c e8c3 9abb 15a6 803c
000001b0: bf08 3e3d 09fd 503d c316 383c 7a4f 0a3c
000001c0: d13f 4e3b 9486 2abd 7697 ab3b e5eb 68bb
000001d0: 9822 38bb aeb2 253d c8f1 1abd 7f0c 4cbd
000001e0: b714 03bd d42d a83b 758d 9c3d 499b ea3c
000001f0: 57d7 18bc a593 b93c 657f 163d b5ab 863b
00000200: 5537 ad3c bf2b fb3c efce 723c c8e5 443d
00000210: 4d53 293c d2f4 d3bc 1f2c 863b f103 29bd
00000220: e319 3fbc 8735 683b 57c8 153d 4e34 32bc
00000230: 6195 ebbc fa90 abbc ea5b 083d 5275 13bd
00000240: 2252 ddbc 52b5 87bc 471a af3b 54bc 06bd
00000250: 3596 0cbd 2bf2 d83b 8515 03bd 5ef6 afbd
00000260: 22eb 6cb8 a5e2 043c 6a00 21bc 320a f4bb
00000270: e6f9 903b 6cfe c63b 6b5a 09bc 4351 cabc
00000280: 9081 8dbc cc71 0a3d ce04 a53b 9d5a 8f3c
00000290: ede1 43bc 84bc a53b e489 2f3c 56aa 5abd
000002a0: 7caf 4e3c c653 17bd cfb8 93bd 27a1 bebc
000002b0: 18bb 153c 0c2c da3c 697c 66bc 48a2 233c
000002c0: 3988 04bc 7272 c93c 55cd ddbc 7987 123d
000002d0: 459a b23c 6821 c3bb 0aac e7bc ebae 083e
000002e0: 67b8 243d 97b6 b53c d3a0 523d 393a cdba
000002f0: 3926 a2bc 9983 4d3d 2aa3 973c d53f 03bd
00000300: a3ba 6f3d 11d0 253d 25f8 b7bc b118 70bd
00000310: 2c04 e7bb eed8 333c 1d27 00bd 9c5f 303b
00000320: 4f70 acbb f476 91bb e12a b6ba 4900 37bc
00000330: 9de7 af3d c333 503c 7c71 a63d 86ac 953d
00000340: f964 2bbb e210 66ba 0666 ef3c f8bb 95b9
00000350: c945 58bd 45f6 ac3b eff8 ff3c 9b65 8f3a
00000360: 847a ed3c 356d ebbb e100 373d 59d1 fdbb
00000370: 6bc4 5a3d 86ac c13c 06d0 abbc 1f19 98bc
00000380: a85e 193b a3b4 ddbb 478b 90bc ae7f b63a
00000390: bbe5 bb3b ef38 253c c4d2 28bd 852b 9cbd
000003a0: d654 153d 6b76 fabc 7a0f 373c e149 97bc
000003b0: 39d5 163d 09b0 0cbd f27b 3b3d 9afd 5ebc
000003c0: 2346 ddbc 05e5 59bd d9ef e1bd 4aa3 d23c
000003d0: 7d1c e9bc 617b 07bd dd4a 0b3c aea1 ac3c
000003e0: a57c 51bc 1b4c 40bd 1ac6 cc3b b198 2cbd
000003f0: 04f3 163c 566f 4ebd cc2c ceba befe 253d
-0.034497526 0.049619436 -0.0077622016 0.02525464 -0.007317679 0.024344284 -0.02648632 -0.016396241
-0.048590988 -0.009189426 0.04554937 -0.014856576 0.05477098 0.030809611 0.016248774 0.003007688
-0.032372292 -0.0062979786 0.07482865 0.053198505 -0.018858144 -0.07659886 -0.027621157 -0.0024863856
0.047423333 0.04046527 0.012005095 -0.09060167 -0.06076732 0.0136907175 0.011392544 -0.046910364
0.040098794 -0.048420727 -0.09040139 0.083187506 -0.034435663 -0.0028721294 -0.026149262 0.031393617
0.0047975504 -0.045088947 0.032382842 0.023509687 -0.024686169 -0.10170171 -0.036611937 -0.032818265
-0.0034705924 0.0016669146 0.016640656 -0.07766997 -0.037346777 0.06671836 -0.072319955 -0.014698729
-0.0290627 -0.018619658 0.032965448 0.04191424 -0.03776339 0.016755592 0.0750306 0.0071038012
0.022744527 0.031247882 -0.014684122 -0.055509638 -0.020564688 -0.037408583 0.019161608 -0.02277843
0.0025436308 0.052384797 -0.027396243 0.10048181 0.04207298 -0.0032484476 -0.08346532 -0.012963776
0.0145211555 -0.052728783 0.012803156 0.0051872884 -0.066149466 -0.0006062226 0.041790236 0.013972704
-0.022478111 0.03697061 0.051626083 0.07993318 -0.017985037 0.015592885 0.036802925 -0.0062285946
0.09870852 -0.00837459 0.041098494 -0.034012143 0.008601937 0.022208206 -0.0087303715 0.04189425
0.056015007 0.01740211 -0.004723061 0.015704194 0.04639506 0.051022563 0.011235896 0.0084418
0.0031471143 -0.04163225 0.0052365614 -0.0035540995 -0.0028096791 0.040453605 -0.037828237 -0.049816605
-0.032002177 0.0051324163 0.07644168 0.028638499 -0.009328685 0.02265341 0.036742587 0.0041098245
0.021144548 0.030660508 0.014819845 0.0480707 0.010334802 -0.025873575 0.004094615 -0.041263524
-0.011663887 0.0035432295 0.036568012 -0.010876728 -0.028757753 -0.020943154 0.03329078 -0.036000557
-0.027016703 -0.016565952 0.0053437087 -0.032894447 -0.034322936 0.0066206655 -0.032002944 -0.08591913
-5.648577e-05 0.008110677 -0.009826759 -0.0074475044 0.0044243215 0.00607281 -0.008383374 -0.024696952
-0.017273694 0.03379993 0.005035973 0.017499262 -0.01195572 0.005057873 0.010714028 -0.0533851
0.012615081 -0.036945127 -0.07212984 -0.023270203 0.009138845 0.026632331 -0.014067748 0.009987421
-0.008089119 0.024590705 -0.027075449 0.035773728 0.021802077 -0.00595491 -0.028280277 0.13347976
0.040214922 0.022181792 0.051422905 -0.001565761 -0.019793617 0.05017433 0.01851042 -0.032043297
0.0585276 0.04048163 -0.022457192 -0.058617298 -0.007050058 0.010977013 -0.0312873 0.0026912456
-0.0052624117 -0.004439229 -0.0013898277 -0.011169502 0.085890986 0.012707653 0.08127114 0.07308297
-0.0026152714 -0.00087763194 0.029223453 -0.00028559542 -0.052800927 0.005278381 0.03124663 0.0010940315
0.028989084 -0.0071846494 0.044678573 -0.0077459035 0.053409975 0.023641836 -0.020973217 -0.018566666
0.0023402367 -0.0067659183 -0.017644538 0.001392355 0.005734173 0.010084375 -0.041216627 -0.07625488
0.03645786 -0.030574044 0.0111731235 -0.018467845 0.03682444 -0.034347568 0.0457725 -0.013610268
-0.027010983 -0.053196926 -0.110320754 0.025712628 -0.028455967 -0.033076648 0.0085017355 0.021073189
-0.012786065 -0.04694758 0.0062492015 -0.042137805 0.009213213 -0.050399147 -0.0015729903 0.040526144

action_model._discrete_distribution.branches.1.bias f4 [3]
00000000: bf93 133c eacd 8dbb 0e7a 0bbb
0.009007393 -0.0043275254 -0.0021282467

action_model._discrete_distribution.branches.2.weight f4 [3, 256]
00000000: 8e77 dfbb e9d3 b8bb 3f3a a53d 1a87 dc3d
00000010: 285d a5bd 289b 5a3d caa1 a83c b511 15bd
00000020: b7e8 4d3d 9a83 033e 00d6 1cbd d8c9 e73e
00000030: cf8a 033d 54c9 ccbd f0c2 b63d 35ad 863d
00000040: e199 3b3d 5090 ee3c dc29 013c fc44 dbbb
00000050: 71ac 923c ec89 8e3d db65 023d bf64 ba3c
00000060: 9dac 84bc 66d5 2abd feb3 a23d fde6 463d
00000070: 227e 4939 5e01 403b 7b9d 873c a0bd b63d
00000080: 1a0b 88bc e097 cebc e203 59bc e341 64bc
00000090: 1bb2 8cbd aa61 263d 2863 813b fd2b e03d
000000a0: ab93 34bd a027 1f3d 33c5 a9bc 2935 353e
000000b0: 1a17 8b3a b1f8 a3bd 1551 503e eea7 7f3d
000000c0: 739d 6bbd ab2f cebb 904c 32bd a990 a83d
000000d0: 3075 3e3d 7b32 e53d 121e 1c3d 6ba7 10bc
000000e0: 3f78 fbbb d720 5bbd ebec d0bc 40f4 d33d
000000f0: dfd0 243c 9993 ff3c 7b7c 913d 1a6a e7bd
00000100: edb7 3fbc 0e45 113d 2253 db3d 7576 ce3d
00000110: 7f5c b53d 79e7 e7bd 6878 d43d ba4f aabc
00000120: 5d27 d2bd 3247 eb3c 0e5f f33d 326b 70bc
00000130: a543 9abc 9faf be3b cd4d 24be d28e fe3b
00000140: 3890 cb3b 2608 babd c2c0 b93d c237 083d
00000150: 9f9e bf3d f3e1 063e 328c 813d 2488 5bbc
00000160: 939e c93d c7dc e53c 0abc 13bd 131b f9bc
00000170: ef72 13be 4c32 23bd 56ac 0f3e d95d c03c
00000180: 5df0 863d 3f05 1f3d b8fe 223d a55e d03d
00000190: 81a3 32bd 6611 6cbd b72b 3dbd 0908 22bd
000001a0: 61a5 993d 267a d4bc 1c6b 033e 9fc5 32bc
000001b0: adc9 013e 5a46 ca3c 55ba 783d 93dd d9bd
000001c0: 9dd4 8b3d 394c dabc 9b5e 67bd 0343 87bc
000001d0: 4b30 86bd 0738 393d 1b7d c0bd df68 d8bc
000001e0: bf3f 50bd 44d0 6c3c 1835 d43c 9d45 9e3b
000001f0: d416 d83d f938 a93d 399d 95bb 6a48 cfbd
00000200: 4ffc 86bc e991 dbbc f77e 5d3d a9dc 0a3d
00000210: d44a 3b3d 3902 34be d809 cabd 8d1c 003c
00000220: f00a 50bc a089 9d3d e1ac e63d 1572 b53c
00000230: f0bf ca3e 16f5 ed3c 3519 423c 2bc5 7d3c
00000240: 13a6 18bd d31a 583d d3bc 783d 3422 873a
00000250: ec23 17bd f45a 0abd 3b41 ca3e 52a8 633c
00000260: ee4c a63d a387 00bc d9d9 7c3d 1c50 743d
00000270: f545 6b3c f832 b0bd 90da 89bd 0194 4fbd
00000280: 51f7 3b3d 2c2b 1a3d 5989 d33b 55d1 283e
00000290: 8b14 63bd 5edb b4bd 70a5 63bc 0a8e bf3d
000002a0: 09da 453c 6370 713d c723 483e 89f2 aa3d
000002b0: 0876 c63d be82 673b c2e2 e03d d60c 8b3d
000002c0: 6e52 13bd 25df 84bc 121f 1c3d 3f16 a0bd
000002d0: 3faa 5a3d ee7c b2bc e241 cd3b 4c6b 5d3c
000002e0: 2c08 a1bd 3884 bd3d 3afe 933d 18a2 81bd
000002f0: 2a2c 8ebd 327b 2f3d 2d4c a2bd 3a12 c43d
00000300: b359 583d 3dcc b83d 6eba 59bb 403a cf3d
00000310: fa2c 8b3e ffb7 963e e607 763d aa57 213d
00000320: 6002 a23d 22d8 d93e 85d5 033e 5ae2 f9bb
00000330: a8a1 853d 1207 6abc a0e5 a3ba 8671 cdbd
00000340: 1398 243d 8a46 b93b ec19 93bc 8a8b 233d
00000350: 6dea 633c 5578 93bd d749 b93d 7a62 e23d
00000360: bcdb 5abd 83ce 56bc b62f 89bd 851c e2bb
00000370: 6206 da3b eaf8 f83c 989e 943d f768 07bb
00000380: 9c73 4d3d bb42 00bd f0fd 873c bb43 4bbd
00000390: d0d9 473c f2df 1dbd 257f e23d d750 13bd
000003a0: 027e fabc cf43 9fbb 996d 9f3d da86 b7bc
000003b0: 8033 b23d 5a2d e6bc 83b5 aabc a812 11bd
000003c0: f3b4 3c3d 16fa c1bc c6bf e43c 872b 54bd
000003d0: 02df 70bc d74f 7ebd 2cb7 9d3c 2f9e 81bd
000003e0: 2440 dcbd 2987 593d 4fbb 7abd c510 ec3d
000003f0: d39f 32be 32de c6bb a862 8fbd 885b 9b3d
-0.006819672 -0.005640496 0.0806775 0.10767956 -0.08074409 0.053370625 0.02058496 -0.03639384
0.050270762 0.12843171 -0.038290024 0.45271182 0.0321148 -0.09999338 0.089239 0.06576005
0.045801047 0.029121548 0.007883515 -0.006691573 0.017904492 0.069599 0.03183542 0.022753118
-0.01619559 -0.04170742 0.07944487 0.04856013 0.00019215842 0.002929769 0.016554585 0.08922887
-0.016606856 -0.025218904 -0.013245555 -0.013931724 -0.068699084 0.040620483 0.003948588 0.1094589
-0.04408614 0.03885615 -0.020723915 0.1769606 0.0010611743 -0.080064185 0.2034343 0.06241601
-0.057523202 -0.0062923036 -0.043530047 0.08230717 0.046498477 0.11191269 0.038114615 -0.008828978
-0.0076742466 -0.053498115 -0.025503596 0.10349321 0.010059564 0.03119831 0.07103821 -0.11299534
-0.011701566 0.035466246 0.10709216 0.10081188 0.08855533 -0.11323447 0.10374528 -0.02078997
-0.10261414 0.028720472 0.118833646 -0.014673995 -0.018831084 0.0058192755 -0.16045304 0.0077684904
0.0062122606 -0.090835854 0.09069969 0.0332563 0.093564264 0.1317213 0.06325568 -0.013399158
0.09844699 0.028059376 -0.036068 -0.030408418 -0.14399312 -0.03984289 0.14030585 0.02348225
0.065888144 0.038823362 0.0397937 0.10174302 -0.04361296 -0.05763378 -0.046184268 -0.039558444
0.07502247 -0.025937151 0.12833828 -0.010911374 0.1267459 0.02469175 0.060724575 -0.10637965
0.06827662 -0.026647674 -0.056486707 -0.016511446 -0.0655218 0.045219447 -0.09398862 -0.026417194
-0.050842043 0.014453951 0.025904223 0.004830076 0.10551229 0.0826282 -0.0045658615 -0.10121234
-0.016477732 -0.026802974 0.05407616 0.033901844 0.04572566 -0.17578973 -0.09865159 0.007819307
-0.01269792 0.076922655 0.11263443 0.022149125 0.39599562 0.02904753 0.01184683 0.015488903
-0.037267756 0.052759957 0.06072695 0.0010309876 -0.036899492 -0.033778146 0.39502892 0.013895111
0.08120142 -0.007844838 0.061731193 0.05964671 0.014359941 -0.086034715 -0.067311406 -0.050678257
0.045890156 0.03763883 0.006455582 0.16486104 -0.055439513 -0.088309035 -0.013894424 0.09353264
0.012075909 0.05894507 0.19544898 0.08347041 0.096904814 0.003532573 0.109807506 0.06789558
-0.035967283 -0.016219685 0.03811557 -0.07816743 0.053385016 -0.021788087 0.0062639574 0.013514351
-0.07862887 0.09253734 0.07226224 -0.06329745 -0.069420174 0.042842098 -0.079246856 0.09573789
0.05281992 0.0902333 -0.0033222693 0.10118532 0.27182752 0.29437253 0.060066126 0.039390244
0.07910609 0.4254771 0.1287442 -0.00762586 0.06524974 -0.014283912 -0.0012504347 -0.100314185
0.04018409 0.005654161 -0.017956696 0.039927997 0.013910872 -0.07200686 0.09047287 0.11053939
-0.05343221 -0.01311076 -0.06698553 -0.0069003724 0.006653593 0.030392129 0.07256812 -0.002066193
0.05015908 -0.03131364 0.016600579 -0.04962514 0.012197927 -0.03854365 0.11059407 -0.035965767
-0.030577663 -0.0048603783 0.07784576 -0.02240317 0.08701229 -0.028097797 -0.020838505 -0.035418183
0.046071004 -0.02367882 0.027923476 -0.051799323 -0.014701607 -0.06208786 0.019252382 -0.06328999
-0.10754421 0.053107414 -0.061213788 0.11526636 -0.1744378 -0.006068968 -0.07001239 0.075858176

action_model._discrete_distribution.branches.2.bias f4 [3]
00000000: 26b1 233d 57dc 87bd d66e 973c
0.039963864 -0.06633823 0.018485468
