ML-Agents/results/v3.0.1-with-randomized-server-position/Volleyball/Volleyball-1499992.onnx (onnx, 333204 bytes, 15 tensors)

discrete_action_output_shape f4 [1, 4]
0	0x40400000	3.0
1	0x40400000	3.0
2	0x40400000	3.0
3	0x40000000	2.0

network_body.observation_encoder.processors.0.normalizer.running_mean f4 [51]
0	0xbda85f72	-0.0822133
1	0x3c6631ee	0.01404999
2	0x3ec76c26	0.38949698
3	0x3ec3f2dd	0.38271227
4	0x3c6631ee	0.01404999
5	0x3ec76c26	0.38949698
6	0x3ec3f2dd	0.38271227
7	0x41553251	13.324784
8	0xc0e7505d	-7.22856
9	0x2d95ffcc	1.7052935e-11
10	0x2eebffae	1.07319806e-10
11	0xc0fea6bb	-7.957853
12	0x3fdb19b1	1.7117215
13	0x41cd6aef	25.677214
14	0x3f193ab6	0.5985521
15	0x3f21996c	0.6312473
16	0xbe28772b	-0.16451709
17	0x00000000	0.0
18	0xbdb5bdd5	-0.08874098
19	0x00000000	0.0
20	0x3f74069a	0.95322573
21	0xc0fe209a	-7.9414797
22	0x3fdb7c8d	1.7147385
23	0x41ccff4b	25.624655
24	0x3f267f42	0.6503793
25	0x3f22719d	0.6345461
26	0xbe997115	-0.29969087
27	0x00000000	0.0
28	0xbdae8fde	-0.08523534
29	0x00000000	0.0
30	0x3f7170ed	0.94312936
31	0xc135ec57	-11.3702
32	0x3fdb7216	1.7144191
33	0x41041c5d	8.256925
34	0xbf2af7dd	-0.6678446
35	0x3f1e000f	0.6171884
36	0x3e645ec4	0.22301775
37	0x00000000	0.0
38	0xbda67873	-0.081284426
39	0x00000000	0.0
40	0x3f740a51	0.9532824
41	0xc13600cc	-11.375195
42	0x3fda3d59	1.7049972
43	0x4103edb5	8.245534
44	0xbf28d63a	-0.65951884
45	0x3f1f59c8	0.6224637
46	0x3e8a7a95	0.27046648
47	0x00000000	0.0
48	0xbda8b0c0	-0.082368374
49	0x00000000	0.0
50	0x3f736951	0.95082575

network_body._body_endoder.seq_layers.0.weight f4 [256, 51]
0	0x3ccfad65	0.025351236
1	0x3ddcc05a	0.10778876
2	0xbe341af1	-0.17588402
3	0xbcc7dca2	-0.024397198
4	0x3e24089c	0.16018909
5	0x3cab66fa	0.020923126
6	0x3ee18b33	0.44051513
7	0xbddaa827	-0.10676604
8	0x3e27c4f3	0.16383724
9	0x3dc1909c	0.0945141
10	0xbe7d0c16	-0.24711642
11	0xbde69580	-0.112589836
12	0xbd43dddb	-0.047819
13	0xbdd1c334	-0.1024231
14	0xbe883bd1	-0.26608136
15	0x3e58b768	0.21163714
16	0x3e7e0c07	0.24809276
17	0xbd308164	-0.043092147
18	0x3c921895	0.017833987
19	0xbd10f094	-0.035385683
20	0xbe20bb1a	-0.15696374
21	0x3e2873e2	0.16450456
22	0xbdf007eb	-0.1172026
23	0xbe5a6655	-0.21328099
24	0xbe18f1fd	-0.14936061
25	0xbe05aa33	-0.13053207
26	0x3dc52737	0.0962662
27	0x3d2a04de	0.041508548
28	0x3d9e28ff	0.07722663
29	0xbdb470bb	-0.08810564
30	0xbdb00d83	-0.08596327
31	0xbd65db37	-0.056117263
32	0xbe66280f	-0.22476219
33	0x3dfaad92	0.12240137
34	0xbe9283fe	-0.28616327
35	0x3de78f59	0.11306638
36	0x3cf498b1	0.029857965
37	0x3db94d8b	0.09047993
38	0x3c520cb8	0.012820415
39	0x3dc675e2	0.09690453
40	0xbdb049a5	-0.086077966
41	0x3dd33375	0.10312549
42	0x3d058b44	0.032603517
43	0x3ddd8d4d	0.108179666
44	0x3dd0862e	0.10181843
45	0x3e031889	0.12802328
46	0xbd147dd4	-0.03625281
47	0x3bf4a90d	0.0074664415
48	0xbdacdd38	-0.08440632
49	0x3d20a422	0.03921903
50	0xbd1b5d75	-0.037930924
51	0xbe41ec91	-0.18937899
52	0x3c478702	0.012178184
53	0xbe80d46a	-0.2516206
54	0xbdbc4d9d	-0.09194491
55	0x3d24ad44	0.0402043
56	0x3e01d528	0.12678969
57	0x3e23c833	0.15994339
58	0x3e823476	0.2543065
59	0xbea83915	-0.3285605
60	0x3d1d6e78	0.03843543
61	0x3e3d3885	0.18478592
62	0x3d867f3d	0.065672375
63	0xbcfe5be9	-0.031049686
64	0x3e3164ef	0.1732366
65	0x3dada9fb	0.08479687
66	0xbd212a55	-0.03934701
67	0xbde436c9	-0.11143262
68	0x3e52e138	0.20593727
69	0x3ccbf079	0.02489494
70	0x3e340f03	0.17583852
71	0x3de69a8a	0.11259945
72	0xbdacd8e7	-0.08439808
73	0xbcdfb5f0	-0.027308434
74	0x3ddd57dc	0.108077735
75	0xbdde5e54	-0.108578354
76	0x3e04a9e4	0.12955433
77	0x3dacfc94	0.08446613
78	0x3e173152	0.14764908
79	0x3d1f1b60	0.038844466
80	0x3e18fc22	0.14939931
81	0x3d78da96	0.060755335
82	0xbdff7128	-0.12472755
83	0x3e4e411f	0.20142029
84	0xbdb42e66	-0.08797912
85	0x3deaeef6	0.114713594
86	0xbe231baf	-0.15928529
87	0xbd0defb2	-0.03465242
88	0x3cd5ddca	0.026106734
89	0x3cfb71db	0.030693939
90	0xbbbfa8cc	-0.0058489796
91	0x3d3312c5	0.043719072
92	0xbd369908	-0.044579536
93	0x3d95b2f2	0.07309522
94	0x3e1839c1	0.14865781
95	0x3c81367a	0.015773047
96	0xbd008c60	-0.031383872
97	0xbd12b0e2	-0.03581322
98	0x3d9afb48	0.07567459
99	0xbdda3ce8	-0.10656148
100	0x3e382723	0.1798368
101	0xbe4d3dc2	-0.2004309
102	0x3eae8d15	0.34092012
103	0xbd1b3575	-0.037892777
104	0x3cbc41d1	0.022980602
105	0x3e465053	0.19366579
106	0xbdb9a5f5	-0.09064857
107	0x3ed4d950	0.41572046
108	0xbd84ae46	-0.064785525
109	0x3e5e55b8	0.21712387
110	0x3e15146c	0.14558572
111	0x3e4e816f	0.20166562
112	0xbe8f3c78	-0.27975821
113	0xbe474bfc	-0.1946258
114	0xbe00786a	-0.12545934
115	0x3d614b55	0.055003483
116	0x3e5d59c5	0.21616276
117	0x3db6d6bc	0.08927676
118	0xbc90ff2a	-0.017699797
119	0x3e15dff5	0.14636214
120	0x3d58039a	0.05273781
121	0xbd853f04	-0.0650616
122	0xbd049f2b	-0.032378357
123	0x3b6675fd	0.0035165541
124	0xbd6161d6	-0.055024944
125	0x3d75cddd	0.06001078
126	0x3e5e8d96	0.21733698
127	0x3e23f155	0.1601003
128	0x3e0aec1c	0.13566631
129	0xbe503ae3	-0.20334964
130	0x3c02b366	0.007977342
131	0x3d2e2f9b	0.04252587
132	0xbb99ad6b	-0.0046898625
133	0xbe066906	-0.13126001
134	0xbe014492	-0.12623814
135	0xbd6955da	-0.05696664
136	0xbcc5d3c0	-0.024148822
137	0x3e128b6f	0.14311002
138	0xbe4d0f89	-0.20025457
139	0x3dca3228	0.09872848
140	0xbc2cddaa	-0.010550896
141	0xbd746ced	-0.059674192
142	0x3e0995cf	0.13436054
143	0xbc0cc07d	-0.008590815
144	0xbd9581a2	-0.07300116
145	0xbce25ef0	-0.02763316
146	0x3cd3e149	0.02586426
147	0xbd9124e2	-0.07087113
148	0xbe3cc953	-0.18436174
149	0x3b80cad1	0.0039304276
150	0x3dc87bca	0.09789236
151	0xbdd8c4ca	-0.105844095
152	0x3e506ac9	0.20353235
153	0xbec5b083	-0.3861123
154	0xbe810ccb	-0.25205073
155	0x3e38a864	0.18032986
156	0xbd8c13c4	-0.068397075
157	0xbd9cfa76	-0.07664959
158	0x3d8ba656	0.068188354
159	0x3e04def3	0.12975673
160	0x3d85f606	0.06541066
161	0xbe78bff2	-0.24291971
162	0x3b0ef3a7	0.0021812709
163	0x3d3ea298	0.04654178
164	0xbe02f9c1	-0.12790586
165	0xbc131268	-0.008976556
166	0x3e383945	0.17990597
167	0xbd9a2ec6	-0.075284526
168	0xbceff613	-0.029292142
169	0xbcba8112	-0.022766624
170	0x3bfabb47	0.0076517197
171	0x3b0b3f6e	0.0021247524
172	0xbe158733	-0.14602356
173	0xbd36e4da	-0.044651844
174	0xbe816e2e	-0.25279373
175	0x3e966a9b	0.2937821
176	0xbd4f6996	-0.050637804
177	0x3bef000c	0.0072937068
178	0x3e8e45fb	0.27787766
179	0xbd961f83	-0.07330229
180	0xbde98220	-0.114017725
181	0x3dbe156b	0.09281429
182	0xbdbf4058	-0.093384445
183	0x3e83249b	0.25613865
184	0x3d6662c4	0.056246534
185	0xbe72d394	-0.23713523
186	0xbe0bd6d4	-0.13656169
187	0x3d348bcb	0.04407863
188	0xbe74c185	-0.23901947
189	0xbe919b6c	-0.2843889
190	0xbcfe1cb8	-0.031019554
191	0xbe5e6342	-0.21717551
192	0x3e0f49f3	0.13993053
193	0x3e472757	0.194486
194	0x3e6303aa	0.22169366
195	0xbe5afbed	-0.21385165
196	0xbd76eb6c	-0.06028311
197	0x3dae95a5	0.08524636
198	0xbd91dc4c	-0.071220964
199	0x3d05016c	0.03247206
200	0xbe7a50f3	-0.24444942
201	0x3e3817bf	0.17977808
202	0xbcdceb15	-0.026967565
203	0x3d3d4ffc	0.046218857
204	0x3c691f9a	0.014228726
205	0x3c21b65d	0.009870139
206	0xba33e8d3	-0.00068630016
207	0xbba4c9a1	-0.005028919
208	0xbdc86b54	-0.09786096
209	0xbeb2e718	-0.34941936
210	0x3d2ab549	0.041676793
211	0x3e2808dd	0.16409631
212	0x3e137a03	0.14402013
213	0xbe2fe5ff	-0.1717758
214	0x3d8ff2ad	0.070287086
215	0xbddb375a	-0.10703917
216	0xbde45066	-0.11148147
217	0x3d06a0c2	0.032868154
218	0xbd63cf61	-0.055617694
219	0xbdd61740	-0.10453653
220	0xbe614024	-0.21997124
221	0x3ee01055	0.4376246
222	0xbde64b41	-0.11244822
223	0xbc038192	-0.008026497
224	0xbde0ae42	-0.10970737
225	0x3e7caf05	0.2467614
226	0x3d3d8ece	0.046278767
227	0x3e3b8e13	0.18315916
228	0xbe02b27a	-0.12763396
229	0xbc1f5e73	-0.009727108
230	0x3dcc5d6a	0.09978755
231	0x3e7d0b53	0.24711351
232	0x3e8ddc08	0.27706933
233	0x3e2ff9e5	0.17185171
234	0xbd55733a	-0.05211184
235	0xbda5f9f7	-0.08104318
236	0xbc26cfea	-0.0101814065
237	0xbd62b705	-0.055350322
238	0xbe1c2dba	-0.15251818
239	0xbd002ddd	-0.03129374
240	0xbe6d2378	-0.23158062
241	0xbe7a5222	-0.24445394
242	0xbd05b7ff	-0.032646175
243	0x3d84f8ab	0.06492742
244	0xbdfbbd85	-0.12292007
245	0xbd644617	-0.055730905
246	0xbe3733fa	-0.17890921
247	0x3c049255	0.008091529
248	0x3dd9ea72	0.1064042
249	0x3d9af3b1	0.07566012
250	0x3be11de6	0.0068700192
251	0xbdb2292b	-0.086992584
252	0xbe178408	-0.1479646
253	0x3e4e367f	0.20137976
254	0xbc1ca172	-0.009559976
255	0x3b8a108f	0.0042133997

network_body._body_endoder.seq_layers.0.bias f4 [256]
0	0x3d1fc4a1	0.03900588
1	0x3bd80b78	0.006593164
2	0x3d932380	0.071845055
3	0x3d367eca	0.04455451
4	0x3c55441a	0.013016725
5	0x3d79f2e3	0.06102265
6	0x3c26a372	0.010170804
7	0x3cdb9e6b	0.026808938
8	0x3d19fb1f	0.037593003
9	0x3d2333bb	0.039844256
10	0xbc8a2754	-0.016864456
11	0x3cde2fa9	0.027122336
12	0x3c33ab76	0.010966172
13	0x3af94518	0.0019017784
14	0x3cbc3f37	0.022979362
15	0x3d02b787	0.031913307
16	0x3d3cc644	0.04608752
17	0x3cc810e8	0.024422124
18	0x3ccd70d4	0.025078215
19	0x3ccb9f06	0.024856102
20	0x3d4337e1	0.047660712
21	0x3ccde475	0.02513335
22	0x3b9eb1b4	0.004842961
23	0x3b1335f1	0.0022462572
24	0x3c2688f6	0.01016449
25	0x3c58b383	0.013226393
26	0xbc39e6c0	-0.011346519
27	0x3d135f11	0.035979334
28	0x3c617483	0.013760689
29	0xbc848fca	-0.016181845
30	0x3bc8a0e1	0.006122694
31	0xbb90f874	-0.004424149
32	0x3c8e426c	0.017365657
33	0xbbb86f96	-0.0056285365
34	0x3c146df8	0.009059422
35	0x3ceb3102	0.028709892
36	0xba298e22	-0.0006468018
37	0x3c8b2c03	0.01698876
38	0x3cd00389	0.02539231
39	0x3c2e8683	0.010652187
40	0x3cbb266d	0.022845471
41	0x3cddc746	0.02707256
42	0x3d202f5a	0.039107658
43	0x3d034ef7	0.03205773
44	0x3cd95881	0.02653146
45	0x3cc78e3b	0.024359813
46	0x3c2778f8	0.010221712
47	0xbcb47812	-0.02202991
48	0x3cf03175	0.029320458
49	0x3cb3dbf9	0.021955477
50	0xbb6df853	-0.0036311343
51	0x3cb73ed8	0.022368833
52	0x3ba7d42b	0.005121728
53	0x3d178f70	0.037002027
54	0x3c55dedb	0.013053621
55	0x3c3a5142	0.011371912
56	0xba2123c3	-0.00061469915
57	0x3c64ae6a	0.013957599
58	0x3cf3cbe9	0.029760318
59	0x3caa373e	0.020778295
60	0x3d1ca856	0.038246475
61	0xbb9afe57	-0.0047300267
62	0x3bb87ebf	0.0056303437
63	0x3c316843	0.010828081
64	0x3c4d96ca	0.012548158
65	0x3d30e895	0.043190558
66	0x3d03e82d	0.032203842
67	0x3bbd86ce	0.0057838922
68	0x3d1107da	0.03540788
69	0x3cf0a76d	0.02937671
70	0x3c5b735f	0.013394206
71	0x3cd5bbee	0.026090588
72	0x3c9ff7f2	0.01952741
73	0x3ae980db	0.0017814891
74	0xbbaf61c6	-0.0053522317
75	0x3cfcabcd	0.03084364
76	0x3cd3c045	0.025848517
77	0xbbbfbaac	-0.0058511104
78	0x3cceacf3	0.025228953
79	0x3b5fb058	0.0034132209
80	0xbbfd15bb	-0.0077235377
81	0x3cfa0b20	0.030522883
82	0x3c5b91c2	0.013401451
83	0x3cc27486	0.023737203
84	0xbcc0cce3	-0.023535198
85	0x3cfddc94	0.030988969
86	0x3d31518b	0.043290656
87	0x3cceca04	0.025242813
88	0x3c52ceb3	0.012866664
89	0xbc0017bc	-0.007818159
90	0x3cbbdc06	0.022932064
91	0x3ca37429	0.01995285
92	0x3cd055c8	0.025431529
93	0xbb4ab937	-0.003093315
94	0x3d18d012	0.037307806
95	0x3c99ab69	0.018758493
96	0x3c3eb921	0.011640818
97	0x3d5d94d9	0.05409703
98	0xbbaf15ca	-0.0053431736
99	0x3cbdbf1d	0.023162419
100	0x3d0728bb	0.032997828
101	0xbad10777	-0.0015947659
102	0x3c93511a	0.017983008
103	0x3bc25999	0.005931091
104	0x3d18c344	0.037295595
105	0x3caf0ba8	0.021367863
106	0x3a272d70	0.0006377315
107	0x3cf546aa	0.029940922
108	0x3d0c80db	0.034302574
109	0x3d663ee3	0.056212317
110	0x3bb89bc0	0.005633801
111	0x3c67491f	0.0141165545
112	0x3c59e121	0.013298304
113	0x3b3883e1	0.0028154778
114	0x3d0f3339	0.03496096
115	0xbcaecba8	-0.021337345
116	0x3c4da89c	0.012552407
117	0x3c20e87d	0.0098210545
118	0x3d1ea37e	0.038730137
119	0x3c10af60	0.008830875
120	0x3c755abe	0.014975248
121	0x3cc30a52	0.023808632
122	0x3d23a7b9	0.039954875
123	0x3d203c14	0.039119795
124	0x3d46fc8d	0.048580695
125	0x3cba9d54	0.022780098
126	0x3c202d71	0.009776459
127	0x3d1320e9	0.035920057
128	0x3c63922d	0.0138898315
129	0x3cea7bc0	0.028623462
130	0x3d0917a5	0.033469815
131	0x3d251c7b	0.040310364
132	0x3ba0018b	0.0048829964
133	0x3cb233ef	0.02175328
134	0x3c527e6e	0.012847526
135	0xbbcff7d8	-0.006346684
136	0xbc4838b6	-0.012220552
137	0xbbe17485	-0.0068803453
138	0x3bb5f13a	0.005552438
139	0x3b2395a9	0.002496103
140	0x3d02d36a	0.0319399
141	0x3c97f8fe	0.018551346
142	0x3c8d6629	0.017260628
143	0xbc56333d	-0.01307374
144	0x3d331df3	0.043729734
145	0x3c9e01a2	0.019287888
146	0x3c13479d	0.008989242
147	0x3cb0ae66	0.021567535
148	0x3c3902f0	0.011292204
149	0x3cc009ab	0.02344211
150	0x3ce2fcec	0.027708493
151	0xbb8ae5eb	-0.004238834
152	0xbc75e1ab	-0.015007417
153	0x3d42aa2b	0.047525566
154	0xbae1405e	-0.0017185321
155	0x3c525c3a	0.012839371
156	0xbb60fba1	-0.003432967
157	0x3b856560	0.0040709227
158	0x3d2dea84	0.04245998
159	0x3d2d38b4	0.042290404
160	0x3bd7c0b8	0.006584253
161	0x3c57f5ab	0.01318113
162	0x3c6903a0	0.014222056
163	0x3c2cefa5	0.010555183
164	0x3c8f11fa	0.017464627
165	0x3c08f295	0.008358617
166	0x3c9fea58	0.019520923
167	0x3cd8fbd1	0.026487263
168	0xbbbd35a3	-0.0057742163
169	0x3ca9f3ea	0.02074619
170	0x3cbc255d	0.022967035
171	0x3d19e855	0.037575085
172	0x3cb6045e	0.02221888
173	0x3c22818e	0.009918584
174	0x3c93945b	0.018015077
175	0x3ca58321	0.020204129
176	0x3c98e3d9	0.018663334
177	0x3d3fe562	0.046849616
178	0x3cb3511e	0.021889266
179	0x3d460a2a	0.048349537
180	0x3cf2f74b	0.029658934
181	0xbb8c73ae	-0.004286251
182	0x3d21ed36	0.039532863
183	0x3ceeeb47	0.029164923
184	0x3bc833bd	0.0061096833
185	0x3ccaccfc	0.024755947
186	0x3c4bf089	0.012447485
187	0xbb565737	-0.0032705793
188	0x3ba6d142	0.0050908634
189	0x3c4288a2	0.011873396
190	0x3cdd8332	0.027040098
191	0x3d1568bb	0.036476832
192	0x3cc8e2a8	0.02452214
193	0x3ca2aad5	0.01985685
194	0x3d769793	0.060203146
195	0x3b865bad	0.004100284
196	0x3c9ab4fb	0.018885126
197	0xbb8f1fba	-0.004367796
198	0x3cf4b6c8	0.029872313
199	0x3d611026	0.05494704
200	0x3d1b97e4	0.03798665
201	0x3d1c6b52	0.038188286
202	0xbb96cd26	-0.0046020923
203	0x3c41c3b0	0.011826441
204	0x3d5e0c67	0.054211047
205	0xbb148b06	-0.0022665872
206	0x3a2ec8eb	0.00066675124
207	0x3c343573	0.010999071
208	0x3cfc0f18	0.030768916
209	0xbc557161	-0.01302752
210	0x3abb1cff	0.0014275609
211	0x3c55dd16	0.013053199
212	0x3cf67a11	0.030087503
213	0x3c3bed51	0.011470155
214	0x3d99e803	0.07514956
215	0x3ca258ce	0.019817736
216	0x3ad38a62	0.0016139264
217	0x3c1bf990	0.00951995
218	0xbbc21a15	-0.0059235194
219	0x3d0ad524	0.033894673
220	0xbc440e82	-0.01196635
221	0x3c9ff0d4	0.019524015
222	0x3d3214e6	0.04347696
223	0xbb633fc6	-0.0034675463
224	0x3c894f5a	0.01676147
225	0x3d1cb695	0.03826006
226	0x3d29cda9	0.0414559
227	0xbb09ae5e	-0.0021008472
228	0x3c5e0505	0.013551001
229	0x3c2cbff2	0.01054381
230	0x3bd64138	0.0065385364
231	0x3d09c4ae	0.033634834
232	0xbb87302a	-0.0041256147
233	0x3cf720e6	0.030167054
234	0xbc4c205e	-0.012458889
235	0x3becb794	0.0072240327
236	0x3d51a70a	0.05118469
237	0x3badea55	0.0053074756
238	0x3c690143	0.014221492
239	0x3d108462	0.0352825
240	0x3d175691	0.03694779
241	0x3c78f26f	0.015194519
242	0x3cf43e3c	0.029814832
243	0xbac95338	-0.0015359884
244	0x3c0a0c08	0.00842572
245	0x3c7e9c0b	0.015540133
246	0x3ca5f6f2	0.020259354
247	0x3c1ce9af	0.009577199
248	0x3cc67371	0.024224969
249	0xbbac71f0	-0.005262606
250	0x3cdf2041	0.02723706
251	0xbb6f39e1	-0.0036503004
252	0xbc3cb7ef	-0.011518463
253	0x3cfb0dd7	0.030646248
254	0x3cc4bb37	0.024015052
255	0x3be56d80	0.007001579

network_body._body_endoder.seq_layers.2.weight f4 [256, 256]
0	0x3dc4e7f9	0.09614558
1	0x3d5daa25	0.05411734
2	0xbd86f7ab	-0.06590208
3	0xbc00bb44	-0.007857148
4	0x3d4d4f82	0.050124653
5	0x3d75bd93	0.059995245
6	0xbdc0c439	-0.094124265
7	0xbd97614e	-0.07391606
8	0xbcc5e46e	-0.024156775
9	0x3bd6ac0a	0.0065512704
10	0xbd7b0303	-0.06128217
11	0x3da28916	0.07936303
12	0xbd6658f9	-0.056237195
13	0x3df1f970	0.118151546
14	0x3c818a6e	0.015813079
15	0xbd1b969e	-0.037985437
16	0xbd317b03	-0.043330204
17	0xbd6ac022	-0.05731214
18	0x3c0e24c4	0.008675758
19	0x3ce58a88	0.028020158
20	0x3d85900d	0.06521616
21	0x3cf85db3	0.030318117
22	0xbe010f1d	-0.12603422
23	0xbd6f0dd6	-0.058362804
24	0x3e29bed9	0.16576709
25	0xbddc2209	-0.10748679
26	0x3c74e98b	0.014948259
27	0xbc8715e6	-0.016489934
28	0x3daf7abb	0.08568331
29	0x3d78d41f	0.06074917
30	0x3cad25db	0.021136215
31	0x3cfbd5d1	0.030741604
32	0xbd0c646e	-0.034275465
33	0xbddba9c0	-0.107257366
34	0x3d89db52	0.06731285
35	0x3ba0baf4	0.004905099
36	0x3dc597dd	0.09648106
37	0xbae28141	-0.0017280952
38	0x3dc0d4b5	0.09415571
39	0x3d212b59	0.03934798
40	0x3da68090	0.0812999
41	0x3dad5cf3	0.08464994
42	0x3cc931c6	0.024559867
43	0x3d48bb4a	0.049006738
44	0xbbd836cc	-0.006598329
45	0x3d37f6ed	0.04491322
46	0x3db92b8b	0.09041508
47	0x3d414f54	0.047194794
48	0xbdab9e35	-0.08379785
49	0xbce05dc5	-0.027388463
50	0xbd83adba	-0.0642962
51	0xbd001394	-0.03126867
52	0xbbb98b34	-0.0056623463
53	0x3d4aad62	0.049481757
54	0xb80c2b50	-3.341894e-05
55	0x3a581b0c	0.00082437764
56	0x3d2c6707	0.042090442
57	0xbc32bdc2	-0.0109095
58	0xbda6a794	-0.08137432
59	0x3d818d6e	0.06325804
60	0x3d5353a5	0.05159344
61	0x3d23b9e8	0.039972216
62	0x3d18df95	0.0373226
63	0xbd7ea00f	-0.062164363
64	0xbda886ff	-0.082288735
65	0xbc86811b	-0.016418984
66	0x3d974466	0.07386093
67	0x3e6803d0	0.22657704
68	0x3dca29f6	0.09871285
69	0xbd93b25b	-0.07211753
70	0xbb95b20c	-0.004568344
71	0x3c9b09b1	0.01892552
72	0x3d8230ff	0.063570015
73	0x3cc51136	0.024056058
74	0x3d2c6377	0.042087045
75	0x3d4b6886	0.04966023
76	0xbd36dcb9	-0.04464409
77	0xbd9f67e2	-0.07783486
78	0x3c6fa2c8	0.014626212
79	0x3b4976cc	0.0030740974
80	0x3d907ca4	0.07055023
81	0x3dc3715d	0.09543107
82	0xbc26b4b5	-0.01017492
83	0xbba1b609	-0.0049350304
84	0xbdb6c113	-0.08923545
85	0xbc5b655b	-0.013390864
86	0x3caef35d	0.021356279
87	0xbc95e651	-0.0182983
88	0xbd5bc80a	-0.05365757
89	0xbc2dabfa	-0.010600084
90	0x3d471b20	0.048609853
91	0xbae33352	-0.001733402
92	0x3c04dea3	0.008109721
93	0x3ce422e8	0.027848676
94	0xbd85bfd7	-0.06530731
95	0xbc8e2e65	-0.017356107
96	0x3db5b813	0.08873
97	0x3d0d6ae5	0.03452577
98	0xbdd2d8b1	-0.10295237
99	0xbd1a660d	-0.03769498
100	0x3ae21adb	0.0017250435
101	0x3d55c3b6	0.052188598
102	0x3c59de91	0.013297693
103	0x3dc521ea	0.09625609
104	0x3bee07c6	0.0072641103
105	0x3d9de04c	0.07708797
106	0xbd1cefc9	-0.038314614
107	0x3c2b97a5	0.010473167
108	0x3ddd072a	0.10792382
109	0x3cd51ae1	0.026013793
110	0x3de62301	0.11237145
111	0x3cd2361a	0.025660563
112	0x3df49be1	0.11943794
113	0xbb502321	-0.003175922
114	0x3c758efd	0.014987704
115	0xbd3d091b	-0.04615126
116	0x3c1d676f	0.00960718
117	0xbd210d5d	-0.039319385
118	0x3cff93e3	0.031198448
119	0x3d41d0f7	0.047318425
120	0xbd50db32	-0.05099029
121	0x3dd5ac6f	0.1043328
122	0x3d1c6db1	0.038190547
123	0xbd1e864f	-0.038702305
124	0xbcde4ef3	-0.027137255
125	0xbc40d7c7	-0.011770195
126	0xbc51d332	-0.012806701
127	0x3b9e0673	0.004822546
128	0xbd7f6605	-0.062353153
129	0xbd019c20	-0.031643033
130	0xbc4b1852	-0.012395935
131	0x3d376969	0.04477826
132	0x3cfab8ce	0.0306057
133	0x3c890516	0.016726058
134	0xba893bed	-0.001047013
135	0xbd4686f0	-0.04846853
136	0x3c9c2a10	0.019063026
137	0xbcd59fde	-0.026077207
138	0x3d96064c	0.0732542
139	0x3d736f36	0.05943223
140	0x3b025eac	0.0019892855
141	0xbb8a9e8e	-0.004230327
142	0x3bde1c4f	0.006778277
143	0x3d5dce19	0.05415163
144	0xbdf2e47b	-0.118599854
145	0x3cd57d5c	0.026060753
146	0xbcf84a2e	-0.03030881
147	0xbc38b0ae	-0.0112725925
148	0x3d186afc	0.037211403
149	0x3c142e34	0.009044219
150	0xbad43f50	-0.0016193185
151	0x3e0e4cff	0.13896559
152	0x3cd69ef5	0.026198843
153	0x3d42da50	0.04757148
154	0xbd83744e	-0.06418668
155	0x3d222109	0.039582286
156	0x3c39331d	0.01130369
157	0x3d0196ad	0.031637836
158	0x3da06742	0.07832195
159	0x3d60a410	0.054843962
160	0x3bc24325	0.0059284144
161	0xbc0ba7d2	-0.008523898
162	0xbbf3d004	-0.007440569
163	0xbc93d26a	-0.01804467
164	0x3d84b3d9	0.06479616
165	0x3add55bd	0.0016886514
166	0xbdd6b041	-0.104828365
167	0xbd39a172	-0.045319982
168	0x3dc72650	0.097241044
169	0x3da932f4	0.08261672
170	0x3d4ab35b	0.049487453
171	0xbc892080	-0.01673913
172	0xbd99fdb0	-0.0751909
173	0x3d88411a	0.06653042
174	0x3dc66a6d	0.09688268
175	0x3cfb16df	0.030650554
176	0x3dbd5118	0.09243983
177	0x3be6ad8a	0.0070397304
178	0xbdd00707	-0.1015759
179	0xbc2a3de3	-0.0103907315
180	0xbc9f83af	-0.019471971
181	0x3e0940f1	0.1340368
182	0xbdaf0118	-0.085451305
183	0xbdd781cd	-0.105228044
184	0x3b150c87	0.0022743063
185	0x3d76d821	0.06026471
186	0xbd52ea85	-0.051493187
187	0xbc88f70f	-0.01671937
188	0x3d5fdd3b	0.05465434
189	0xbda44feb	-0.08023056
190	0xbc21c10d	-0.009872687
191	0x3d593a1a	0.053033926
192	0x3d9bebad	0.07613311
193	0x3cf2f458	0.029657528
194	0x3d815f85	0.06317047
195	0xbd049ddf	-0.03237712
196	0x3d07fcb0	0.033199966
197	0x3c757a3d	0.014982757
198	0x3cc39770	0.023875922
199	0x3c4c1037	0.012455038
200	0x3db99a71	0.090626605
201	0x3d250fdb	0.040298324
202	0xbdec5588	-0.11539751
203	0x3cc3c796	0.02389888
204	0x3d2ec0b6	0.042664252
205	0x3d7c0458	0.06152758
206	0x3bb362fe	0.0054744473
207	0x3dae458d	0.085093595
208	0x3d51d450	0.051227868
209	0x3c5d431d	0.013504771
210	0xbd27402c	-0.040832683
211	0x3d651b92	0.055934496
212	0x3a4248f4	0.00074113836
213	0xbe1483c0	-0.14503384
214	0x3d1cd9ad	0.03829353
215	0x3c9d0b5b	0.019170454
216	0x3c3be537	0.011468223
217	0xbd273bec	-0.04082863
218	0xbd2986d9	-0.041388366
219	0xbd9e1e58	-0.07720631
220	0x3db93071	0.090424426
221	0x3e04d807	0.12973033
222	0x3d60baca	0.054865636
223	0x3bcf36e1	0.0063236807
224	0xbb8f26ff	-0.0043686624
225	0xbe17a68a	-0.14809623
226	0xbd82dafb	-0.063894235
227	0xbb98703d	-0.0046520517
228	0xbd9ea090	-0.077454686
229	0xbcab012b	-0.02087458
230	0x3ddbf024	0.107391626
231	0xbc4a9589	-0.0123647535
232	0x3c8cfcb8	0.01721035
233	0xbd6cfd98	-0.057859033
234	0xbd72fd4f	-0.059323605
235	0xbb9ecd1c	-0.0048462283
236	0x3d3e0e2a	0.046400227
237	0x3dc7bc1d	0.09752677
238	0x3d252f19	0.04032812
239	0xbce3f85b	-0.027828386
240	0x3d1cd603	0.038290035
241	0xbc048531	-0.008088396
242	0xbdf7d7ea	-0.12101729
243	0xbc0daa40	-0.008646548
244	0x3e29b2b0	0.1657207
245	0xbda129b2	-0.07869281
246	0xbdf85e1d	-0.12127326
247	0x3d226400	0.03964615
248	0x3d494f55	0.049147923
249	0x3daa88f0	0.083269
250	0xbc213cca	-0.009841153
251	0xbaa23610	-0.0012375731
252	0x3c8b7608	0.017024055
253	0xbcaef46e	-0.021356788
254	0x3c645338	0.0139358565
255	0x3e0f81bc	0.14014333

network_body._body_endoder.seq_layers.2.bias f4 [256]
0	0x3b87305e	0.004125639
1	0x3c4adade	0.012381284
2	0xbc956b9c	-0.018239789
3	0xbc16ae78	-0.00919687
4	0x3bb92933	0.0056506633
5	0xbbbd6848	-0.0057802536
6	0xbbb9de24	-0.005672233
7	0x3cb79399	0.022409247
8	0x3c92bef9	0.017913328
9	0x3bcaf8e2	0.00619422
10	0x3c4e19dc	0.012579408
11	0xbb4b7747	-0.0031046437
12	0xbcc92a56	-0.02455632
13	0x3b3f463c	0.002918615
14	0x3c4fb392	0.01267709
15	0x3d011df9	0.031522725
16	0x3cfc7ad7	0.030820293
17	0xbb925952	-0.004466214
18	0x3b94c44f	0.0045400034
19	0x3c499dd3	0.012305695
20	0xbc467405	-0.012112622
21	0x3ccb04a3	0.024782484
22	0xbc05b393	-0.00816049
23	0x3c74b321	0.014935286
24	0xb979f51e	-0.00023837804
25	0x3c5c0565	0.0134290205
26	0x3c9af384	0.018914945
27	0x3b8231f3	0.0039732396
28	0x3c9f10c9	0.019417183
29	0x3c9c2442	0.019060258
30	0x3c871382	0.016488794
31	0x3cee38df	0.029079853
32	0x3c819a92	0.015820775
33	0xba09bbad	-0.0005254101
34	0x3ca92746	0.02064861
35	0x3bef8c49	0.0073104245
36	0x3cc288ad	0.023746813
37	0x3bdd31a5	0.006750303
38	0x3951e0c9	0.00020015532
39	0x3c26cac4	0.010180179
40	0x3b6de6d2	0.003630091
41	0x3cb6ca4f	0.022313265
42	0x3c5f6b18	0.013636373
43	0x3d240ee2	0.040053256
44	0x3a09b95e	0.0005253757
45	0xbb564e1f	-0.0032700372
46	0x3cac6969	0.021046357
47	0x3abd9854	0.0014464953
48	0x3cc7d950	0.024395615
49	0x3c25ac40	0.010111868
50	0x3c8024c6	0.015642535
51	0x3c9582f8	0.018250927
52	0x3b8a10c7	0.004213426
53	0x3c411671	0.011785136
54	0xbca10294	-0.01965455
55	0x3c0cd299	0.008595132
56	0x3c816498	0.015795037
57	0x3c8286d2	0.015933428
58	0x3c730f44	0.014835183
59	0x3d1f24e4	0.03885354
60	0x3bb60f5b	0.0055560297
61	0x3d0d72d2	0.03453333
62	0xba836285	-0.0010023868
63	0x3ccedba3	0.025251215
64	0x3cc32071	0.02381918
65	0x3c07684d	0.008264613
66	0xbb93a7c2	-0.0045060823
67	0x3c32539e	0.010884194
68	0x3b5b40ca	0.0033455365
69	0xbb3c9031	-0.0028772468
70	0xbc5201d0	-0.012817815
71	0x3cc3df17	0.023910088
72	0x3c0e7171	0.008694039
73	0x3cca872e	0.024722662
74	0x3c1030fd	0.008800742
75	0x3aa619ae	0.0012672448
76	0x3baf894d	0.0053569437
77	0x3aa0b7ee	0.0012261847
78	0xbcbe59ac	-0.023236118
79	0x3c6bbdd0	0.014388517
80	0x3a1ad1ee	0.0005905916
81	0x3c7992b2	0.015232729
82	0x3ca64369	0.020295816
83	0x3c9a09ce	0.018803503
84	0x3c7d66a8	0.01546637
85	0x3cb1bc2c	0.021696173
86	0x3ae29420	0.0017286576
87	0x3d463bf8	0.048397034
88	0x3c6ab0c1	0.014324368
89	0xbc696c82	-0.014247062
90	0x3c65a305	0.014015918
91	0x3aefe2cf	0.0018301847
92	0x3b5aaf8b	0.0033368792
93	0xbcdee2f4	-0.027207829
94	0x3c761af0	0.015021071
95	0x3c57b34e	0.013165308
96	0x3aa85df5	0.0012845384
97	0x3ce3063e	0.027712937
98	0xbb8fcb4d	-0.004388249
99	0x3b8c43aa	0.004280527
100	0x3c0ceec4	0.008601848
101	0x3c6abc38	0.014327101
102	0xbc4fba26	-0.012678659
103	0x3c38640d	0.011254323
104	0xbbc5a4b4	-0.006031597
105	0x3c358fc7	0.0110816425
106	0x3cb1c14a	0.021698613
107	0xbbc24a6f	-0.0059292833
108	0xbc3f3dab	-0.011672418
109	0xbb3982ec	-0.0028306795
110	0x3be86335	0.0070919045
111	0x3c7b4aeb	0.015337686
112	0x3bfa9839	0.007647541
113	0x3d0feefb	0.03514002
114	0x3bd5fa38	0.0065300725
115	0x3cb203fc	0.021730416
116	0x3c6dd0b2	0.014515089
117	0x3be9db1a	0.0071367146
118	0xbbb73cea	-0.0055919783
119	0x3c63bad8	0.0138995275
120	0xbbfe7ccd	-0.0077663423
121	0x3b35e786	0.0027756407
122	0x391d9cb4	0.00015031063
123	0xbcca7515	-0.024714032
124	0x3cda4aba	0.02664696
125	0x3bd74d63	0.0065705045
126	0x3c9e45c8	0.019320384
127	0x3d429404	0.04750444
128	0x3cdeb804	0.027187355
129	0x3d0d95d1	0.034566704
130	0x3ca65a9a	0.020306874
131	0x3cb8bee0	0.022551954
132	0x3c95bfb8	0.018279895
133	0x3bf9a6a2	0.007618741
134	0xbab60d46	-0.0013889454
135	0xbc2afa06	-0.010435587
136	0x3bd68264	0.0065463055
137	0x3c80fad2	0.0157446
138	0x3c497b08	0.012297399
139	0xbba18a31	-0.004929804
140	0x3c1512b4	0.009098697
141	0x3cf7af5e	0.030234989
142	0x3bf9b08d	0.0076199234
143	0x3bd55287	0.006510082
144	0x3c058056	0.008148273
145	0x3c906d14	0.017630138
146	0x3ca54c74	0.020178057
147	0xbb46529a	-0.0030261637
148	0x3c06e9c6	0.008234447
149	0xba4478f0	-0.0007494828
150	0x3c845a08	0.016156211
151	0x3c7de60f	0.015496745
152	0x3c461c0c	0.012091648
153	0x3afdd515	0.0019365872
154	0x3c58243b	0.013192232
155	0xba345159	-0.0006878577
156	0x3cce6083	0.025192505
157	0x3cfae76c	0.030627929
158	0xbc64c35e	-0.013962595
159	0xbbdf892a	-0.006821771
160	0x3c5857be	0.013204513
161	0x3b3bc4f2	0.0028651324
162	0xbbd3f364	-0.0064682234
163	0x3b3d8dab	0.0028923552
164	0x3c30d462	0.0107928235
165	0xbcb080ca	-0.021545786
166	0xbb63add7	-0.0034741068
167	0x3a92ec77	0.0011209388
168	0x3cd1d78e	0.02561548
169	0x3c7d1428	0.0154467
170	0x3cc00ca8	0.023443535
171	0x3c4abe06	0.012374407
172	0x3d2199c1	0.03945327
173	0xbcafe344	-0.021470673
174	0x3c47de49	0.012198993
175	0x3cb9a62d	0.022662247
176	0x3cb6fe67	0.022338105
177	0xbbcd3a75	-0.006263072
178	0x3b7dc227	0.003872046
179	0x3bda9877	0.0066710073
180	0x3c8d8ddf	0.017279563
181	0xba4a87be	-0.00077259156
182	0x3d0dbb85	0.03460266
183	0x3ca04b12	0.019567046
184	0xb9bd9b3f	-0.00036164557
185	0x3cd75f6d	0.02629062
186	0xbc7aee9e	-0.01531568
187	0x3c3239ef	0.01087807
188	0x3b07ca86	0.0020720079
189	0xbc03e49b	-0.008050109
190	0x3c8a3d20	0.01687485
191	0x3b1e3d4d	0.0024145425
192	0x3c98aae5	0.018636176
193	0x3c9bfb9e	0.019040879
194	0xbac05907	-0.001467497
195	0xbc4b348a	-0.012402663
196	0x3c93b5ab	0.018030962
197	0x3c252e23	0.010081801
198	0xbc10308e	-0.008800639
199	0xbafcd0e1	-0.0019288325
200	0x3b6c6b64	0.0036074752
201	0xbc53390d	-0.01289202
202	0xba89731b	-0.0010486575
203	0x3c92f151	0.017937334
204	0xbca10132	-0.01965389
205	0x3c0e702b	0.008693735
206	0x3c85e2ab	0.016343435
207	0x3cbcb14a	0.023033757
208	0x3c44dd54	0.012015659
209	0x3c44beeb	0.012008409
210	0x3c30f7a6	0.0108012315
211	0xbb44ea3f	-0.0030046848
212	0x3c9d5b11	0.019208463
213	0x3bf3449d	0.007423951
214	0x3cada0e8	0.02119489
215	0x3b8b795f	0.004256412
216	0x3c318846	0.010835713
217	0x3a6f8f96	0.00091385224
218	0x3c900d41	0.017584445
219	0x3bb75bc8	0.005595658
220	0x3c7e0f60	0.015506595
221	0x3c2c830b	0.01052929
222	0xbc231d29	-0.009955683
223	0xbc9c3f1d	-0.019073064
224	0xbca3a768	-0.019977286
225	0xbb9c7e53	-0.004775801
226	0x3ca90343	0.020631438
227	0x3bad827c	0.005295096
228	0xbbc62949	-0.006047402
229	0xbb1afdea	-0.002364988
230	0x3bd0b550	0.0063692704
231	0x3cad2ef3	0.021140551
232	0x3b404863	0.002934002
233	0x3d016b5f	0.031596538
234	0x3cdfc495	0.027315417
235	0x3cc1767c	0.023616068
236	0x3b60dadd	0.003431014
237	0x3ced8ce2	0.028997842
238	0xbbcae2d3	-0.0061915903
239	0xbbacb3a6	-0.005270439
240	0x3ca410ba	0.020027507
241	0x3c7f152b	0.015569012
242	0x3c5f6385	0.013634567
243	0x3c681071	0.014164076
244	0x3cd8111e	0.02637535
245	0x3c71d961	0.0147613
246	0x3c2017b9	0.009771281
247	0xbcae4f94	-0.02127818
248	0x3c523013	0.012828845
249	0x3c98ddad	0.01866039
250	0xbb4c639c	-0.0031187302
251	0x3cbd790c	0.023129009
252	0x3c1719a2	0.00922242
253	0x3d19a252	0.037508316
254	0x3c36875d	0.011140672
255	0x3c4709a7	0.012148297

action_model._discrete_distribution.branches.0.weight f4 [3, 256]
0	0xbb031830	-0.002000343
1	0x3a34d592	0.00068982795
2	0xbc357f06	-0.011077648
3	0xbca8029a	-0.020509053
4	0xbd2d8710	-0.042365134
5	0xbb60ec2c	-0.0034320457
6	0x3cb9fd55	0.022703806
7	0x3d201766	0.039084814
8	0x3c2b0112	0.010437267
9	0x3c951b5b	0.01820152
10	0x3b739592	0.0037168008
11	0xbd0ca1b9	-0.03433392
12	0x3b3a9ab7	0.0028473565
13	0xbcd60c70	-0.026128978
14	0xbcb31626	-0.021861147
15	0x3b22c950	0.002483923
16	0xbd1f41c6	-0.038881086
17	0x3cd06dc5	0.025442967
18	0x3b8a36b0	0.004217945
19	0xbc6d1015	-0.014469166
20	0x3cb063d8	0.021531984
21	0xbc86927f	-0.016427277
22	0xbbfe6177	-0.0077630836
23	0x3cd0adc8	0.02547349
24	0xb9afad78	-0.00033507845
25	0x3d05cf8f	0.032668646
26	0xbd4f18bd	-0.0505607
27	0xb983c7cc	-0.00025135127
28	0x3d37e73c	0.044898257
29	0xba92a173	-0.0011187032
30	0x3bb4f182	0.005521954
31	0xbc2c65bd	-0.010522303
32	0x3c236ce7	0.009974695
33	0x3b88096c	0.004151514
34	0xbc1a6f72	-0.009425985
35	0x3d10d9f9	0.035364125
36	0xbcbb1f74	-0.022842146
37	0x3bef8535	0.0073095807
38	0x3b680804	0.0035405168
39	0x3c74c544	0.01493961
40	0xbc8beb2d	-0.017079914
41	0xbc461b7a	-0.012091512
42	0x3c76be80	0.015060067
43	0xb9fdd27a	-0.00048412738
44	0x3bef03de	0.007294162
45	0xb99dfbfb	-0.00030133114
46	0xbd4f03f1	-0.05054087
47	0x3c7ece87	0.01555217
48	0x3b93669e	0.004498317
49	0x3c20f91f	0.00982502
50	0x3c8d5aa6	0.017255139
51	0xbb41902d	-0.0029535398
52	0x3d141db3	0.036161136
53	0x3b45a040	0.003015533
54	0xbc2a05bf	-0.010377347
55	0x3c6f9b2b	0.014624397
56	0xbc39515c	-0.0113109015
57	0xbc1df035	-0.009639789
58	0x3d2b693c	0.041848406
59	0x3bd52637	0.0065047997
60	0x3bf5dd20	0.007503167
61	0x3c9eec62	0.019399825
62	0x3b7aa060	0.0038242564
63	0xbcae658e	-0.02128866
64	0x3c0d9547	0.0086415475
65	0xbcae6238	-0.021287069
66	0xbbe4373c	-0.0069645923
67	0xbcff02ae	-0.031129207
68	0x3c8c05e2	0.017092649
69	0xbc476d71	-0.012172089
70	0xbcc753c1	-0.02433193
71	0x3c221206	0.009891992
72	0xbcbbcb75	-0.022924164
73	0xbbbaaa06	-0.005696538
74	0xbc15dde1	-0.009147138
75	0xbc6bd252	-0.014393406
76	0x3d094c02	0.033519752
77	0x3c9692f3	0.018380618
78	0x3b060c0e	0.0020453962
79	0x3bafee04	0.00536895
80	0xbc8ba263	-0.017045205
81	0xbaee5937	-0.0018184547
82	0xbbcffb05	-0.0063470625
83	0x3c30c0d8	0.010788165
84	0x3c61f92b	0.013792316
85	0xbcfff631	-0.031245323
86	0xbc34a473	-0.011025536
87	0x3d1374a5	0.035999913
88	0x3ce4518f	0.027870921
89	0x3c1d108e	0.0095864665
90	0x3c9a44e3	0.018831676
91	0xbbb7bb32	-0.005607032
92	0x3d101a7c	0.035181507
93	0xbc1e7407	-0.009671218
94	0xbc781d12	-0.01514365
95	0xbd6cf733	-0.057852935
96	0xbd0ba816	-0.034095846
97	0x3b548b1d	0.003243155
98	0xbb813b02	-0.003943802
99	0xbc554406	-0.013016706
100	0xbb669951	-0.0035186599
101	0x3b99d2a1	0.0046942984
102	0x3c009913	0.007848996
103	0x3aef8668	0.0018274309
104	0xbcd7b08c	-0.026329301
105	0xbbf9505e	-0.0076084575
106	0xbbe8b39b	-0.0071014888
107	0x3cdfac55	0.027303854
108	0x3c34ae12	0.01102783
109	0x3c25049e	0.010071902
110	0x3cb0aba2	0.021566216
111	0x3c669880	0.014074445
112	0x3ceb9273	0.028756356
113	0xbc00cf32	-0.007861899
114	0x3c8b05a7	0.016970469
115	0xbdac4419	-0.08411426
116	0xbba7b5a7	-0.00511809
117	0xbc6955d8	-0.014241658
118	0x3c9875f6	0.018610936
119	0x3cb771f3	0.022393202
120	0xbc8138e5	-0.0157742
121	0xbba1be6f	-0.0049360315
122	0x3c8cf4ec	0.017206632
123	0x3bb4249b	0.005497528
124	0xbc1b6bbd	-0.009486136
125	0xbd9125b6	-0.07087271
126	0x3af1b99b	0.0018442156
127	0xbaa66815	-0.0012695814
128	0x3c70aa9f	0.014689117
129	0x3d113826	0.035453938
130	0x3d12c693	0.035833906
131	0xbc240d8e	-0.010012997
132	0xbca16f2a	-0.019706327
133	0xbc70f8c2	-0.014707746
134	0xbbd2a3a0	-0.006428197
135	0xbbc48c0a	-0.0059981393
136	0x3cd5e344	0.026109345
137	0x3bdb6503	0.006695391
138	0xbc875bac	-0.016523205
139	0x3c0ee417	0.008721373
140	0x3c2ede35	0.0106730955
141	0x3d1a08bf	0.037605997
142	0x3d0edbae	0.03487747
143	0x3cc5f47b	0.024164429
144	0xbd06d1bd	-0.032914866
145	0x3cd75b14	0.026288547
146	0xbc1369ce	-0.008997394
147	0x3cab9d0a	0.020948905
148	0x3d7db38e	0.061938815
149	0x3cb71881	0.022350552
150	0x3d27c7ca	0.040962018
151	0x3c54bcd6	0.012984475
152	0xbc91fc1f	-0.017820416
153	0x3c844e58	0.016150638
154	0xbc17fdc5	-0.009276812
155	0x3bc63a0b	0.0060493997
156	0xbb67d096	-0.003537213
157	0xbcee85b0	-0.029116482
158	0xbcb2280b	-0.02174761
159	0x3b6783c1	0.0035326334
160	0xbc8277a4	-0.01592619
161	0xbb621b1e	-0.0034501026
162	0x3cc22b2e	0.02370223
163	0x3bbc0846	0.005738291
164	0x3cf140c6	0.029449832
165	0xbcb76c9c	-0.022390656
166	0x3b1120a3	0.0022144697
167	0xbc9d0edd	-0.019172126
168	0x3d5c78d0	0.053826153
169	0x3b9fa39a	0.0048717977
170	0x3bb1c745	0.005425366
171	0x3bb5183b	0.00552657
172	0x3bfc4bec	0.0076994803
173	0x3b80ee82	0.0039346823
174	0x3c42921e	0.011875657
175	0xbbdd7406	-0.006758216
176	0x3cf540ba	0.02993809
177	0xbc496183	-0.012291315
178	0xbcff8a9a	-0.03119402
179	0x3d0b762c	0.034048244
180	0x3ca203bb	0.01977717
181	0x3bf92b16	0.007604013
182	0x3cb2b6f4	0.021815754
183	0xbd156ad0	-0.036478817
184	0x39f671f8	0.0004700569
185	0xbcbcf851	-0.023067625
186	0xbc3538f8	-0.011060946
187	0xbc9b5859	-0.018963026
188	0x3b330336	0.0027315146
189	0xbc971a30	-0.018445104
190	0x3c386752	0.011255102
191	0x3c51316c	0.012768131
192	0x3bc77bb3	0.006087744
193	0xbb659e63	-0.0035037033
194	0xbc333efc	-0.01094031
195	0x3b8d42d5	0.0043109455
196	0xbc6b84c3	-0.014374915
197	0xbaae947e	-0.0013319401
198	0x3bcbd822	0.0062208334
199	0x3c3733c9	0.01118178
200	0x3d1a16f8	0.03761956
201	0xbbf0bad8	-0.0073464923
202	0xbc8f2841	-0.01747525
203	0x3d337763	0.043815028
204	0xbc8fa28e	-0.017533567
205	0x3d0f8885	0.035042305
206	0x3c9024db	0.017595699
207	0x3cbadbc3	0.022809869
208	0xbc1edfd9	-0.009696924
209	0x3c33e6a6	0.010980284
210	0xbc051ace	-0.0081240665
211	0xbc78fda7	-0.015197194
212	0x3cbcef00	0.023063183
213	0x3ca3bbf0	0.019987077
214	0xbbcb1aae	-0.006198249
215	0xbcad1519	-0.021128224
216	0xbc5b527d	-0.013386366
217	0xbc013db3	-0.007888245
218	0x3c0e6deb	0.008693199
219	0xbad50f5e	-0.001625519
220	0x3a98a013	0.0011644386
221	0xbccda213	-0.025101697
222	0xbc561a8b	-0.013067852
223	0xbc9e7413	-0.019342458
224	0xbbc2efbb	-0.0059489883
225	0xbcb52d62	-0.022116367
226	0x3d262f5c	0.04057251
227	0x3ccb5ec3	0.02482546
228	0xbbc166ae	-0.005902133
229	0x3b03acda	0.0020092041
230	0x3cfbb501	0.030725958
231	0x3c1aec6e	0.009455783
232	0x3d2e4aef	0.04255193
233	0x3ce6f75c	0.028194122
234	0x3c1364cf	0.008996203
235	0x3c4211f3	0.0118451
236	0x3b23b52b	0.002497981
237	0x3d0dcea5	0.0346209
238	0x3a994cbc	0.0011695842
239	0xbb12aee9	-0.0022382087
240	0x3d8847f0	0.06654346
241	0x3d3b3707	0.045706775
242	0x3bffb247	0.0078032347
243	0x3d0f0853	0.034920048
244	0xbcbf9dc9	-0.023390668
245	0x3c874235	0.016511062
246	0xbcfe5e62	-0.031050865
247	0x3c48b570	0.012250289
248	0x3ca1ae00	0.01973629
249	0x3bbb1367	0.0057091
250	0x3cd4d171	0.025978776
251	0xbd070a77	-0.032968964
252	0xbc1ce5fd	-0.009576318
253	0xbc025103	-0.007953885
254	0xbb582155	-0.0032978852
255	0x3c38eb9d	0.011286643

action_model._discrete_distribution.branches.0.bias f4 [3]
0	0x3bc8742f	0.006117366
1	0x3b4455ea	0.0029958435
2	0xbc1f1bda	-0.00971123

action_model._discrete_distribution.branches.1.weight f4 [3, 256]
0	0x3b2a4b62	0.0025984873
1	0x3c278540	0.01022464
2	0xbb94a4b6	-0.0045362366
3	0x3c5c6dd4	0.013453919
4	0xbc70a1bb	-0.014686997
5	0x3cb568ff	0.022144793
6	0x3c2d49f2	0.010576712
7	0x394630ba	0.00018900904
8	0x3c8a1aaa	0.016858418
9	0x3ab602f8	0.0013886383
10	0x3b9a4322	0.00470771
11	0x3ccca2b2	0.024979923
12	0x3af01646	0.0018317185
13	0xbca888a6	-0.020572972
14	0x3cc7b123	0.024376458
15	0xbbca339a	-0.006170702
16	0xbd0ff9fa	-0.035150506
17	0x3ca9da8f	0.0207341
18	0x3c243f1d	0.010024813
19	0x3ccc9213	0.024971997
20	0x3be33e56	0.0069349213
21	0xbc0f5caa	-0.00875012
22	0x3c9b4fad	0.01895889
23	0x3cb26eaf	0.021781294
24	0x3ce12590	0.027483732
25	0xbc0630bf	-0.008190333
26	0x3a693a8b	0.0008896968
27	0x3a8d2628	0.0010768818
28	0xba98d169	-0.0011659089
29	0x3c9d8703	0.019229418
30	0x3d376c9a	0.044781305
31	0xb9b685d0	-0.00034813443
32	0x3c06ddd9	0.008231604
33	0x3c106be2	0.008814784
34	0xbc99a519	-0.018755483
35	0x3c9ef2f4	0.019402958
36	0xbc5e856c	-0.013581615
37	0x3c4069dd	0.01174399
38	0x3b7461e0	0.0037289783
39	0xbca42afe	-0.020040032
40	0xbb061f9f	-0.0020465625
41	0xbc032778	-0.008005016
42	0x3b4f8bc7	0.0031669007
43	0xbc6091a8	-0.013706602
44	0xbc908b79	-0.01764463
45	0x3d19df50	0.037566483
46	0x3c2cc557	0.010545096
47	0xba435b83	-0.0007452296
48	0xbc38308f	-0.011242046
49	0xbc7a4fca	-0.015277812
50	0x3b26a4df	0.002542786
51	0xbce5a12d	-0.028030956
52	0x3c0f0bfd	0.008730886
53	0xbb9ae114	-0.0047265384
54	0x3ccb4131	0.02481136
55	0x3cca83e6	0.024721097
56	0xbcce91a3	-0.02521593
57	0x3c2ae74e	0.010431124
58	0x3c30ba47	0.0107865995
59	0xbc46b53c	-0.012128171
60	0xbcf38ccc	-0.029730223
61	0xbc094800	-0.008378983
62	0x3b272992	0.0025506956
63	0xbcacacff	-0.021078585
64	0xbcaf32cd	-0.021386528
65	0x3d05fc54	0.032711342
66	0xbc1f9851	-0.009740905
67	0x3c632276	0.013863197
68	0xbbfd3d2c	-0.0077282395
69	0x3972aabb	0.0002314252
70	0x3c970c01	0.018438341
71	0xbcc96d5b	-0.024588278
72	0xbb96b8f1	-0.0045996835
73	0x3c9700f4	0.018433072
74	0xb9d30813	-0.00040251072
75	0xba2ddfa9	-0.0006632754
76	0xbca7f104	-0.020500667
77	0x3a428efb	0.00074218184
78	0x3bd6e2e4	0.006557809
79	0x3c261467	0.0101367
80	0xbca04e19	-0.01956849
81	0xbceb3977	-0.028713925
82	0xbc1b0483	-0.009461525
83	0xbc9b0fa8	-0.018928364
84	0xbc065d3f	-0.008200943
85	0xbc3d675d	-0.011560288
86	0x3c6f1dca	0.014594505
87	0x3cad5014	0.021156348
88	0xba900030	-0.0010986384
89	0xbc6056ca	-0.013692567
90	0x3bb924d5	0.0056501427
91	0x3c13ff2d	0.009033007
92	0x3b971ed4	0.0046118293
93	0x3cb3011e	0.021851119
94	0x3c9045e7	0.017611457
95	0xbc3eeefc	-0.011653658
96	0xbc2a64ee	-0.01040004
97	0xbd156471	-0.03647274
98	0xbccac1da	-0.024750639
99	0x3c6faddf	0.014628856
100	0x3bb639b5	0.0055610784
101	0xbc9c37cb	-0.019069573
102	0x3cc337dc	0.023830347
103	0x3cfbf507	0.030756487
104	0x3b67155a	0.003526053
105	0x3cd5fed6	0.026122492
106	0x3c05f1d9	0.008175337
107	0x3ca6d898	0.020366952
108	0xbc1ab417	-0.009442351
109	0xbb016c0b	-0.0019748237
110	0xbc25bbe3	-0.0101155965
111	0x3c1766e2	0.009240838
112	0x3b15994d	0.002282697
113	0x3bf8b84d	0.0075903297
114	0xbca9989a	-0.020702649
115	0xbb7d231e	-0.0038625668
116	0x3bbf7386	0.005842629
117	0xbd0b9859	-0.034080837
118	0x3ba8f601	0.005156279
119	0xb92a22b2	-0.00016225388
120	0xbc27f9e3	-0.010252449
121	0x3c84af48	0.016196862
122	0x3d023b86	0.031795047
123	0x3b5b607c	0.0033474257
124	0xbc624640	-0.013810694
125	0xbabc3ab6	-0.0014360759
126	0x3c275099	0.010212087
127	0xbd302e26	-0.04301276
128	0x3c21b1b6	0.00986903
129	0xba7de9fb	-0.000968605
130	0x3c6341ac	0.013870638
131	0xbd0b25d4	-0.033971623
132	0xbb9246d1	-0.0044640084
133	0x3c20ba2b	0.009810011
134	0x3cc6e493	0.024278915
135	0x3c5c649b	0.013451721
136	0xb9a981c6	-0.0003233088
137	0xbbadbbdf	-0.005301937
138	0x3c4b2119	0.012398028
139	0x3cb0a06f	0.021560876
140	0xbb6f0e71	-0.0036477114
141	0x3c760e7d	0.015018103
142	0x3b71b6ee	0.0036882716
143	0xbb4e1e7f	-0.0031451283
144	0x3b54d78d	0.003247711
145	0x3cb61f29	0.022231655
146	0x3c8d7987	0.017269863
147	0xba030efd	-0.0004999487
148	0x3c289681	0.010289789
149	0x3b987dbb	0.00465366
150	0xbb816a76	-0.0039494587
151	0x3b8de159	0.004329842
152	0x3bab1c8e	0.00522191
153	0x3b3cdf14	0.0028819488
154	0xbc8abeb4	-0.016936637
155	0xbbcff618	-0.0063464753
156	0x3905dde9	0.00012766536
157	0x3b3929e7	0.0028253736
158	0x3b061f28	0.0020465348
159	0xbcc6ca3c	-0.024266355
160	0xbc07d7b2	-0.008291172
161	0xbcfdfd49	-0.031004565
162	0xbc36f4f6	-0.011166802
163	0x3b853c6c	0.0040660407
164	0xb6f61bac	-7.3345927e-06
165	0xbbe84d6d	-0.007089308
166	0x3cf7aeb0	0.030234665
167	0xbc8b2797	-0.016986651
168	0x3ccd3cd6	0.025053423
169	0xbc8f2b9c	-0.01747685
170	0xbc55d085	-0.013050203
171	0x3c4a45d8	0.012345754
172	0x3a74df62	0.0009341148
173	0xba0d9d54	-0.0005402167
174	0xbd004c53	-0.03132279
175	0xbcf519b3	-0.02991948
176	0x3c789780	0.015172839
177	0xb9101ff1	-0.00013744809
178	0x3cb31094	0.021858491
179	0x3b01b22b	0.0019790034
180	0xbb5cb6ce	-0.0033678296
181	0x3ce788de	0.028263506
182	0xbd1b80b7	-0.03796455
183	0xbb4fdcbd	-0.0031717264
184	0xbc30eef2	-0.0107991565
185	0xbc2d8e3a	-0.0105929915
186	0xbb8668cc	-0.004101848
187	0xbbcbdda1	-0.0062214886
188	0xbbf91679	-0.007601556
189	0xba8ad4e9	-0.0010592017
190	0x3bcc3bf6	0.006232734
191	0x3c89663d	0.016772384
192	0x3ba7f9d2	0.0051262164
193	0x3c633506	0.013867622
194	0xbd1674db	-0.036732536
195	0xb7688e48	-1.3861405e-05
196	0xbb9daa87	-0.004811588
197	0x3c97eeaa	0.018546421
198	0x3c1bc1e2	0.0095066745
199	0x3c95ec98	0.018301293
200	0xbaf6ef22	-0.0018839578
201	0xba549d74	-0.00081106205
202	0xbafd5e5d	-0.0019330491
203	0xb99a4fe6	-0.00029432698
204	0xbab48057	-0.0013771158
205	0xbc1d22cc	-0.009590816
206	0x3c9efdc9	0.019408124
207	0x3b8e6b79	0.004346308
208	0x3bf55479	0.0074868766
209	0x3c42c92d	0.011888784
210	0x3bca08f8	0.00616562
211	0x3ad106a8	0.0015947418
212	0x3b9af4bc	0.0047288816
213	0x3b6b81b8	0.0035935473
214	0x3c9cc000	0.019134521
215	0xbcbe5439	-0.02323352
216	0x3c8704f7	0.01648186
217	0x3c2a6e55	0.010402282
218	0x3c3e6661	0.011621089
219	0xbab882ce	-0.0014077069
220	0x3be62b86	0.0070242314
221	0xbb2f9996	-0.0026794425
222	0x3cba3970	0.022732466
223	0xbc18f0a4	-0.009334717
224	0x3c1db889	0.009626516
225	0x3bbbde5c	0.0057332944
226	0x3cc7b3db	0.024377754
227	0xbb015ca3	-0.0019739054
228	0x3c52e389	0.012871631
229	0xbcb0966b	-0.0215561
230	0x3bce7133	0.0063001155
231	0xbbf538a1	-0.0074835573
232	0xbc96b692	-0.018397603
233	0x3c304554	0.010758717
234	0xbca35ec4	-0.019942649
235	0x3ad10a2d	0.0015948467
236	0x3b9e5b5f	0.0048326696
237	0xbcab5592	-0.020914827
238	0x3bea8f64	0.007158207
239	0x3cf1826d	0.029481137
240	0x3c0f9298	0.008762978
241	0x3c213c67	0.009841061
242	0x3bbf992c	0.005847117
243	0xbc8ca132	-0.017166708
244	0xbbc0650a	-0.00587142
245	0xbbcae004	-0.0061912555
246	0xb8aec278	-8.333189e-05
247	0x3b8500d8	0.0040589385
248	0xbc4256c8	-0.011861511
249	0xbc781409	-0.0151414955
250	0xb9e51815	-0.00043696226
251	0xbc4857ce	-0.0122279655
252	0xbc2e34a2	-0.010632666
253	0xbcdb7e09	-0.026793497
254	0xbccb1618	-0.024790809
255	0x3bd5a22d	0.006519577

action_model._discrete_distribution.branches.1.bias f4 [3]
0	0xbbc16a85	-0.0059025907
1	0x3c482b9d	0.0122174295
2	0xbb35b20b	-0.002772453

action_model._discrete_distribution.branches.2.weight f4 [3, 256]
0	0xbc9d63dc	-0.019212656
1	0x3d05c5e5	0.03265943
2	0xbc950ea4	-0.018195458
3	0xbc0862d7	-0.0083243465
4	0x3cc3841f	0.023866711
5	0xbcc589fe	-0.024113651
6	0x3c9c943e	0.019113656
7	0x3ca33f07	0.019927515
8	0x3c39b9b2	0.011335777
9	0xbbbbd388	-0.0057320036
10	0x3cda258a	0.026629228
11	0xbcd1bbb5	-0.025602201
12	0x3c5875de	0.0132116955
13	0x3ca226bb	0.019793859
14	0x3c89f010	0.016838104
15	0x3ca1e153	0.019760763
16	0xbc89735e	-0.016778644
17	0xbb98dde5	-0.0046651238
18	0x3c921aaa	0.01783498
19	0x3caaa3ea	0.020830113
20	0x3c1b1d8a	0.009467492
21	0x3cd7a013	0.026321447
22	0xbcc0a73a	-0.02351724
23	0x3b758036	0.0037460453
24	0xbb20f3eb	-0.002455945
25	0xbcb7a956	-0.022419613
26	0xbab319cb	-0.0013664303
27	0xbb047618	-0.002021199
28	0x3d17224d	0.036897946
29	0x3bfe7964	0.0077659357
30	0x3d5a334b	0.053271573
31	0x3d0ab80d	0.03386693
32	0x3d1cbd88	0.03826669
33	0x3c9738d4	0.018459715
34	0xbc6b536f	-0.014363154
35	0xbca64971	-0.020298691
36	0x3d1f0275	0.038820703
37	0x3beedce5	0.0072895163
38	0xbc3e02f8	-0.0115973875
39	0xbcaa30e4	-0.020775266
40	0x3b3ad489	0.0028508028
41	0x3c91011d	0.017700726
42	0x3cdca0a1	0.026932063
43	0x3cc2a90b	0.023762247
44	0x3d21bc5a	0.039486267
45	0x3bd15499	0.0063882587
46	0x3d07d41f	0.03316128
47	0x3caf501b	0.021400502
48	0x3d0e2acb	0.03470878
49	0xbc650e6c	-0.013980489
50	0x3c2997b6	0.010351112
51	0xbc5a43ac	-0.013321798
52	0x3b1e7471	0.0024178291
53	0x3ca3f952	0.020016346
54	0x3a9f253d	0.0012141835
55	0xbc33616b	-0.010948519
56	0xbd0be3ae	-0.03415268
57	0x3c18335a	0.009289587
58	0x3b144fa4	0.0022630477
59	0x3a8ccec0	0.0010742769
60	0x3bc0c925	0.0058833533
61	0x3d082fa3	0.033248555
62	0xbd0041e3	-0.031312834
63	0x3cf19ee8	0.029494718
64	0x3c5a69ce	0.01333089
65	0xbca69891	-0.020336421
66	0xbcc37976	-0.023861628
67	0x3b74de98	0.0037364122
68	0xbc85cc95	-0.016332904
69	0x3b41b504	0.0029557357
70	0x3cc16235	0.0236064
71	0x3bd70a38	0.0065624975
72	0xbd081742	-0.033225305
73	0x3cd27ef3	0.0256953
74	0x3c9e8a9c	0.019353203
75	0x3c1ed18c	0.009693515
76	0xbc7ee34f	-0.015557124
77	0x3ca330c4	0.019920714
78	0xbcc6360b	-0.024195692
79	0x3c932aa1	0.017964663
80	0x3af157dd	0.0018413026
81	0xbc60a218	-0.013710521
82	0x3bddf56f	0.0067736427
83	0x3d0bb765	0.034110446
84	0x3cb20de8	0.021735147
85	0xbc2efa92	-0.010679858
86	0x3ba1d89b	0.0049391515
87	0x3cb39e27	0.021925999
88	0x3cc43771	0.023952218
89	0x3bc8bf0f	0.0061262916
90	0x3cf84826	0.03030784
91	0x3aaa52b2	0.0012994616
92	0xba556a07	-0.00081411045
93	0xbbb99563	-0.0056635602
94	0x3d272c8b	0.040813964
95	0x3cf3f04b	0.029777667
96	0x3c86d6e7	0.016459895
97	0x3cef13bc	0.029184215
98	0xbc040584	-0.008057956
99	0xbb1c686a	-0.0023865947
100	0x3d1dce22	0.03852666
101	0x3d18c47f	0.03729677
102	0x3b0e7ccf	0.0021741872
103	0x3d084d8f	0.03327709
104	0xbbc3585d	-0.0059614615
105	0x3c9b5b50	0.01896444
106	0x3cf445ba	0.029818404
107	0xbc7ba441	-0.015358985
108	0xbce854bf	-0.028360723
109	0x3cc26d0d	0.02373364
110	0x3c31bdfa	0.010848517
111	0x3c49f5cc	0.012326669
112	0xbcf50727	-0.029910637
113	0xb95f54d7	-0.00021298543
114	0xbca3fa26	-0.020016741
115	0x3c2342b6	0.009964636
116	0xbc8f2a33	-0.017476177
117	0xbcc9222c	-0.024552427
118	0x3bffe34d	0.007809079
119	0x3cec7db3	0.028868532
120	0xbc8d3e2c	-0.01724156
121	0xbbf281a4	-0.0074007083
122	0xbb9d3142	-0.0047971318
123	0xbce7af31	-0.02828178
124	0xbd118c32	-0.03553409
125	0xbc38287e	-0.011240123
126	0x3c2a5179	0.010395401
127	0x3d4be2bc	0.049776778
128	0xbadb5a30	-0.0016735252
129	0x3c3e2893	0.011606353
130	0x3cb304c5	0.02185286
131	0xbca58cee	-0.020208802
132	0x3d1f3560	0.03886926
133	0xbd017739	-0.03160784
134	0xbb40fcde	-0.0029447596
135	0xbbc16ce9	-0.0059028757
136	0xbd36770e	-0.044547133
137	0xbbe2d30f	-0.006922133
138	0x3c737928	0.014860429
139	0xbc320c42	-0.01086718
140	0xbbccb3db	-0.0062470264
141	0x3ce61435	0.028085807
142	0x3cb49a26	0.02204616
143	0xbb99a00f	-0.00468827
144	0xbd01396a	-0.031548895
145	0x3cc2720e	0.023736026
146	0x3c60b10f	0.013714089
147	0xbc8c85c6	-0.017153632
148	0xba9ce8d5	-0.0011971245
149	0xbcf06ffa	-0.02935027
150	0x3b3f98bf	0.002923533
151	0xbba843e8	-0.005135048
152	0x3afd09b8	0.0019305265
153	0xbd304688	-0.043036014
154	0x3d2fc67a	0.04291389
155	0x3bec7d2c	0.00721707
156	0x3d3327ac	0.043739006
157	0x3bd38c2c	0.006455919
158	0x3bccebb8	0.006253686
159	0x3b001e0a	0.0019549155
160	0x3a3aa2ec	0.0007119614
161	0xbc5ed83a	-0.013601357
162	0xba48118b	-0.00076320086
163	0xbb2e740d	-0.0026619465
164	0x3c8bde45	0.01707376
165	0xbcd4d658	-0.025981113
166	0x3bc25b13	0.005931267
167	0xbc0c531a	-0.008564735
168	0x3c480329	0.012207785
169	0x3c398090	0.011322156
170	0xbc87d38f	-0.016580371
171	0x3d0d8b8f	0.03455692
172	0x3cc5df64	0.024154373
173	0x3c8eac65	0.017416188
174	0x39dccd0d	0.00042114445
175	0x3ca75301	0.020425322
176	0x3d12dcdb	0.035855155
177	0x3bf40e4a	0.0074479925
178	0x3c4ab56f	0.012372359
179	0x3ce16140	0.027512193
180	0xbc34e0b0	-0.011039898
181	0x3c099480	0.008397222
182	0xbbd972ee	-0.006636015
183	0x3b8f233a	0.004368213
184	0xbd356b2b	-0.044291656
185	0x3c085f7b	0.008323546
186	0xbc61795c	-0.0137618445
187	0xbcdcb9f2	-0.026944134
188	0xba8ecf7a	-0.0010895573
189	0x3ca0477e	0.01956534
190	0xbd0340a1	-0.032044057
191	0xbce538e0	-0.027981222
192	0x3d0e8eff	0.03480434
193	0xbc401864	-0.011724565
194	0x3ba73778	0.005103048
195	0xbc951874	-0.018200137
196	0xbc949b77	-0.018140538
197	0x3c93632f	0.01799163
198	0xbba3d0d0	-0.0049992576
199	0xbc644457	-0.013932309
200	0x3b8efd81	0.004363716
201	0xbbce23a8	-0.0062908716
202	0x3c445880	0.011983991
203	0x3cc16242	0.023606423
204	0xbcac8f93	-0.021064555
205	0xbbc219fe	-0.0059235087
206	0x3d25f6ae	0.040518455
207	0x3cc1a66f	0.023638932
208	0x3b578cf8	0.003289042
209	0x3c7ae569	0.015313485
210	0xbaa92d72	-0.001290722
211	0xbb67fe2e	-0.0035399306
212	0x3aa74548	0.0012761736
213	0x3b8d3191	0.0043088873
214	0x3c09b789	0.008405575
215	0x3c077677	0.00826799
216	0x3d20a766	0.039222144
217	0xbc84a96e	-0.016194072
218	0xbc3bb5fd	-0.011456964
219	0x3c593f66	0.013259744
220	0xbc621037	-0.013797811
221	0xbcf9596a	-0.030438144
222	0x3c74ae75	0.014934172
223	0xbbb0ba9e	-0.0053933403
224	0xba6db7f7	-0.00090682454
225	0x3c8a8f58	0.016914055
226	0x3cdf746b	0.027277192
227	0xbd3dc580	-0.04633093
228	0xbc8a9f83	-0.016921764
229	0x3af559c9	0.0018718775
230	0x3b3740b1	0.0027962143
231	0x3b932c36	0.0044913543
232	0xbc77ea2c	-0.0151315145
233	0xbb891402	-0.0041832933
234	0x3ce70378	0.028199896
235	0x3c150122	0.009094508
236	0xbbcdab8e	-0.0062765544
237	0x3c1cc84f	0.009569242
238	0xbc206a75	-0.009791006
239	0xbc8fae4f	-0.017539172
240	0x3cca4ec5	0.024695763
241	0x3cad6308	0.021165386
242	0x3c47952d	0.012181562
243	0x3cb3129e	0.021859463
244	0x3acc362f	0.0015580113
245	0xbc69a4e5	-0.014260505
246	0x3c7a5b43	0.015280548
247	0xba9537fe	-0.0011384485
248	0x3cb95fe3	0.02262873
249	0xbccbe244	-0.024888165
250	0xbb3aaf63	-0.0028485886
251	0xbc8576fa	-0.016292084
252	0x3b294c65	0.0025832888
253	0x3ccdf1d5	0.025139729
254	0xbc5bad12	-0.013407962
255	0x3cbd240e	0.023088481

action_model._discrete_distribution.branches.2.bias f4 [3]
0	0x3c9130b6	0.017723422
1	0xbc15927d	-0.009129164
2	0xbc2447a3	-0.010026845
