ML-Agents/results/v4.0.0/Volleyball/Volleyball-14101.pt (torch, 589638 bytes, 26 tensors)

discrete_act_size_vector f4 [1, 4]
00000000: 0000 4040 0000 4040 0000 4040 0000 0040
3.0 3.0 3.0 2.0

network_body.observation_encoder.processors.0.normalizer.running_mean f4 [17]
00000000: ddf2 42bb 56f2 633b 7c9c ca3e a3c1 143f
00000010: dbbf 3441 f990 45bd eb46 093f a4f5 473e
00000020: 8635 bdc0 6b39 233c 7554 da3b d7cc 303c
00000030: 8635 bdc0 be9e 9c3c 06ae 1442 b636 9c40
00000040: 0c5d 3bc3
-0.0029746809 0.0034781895 0.39572513 0.58107966 11.29684 -0.04823396 0.5362384 0.19527298
-5.9127836 0.00996242 0.0066629 0.010791025 -5.9127836 0.019118663 37.169945 4.8816786
-187.36346

network_body.observation_encoder.processors.0.normalizer.running_variance f4 [17]
00000000: f098 b244 d4e1 af44 608a ed44 f427 6f45
00000010: dd93 e948 d079 1448 6e9f a648 bee2 c347
00000020: adc7 f248 9b32 8945 6f17 aa45 5e0f aa45
00000030: adc7 f248 8314 8945 1158 a14c e3c1 7a47
00000040: 6c17 a34d
1428.7793 1407.0571 1900.3242 3826.497 478366.9 152039.25 341243.44 100293.484
497213.4 4390.3257 5442.929 5441.921 497213.4 4386.564 8.459073e+07 64193.887
3.4202765e+08

network_body.processors.0.normalizer.running_mean f4 [17]
00000000: ddf2 42bb 56f2 633b 7c9c ca3e a3c1 143f
00000010: dbbf 3441 f990 45bd eb46 093f a4f5 473e
00000020: 8635 bdc0 6b39 233c 7554 da3b d7cc 303c
00000030: 8635 bdc0 be9e 9c3c 06ae 1442 b636 9c40
00000040: 0c5d 3bc3
-0.0029746809 0.0034781895 0.39572513 0.58107966 11.29684 -0.04823396 0.5362384 0.19527298
-5.9127836 0.00996242 0.0066629 0.010791025 -5.9127836 0.019118663 37.169945 4.8816786
-187.36346

network_body.processors.0.normalizer.running_variance f4 [17]
00000000: f098 b244 d4e1 af44 608a ed44 f427 6f45
00000010: dd93 e948 d079 1448 6e9f a648 bee2 c347
00000020: adc7 f248 9b32 8945 6f17 aa45 5e0f aa45
00000030: adc7 f248 8314 8945 1158 a14c e3c1 7a47
00000040: 6c17 a34d
1428.7793 1407.0571 1900.3242 3826.497 478366.9 152039.25 341243.44 100293.484
497213.4 4390.3257 5442.929 5441.921 497213.4 4386.564 8.459073e+07 64193.887
3.4202765e+08

network_body._body_endoder.seq_layers.0.weight f4 [256, 17]
00000000: e6e7 04be 4e20 15be d8ad 6cbe aa9c 09bd
00000010: 2403 0cbf 5ac5 89bd 5092 033f fb58 1abe
00000020: fadb 963e e133 99bd 1d77 99be 184a e2be
00000030: 5903 923d a2a0 0dbf b681 6ebe 3a3d f4bd
00000040: 4836 25be 2b78 85be 2e4f 133f 5940 e23e
00000050: 711b d33d e480 78be 5895 743e 8d91 11be
00000060: 7020 23be 3e47 91bd d307 e9bd dd42 afbd
00000070: b62f d0bd 9e2b 7b3d eb55 47be bc98 02be
00000080: 6b67 8d3e 2a0f d23e 0d2c ecbd 74d4 9c3e
00000090: 0c49 75be cb9c 023e 0c89 ff3d 46b3 c03c
000000a0: 0159 cfbd 9235 e1be a636 0b3e e1b3 a83e
000000b0: c3d7 a9be 9892 31be 19bf 993e 60ef f2bd
000000c0: 64f1 bcbe 4785 4ebe 8670 a23e 3573 43bc
000000d0: 4666 89bd 1869 8bbd 6e92 fb3c 0af7 ddbe
000000e0: ee62 763d 25d3 143e 27ab 82bb 7f2c a73d
000000f0: 5601 d6be 527d dabe 108b 913d 03a2 783c
00000100: c708 93bd b2ba 6abe f428 c8be a08c db3d
00000110: 92a6 003e 807a ba3e 75c6 07be e989 c43d
00000120: 44d2 69be e9b3 093c 07be c13e 7158 4dbe
00000130: caa8 963e 838d e038 8e56 07bf c834 5b3c
00000140: 09ea 1bbe 3ffe a23d ed47 0bbe 4938 173d
00000150: 269e 1bbe a905 043e fd5b f3bc cf35 9cbe
00000160: 51f8 06be fe80 7fbe cb99 e3be 20c2 543e
00000170: b9ae 0bbe 6f33 c83e d46c b63e 2098 97bd
00000180: 8b25 9fbd 104c 29bd 7b23 8e3e cb72 893d
00000190: 2664 9a3e f0f2 67be 46e5 6c3d 3ad3 5dbe
000001a0: d88e 21bd 697c 163e b83b bd3e fe27 d2bc
000001b0: c66e d23e 1119 a3be c060 b2bd da9f b6be
000001c0: 502c 883b 4cf2 6c3e b483 023e 0fb2 2abe
000001d0: 0a6a 53bd dbfc 43be bf73 52bc d80f ce3d
000001e0: 645d 123e 88ce 573e 5c54 d1be bd4d d0be
000001f0: 16df d2bc 8c46 76be b697 d3bd 4681 c1be
00000200: 926b 433e d8c5 663e d4f0 043e 2af0 1dbd
00000210: b36e 6ebe 4510 003e a24a ed3c fa2c 0ebc
00000220: bb1f b2ba 7f4e 02bf eb3c 64be 3f5b dbbd
00000230: f72d 38be fc8e ed3e a924 9abe 3b51 babe
00000240: dd88 d5be 758b 0cbe b214 6cbe cd8e 51be
00000250: b5b0 88be 663e b2bd fc40 993e e291 37be
00000260: 0b08 e6be 072e d53e 9ba3 2ebe 42d5 62be
00000270: cf5c 223d 9131 b8be 70a6 913e 135a c13e
00000280: 37ae 873d 28dc df3e c506 acbe 8d53 acbe
00000290: ecf7 c83e 3492 e73d e6e4 6abe f842 043e
000002a0: 1d69 d83e e9c5 853e db55 4dbe 5fd4 11bf
000002b0: a0b7 97bd 6ed2 f4be 57a6 cebe 8633 28be
000002c0: 8c5b 213e abac 1ebf f4cc b43e 54d3 c3be
000002d0: 5aa6 f23e 2cdc 673e 5e1b 76be adfa c33b
000002e0: bcc2 e1bd a573 c53e e226 8abc fcd7 ed3c
000002f0: 5415 033e 9288 a33d 7120 02bf c7ea fc3d
00000300: 35e9 583e 775b 6c3e 0146 48be 03da 963d
00000310: 97e0 423e ba32 693e e574 fb3c c701 1a3e
00000320: f33b 82bd b91e 4abe 2548 b6bc 6a1c 26bf
00000330: e59c c5be 8d0c 233e 0b8d 6abe 0744 913e
00000340: 9475 b6be cd9d 1b3f 667f 5dbe 65cd 8d3e
00000350: 2722 1abd a024 19be fcbd 34be 8c11 7bbe
00000360: 5c5c ea3d d8f3 43bd 1bfb a73d 2c93 6dbe
00000370: 32fe acbd 956c 2a3e 1017 c93e 38e8 c4be
00000380: 5121 f63e 840c 153d 6b99 79bd c6d0 b23c
00000390: 024d 0a3e 872c 85be df17 39bd 013d 3c3d
000003a0: ec7a 90be ea88 903e 265b dfbb f018 b73c
000003b0: bab0 0bbe c752 fa3d ea6b b23c 7040 2abd
000003c0: c102 143f 2f1d 2c3e 4c5c b9be c151 29bd
000003d0: d360 0abd e7e7 d0bd 5db8 d53e efb9 8c3e
000003e0: aae9 b83d d5bb 6b3e 81ac 0cbf f39f 31be
000003f0: faf5 bfbe a14e 253e 62e4 183d 155b f2bc
-0.12979087 -0.14563105 -0.23113191 -0.033596672 -0.5469229 -0.06727095 0.5139513 -0.15073006
0.29464704 -0.07480598 -0.2997369 -0.44197154 0.07129545 -0.5532323 -0.23291668 -0.119257405
-0.16133988 -0.26068243 0.57542694 0.44189718 0.103079684 -0.24267918 0.23885095 -0.1421568
-0.15930343 -0.070936665 -0.113784455 -0.08557675 -0.1016535 0.061320893 -0.19466369 -0.12753576
0.27617964 0.41027194 -0.115318395 0.3063084 -0.23953646 0.12755124 0.124773115 0.023522984
-0.10124398 -0.43986183 0.13595065 0.32949737 -0.33172426 -0.17341077 0.30028608 -0.118620634
-0.36902916 -0.20168029 0.31726474 -0.011929323 -0.0670896 -0.068071544 0.030709472 -0.43352538
0.06015294 0.1453367 -0.003987688 0.08162784 -0.41797894 -0.42673737 0.07106602 0.015175345
-0.071794085 -0.22922781 -0.39093745 0.107201815 0.12563542 0.36421585 -0.13259299 0.09596617
-0.22834116 0.00840471 0.37840292 -0.20053269 0.2942565 0.00010707511 -0.52866447 0.013379283
-0.15225996 0.0795865 -0.13601656 0.036918912 -0.15197048 0.12892784 -0.02970695 -0.30509803
-0.13180663 -0.2495155 -0.44453272 0.20777178 -0.1364087 0.3910174 0.35629904 -0.074020624
-0.07770833 -0.041332304 0.27761444 0.06711348 0.30154532 -0.22651267 0.05783584 -0.21662608
-0.039442867 0.14695896 0.36959624 -0.025653835 0.41100138 -0.31855062 -0.0870986 -0.35668832
0.004155673 0.23139304 0.12745553 -0.16669486 -0.0516148 -0.19139425 -0.012844979 0.10061616
0.14293438 0.21074879 -0.40884674 -0.4068431 -0.025741141 -0.24050349 -0.10331671 -0.3779394
0.19084004 0.22536409 0.12982494 -0.038559116 -0.23284416 0.12506206 0.028966252 -0.008677715
-0.0013589779 -0.50901026 -0.22288863 -0.10710763 -0.17986284 0.4639815 -0.30106094 -0.363901
-0.4170598 -0.13725074 -0.2305477 -0.2046463 -0.26697317 -0.08703308 0.29932392 -0.17926744
-0.4492801 0.4163668 -0.17054598 -0.22151664 0.03963929 -0.35975316 0.28447294 0.37764034
0.06625026 0.43722653 -0.33598915 -0.33657494 0.3925165 0.11307183 -0.2293888 0.12916172
0.42267695 0.26127556 -0.20052283 -0.5696468 -0.074080706 -0.47816795 -0.40361282 -0.16425905
0.15757579 -0.6198222 0.35312617 -0.38247168 0.4739254 0.22642583 -0.24033877 0.0059808106
-0.11023471 0.38564792 -0.016864244 0.029033653 0.12801105 0.07985033 -0.5083075 0.12349468
0.21182711 0.23081766 -0.19557954 0.07365801 0.19030987 0.22773257 0.030695388 0.1503974
-0.06359091 -0.19738282 -0.022251198 -0.64887106 -0.38596264 0.15922756 -0.22905366 0.28372213
-0.3563658 0.6078766 -0.2163063 0.27695766 -0.037630226 -0.14955378 -0.17650598 -0.24518412
0.114433974 -0.04783997 0.082021914 -0.23200673 -0.084469214 0.16642983 0.39275408 -0.3845842
0.48072293 0.03638889 -0.060937326 0.021828067 0.13505939 -0.26010534 -0.04518878 0.045956615
-0.28218782 0.28229457 -0.0068162857 0.022350758 -0.13641635 0.1222282 0.021779973 -0.04156536
0.578167 0.16808008 -0.3620323 -0.041337732 -0.033783745 -0.10200482 0.4174222 0.27485606
0.09028943 0.23020871 -0.5495072 -0.17346172 -0.37492353 0.16143276 0.037327178 -0.029584447

network_body._body_endoder.seq_layers.0.bias f4 [256]
00000000: 0000 0000 0000 0000 0000 0000 0000 0000
00000010: 0000 0000 0000 0000 0000 0000 0000 0000
00000020: 0000 0000 0000 0000 0000 0000 0000 0000
00000030: 0000 0000 0000 0000 0000 0000 0000 0000
00000040: 0000 0000 0000 0000 0000 0000 0000 0000
00000050: 0000 0000 0000 0000 0000 0000 0000 0000
00000060: 0000 0000 0000 0000 0000 0000 0000 0000
00000070: 0000 0000 0000 0000 0000 0000 0000 0000
00000080: 0000 0000 0000 0000 0000 0000 0000 0000
00000090: 0000 0000 0000 0000 0000 0000 0000 0000
000000a0: 0000 0000 0000 0000 0000 0000 0000 0000
000000b0: 0000 0000 0000 0000 0000 0000 0000 0000
000000c0: 0000 0000 0000 0000 0000 0000 0000 0000
000000d0: 0000 0000 0000 0000 0000 0000 0000 0000
000000e0: 0000 0000 0000 0000 0000 0000 0000 0000
000000f0: 0000 0000 0000 0000 0000 0000 0000 0000
00000100: 0000 0000 0000 0000 0000 0000 0000 0000
00000110: 0000 0000 0000 0000 0000 0000 0000 0000
00000120: 0000 0000 0000 0000 0000 0000 0000 0000
00000130: 0000 0000 0000 0000 0000 0000 0000 0000
00000140: 0000 0000 0000 0000 0000 0000 0000 0000
00000150: 0000 0000 0000 0000 0000 0000 0000 0000
00000160: 0000 0000 0000 0000 0000 0000 0000 0000
00000170: 0000 0000 0000 0000 0000 0000 0000 0000
00000180: 0000 0000 0000 0000 0000 0000 0000 0000
00000190: 0000 0000 0000 0000 0000 0000 0000 0000
000001a0: 0000 0000 0000 0000 0000 0000 0000 0000
000001b0: 0000 0000 0000 0000 0000 0000 0000 0000
000001c0: 0000 0000 0000 0000 0000 0000 0000 0000
000001d0: 0000 0000 0000 0000 0000 0000 0000 0000
000001e0: 0000 0000 0000 0000 0000 0000 0000 0000
000001f0: 0000 0000 0000 0000 0000 0000 0000 0000
00000200: 0000 0000 0000 0000 0000 0000 0000 0000
00000210: 0000 0000 0000 0000 0000 0000 0000 0000
00000220: 0000 0000 0000 0000 0000 0000 0000 0000
00000230: 0000 0000 0000 0000 0000 0000 0000 0000
00000240: 0000 0000 0000 0000 0000 0000 0000 0000
00000250: 0000 0000 0000 0000 0000 0000 0000 0000
00000260: 0000 0000 0000 0000 0000 0000 0000 0000
00000270: 0000 0000 0000 0000 0000 0000 0000 0000
00000280: 0000 0000 0000 0000 0000 0000 0000 0000
00000290: 0000 0000 0000 0000 0000 0000 0000 0000
000002a0: 0000 0000 0000 0000 0000 0000 0000 0000
000002b0: 0000 0000 0000 0000 0000 0000 0000 0000
000002c0: 0000 0000 0000 0000 0000 0000 0000 0000
000002d0: 0000 0000 0000 0000 0000 0000 0000 0000
000002e0: 0000 0000 0000 0000 0000 0000 0000 0000
000002f0: 0000 0000 0000 0000 0000 0000 0000 0000
00000300: 0000 0000 0000 0000 0000 0000 0000 0000
00000310: 0000 0000 0000 0000 0000 0000 0000 0000
00000320: 0000 0000 0000 0000 0000 0000 0000 0000
00000330: 0000 0000 0000 0000 0000 0000 0000 0000
00000340: 0000 0000 0000 0000 0000 0000 0000 0000
00000350: 0000 0000 0000 0000 0000 0000 0000 0000
00000360: 0000 0000 0000 0000 0000 0000 0000 0000
00000370: 0000 0000 0000 0000 0000 0000 0000 0000
00000380: 0000 0000 0000 0000 0000 0000 0000 0000
00000390: 0000 0000 0000 0000 0000 0000 0000 0000
000003a0: 0000 0000 0000 0000 0000 0000 0000 0000
000003b0: 0000 0000 0000 0000 0000 0000 0000 0000
000003c0: 0000 0000 0000 0000 0000 0000 0000 0000
000003d0: 0000 0000 0000 0000 0000 0000 0000 0000
000003e0: 0000 0000 0000 0000 0000 0000 0000 0000
000003f0: 0000 0000 0000 0000 0000 0000 0000 0000
0.0 0.0 0.0 0.0 0.0 0.0 0.0 0.0
0.0 0.0 0.0 0.0 0.0 0.0 0.0 0.0
0.0 0.0 0.0 0.0 0.0 0.0 0.0 0.0
0.0 0.0 0.0 0.0 0.0 0.0 0.0 0.0
0.0 0.0 0.0 0.0 0.0 0.0 0.0 0.0
0.0 0.0 0.0 0.0 0.0 0.0 0.0 0.0
0.0 0.0 0.0 0.0 0.0 0.0 0.0 0.0
0.0 0.0 0.0 0.0 0.0 0.0 0.0 0.0
0.0 0.0 0.0 0.0 0.0 0.0 0.0 0.0
0.0 0.0 0.0 0.0 0.0 0.0 0.0 0.0
0.0 0.0 0.0 0.0 0.0 0.0 0.0 0.0
0.0 0.0 0.0 0.0 0.0 0.0 0.0 0.0
0.0 0.0 0.0 0.0 0.0 0.0 0.0 0.0
0.0 0.0 0.0 0.0 0.0 0.0 0.0 0.0
0.0 0.0 0.0 0.0 0.0 0.0 0.0 0.0
0.0 0.0 0.0 0.0 0.0 0.0 0.0 0.0
0.0 0.0 0.0 0.0 0.0 0.0 0.0 0.0
0.0 0.0 0.0 0.0 0.0 0.0 0.0 0.0
0.0 0.0 0.0 0.0 0.0 0.0 0.0 0.0
0.0 0.0 0.0 0.0 0.0 0.0 0.0 0.0
0.0 0.0 0.0 0.0 0.0 0.0 0.0 0.0
0.0 0.0 0.0 0.0 0.0 0.0 0.0 0.0
0.0 0.0 0.0 0.0 0.0 0.0 0.0 0.0
0.0 0.0 0.0 0.0 0.0 0.0 0.0 0.0
0.0 0.0 0.0 0.0 0.0 0.0 0.0 0.0
0.0 0.0 0.0 0.0 0.0 0.0 0.0 0.0
0.0 0.0 0.0 0.0 0.0 0.0 0.0 0.0
0.0 0.0 0.0 0.0 0.0 0.0 0.0 0.0
0.0 0.0 0.0 0.0 0.0 0.0 0.0 0.0
0.0 0.0 0.0 0.0 0.0 0.0 0.0 0.0
0.0 0.0 0.0 0.0 0.0 0.0 0.0 0.0
0.0 0.0 0.0 0.0 0.0 0.0 0.0 0.0

network_body._body_endoder.seq_layers.2.weight f4 [256, 256]
00000000: fd5b fbbc b01c f2bd f945 94bd ed18 85ba
00000010: e2dc 0d3d 7a2f cabd 5f5c 0abe 4209 363c
00000020: 7fa1 9f3d 3589 5a3c b3d6 3a3d f27f 73bc
00000030: 0997 85bc c89e a6bc d1e7 753d 6ffa 14bd
00000040: 7cba 013d b346 453d ab87 76bd 80c1 7d3d
00000050: 011a 093b 80b8 9ebb a5a1 82bc df9f 153e
00000060: 2d6f 293d 436f 0f3c 9968 8e3d 136f bbbc
00000070: e7c3 27bd c4e9 bfbd de49 0e3b 4304 08bd
00000080: 277c 0a3d eba2 fa3d f496 74bd fce8 f3ba
00000090: 08b3 563c 1719 b9bd e68a f53c c319 b33b
000000a0: d76c 8d3d d2be 9a3b 55bd 333c dfc7 de3d
000000b0: eeee dc3c e87d 93bd 9349 3abc 78a1 32bc
000000c0: ad32 e5bc 6687 67bd 15a6 633c 1f5b b5bb
000000d0: a64b d83d e2c0 09bd 912f 2ebd dcf9 2d3d
000000e0: ccf9 8a3c b555 59bd 63ad a73c 46fb 37bc
000000f0: 1a51 92bd 1a65 d0bb e596 f9bd 381b e8bb
00000100: 3de4 13be 7257 a5bd 6e04 303d 1cbd d33d
00000110: b61f 363d 06c6 0b3b 4425 a0bb d1fc 9f3d
00000120: 96c2 62bd e359 ee3d 9827 52bd edf8 17bd
00000130: d16c 76bc 63a9 a73d 3d9f 823a 875b 83bc
00000140: 0f13 91ba a560 a6bd a32f 3abd 644d cebd
00000150: 7f27 ca3d cc52 77bd 826d 1c3d 25ce 133d
00000160: 0156 24bd 1c1e 343d 4cb0 2f3c 1153 863d
00000170: 1390 9abb c3e6 133e 352c 803d 04fc 08bd
00000180: 8c49 523c 956f 2e3d b940 023e 6c8f f63c
00000190: 8646 d9bc 783a 74bd 3a84 5cbc 39c3 1ebd
000001a0: 6c7b 8d3c 192f babd 7c86 983d 7762 04bd
000001b0: 60d6 9a3c 0eb2 bebd 3fbe 65bd 6b0c 89bb
000001c0: 8c01 183e 4c33 dd3c 68d7 5e3d 4867 dd3d
000001d0: 9b31 c43c 0981 b63d a0cc a93d 4476 23bd
000001e0: 9916 52bc d4ca f4bc 0d17 c63d 31e7 513c
000001f0: 79c0 a43c eb80 0dbd 0ae4 e73d a524 02bd
00000200: 2cc1 7f3d a2fc a73d 3bdd 7f3b ba63 823d
00000210: 0afc 53bd a853 043e 86f5 cf3c 064c 433c
00000220: 9568 b63d f18d 9f3c 1753 1f3d aa13 9b3b
00000230: 98f1 063c 3292 eebb 8028 353d c980 9d3d
00000240: 83e8 07be 9ef8 b53c 5ab3 8b3c 5853 303b
00000250: 10e3 03bd 8d20 cbbb 0cf2 c03d 2d91 2b3d
00000260: 85d6 eabc 0956 00bd 024b 513d ba17 783c
00000270: 387e 5a3c ac03 69ba 70b8 08bd 772c 84bd
00000280: bd8d 833d f457 c43c 4688 933c 449b d8bc
00000290: 77c8 2e3c 04ed 623c 5825 9ebd 8825 56bd
000002a0: c7b8 9cbd 35e6 863d dd31 23bd eb34 4c3b
000002b0: b453 5abd 13e1 fdbc 882c 3f3c b800 12bd
000002c0: 1d1e a43d 2420 cabc 7b79 ef3b ee96 243d
000002d0: 8ca4 193d 46bc e43d 9679 9ebd 20a0 99bd
000002e0: 6642 9abd f0ec 073b 56ed 6abd 4b21 ab3d
000002f0: 049f 9abc dce2 373c 0306 ff3a 5d70 9a3d
00000300: 8998 783d adf5 21bc a0ba 8fbc 3a26 bf3d
00000310: e07d 29bc c837 7a3d 9ed6 a9b9 9dbf d53b
00000320: 30a8 cbbd 5947 df3d 11cb 233d 38e9 24bd
00000330: 63b8 fabb a7b6 833d b2fe 353d e5a9 c43d
00000340: 6c02 843d 4db0 abbc d69c e2bb 00b2 c3bc
00000350: a9ae 04bc 1277 373d 5eb8 b23b 8e73 8e3a
00000360: 3c81 b6bc 5c43 933a 82f5 42be 18cb 313d
00000370: 89fe e5bc 7ab5 56bc 7821 c1bd 5915 6abc
00000380: 77bf 55bd 1836 283d 7efe 5e3b 99fb fcbc
00000390: 2ec4 ac3d 7911 1a3d 34f1 c03d 62be 9b3d
000003a0: c4c7 8abc 7040 83bd 5fb8 823d 6edc a4bc
000003b0: f83e 94bc 8808 7dbc 6bd1 f43b 6219 413d
000003c0: 8710 b33d 537e 0a3d 61f3 45bc 9bde 12bd
000003d0: 0b1b 123d cdda c43c d61a 37bd 445f 8abc
000003e0: 0d9a 86bd e997 143d 4109 0d3e 03ee adbd
000003f0: cecd aebc 3371 78bd c675 55bc 2246 743d
-0.030683512 -0.11821878 -0.07239909 -0.0010154523 0.03463448 -0.09872337 -0.135118 0.011110606
0.07794475 0.013338377 0.04561491 -0.0148620475 -0.01630737 -0.020339385 0.06003553 -0.036371645
0.031671986 0.048163127 -0.060187977 0.061952114 0.002092004 -0.0048437715 -0.015946219 0.14611767
0.04136579 0.008754554 0.06953544 -0.022880113 -0.04095831 -0.09370759 0.0021711509 -0.03320719
0.033809807 0.122381054 -0.059714273 -0.0018608863 0.013104208 -0.09037989 0.029973458 0.0054657175
0.06905525 0.0047224546 0.010970433 0.10877966 0.0269694 -0.07201749 -0.0113700805 -0.010902755
-0.027978266 -0.05652561 0.0138945775 -0.005534544 0.10561304 -0.033631213 -0.04252583 0.042474613
0.016964816 -0.053060252 0.02046842 -0.011229342 -0.07144375 -0.0063597085 -0.12186984 -0.007083323
-0.14442535 -0.080733195 0.042972974 0.10338804 0.044463836 0.0021327748 -0.004887255 0.07811893
-0.055361353 0.11638238 -0.05130729 -0.03710263 -0.015040592 0.08186605 0.000996567 -0.016034855
-0.0011068302 -0.08123902 -0.045455586 -0.10073355 0.098708145 -0.060381696 0.038190372 0.036085267
-0.040121082 0.043974027 0.010723185 0.065588124 -0.004716882 0.14443497 0.06258432 -0.033443466
0.012834918 0.04258688 0.12720002 0.030097686 -0.026522886 -0.059626073 -0.01345926 -0.038760398
0.017270766 -0.090910144 0.07447526 -0.032320466 0.01890105 -0.09311305 -0.056089636 -0.0041823885
0.1484434 0.027002 0.054404646 0.10810715 0.023949435 0.0891133 0.08290982 -0.03990771
-0.0128227705 -0.029881872 0.09672365 0.012811468 0.02011131 -0.034546774 0.11322792 -0.03177323
0.062440082 0.08202483 0.0039041776 0.063666776 -0.051754035 0.12922537 0.02538563 0.011919981
0.08906666 0.019476863 0.0388976 0.0047325687 0.008236311 -0.0072806114 0.044228077 0.076905794
-0.1327229 0.022213276 0.017053295 0.0026905145 -0.032198966 -0.0061989487 0.09421167 0.041886497
-0.028666744 -0.03133205 0.051096924 0.015142376 0.013335757 -0.0008888792 -0.03337902 -0.064537935
0.06423519 0.02396772 0.018009316 -0.026441224 0.010667912 0.013850454 -0.077219665 -0.052281886
-0.07652431 0.06586877 -0.039842475 0.0031159471 -0.05330248 -0.030991113 0.011668332 -0.035645217
0.08013556 -0.024673529 0.007308183 0.040183 0.03751044 0.11168723 -0.077380344 -0.075012445
-0.07532196 0.002074059 -0.057355247 0.083559595 -0.018874653 0.011223521 0.0019456748 0.07540963
0.060692344 -0.009885234 -0.017545044 0.09333463 -0.010344952 0.061088353 -0.00032394094 0.006523086
-0.099441886 0.1090228 0.03998858 -0.040261477 -0.007651375 0.064313225 0.04443235 0.09602717
0.064457744 -0.02095809 -0.006915669 -0.023888588 -0.008098283 0.04479129 0.005454107 0.0010868178
-0.02227842 0.0011235285 -0.19038966 0.043406576 -0.028075473 -0.013104791 -0.09430212 -0.014287316
-0.05218455 0.041067213 0.00340262 -0.03088169 0.08435856 0.03761432 0.09421006 0.07604672
-0.016940959 -0.06408775 0.06382822 -0.02012464 -0.018096432 -0.015443929 0.0074712536 0.047143348
0.08743387 0.03381188 -0.012081952 -0.035856824 0.03567032 0.024030114 -0.044703327 -0.01689113
-0.065723516 0.036277685 0.13773061 -0.08492663 -0.02133837 -0.06065483 -0.013028568 0.059637196

network_body._body_endoder.seq_layers.2.bias f4 [256]
00000000: 0000 0000 0000 0000 0000 0000 0000 0000
00000010: 0000 0000 0000 0000 0000 0000 0000 0000
00000020: 0000 0000 0000 0000 0000 0000 0000 0000
00000030: 0000 0000 0000 0000 0000 0000 0000 0000
00000040: 0000 0000 0000 0000 0000 0000 0000 0000
00000050: 0000 0000 0000 0000 0000 0000 0000 0000
00000060: 0000 0000 0000 0000 0000 0000 0000 0000
00000070: 0000 0000 0000 0000 0000 0000 0000 0000
00000080: 0000 0000 0000 0000 0000 0000 0000 0000
00000090: 0000 0000 0000 0000 0000 0000 0000 0000
000000a0: 0000 0000 0000 0000 0000 0000 0000 0000
000000b0: 0000 0000 0000 0000 0000 0000 0000 0000
000000c0: 0000 0000 0000 0000 0000 0000 0000 0000
000000d0: 0000 0000 0000 0000 0000 0000 0000 0000
000000e0: 0000 0000 0000 0000 0000 0000 0000 0000
000000f0: 0000 0000 0000 0000 0000 0000 0000 0000
00000100: 0000 0000 0000 0000 0000 0000 0000 0000
00000110: 0000 0000 0000 0000 0000 0000 0000 0000
00000120: 0000 0000 0000 0000 0000 0000 0000 0000
00000130: 0000 0000 0000 0000 0000 0000 0000 0000
00000140: 0000 0000 0000 0000 0000 0000 0000 0000
00000150: 0000 0000 0000 0000 0000 0000 0000 0000
00000160: 0000 0000 0000 0000 0000 0000 0000 0000
00000170: 0000 0000 0000 0000 0000 0000 0000 0000
00000180: 0000 0000 0000 0000 0000 0000 0000 0000
00000190: 0000 0000 0000 0000 0000 0000 0000 0000
000001a0: 0000 0000 0000 0000 0000 0000 0000 0000
000001b0: 0000 0000 0000 0000 0000 0000 0000 0000
000001c0: 0000 0000 0000 0000 0000 0000 0000 0000
000001d0: 0000 0000 0000 0000 0000 0000 0000 0000
000001e0: 0000 0000 0000 0000 0000 0000 0000 0000
000001f0: 0000 0000 0000 0000 0000 0000 0000 0000
00000200: 0000 0000 0000 0000 0000 0000 0000 0000
00000210: 0000 0000 0000 0000 0000 0000 0000 0000
00000220: 0000 0000 0000 0000 0000 0000 0000 0000
00000230: 0000 0000 0000 0000 0000 0000 0000 0000
00000240: 0000 0000 0000 0000 0000 0000 0000 0000
00000250: 0000 0000 0000 0000 0000 0000 0000 0000
00000260: 0000 0000 0000 0000 0000 0000 0000 0000
00000270: 0000 0000 0000 0000 0000 0000 0000 0000
00000280: 0000 0000 0000 0000 0000 0000 0000 0000
00000290: 0000 0000 0000 0000 0000 0000 0000 0000
000002a0: 0000 0000 0000 0000 0000 0000 0000 0000
000002b0: 0000 0000 0000 0000 0000 0000 0000 0000
000002c0: 0000 0000 0000 0000 0000 0000 0000 0000
000002d0: 0000 0000 0000 0000 0000 0000 0000 0000
000002e0: 0000 0000 0000 0000 0000 0000 0000 0000
000002f0: 0000 0000 0000 0000 0000 0000 0000 0000
00000300: 0000 0000 0000 0000 0000 0000 0000 0000
00000310: 0000 0000 0000 0000 0000 0000 0000 0000
00000320: 0000 0000 0000 0000 0000 0000 0000 0000
00000330: 0000 0000 0000 0000 0000 0000 0000 0000
00000340: 0000 0000 0000 0000 0000 0000 0000 0000
00000350: 0000 0000 0000 0000 0000 0000 0000 0000
00000360: 0000 0000 0000 0000 0000 0000 0000 0000
00000370: 0000 0000 0000 0000 0000 0000 0000 0000
00000380: 0000 0000 0000 0000 0000 0000 0000 0000
00000390: 0000 0000 0000 0000 0000 0000 0000 0000
000003a0: 0000 0000 0000 0000 0000 0000 0000 0000
000003b0: 0000 0000 0000 0000 0000 0000 0000 0000
000003c0: 0000 0000 0000 0000 0000 0000 0000 0000
000003d0: 0000 0000 0000 0000 0000 0000 0000 0000
000003e0: 0000 0000 0000 0000 0000 0000 0000 0000
000003f0: 0000 0000 0000 0000 0000 0000 0000 0000
0.0 0.0 0.0 0.0 0.0 0.0 0.0 0.0
0.0 0.0 0.0 0.0 0.0 0.0 0.0 0.0
0.0 0.0 0.0 0.0 0.0 0.0 0.0 0.0
0.0 0.0 0.0 0.0 0.0 0.0 0.0 0.0
0.0 0.0 0.0 0.0 0.0 0.0 0.0 0.0
0.0 0.0 0.0 0.0 0.0 0.0 0.0 0.0
0.0 0.0 0.0 0.0 0.0 0.0 0.0 0.0
0.0 0.0 0.0 0.0 0.0 0.0 0.0 0.0
0.0 0.0 0.0 0.0 0.0 0.0 0.0 0.0
0.0 0.0 0.0 0.0 0.0 0.0 0.0 0.0
0.0 0.0 0.0 0.0 0.0 0.0 0.0 0.0
0.0 0.0 0.0 0.0 0.0 0.0 0.0 0.0
0.0 0.0 0.0 0.0 0.0 0.0 0.0 0.0
0.0 0.0 0.0 0.0 0.0 0.0 0.0 0.0
0.0 0.0 0.0 0.0 0.0 0.0 0.0 0.0
0.0 0.0 0.0 0.0 0.0 0.0 0.0 0.0
0.0 0.0 0.0 0.0 0.0 0.0 0.0 0.0
0.0 0.0 0.0 0.0 0.0 0.0 0.0 0.0
0.0 0.0 0.0 0.0 0.0 0.0 0.0 0.0
0.0 0.0 0.0 0.0 0.0 0.0 0.0 0.0
0.0 0.0 0.0 0.0 0.0 0.0 0.0 0.0
0.0 0.0 0.0 0.0 0.0 0.0 0.0 0.0
0.0 0.0 0.0 0.0 0.0 0.0 0.0 0.0
0.0 0.0 0.0 0.0 0.0 0.0 0.0 0.0
0.0 0.0 0.0 0.0 0.0 0.0 0.0 0.0
0.0 0.0 0.0 0.0 0.0 0.0 0.0 0.0
0.0 0.0 0.0 0.0 0.0 0.0 0.0 0.0
0.0 0.0 0.0 0.0 0.0 0.0 0.0 0.0
0.0 0.0 0.0 0.0 0.0 0.0 0.0 0.0
0.0 0.0 0.0 0.0 0.0 0.0 0.0 0.0
0.0 0.0 0.0 0.0 0.0 0.0 0.0 0.0
0.0 0.0 0.0 0.0 0.0 0.0 0.0 0.0

action_model._discrete_distribution.branches.0.weight f4 [3, 256]
00000000: 3b2d 013c 3233 c93a f043 57bb 470d f4bb
00000010: fdd6 f2bb bf4c 53bb 6f16 303b 585f 483a
00000020: 0954 943b 1b0c 11bc 72a6 4039 1f20 d1bb
00000030: b30e cbbb 98bb 4abc 54e8 b7bb af8c eeba
00000040: 83b8 2cbc effb 94ba 2833 933a c7b0 db38
00000050: afb7 b23b 7a07 cc3a e209 d4bb 7b39 1dbc
00000060: dda6 103b ff00 40bb 4057 8cbb 07d3 d63b
00000070: c8cb 1a3c 65bf 5c3b 5fd6 93bb 93d0 91bb
00000080: 8069 723a 972f 70bb 2fbb 93b9 c467 903b
00000090: d81d b73b 7578 183b 025a 143c a0fe e53a
000000a0: ef8d 8b3b c7d7 c53a 4bd4 09bc 12e2 933b
000000b0: 1f27 0cbc 9d8a 813b 1a5e 39bc 4a21 5c3b
000000c0: e884 67bb 6519 e33b da33 903a c597 17bb
000000d0: 0bd8 ba3b f34a 9b39 3394 053c 927f a33b
000000e0: ead1 893b 9ca5 c4b9 8756 53bb fde2 7abb
000000f0: 1c01 243c 714e a13a fd73 05bb c057 7db9
00000100: cd5e 2d3b 8a48 65bb 7821 c8bb b62c 15bb
00000110: 5665 c0ba 03af 323a 74e1 913c 804e b9bb
00000120: 42ea 543b bb13 a63a 97f4 60bc 12f3 32bc
00000130: 746d 1ebc 39ed 9f3c 0710 53b9 15c2 0e3b
00000140: 97fa 733b 3725 083b 2b32 bd3b aa2a b83a
00000150: a622 84bb c343 49bc 33ef 29bc 4e77 413c
00000160: eb1b 8a3b 500b 7ebb 13ac de3b 0a50 4fbb
00000170: 2956 073b 9751 54bb e085 3837 43a8 d83a
00000180: e4fe a5bb 33d8 dbbb 0dee a5bb 1876 233a
00000190: 6c5b babb c78f 0cbc 7ab5 853c 56e1 3fbc
000001a0: dda5 d3bb 9da6 08bc b7b6 09bc bff4 cb3a
000001b0: a3d4 383a 4f5a d73a 674e e23a e91d 253c
000001c0: bf4f 58bc 6616 0c3c 7d92 1cba eeef 043c
000001d0: a474 b2bb 7340 503b 9c88 09bc 7728 8bbb
000001e0: af19 433c 1b05 e4bb 6900 273c 3309 40bc
000001f0: d399 a33b 6d05 8b3b a038 5a3c ecf5 843a
00000200: d8e2 2fbb b34c f13a 8350 9d3a 2388 a7ba
00000210: 5767 d53a 33d9 8fbb 3c95 10bc d352 b23b
00000220: 169f 333b 15f8 c83b 6a8b e63b 5f04 c43b
00000230: b0c6 06bc 50b6 503c 085b 44bb ffa3 4f3b
00000240: 941d 48bc 5347 9bbb c00d 9938 487b 8ebb
00000250: 2f4d ac3b 51a5 973c 7d32 04bc a705 5bba
00000260: efef c439 e0e6 2d3c 4ae8 56bb ebc1 8c3a
00000270: b61c 8abb 8114 133c 5d64 02bc 7022 d8bb
00000280: 92ed 62b9 16a1 b139 8b1b d2ba c3aa 833a
00000290: 17b2 39bb 0a30 47bb 35d5 79bb 9f3f 45ba
000002a0: 9fb5 9bbb 5090 9dbb 7861 39bb 5da7 15bc
000002b0: 4976 26ba 5fe9 1f3c 90a1 71ba 07ce a53b
000002c0: 25ab 2fbc f07c 0dbc 27cc 573b 578d 12bc
000002d0: 7fe0 d53a e6e0 32bb 5ffe 873b 2bb4 993b
000002e0: ef89 1bbc e144 2a38 339a a838 2d5a ebba
000002f0: 2af2 203c 1637 183c 478d 783b ca3b 563b
00000300: e400 82bc 1779 163c da6c fd3b 5707 ec3b
00000310: 7381 49bb bfdf 31b9 6b55 2d3c 4fbb 5a3a
00000320: f2bd 593c 1723 5ebb 6b6b b53a ba7f 5b3b
00000330: e736 7e3b f80c f6bb 9fb3 a03b 8f75 b7bb
00000340: 38ae 4ebb b16a 1c3b baee f839 9f6a 2e3a
00000350: 61f8 3f3b d4fd 2fbb b2de 98bb 7976 323b
00000360: 1d22 f03b 80c6 b6bb 25a4 503c 3a20 73bc
00000370: e11c 183b dbfc 2bba 1895 c4bb dd45 2f3b
00000380: 878e 90bb 70ea 163a 83ca 423b 0aa0 fbba
00000390: effc 6fbc 9372 adbb f32a 3dbc b300 af3b
000003a0: 2229 de3b 8e1f 0ebc 9f87 a7bb fc23 c73b
000003b0: cd3e 9abb 7800 ebbb 2724 eb3b 98b7 debb
000003c0: a226 0ebb 942d 403b 5f38 7aba a793 6aba
000003d0: d6c5 2f3b 306b 53bb 6aab d0bb 43fd 9e3b
000003e0: abdc c33a a53d f4ba 5073 5ebb f6ec 15ba
000003f0: 1db8 5ebb cf3f ae3b 2a84 e5bb cb52 223c
0.007884319 0.001535034 -0.003284689 -0.007447872 -0.0074108825 -0.003224179 0.002686884 0.0007643602
0.0045266193 -0.008852984 0.00018372553 -0.006382003 -0.0061968206 -0.012373827 -0.0056124125 -0.0018199886
-0.010542038 -0.0011366586 0.0011230456 0.00010475661 0.0054540257 0.0015566193 -0.0064709047 -0.009596224
0.0022072115 -0.0029297469 -0.004282862 0.006555918 0.009447999 0.0033683416 -0.004511639 -0.004449913
0.0009247288 -0.003664946 -0.00028177488 0.004406901 0.0055882744 0.0023265157 0.009054663 0.0017547198
0.004258863 0.0015094214 -0.008412431 0.0045130337 -0.008554249 0.0039532916 -0.0113139395 0.0033589178
-0.003532702 0.0069305175 0.0011001781 -0.0023131233 0.005702024 0.00029619745 0.008153009 0.004989573
0.004205932 -0.00037507422 -0.003224762 -0.0038282268 0.01001003 0.0012306703 -0.0020363324 -0.0002416065
0.002645421 -0.0034985864 -0.0061075054 -0.0022762245 -0.0014678638 0.000681624 0.0178077 -0.00565511
0.0032488261 0.0012670675 -0.01373019 -0.01092221 -0.00966965 0.019522296 -0.00020128499 0.0021783162
0.003722822 0.0020774135 0.0057738028 0.0014050801 -0.0040324507 -0.012284222 -0.010371971 0.01180823
0.004214754 -0.0038764067 0.006795415 -0.00316334 0.002065072 -0.0032397264 1.0998425e-05 0.0016529638
-0.0050657857 -0.0067091226 -0.0050637783 0.0006235554 -0.005687168 -0.008579201 0.016321886 -0.011711439
-0.0064589814 -0.008340505 -0.008405379 0.0015560611 0.00070507283 0.0016430112 0.0017265797 0.010077932
-0.013202607 0.008550262 -0.0005972756 0.008113844 -0.0054460336 0.0031776696 -0.008394387 -0.004246767
0.011907979 -0.0069586164 0.010192969 -0.011720943 0.0049927025 0.00424259 0.0133191645 0.0010144091
-0.002683809 0.0018409699 0.0012002144 -0.0012781661 0.0016281408 -0.004389906 -0.008824643 0.0054420023
0.0027408055 0.0061330893 0.0070356624 0.0059819664 -0.008226082 0.012738779 -0.0029961485 0.0031683443
-0.012214083 -0.004738727 7.29817e-05 -0.0043481924 0.0052582244 0.018511446 -0.008068678 -0.0008355029
0.00037562798 0.010614127 -0.0032792264 0.0010738944 -0.0042148484 0.0089770565 -0.007958499 -0.006595902
-0.00021641541 0.0003388009 -0.0016029937 0.0010045398 -0.002833491 -0.0030393624 -0.0038121466 -0.0007524434
-0.0047518755 -0.004808463 -0.0028286856 -0.009134141 -0.00063500233 0.00976023 -0.0009217495 0.0050599608
-0.010721956 -0.008635744 0.003292808 -0.008944831 0.0016317515 -0.0027294694 0.0041501964 0.004690667
-0.009493335 4.0595307e-05 8.039586e-05 -0.0017955952 0.009823361 0.009290477 0.0037926005 0.0032689446
-0.015869565 0.0091841435 0.0077339234 0.0072030234 -0.0030747324 -0.00016963387 0.010579447 0.0008343951
0.013289915 -0.0033895427 0.0013841217 0.003349288 0.0038790049 -0.00750887 0.004904225 -0.005598731
-0.0031536948 0.0023867304 0.0004748011 0.0006653461 0.0029292332 -0.0026854174 -0.004665219 0.002723126
0.0073282854 -0.0055778623 0.012734448 -0.014839226 0.0023210573 -0.0006560811 -0.0059992187 0.0026744523
-0.004411522 0.000575698 0.0029722757 -0.0019197476 -0.014647706 -0.0052931993 -0.011545884 0.0053406595
0.0067798058 -0.008674515 -0.005112603 0.0060772877 -0.0047071935 -0.0071716867 0.0071759406 -0.0067967884
-0.0021690507 0.0029324042 -0.0009545143 -0.00089483935 0.00268208 -0.0032259934 -0.0063680904 0.0048519685
0.0014943084 -0.0018634094 -0.0033943243 -0.0005719209 -0.0033984252 0.005317665 -0.0070042806 0.009907435

action_model._discrete_distribution.branches.0.bias f4 [3]
00000000: 0000 0000 0000 0000 0000 0000
0.0 0.0 0.0

action_model._discrete_distribution.branches.1.weight f4 [3, 256]
00000000: 6965 193b ed8b f13b 066f 06ba e738 7abb
00000010: 1070 8bbb 6551 153c 7b4a b3bb 0f83 87bb
00000020: f7a5 3f3b 4f9b fabb f27c 723b afc3 163a
00000030: ad9f 843a 9529 1a3b 483d 51ba af9f 0bbb
00000040: 3280 80ba 0e06 0ebc 8f39 a0bb 2520 8fbb
00000050: 8488 03bc b68f 30bb d29a 2b3c 2410 45bb
00000060: 1cb6 3ebc 19bb 22bc 4269 8fbb da41 65bc
00000070: 7b57 fc3b cbdb e5ba e0b0 99bb 776f c6bb
00000080: 84ea 04bc fb12 c83a 2bd6 1bbc fa69 0d3c
00000090: 83da 00bb da16 9139 d2bc 63ba 1d6d 673a
000000a0: e57e 32bb 8b4d 26bc b671 36bb 48a5 d8ba
000000b0: c077 c63b 1301 593b 6ffb 0a3b 9a5c 7a3c
000000c0: 331f baba 3db1 36bb c985 c1bb 246f 3a3b
000000d0: 97dc 1bbc e470 8dba dd80 e5ba de32 b13b
000000e0: 3f62 003b 8b11 d13b 8e99 bd3b fa94 49bb
000000f0: 8759 c53b 6443 0e3c fa77 00bc 37e9 df3b
00000100: 8316 5839 895e a7bb 0874 d5bb 9245 083c
00000110: 56bf 013b 27a8 13bb 3fa9 3c3b 9aa3 abbb
00000120: 9007 70bb 46f0 4b3a b25f 24bb 4883 c53b
00000130: 2b1c ddbb 2a8a f93b caf0 ecbb 02f2 70bb
00000140: bce1 8ebb 7d65 d03a edfa 793a 8895 0d3c
00000150: f4ba 8e3b b4bf 203b 5bb6 4fba 170b 2abb
00000160: b672 053c 3286 eb39 3cdb 2bbc 3bad b83b
00000170: bfe3 9f3b f399 9f3b 7260 d53b 8bb2 223c
00000180: c520 be3a c3a8 afbb 7e62 3a3b 3f82 2f3c
00000190: a686 493b c7c1 e3bb f5bd 083c 42d7 f33b
000001a0: b8c2 ce3a 36d1 0d3b 081f c8bb ab44 17bc
000001b0: 00af 923b 4106 a13b e823 3639 7985 a4bb
000001c0: 4060 13bc 0be7 c5bb eaf4 9d3a 3959 0f3b
000001d0: a250 e3bb dffe e63b f9fa 843b c26d 3d3b
000001e0: dd44 e839 4b92 1e3c bf7b 753a eb8d 6e3b
000001f0: 71d3 a2bc 67ea a43b 5604 373b d8ad c03b
00000200: ff2a 3c3c bb70 48bb 8338 9f3b 52dd 483c
00000210: b5a6 5d3b aa50 583a dbb3 75ba 4f3f 78bb
00000220: 1fc9 f13a 0286 603c ad60 513c a94f 0cbc
00000230: d393 e03b a381 54bb 7f48 3c3c ca3d c2bb
00000240: fb0f f8bb 6cc3 cb3b e937 32bb e3b5 29ba
00000250: 5787 ce38 e73e a73b 12e8 663b 2c04 123b
00000260: bbf9 57bb 30a8 5ebb 47bc 1cbc 9a6c bb3a
00000270: 59c0 8dbb c9f3 973b cd0d d9b8 4f86 b53b
00000280: a3e2 ca3a d0e0 e73b 1667 c6bc 61cf 45ba
00000290: da89 7a3b dd3b 4f3b 83a6 d8ba f729 a1bb
000002a0: 8b8f 9d3b d7ab 8cbb 18ee 6abb 7d2e c23a
000002b0: 875e 033b 5be9 a63b 5f1d 3f3b a331 f739
000002c0: 7af5 d7bb bd38 243c afbb fdbb c3e6 323c
000002d0: ee0b 8e3b 9730 30bb d0e4 023c 2738 16ba
000002e0: e300 bb3a 7f88 2f3c 1bf5 3cbb 3cc0 8cb6
000002f0: a760 ce3b b21c 6cbb 233a cbbb df95 a3bb
00000300: f37f 95bb 06d8 27bc 536b 40bb e3c2 01bc
00000310: cb30 f23b 2c41 3b39 33eb 47bb e19a 13bb
00000320: b340 8cbc 9dac 78bb 50d7 fcba e7b5 7fba
00000330: d77d 4239 0f20 cfbb 833d bebb 408c f93a
00000340: 834e 453c 73a9 d0ba e7fd df3b 0715 023b
00000350: 0375 aa3a a98e c03b db1a 1a3c 5e83 07bc
00000360: 28d4 5c3b f0e6 9e3b f55b cebb 53c6 ff3b
00000370: 5332 973b c502 83b8 b8aa 2cbb c79d eb3a
00000380: efb8 a73b a144 0bba 2e0f 0abc 7b92 ec3b
00000390: 755c 593c 2b73 943a 6998 c4bb 1594 823b
000003a0: 8f94 7e3b 8151 b23b 4b76 d1ba a6ae 313b
000003b0: 5dea d0bb 2d68 a9bb 028b 523b c481 c33b
000003c0: c0bf 053c ae2d 9fbb e8d4 ea3b 14bd 813b
000003d0: 1ae1 ef3b cf3d 8f39 ede4 b0bb c70e 15bb
000003e0: e31a e339 d535 68bb 98f7 d0b9 c4c3 85bb
000003f0: 8677 8c3b 90c1 b3b9 848a ab3b 1964 acba
0.0023406392 0.007371417 -0.0005128238 -0.003818089 -0.0042553023 0.009113644 -0.0054715252 -0.0041354964
0.002924321 -0.0076479088 0.0037000743 0.0005751205 0.0010118388 0.002352332 -0.0007981849 -0.0021304896
-0.000980383 -0.008668436 -0.004889674 -0.0043678456 -0.008028153 -0.0026941127 0.010473924 -0.0030069435
-0.011640098 -0.009932303 -0.0043765614 -0.013992751 0.007700858 -0.0017536817 -0.0046902746 -0.006055768
-0.0081125535 0.0015264446 -0.009511511 0.008631224 -0.0019661493 0.0002767358 -0.0008687499 0.000882821
-0.002723628 -0.010150324 -0.0027838773 -0.001652875 0.006056756 0.0033112213 0.0021206995 0.015280867
-0.0014199972 -0.0027876638 -0.005905841 0.0028447593 -0.009513042 -0.001079109 -0.0017509718 0.005407675
0.001958981 0.006380265 0.0057861274 -0.0030758963 0.0060226354 0.008683059 -0.007841105 0.0068332213
0.00020607752 -0.005107705 -0.006514076 0.008317368 0.0019797883 -0.0022530647 0.0028787402 -0.0052380087
-0.0036625601 0.0007779639 -0.0025081453 0.006027613 -0.0067477426 0.0076153474 -0.0072308527 -0.0036765342
-0.0043604057 0.0015899386 0.0009535987 0.008641608 0.0043557826 0.0024528326 -0.00079235964 -0.0025946551
0.008145025 0.00044922676 -0.010489281 0.005635885 0.0048794444 0.004870647 0.0065117413 0.009930263
0.0014505616 -0.005360694 0.0028440054 0.010712205 0.0030750423 -0.0069505903 0.008346071 0.007441432
0.0015774583 0.0021639592 -0.006107215 -0.00923268 0.004476428 0.0049140756 0.00017370249 -0.005020794
-0.008995116 -0.0060395054 0.001205114 0.002187325 -0.0069371024 0.007049426 0.0040582386 0.0028904532
0.00044301795 0.009678434 0.0009364448 0.0036400508 -0.019876214 0.0050328257 0.0027926168 0.005880099
0.01148486 -0.003058477 0.0048590316 0.012259798 0.003382129 0.0008251766 -0.0009372809 -0.0037879532
0.001844678 0.013703825 0.012779397 -0.008563914 0.0068535595 -0.0032425902 0.011491894 -0.005927776
-0.0075702644 0.0062183645 -0.002719397 -0.00064739416 9.8480545e-05 0.005103934 0.003523354 0.0022280319
-0.0032955247 -0.003397476 -0.009566373 0.0014299334 -0.004325908 0.0046372158 -0.00010349937 0.0055396925
0.001547892 0.0070763603 -0.024219077 -0.00075458555 0.0038229139 0.0031621375 -0.0016529117 -0.0049183327
0.0048083714 -0.004292946 -0.0035847481 0.001481488 0.0020045356 0.005093736 0.0029161794 0.00047148493
-0.0065905424 0.010023293 -0.007743321 0.010919276 0.004334918 -0.002688443 0.007989123 -0.0005730413
0.0014267232 0.010713696 -0.0028832618 -4.194704e-06 0.006298143 -0.0036027846 -0.006201999 -0.0049922313
-0.004562372 -0.010244375 -0.0029360845 -0.00792 0.0073910705 0.00017857988 -0.003050518 -0.0022522735
-0.017120695 -0.0037944682 -0.0019290242 -0.00097545836 0.00018548161 -0.0063209604 -0.0058056726 0.001903899
0.012042644 -0.001591964 0.0068356874 0.001984896 0.0013004843 0.0058763814 0.009405817 -0.0082710665
0.003369579 0.0048493072 -0.006297583 0.0078056245 0.0046141534 -6.247083e-05 -0.0026346873 0.0017976098
0.0051184813 -0.00053126557 -0.008426471 0.0072196103 0.013266672 0.0011325827 -0.005999614 0.003984938
0.0038845872 0.005441845 -0.0015980689 0.0027112155 -0.0063755945 -0.0051698894 0.0032126312 0.005966397
0.008163393 -0.0048577404 0.0071664937 0.0039593074 0.0073205354 0.00027321136 -0.005398384 -0.0022744404
0.00043316846 -0.0035432477 -0.00039857323 -0.004082175 0.0042867092 -0.00034285756 0.005235018 -0.001315239

action_model._discrete_distribution.branches.1.bias f4 [3]
00000000: 0000 0000 0000 0000 0000 0000
0.0 0.0 0.0

action_model._discrete_distribution.branches.2.weight f4 [3, 256]
00000000: c839 b33b a74f 46bc 4a24 a3bb a0a7 95ba
00000010: a0d1 e2ba 43d7 bbbb 6318 09bc d70b 483a
00000020: 7b09 af3b 18b9 91ba fa22 7039 3000 ef3b
00000030: fe81 883a 773e 62bb ff66 f83b 3f0e 21ba
00000040: fdab 77ba 5c2b cb3a 38a8 67bb 85ab c5bb
00000050: e381 153b cba9 0cbb 9b34 3dbb 6681 acbb
00000060: e176 b53b e0de 933c b687 27bc 5207 63ba
00000070: b701 603b 6ce0 1abc 377d 85bb 18c5 833b
00000080: b7e1 7a3b f5b5 e4bb 8ff6 56ba a316 04bc
00000090: bbf6 5cbb c225 86bb b9dc 08bc 60e1 86bb
000000a0: 55e7 24bb 878e 2fbc d829 043b d0a7 663a
000000b0: 0332 c837 3bdc 9fbb ce78 04bc 01b5 b8bb
000000c0: fb37 bf3b 63f5 dc3b 57b5 703b 080d 573c
000000d0: d7a5 24bc 6851 003c 1bd6 5a3b 9891 e1bb
000000e0: bf54 79bb 48a8 833c b865 0c3c b8fa 653c
000000f0: af31 babb aa6a 223c 3fd2 61bc c168 203b
00000100: 8455 93bb 9e4c 283c e8f3 673b a546 34b8
00000110: 8db4 f03a 1212 d73b d7f7 043c 70ce 073c
00000120: 6aea d23a f322 bcbb e095 e9bb e270 2ebc
00000130: 9353 ef3b 3807 4b3b d31f 893a 032c c03b
00000140: 0bda fbbb f4f8 0cbc fbde 1b3b 381a 1e3b
00000150: 116a 9abb cd15 a4bb a8ac 7d3b 32a0 4e3b
00000160: 120f e63b 24bf 8dbb 2aff f63a 6fbd bdbb
00000170: 4127 bebb b88e 1cbc 9d56 043c cf17 c33b
00000180: 6eb3 023b dfc8 9f3a 6a68 513c 7747 bb3a
00000190: b337 cabb 53ed e338 bf7b b53b 75d2 64bb
000001a0: 8346 1e3a 725f fe3b 7fc0 aeb5 bdf0 e13b
000001b0: 486a a2bb 4eaf 0d3c 8582 9dbb 779f f83b
000001c0: 5185 40ba cd39 14bc b07c 9dbb 15cc df3a
000001d0: 0122 44bc 7bb5 053c 2d91 0ebb fa08 b03a
000001e0: f3c9 453b fe06 ae3b a7bf acbb aae9 8c3a
000001f0: 5c90 0bbb a6d1 133c 03e8 e83b 15ba 643c
00000200: 8893 4cba 597b 3dbb 9f23 8d3a 254a 65b9
00000210: 4c28 033c 00e0 563c adb4 31bc dbdd cdbb
00000220: 4480 9ebb ae2f 3cbb a9bb 11bc 2b20 283b
00000230: 5d7a 24bb 5d29 99bb d6f6 24bb e46f 993b
00000240: 97f4 40b7 150c d4b9 8ee3 3c3a 9f36 d9ba
00000250: c31e 263c 98f1 cf39 e6be c7bb ab46 9eb9
00000260: 29b7 3dbc 1ba4 17bc 844a 29bc 24bb 383a
00000270: 1ae7 b6ba e305 cb3b 8582 dd3b a1f6 233c
00000280: f01f e2bb 8f16 013c c7f7 693c 19aa 293c
00000290: 3bb4 d438 ca91 ee3b ae34 0ebb f3ae 3ebc
000002a0: e7fa 0e3c d07a fb3b cf67 4abb 484c c63b
000002b0: 92dd e63b 34cd 05bc 4fab 453c a203 bb3b
000002c0: 64c8 b9bb 5a83 733b f263 f53a fd9b bd3b
000002d0: 545a aa3b c3ce 9bb6 3681 993b 66df 823b
000002e0: a2df 7ebb 2033 bfbb 9a5c 883a b92a 2c3b
000002f0: c695 80bb b3d1 8538 f969 263c fac5 db3a
00000300: 0070 863b 882e e63b 3f40 673b e7b6 11bb
00000310: d752 93bb 588f 753c ed39 563a d83c 2b3c
00000320: b785 183c cfc3 6e3b f70b 49bc 1361 e43b
00000330: b754 8a3a c54f 783b f772 433b 0608 ca3a
00000340: 17da 6bbb 2766 163b 0b1e 89bb f719 ffbb
00000350: 7b08 103c a519 27bc b091 dc39 83b3 423b
00000360: ce49 2b3b dfe8 763a eaef 583b 6373 2f3c
00000370: 2d71 67bb 7836 d0ba b4d1 11bb 3dfb cebb
00000380: c0be 3b3c 536f 83bb 1bb8 bbbb 60ac 603c
00000390: fb72 cbbb 1409 003b a37f 483b 9f79 97ba
000003a0: cda4 753b 3fac 9a3b e7b4 c3ba 623a ccbb
000003b0: 8dd5 253a ef52 98bb 9fab d9ba 041b 2c3b
000003c0: 2584 01bb 7e0c 3cba 9a8b c23b f95a 24bb
000003d0: 1bfc 16bb 9922 9cbb bfc0 59bb ff62 223c
000003e0: d887 d5b9 fff1 7c3b 9c5d 113c d23d 273c
000003f0: 5b85 4c3b 5cca 933a f7ab e2bb c05c f4bb
0.0054695345 -0.012103952 -0.004978691 -0.0011417754 -0.0017304905 -0.0057324483 -0.008367631 0.0007631159
0.0053417063 -0.0011117784 0.00022901213 0.0072937235 0.0010414717 -0.0034522095 0.0075806375 -0.00061437854
-0.00094479305 0.0015500593 -0.003534807 -0.0060324096 0.0022813014 -0.002146351 -0.0028870467 -0.005264449
0.005537853 0.018050611 -0.010225227 -0.00086604536 0.003418071 -0.00945292 -0.0040737647 0.004021298
0.003828151 -0.006979699 -0.0008200192 -0.008062038 -0.0033716399 -0.0040938566 -0.008353406 -0.0041162223
-0.0025162299 -0.0107151335 0.0020166542 0.000879881 2.3865146e-05 -0.0048785484 -0.008085443 -0.0056368117
0.005835531 0.0067431196 0.003672918 0.0131256655 -0.010049305 0.007831909 0.0033391777 -0.006883811
-0.0038044897 0.016071454 0.0085691735 0.014036827 -0.0056821923 0.009913126 -0.013783037 0.00244765
-0.0044962782 0.010272173 0.0035393182 -4.2981137e-05 0.0018364355 0.0065634334 0.00811573 0.008288965
0.0016091589 -0.005741471 -0.007128462 -0.010647031 0.007303664 0.0030979645 0.0010461755 0.0058646216
-0.007685905 -0.008604277 0.002378403 0.0024124514 -0.004712351 -0.0050074817 0.0038707647 0.003152859
0.0070208395 -0.0043257643 0.0018844355 -0.0057904045 -0.0058030193 -0.009555511 0.008077291 0.005953766
0.0019943374 0.0012190602 0.012781242 0.0014288266 -0.0061711906 0.000108684086 0.0055384333 -0.0034915481
0.0006037729 0.007762843 -1.3020034e-06 0.0068951533 -0.0049565174 0.008647753 -0.004806819 0.007587369
-0.00073440844 -0.009046984 -0.0048061237 0.0017074371 -0.011970998 0.008160944 -0.0021754012 0.001343041
0.0030180186 0.005310892 -0.00527187 0.001075079 -0.0021295762 0.009022152 0.007107736 0.013960381
-0.00078039663 -0.0028912632 0.0010768062 -0.00021866763 0.008005213 0.013114929 -0.010846299 -0.0062825507
-0.004837068 -0.0028714943 -0.008894839 0.002565394 -0.0025097348 -0.0046741203 -0.002517154 0.004682528
-1.150104e-05 -0.00040444793 0.0007205539 -0.0016572064 0.01013917 0.00039662118 -0.006095755 -0.0003018876
-0.011579313 -0.009255434 -0.010332707 0.0007046929 -0.0013954372 0.00619577 0.006759944 0.010007531
-0.00690078 0.007878914 0.014280266 0.010355496 0.00010142518 0.007280563 -0.002169888 -0.011638391
0.008726812 0.0076745525 -0.0030884629 0.006051574 0.007045456 -0.0081666 0.012064769 0.00570722
-0.0056696404 0.003715715 0.0018721803 0.0057864175 0.0051987562 -4.64343e-06 0.0046845926 0.0039939163
-0.003889062 -0.005834952 0.0010403574 0.0026270582 -0.0039241044 6.380994e-05 0.010157102 0.0016767376
0.004102707 0.00702459 0.0035286096 -0.0022234262 -0.0044959593 0.014987789 0.0008172084 0.010451518
0.009309224 0.003643263 -0.012270919 0.00696958 0.0010553811 0.0037889343 0.0029823163 0.0015413768
-0.0035988146 0.002294907 -0.0041844896 -0.0077850777 0.008791084 -0.010198985 0.00042070216 0.0029709048
0.002613652 0.0009418856 0.0033101984 0.010708663 -0.003531526 -0.0015885374 -0.0022250237 -0.006316571
0.011459053 -0.0040110736 -0.005728734 0.013712972 -0.006208775 0.001953666 0.0030593656 -0.0011556632
0.0037482262 0.0047202404 -0.0014931232 -0.0062325457 0.0006326072 -0.0046485583 -0.0016606933 0.002626122
-0.0019762602 -0.00071734923 0.005937052 -0.0025078638 -0.002303845 -0.0047648665 -0.0033226458 0.009911298
-0.00040727737 0.003859639 0.008872416 0.01020761 0.0031207416 0.0011275518 -0.0069174725 -0.0074573457

action_model._discrete_distribution.branches.2.bias f4 [3]
00000000: 0000 0000 0000 0000 0000 0000
0.0 0.0 0.0

action_model._discrete_distribution.branches.3.weight f4 [2, 256]
00000000: d33e 6b3b 3586 be3b 93ee acbb b7a0 1abc
00000010: 78bb 8fbb 2a83 d03b 9d1e cc3b c4e0 8ebb
00000020: e8c1 0b3b 3f3d ae3b 4b9f e438 427e 583c
00000030: c36d 5f3a 9770 83bb 5537 d2bb 04dd a53b
00000040: 7931 393c 59a1 b23a 95a0 9a3b bedf 35bc
00000050: e9fd 133b dab1 d8bb 433d a3b9 0bab e8b8
00000060: ac92 043c c35d 643b 0ce4 0b3b e0e0 62bb
00000070: 5399 66b9 eb1b adbb d8df d8bb 6b5c f43a
00000080: 0fb0 9abb bb13 e53b 5713 8bbb 838b f1bb
00000090: 2c52 b6bb 1532 25bb 3fb2 8ebb 1dbd 3ebc
000000a0: 9702 a93b d7a7 c13b 846c 363c 1656 3f3a
000000b0: fa8e 63bb c073 773a 589e eb3b a47e 873c
000000c0: 0a51 86bb d938 89ba a174 38bb 7f77 5a3b
000000d0: a773 95bb 424c 373c b304 cb3a e287 d7b9
000000e0: d0bf 6039 2049 10bc 70dc ce3b 7bf2 173c
000000f0: 5262 543a b466 8439 a79d dfb8 1fce 7a3b
00000100: f8d5 f33b 5a4b 4f3b 2a45 14bb 5d8b 1d3c
00000110: 9d60 0ebb ba31 933a 47e8 d23b 1ada 6fb9
00000120: d8b4 ed3b c56e 73bb bb56 5ebb 6d57 c03a
00000130: 3209 0f3c 4718 a8bb 3af5 c63a 7f19 b73a
00000140: 368c 083c 1f1c 63ba 4aa3 fcbb 27f8 1cbb
00000150: 6ce1 c93b 73d6 7fba 12dd 823b b8b0 0dbc
00000160: 8be0 09bc fe81 0fbc 6725 873a 933f 923b
00000170: 6a67 f23b 1fea 02bc 0bb2 bf3b aef3 89b9
00000180: 7f43 a93a 5944 183c 59ee 82bb 351b 303c
00000190: c0d2 143c 4d96 ecbb bdeb 5c3c 13b1 863b
000001a0: 777e 9dba 6d6c cfbb 33fb edba 3f7b 953b
000001b0: 786d 273c 186e 9d3b 6fcf 003c 15df 6139
000001c0: eb8e 1ebc 43f3 123c ab6c fe3a 910c c93b
000001d0: ac30 2ebc 285b 833b afa1 c5ba 3d65 a2bb
000001e0: 7f68 2c3b 1de1 abb9 9066 6a3c 7024 e53b
000001f0: 4489 133a e69a c9ba 1d8b 6a3b d364 e4bb
00000200: 1893 983b 2b48 a93b be9c 96bb 8583 4cba
00000210: bbfb 8abc 202f 3abb dfaf ae3b 522b 71bb
00000220: efc1 69ba ffb4 e53a 1346 25bb ca19 523b
00000230: 5831 22bc 978a 4d3b 9786 d33a 70d2 753b
00000240: d4fc 0abc 23c4 ae3b f75c 0dbc 77ad aebb
00000250: 85c7 473c b201 ddb9 bf65 3f39 067d c0bb
00000260: b0db 9db9 c72e 17bb 5ad9 7b3b 4069 fcbb
00000270: 486a 6fba 6cfa 10ba a788 84bb e70e 00bb
00000280: 378a 3dbb dbdb 8d3a 025e 733a 2aa3 f8ba
00000290: dd2d c23a c5b1 f8bb 4de8 423b edb8 7cbb
000002a0: 3845 503b 304c 743b 4440 9c3a 5e71 89bb
000002b0: ff3d 7d3b 0cfe a8bb f7e5 9a3b 9d2f f2bb
000002c0: 1d9d 1c3c 6d12 f7bb c349 8d3b 9ad8 f9bb
000002d0: 7f7f dcba 9f2d 04bb a692 ab3b 7fa7 f83b
000002e0: bf82 17bc 3874 7abb 6b77 84bb 7057 8f3b
000002f0: 0a52 f4bb 6d40 ac3b 88d0 51ba 3cdd 38bc
00000300: a7e9 7cbb 78a6 ea3b 41ec 83bb 8bff 273b
00000310: 812f 27ba 9045 053c 2bfc 97bb 87ed 95bb
00000320: 4874 57bb c3fe 44bc 6bc7 df3b 808d a33b
00000330: 19ab 22b7 055f 03bc 1b4a 233a 86e8 b9ba
00000340: 0026 523b ac7e 1bbc d632 06bc e299 dd3a
00000350: b268 88ba 677b a03a 5e5d 2dbc ebb0 263c
00000360: 8726 26bc ede6 a2ba 578e 54bc 81ee 95bc
00000370: e556 b73b 0c21 1bbc 55a5 0fba 1427 c2ba
00000380: e939 33bc 22a1 7c3b 74a0 00bc 7a78 5e3a
00000390: 2a97 71bb 1ff0 7f3a 6089 3e3c 1d6e 5d3b
000003a0: 778b 80bb 3b5d 8fba e1cb c03a 93ca f03b
000003b0: 0c87 393a d342 a53a 150f d13b db1a 773b
000003c0: 6049 c83b 8a32 0d3b 7bf5 11bb 4ea4 3e3b
000003d0: 6a42 413a efa3 febb 23b1 9d3a 0559 8839
000003e0: 3f41 8e3b 7396 f2bb 0cc1 4bbb 5063 783b
000003f0: 0f50 323c e2df fdba c0a1 babb a72b ce3b
0.00358956 0.0058143386 -0.0052774637 -0.0094377315 -0.0043863617 0.006363292 0.0062292353 -0.0043602902
0.0021325294 0.0053173597 0.00010901558 0.013213696 0.00085231307 -0.0040112245 -0.0064152875 0.0050617475
0.011303299 0.0013628408 0.00471885 -0.011100708 0.0022581762 -0.0066129984 -0.00031135426 -0.00011094481
0.00809161 0.0034845925 0.0021345643 -0.00346189 -0.00021991627 -0.005282869 -0.006618481 0.0018643265
-0.004720695 0.0069908774 -0.004244249 -0.0073713674 -0.005563995 -0.0025206853 -0.0043547447 -0.011641768
0.0051577794 0.0059099006 0.011134271 0.00072988996 -0.0034722672 0.00094395503 0.007190507 0.01653988
-0.004099016 -0.0010469212 -0.0028145688 0.0033335385 -0.004560906 0.011187615 0.0015489071 -0.00041109236
0.0002143376 -0.008806497 0.0063128993 0.00927412 0.0008101809 0.00025253522 -0.00010662834 0.003826983
0.0074412785 0.0031630606 -0.0022624233 0.009615746 -0.0021725066 0.001123003 0.006436381 -0.00022874065
0.0072542243 -0.0037144881 -0.0033926207 0.0014674492 0.00873022 -0.005129847 0.0015179284 0.001396939
0.00833421 -0.0008663553 -0.0077098953 -0.0023951621 0.0061609056 -0.00097594335 0.003993639 -0.00864809
-0.008415352 -0.00875902 0.0010310829 0.004463145 0.007397582 -0.007990389 0.005850082 -0.00026312232
0.0012913792 0.009293639 -0.0039956984 0.010748674 0.00908345 -0.0072200657 0.013483939 0.0041104644
-0.0012015839 -0.006330064 -0.0018156528 0.004561811 0.0102189705 0.004804384 0.007861956 0.00021540777
-0.009677629 0.008969131 0.0019411048 0.0061355312 -0.0106317215 0.0040086694 -0.0015078093 -0.004955916
0.0026307402 -0.00032783384 0.014306679 0.006992869 0.0005628059 -0.0015381246 0.0035788484 -0.006970027
0.004656207 0.005166074 -0.004596322 -0.00078015804 -0.016965738 -0.0028409436 0.005331024 -0.0036799503
-0.0008917143 0.0017525255 -0.002521877 0.0032058829 -0.00989946 0.0031363124 0.0016138133 0.0037509464
-0.0084831305 0.00533344 -0.008628122 -0.005330737 0.012193565 -0.00042153668 0.00018253083 -0.005874279
-0.00030109053 -0.0023068653 0.0038429112 -0.0077029765 -0.00091329636 -0.000553048 -0.0040446105 -0.0019540132
-0.0028921494 0.0010822968 0.00092837226 -0.0018969525 0.0014814694 -0.007589551 0.0029740513 -0.0038562373
0.003177954 0.0037276857 0.0011921008 -0.0041944226 0.003864169 -0.005157238 0.004727121 -0.00739093
0.009558943 -0.0075400383 0.0043117716 -0.007624698 -0.0016822665 -0.0020168794 0.0052359877 0.0075883265
-0.009247481 -0.0038216244 -0.004042556 0.004374437 -0.007456069 0.0052567036 -0.0008003791 -0.011283215
-0.0038591416 0.007160958 -0.0040259664 0.0025634493 -0.0006377623 0.008134261 -0.004638215 -0.0045754346
-0.0032875706 -0.012023631 0.0068291924 0.0049912333 -9.695789e-06 -0.00801826 0.0006228999 -0.0014183677
0.0032066107 -0.00949065 -0.008190831 0.0016906823 -0.0010407178 0.0012243808 -0.0105813425 0.0101740165
-0.010141022 -0.001242844 -0.01297339 -0.018302204 0.0055950754 -0.009468328 -0.00054796535 -0.0014812672
-0.0109391 0.003854819 -0.007850755 0.00084865803 -0.0036863782 0.0009763259 0.011629432 0.0033787556
-0.0039228755 -0.0010937819 0.0014709198 0.0073483675 0.00070773135 0.0012608416 0.0063799717 0.0037705216
0.0061122626 0.0021545016 -0.0022271562 0.0029089632 0.0007372262 -0.0077710073 0.001203094 0.00026006266
0.004341274 -0.007403189 -0.0031090407 0.0037900992 0.010883345 -0.001936909 -0.0056955516 0.006291825

action_model._discrete_distribution.branches.3.bias f4 [2]
00000000: 0000 0000 0000 0000
0.0 0.0

network_body.observation_encoder.processors.0.normalizer.running_mean f4 [17]
00000000: ddf2 42bb 56f2 633b 7c9c ca3e a3c1 143f
00000010: dbbf 3441 f990 45bd eb46 093f a4f5 473e
00000020: 8635 bdc0 6b39 233c 7554 da3b d7cc 303c
00000030: 8635 bdc0 be9e 9c3c 06ae 1442 b636 9c40
00000040: 0c5d 3bc3
-0.0029746809 0.0034781895 0.39572513 0.58107966 11.29684 -0.04823396 0.5362384 0.19527298
-5.9127836 0.00996242 0.0066629 0.010791025 -5.9127836 0.019118663 37.169945 4.8816786
-187.36346

network_body.observation_encoder.processors.0.normalizer.running_variance f4 [17]
00000000: f098 b244 d4e1 af44 608a ed44 f427 6f45
00000010: dd93 e948 d079 1448 6e9f a648 bee2 c347
00000020: adc7 f248 9b32 8945 6f17 aa45 5e0f aa45
00000030: adc7 f248 8314 8945 1158 a14c e3c1 7a47
00000040: 6c17 a34d
1428.7793 1407.0571 1900.3242 3826.497 478366.9 152039.25 341243.44 100293.484
497213.4 4390.3257 5442.929 5441.921 497213.4 4386.564 8.459073e+07 64193.887
3.4202765e+08
