config/results/negative-reward-double-toch/Volleyball/Volleyball-675.pt (torch, 577575 bytes, 26 tensors)

discrete_act_size_vector f4 [1, 4]
00000000: 0000 4040 0000 4040 0000 4040 0000 0040
3.0 3.0 3.0 2.0

network_body.observation_encoder.processors.0.normalizer.running_mean f4 [11]
00000000: 6989 9d3d b0e1 373d 79da c63e ac4d c13e
00000010: 46ec 2341 490f 7d3d ea1e 6b3f 3462 ffba
00000020: 1ec5 e7c0 e6fd 173e c81a 4c3e
0.076922245 0.044892967 0.38838556 0.3775457 10.245184 0.061782155 0.91844046 -0.0019484223
-7.242812 0.14842948 0.19932091

network_body.observation_encoder.processors.0.normalizer.running_variance f4 [11]
00000000: 8a0e ab42 5958 ae42 6380 b342 79b1 9643
00000010: 8890 c746 52eb d145 f384 6e46 82ef 9845
00000020: 227f 4b46 e067 4044 f1f3 a044
85.5284 87.172554 89.750755 301.3865 25544.266 6717.415 15265.237 4893.9385
13023.783 769.62305 1287.6232

network_body.processors.0.normalizer.running_mean f4 [11]
00000000: 6989 9d3d b0e1 373d 79da c63e ac4d c13e
00000010: 46ec 2341 490f 7d3d ea1e 6b3f 3462 ffba
00000020: 1ec5 e7c0 e6fd 173e c81a 4c3e
0.076922245 0.044892967 0.38838556 0.3775457 10.245184 0.061782155 0.91844046 -0.0019484223
-7.242812 0.14842948 0.19932091

network_body.processors.0.normalizer.running_variance f4 [11]
00000000: 8a0e ab42 5958 ae42 6380 b342 79b1 9643
00000010: 8890 c746 52eb d145 f384 6e46 82ef 9845
00000020: 227f 4b46 e067 4044 f1f3 a044
85.5284 87.172554 89.750755 301.3865 25544.266 6717.415 15265.237 4893.9385
13023.783 769.62305 1287.6232

network_body._body_endoder.seq_layers.0.weight f4 [256, 11]
00000000: 1cb6 473f b116 1ebf fc6a 14bd 8d18 55be
00000010: 3b48 e2bd 3d36 1a3e 5312 173c 5305 38be
00000020: 6143 483f 9c01 973e 7e1e a13e 6e4e 03bd
00000030: a44d 13bf 9397 6f3e 6c19 703e a25e 1b3d
00000040: f7c9 8d3e 5f8c 24bd 37ee b23d 1562 b6be
00000050: fc19 03bf eba6 8bbe 5c4c 78bf 266d 4ebe
00000060: c61a 8d3c 501c 53be efb0 f53d c174 4bbe
00000070: b127 d9bd 3fbc 223e 64a3 c33d 49d8 143f
00000080: 574d 9f3e 5147 f9bb cf3a 1dbf ce47 bf3d
00000090: 513a 0dbf 9619 1abe b853 94be 0b0f 43be
000000a0: 70fd 473e db30 0abf 9d81 5bbd f7f9 c43e
000000b0: 24a8 01be b7f0 bcbe fd7b 30bf d6be d7be
000000c0: c279 143e c249 abbe 0d9f e83e 13a9 c5be
000000d0: 8d65 8c3e fc5b 9a3e 5c8d adbd dca8 e43e
000000e0: 00e6 66be 08d1 eb3d 727f f53e 869a 813e
000000f0: 1d74 a13c 51d8 a93e 05aa 043f 6c84 ad3e
00000100: c9ac 42be a7f9 9bbe b103 ddbe f341 4ebe
00000110: 17b3 08be a9e2 1dbe 062a 4bbe ef0a 81bd
00000120: a45f 00bf 1435 be3d 1e0d 7dbe ad31 fe3e
00000130: 6cf2 003f 67f7 763e 8a10 50be b035 26be
00000140: 2e3c 703e c375 3e3e 501b eb3d 8d60 4e3f
00000150: 6393 163e b2e5 993e b08b 1cbf 5ac2 00be
00000160: ddec b23c 2e6a 8a3d 301f 453e def9 ce3e
00000170: 717b 373e 728a 763e 352f 2d3e a205 1abf
00000180: 229a 2d3d 527a e53d b514 253e f9c0 7c3e
00000190: a220 aa3e 352c 5a3e f1f9 b4be ca85 343e
000001a0: b914 433f 2606 293e c941 f03e 4126 bc3d
000001b0: ee22 043f 1c92 3e3e 8b0d c8be a5bc 51be
000001c0: 5613 2f3e 2b44 c0be d015 6cbd 178c f6bd
000001d0: b66d af3e fe61 44bf 56fa ea3e 64b1 a93d
000001e0: dcae 1e3e 422d 893e 8a6f 1a3e 426f 75be
000001f0: 59aa 58bc f3b0 46bd 6697 a7be 3a74 303b
00000200: c5f8 edbd 953c 65be f2e7 f7be 065c b53c
00000210: dabe a83e fd7e 573e c948 0a3d f966 0cbe
00000220: 6d57 eb3d 3cfd 8cbe 8e79 64bc 974c 71be
00000230: d513 dfbe 968f 4ebd bbac 553b 242c 47be
00000240: c63e eebe a49d 82be 95c4 08bf 1d7e 1abe
00000250: 25ce 053f c474 0b3e 08ed b4bc a6e8 d23e
00000260: 675b 063f 390d 12bf 89bf 993e 3ccf 113e
00000270: 652f 0bbd 0e5e 6b3e 7db1 a2be f5aa 0d3f
00000280: 4a01 453e e432 223e 1f44 853d 3b08 73be
00000290: 048c 6e3e 424c 563f 445e 30bf e1bb 0cbd
000002a0: 901c f93d cf68 5d3e 9a3f 283e 21cf d93e
000002b0: 02ab 8ebe 2bc8 f83d 7056 f93d 0c6e 0ebf
000002c0: 1b0b 1abf acf8 8ebe 18fe bfbc c999 563e
000002d0: d25c b33d 4c6e 98be ef7b 42be 34f3 17be
000002e0: fc0b e5be 6c78 00be 4a25 b83e b623 d53d
000002f0: 786f 993d c629 2abc c59e 893d 9baf 103d
00000300: 3bbb 29bd 729e 443f 728b 4f3d 9c63 c3be
00000310: 761d 0bbe 778e a2be 11b8 ee3e 4330 a9be
00000320: 95dd 28bc ff65 03bd d88f 793e 8d66 c23d
00000330: 68a2 6e3e aaf7 6f3e d8bc 4a3f 6c59 003e
00000340: 4933 8a3e 77fe 923e 03a6 57bc 3b9b ce3b
00000350: 06a0 efbd 190c b5be 0d12 dabd 2707 8fbe
00000360: ebf5 473e f659 4b3d 47a1 203f 444f a33d
00000370: 69fc 043e a93f 3bbe bd12 c23e 4890 45bc
00000380: 72d0 8f3e b202 13bf 0752 7cbd f885 8bbe
00000390: d965 04bd 5ad9 523d ece8 81be db3b d13d
000003a0: f403 7f3e 3730 09bc edc5 b93d a4dd 8e3e
000003b0: 2a48 1dbe 0cb9 99be 94a4 bfbc 1caf 253c
000003c0: a72a 4abe 457a de3e b67a 2c3d 2822 e23e
000003d0: e312 77be 4293 b0bd 2a49 bcbe 361f 953d
000003e0: 750b 6dbe 4801 48bd ab5e 8c3e 1a26 a83e
000003f0: cac0 313f 4887 c23e bdbc e53e 8c01 0c3f
0.7801225 -0.61753374 -0.03623484 -0.20810147 -0.11048933 0.15059753 0.009220677 -0.17970781
0.7822781 0.29493415 0.31468576 -0.03205722 -0.57540345 0.23397665 0.23447198 0.037932046
0.2769315 -0.04017293 0.08736842 -0.35621706 -0.51211524 -0.27275786 -0.96991515 -0.20158824
0.01722468 -0.20616269 0.11996638 -0.19868757 -0.10603274 0.15892123 0.09552649 0.58142525
0.31113693 -0.0076073785 -0.6141786 0.093398675 -0.5516711 -0.15048823 -0.28970122 -0.19048707
0.19530272 -0.539808 -0.053590406 0.38471958 -0.12661797 -0.369024 -0.6893919 -0.42137784
0.14499572 -0.3345471 0.45433846 -0.38605556 0.27421227 0.30148304 -0.08474228 0.4466008
-0.22548676 0.11514479 0.47948796 0.25313205 0.019708687 0.3317285 0.5182193 0.33890092
-0.19011225 -0.30463907 -0.4316688 -0.20142345 -0.13349567 -0.15418495 -0.1984025 -0.063009135
-0.50145936 0.092874676 -0.24712035 0.49647275 0.50369906 0.24117814 -0.20318809 -0.16231418
0.23460457 0.1859961 0.11479819 0.80616075 0.14704661 0.30058056 -0.61150646 -0.12574139
0.02184146 0.067585334 0.19250178 0.4042501 0.17918183 0.2407625 0.1691254 -0.60164845
0.04238332 0.112049714 0.1612118 0.24682988 0.33228022 0.21305926 -0.3534694 0.17629161
0.76203495 0.16506252 0.4692519 0.09186984 0.516158 0.18610424 -0.39072832 -0.20482118
0.1709722 -0.37552008 -0.05763799 -0.12038439 0.3426339 -0.76712024 0.45894116 0.08285788
0.15496391 0.2679234 0.15081611 -0.23968223 -0.013224208 -0.048508596 -0.32732695 0.0026924745
-0.11619715 -0.22386391 -0.48419148 0.022138607 0.32958108 0.21044536 0.03376082 -0.13711156
0.114912845 -0.27536952 -0.0139449965 -0.23564373 -0.43569818 -0.050429903 0.0032604176 -0.19450432
-0.46532267 -0.25510895 -0.5342496 -0.15087171 0.52267677 0.13618761 -0.022085682 0.41193122
0.5248322 -0.57051426 0.30028942 0.1423921 -0.033980746 0.22985098 -0.31776038 0.55338985
0.19238773 0.15839726 0.06507134 -0.23733608 0.23295599 0.8371011 -0.6889384 -0.034358863
0.12163651 0.21622013 0.16430512 0.4254084 -0.27864844 0.12147554 0.1217469 -0.5563667
-0.60173196 -0.27924097 -0.023436591 0.20957102 0.087579384 -0.2977165 -0.1899259 -0.14838868
-0.44735706 -0.12545937 0.3596595 0.10407202 0.07491964 -0.010385936 0.06719736 0.03532372
-0.041438323 0.7680427 0.050670095 -0.38161933 -0.13585457 -0.31749317 0.46624807 -0.33044633
-0.0103067355 -0.032079693 0.24371278 0.09492216 0.2330414 0.2343432 0.791944 0.12534112
0.26992252 0.28709766 -0.013162139 0.006305126 -0.11700444 -0.35360792 -0.10647974 -0.27935144
0.19527404 0.04964634 0.6274609 0.07974103 0.12986912 -0.18286003 0.3790492 -0.012058325
0.2808872 -0.5742599 -0.061601665 -0.27250648 -0.032323692 0.051476814 -0.25373018 0.10216495
0.24903852 -0.008373312 0.090709545 0.27903473 -0.1535956 -0.30023992 -0.023393907 0.01011255
-0.19742833 0.4345266 0.042109214 0.44166684 -0.24128298 -0.08621837 -0.3677457 0.07281344
-0.23148902 -0.048829347 0.27415976 0.3284157 0.694348 0.37993836 0.44870558 0.5468986

network_body._body_endoder.seq_layers.0.bias f4 [256]
00000000: 0000 0000 0000 0000 0000 0000 0000 0000
00000010: 0000 0000 0000 0000 0000 0000 0000 0000
00000020: 0000 0000 0000 0000 0000 0000 0000 0000
00000030: 0000 0000 0000 0000 0000 0000 0000 0000
00000040: 0000 0000 0000 0000 0000 0000 0000 0000
00000050: 0000 0000 0000 0000 0000 0000 0000 0000
00000060: 0000 0000 0000 0000 0000 0000 0000 0000
00000070: 0000 0000 0000 0000 0000 0000 0000 0000
00000080: 0000 0000 0000 0000 0000 0000 0000 0000
00000090: 0000 0000 0000 0000 0000 0000 0000 0000
000000a0: 0000 0000 0000 0000 0000 0000 0000 0000
000000b0: 0000 0000 0000 0000 0000 0000 0000 0000
000000c0: 0000 0000 0000 0000 0000 0000 0000 0000
000000d0: 0000 0000 0000 0000 0000 0000 0000 0000
000000e0: 0000 0000 0000 0000 0000 0000 0000 0000
000000f0: 0000 0000 0000 0000 0000 0000 0000 0000
00000100: 0000 0000 0000 0000 0000 0000 0000 0000
00000110: 0000 0000 0000 0000 0000 0000 0000 0000
00000120: 0000 0000 0000 0000 0000 0000 0000 0000
00000130: 0000 0000 0000 0000 0000 0000 0000 0000
00000140: 0000 0000 0000 0000 0000 0000 0000 0000
00000150: 0000 0000 0000 0000 0000 0000 0000 0000
00000160: 0000 0000 0000 0000 0000 0000 0000 0000
00000170: 0000 0000 0000 0000 0000 0000 0000 0000
00000180: 0000 0000 0000 0000 0000 0000 0000 0000
00000190: 0000 0000 0000 0000 0000 0000 0000 0000
000001a0: 0000 0000 0000 0000 0000 0000 0000 0000
000001b0: 0000 0000 0000 0000 0000 0000 0000 0000
000001c0: 0000 0000 0000 0000 0000 0000 0000 0000
000001d0: 0000 0000 0000 0000 0000 0000 0000 0000
000001e0: 0000 0000 0000 0000 0000 0000 0000 0000
000001f0: 0000 0000 0000 0000 0000 0000 0000 0000
00000200: 0000 0000 0000 0000 0000 0000 0000 0000
00000210: 0000 0000 0000 0000 0000 0000 0000 0000
00000220: 0000 0000 0000 0000 0000 0000 0000 0000
00000230: 0000 0000 0000 0000 0000 0000 0000 0000
00000240: 0000 0000 0000 0000 0000 0000 0000 0000
00000250: 0000 0000 0000 0000 0000 0000 0000 0000
00000260: 0000 0000 0000 0000 0000 0000 0000 0000
00000270: 0000 0000 0000 0000 0000 0000 0000 0000
00000280: 0000 0000 0000 0000 0000 0000 0000 0000
00000290: 0000 0000 0000 0000 0000 0000 0000 0000
000002a0: 0000 0000 0000 0000 0000 0000 0000 0000
000002b0: 0000 0000 0000 0000 0000 0000 0000 0000
000002c0: 0000 0000 0000 0000 0000 0000 0000 0000
000002d0: 0000 0000 0000 0000 0000 0000 0000 0000
000002e0: 0000 0000 0000 0000 0000 0000 0000 0000
000002f0: 0000 0000 0000 0000 0000 0000 0000 0000
00000300: 0000 0000 0000 0000 0000 0000 0000 0000
00000310: 0000 0000 0000 0000 0000 0000 0000 0000
00000320: 0000 0000 0000 0000 0000 0000 0000 0000
00000330: 0000 0000 0000 0000 0000 0000 0000 0000
00000340: 0000 0000 0000 0000 0000 0000 0000 0000
00000350: 0000 0000 0000 0000 0000 0000 0000 0000
00000360: 0000 0000 0000 0000 0000 0000 0000 0000
00000370: 0000 0000 0000 0000 0000 0000 0000 0000
00000380: 0000 0000 0000 0000 0000 0000 0000 0000
00000390: 0000 0000 0000 0000 0000 0000 0000 0000
000003a0: 0000 0000 0000 0000 0000 0000 0000 0000
000003b0: 0000 0000 0000 0000 0000 0000 0000 0000
000003c0: 0000 0000 0000 0000 0000 0000 0000 0000
000003d0: 0000 0000 0000 0000 0000 0000 0000 0000
000003e0: 0000 0000 0000 0000 0000 0000 0000 0000
000003f0: 0000 0000 0000 0000 0000 0000 0000 0000
0.0 0.0 0.0 0.0 0.0 0.0 0.0 0.0
0.0 0.0 0.0 0.0 0.0 0.0 0.0 0.0
0.0 0.0 0.0 0.0 0.0 0.0 0.0 0.0
0.0 0.0 0.0 0.0 0.0 0.0 0.0 0.0
0.0 0.0 0.0 0.0 0.0 0.0 0.0 0.0
0.0 0.0 0.0 0.0 0.0 0.0 0.0 0.0
0.0 0.0 0.0 0.0 0.0 0.0 0.0 0.0
0.0 0.0 0.0 0.0 0.0 0.0 0.0 0.0
0.0 0.0 0.0 0.0 0.0 0.0 0.0 0.0
0.0 0.0 0.0 0.0 0.0 0.0 0.0 0.0
0.0 0.0 0.0 0.0 0.0 0.0 0.0 0.0
0.0 0.0 0.0 0.0 0.0 0.0 0.0 0.0
0.0 0.0 0.0 0.0 0.0 0.0 0.0 0.0
0.0 0.0 0.0 0.0 0.0 0.0 0.0 0.0
0.0 0.0 0.0 0.0 0.0 0.0 0.0 0.0
0.0 0.0 0.0 0.0 0.0 0.0 0.0 0.0
0.0 0.0 0.0 0.0 0.0 0.0 0.0 0.0
0.0 0.0 0.0 0.0 0.0 0.0 0.0 0.0
0.0 0.0 0.0 0.0 0.0 0.0 0.0 0.0
0.0 0.0 0.0 0.0 0.0 0.0 0.0 0.0
0.0 0.0 0.0 0.0 0.0 0.0 0.0 0.0
0.0 0.0 0.0 0.0 0.0 0.0 0.0 0.0
0.0 0.0 0.0 0.0 0.0 0.0 0.0 0.0
0.0 0.0 0.0 0.0 0.0 0.0 0.0 0.0
0.0 0.0 0.0 0.0 0.0 0.0 0.0 0.0
0.0 0.0 0.0 0.0 0.0 0.0 0.0 0.0
0.0 0.0 0.0 0.0 0.0 0.0 0.0 0.0
0.0 0.0 0.0 0.0 0.0 0.0 0.0 0.0
0.0 0.0 0.0 0.0 0.0 0.0 0.0 0.0
0.0 0.0 0.0 0.0 0.0 0.0 0.0 0.0
0.0 0.0 0.0 0.0 0.0 0.0 0.0 0.0
0.0 0.0 0.0 0.0 0.0 0.0 0.0 0.0

network_body._body_endoder.seq_layers.2.weight f4 [256, 256]
00000000: 1bce cd3d 2eb3 b0bd 8886 dcbd a894 3b3c
00000010: 3a78 a1bd 43e5 b23d 2eee 9cbd 5bd2 793d
00000020: 7757 8e39 8184 a43d ad0a b8bd 03d3 663c
00000030: 2fc1 78bd 8f41 2abd f52f ee3c c486 a3bc
00000040: fd3a d73d 61b8 a6bd 42cd 11be 6dd8 a8bd
00000050: 7654 2e3d 22bb ef3b 0e3b 6b3d 8b81 ecbd
00000060: deb4 dfbd 8a33 443d 8cc4 8f3d 6b8f e63d
00000070: db09 9f3d d9f1 5fbb cce6 f03c 6133 ce3c
00000080: 13ba 5dbd 9e9c bdbd 3e6a 5b3d 21a1 243c
00000090: 3681 863d c420 843c f900 9e3d 8eae 60bd
000000a0: f385 03bc 91af 843c e40b a13c 7d27 a43d
000000b0: ff4d 2ebd b7c2 933a 7bc7 96bc f0c3 32bb
000000c0: b96f c63c 4220 c0ba d799 503d 6c41 eb3b
000000d0: 31ae 87bd bc06 183d 410c 55bd adca 343d
000000e0: f76d 30bd ff8c 1b3e 263d a3bd c86f 0e3d
000000f0: 1364 cd3c a413 053b ea17 aebc af92 b3bd
00000100: 1877 ebbd 6d5d dd3c d928 4ebc 88fa 9fbd
00000110: 5252 bd3d 448f 94ba d404 eabc 562d 493d
00000120: 332e b5bc 689a 97bd 18c7 aebb a9f2 b7bd
00000130: 09c5 8e3b 9631 e53c d317 a6ba 7ccf 223d
00000140: b7d6 9dbd e303 c43c 1337 cbbd 92ef 40bd
00000150: 04a3 553e 8abe 763d 84ca f83c 014c e13c
00000160: 9a81 943b c523 d1bd ce77 e03c 90f6 a73d
00000170: 50f5 dcbc d970 bdbc 60a0 113e 3271 f3b9
00000180: 3524 21bd 26fd 01bc 659d 003e 54d3 1dbd
00000190: f9ad 7b3d 7fa3 c8bd 4f96 8d3b feda 4d3d
000001a0: 3da9 e83b 2dc3 cf3c 34df 65bd dd34 2abd
000001b0: a89e 123c edad f7bc 20f4 e7bc f6b4 02bc
000001c0: afe8 5cbb bd61 9abd bd33 d83d edf6 01bd
000001d0: 568a 44bd 7b65 23bc 5d94 903d 516f febc
000001e0: 9136 53bc d73a 6d3d fcd6 8bbd 2f18 023d
000001f0: 4924 443d 7c75 13b9 35bd cbbd 3422 79bd
00000200: 4943 97bd 61fc 15bb cc5c 54bd 3b94 d33d
00000210: edfb 853c 8664 12be bd01 d23d b610 6cbd
00000220: 2518 6abd 6aff 33bd 0618 a13c 595e be3c
00000230: 6597 09bd 11a7 1f3d 8aa9 453d 5efa 36bc
00000240: a0e7 d4bc 3f75 3c3b 92a5 303d 4cfb acbd
00000250: f726 a43d 4201 c6bd 93ec f1bd 46a0 b7bd
00000260: 420d a63d 6af1 593d d371 ba3c 24a2 883d
00000270: f66e 14bd cf22 143e 76aa 57bd 0420 6d3d
00000280: 5000 8e3c e061 98bd bb01 0ebd bcf3 c13d
00000290: d04a 803c c149 22bd 9204 9a3c ff52 1a3b
000002a0: 8c41 e53c e3b9 27bd 5453 b73d 7016 993d
000002b0: 1150 9abd da8a 41bc fd4a 69bb 197c 84bc
000002c0: b025 0cbd 3236 4fbd a722 cc3c f6d5 b0bd
000002d0: 5033 75bb bc79 92bd af7c 88bc b1df 8c3c
000002e0: ea64 d4bc 277f c53d 6df6 22bd 30d5 64bd
000002f0: f9f6 0b3e b498 1fbb 6515 27be 7499 8dbd
00000300: b965 5c3d d993 dfbd a1e3 5e3d 06da bfbc
00000310: 2da9 033e e5fd b7bc 5c66 e8bc de51 50bd
00000320: d766 de3d 34c7 123c b0c6 79bd be63 22bd
00000330: 0a1d afbc 4397 52bc 52ac 99bd 866b d1bc
00000340: cd6c 043d 10cc f4bc dad8 8abc 0d9b f9bc
00000350: f973 0b3e 22e6 bbbc 30de 7dbc 1566 113c
00000360: 2168 f5bc 3a2d 99bd 74dc 033d 8b33 a73c
00000370: 7ba9 9b3d 0df2 29b9 edef 303d 0bdf a0bd
00000380: 0432 a0bd f73a 0e3d 0766 c13d 8f56 123d
00000390: f170 1dbe 6e26 d7bd be9f 933d 9a5d 82bc
000003a0: e7c4 273c 788d 983d 23ac 483d ccbf 053d
000003b0: 5700 f23c b733 dbbd 6a16 bc3c 86d5 99bd
000003c0: f860 af3d a0f3 6e3d 6212 8abc 0be7 0abd
000003d0: 0306 eb3d 73e3 bdbc aeff 503d beda 8d3d
000003e0: 81a5 0f3d a27b 233d 9b89 9fbd b1f2 c0bd
000003f0: 800b 7dbd 1c42 9e3c c675 5e3d b097 e43c
0.10049077 -0.08627926 -0.10767847 0.011449017 -0.078842595 0.087351345 -0.07662617 0.060991626
0.00027149517 0.080330856 -0.08986411 0.014088395 -0.06073111 -0.041566428 0.029075602 -0.019961722
0.10509298 -0.08140636 -0.14238456 -0.08244405 0.042561017 0.007316009 0.057429366 -0.11548146
-0.109231696 0.047900714 0.0701991 0.112578236 0.07765552 -0.0034171252 0.029406928 0.025170984
-0.054132532 -0.09258388 0.053568117 0.010048182 0.06567614 0.016128905 0.07715029 -0.05485397
-0.008027541 0.016196998 0.01965899 0.08015344 -0.04255485 0.001127324 -0.018405667 -0.0027277432
0.024223195 -0.0014658051 0.050927963 0.0071794298 -0.06625021 0.037115797 -0.05201364 0.0441386
-0.04307362 0.15190504 -0.079706475 0.03477457 0.025072133 0.0020305896 -0.021251637 -0.08768212
-0.11497325 0.027022088 -0.012582981 -0.07811457 0.09244217 -0.00113342 -0.028566755 0.0491155
-0.022116756 -0.074024975 -0.0053337924 -0.089818306 0.0043569845 0.027977746 -0.0012671895 0.039748654
-0.07706969 0.023927635 -0.09922614 -0.047103472 0.20862967 0.060240306 0.030370004 0.027502062
0.0045320513 -0.102119006 0.027400877 0.08201325 -0.026972443 -0.023125099 0.14221334 -0.0004643291
-0.03934117 -0.00793389 0.12560041 -0.038531616 0.06144521 -0.097968094 0.0043208967 0.050257675
0.007100253 0.025361622 -0.056121066 -0.04155432 0.008948959 -0.030234301 -0.02831465 -0.007977715
-0.0033708026 -0.07538173 0.10556743 -0.031729627 -0.04798349 -0.009972925 0.07059548 -0.03105894
-0.012891428 0.057917442 -0.068281144 0.031761345 0.047886167 -0.00014062779 -0.09948198 -0.060823634
-0.073858805 -0.0022886025 -0.05184631 0.10331007 0.01635548 -0.14296159 0.10254238 -0.057633124
-0.057151932 -0.043944754 0.019664776 0.023238348 -0.033591647 0.038977686 0.04825739 -0.011168091
-0.025989354 0.0028756408 0.04312665 -0.084463686 0.080152445 -0.09668209 -0.11812701 -0.089661166
0.081079975 0.053208746 0.022759354 0.06671551 -0.036238633 0.14466403 -0.0526528 0.05789186
0.017334133 -0.07440543 -0.03466962 0.09470317 0.015660673 -0.03962112 0.018801007 0.0023548005
0.027985357 -0.04094876 0.089514405 0.07474983 -0.07534803 -0.01181289 -0.0035597675 -0.016172456
-0.03421563 -0.050588794 0.024918867 -0.0863456 -0.0037414618 -0.07152125 -0.016661016 0.017196508
-0.025927026 0.09643393 -0.03978579 -0.055867374 0.13668431 -0.0024352493 -0.16316755 -0.069140345
0.053807948 -0.109168716 0.054416303 -0.023419391 0.12857504 -0.022459934 -0.028369121 -0.050859325
0.10859459 0.008958627 -0.0609805 -0.039645903 -0.021376152 -0.012853446 -0.075035706 -0.025563966
0.032330323 -0.02988246 -0.016949106 -0.030469442 0.13618459 -0.022936884 -0.015494868 0.008874436
-0.02995688 -0.074793294 0.032192662 0.02041032 0.07600685 -0.00016207267 0.04319756 -0.07855042
-0.0782204 0.034724202 0.09443288 0.03572708 -0.15375115 -0.10505377 0.07208203 -0.015913773
0.010239816 0.07448858 0.048992287 0.032653615 0.029541178 -0.10703223 0.022959907 -0.075114295
0.08563417 0.058337808 -0.016854469 -0.033911746 0.11475756 -0.023179745 0.051025085 0.069264874
0.035069946 0.039912827 -0.07789918 -0.0942129 -0.061778545 0.019318633 0.054311536 0.027904361

network_body._body_endoder.seq_layers.2.bias f4 [256]
00000000: 0000 0000 0000 0000 0000 0000 0000 0000
00000010: 0000 0000 0000 0000 0000 0000 0000 0000
00000020: 0000 0000 0000 0000 0000 0000 0000 0000
00000030: 0000 0000 0000 0000 0000 0000 0000 0000
00000040: 0000 0000 0000 0000 0000 0000 0000 0000
00000050: 0000 0000 0000 0000 0000 0000 0000 0000
00000060: 0000 0000 0000 0000 0000 0000 0000 0000
00000070: 0000 0000 0000 0000 0000 0000 0000 0000
00000080: 0000 0000 0000 0000 0000 0000 0000 0000
00000090: 0000 0000 0000 0000 0000 0000 0000 0000
000000a0: 0000 0000 0000 0000 0000 0000 0000 0000
000000b0: 0000 0000 0000 0000 0000 0000 0000 0000
000000c0: 0000 0000 0000 0000 0000 0000 0000 0000
000000d0: 0000 0000 0000 0000 0000 0000 0000 0000
000000e0: 0000 0000 0000 0000 0000 0000 0000 0000
000000f0: 0000 0000 0000 0000 0000 0000 0000 0000
00000100: 0000 0000 0000 0000 0000 0000 0000 0000
00000110: 0000 0000 0000 0000 0000 0000 0000 0000
00000120: 0000 0000 0000 0000 0000 0000 0000 0000
00000130: 0000 0000 0000 0000 0000 0000 0000 0000
00000140: 0000 0000 0000 0000 0000 0000 0000 0000
00000150: 0000 0000 0000 0000 0000 0000 0000 0000
00000160: 0000 0000 0000 0000 0000 0000 0000 0000
00000170: 0000 0000 0000 0000 0000 0000 0000 0000
00000180: 0000 0000 0000 0000 0000 0000 0000 0000
00000190: 0000 0000 0000 0000 0000 0000 0000 0000
000001a0: 0000 0000 0000 0000 0000 0000 0000 0000
000001b0: 0000 0000 0000 0000 0000 0000 0000 0000
000001c0: 0000 0000 0000 0000 0000 0000 0000 0000
000001d0: 0000 0000 0000 0000 0000 0000 0000 0000
000001e0: 0000 0000 0000 0000 0000 0000 0000 0000
000001f0: 0000 0000 0000 0000 0000 0000 0000 0000
00000200: 0000 0000 0000 0000 0000 0000 0000 0000
00000210: 0000 0000 0000 0000 0000 0000 0000 0000
00000220: 0000 0000 0000 0000 0000 0000 0000 0000
00000230: 0000 0000 0000 0000 0000 0000 0000 0000
00000240: 0000 0000 0000 0000 0000 0000 0000 0000
00000250: 0000 0000 0000 0000 0000 0000 0000 0000
00000260: 0000 0000 0000 0000 0000 0000 0000 0000
00000270: 0000 0000 0000 0000 0000 0000 0000 0000
00000280: 0000 0000 0000 0000 0000 0000 0000 0000
00000290: 0000 0000 0000 0000 0000 0000 0000 0000
000002a0: 0000 0000 0000 0000 0000 0000 0000 0000
000002b0: 0000 0000 0000 0000 0000 0000 0000 0000
000002c0: 0000 0000 0000 0000 0000 0000 0000 0000
000002d0: 0000 0000 0000 0000 0000 0000 0000 0000
000002e0: 0000 0000 0000 0000 0000 0000 0000 0000
000002f0: 0000 0000 0000 0000 0000 0000 0000 0000
00000300: 0000 0000 0000 0000 0000 0000 0000 0000
00000310: 0000 0000 0000 0000 0000 0000 0000 0000
00000320: 0000 0000 0000 0000 0000 0000 0000 0000
00000330: 0000 0000 0000 0000 0000 0000 0000 0000
00000340: 0000 0000 0000 0000 0000 0000 0000 0000
00000350: 0000 0000 0000 0000 0000 0000 0000 0000
00000360: 0000 0000 0000 0000 0000 0000 0000 0000
00000370: 0000 0000 0000 0000 0000 0000 0000 0000
00000380: 0000 0000 0000 0000 0000 0000 0000 0000
00000390: 0000 0000 0000 0000 0000 0000 0000 0000
000003a0: 0000 0000 0000 0000 0000 0000 0000 0000
000003b0: 0000 0000 0000 0000 0000 0000 0000 0000
000003c0: 0000 0000 0000 0000 0000 0000 0000 0000
000003d0: 0000 0000 0000 0000 0000 0000 0000 0000
000003e0: 0000 0000 0000 0000 0000 0000 0000 0000
000003f0: 0000 0000 0000 0000 0000 0000 0000 0000
0.0 0.0 0.0 0.0 0.0 0.0 0.0 0.0
0.0 0.0 0.0 0.0 0.0 0.0 0.0 0.0
0.0 0.0 0.0 0.0 0.0 0.0 0.0 0.0
0.0 0.0 0.0 0.0 0.0 0.0 0.0 0.0
0.0 0.0 0.0 0.0 0.0 0.0 0.0 0.0
0.0 0.0 0.0 0.0 0.0 0.0 0.0 0.0
0.0 0.0 0.0 0.0 0.0 0.0 0.0 0.0
0.0 0.0 0.0 0.0 0.0 0.0 0.0 0.0
0.0 0.0 0.0 0.0 0.0 0.0 0.0 0.0
0.0 0.0 0.0 0.0 0.0 0.0 0.0 0.0
0.0 0.0 0.0 0.0 0.0 0.0 0.0 0.0
0.0 0.0 0.0 0.0 0.0 0.0 0.0 0.0
0.0 0.0 0.0 0.0 0.0 0.0 0.0 0.0
0.0 0.0 0.0 0.0 0.0 0.0 0.0 0.0
0.0 0.0 0.0 0.0 0.0 0.0 0.0 0.0
0.0 0.0 0.0 0.0 0.0 0.0 0.0 0.0
0.0 0.0 0.0 0.0 0.0 0.0 0.0 0.0
0.0 0.0 0.0 0.0 0.0 0.0 0.0 0.0
0.0 0.0 0.0 0.0 0.0 0.0 0.0 0.0
0.0 0.0 0.0 0.0 0.0 0.0 0.0 0.0
0.0 0.0 0.0 0.0 0.0 0.0 0.0 0.0
0.0 0.0 0.0 0.0 0.0 0.0 0.0 0.0
0.0 0.0 0.0 0.0 0.0 0.0 0.0 0.0
0.0 0.0 0.0 0.0 0.0 0.0 0.0 0.0
0.0 0.0 0.0 0.0 0.0 0.0 0.0 0.0
0.0 0.0 0.0 0.0 0.0 0.0 0.0 0.0
0.0 0.0 0.0 0.0 0.0 0.0 0.0 0.0
0.0 0.0 0.0 0.0 0.0 0.0 0.0 0.0
0.0 0.0 0.0 0.0 0.0 0.0 0.0 0.0
0.0 0.0 0.0 0.0 0.0 0.0 0.0 0.0
0.0 0.0 0.0 0.0 0.0 0.0 0.0 0.0
0.0 0.0 0.0 0.0 0.0 0.0 0.0 0.0

action_model._discrete_distribution.branches.0.weight f4 [3, 256]
00000000: 1b6c b33b 1aa0 f33a 589a fd39 7f98 1fbc
00000010: 185c 86ba 42ac b8bb 92b0 443c decb c03b
00000020: dca9 103b 1f96 b5bb df8b b5bb cade 023b
00000030: d4d8 133b 2a71 ee3b ae21 21bb 10de feba
00000040: c38c c0b8 7f31 1ebc 47a2 96ba 6292 0abc
00000050: f789 0a3c e3c0 cd3a 8279 393b 3a2d 0cbc
00000060: 7970 24ba 5e2f 983b 0c76 a23b c6da a5bb
00000070: e533 533a 107c 383b abc1 703c ffdd d3bb
00000080: 488f 49ba 5322 503b 783c e8bb 5761 193b
00000090: a802 dbbb acb9 93bb 9c46 07bc 90f5 22bb
000000a0: 68e5 5dba b0bc ce3b 402f 1db9 88b8 e3ba
000000b0: 4fc5 03bc a587 9a3b 3183 b53b fb93 143b
000000c0: 9f31 a9b9 9d1c 04ba f69b 0d3b 4057 153b
000000d0: 3bdc a43b 48bf 6ebc d37a e93b 22a1 dabb
000000e0: 10cd e1bb f3c8 ce3b a7cf 0dbb 8ff3 e53b
000000f0: 0f50 1abb 135e 313a ad02 59bb cee9 ad3b
00000100: 5d46 fabb 17eb 013c b0c5 053b 536e 773a
00000110: 5417 b03b a757 633b 4754 c3bb f7c1 03bc
00000120: 1bc9 b83a 6e96 273c ff7a f2bb 674d 56bc
00000130: 357f ba3a e368 8339 de76 b5bb 07cc 02ba
00000140: 8801 35bc 0f31 3e3b 6fea 67bb 9054 613b
00000150: 03cc 653b 0f9c 80ba 03db 41bb 55e9 e43b
00000160: f215 0b3c 9a95 09bb ac31 2f3b 8502 ce3b
00000170: 785a b0bb 2fbb 923b e33a 02bc 75bd 3d3b
00000180: da20 3fb9 a71d 3f3c 4549 3539 226b cfbb
00000190: c916 8a3b 3ee0 8e3a 4ee5 87bb b7d7 33bc
000001a0: bd26 d4bb db35 9d3b 99ce 9e3b 9b6d c83b
000001b0: d21a 623b 27e0 ceba 373a 42bc 7a89 51bb
000001c0: 71d7 3fbb 1208 fd3b 80f6 bfba 18d6 e9bb
000001d0: 2450 1abc 77b4 583b 8a2e 66bb 5003 053c
000001e0: ba2e 4dbb 71f4 023a 03bd c33a 55be d23a
000001f0: 860b 423a 9881 5a3b 60cc dc3b fb6c e43b
00000200: d0df 42bc cdae 4ebb a6dc b3bb 920e 783b
00000210: 4218 7d3b aa3a e3bb cab2 f13b 2ee2 8a3a
00000220: f762 c7bb 176d 0d3b 30cf ce3b ce98 8e3b
00000230: 334a e3bb fd2a 20bc c892 5639 d000 78bb
00000240: 375f 313c d366 6b3b 0486 27bc c344 8f3b
00000250: 1483 2eba 77a7 86bb 32c4 f53b 437c 9b3a
00000260: 109b 0dbc 79c4 8cba 42aa 07bb ffc3 b23b
00000270: 7f78 6bba 4db6 d8bb 77d4 45bc cf09 463b
00000280: 03c4 0bbc 2d6a 3a3b fd83 373c 3856 56ba
00000290: d008 57bb 7865 a0bb 13c6 4d3a 41db 95ba
000002a0: cc11 32bb 1fa0 28bb 3d3c c3bb 836c 863a
000002b0: 743a 87bb 1b5d ae39 8f02 ebba 801b dbbb
000002c0: 1843 cd3b cfc1 883b 3058 3b3a b3ba f337
000002d0: af8c 443b 5597 adba fe75 923b 9835 d23b
000002e0: c6c4 09bb e5b6 b0bb b783 1fbc c345 b6ba
000002f0: 57bf 8abc b2a4 3fbc a8f0 71bb fbf5 d03b
00000300: 6528 6a3b 43d7 3bbb dd6e 60bc 8b48 a3bb
00000310: 60b5 1a3c 4fce 593c b04e 4dbc e946 3f3b
00000320: 0187 8a3b bb79 83bb 1eba 14bb 975b 7b3b
00000330: 2296 edbb 57d1 413a bd1e 7abb 57e5 82bb
00000340: 8dc1 163b 4dbf 82bb a6c0 153c e0f0 4ebb
00000350: 6d8c d7ba 2ab5 ed3a ec83 cbba d66d a33b
00000360: 371c f43b f002 b03a b79e ce3b fa29 6cbb
00000370: ad21 aa3b b2e7 8c3b 2764 923a 1fbe 113c
00000380: 13b6 a8bb 9ff9 4dba 6166 183b 827c 4fbb
00000390: 6d2f e6ba 693c 81bb 0d20 f13b a3c3 f63b
000003a0: 6c7a 0ebb f8ba 9cbb 8309 853b 493f b7ba
000003b0: 7a8e 4d3c 8bec d039 9759 0abc 6fac 40bc
000003c0: 90b1 f0bb 0f72 933b 8779 debb eabc 883b
000003d0: 73fa e2bb 6af7 06bc 5747 403c 9b4e c93b
000003e0: ca17 eaba 5786 e03a bbd2 f33b f306 1f3c
000003f0: 7d6a 26bb f0de d33a 2194 9dbb 870f 4abb
0.0054755337 0.0018587143 0.00048370915 -0.009740948 -0.0010250835 -0.005635769 0.012004988 0.005883678
0.00220739 -0.0055415775 -0.0055403556 0.0019969218 0.002255966 0.007276674 -0.0024586725 -0.0019444842
-9.181492e-05 -0.0096553555 -0.0011492454 -0.008457752 0.008455745 0.0015697744 0.0028301184 -0.008555705
-0.0006272863 0.0046443185 0.00495792 -0.00506148 0.0008056744 0.002815012 0.014694612 -0.006465673
-0.0007688892 0.003175874 -0.0070872866 0.0023403966 -0.0066836663 -0.004508218 -0.008256581 -0.0024865605
-0.0008464665 0.0063091144 -0.00014990289 -0.001737372 -0.0080426475 0.004715877 0.005539321 0.002267121
-0.00032271162 -0.0005039664 0.0021607853 0.00227876 0.0050311363 -0.014571972 0.0071252375 -0.0066720406
-0.0068909004 0.006310576 -0.0021638663 0.00701756 -0.0023546254 0.00067660323 -0.0033113167 0.0053074127
-0.0076377825 0.007929585 0.002041202 0.0009438742 0.0053738747 0.0034689696 -0.0059609744 -0.00804185
0.001409802 0.010228736 -0.007399916 -0.013079978 0.0014228584 0.00025064414 -0.0055378517 -0.0004989509
-0.011047728 0.002902094 -0.0035387536 0.0034382679 0.0035064227 -0.0009812134 -0.0029580004 0.006985823
0.008489119 -0.002099371 0.0026732488 0.0062869214 -0.0053818785 0.0044778804 -0.00794861 0.0028952037
-0.00018227418 0.0116647845 0.000172888 -0.00632991 0.004214142 0.001090057 -0.0041472083 -0.010976723
-0.0064743445 0.00479768 0.0048464057 0.0061165816 0.003450085 -0.0015783355 -0.0118547 -0.0031972812
-0.00292727 0.0077219093 -0.0014645606 -0.0071361177 -0.009418521 0.003306655 -0.0035122954 0.008118466
-0.0031308369 0.0004995531 0.0014933649 0.0016078452 0.000740223 0.0033341404 0.0067382306 0.0069709993
-0.011894181 -0.0031537295 -0.00548895 0.0037850481 0.0038619195 -0.0069344835 0.0073760496 0.0010595971
-0.0060847956 0.0021579915 0.00631132 0.004351712 -0.0069363355 -0.009775874 0.0002046331 -0.003784228
0.010825924 0.0035919442 -0.010224823 0.0043722107 -0.00066571054 -0.004109319 0.007500195 0.0011862594
-0.008642927 -0.0010739706 -0.0020700847 0.0054554935 -0.0008982494 -0.006613529 -0.012074581 0.0030218249
-0.00853062 0.0028444633 0.011200902 -0.00081763 -0.003281165 -0.0048949085 0.0007849645 -0.0011433141
-0.0027171252 -0.0025730205 -0.0059581087 0.0010255728 -0.004126841 0.00033257235 -0.001792984 -0.006686628
0.0062641017 0.0041734944 0.0007146625 2.9054796e-05 0.002999108 -0.0013243953 0.004469632 0.0064150803
-0.0021021827 -0.0053928965 -0.009735993 -0.0013906289 -0.016936941 -0.011696981 -0.0036917124 0.0063769794
0.0035729643 -0.0028662242 -0.013698307 -0.004983013 0.009442657 0.013293817 -0.012530968 0.0029186553
0.0042275195 -0.004012314 -0.0022693942 0.0038354152 -0.0072505632 0.000739356 -0.0038165294 -0.0039946246
0.002300355 -0.00399009 0.009140169 -0.0031576678 -0.0016445048 0.0018135656 -0.0015526987 0.0049874587
0.0074496525 0.001342861 0.0063055414 -0.0036035762 0.0051920027 0.004300081 0.0011168764 0.008895426
-0.005148658 -0.0007857326 0.0023254382 -0.0031659906 -0.0017561741 -0.003943969 0.007358557 0.007530646
-0.002174045 -0.0047830306 0.004059972 -0.0013980652 0.012546176 0.0003984909 -0.008444211 -0.011759861
-0.007345386 0.004499681 -0.0067893895 0.004172911 -0.0069268285 -0.008237699 0.011735759 0.0061434037
-0.0017859873 0.001712988 0.0074408925 0.009706247 -0.0025393062 0.0016164463 -0.004808918 -0.003083201

action_model._discrete_distribution.branches.0.bias f4 [3]
00000000: 0000 0000 0000 0000 0000 0000
0.0 0.0 0.0

action_model._discrete_distribution.branches.1.weight f4 [3, 256]
00000000: 3e26 29ba e0c2 5d3c 5699 a53b 7aa2 743b
00000010: 7f80 e5bb 5664 3dbc 3037 0f3a eda7 963b
00000020: bd4a cfb9 22bb 9bba 426a b3bb 055a 13bc
00000030: a3ff 403b ddd9 f8b8 c8ed 053c 7f1d 94bb
00000040: a881 6b3b 06c6 35ba a737 8abc 25e3 2b3b
00000050: 0d9a 493a b434 33bb e7d6 c03b bb70 d3bb
00000060: a37b ef3b 42f7 f939 8232 6abb 77a5 66bb
00000070: f3bc 133a c259 67bb 5160 47bc 1d2d 71bc
00000080: 6247 8d3b 8f67 e33b 08a7 55bb ed55 073a
00000090: 8371 5bbc 9583 763b df68 5fbb 3862 64bc
000000a0: 7551 5a3b 3f06 05ba 311b 083b a3b0 58bb
000000b0: 8ba8 8b39 c8c3 983b 9f4a 9ebb b7ab 2f3c
000000c0: 31ac 31bb e301 113a 67c0 9e3b 82b1 6ebb
000000d0: 5422 2c3b e897 603a a7c5 d3b8 8b5a 87bb
000000e0: 2bd3 87bb 40cc ed3b 6ddc e0ba 3ad3 493b
000000f0: 8fea 3bbc 235e 46ba 33ab 78bb 0576 443c
00000100: cd9c c3bb df78 28bb 3313 8739 0b2d aebb
00000110: 6ba9 b33b 4930 80b8 33d5 393a 8bb3 e23b
00000120: f7f3 bd3b 5fa8 52bb ed22 f5ba 82bf dbba
00000130: 63cd 2c3b b493 113c 0b8d ee3a 2b8d 893a
00000140: a07a 033c a2bd 4e3b b102 06bc d7d8 d23a
00000150: efa3 37bb 774c 993a dfa8 aebb 9d48 cdbb
00000160: b362 933b c486 0b39 4a76 563b 881c d0bb
00000170: 9dd4 073b e56a 243c 4a9f edbb 8b3f 573b
00000180: 57da 5c3c 1578 85ba d31e e4bb ae8b 26bb
00000190: fa34 f0ba 9b02 4dbc 6bc0 053b 7f4b 9fba
000001a0: 2800 e73a 9200 5e3a b285 58bb 22fa 7c3a
000001b0: b873 49bb ab70 e93b 680f a9ba 969f 963a
000001c0: 3386 0d3b dfa3 24bc 6ce1 9abb 6b1b 103b
000001d0: bf95 143b bb67 9d3b d771 a2bb 2de2 d0bb
000001e0: 410b 373a 9b56 fdb9 5a89 98bb 807b ba3a
000001f0: ca66 09bc 58f5 503b 51ef 9a3a 2a97 a8ba
00000200: 1197 823b 0cf0 a13a 7fcf 05bc 474c c7bb
00000210: 628d 19bb d6aa a83b 0550 2cbb d0bc 9e3b
00000220: 1a4a 5f3b 3304 c73b e3de 1ebb e7af ddba
00000230: 9738 c13a 505c 5b3b d999 beba a5d6 00ba
00000240: 20ed d5ba 3d2b 243c afe8 4ebb c5e2 b3ba
00000250: b1c0 4cbb 503c 4aba 552b 543a e980 c1bb
00000260: d290 9f3b 8c12 833a 9b9e a63a 0bf3 813a
00000270: 6223 58b9 55fd 82bb 1840 70ba 9a6e 2fbb
00000280: 5237 35bb ffc5 f6bb e2bc 6bb9 58fd b9bb
00000290: fbbe 2fbb 7d7c 1bba d373 cfbb b28e 473a
000002a0: d2a5 753a 2776 2c3b da54 133b 1da3 b1ba
000002b0: 353b 03bb d215 91bb b058 3a3b ec1d 9c3a
000002c0: f78a 8439 e96a c7bb bb9b 8ebb d1a4 14bc
000002d0: b882 8cba 2f79 e13b 9f3a 383c 77ad 03bb
000002e0: 5286 adbb 15f1 dc3b 9f38 973b fd09 0f3c
000002f0: fba0 d43b d8a8 863a ad38 ddba 12a4 e2bb
00000300: d3db a936 61e0 2c3c 1d04 43b9 d31c 1a3a
00000310: 3536 5eba 7ddd bb3b 7674 aabb 2dce 08bc
00000320: a53c 583c 3572 3e3c 129e 65ba 7cc5 983b
00000330: aa31 62ba 1fd7 9d3b 692a 43bb f2b5 e53b
00000340: ed91 d23b dcec 903c 0448 273b 1c70 1d3b
00000350: 37fb 00ba 172f 2fbb 7d7c e13b 601b 673b
00000360: 8d84 473a 7139 373c a093 b43b 22b9 1f3c
00000370: d34a 59bc 39ed afba 36fc babb ef6f b9bb
00000380: a27b 5c3b 1e5b 263b d2cf e43b c52b 91bb
00000390: 0d7d f93b bfb9 0abc eede 12bb 9425 0a39
000003a0: b667 a4bb 9704 593a 0b5f 60bb 4b44 0b3b
000003b0: 4cb2 3a3c b742 3b3b 9130 9539 92cc a7bb
000003c0: 7d53 75ba 3df6 043b 2f2e eeba f00d bdbb
000003d0: 83bf 2abc 7f0c 583b fbdd 15ba e3c0 2c3c
000003e0: 982d 90bc 9abf 063c dd5a 56bb 690f 8abb
000003f0: 6fe0 f73a c76e af3a 32cd 64ba ab2d 5f3c
-0.0006452537 0.013535231 0.0050536795 0.003732829 -0.0070038433 -0.0115595665 0.00054632407 0.004597655
-0.000395378 -0.0011881331 -0.0054753134 -0.00899363 0.0029449246 -0.00011866142 0.008174367 -0.004520118
0.0035935435 -0.000693411 -0.01687224 0.0026227918 0.0007690497 -0.0027344646 0.0058849934 -0.0064526475
0.00730844 0.00047677202 -0.0035735671 -0.003519384 0.00056357606 -0.0035301303 -0.01216896 -0.0147202285
0.004311488 0.0069398354 -0.003260078 0.0005162645 -0.0133937625 0.003761505 -0.0034089608 -0.013939433
0.0033312712 -0.0005074478 0.002076816 -0.0033064268 0.0002663772 0.004662011 -0.004830673 0.010722092
-0.002711069 0.0005531592 0.0048447135 -0.003642172 0.0026265578 0.00085675577 -0.0001009808 -0.0041306666
-0.004145046 0.0072570145 -0.0017155536 0.0030796067 -0.011469497 -0.0007567128 -0.003794384 0.011991029
-0.00596962 -0.002570681 0.0002576351 -0.005315428 0.0054828427 -6.1125094e-05 0.0007088959 0.006918376
0.005796905 -0.0032143814 -0.0018702425 -0.0016765448 0.0026367537 0.008885313 0.0018199993 0.0010494342
0.008024842 0.0031546135 -0.008179353 0.0016086352 -0.0028021296 0.0011695762 -0.0053301896 -0.0062647597
0.00449785 0.00013306277 0.0032724314 -0.0063510574 0.0020726093 0.010035251 -0.0072516548 0.003284427
0.013479791 -0.0010182882 -0.0069616823 -0.0025412845 -0.0018326335 -0.012512828 0.002040888 -0.0012153237
0.0017623948 0.0008468713 -0.0033038673 0.000965031 -0.003073914 0.007124027 -0.0012898268 0.0011491652
0.0021594882 -0.010048836 -0.0047265794 0.0021988999 0.0022672263 0.0048036254 -0.0049574184 -0.0063746185
0.0006982573 -0.00048320447 -0.0046550455 0.001422748 -0.008386323 0.0031884518 0.001182059 -0.0012862433
0.0039852937 0.0012354865 -0.008167147 -0.006082091 -0.0023430218 0.0051473184 -0.0026292813 0.0048442855
0.0034071268 0.0060734986 -0.0024241738 -0.0016913385 0.0014741597 0.003347177 -0.00145417 -0.0004914797
-0.0016321279 0.010020074 -0.0031571796 -0.0013724199 -0.0031242783 -0.0007714676 0.0008093615 -0.00590526
0.004869559 0.0010000034 0.0012712063 0.0009914351 -0.00020612546 -0.0039974847 -0.0009164824 -0.0026768805
-0.0027651382 -0.007530927 -0.00022481711 -0.005675953 -0.0026816714 -0.0005931331 -0.006330946 0.0007612511
0.00093707175 0.0026315541 0.0022480995 -0.001355264 -0.0020024304 -0.00442765 0.002843421 0.0011910773
0.0002528054 -0.0060857427 -0.0043520606 -0.009072498 -0.001072011 0.0068809013 0.011244445 -0.0020092407
-0.0052955532 0.0067426064 0.004614904 0.008730409 0.006488917 0.0010273708 -0.0016877853 -0.0069165314
5.0621834e-06 0.010551543 -0.00018598181 0.0005878929 -0.00084767054 0.0057331906 -0.0052018715 -0.008349937
0.0131980525 0.011623909 -0.0008759211 0.004662214 -0.00086286163 0.004816904 -0.0029779917 0.007010215
0.006426087 0.017691068 0.0025525102 0.0024023121 -0.00049202464 -0.0026730949 0.0068812952 0.003526412
0.0007610999 0.011183129 0.0055107623 0.009748729 -0.013262468 -0.0013422138 -0.0057063354 -0.0056590955
0.0033643027 0.00253839 0.006982782 -0.0044302666 0.007613784 -0.008467137 -0.0022410708 0.00013174705
-0.005017246 0.0008278577 -0.0034236338 0.0021250423 0.011395048 0.00285737 0.0002845568 -0.005120822
-0.0009358449 0.002028837 -0.0018171723 -0.0057694837 -0.0104216365 0.0032966433 -0.00057169766 0.010544035
-0.017599866 0.008224392 -0.0032707967 -0.004213263 0.0018911491 0.0013384455 -0.0008728086 0.013621728

action_model._discrete_distribution.branches.1.bias f4 [3]
00000000: 0000 0000 0000 0000 0000 0000
0.0 0.0 0.0

action_model._discrete_distribution.branches.2.weight f4 [3, 256]
00000000: 7953 b7bb ad2c 2eba 70e5 7c3b dd55 483a
00000010: ab99 303a ab04 cbbb 1e55 21ba 9f58 023a
00000020: 0028 a53a 47fc 43bc aa1c 30ba 309f 97ba
00000030: 1b71 833b 9ac9 7d3a abfd 94bb 5f56 faba
00000040: 57e3 04bc 5308 62bc cd2e a33b 93de 753c
00000050: f00e f13a 9a19 d13b c743 103b c036 df39
00000060: b7bb 5a3c 358e 69b9 5834 cebb 8b5a e5bb
00000070: bfc6 c53b d323 c53b 1736 26bc 91e6 323c
00000080: f26e 503a c69a 2f3b 9fa4 5d3b 9529 d5bb
00000090: b1cc b13b 6d72 603a ed50 803b f88d 3d3c
000000a0: c8f4 04bc c3f2 6e3c bfa2 2d3a 7ff3 b23b
000000b0: ffce 083b 41d2 16bc adaf ddba 5460 92bc
000000c0: 8aa8 3dbc aaf6 06bc 9f32 07bb 831e 1b3b
000000d0: f343 6abb e788 5cbc 27a6 68bb b731 da3b
000000e0: a84d 553a 5e25 3ebb 5928 293a 0f0e adbb
000000f0: cb92 95bb 5923 9fbb 2c36 913a 7f01 b5ba
00000100: d274 60bb af6e 7abb 2577 8fba df4a c4bb
00000110: bfd1 62ba fd80 573b 8f79 5fbc bb0a b7bc
00000120: 7db6 7b3b 6a46 ebb9 6b78 9c39 cb7b 50bc
00000130: 01c7 323b b46a 0bbc 4ff8 f53b 0100 1d3c
00000140: e310 36ba d74a cb3b 2dc7 f53a 1bb3 c33a
00000150: 4796 d3bb 2422 9f3b fa61 f0b9 6730 87b9
00000160: 7e99 07bc a3ca 8339 a071 2fba 5b43 0a3c
00000170: 859a eaba 73ea 44bb 4407 29bc 70c2 a4ba
00000180: d2c6 eabb 9f72 8139 4e87 01bc 408a 64bb
00000190: 6053 083b f310 833a 40a4 13ba efe7 7d3b
000001a0: 4343 e3bb 7f57 c23b 240c 9f39 46b6 2ebb
000001b0: 0d23 4e3b b7a2 cfb9 3a04 f2bb cd5a 6bbb
000001c0: 5e05 c1bb 4db7 54bb 1fa0 063a f5d1 cc3b
000001d0: 6a41 6e3b a968 8dba 885b e7ba bf5c 8e3a
000001e0: 973b 4e3c d093 8fbb 012c 063c b369 55bc
000001f0: afb4 96b9 d760 293c 0820 183c 5e5d 953b
00000200: 6932 1c3c f0f5 153b 5875 4a38 c025 88bb
00000210: 18ae a63b 2f85 12bc 2729 a7bb 6d87 fb3b
00000220: afa9 45ba 9d44 5d3c e3b0 d8bb 9f24 06ba
00000230: bcd8 903a 3bce b13b 1fad 2c3a 08dc 6dbb
00000240: 939e d6ba c3cb 7bbb ad70 4fbb 426f 84bc
00000250: 0b0e e13a b35e 323b c33c c3b9 8b38 2739
00000260: 9726 75bc 6108 1e3b c7e3 dfba 0b6b 903a
00000270: d266 673a 9bca bebb bafa a43b 7136 2cbb
00000280: 24ca 18ba b493 053b 4daa e93b 84b3 9ebb
00000290: 4571 e53b e535 5f3b e8bb b53b 5b29 87ba
000002a0: df03 c6ba e715 b23b 97b5 d73b e06a b43b
000002b0: c72c 42b9 ab16 bb3b 8ff4 e9ba 49e5 263c
000002c0: 96c7 2aba 0d5f 953a 05f1 073b 8171 1a3c
000002d0: 731d a03b 0aeb 53bb c0e9 993b 0af5 9abb
000002e0: 7a3d 73bc 37c3 863b 01e0 b33b 52c1 df3b
000002f0: d7c3 ae3b 1337 0c3b c795 d6ba 0ac1 05bc
00000300: cb0b abbb 4151 4abc dbf0 043c a780 a3ba
00000310: fff0 693b d32e d33b cdf7 213b d122 bbbb
00000320: 25a7 3d3c a310 67bb 632b 4bb9 e738 503b
00000330: 1bd6 433c 9503 0b3b 2aed e43b 6d3a 00bb
00000340: 0a0c 573c 4521 213c b794 1c3c 5b92 f5ba
00000350: 875f 08bb 783c eabb 6b75 3e3b 150a ce3b
00000360: 6b15 85bb a856 c13b eae3 50ba 40dc 0239
00000370: 133d c639 8afc 773a fbb5 99bb 3506 01b9
00000380: a5cd fb3b 4ada 92bb d3d4 173c 158c 083b
00000390: 750d 7d3b ed98 77bb 4f1d 1b3b 3279 f9bb
000003a0: e67d a23b 20bb 2b3a 5be0 b3ba ccd3 21bb
000003b0: 418e a53b 8b66 313c a6cc 243b 4e0b 453c
000003c0: 93e0 083b 7781 edba bfbe 353b 2fda a23b
000003d0: 4f84 e0bb abec 933a c489 113c 6b85 1abc
000003e0: 22cc cd3b 18a5 dfbb 5de5 413c e736 903b
000003f0: 9537 703a 4e6f a3ba f854 db3b 3223 dc3a
-0.0055946675 -0.00066442305 0.0038588904 0.0007642189 0.00067367655 -0.006195625 -0.0006154346 0.0004972312
0.0012600422 -0.011962003 -0.00067181385 -0.0011567827 0.004011286 0.0009681225 -0.004546841 -0.0019099227
-0.008110843 -0.01379593 0.0049799443 0.015006679 0.0018391293 0.006381226 0.0022013055 0.00042574666
0.013350419 -0.00022273588 -0.006292861 -0.006999319 0.0060356553 0.0060162335 -0.010144732 0.010919229
0.00079511025 0.0026795133 0.0033820046 -0.006505201 0.0054260124 0.00085619726 0.003915897 0.0115694925
-0.008115001 0.014584246 0.00066236773 0.005461156 0.0020875332 -0.009205402 -0.0016913317 -0.017868198
-0.011575827 -0.00823752 -0.0020629538 0.002366931 -0.0035746067 -0.013460374 -0.0035499425 0.0066587585
0.0008136877 -0.0029013972 0.00064528506 -0.005281217 -0.004564618 -0.0048565087 0.0011078767 -0.001380965
-0.0034249318 -0.0038212945 -0.0010945542 -0.0059903706 -0.00086524704 0.003288328 -0.013639822 -0.022343984
0.0038408332 -0.00044875155 0.00029844357 -0.012724827 0.002727926 -0.008509327 0.0075064073 0.00958252
-0.00069452653 0.00620399 0.0018751376 0.0014930697 -0.0064571234 0.004856365 -0.00045849365 -0.0002578527
-0.0082763415 0.00025137243 -0.00066926517 0.00843891 -0.0017898834 -0.003004697 -0.010316674 -0.0012570154
-0.0071648145 0.00024690197 -0.007905794 -0.0034872442 0.0020801648 0.0009999558 -0.000563208 0.003874298
-0.0069355085 0.0059308405 0.0003033589 -0.0026658936 0.0031453997 -0.0003960335 -0.0073857578 -0.0035912276
-0.0058905324 -0.0032457889 0.0005135554 0.0062506148 0.0036354908 -0.0010788637 -0.001765118 0.0010861381
0.0125874495 -0.0043816343 0.008189202 -0.013025689 -0.0002874485 0.01033803 0.009284981 0.0045582494
0.009533503 0.0022882186 4.8269838e-05 -0.004154891 0.0050866716 -0.008942886 -0.0051013413 0.007676056
-0.00075402384 0.013505128 -0.0066128834 -0.00051171513 0.001105092 0.005426196 0.00065870764 -0.003629448
-0.0016374163 -0.0038421012 -0.0031652853 -0.016166333 0.0017170323 0.002721709 -0.0003723857 0.00015947425
-0.014962814 0.002411388 -0.0017081433 0.0011018229 0.0008827272 -0.0058224923 0.0050347717 -0.0026277567
-0.0005828461 0.0020382227 0.007130897 -0.0048431773 0.007002028 0.0034059223 0.005546082 -0.0010312008
-0.0015107355 0.00543474 0.0065829265 0.0055059046 -0.00018517963 0.0057094893 -0.0017849373 0.010186502
-0.0006514726 0.0011396125 0.0020743024 0.0094264755 0.004886323 -0.003233614 0.0046970546 -0.004728918
-0.0148462 0.004112627 0.00548935 0.0068284655 0.0053334045 0.0021395131 -0.0016371541 -0.0081637
-0.0052199117 -0.012348474 0.008114065 -0.0012474254 0.0035696623 0.006444791 0.0024714351 -0.0057109375
0.011575495 -0.003525772 -0.00019375751 0.0031772198 0.011952902 0.0021211852 0.00698628 -0.0019566074
0.013125429 0.009834592 0.009556941 -0.0018735634 -0.0020808892 -0.0071483217 0.0029061686 0.006287823
-0.004061391 0.005900223 -0.0007968532 0.00012479816 0.00037811007 0.00094599335 -0.004690883 -0.00012304711
0.007684427 -0.0044815885 0.00926705 0.0020835449 0.0038612757 -0.003778036 0.0023668592 -0.0076133246
0.004958856 0.0006551016 -0.0013723479 -0.0024692891 0.0050523584 0.010827671 0.0025146394 0.012026621
0.002088581 -0.0018120249 0.0027732102 0.004969857 -0.00685171 0.0011285743 0.008882944 -0.009431223
0.006280438 -0.0068251006 0.01183447 0.004401076 0.0009163556 -0.0012469084 0.0066934787 0.0016795157

action_model._discrete_distribution.branches.2.bias f4 [3]
00000000: 0000 0000 0000 0000 0000 0000
0.0 0.0 0.0

action_model._discrete_distribution.branches.3.weight f4 [2, 256]
00000000: 1792 86bb 0cac 973b 838d 53bc d30d 1eba
00000010: 187d 3c3c 94b5 0cbb 32a7 69b9 e0dc a6bb
00000020: b7c7 8abb a980 04bb 0ffb b63b a04e 6a3b
00000030: 93cc aebb aa9d 703b 0bf4 253c 0217 d6bb
00000040: d761 f83b 15b4 f73a afa7 e2ba 89c9 0abb
00000050: 2f9b 03ba 0bf6 6dbc 8dfa ef3a e51b 383c
00000060: 12fc 683b 9bf3 4d3c 266c 87bb 019c 08ba
00000070: e3fd 37bc a9ba 8eba 2855 b5ba 0367 c6bb
00000080: 3725 c83a 8ae5 6abb b74b 88bb f57a bbba
00000090: 100d 773b 48c3 74ba 0815 3fba 9533 d93a
000000a0: f3be 3a3b afdb 8ebb e637 84bb 224d e23b
000000b0: dfe9 223c ab26 16bc e7ee 00bc e769 4cbb
000000c0: 9056 fbba 6126 8e3c 5da3 373c 4b38 43bc
000000d0: 1fb8 bcba 18d0 bc3a 2ca9 ab3a 4a15 4c3b
000000e0: 07a6 873c 9b88 eb3b 2b1b 29bb 874b 14bb
000000f0: 316c 8d3b 0814 8d3a b141 043b 7d49 59ba
00000100: 3227 cfba 65df 523b acaf 383b 45bd eaba
00000110: 27d6 41bc 9daf 73ba da14 14bc bad7 09bc
00000120: 429e 6abb cbdd 91bb f64a 473b 4304 32bc
00000130: 7d28 703b fd22 003b ccd9 12bc 6c7e 4c3a
00000140: b5e5 3cbc fd4b 243a 3fef 8939 2d84 183c
00000150: e817 1c3c bec9 15bc 62b5 de3a e36c 4bbb
00000160: 7154 9b3a 5a20 84bb 9d31 01bc 25a9 8abb
00000170: 3b6d 4bbc 68ce e63b eb91 793b 1a45 f13a
00000180: 4259 70ba 33cd c23b 3553 abbb 578b 2e3b
00000190: f0f2 babb 3f7a c0bb 21b4 42bb 290f 313c
000001a0: a8ad fd3a d8c6 a03b 0c91 17bc bff5 9fba
000001b0: 5fdc bcbb c08f ff3b 30f5 c33b d222 e6bb
000001c0: 8cc9 423b 5246 48bc 121b 88bb 7de5 4fbb
000001d0: 93cc 2b3b 8e03 973a 2895 23ba 53a5 0ebb
000001e0: 5098 c4b9 9ca3 ba3b f7e4 a53a 483e 693b
000001f0: c35a 43bc 4a2d 6e3a f037 ecba f551 e73a
00000200: be48 0b3b 7a2e 503b ef74 4139 331d db3a
00000210: 206b 8a39 a03b 0a3c 6a36 2abc 4c0c 87bb
00000220: 3605 973b 652d 033c 47f0 db3a fd3a 10ba
00000230: 6f01 503b 6b42 41bc 498e 2abb fea1 0bbb
00000240: b27e eabb cdb5 cdbb 2258 2dbc c83a abbb
00000250: 72bd 61ba 0f9f ac3b c544 9d3a 64dc 32bb
00000260: b26b 08bc a068 51ba 13e3 aeb9 3829 7bbb
00000270: 1907 a83b 38ef 86bb 6776 3cbc 752e 543b
00000280: 40a7 183c c7a2 acba 37cc f13b d34f e33b
00000290: e618 92bb 371e 0c3b 4bd5 003b fdd1 d1ba
000002a0: 836c 273a d22c f0bb c8f5 f0b9 fb24 d2ba
000002b0: 03ca 183c a596 b7b8 bd2a 993b f95f 33bb
000002c0: ff92 0ebc af74 72ba b212 08bc eb06 f2bb
000002d0: 2b9f 27ba 3d6b a83b 8f91 373c 6f21 2c3a
000002e0: f07b e03b 4531 e13b e04e f73b d3a8 18bc
000002f0: 903e 0fbb dacc 4c3b 7fcd 09bc 4d54 33bc
00000300: bbb6 c5bb c2fb 9bba 8f7f e13b 5007 83bb
00000310: f8dc f9bb 9bf9 52bc af08 9eba 6a22 133c
00000320: c0a0 0f3b bf9b 743b d9b5 ae3b 3bff 48bb
00000330: 84e1 08bb 68ca 1bbb 3b71 74bb 1f09 1a3c
00000340: afc0 4ebc 741e cb39 ab14 0bbb cc3a 9639
00000350: f4ab 883b 0247 903b 8b61 40bb 14cd 313c
00000360: a4e9 493b fb6d 09bc 90f3 673c f54f e1ba
00000370: 0f2e 25bc 4dfd 1abc 531f 8f3b 25bd 253c
00000380: 11d8 49bb 7c12 013c 87bf 2abb 1d4b cebb
00000390: 3ffb be3a b563 3d3b 38d2 b43b e544 633c
000003a0: 197c 0cbb af11 833b ab44 5bbc a392 6c3b
000003b0: 7543 e43b a096 40bb 6606 05bb 6d3a f43a
000003c0: 9375 43ba f82e df3b 8de5 6d3b 1392 333b
000003d0: 32c0 663b d1b4 3dba b796 a5bb 9b3f 0bbb
000003e0: 4b04 8439 1b39 bcba 55ec 96bb 0e5f 2dbb
000003f0: 57b4 ebbb ac0b 90bc 1f0b 763a 5824 5d3b
-0.0041067707 0.004628664 -0.012912157 -0.00060292816 0.011504434 -0.0021470534 -0.00022282897 -0.0050922483
-0.0042352336 -0.002021829 0.0055841277 0.003575243 -0.0053344457 0.003671507 0.010128985 -0.0065335045
0.007580023 0.0018898273 -0.0017292405 -0.0021177253 -0.00050203776 -0.014523993 0.0018308923 0.011237119
0.0035550636 0.012570287 -0.0041327653 -0.00052112347 -0.011229965 -0.0010889369 -0.0013834583 -0.0060547604
0.001526988 -0.0035842382 -0.0041594165 -0.0014303612 0.0037696995 -0.00093369605 -0.00072892057 0.0016571159
0.0028495162 -0.0043596844 -0.004034984 0.0069061676 0.0099434545 -0.009164493 -0.007869459 -0.0031191052
-0.0019175578 0.017352285 0.011208382 -0.011915277 -0.0014398134 0.0014405278 0.0013096682 0.003114062
0.01655866 0.0071879155 -0.0025803547 -0.0022628026 0.004315876 0.0010763416 0.0020180757 -0.00082888437
-0.0015804528 0.003217661 0.002818088 -0.001790919 -0.011830843 -0.0009295883 -0.0090381745 -0.00841325
-0.0035799895 -0.0044514886 0.003040967 -0.010865274 0.0036645227 0.0019552105 -0.00896306 0.0007800821
-0.011529376 0.00062674267 0.00026308928 0.009308857 0.009527184 -0.009142337 0.0016991312 -0.0031040243
0.0011850727 -0.004032177 -0.007885364 -0.0042315894 -0.012416179 0.0070436485 0.0038081359 0.0018407435
-0.0009168574 0.005944872 -0.005228425 0.0026633346 -0.00570523 -0.005873948 -0.0029709416 0.010806837
0.0019354122 0.0049065165 -0.00925089 -0.0012203975 -0.005763575 0.0077991188 0.0059801564 -0.007023194
0.0029722182 -0.012223797 -0.0041536177 -0.003172248 0.0026214465 0.0011521445 -0.00062401826 -0.0021766021
-0.00037497515 0.0056957733 0.0012656738 0.00355901 -0.011923495 0.0009085728 -0.0018022042 0.0017648326
0.0021253075 0.0031765983 0.00018449475 0.0016717076 0.00026401225 0.008437067 -0.01038895 -0.004121339
0.0046087755 0.008006428 0.0016779982 -0.0005501954 0.0031739136 -0.01179562 -0.002602475 -0.0021306272
-0.0071562165 -0.006277776 -0.0105800945 -0.005225513 -0.00086112984 0.0052679847 0.0011998644 -0.0027292008
-0.008326458 -0.00079883076 -0.0003335705 -0.003832413 0.005127799 -0.0041178726 -0.011502839 0.0032376323
0.009317219 -0.001317107 0.0073790806 0.006937006 -0.0044585345 0.0021380314 0.0019658383 -0.0016008016
0.0006386714 -0.0073295617 -0.00045959488 -0.001603275 0.009325507 -8.75418e-05 0.0046742843 -0.0027370437
-0.008702039 -0.00092489546 -0.008305239 -0.0073860786 -0.00063942623 0.005139737 0.0112041375 0.0006566261
0.006850712 0.0068723285 0.0075472444 -0.009317595 -0.0021857359 0.003125003 -0.0084108105 -0.010945392
-0.006033746 -0.0011900591 0.0068816612 -0.0039986745 -0.0076252185 -0.012876893 -0.0012057031 0.008980373
0.0021915883 0.0037324277 0.0053317365 -0.0030669707 -0.002088637 -0.0023771767 -0.0037298936 0.009401589
-0.012619182 0.00038741867 -0.0021222036 0.00028654037 0.004170889 0.004402996 -0.0029355015 0.010852117
0.0030809427 -0.008388038 0.014157191 -0.0017189967 -0.010081782 -0.009459806 0.004367748 0.010115896
-0.0030798952 0.007877942 -0.00260541 -0.0062955753 0.0014570727 0.0028898541 0.005518224 0.013871406
-0.0021436273 0.003999911 -0.013383071 0.0036098144 0.0069660493 -0.0029386654 -0.0020298003 0.0018633135
-0.00074561796 0.006811019 0.0036300153 0.00274003 0.0035209772 -0.00072367216 -0.005053367 -0.0021247629
0.000251802 -0.001436028 -0.0046058097 -0.0026454362 -0.007193129 -0.01758369 0.00093858124 0.0033743586

action_model._discrete_distribution.branches.3.bias f4 [2]
00000000: 0000 0000 0000 0000
0.0 0.0

network_body.observation_encoder.processors.0.normalizer.running_mean f4 [11]
00000000: 6989 9d3d b0e1 373d 79da c63e ac4d c13e
00000010: 46ec 2341 490f 7d3d ea1e 6b3f 3462 ffba
00000020: 1ec5 e7c0 e6fd 173e c81a 4c3e
0.076922245 0.044892967 0.38838556 0.3775457 10.245184 0.061782155 0.91844046 -0.0019484223
-7.242812 0.14842948 0.19932091

network_body.observation_encoder.processors.0.normalizer.running_variance f4 [11]
00000000: 8a0e ab42 5958 ae42 6380 b342 79b1 9643
00000010: 8890 c746 52eb d145 f384 6e46 82ef 9845
00000020: 227f 4b46 e067 4044 f1f3 a044
85.5284 87.172554 89.750755 301.3865 25544.266 6717.415 15265.237 4893.9385
13023.783 769.62305 1287.6232

network_body.processors.0.normalizer.running_mean f4 [11]
00000000: 6989 9d3d b0e1 373d 79da c63e ac4d c13e
00000010: 46ec 2341 490f 7d3d ea1e 6b3f 3462 ffba
00000020: 1ec5 e7c0 e6fd 173e c81a 4c3e
0.076922245 0.044892967 0.38838556 0.3775457 10.245184 0.061782155 0.91844046 -0.0019484223
-7.242812 0.14842948 0.19932091

network_body.processors.0.normalizer.running_variance f4 [11]
00000000: 8a0e ab42 5958 ae42 6380 b342 79b1 9643
00000010: 8890 c746 52eb d145 f384 6e46 82ef 9845
00000020: 227f 4b46 e067 4044 f1f3 a044
85.5284 87.172554 89.750755 301.3865 25544.266 6717.415 15265.237 4893.9385
13023.783 769.62305 1287.6232
