config/results/negative-reward-double-toch/Volleyball/Volleyball-4937.onnx (onnx, 291913 bytes, 15 tensors)

97 f4 [11]
00000000: 3425 ab3e 14b7 bf3e a938 bb3e 0341 223f
00000010: b7d6 bf40 0df4 5040 847d 9340 fd91 2b40
00000020: 41ac 8b40 71ad 963f 2a3a a73f
0.3342682 0.37444365 0.36566666 0.6338045 5.9949603 3.2648957 4.6090717 2.6807854
4.364777 1.177168 1.3064625

action_model._discrete_distribution.branches.0.bias f4 [3]
00000000: 0000 0000 0000 0000 0000 0000
0.0 0.0 0.0

action_model._discrete_distribution.branches.0.weight f4 [3, 256]
00000000: 12c5 12bb 6784 3dba f047 c53b 1dab 5238
00000010: e840 14bb 38cf b2bb 0882 4ebb 3710 0dbb
00000020: 2f54 f939 7827 e23b 1fc2 44bb a3ba 343c
00000030: 17fe 863a 4f41 513b b190 b93a 8d5c 7f3b
00000040: 81ca 033b f266 87bb 41d6 473b 4416 93bc
00000050: b09d e8bb 3b6f f33b 8779 d73b 7331 6d3b
00000060: cb20 85bc fd62 f33b 974b e2ba 58b1 793b
00000070: c6df 8f3b d71e d7b8 20df 9e3b e236 12bc
00000080: 88a0 a73b 9b4a 07bb ab3a f53b 1f08 9e39
00000090: 29a0 03bc cb5a 763a f0f6 063c df46 ab3a
000000a0: d57f 29bb afa6 813a 2b92 643c 448e b83b
000000b0: 6f81 2a3c f63b c03b 8cc6 313c cf70 163c
000000c0: 87f3 6a3b 20aa 7e39 7304 23bb 6efb 8dbb
000000d0: 2869 30ba 67f3 a93a 921a c23a 13c7 67ba
000000e0: d88d 27bb 17c2 4a3c 0840 59bb 5ccd 9dbb
000000f0: ef73 1e3a e378 5b3a 38a0 12ba 17ef e63b
00000100: e130 bc3b b2b0 f5bb 6538 653b f25f c4bb
00000110: be88 463c 0e4c 88ba c272 b1bb 5d9b 4cbb
00000120: 4a42 5e3b 2085 e13a 6326 8abb 2b55 8aba
00000130: 00b1 53bb 0189 a7bb e383 153c d7eb d23a
00000140: 4b6e 95bb 9731 3a3a 7407 a53a 5fec 11bb
00000150: a816 32ba ec7f 2abc 7b80 25bc c2b4 b53b
00000160: cbe8 55bc a701 86bb 46c5 b4ba b552 4cbc
00000170: d819 43bc 9814 d4bb 6d7e 7f3c 95a2 dabb
00000180: a7cf 08bc 82d3 55bb 9018 653b d46e c2ba
00000190: 7f68 57b9 a31a 273a a040 153c 83ca f0bb
000001a0: 9fc2 f1b9 2c7c 1f3c 01e2 b8b9 ec9f 963a
000001b0: cf70 203c 25fd daba 7bc9 593b 60cf 71ba
000001c0: 320a a13b 1d53 463c 7c8c 023c a267 f6bb
000001d0: 614b 023c 3458 27bc ecf3 44bc a986 82bb
000001e0: 0bad c13a 2972 16bc 1073 a33a 87d0 913b
000001f0: 4b1c 0e3c f7ce 153a 33f0 b9ba 0898 863b
00000200: 2f1f 06bc 6727 963b ed00 d7bb 5a66 05bc
00000210: 43bc aebb 4bf1 a13b 016f 91bb 93f8 b53b
00000220: e51e 73bb 5b34 0b3c 4e30 25bc 95b5 00ba
00000230: 7a73 7b3b 924a 993a ab7e 793a 7bf9 11bb
00000240: 5085 5e3b 536b 1a3c 28e1 9b3b 46dd 043c
00000250: 8058 5c3b 2ad2 58b9 7a17 6b3b 180b ca3b
00000260: c1d0 a8bb 7847 c2bb d7d9 b1bb eb78 a4bb
00000270: 0bd6 c6ba 3b3b 6a3b 6007 aebb 6f16 9aba
00000280: b10a 1bbc 3211 5d3c 325a 90ba ba8f 9abb
00000290: 0322 9c3b 11ed 96bb 7297 833b f757 4f3b
000002a0: f326 d53a 20e4 0bbc 62ea d9ba 1f81 1c39
000002b0: 55b4 3db9 6baa a03b 67ad 17bb ac73 c33b
000002c0: c3db a3bb 0082 943a 1983 bbbb d919 943b
000002d0: 0438 3d3c f2ce d5bb 0fca cc3b bf04 90b8
000002e0: da29 38bb 18fc eeba 72e6 9cb9 ebb0 c63b
000002f0: fc19 c6ba 604a 213c 43e7 fcbb 2bcc 7c3b
00000300: 4d1b 09bb cb00 353c 8c1c 013c 1bfc 8dbb
00000310: 6b42 ae3b f42a 8bbb 3795 193c 1a14 3bba
00000320: 63c0 a73b f19b 27bc 0764 d4bb 48b8 73bb
00000330: e3f0 80bb 910b 113a 5fa0 3eb9 1748 2cba
00000340: b02f 7f3b d895 64bc 9f6f beba 83aa c33b
00000350: 7ddc 0d39 1a81 c1bb 1dc9 e9ba 42d4 00bc
00000360: 6f17 373b ab68 0d3c 273e 1f3a 1689 0f3c
00000370: 3f20 8abb 2f2d 083a 2056 f33b 581a 5a3b
00000380: 67af 9aba 0a43 703b e385 08bb 9672 a03b
00000390: 21aa 3b3c 38da f337 a198 253b 03e7 fd3a
000003a0: 3fe4 ad3b e043 d2bb c7fd 82bb cf24 ca3b
000003b0: b5ca 533c 83c2 023c 281d 5d3b 22ad d5ba
000003c0: c8f1 52bb 1d69 7bbb 4dcf 843b 837f 7abb
000003d0: 7dde a7b9 30b0 d53a 7d3c af3b 1d28 763c
000003e0: 4406 223b c7cb 093c 0f9d 233c cfa4 ab3a
000003f0: 7aac 743a 0f95 0abc 379b 1fbc f3e9 383b
-0.0022395295 -0.00072295073 0.0060205385 5.0227263e-05 -0.0022621695 -0.0054568313 -0.003151061 -0.0021524557
0.00047555703 0.0069016777 -0.0030022932 0.011030826 0.0010299113 0.0031929796 0.0014157501 0.0038965077
0.0020109715 -0.004132145 0.0030492696 -0.017954953 -0.007098876 0.007429031 0.0065757665 0.0036192804
-0.016250988 0.007427572 -0.0017264959 0.003810009 0.0043906895 -0.00010257743 0.004848376 -0.008924218
0.0051155724 -0.0020643834 0.0074838004 0.0003014216 -0.008033791 0.00093976845 0.008237585 0.0013067386
-0.0025863547 0.0009891595 0.013950865 0.0056321938 0.010406836 0.005866523 0.01085056 0.009182169
0.003585072 0.00024286704 -0.0024874478 -0.0043329513 -0.00067295367 0.0012966216 0.0014808944 -0.0008841615
-0.0025566723 0.012375376 -0.0033149738 -0.0048157405 0.0006044497 0.00083722005 -0.00055933325 0.0070475447
0.0057431315 -0.0074978704 0.003497624 -0.005992883 0.012117563 -0.0010398643 -0.0054152915 -0.0031220533
0.0033914023 0.0017205812 -0.004216002 -0.0010553946 -0.0032301545 -0.0051127677 0.0091256825 0.0016092014
-0.004560267 0.00071027264 0.0012590722 -0.0022266132 -0.0006793537 -0.0104064755 -0.010101433 0.0055452297
-0.01305599 -0.0040895524 -0.0013791702 -0.012470891 -0.011908017 -0.0064721815 0.015594107 -0.0066722133
-0.008350289 -0.003262729 0.0034957267 -0.0014834055 -0.00020542926 0.00063745136 0.009109646 -0.00734836
-0.00046112106 0.009734195 -0.000352636 0.0011491752 0.009792521 -0.0016707523 0.0033231664 -0.00092243217
0.0049145455 0.012104777 0.007968064 -0.007519678 0.007952542 -0.0102139 -0.012021046 -0.003983338
0.0014776302 -0.009182491 0.0012470204 0.004449907 0.008673738 0.0005714739 -0.0014185965 0.004107479
-0.008186146 0.004582334 -0.0065613897 -0.008142078 -0.005332501 0.0049420944 -0.0044382815 0.005553314
-0.0037097272 0.008496369 -0.0100823175 -0.00049098703 0.003836839 0.0011695197 0.0009517471 -0.0022273946
0.0033953972 0.009425002 0.0047570653 0.008109396 0.0033622086 -0.00020677657 0.0035872147 0.0061658733
-0.0051518385 -0.00592893 -0.00542758 -0.0050192974 -0.0015169991 0.003574087 -0.0053109378 -0.0011755953
-0.009462998 0.013492869 -0.0011013208 -0.0047168406 0.0047647967 -0.0046058972 0.0040158564 0.0031638124
0.0016262218 -0.008538276 -0.0016625638 0.0001492542 -0.00018091623 0.004903128 -0.0023144127 0.005964717
-0.005000563 0.0011330247 -0.005722415 0.004519683 0.011549 -0.006524914 0.006249673 -6.867339e-05
-0.0028101117 -0.0018233089 -0.00029926334 0.0060635707 -0.0015113945 0.009844393 -0.007717998 0.0038573842
-0.0020920814 0.011047552 0.007880341 -0.004333032 0.005317976 -0.004247064 0.0093739545 -0.0007136479
0.00511937 -0.01023005 -0.0064816508 -0.0037188698 -0.003934966 0.00055330346 -0.00018179555 -0.00065720215
0.0038938336 -0.013951741 -0.0014529115 0.0059712543 0.00013528946 -0.0059052827 -0.0017836426 -0.007863106
0.0027937551 0.008630912 0.000607463 0.008760711 -0.00421527 0.0005194721 0.0074260384 0.0033279862
-0.0011801542 0.0036661052 -0.0020831756 0.004896472 0.011454136 2.9069473e-05 0.0025267976 0.0019371215
0.00530675 -0.0064167827 -0.003997538 0.0061689387 0.012926747 0.0079809455 0.0033739302 -0.0016302208
-0.003218757 -0.0038362213 0.0040530325 -0.0038222976 -0.0003201849 0.0016303118 0.005347787 0.015024212
0.0024722973 0.008410401 0.009986176 0.0013095381 0.00093335623 -0.00845839 -0.009741596 0.0028215616

action_model._discrete_distribution.branches.1.bias f4 [3]
00000000: 0000 0000 0000 0000 0000 0000
0.0 0.0 0.0

action_model._discrete_distribution.branches.1.weight f4 [3, 256]
00000000: 002e 5ebb 5c1d 8d3b bd7c d6ba 5729 90bb
00000010: 52d6 d6bb 7de9 c23b 82b4 883b db07 90bb
00000020: 66ab 12bb 582b 52bb c4ea 95bb 221e d8ba
00000030: 6838 22bc 70ba b03b 67e0 05bb 6b7c 34bb
00000040: 0530 c73b dd4d 3eba 2526 9cbb 04b3 3b3b
00000050: 3d1e 6b3a cb3a 0e3b fbdc d9ba cfbb 863a
00000060: 2610 113b 8804 083b bb54 2dbc 778e 4738
00000070: bbda 0ebc 16c7 a3bb 7304 2bbc 17c1 a03b
00000080: c4ee 02bc 90f2 d9b9 6fe1 b63b bbe5 98bb
00000090: 6bb6 56bb 971c b73b 8292 97ba 2741 02ba
000000a0: 0b01 063b 8243 dcba 5093 f6bb 7089 ba3a
000000b0: 9ad6 883b 97c7 62bc e87c 2cbb 5d0a 5bba
000000c0: 8889 0cbc 2bf8 593b d5ac e7bb 3462 1d39
000000d0: fa79 643b 235a 8ebb 8fcb 313c 2f8d a53b
000000e0: 1bb5 593a 6813 f439 2fbf c53b b7a7 f539
000000f0: 8b5d 503a 6b89 433b 27c5 f33a 104c 50bc
00000100: 6078 413c 6883 71bb 031e 16bc 9b38 133c
00000110: bca8 03bc 5804 dbbb 9551 603b 3026 47bc
00000120: f691 95b9 e733 eebb de1f 2dbc 94f5 053c
00000130: bee1 0d3c c22e 84bb 2bd0 903b 9257 c23b
00000140: 5068 433b 62b6 d4bb c8c9 eab6 cf13 8b3b
00000150: 039f 45bb 3022 01bc 59dd 32bc 8f62 cc3b
00000160: 0feb 043c 980d 8c3b c711 82bb 5dd1 173a
00000170: a0cd 00bc 4dd8 63bb 9319 09bc 245e 05bc
00000180: 4ce6 003b 9fef 1e3b d0b3 543b 93b8 fd3b
00000190: 4726 26bc 0e82 20bb 8314 b0bb 7df5 eeba
000001a0: e352 bebb 2023 8cba 006c f7bb c56e eeba
000001b0: 7280 953b 1b06 39bb daf0 b7ba ed23 4f3c
000001c0: 8752 e23b e492 893c 10e1 6c3a db02 7fba
000001d0: d7ef 7b3b 5591 0bbb 5b8c a93b f244 97bb
000001e0: 5060 6f3a 6aea d0bb d4ce 87bb 7001 22b9
000001f0: a395 e3bb 88e8 613c 6d12 50bc ccbd 92ba
00000200: 7597 ea38 c7f5 4d3b 7609 41ba 770d d0bb
00000210: f3b7 813b 3753 023b 16e3 c43a 4b73 c93a
00000220: faae 813a 1f3c bf3b c230 e5ba ef35 8cbb
00000230: fc37 0f3c 94fd 94bc 03ef f7bb f209 c539
00000240: b17d 2c3c 7207 dfba 4365 b33b fed1 96bb
00000250: d5bc 04bc 04e7 0e3c b9bb b43b dbb5 3d3b
00000260: f743 05bb e821 6dbb 355d bfbb 256f 02bb
00000270: 5fbc 8dbb 56a8 30bb 0d67 cb3b 6278 5fbb
00000280: 1393 26bc ff75 893c e202 263c c55d 3cbb
00000290: 1aa0 0abb c589 6bbb eefe bc3b b14f 44bb
000002a0: 379e 7d3b fc72 c1b9 848e 48bb 07e4 1c3a
000002b0: 2faa 80bc b7e6 c63a 5ad2 18bc a676 3f3b
000002c0: 8f49 56bc 27b7 61bb 33c5 ae3a 76bd 4cba
000002d0: d6b7 8bbb 7996 243b c32c 403b b68c acbb
000002e0: c44a 973b 3928 88bb 57ee 153c e67b 053c
000002f0: b950 223b ee7a a03a 7c72 83ba fe4a c7bb
00000300: 8e6e bcbb 5ba7 bdbb 0c93 093c db13 c2ba
00000310: 781a bfbb d943 87bb 4f3c 5bbb a31f d3bb
00000320: 6735 dc3a c779 85bb 32c2 59bb c29a 6fbc
00000330: d822 9abb 752c c83b dfd3 cc3b 138c 00bc
00000340: bba1 233c 5883 18bb d704 0cbc b873 913a
00000350: 7d75 293c 4fcb 863b f85b fa3b 2bf2 943a
00000360: 0d2f b03b d200 753c 23f1 ed3b 27af f7bb
00000370: 0bb0 ccbb e33b d63b 9823 2ebc 5340 853c
00000380: 300c 4ebc f8aa 8a3b 64f5 1c3c cb24 453b
00000390: e3d8 8cbb 14a0 0bba 97ee 423c 3ff3 043b
000003a0: 5517 af3b d18c 953a 19a1 babb 0fc7 403b
000003b0: ab12 49bb 9b91 ab3b bb7d fe3b 98c1 273b
000003c0: ba2d 443b 1abb 2abc ad2d 693b c7fa 0fbc
000003d0: 78b2 4ebc f8d3 f4bb 6f09 5aba b85f 1f3a
000003e0: 89a7 34bc 4fb2 83bb cbd8 21bb cbf0 263b
000003f0: 2075 83ba 8f70 39bc 4b89 b63a b8f7 1dbc
-0.003390193 0.0043064784 -0.0016364079 -0.0043994593 -0.0065563107 0.005948244 0.004171909 -0.0043954677
-0.0022379993 -0.0032069292 -0.0045751054 -0.0016488472 -0.009901144 0.005393319 -0.0020427944 -0.002753998
0.0060787224 -0.00072595273 -0.0047652894 0.0028640637 0.00089690444 0.0021702524 -0.0016621643 0.001027936
0.002213487 0.0020754654 -0.010579283 4.7577978e-05 -0.008719142 -0.004998098 -0.0104380725 0.0049058306
-0.0079914965 -0.00041570188 0.005581073 -0.004666058 -0.0032762538 0.005588125 -0.0011564048 -0.0004968815
0.00204474 -0.0016804787 -0.0075248852 0.0014231633 0.004175973 -0.013841531 -0.0026319567 -0.0008355731
-0.008577712 0.0033259492 -0.0070701637 0.0001500927 0.0034862743 -0.004344241 0.010851755 0.005052231
0.000830488 0.00046553765 0.0060347538 0.00046855 0.00079485093 0.0029836546 0.0018598185 -0.012713447
0.011808485 -0.0036852006 -0.009162429 0.008985664 -0.008035835 -0.0066838674 0.0034228314 -0.012155101
-0.00028528244 -0.007269371 -0.01056668 0.008176226 0.008659778 -0.0040338943 0.004419347 0.0059308494
0.0029816814 -0.0064914683 -6.997234e-06 0.0042443047 -0.0030154593 -0.007881686 -0.010917031 0.006237335
0.008112683 0.0042740814 -0.0039694044 0.00057913904 -0.007861525 -0.0034766376 -0.008367914 -0.008140121
0.0019668518 0.0024251712 0.003245581 0.00774295 -0.010140962 -0.002449158 -0.005373539 -0.001823112
-0.0058082207 -0.001069162 -0.0075507164 -0.0018190971 0.004562431 -0.00282324 -0.0014033571 0.012642843
0.0069068107 0.016793676 0.00090362225 -0.00097279035 0.0038442516 -0.0021296341 0.0051742024 -0.004616373
0.0009131478 -0.0063756006 -0.004144529 -0.0001545006 -0.0069453283 0.01378835 -0.012699706 -0.001119548
0.000111862006 0.0031427012 -0.00073637755 -0.0063492614 0.003958696 0.0019886026 0.001502129 0.0015369443
0.0009894066 0.0058360244 -0.0017485844 -0.0042788903 0.008741375 -0.018187322 -0.007566334 0.00037582178
0.010528014 -0.0017015769 0.005474718 -0.0046026697 -0.008101662 0.008722071 0.0055155423 0.0028947506
-0.00203347 -0.003618354 -0.0058399686 -0.0019902673 -0.004325434 -0.0026955805 0.006207353 -0.0034098853
-0.010166901 0.016779898 0.010132523 -0.0028742414 -0.0021152557 -0.0035940271 0.0057676947 -0.0029954726
0.003869904 -0.000368975 -0.0030602524 0.00059849065 -0.01570615 0.001517496 -0.0093274955 0.0029215007
-0.013079061 -0.0034441443 0.0013333916 -0.00078102143 -0.0042638583 0.0025114103 0.0029323555 -0.0052657975
0.004617067 -0.0041551855 0.009151063 0.0081472155 0.0024767353 0.0012243667 -0.0010028626 -0.006081938
-0.005750484 -0.0057877726 0.008396875 -0.0014806943 -0.0058320127 -0.004127961 -0.0033452695 -0.0064429804
0.0016800583 -0.004073355 -0.0033227322 -0.0146242995 -0.0047038607 0.0061088153 0.006250843 -0.007845896
0.00998729 -0.0023271646 -0.008546076 0.0011097109 0.010342953 0.0041135917 0.007640358 0.0011363676
0.0053767026 0.014953809 0.0072614118 -0.0075587216 -0.006246572 0.006537901 -0.010628603 0.016266024
-0.012576148 0.004231807 0.00957999 0.0030081745 -0.004298316 -0.00053262827 0.011897705 0.0020286588
0.0053433576 0.0011409764 -0.005695474 0.0029415523 -0.0030681293 0.0052358634 0.007766453 0.0025597569
0.0029934482 -0.010420585 0.0035580203 -0.008787817 -0.012615792 -0.0074715577 -0.0008317446 0.0006079632
-0.011026272 -0.004019059 -0.002469587 0.0025473114 -0.0010029413 -0.01131834 0.0013926415 -0.00964158

action_model._discrete_distribution.branches.2.bias f4 [3]
00000000: 0000 0000 0000 0000 0000 0000
0.0 0.0 0.0

action_model._discrete_distribution.branches.2.weight f4 [3, 256]
00000000: 48d4 1abb 87f1 183a e421 8e3a 2809 1a3b
00000010: 52b7 df3b df61 3cbb 8369 a239 4241 02bb
00000020: 0ba1 debb 7540 023b 1a02 22bc fdb0 123b
00000030: 880b 163c c2e4 a0b9 7fb8 0ebc 634b f2bb
00000040: 6f29 54bb 84be 0abc 2b6c c83a 73a1 ee3a
00000050: 82e9 66bb 581b 2e3c 279a 12bb 4779 dabb
00000060: 1b14 b53a cf14 233c c3d5 78bc cf17 783c
00000070: 6302 69bc 3b80 d23b b8b6 bb3b 2949 213a
00000080: 7932 1a3b 8097 783b efc5 46bb 3d0f 0ebc
00000090: db47 d5bb dfa9 bb3a 515d 86ba c06c 2abc
000000a0: 877d acbb 4518 f5bb 365e 833b 6f45 d03b
000000b0: 7510 dc3a 9f09 553c d0ac 1a3c ab19 8fbb
000000c0: ef4e ac3b 3d8e 5bbb bd5b d7b9 d311 1a3c
000000d0: 03b8 4fbb 9b41 41bb 4972 9cb9 6d72 4dba
000000e0: a6bc bfbb b314 6bb9 06e4 b239 0b05 803c
000000f0: 1798 02bc c6c2 2abb 2bfb e33b 02c6 8bbb
00000100: 7af9 faba 6b78 a13a fa65 d0ba 0df3 b5ba
00000110: cf3d c03b af39 f23b 0347 8e3b e76c 093c
00000120: 8f61 2ebc 2d54 4f3b 001f 67bb 37e4 37bc
00000130: 5e27 b13b f50b 05bb ff5b 3d3c 95d5 9e3b
00000140: 773f d6ba af43 14bc a82a 473a 49eb 3abb
00000150: 7922 023b 6df4 39bb 83e8 e13b cb13 623a
00000160: 0036 753b bbdf 133c fb30 003c cfe2 12b9
00000170: bc63 2a3c a456 0a3b b267 64b9 8046 54bb
00000180: 383b 66bb 6746 a2ba c281 feb8 ca26 843a
00000190: 2512 04bc 8f3f 6b3a 2299 6abb d338 82bb
000001a0: 7c6b a2bc b018 86bb 37f9 963b 9f8a b23b
000001b0: 7156 1a3c 9f3b c5bb 2446 bbbb 9362 ef3b
000001c0: 0610 8f3b 469b 4b3b 2c6b 80bb 2312 aabb
000001d0: 621d e13b d7d3 ddbb af16 b23b e3cc afbb
000001e0: 1386 2a39 2538 6d38 bd3d e8ba d111 0e3b
000001f0: 6fd3 a6bb 22b9 5bbb 150c a739 a90e 8a3b
00000200: afe8 d4bb e3f5 98ba c21c 42bb 87e6 89bb
00000210: 91eb 943b 2c81 23ba 52fd 4e3b 7ebc 93bb
00000220: 082d 313c e563 45bb b76f cc3b 672e d9bb
00000230: e31e 9f3b ab6e 63bb ea17 f1bb b75d 17bc
00000240: 52c2 1c3b fa7c ec3b 8d86 faba 5760 453b
00000250: 047b 47bc d7d5 edbb 2622 163c 04f4 95bb
00000260: 165e 233c 1722 e23a e3b4 b5bb 1f2e 0dbb
00000270: 6379 b339 eb48 0d3c 954d d837 c909 953b
00000280: 2f07 463b 14ab 23bb 40f2 523b 8d7b ec3b
00000290: df27 1bbb a0b2 f4bb f74a 0bbc 1f1b eb3a
000002a0: 5f29 09bc 6806 d73b f42b bb3b ffd0 a33b
000002b0: 48db b6bb 0bda 9d3b 2e4d c33b 076e e6bb
000002c0: 83fd 183c 260c 0aba 5459 2cbc d7ab 9db9
000002d0: 176e bb3b 9d29 ebba 3e5f caba 96e1 a0bb
000002e0: f718 a4bc 78e8 4f3b 078f 013b e3db 0fbc
000002f0: 4b25 8abc 2487 2aba c575 c9ba e555 0dbb
00000300: b28f 7bba 9b31 9f3a 9ebc 373c 138c 17ba
00000310: ef3a 1bbc 0f50 7dbb 2337 54bb f355 3b3c
00000320: a775 243a ce1a 073c 8fce 5abc ab53 ef3a
00000330: a673 973b 364e 923b 6b5d dfbb 5294 03bc
00000340: 2013 513c 23e5 06ba dbf9 82bb 5f10 3e39
00000350: 7762 69ba f337 95b8 6b49 92b8 3f4f 053b
00000360: fd64 073b a39f 27bc 2275 2bbc 77d2 4cbc
00000370: 67b1 453a 2557 efbb 2bbb 333a f302 993b
00000380: 96e2 4aba bac2 32bc 4587 2fbc 3c1d 88ba
00000390: f7ab f2bb 8363 67bc 2298 113b a251 f1bb
000003a0: e1cb b73b 1fcf bbbb 327c d7bb adeb d439
000003b0: 507f ecba ef1b fdbb 1f23 a73a 247d 08bc
000003c0: 4daf 263a cbf9 123c d34d 813c 0fe8 e33a
000003d0: 4175 093c 27c0 0eba d5af f83b 3788 423a
000003e0: 5324 d9bb b6d0 283a 471e 43bb daa8 013c
000003f0: c8a5 d73b aa7f 0fbc d019 e2ba 747f bfbb
-0.0023625065 0.000583433 0.001084384 0.0023503993 0.0068272734 -0.002874486 0.0003097766 -0.0019875322
-0.0067941 0.0019874845 -0.009888196 0.0022383325 0.009158023 -0.00030688016 -0.0087109795 -0.0073942407
-0.003237333 -0.008468274 0.0015291026 0.0018206075 -0.0035234396 0.010626636 -0.0022369714 -0.0066672894
0.0013815196 0.009953692 -0.0151876835 0.015142395 -0.01422176 0.0064239777 0.005728569 0.00061525643
0.002352862 0.0037932098 -0.003033038 -0.008670625 -0.00650881 0.0014317593 -0.0010251199 -0.010401905
-0.0052639875 -0.0074797 0.0040090336 0.0063559334 0.0016789573 0.013002782 0.009440616 -0.0043670735
0.005258433 -0.0033501529 -0.00041076346 0.009403664 -0.0031695373 -0.0029488567 -0.00029839788 -0.000783718
-0.005851346 -0.00022419057 0.00034120696 0.015627405 -0.007970831 -0.0026056035 0.006957432 -0.0042655477
-0.0019147836 0.0012319213 -0.0015899532 -0.0013881639 0.005866743 0.0073921303 0.0043419614 0.008387781
-0.010643377 0.0031635866 -0.003526628 -0.011223844 0.0054063043 -0.0020301316 0.011557578 0.0048472383
-0.0016345818 -0.00904934 0.0007597604 -0.0028521589 0.0019856973 -0.002837445 0.0068941726 0.0008624165
0.003741622 0.0090255095 0.007824178 -0.00014008138 0.010399755 0.002110877 -0.00021782404 -0.0032390654
-0.0035130512 -0.0012380601 -0.00012135833 0.0010082361 -0.008060967 0.00089740095 -0.003579684 -0.003974059
-0.019826643 -0.0040922984 0.0046073454 0.005448654 0.009420023 -0.0060190703 -0.0057151485 0.007305452
0.004365924 0.0031067892 -0.003919026 -0.0051901503 0.006869958 -0.006769638 0.005434833 -0.0053650006
0.0001626241 5.6557492e-05 -0.0017718595 0.00216781 -0.005091123 -0.0033527096 0.00031861724 0.0042131734
-0.0064974646 -0.001166996 -0.0029619192 -0.004208389 0.0045446833 -0.00062372047 0.0031584096 -0.004508554
0.010813959 -0.0030119356 0.0062389034 -0.006627846 0.004855977 -0.0034703414 -0.007357587 -0.009238652
0.0023919535 0.007217047 -0.0019113586 0.0030117237 -0.012175325 -0.0072581577 0.009163415 -0.004576208
0.009971162 0.0017252591 -0.005545245 -0.0021542383 0.0003423198 0.008623342 2.5785333e-05 0.0045482856
0.0030216684 -0.0024973797 0.003218785 0.007216877 -0.0023674888 -0.007467583 -0.00850176 0.001793716
-0.00837168 0.006562043 0.0057120267 0.0049992795 -0.0055803396 0.0048172525 0.0059601283 -0.0070321593
0.009337786 -0.00052660925 -0.010519344 -0.00030073404 0.005719911 -0.0017941479 -0.0015439761 -0.0049097044
-0.020031435 0.0031724256 0.0019769089 -0.008780452 -0.016863486 -0.0006505123 -0.0015370181 -0.002156609
-0.00095963024 0.0012145521 0.011214403 -0.00057810656 -0.0094745 -0.0038652455 -0.0032381497 0.011434066
0.0006273635 0.008246137 -0.0133549115 0.0018259188 0.0046219407 0.00446489 -0.006816556 -0.008030968
0.012760907 -0.00051458384 -0.0039970702 0.0001812591 -0.0008902917 -7.115295e-05 -6.975498e-05 0.0020341424
0.002065956 -0.010230931 -0.010464938 -0.012501351 0.00075413886 -0.0073040896 0.00068561983 0.004669541
-0.00077394524 -0.010910684 -0.010713403 -0.0010384689 -0.0074057537 -0.014122847 0.0022215922 -0.0073644677
0.005609021 -0.005731478 -0.0065760845 0.00040611383 -0.0018043313 -0.007724277 0.0012751556 -0.008330617
0.00063585193 0.008970688 0.01578418 0.0017387884 0.008389772 -0.0005445503 0.00758932 0.000742081
-0.0066266446 0.0006439792 -0.0029772685 0.0079137925 0.006581042 -0.008758465 -0.0017250124 -0.005844051

action_model._discrete_distribution.branches.3.bias f4 [2]
00000000: 0000 0000 0000 0000
0.0 0.0

action_model._discrete_distribution.branches.3.weight f4 [2, 256]
00000000: b964 3dba 108b eabb e73c 503c 5f05 30bc
00000010: 5241 3c3c b813 84bb 283e a13b 1037 e739
00000020: f533 97bb 6315 973b 0e9e 3cbb 7f2f a63b
00000030: d20b 3cbb 9923 06bb c392 14bc fa40 5f3c
00000040: 341c 4c3a c909 453b 1a43 36ba 1f04 dd3b
00000050: e2be d6bb fb0a cb3b 3580 87bb af0f 2bbc
00000060: f882 e6bb 1f97 91bb 71c2 2fbc 4859 e53b
00000070: b3c9 7b3b 17e6 e43b bf98 18bb 10a1 ee3b
00000080: 73cd 1c3b d7ed c939 f5ce 48bb 4532 afba
00000090: f700 4e3b 0980 813b 900d 75bc 52db 113c
000000a0: cd50 96bb 43d7 9f3b 5710 d537 ef2b a83b
000000b0: 229d 973b 8d60 283c 1ed7 48ba 27e2 0fba
000000c0: 77a4 ce3b b8cc fbbb 17f6 78ba e513 d4bb
000000d0: 3e02 b63b afba 113c 9a92 dabb fd76 3b3a
000000e0: 439b 163b 4fb3 68bc 339c 73bc 03a8 6ebb
000000f0: 89b2 0e3c 8374 eb3a 70e5 debb 6289 6c3b
00000100: 5345 8bbb f092 fabb 7b93 aa3b 50ad d83a
00000110: cf00 84bb d2cf a1bb c1de 023c 2e0c 99bb
00000120: 0ba6 80ba 7b4f 9339 1cf7 223c 2dc7 5a3b
00000130: 27e8 40bc 13cb ddba cfde 4dbb 7240 3f3b
00000140: b70e 07ba a585 ea3b a292 983a fa8d 233c
00000150: c390 fabb 94fc 97bb 577a 8839 46df 25bc
00000160: ebc7 b13a 176b 9d3b 000b 013b 196b 82bb
00000170: 9fde 8fbb e722 8bbb 63ee 253b c33b 5bbc
00000180: 6c6b c7b9 7b21 1bbc 5ff1 f23b aa4c 66bc
00000190: 2318 cd39 2f57 5c3b 3f7e 0abc d7c9 19bc
000001a0: a544 453b 7fb7 593b 1e17 91bb 7158 133c
000001b0: 690d 01ba 8c44 26bb 449e c03b 864d ccb9
000001c0: d33a e4bb 3be8 abb8 bed6 1c3b e2e7 dcbb
000001d0: cbb9 8fbb 09b5 8dbb 6130 19bc 1cb3 853a
000001e0: 77bd 713b 9a41 fd3b 8825 9f3b 1ddd 2ebc
000001f0: 9824 ec3a 2b21 cfba ffe1 903a cf1b 7f3c
00000200: f3e0 5bbc c334 10bb 4e44 193a cffd a33b
00000210: 0ad3 f4bb 92e4 973b 5c53 95bb c763 a0ba
00000220: 2d20 de3b de6f 2abb 34a5 46bb db4b c33b
00000230: 9b09 0f3c 24f0 15bb f384 29bc 13b1 d2bb
00000240: 07c2 1ebc b5a3 63bb 0719 d9bb f841 123b
00000250: 373f 1e3b 05a2 613b ef27 2c3c 7212 a6bb
00000260: 9bf6 683a 7dad 893b 5b7f 943b 3ffc d0ba
00000270: 3359 08bb 6d3e ff3a 50b6 823b 6fe0 793c
00000280: 7339 903b a573 743b 4ab9 683c ed7a 18bb
00000290: a8a3 cebb fd2d 21bc b6a2 95bb 64f5 203c
000002a0: db32 38bb 0fbf 1b39 9f3f 583b 9b4b 75ba
000002b0: bf24 7b3b c0e8 6dbb 1a1d 573c 08ee db3b
000002c0: 1fac 61bb f791 023b 9432 26bc eb96 a93b
000002d0: dfa9 c43b d4e9 b0bb a79a b13b 539d 043c
000002e0: 6e8c 833b 07e1 7bb9 2e6b aaba 5374 533b
000002f0: b0d0 02bb 0d41 8a3a fab3 b8bb 72f7 d639
00000300: 3d5f f93a 6bfa 423c eeb7 b23b 08e0 5abb
00000310: eab5 c23b 3351 f5bb 1fb9 20bc 2405 073c
00000320: 4fa1 e8bb d6c1 8b3a 403c 833b 6866 b8bb
00000330: 59a3 b03b 3df9 59bb 7309 f2bb 3bbe 273b
00000340: ce2d 33bb b276 0d3a e0c5 5cbb a839 f2ba
00000350: 72c9 9d3b 40aa ad3b ec1e 3abb 2b87 0abb
00000360: 3db5 d03a aa49 15ba 8b05 cd3b 6fa8 6a3b
00000370: 911b 97ba 08c6 55bc ead1 ee3a 20d7 6dba
00000380: 0f8a 03bc 0430 253c 83b3 6d3b d3fd b2bb
00000390: 9f4a 42bb 84b5 003b bf55 923b 0a15 54bc
000003a0: 07e9 143c 4392 46bc 5b93 e1bb 03d2 9539
000003b0: 6a0d a33b fd92 b23b 0551 643b 83c7 823b
000003c0: 34b1 82bb c4f1 8d3b 1f2e 863b d581 13bb
000003d0: b3d8 a63b eff3 74ba 8f76 a6bb 1bb6 6fbb
000003e0: de3d b3bb 7a1d 5f3b a698 313a ca1a f737
000003f0: 67aa 4cbc 8b9c 22bc 5b59 713b 5dd4 9e3b
-0.00072247867 -0.007157691 0.012709833 -0.010743468 0.011490183 -0.004030671 0.0049207397 0.00044100778
-0.004614348 0.004610704 -0.0028780731 0.00507158 -0.002869357 -0.0020467995 -0.009068194 0.013626331
0.0007786185 0.0030065647 -0.0006952748 0.006744876 -0.0065535167 0.0061963773 -0.0041351565 -0.010440751
-0.0070346557 -0.004443064 -0.010727511 0.0069991685 0.0038419783 0.0069854367 -0.0023284403 0.0072823837
0.0023926168 0.00038514912 -0.0030640934 -0.0013366422 0.003143368 0.0039520306 -0.014956847 0.008902388
-0.004587269 0.004877956 2.5399188e-05 0.0051321904 0.004626886 0.010276926 -0.00076614495 -0.00054887164
0.006306227 -0.0076843165 -0.00094971195 -0.006472098 0.0055544665 0.0088946065 -0.0066703083 0.00071512145
0.0022980727 -0.014202907 -0.014868784 -0.003641606 0.008709558 0.00179638 -0.0068022534 0.0036092629
-0.0042502075 -0.007646911 0.0052055693 0.0016531143 -0.0040284167 -0.004938104 0.007987679 -0.0046706414
-0.000981511 0.00028097242 0.009946611 0.0033382878 -0.011774099 -0.0016921483 -0.0031413322 0.00291827
-0.0005152034 0.007157045 0.001164038 0.00998258 -0.0076466515 -0.004638264 0.00026031092 -0.010124033
0.0013563609 0.004804026 0.0019690394 -0.003980052 -0.004390552 -0.004246104 0.0025319092 -0.0133809475
-0.00038036273 -0.009468432 0.0074140276 -0.014056364 0.0003911863 0.0033621301 -0.008452951 -0.009386501
0.003010073 0.0033220944 -0.0044278046 0.008993254 -0.0004922958 -0.0025370447 0.0058782417 -0.00038967672
-0.00696502 -8.197172e-05 0.0023931707 -0.00674151 -0.004386162 -0.0043245596 -0.009349913 0.0010200473
0.0036886611 0.0077287676 0.004856769 -0.010672835 0.0018016277 -0.0015802732 0.001105368 0.015570595
-0.013420331 -0.0022004105 0.0005846665 0.0050046216 -0.007471447 0.004635402 -0.0045570564 -0.0012236767
0.006778738 -0.002600662 -0.003031087 0.0059599704 0.0087303175 -0.002287873 -0.010346639 -0.0064298003
-0.009689814 -0.0034735028 -0.006625298 0.0022317152 0.0024146566 0.0034428847 0.010507568 -0.005068117
0.0008886845 0.0042015896 0.0045317835 -0.0015944316 -0.002080512 0.001947356 0.0039890185 0.015251263
0.0044013797 0.0037300375 0.014204333 -0.002326663 -0.0063061304 -0.009837625 -0.004566516 0.009824131
-0.0028106484 0.00014853127 0.0032996906 -0.00093572744 0.0038321463 -0.003630206 0.013129497 0.006711725
-0.0034434868 0.0019923428 -0.010143895 0.0051754615 0.0060016955 -0.0053989682 0.0054200473 0.00809415
0.0040145433 -0.00024021055 -0.0013001913 0.003226538 -0.0019960813 0.0010547951 -0.0056366893 0.00041001622
0.0019025576 0.011900525 0.005454055 -0.0033397693 0.005942096 -0.0074864863 -0.009809761 0.008240972
-0.0070993076 0.0010662626 0.004004985 -0.005627442 0.0053905663 -0.003326013 -0.0073863803 0.0025595564
-0.0027340534 0.000539641 -0.0033687279 -0.0018480318 0.004815274 0.0052998364 -0.0028399779 -0.0021137695
0.0015923154 -0.0005694876 0.0062567643 0.003580596 -0.0011528601 -0.013047703 0.0018220518 -0.00090728886
-0.008028521 0.010082249 0.0036270327 -0.005462387 -0.0029646528 0.0019639442 0.004465788 -0.012944469
0.009088761 -0.012119832 -0.006884021 0.00028575966 0.0049759643 0.0054496513 0.003483833 0.003991069
-0.0039884094 0.004331799 0.0040948535 -0.0022507806 0.0050917505 -0.000934421 -0.0050800513 -0.003657705
-0.0054700216 0.003404467 0.00067747605 2.945717e-05 -0.012491799 -0.009925018 0.0036826942 0.004847093

discrete_action_output_shape f4 [1, 4]
00000000: 0000 4040 0000 4040 0000 4040 0000 0040
3.0 3.0 3.0 2.0

network_body._body_endoder.seq_layers.0.bias f4 [256]
00000000: 0000 0000 0000 0000 0000 0000 0000 0000
00000010: 0000 0000 0000 0000 0000 0000 0000 0000
00000020: 0000 0000 0000 0000 0000 0000 0000 0000
00000030: 0000 0000 0000 0000 0000 0000 0000 0000
00000040: 0000 0000 0000 0000 0000 0000 0000 0000
00000050: 0000 0000 0000 0000 0000 0000 0000 0000
00000060: 0000 0000 0000 0000 0000 0000 0000 0000
00000070: 0000 0000 0000 0000 0000 0000 0000 0000
00000080: 0000 0000 0000 0000 0000 0000 0000 0000
00000090: 0000 0000 0000 0000 0000 0000 0000 0000
000000a0: 0000 0000 0000 0000 0000 0000 0000 0000
000000b0: 0000 0000 0000 0000 0000 0000 0000 0000
000000c0: 0000 0000 0000 0000 0000 0000 0000 0000
000000d0: 0000 0000 0000 0000 0000 0000 0000 0000
000000e0: 0000 0000 0000 0000 0000 0000 0000 0000
000000f0: 0000 0000 0000 0000 0000 0000 0000 0000
00000100: 0000 0000 0000 0000 0000 0000 0000 0000
00000110: 0000 0000 0000 0000 0000 0000 0000 0000
00000120: 0000 0000 0000 0000 0000 0000 0000 0000
00000130: 0000 0000 0000 0000 0000 0000 0000 0000
00000140: 0000 0000 0000 0000 0000 0000 0000 0000
00000150: 0000 0000 0000 0000 0000 0000 0000 0000
00000160: 0000 0000 0000 0000 0000 0000 0000 0000
00000170: 0000 0000 0000 0000 0000 0000 0000 0000
00000180: 0000 0000 0000 0000 0000 0000 0000 0000
00000190: 0000 0000 0000 0000 0000 0000 0000 0000
000001a0: 0000 0000 0000 0000 0000 0000 0000 0000
000001b0: 0000 0000 0000 0000 0000 0000 0000 0000
000001c0: 0000 0000 0000 0000 0000 0000 0000 0000
000001d0: 0000 0000 0000 0000 0000 0000 0000 0000
000001e0: 0000 0000 0000 0000 0000 0000 0000 0000
000001f0: 0000 0000 0000 0000 0000 0000 0000 0000
00000200: 0000 0000 0000 0000 0000 0000 0000 0000
00000210: 0000 0000 0000 0000 0000 0000 0000 0000
00000220: 0000 0000 0000 0000 0000 0000 0000 0000
00000230: 0000 0000 0000 0000 0000 0000 0000 0000
00000240: 0000 0000 0000 0000 0000 0000 0000 0000
00000250: 0000 0000 0000 0000 0000 0000 0000 0000
00000260: 0000 0000 0000 0000 0000 0000 0000 0000
00000270: 0000 0000 0000 0000 0000 0000 0000 0000
00000280: 0000 0000 0000 0000 0000 0000 0000 0000
00000290: 0000 0000 0000 0000 0000 0000 0000 0000
000002a0: 0000 0000 0000 0000 0000 0000 0000 0000
000002b0: 0000 0000 0000 0000 0000 0000 0000 0000
000002c0: 0000 0000 0000 0000 0000 0000 0000 0000
000002d0: 0000 0000 0000 0000 0000 0000 0000 0000
000002e0: 0000 0000 0000 0000 0000 0000 0000 0000
000002f0: 0000 0000 0000 0000 0000 0000 0000 0000
00000300: 0000 0000 0000 0000 0000 0000 0000 0000
00000310: 0000 0000 0000 0000 0000 0000 0000 0000
00000320: 0000 0000 0000 0000 0000 0000 0000 0000
00000330: 0000 0000 0000 0000 0000 0000 0000 0000
00000340: 0000 0000 0000 0000 0000 0000 0000 0000
00000350: 0000 0000 0000 0000 0000 0000 0000 0000
00000360: 0000 0000 0000 0000 0000 0000 0000 0000
00000370: 0000 0000 0000 0000 0000 0000 0000 0000
00000380: 0000 0000 0000 0000 0000 0000 0000 0000
00000390: 0000 0000 0000 0000 0000 0000 0000 0000
000003a0: 0000 0000 0000 0000 0000 0000 0000 0000
000003b0: 0000 0000 0000 0000 0000 0000 0000 0000
000003c0: 0000 0000 0000 0000 0000 0000 0000 0000
000003d0: 0000 0000 0000 0000 0000 0000 0000 0000
000003e0: 0000 0000 0000 0000 0000 0000 0000 0000
000003f0: 0000 0000 0000 0000 0000 0000 0000 0000
0.0 0.0 0.0 0.0 0.0 0.0 0.0 0.0
0.0 0.0 0.0 0.0 0.0 0.0 0.0 0.0
0.0 0.0 0.0 0.0 0.0 0.0 0.0 0.0
0.0 0.0 0.0 0.0 0.0 0.0 0.0 0.0
0.0 0.0 0.0 0.0 0.0 0.0 0.0 0.0
0.0 0.0 0.0 0.0 0.0 0.0 0.0 0.0
0.0 0.0 0.0 0.0 0.0 0.0 0.0 0.0
0.0 0.0 0.0 0.0 0.0 0.0 0.0 0.0
0.0 0.0 0.0 0.0 0.0 0.0 0.0 0.0
0.0 0.0 0.0 0.0 0.0 0.0 0.0 0.0
0.0 0.0 0.0 0.0 0.0 0.0 0.0 0.0
0.0 0.0 0.0 0.0 0.0 0.0 0.0 0.0
0.0 0.0 0.0 0.0 0.0 0.0 0.0 0.0
0.0 0.0 0.0 0.0 0.0 0.0 0.0 0.0
0.0 0.0 0.0 0.0 0.0 0.0 0.0 0.0
0.0 0.0 0.0 0.0 0.0 0.0 0.0 0.0
0.0 0.0 0.0 0.0 0.0 0.0 0.0 0.0
0.0 0.0 0.0 0.0 0.0 0.0 0.0 0.0
0.0 0.0 0.0 0.0 0.0 0.0 0.0 0.0
0.0 0.0 0.0 0.0 0.0 0.0 0.0 0.0
0.0 0.0 0.0 0.0 0.0 0.0 0.0 0.0
0.0 0.0 0.0 0.0 0.0 0.0 0.0 0.0
0.0 0.0 0.0 0.0 0.0 0.0 0.0 0.0
0.0 0.0 0.0 0.0 0.0 0.0 0.0 0.0
0.0 0.0 0.0 0.0 0.0 0.0 0.0 0.0
0.0 0.0 0.0 0.0 0.0 0.0 0.0 0.0
0.0 0.0 0.0 0.0 0.0 0.0 0.0 0.0
0.0 0.0 0.0 0.0 0.0 0.0 0.0 0.0
0.0 0.0 0.0 0.0 0.0 0.0 0.0 0.0
0.0 0.0 0.0 0.0 0.0 0.0 0.0 0.0
0.0 0.0 0.0 0.0 0.0 0.0 0.0 0.0
0.0 0.0 0.0 0.0 0.0 0.0 0.0 0.0

network_body._body_endoder.seq_layers.0.weight f4 [256, 11]
00000000: 6528 bb3e 2c11 143f 5ee7 4f3e ccd6 e9be
00000010: 48e5 e7bc 8012 cdbe f323 db3e bea2 17bf
00000020: e258 9a3c 7da3 313d c1fb a03e 411d 713e
00000030: 67f1 623e 4f8e 73be d66d 05bf a4d8 073f
00000040: f7cc c7be d6bb d13d fd65 6fbe 1872 323e
00000050: 063c 673e a45e e83e 3bcf 05bd d7e7 a2bc
00000060: f89e 17bd 8aa8 94bd c04a d0bc 0d83 f33d
00000070: 0358 09bf 9282 0ebf 10ba 403d 78cb 233f
00000080: 9e8c 19bf 7f16 8f3e 870f d23e e39b 2a3f
00000090: b1ca e13e 3f2c 19bd 1113 183e 28ab b4be
000000a0: f9b3 24be c21a 91be 6da7 f8be 348c 843e
000000b0: 0bc5 e13e 6b03 123e d4de 713e 2dc0 843e
000000c0: c0b2 823e 3fb4 293e 770d d13c f825 893d
000000d0: d3ff 48be 1c79 613d ec31 85bd 4ad7 c1be
000000e0: 2150 633c 3456 47bd ff4b 523c b92d 1d3f
000000f0: 7b2e 6c3e b67e 513e bcd9 c2be 151d 00bf
00000100: 7ba7 7dbe ab94 833c 4c47 a9bd 1865 073f
00000110: dfdd a93e f3ce 59bd d876 ad3d 219e 09be
00000120: 3711 f6bd 23be 3cbd 4014 40be b8d4 1abf
00000130: 21ca 36bf 3899 9cbc 47a6 0abe a20e ee3e
00000140: 20c7 5cbd 3c2c 3f3e 7265 ce3d f89a a33e
00000150: 797e a4be 4b7c 0fbf cba4 8c3e 9189 76be
00000160: 54aa b33e 13ee 173f a480 043e 9e79 0cbd
00000170: 7991 01bd 5ac7 00be e615 3c3d c872 c1be
00000180: 447f 023f ef91 153d 1223 9bbc 6215 623e
00000190: 8010 94bd 1f5c 0fbf a9cd 913e 2cc9 693e
000001a0: 26b6 94bc 3511 313e 3776 dd3d 5824 9c3b
000001b0: 4162 693e 3f9d 1dbd 36b2 10bf e080 12bd
000001c0: be74 f1be b764 3d3f 4069 c83e 74d6 58be
000001d0: ffe1 01bd 846b 57bd f62d aebe 4d82 2bbe
000001e0: fe49 d9be 4394 88bd 7b99 c2bd c803 9c3e
000001f0: 88e2 cd3d b5b8 f73e 28d3 293e 495c 133e
00000200: 14f1 bf3e 1f9d 1cbe dac4 313e 51d4 dcbe
00000210: 56b6 643d 7c60 b63d cfa2 a83e 7e91 273f
00000220: 91b2 cbbe 132e ffbd 394e b03e 383a bcbe
00000230: 3b98 2b3f 6f84 f5bd 25f9 7fbe d836 cbbd
00000240: 9caa ca3c 7f43 a9bc 0410 c63d 16a8 4b3e
00000250: c049 813e 8964 173d 48c6 ee3e c23b 913d
00000260: d863 f83d e6a0 38be 9f33 4b3e 6372 0c3f
00000270: 6700 193f 47e5 aebe a03a 35be 6cac 4abe
00000280: ad14 14bf 6a16 d7bd a4ea 34bd e90b 14be
00000290: 15c0 e23e 8252 d2be 815f 92be 96ef 1abe
000002a0: 2306 033e 9c19 b43e a90c 30be 0c3c 373e
000002b0: a1e4 883e 73d4 4dbd 1990 9a3e c426 5abe
000002c0: f420 8cbe 3d33 54bf d7b2 d5bd a83f acbe
000002d0: ddeb 3b3e 50d6 c33e 2ebb 2fbd 7808 3dbe
000002e0: 9404 1a3e 0c96 4cbc 622d e0bd bd93 92be
000002f0: cf59 7cbd c9cd 3e3e 1e98 133e 9176 bb3c
00000300: 0c66 6c3e 0cc6 da3d f183 08bf 1b42 f8bc
00000310: 00cf 773e 4bdd 4e3e 863e 8ebe 9df8 76bc
00000320: e393 84bd f5df a6be d1a3 2d3e 5e73 e1be
00000330: 5f20 753e b997 803d 6d32 6bbc 2281 b8be
00000340: 6e05 333d 0a9b 673f 55cd 4e3e 2a38 ac3e
00000350: 97a2 a93d 781f 703e 919a 20be 52a4 b63e
00000360: b120 283d 006f e03e a315 693d 8c87 043e
00000370: e8b1 683e 4d57 e93d 992f afbe 2a85 b13e
00000380: 5427 9bbd 5701 023f 6b11 bc3d 94f4 84bd
00000390: c8ad 803c 71ac 81be e5bd adbe 8eea c53e
000003a0: cae5 1b3e 6f69 28bd 2463 77be d094 773e
000003b0: b126 90be 1edd e73e 9637 fdbd 6a2f 503e
000003c0: 010a f73e c426 cfbd 5564 143f 7f5d 013f
000003d0: 8e75 29bf 3477 83bd bb81 69be 8057 f0be
000003e0: 5db7 3ebe f47e bdbe 54bf a7bd 20ba 0bbf
000003f0: d470 08bd 982d 943e 4423 70be 049f 72be
0.36554256 0.578387 0.20303103 -0.4567169 -0.028307572 -0.40053177 0.42800865 -0.592327
0.01884121 0.043368805 0.31442073 0.23546316 0.221624 -0.23784755 -0.5212072 0.5306494
-0.39023563 0.10240905 -0.23378749 0.17426336 0.22581491 0.45384705 -0.032668334 -0.01988594
-0.03701684 -0.07258709 -0.025426269 0.1189023 -0.5364992 -0.55667984 0.047052443 0.63982344
-0.5998019 0.2794685 0.4102747 0.66644114 0.44099954 -0.037395712 0.14851023 -0.35286832
-0.16084279 -0.28340727 -0.48565236 0.25888216 0.44095644 0.14259116 0.23620158 0.25927868
0.25527 0.16572665 0.025519116 0.06696695 -0.19628839 0.05504714 -0.065036625 -0.37859565
0.013874085 -0.048666194 0.012835502 0.6139789 0.23064606 0.20458493 -0.38056743 -0.50044376
-0.2477092 0.016062101 -0.08265552 0.5288863 0.33177087 -0.053175878 0.08469933 -0.13439228
-0.12015002 -0.046079766 -0.18757725 -0.60480833 -0.71402174 -0.01911603 -0.13539992 0.4649554
-0.053900838 0.18669218 0.10077943 0.3195417 -0.3212774 -0.5604903 0.27469477 -0.24075915
0.35090888 0.5934765 0.12939698 -0.03429567 -0.031632874 -0.12576047 0.04591932 -0.37782884
0.5097544 0.036516126 -0.018937621 0.2207847 -0.072297096 -0.5599994 0.2847722 0.22830647
-0.018153261 0.1729172 0.10813563 0.0047650747 0.22791387 -0.03848004 -0.5652193 -0.035767436
-0.4715938 0.73981804 0.391428 -0.21175557 -0.031709667 -0.05259277 -0.3401944 -0.16748925
-0.42439264 -0.06668904 -0.0950193 0.30471635 0.10052973 0.48383108 0.16584456 0.14390673
0.37488616 -0.15294312 0.17360249 -0.43130735 0.05583795 0.08905122 0.32936713 0.6545638
-0.39784673 -0.1245996 0.3443468 -0.36763167 0.6702916 -0.1198815 -0.24997385 -0.0992257
0.024739556 -0.020662067 0.096710235 0.19888338 0.2525158 0.036961112 0.46635652 0.07091476
0.12128419 -0.18030128 0.1984391 0.5486204 0.5976624 -0.341593 -0.17698145 -0.19792336
-0.5784405 -0.10502322 -0.044169083 -0.14457668 0.44287172 -0.41078573 -0.2858849 -0.15130457
0.1279531 0.35175788 -0.1719233 0.17894 0.2673693 -0.050251435 0.30188063 -0.2130385
-0.2736889 -0.82890683 -0.104345016 -0.33642316 0.18351693 0.38249445 -0.042903118 -0.18460262
0.15040809 -0.012486946 -0.10946156 -0.2862834 -0.061609086 0.18633188 0.14413497 0.022883685
0.23085803 0.10682306 -0.53326327 -0.030304959 0.24200058 0.20201604 -0.27782077 -0.015073922
-0.0647352 -0.3259274 0.16957022 -0.4403333 0.2393813 0.06278939 -0.014355284 -0.3603602
0.04370635 0.90470946 0.20195515 0.336366 0.08282965 0.23449504 -0.15683962 0.3567224
0.041046802 0.43834686 0.0569054 0.12942332 0.22724116 0.113936044 -0.34216002 0.3467191
-0.075758606 0.50783294 0.0918301 -0.06491962 0.015707865 -0.25326875 -0.3393394 0.38655514
0.15224376 -0.041116174 -0.24158913 0.24177861 -0.2815452 0.45285887 -0.12364118 0.20330587
0.4824982 -0.10114816 0.57965595 0.5053329 -0.66195 -0.064192206 -0.22803394 -0.46941757
-0.18624635 -0.3701092 -0.0819079 -0.5458088 -0.033310726 0.28941035 -0.23450953 -0.23693472

network_body._body_endoder.seq_layers.2.bias f4 [256]
00000000: 0000 0000 0000 0000 0000 0000 0000 0000
00000010: 0000 0000 0000 0000 0000 0000 0000 0000
00000020: 0000 0000 0000 0000 0000 0000 0000 0000
00000030: 0000 0000 0000 0000 0000 0000 0000 0000
00000040: 0000 0000 0000 0000 0000 0000 0000 0000
00000050: 0000 0000 0000 0000 0000 0000 0000 0000
00000060: 0000 0000 0000 0000 0000 0000 0000 0000
00000070: 0000 0000 0000 0000 0000 0000 0000 0000
00000080: 0000 0000 0000 0000 0000 0000 0000 0000
00000090: 0000 0000 0000 0000 0000 0000 0000 0000
000000a0: 0000 0000 0000 0000 0000 0000 0000 0000
000000b0: 0000 0000 0000 0000 0000 0000 0000 0000
000000c0: 0000 0000 0000 0000 0000 0000 0000 0000
000000d0: 0000 0000 0000 0000 0000 0000 0000 0000
000000e0: 0000 0000 0000 0000 0000 0000 0000 0000
000000f0: 0000 0000 0000 0000 0000 0000 0000 0000
00000100: 0000 0000 0000 0000 0000 0000 0000 0000
00000110: 0000 0000 0000 0000 0000 0000 0000 0000
00000120: 0000 0000 0000 0000 0000 0000 0000 0000
00000130: 0000 0000 0000 0000 0000 0000 0000 0000
00000140: 0000 0000 0000 0000 0000 0000 0000 0000
00000150: 0000 0000 0000 0000 0000 0000 0000 0000
00000160: 0000 0000 0000 0000 0000 0000 0000 0000
00000170: 0000 0000 0000 0000 0000 0000 0000 0000
00000180: 0000 0000 0000 0000 0000 0000 0000 0000
00000190: 0000 0000 0000 0000 0000 0000 0000 0000
000001a0: 0000 0000 0000 0000 0000 0000 0000 0000
000001b0: 0000 0000 0000 0000 0000 0000 0000 0000
000001c0: 0000 0000 0000 0000 0000 0000 0000 0000
000001d0: 0000 0000 0000 0000 0000 0000 0000 0000
000001e0: 0000 0000 0000 0000 0000 0000 0000 0000
000001f0: 0000 0000 0000 0000 0000 0000 0000 0000
00000200: 0000 0000 0000 0000 0000 0000 0000 0000
00000210: 0000 0000 0000 0000 0000 0000 0000 0000
00000220: 0000 0000 0000 0000 0000 0000 0000 0000
00000230: 0000 0000 0000 0000 0000 0000 0000 0000
00000240: 0000 0000 0000 0000 0000 0000 0000 0000
00000250: 0000 0000 0000 0000 0000 0000 0000 0000
00000260: 0000 0000 0000 0000 0000 0000 0000 0000
00000270: 0000 0000 0000 0000 0000 0000 0000 0000
00000280: 0000 0000 0000 0000 0000 0000 0000 0000
00000290: 0000 0000 0000 0000 0000 0000 0000 0000
000002a0: 0000 0000 0000 0000 0000 0000 0000 0000
000002b0: 0000 0000 0000 0000 0000 0000 0000 0000
000002c0: 0000 0000 0000 0000 0000 0000 0000 0000
000002d0: 0000 0000 0000 0000 0000 0000 0000 0000
000002e0: 0000 0000 0000 0000 0000 0000 0000 0000
000002f0: 0000 0000 0000 0000 0000 0000 0000 0000
00000300: 0000 0000 0000 0000 0000 0000 0000 0000
00000310: 0000 0000 0000 0000 0000 0000 0000 0000
00000320: 0000 0000 0000 0000 0000 0000 0000 0000
00000330: 0000 0000 0000 0000 0000 0000 0000 0000
00000340: 0000 0000 0000 0000 0000 0000 0000 0000
00000350: 0000 0000 0000 0000 0000 0000 0000 0000
00000360: 0000 0000 0000 0000 0000 0000 0000 0000
00000370: 0000 0000 0000 0000 0000 0000 0000 0000
00000380: 0000 0000 0000 0000 0000 0000 0000 0000
00000390: 0000 0000 0000 0000 0000 0000 0000 0000
000003a0: 0000 0000 0000 0000 0000 0000 0000 0000
000003b0: 0000 0000 0000 0000 0000 0000 0000 0000
000003c0: 0000 0000 0000 0000 0000 0000 0000 0000
000003d0: 0000 0000 0000 0000 0000 0000 0000 0000
000003e0: 0000 0000 0000 0000 0000 0000 0000 0000
000003f0: 0000 0000 0000 0000 0000 0000 0000 0000
0.0 0.0 0.0 0.0 0.0 0.0 0.0 0.0
0.0 0.0 0.0 0.0 0.0 0.0 0.0 0.0
0.0 0.0 0.0 0.0 0.0 0.0 0.0 0.0
0.0 0.0 0.0 0.0 0.0 0.0 0.0 0.0
0.0 0.0 0.0 0.0 0.0 0.0 0.0 0.0
0.0 0.0 0.0 0.0 0.0 0.0 0.0 0.0
0.0 0.0 0.0 0.0 0.0 0.0 0.0 0.0
0.0 0.0 0.0 0.0 0.0 0.0 0.0 0.0
0.0 0.0 0.0 0.0 0.0 0.0 0.0 0.0
0.0 0.0 0.0 0.0 0.0 0.0 0.0 0.0
0.0 0.0 0.0 0.0 0.0 0.0 0.0 0.0
0.0 0.0 0.0 0.0 0.0 0.0 0.0 0.0
0.0 0.0 0.0 0.0 0.0 0.0 0.0 0.0
0.0 0.0 0.0 0.0 0.0 0.0 0.0 0.0
0.0 0.0 0.0 0.0 0.0 0.0 0.0 0.0
0.0 0.0 0.0 0.0 0.0 0.0 0.0 0.0
0.0 0.0 0.0 0.0 0.0 0.0 0.0 0.0
0.0 0.0 0.0 0.0 0.0 0.0 0.0 0.0
0.0 0.0 0.0 0.0 0.0 0.0 0.0 0.0
0.0 0.0 0.0 0.0 0.0 0.0 0.0 0.0
0.0 0.0 0.0 0.0 0.0 0.0 0.0 0.0
0.0 0.0 0.0 0.0 0.0 0.0 0.0 0.0
0.0 0.0 0.0 0.0 0.0 0.0 0.0 0.0
0.0 0.0 0.0 0.0 0.0 0.0 0.0 0.0
0.0 0.0 0.0 0.0 0.0 0.0 0.0 0.0
0.0 0.0 0.0 0.0 0.0 0.0 0.0 0.0
0.0 0.0 0.0 0.0 0.0 0.0 0.0 0.0
0.0 0.0 0.0 0.0 0.0 0.0 0.0 0.0
0.0 0.0 0.0 0.0 0.0 0.0 0.0 0.0
0.0 0.0 0.0 0.0 0.0 0.0 0.0 0.0
0.0 0.0 0.0 0.0 0.0 0.0 0.0 0.0
0.0 0.0 0.0 0.0 0.0 0.0 0.0 0.0

network_body._body_endoder.seq_layers.2.weight f4 [256, 256]
00000000: ad5d 78bb 1757 fd3c 573b f53c 1413 963b
00000010: fcd3 9e3d a67c 333b 1827 2d3e c994 b73c
00000020: e2fd 993c 2138 8bbd 6435 d9bd c879 94bd
00000030: 3985 90bd 6124 3abe db28 ba3c ba48 e63c
00000040: 03cd 003d c7d4 72bc 2918 263d ed3a cebd
00000050: b7ed adbd 18f6 42bd 2b81 053d 060c 733d
00000060: 0c08 90bc a902 2b3d 46ef 533d 7a6c e53b
00000070: 50ca b43b c078 543d 2077 7a3d 66f4 383d
00000080: a7b5 03bd 4fc3 a9bd 6592 5abc 29ba f1bc
00000090: 621d 2e3c 9d17 833c ad7d 533d c7fd acbd
000000a0: 991a 8c3d db0d c73d 68a4 9ebd f677 943c
000000b0: cfd5 973b 5d43 903d 0471 a33d 8d74 32bd
000000c0: 2a5b b93c 8e59 6d3d de6f eb3b 1d66 f23c
000000d0: 688b ae3c 2fc0 5fbd ab74 8abb eaab c1bb
000000e0: d734 89bd 835d ef3c f71b 48b9 c26e c3bd
000000f0: 9795 c4bc f0b4 c3bc 4b29 843c 2b7b 723c
00000100: 46b6 ed3c 3bf2 0ebd fc89 cf3d c742 21bd
00000110: 2cb6 89bd 3dd3 7a3c 68df 9d3c dc4b 0ebc
00000120: fad7 3fbd 4ecd 6abd dc0c a53c 0886 2fbd
00000130: 1ace eebb e393 acbd 2734 483c 5878 fd3c
00000140: bca3 4f3d 5221 123d 234e bcbc 071f 1ebe
00000150: 3ce6 a83d 0c3d 72bd d325 863d aa49 3bbd
00000160: 2318 f3bb 22cd db3c 4f2e 32ba d14b 1abd
00000170: cde7 303c b0e3 4abc 785c 85bd 8bd5 efbc
00000180: 803f 01bc d054 743d 0f43 6ebd ec24 eebc
00000190: 6a28 a0bc 0898 88bb f68d 1b3e f69a 673c
000001a0: 8131 4abd 02b7 22be dacb 53bc 251c 40bb
000001b0: 4e5c b2ba 9c6c afbd a510 bc3c 0017 8ebd
000001c0: fce8 143d 1a86 c2bc 9fd5 d73d d523 a83d
000001d0: b551 18bd 4d40 cfbd d19e 1b3b a022 4fbd
000001e0: f505 113c 8677 39bc a01c 59bd 6687 913d
000001f0: 6faa e7bc 225b b73b d121 35bd fafb d63d
00000200: 1ac0 583d 267c c9bd 1866 833d 14c2 573d
00000210: 0f87 cdbd 6f04 3ebd f49e d039 53fb e63c
00000220: f846 8abb 9acd 85bc 31af e63d 2c0e 32bc
00000230: 719d 95bd 3975 3dbc 20a4 203d 6be2 58bd
00000240: b6fc 85bb 85e7 0ebd 4a79 a43b 2a6f e6bd
00000250: e4e3 ddbc a7e2 30bc 7190 033e d2ce adbb
00000260: 64e9 bd3d c933 563d 979e bb3c 8a1e a23d
00000270: 414c b03d cbdf 00be 5739 c53c 71af 37bd
00000280: 8b49 44bc e7a6 803d 7c4f 773c c894 923c
00000290: 54d6 80bc f910 1cbd de3d d5bd 75ab e23d
000002a0: 76e8 063d e177 1cbc 79be 833d 6acc abbd
000002b0: 3827 c1bc af87 c63d c1d6 393d e988 8a3b
000002c0: ac60 8bbd 83ea 42bc fba4 16bc 6f4c c6bc
000002d0: b2a6 0b3c 0cfb 2b3c a52c 153e 865b 45bd
000002e0: 8ac7 fdbd a6e5 163e 96f8 08bd 6751 863c
000002f0: 29a2 823c 962b cabd 8a85 d2bb ec95 213d
00000300: 0735 8abd 10f5 233d c718 163d e174 06be
00000310: 20da 5fbb bea0 d93d 3fd7 7c3c ebd9 a63c
00000320: e03e 3c3d b259 193d d682 44bd aa6d eeb9
00000330: fb36 283d 32ef 95bd f53f abbd 53fc 493d
00000340: 3232 dd3d 3e5e 2bbd 7a82 873d e5b5 a7bd
00000350: 8958 c53c 2df0 4bbd 1ff8 913d b12a 4c3d
00000360: 87ca cb3c 7b36 083c 079b 4dbd 7511 9abd
00000370: c175 be3c 15fb abbc 905c 4cbd 95fd a1bd
00000380: 41f6 223d 84e8 3ebd 4b37 46bc b07a 5d3d
00000390: 2e6e b1bc b937 1d3d 4900 23bd da6d 32bc
000003a0: 824e 4fbd ffde bbbd f597 9a3d 9fda 8c3d
000003b0: 4165 afbd b015 0ebd 793e bc3c 8d30 60bd
000003c0: eed2 e63c de6e 7b3d b67a 47bd f9e2 cebc
000003d0: 07d7 953d 76aa 92bd 62f5 b23d 9305 813c
000003e0: 6607 cfbd a4c7 703c af46 153d 5f3f 5fb8
000003f0: db58 11bd b202 fe3d cd54 a4bd 9f61 713b
-0.0037897632 0.030925317 0.029935522 0.004579911 0.077552766 0.0027387529 0.16909444 0.022409813
0.018797819 -0.06797815 -0.106058866 -0.072497904 -0.0705666 -0.1817794 0.02272456 0.02811085
0.031445514 -0.014821238 0.040550385 -0.10069833 -0.08492606 -0.047597975 0.032593887 0.05933764
-0.017581962 0.041750584 0.05174186 0.007001457 0.0055172816 0.05187297 0.061148763 0.04515495
-0.03215566 -0.08289205 -0.013340567 -0.029507713 0.010627123 0.01600247 0.051633526 -0.08446842
0.068410106 0.097194396 -0.07746202 0.018123608 0.0046336423 0.070440985 0.079805404 -0.043568183
0.022626478 0.057946734 0.0071849665 0.029589707 0.021306708 -0.05462664 -0.0042253337 -0.0059103863
-0.066995315 0.029219395 -0.00019083904 -0.0954261 -0.023997111 -0.023889989 0.016132971 0.014799873
0.029017579 -0.034898978 0.1013374 -0.039370324 -0.067242 0.015309152 0.019271567 -0.0086850785
-0.04683683 -0.0573247 0.020147733 -0.04285243 -0.007287753 -0.08426645 0.012219465 0.030941173
0.05069326 0.035676308 -0.022986477 -0.15441523 0.08247039 -0.05914025 0.06550183 -0.04572455
-0.007418649 0.026831213 -0.00067970617 -0.03766996 0.010797453 -0.0123833865 -0.06511778 -0.02927663
-0.007888675 0.059651196 -0.05816942 -0.02907034 -0.01955052 -0.004168514 0.15190873 0.014136067
-0.049363617 -0.15890124 -0.01292702 -0.002931365 -0.0013607831 -0.085656375 0.022957155 -0.06937981
0.036355004 -0.023745585 0.10538792 0.082099594 -0.037187297 -0.10119686 0.0023745785 -0.05057013
0.008851518 -0.0113200005 -0.053005815 0.07105903 -0.028279511 0.0055955807 -0.044221703 0.104972795
0.052917577 -0.098381326 0.06415957 0.05267532 -0.10035526 -0.046390947 0.0003979128 0.028196013
-0.004219886 -0.01633339 0.11263884 -0.010867637 -0.0730542 -0.011563593 0.03921902 -0.052950304
-0.0040889634 -0.034888763 0.0050193416 -0.112516716 -0.027086206 -0.010796226 0.12848069 -0.005304196
0.09273031 0.05229548 0.02290277 0.07915981 0.08608294 -0.1258537 0.024075193 -0.04484505
-0.011980425 0.06281834 0.015094634 0.01789321 -0.0157272 -0.038102124 -0.10412191 0.11067859
0.032936536 -0.009550066 0.06432814 -0.08388598 -0.023578271 0.09693848 0.04537082 0.0042277467
-0.06805548 -0.011896732 -0.009194608 -0.024206368 0.00852363 0.010496866 0.14567812 -0.048182987
-0.12391575 0.14736041 -0.033440195 0.016396238 0.015946465 -0.098715946 -0.0064246105 0.039449617
-0.067483954 0.04002863 0.036644723 -0.13130523 -0.0034157112 0.10626362 0.015432178 0.020367583
0.0459584 0.037439056 -0.047976337 -0.00045476604 0.04106806 -0.073210135 -0.08361808 0.0493129
0.108005896 -0.041837923 0.06616683 -0.081889905 0.024090068 -0.049789596 0.071274035 0.0498454
0.024876846 0.00831377 -0.050196674 -0.07522861 0.023249509 -0.020993749 -0.049892962 -0.07909695
0.039785627 -0.046608463 -0.012098144 0.054072082 -0.021658983 0.03838322 -0.039795194 -0.0108904485
-0.05061198 -0.091733925 0.07548515 0.06877636 -0.085642345 -0.03468865 0.022979008 -0.0547338
0.028176751 0.061385028 -0.04870101 -0.025254713 0.07316404 -0.07161419 0.08738209 0.015749728
-0.10108833 0.0146960355 0.036444362 -5.3226362e-05 -0.03548513 0.12402858 -0.08023987 0.0036831868

network_body.observation_encoder.processors.0.normalizer.running_mean f4 [11]
00000000: 553c 26bc 1d42 0abc 28ec c43e 1d45 d73e
00000010: 8334 2241 7212 47be 2ea3 733f 9dc4 9f3e
00000020: 1d12 ebc0 2401 61bd cf43 b23c
-0.01014622 -0.008438614 0.38461423 0.42044917 10.13782 -0.1944063 0.9517087 0.31204692
-7.345961 -0.05493273 0.02176085
