Assets/ML-Agents/results/ppo/Volleyball/Volleyball-2999008.onnx (onnx, 291918 bytes, 15 tensors)

discrete_action_output_shape f4 [1, 4]
00000000: 0000 4040 0000 4040 0000 4040 0000 0040
3.0 3.0 3.0 2.0

network_body.observation_encoder.processors.0.normalizer.running_mean f4 [11]
00000000: 7f91 c9bc 63e7 50bc c0e5 c63e 48d1 543d
00000010: 5f13 2341 16d5 cbbc 04b8 00bf cd48 e93c
00000020: 4ca2 bec0 15d4 013b 1769 9d3b
-0.02460551 -0.012750479 0.3884716 0.0519574 10.192229 -0.02488188 -0.50280786 0.028477097
-5.9573116 0.0019810249 0.0048037875

network_body._body_endoder.seq_layers.0.weight f4 [256, 11]
00000000: 37fa 893e 6fe9 cb3d d144 c03d 119e c4be
00000010: 4ff0 833e 88da 35be 8bc6 b0be dd0d 20bf
00000020: e21c a43e a47e a0bd 2a4e aabd 95a4 81be
00000030: e1df b0bd 6d16 203f 7b64 a1be 4085 be3d
00000040: b157 86bd ba34 ae3e 883a 17bf 495c 16bf
00000050: 1c96 753e ec22 093f 6ea3 c4be 1921 efbb
00000060: 6e89 263e f197 7e3c d72c c73e 55dd 783e
00000070: 727a dcbd bdf4 913e 1ec7 193f 90fa 223b
00000080: 3640 d73e 50dc c03d 6ad5 153f a1f2 d1be
00000090: 321a 8e3e 5b36 0e3e a842 ddba 287d d43e
000000a0: 09cb f1bc 944d 7d3e 9bb6 c3be 3ec5 cfbe
000000b0: d3c4 343e 611e f23e 3b94 a0be acde c73e
000000c0: 54a3 bd3d 19af e23c 6658 18be bc99 373f
000000d0: 0852 29be 5500 dcbe 701d 88bd 8763 bb3e
000000e0: 01ef 40be ad68 60bd 1c6f a13e 3df9 cd3d
000000f0: 2f7f 46be 71db 95be 48a1 293e 5e96 02be
00000100: 7d5e 56be deab a8bd a0d6 983e d404 bfbe
00000110: bd9c 703e 25ff bcbe 2e27 c8be a87b d8bd
00000120: 51e5 db3d 2a77 3cbe 3299 9c3e 46cd 2e3f
00000130: 1c52 98be d2fe 80bd 440a 593e e8a2 383e
00000140: d830 b03d fa6c c9bd cf53 8f3e 542b e3be
00000150: 8e4b 63bd 3b93 b53e c2d8 b83d b801 ae3e
00000160: 3d0b 08bf 67c6 67be a81f bfbe 3d35 b1be
00000170: bd2a 273e dcd5 d0be b1d1 c7be ee11 c2be
00000180: 48ef a6be f04b 733e aed8 053f 5af7 613e
00000190: c6f1 923e d1a1 3e3c 7f82 9bbe c17a 48bf
000001a0: b84a 87be b132 56bc 4e71 093e cc4f 513e
000001b0: c15a e8bd e94c 94be 79dd 31be f3e0 413f
000001c0: e172 d3bd 084f 52be 9c6b 853f 9cb0 4cbe
000001d0: 7def d33e ddbf d5be 7ba8 b5bd 11d7 dc3d
000001e0: 4b0f 8b3e 30fb 823e 2104 ec3e 1d11 79ba
000001f0: 7918 38bf 9613 01be ef9c d03d e990 22be
00000200: e3de 68be f507 b13e 052a 8e3e 986b 42bd
00000210: 226a 183e b37d 09bf 974c aebd 707c 80be
00000220: 1af8 833d aa68 433e 3378 963d e15e bdbe
00000230: ddea bcbe 96f2 d23d 22ce 6dbe 90f5 8d3d
00000240: 3813 5fbd 18d3 38bf 1312 9f3d 570f 14bf
00000250: 72d7 623e 3229 0b3e 6b8b 0dbd 3076 6a3e
00000260: cdc9 403e 8258 a7be f431 b0bc 36a3 8b3d
00000270: 6a55 c33e 1ddb b4bd 8524 1dbc 9cdf 0a3e
00000280: 2be8 5cbe 1442 213f 0297 f7bd 1d0d 203f
00000290: a49a fa3e 1191 7bbe 01f9 fabd 5f60 13be
000002a0: b678 613d ea13 d03e f586 e9bd 6a9c 9ebe
000002b0: 4d55 4d3e 8cf6 8fbe 0751 113e 105e 6bbe
000002c0: c9fc 19bb 0527 6d3d 6f81 9fbd b331 4f3e
000002d0: ccb9 30bd 4344 383d df62 fe3e ab82 4e3e
000002e0: 5b0c 0ebf 7b28 a83e 1138 6cbe 4def 633e
000002f0: f990 0fbf 6f2c 853c 5728 d3be f97b 123e
00000300: ce96 3abf cafb 63be 5075 55bd baae 053f
00000310: 4251 0cbf f07d 1b3d cf1c be3d d0a1 97bd
00000320: 7f11 993e 12a2 3e3c 9f61 073f 5230 573d
00000330: 7e24 adbe 1941 923e d641 673d aa09 dc3b
00000340: 8c9d 3d3d 5479 d0be 174b 423e aa25 47bf
00000350: b913 8c3e ee74 3f3e 586b 1abd 068e 83be
00000360: 7b24 b63e d6e1 a93c c649 d9bc 2ac8 06be
00000370: 10a8 1cbe a36d 053d 63a6 b83c 2bc3 3fbb
00000380: 48ac 08be 21fc 993e c232 11bc 4e9a ccbe
00000390: b6c3 5a3d 8d81 1cbe 2513 4ebe bcbd 03be
000003a0: 5a01 98be 02af f1be 61e2 c13c 3fbe b93e
000003b0: 59ce 83bd 541c 453e 434f 1abe 399e 133e
000003c0: 30e2 a2be 488f 1f3e 9d98 07be 7552 a63e
000003d0: 79d1 713e 7692 48be f668 8cbd 16c4 a6be
000003e0: 220b 153e f43a 083f b8ec 9cbe 7bb2 ed3c
000003f0: 68fa 29bf 89f2 913e d3e2 93be b074 08bd
0.2694871 0.09956633 0.09388126 -0.38401845 0.25769278 -0.17759144 -0.34526476 -0.62521154
0.32053286 -0.07836655 -0.0831569 -0.2532088 -0.086364515 0.6253422 -0.31521973 0.09302759
-0.065596946 0.34024602 -0.59073687 -0.58734566 0.23983043 0.5356891 -0.38405937 -0.0072976467
0.16263363 0.015539155 0.38901398 0.24303181 -0.10765542 0.28507033 0.60069454 0.0024868585
0.42041177 0.09417021 0.5852877 -0.41005424 0.2775436 0.13887922 -0.0016880827 0.41501737
-0.02951576 0.24736625 -0.38225254 -0.4058017 0.17653207 0.47288802 -0.3136309 0.39037073
0.09259668 0.027671384 -0.14877471 0.71718955 -0.16535199 -0.42969003 -0.0664624 0.3659937
-0.18841173 -0.054787327 0.31530082 0.10057304 -0.19384454 -0.29268983 0.1656543 -0.12752673
-0.20934482 -0.08235906 0.29851246 -0.3730837 0.23497291 -0.3691341 -0.39092392 -0.105704606
0.10737098 -0.18404832 0.3058563 0.6828197 -0.29750144 -0.06298603 0.21195322 0.18030894
0.08603066 -0.09835239 0.27993628 -0.44368994 -0.055491976 0.3546389 0.09025718 0.33985686
-0.5314215 -0.22634278 -0.3732884 -0.3461093 0.16324897 -0.40788162 -0.3902717 -0.37904304
-0.32604432 0.23759437 0.5228375 0.22067013 0.28700083 0.01163526 -0.30372998 -0.7831231
-0.26424193 -0.013073609 0.13422129 0.20440596 -0.11345435 -0.28964928 -0.17369641 0.7573387
-0.10324646 -0.2053796 1.0423465 -0.19989246 0.41393653 -0.41747943 -0.08870026 0.10783208
0.27160105 0.25582266 0.460969 -0.0009501146 -0.7191234 -0.12605128 0.10186183 -0.15875591
-0.22741275 0.34576383 0.27766433 -0.04746589 0.14884236 -0.53707427 -0.08510702 -0.25094938
0.06443806 0.19082895 0.07347145 -0.3698645 -0.36897936 0.10300176 -0.23223165 0.06931603
-0.054461688 -0.72197104 0.07767119 -0.57835907 0.22152498 0.13589934 -0.034556787 0.22896647
0.18826981 -0.32684714 -0.021508195 0.068182394 0.38151103 -0.08830855 -0.0095912265 0.13561863
-0.2157294 0.6299145 -0.12089349 0.6252001 0.48946106 -0.24567057 -0.12254525 -0.14392231
0.05504676 0.40640193 -0.11402694 -0.3097871 0.20052071 -0.28117788 0.14191066 -0.22985101
-0.002349662 0.05789854 -0.077883594 0.20233802 -0.04314594 0.044986974 0.49684808 0.20167033
-0.554876 0.32843384 -0.23068263 0.22259255 -0.56080586 0.01625654 -0.41241714 0.14305104
-0.7288636 -0.22264019 -0.05211383 0.52219737 -0.5481149 0.0379619 0.092828386 -0.0740391
0.2989616 0.01163532 0.5288333 0.052536316 -0.33816904 0.2856529 0.05645927 0.0067150192
0.046292827 -0.40717566 0.18973957 -0.77791846 0.27358797 0.18696949 -0.037700027 -0.25694293
0.35574707 0.02073757 -0.026524436 -0.13162294 -0.15298486 0.03257526 0.022540277 -0.0029260616
-0.1334697 0.30075172 -0.008862199 -0.39961475 0.0534093 -0.15283795 -0.2012449 -0.12865347
-0.2968853 -0.47203833 0.023667516 0.3627796 -0.06435842 0.19249088 -0.15069298 0.14415826
-0.31813192 0.15582001 -0.13241811 0.32484785 0.23615064 -0.1958712 -0.06855957 -0.32571477
0.14555028 0.53214955 -0.30649352 0.02901577 -0.66397715 0.28505352 -0.2888399 -0.033314407

network_body._body_endoder.seq_layers.0.bias f4 [256]
00000000: 60d5 e8bb 483e 5e3c 04b4 db3b 2596 a5bc
00000010: 823e 19bd 3bdb d9bb 2e4f 5dbc 8ddd afbb
00000020: c1a4 2a3b 5565 d0bc 697a 03bd 2c88 9d3c
00000030: 7857 02bc 0e99 89bc 8f32 a8bc e435 8d36
00000040: 107b 00bc 42cb ebb9 588f 273d a8e9 39bc
00000050: 5b2a c6bc fdd7 683c 8767 42bd b550 e3bc
00000060: 4a2f 863c 9a3d a73c 9aeb 00bd 2873 a1bc
00000070: 0015 c53c 327f 75bc e101 b43b 411e fdba
00000080: 6f15 093c b059 383b e01a 61bb 0853 6a3c
00000090: 9e5c e8bb 0d40 24bc c7a7 133c 4533 04bc
000000a0: 0c72 78bc c14b 8f3c 0609 ab3c 3629 203c
000000b0: 6258 37bd 59a7 7e3b e65a 56bc b7ca 773c
000000c0: bcc0 2c3b 65e7 8d3c e8b2 a33c d380 5d3c
000000d0: b8cc 68bc 46f0 9d3c 2891 233c ca65 5f3c
000000e0: ee38 233c 1fb6 07bd dc19 633c b8b2 10bb
000000f0: e5b2 39bc 071c 21bc a5ce c5bc de15 7bbc
00000100: bde4 913b a43a 3bbc 6ebc dd3c 7d77 07bd
00000110: 763b d6bb a9a4 2b3d 0a9e 4fbc 161c cebb
00000120: 9354 d2bc a12b f33b 3c22 4c3c 9555 4abb
00000130: e57e 85bc 678a 01bb 2366 b7bc 0c98 e3bc
00000140: 2901 f0bb 6b0a dabc e76a 18bd d9d1 d23c
00000150: 8560 cabc 4bfb 003b 3e68 323c 9e63 403b
00000160: 06dd f63c 0ec5 833c e675 02bc 09d9 5dbd
00000170: e565 8dbc 6a6c 67bb 7437 e73c 1b11 33bc
00000180: bc04 e8bc afc6 d0bb ca4a 3c3c ca87 3dba
00000190: 34b1 813c 3eee 80bc 493a 18bd d7c8 193d
000001a0: 2521 073c 448f 823c 4bd0 e9bb 5344 d9bc
000001b0: 3005 22bc 4b3b 4cba e002 9e3a bedf 75bc
000001c0: 571f 283d d9ac d7bb d9a7 4f3b 6306 d9bb
000001d0: c3a5 87bc 4024 a8bb 734d a9bb 3c3a 913c
000001e0: e857 963b 259d 993c 9332 81bb 1eae 5a3b
000001f0: 2f26 733b 7191 6cbc ea90 b7ba 34a7 2cbd
00000200: 37c7 c43b dbbc 5ebc 8403 89bc 165f c6bc
00000210: e945 323c 07c0 023b c7e7 ab3c f928 ffbc
00000220: f678 b9bc dcd7 1abd 68a6 96bb 43cd c03c
00000230: affa d6bc 3a48 87bc d754 18bc 53ad 86bc
00000240: 5677 c9bc 2e4e 0a3b ac58 623b 7be8 a5ba
00000250: c04e 7a3c 67f8 28bb 980a c6bc 4fb6 ec3b
00000260: eacb 23bc 4390 753c 3665 bd3c 0ac6 e93c
00000270: 55bd 413c 4d8c 67bc 3382 08bd 7bbc e63b
00000280: f3b1 c8bb 39cd ff3c 69e5 6abc 7172 0d3c
00000290: 892c 22bc 703b 3cbc 4de1 f43c ca69 883c
000002a0: 87bd 5b3c b1f6 5cbb f5f7 00bc 75e4 9abb
000002b0: 1e81 553c fd60 1cbc 633b bb3c bb0e 83bc
000002c0: 4968 0bbd 7acd c03b df20 00bd 2c79 3c3c
000002d0: cf58 013c cebd c23b 65fa 553c ad4f 38bc
000002e0: c9e5 8eba f0af 033d c38a 46bc 4c10 443c
000002f0: d1a9 0fbc f637 a0bb 7db5 35bd 94c1 2abc
00000300: d2c8 263b 3c47 31bc 19da 973c 0023 acbc
00000310: 2441 a5bc 452e b1bc ca64 c7bc 352a 3bbc
00000320: 08a0 8bbc bc1c 013d 9567 75bc 6549 1a3c
00000330: 5a80 2fba cba0 0a3b a51e 913b c17a 963c
00000340: baf9 7a3c 809b 033d 15f8 b8bc 4468 84b6
00000350: 38d5 3e3c 935e 703a ff88 243d 2f06 39bc
00000360: ef41 c2bb fc95 07bd 1865 97bc 2ceb 9bbc
00000370: f5e2 06bc 00f1 0a3d 6add f03a c405 e73c
00000380: b427 9cbc 5920 e8bc f03e d2bc 2bb8 21bc
00000390: 9ff0 54bb 4b98 10bd 6916 193d e51a 803c
000003a0: 06af 283b b14c 9a3c 3f48 72ba 0517 05bd
000003b0: a09c 61bc a23e 2ebd 049e 053d 9913 383d
000003c0: 89eb e6bb 09ba 2a3c 864d f5bc 01e7 2cbb
000003d0: 2cfa 03bc 035c 5b3b 1df8 9cbc 40ae 7cbc
000003e0: 7af0 f2bc c64a f5bc 441d 90bc 1dd2 6abb
000003f0: d432 b9bc 18c0 043c 29e1 633c 3032 d0bc
-0.0071055144 0.013564654 0.006704809 -0.020213196 -0.037413128 -0.0066484488 -0.013507647 -0.005366987
0.0026038142 -0.025438944 -0.03209916 0.01922997 -0.0079554245 -0.016796615 -0.02053192 4.208401e-06
-0.00784184 -0.00044974132 0.040908188 -0.011347212 -0.024190119 0.014211652 -0.047462013 -0.027748445
0.016379971 0.020415116 -0.031474687 -0.019708231 0.024057865 -0.014983939 0.005493388 -0.0019311385
0.008366927 0.002812963 -0.0034348294 0.014302023 -0.007091119 -0.0100250365 0.009012169 -0.008068864
-0.01516391 0.017492177 0.020878326 0.00977545 -0.044762023 0.0038857071 -0.013083195 0.015124015
0.0026359996 0.017322252 0.01998277 0.013519484 -0.014208965 0.01927961 0.009983338 0.013635108
0.009962304 -0.03313267 0.013861146 -0.002207918 -0.011334156 -0.009833342 -0.024146387 -0.015325038
0.0044523166 -0.011427555 0.02706739 -0.033072937 -0.00653785 0.04190508 -0.012671957 -0.006289969
-0.025675094 0.0074209725 0.012459334 -0.0030873765 -0.01629586 -0.0019766332 -0.02238757 -0.027782463
-0.007324357 -0.026616296 -0.037211325 0.025734829 -0.024704227 0.0019681032 0.010889111 0.0029356251
0.030134689 0.016085174 -0.0079626795 -0.05416206 -0.017260501 -0.0035312423 0.028224684 -0.010929371
-0.02832257 -0.006371341 0.0114924405 -0.0007230012 0.015831567 -0.015738603 -0.03716496 0.03754505
0.008247648 0.015937455 -0.007135426 -0.026521837 -0.009888932 -0.0007790818 0.00120553 -0.015006958
0.041045513 -0.0065818843 0.0031685738 -0.006623076 -0.016558534 -0.0051312745 -0.0051667034 0.017727964
0.004588116 0.01875169 -0.0039427965 0.0033367942 0.0037101617 -0.014438973 -0.001400498 -0.042151645
0.0060051936 -0.013594831 -0.01672531 -0.024215262 0.010880926 0.0019950883 0.020984543 -0.031147467
-0.022640686 -0.037803516 -0.004597474 0.023535376 -0.026242582 -0.016513932 -0.009297571 -0.01644007
-0.024593037 0.0021103728 0.0034537716 -0.0012657786 0.0152775645 -0.0025782825 -0.024174973 0.0072238813
-0.009997347 0.014988008 0.02311955 0.028536815 0.011824925 -0.014132571 -0.033327293 0.0070415116
-0.006124729 0.031225787 -0.014336922 0.008633242 -0.009898313 -0.01148878 0.029892588 0.016652007
0.013411886 -0.0033716375 -0.007871618 -0.004726941 0.013031272 -0.009544608 0.022855466 -0.015998235
-0.034035 0.0058838697 -0.03128135 0.011503499 0.007894709 0.0059430366 0.013060187 -0.011249465
-0.0010902222 0.03215021 -0.012118044 0.011966776 -0.008768515 -0.0048894836 -0.044362534 -0.010422129
0.0025449288 -0.010820206 0.018536614 -0.021012783 -0.020172663 -0.021628508 -0.024340052 -0.011423637
-0.017044082 0.031521544 -0.014978309 0.009416913 -0.0006694846 0.002115297 0.004428702 0.01836908
0.0153183285 0.03213072 -0.022579232 -3.9460447e-06 0.011647515 0.0009169366 0.040169712 -0.011292978
-0.00592827 -0.03310202 -0.018480822 -0.019033037 -0.008232822 0.03392124 0.0018376533 0.028200991
-0.0190619 -0.028335737 -0.025664777 -0.009870569 -0.0032492054 -0.035301488 0.037374888 0.015637824
0.0025739088 0.018835397 -0.0009242333 -0.032492656 -0.0137702525 -0.0425402 0.0326214 0.044940565
-0.007047121 0.010420331 -0.029944193 -0.0026382806 -0.008055251 0.0033471591 -0.019161278 -0.015422404
-0.029655684 -0.029942881 -0.01759208 -0.0035830804 -0.022607245 0.008102439 0.013908663 -0.025414556

network_body._body_endoder.seq_layers.2.weight f4 [256, 256]
00000000: 1a4a 243c 3955 59bd 971b f93c b6da a3bb
00000010: 018d c03c 122e 0f3d d002 d5bb c773 d5bc
00000020: 0efd 333d 6d63 c4bc 151e ae3c 7400 783d
00000030: 23f3 15bc 70b6 1e3d 2e88 093d 33c7 0f3d
00000040: 63aa 353d c516 10be 126b 03be c65e 84bd
00000050: d9ee 8f3d f3cd 58bd 021c a13c 1cf3 5f3e
00000060: c59c fb3b 7cdd f03d abdb 49bd 4bcd f4bd
00000070: 7c06 3bbd a42d 303d 03f2 91bd 27fc 9e3d
00000080: 37db 753c 496f e83c 9e41 563d 1849 12be
00000090: 64a2 69bd 3b57 16bd d8d0 9f3b a83e c33c
000000a0: bcbe 053b 31b7 61bd f290 70bb c022 7d3d
000000b0: fd8b c3bd 4156 20bd ed3f febd 3016 6dbd
000000c0: 0485 953d a8bd 133d 4dbc 503d cffa 393c
000000d0: 5a38 84bd f5b8 ad3d c646 d6bd cfe0 c83d
000000e0: 3d9e 4c3c a76b cb3d f6d1 693b 9974 e53d
000000f0: a15b 3b3c 177f a23d c572 04bc 50ae 61bd
00000100: 21e4 5fbd 300c 263e 505d a9bd e236 10bd
00000110: 099d 39bd 8027 24bc 5277 eebc 7057 83bc
00000120: 428b 37bd 36cc 9e3d 59e8 d53c 0070 1e3c
00000130: 6cf8 bc3c f101 fe3a d688 cd3c 1efc 1abd
00000140: c3b4 8dbd c9dd 8dbd ed89 dd3b 619c 043e
00000150: fd4b f1bc 5836 833d acb3 273d 2ab0 a83d
00000160: 832e d83c 315c 143d 3a89 96bd 9f9b d3bd
00000170: 20bb 6dbd 754f fdbd 8b5c 9f3c abc6 493d
00000180: 003b d1bd a1e2 69bd 41d3 993c bee0 9d3b
00000190: 21ec 863d 99ee 233c 4538 5a3d 55ea 14be
000001a0: 8525 3e3d 1465 773c 0986 5bbd 99de 113d
000001b0: 5d8a 8bbd 4d60 3c3d 46cc 61bc 082c d03d
000001c0: a4f3 233b 9429 f53d a22c 60bd eaa2 0f3d
000001d0: 6dfd efbd 302d efbc 71f4 263e 0944 04bd
000001e0: d5c5 3e3d faae 87bd 610b 103d c501 87bc
000001f0: 25dd babd 619e 59bd 9aa2 94bd a0c8 b2bc
00000200: 353e d13d 69ae 633d f4d2 30bc 14ea 613c
00000210: 4cc9 3a3c 3f7d abbd ca12 24bd 5cf7 55bb
00000220: fae5 013e 6450 94bd b05f dbbd 61f1 28bc
00000230: 59e9 983d ead4 a23d 4152 133d 1b01 b93d
00000240: 4ccf 06bd ef0c b7bc 9704 d03c db36 cb3d
00000250: 47cb 15be 39f6 12be 8779 50bd e187 d73c
00000260: 0f33 053d 835c 073e c3a2 863d 769f 8c3d
00000270: 70a4 883c 3024 c33d cbb7 323c c2b6 73bc
00000280: e556 c93d 65c2 18bd 94df 77bc e107 e03d
00000290: e417 d4bd 32f5 043d f17f 003e 5e81 163d
000002a0: b83a 24bd f99f 173d b1bb 81bd d1d9 df3c
000002b0: 4480 b0bc 356a ed3d 985f 07bd ee6d d9bc
000002c0: 0615 82bc 45de 183e 9ef5 7c3d bb73 a9bc
000002d0: df93 bc3d 4963 aa3b 2262 743d ba27 25bd
000002e0: 46e3 cf3d 1534 8a3d f25d bdbc 1797 10bd
000002f0: d855 5c3d ef12 93bd 9900 1dbc 6e23 a2bd
00000300: 676d 95bd 886e 0e3e 89d3 9cbd 75da f1bd
00000310: 3c79 013d a446 d63d b9bd 983d b98e 90bd
00000320: 3b43 c13d 4cb6 c03d 62b6 1cbd 557f 46bc
00000330: 05a9 c93c 730a bc3d d20b 94bd 23a0 19bb
00000340: 13b5 78bd d0a1 f4bc ec69 e03c b1c1 4fbb
00000350: 0bea eebc 9d3d ebbd 0566 11bd 0bf3 a8bc
00000360: 08eb 37bb 0310 39bc f980 4bbc ead0 a5bb
00000370: a9aa 45bd 48bc 9a3d ec8e b93d d7fb fdbc
00000380: 35fc b83d 1107 60bc 6f11 3c3c 88ce d8bc
00000390: 9df7 4e3d 03d0 8cbd bcfc ab3c 829d 1cbd
000003a0: 852d 09bd 8138 1abd 9e6a 283d 02d6 96bb
000003b0: 2e2a f5ba af14 163e 5b09 123d ae05 b8bd
000003c0: 41d6 81bc 5b93 b4bb acf9 423d c94a 963d
000003d0: 5bdd b23d 1a15 2b3d ead5 d93d 4536 143d
000003e0: 1a85 9e3d bc96 2abd a38c 03bd 06d7 833c
000003f0: 0dc2 b73c 3a9a ff3b 0330 ccbc b31a 303b
0.010027433 -0.05305979 0.030408664 -0.0050004376 0.023504736 0.034956045 -0.0065005794 -0.026056184
0.043942504 -0.023973191 0.021254579 0.060547307 -0.009152207 0.038748205 0.033577137 0.03510208
0.044351947 -0.14071186 -0.12833813 -0.06463389 0.070279785 -0.052930783 0.019666675 0.21870083
0.0076786005 0.11760995 -0.049281757 -0.11953219 -0.04566048 0.043012276 -0.07126238 0.07762938
0.015005878 0.028373377 0.05230867 -0.14285696 -0.057039633 -0.036704283 0.004877191 0.023833588
0.0020407876 -0.055106346 -0.0036707488 0.06180072 -0.09548185 -0.039144758 -0.124145366 -0.057882488
0.07300761 0.036069542 0.050960828 0.011351301 -0.06456061 0.084825434 -0.10462718 0.09808504
0.012488899 0.099326424 0.0035678125 0.1120388 0.01143542 0.07934397 -0.008084004 -0.055097878
-0.05466092 0.16215587 -0.08269751 -0.03520859 -0.045315776 -0.010019183 -0.02910963 -0.016032904
-0.04481054 0.07753794 0.026111769 0.009670258 0.023067676 0.0019379241 0.025089663 -0.037838094
-0.06919243 -0.06927068 0.006760827 0.12950279 -0.02945518 0.064068496 0.040942833 0.08236726
0.026389366 0.036220733 -0.07350393 -0.10332417 -0.058039784 -0.12368671 0.019453308 0.04926173
-0.102163315 -0.057100896 0.018777492 0.004818051 0.06588007 0.010005617 0.05327632 -0.14542516
0.0464225 0.0150997825 -0.053594623 0.035612676 -0.068135 0.045990277 -0.013781613 0.10164648
0.0025017047 0.11970821 -0.054730065 0.035067476 -0.11718259 -0.029196352 0.16304184 -0.032291446
0.046575386 -0.06625171 0.0351671 -0.016480336 -0.09124211 -0.053129558 -0.07257576 -0.021824181
0.10216943 0.055586252 -0.010792483 0.013788719 0.011400532 -0.08373498 -0.04005698 -0.0032648658
0.12685385 -0.07241896 -0.1071161 -0.0103114555 0.074663825 0.079507664 0.035967115 0.09033414
-0.032912537 -0.022345034 0.025392814 0.09922572 -0.14628325 -0.14351739 -0.050897148 0.02630991
0.032519396 0.13218884 0.06574013 0.06866352 0.016679972 0.095283866 0.0109080775 -0.014875116
0.09831027 -0.037294764 -0.015128989 0.10939003 -0.10356119 0.0324604 0.12548806 0.036744468
-0.04009506 0.037017796 -0.063346274 0.027325543 -0.021545537 0.11592523 -0.03305015 -0.026541676
-0.015879165 0.14928539 0.061757676 -0.020685067 0.09207892 0.005199824 0.0596639 -0.04032109
0.10150771 0.06748215 -0.023116086 -0.03530034 0.053792804 -0.07181346 -0.009582662 -0.07916914
-0.072962575 0.13909352 -0.07657535 -0.118092455 0.03160976 0.104626924 0.07458062 -0.07058472
0.09436651 0.0940977 -0.03825987 -0.012115319 0.024616728 0.091816805 -0.07228817 -0.0023441396
-0.06071956 -0.029862314 0.027394257 -0.0031701142 -0.029164335 -0.11486361 -0.035497684 -0.020623704
-0.0028063674 -0.011295321 -0.012420886 -0.005060305 -0.048258457 0.07555443 0.09060463 -0.031003876
0.0903248 -0.01367356 0.011478766 -0.02646567 0.05052911 -0.068756126 0.020994537 -0.03823615
-0.033490676 -0.037651543 0.041117303 -0.0046031484 -0.0018704587 0.14656328 0.035653453 -0.08985458
-0.015849235 -0.00551073 0.047601387 0.07338483 0.087336265 0.04176817 0.10636504 0.036184568
0.07740231 -0.041647658 -0.032116544 0.016093742 0.022431398 0.0078003677 -0.024925238 0.0026871383

network_body._body_endoder.seq_layers.2.bias f4 [256]
00000000: 66bb 433b 5f34 2fb8 ab9e 27bc 5981 a3bc
00000010: 8362 83bb da4c 0dbc b76f aabc 71aa cc3c
00000020: 8847 88bc c26e 423c d4f1 73bc d709 ecbb
00000030: c4d7 c6bc 4d71 9d3c df71 7cbc 7aae 44bd
00000040: 6054 19bd dae6 d3bb 15a0 acbc bec6 3ebc
00000050: 5e17 6bba 98d8 a5bc 57af 653a ad78 653a
00000060: c446 84bc 003a c83c 0643 6bbc c7d7 9bbb
00000070: cc39 a3bc 30af f93c 7894 7ebc 99b2 79bb
00000080: b8aa 28bc b099 efbc ac6b 71b7 c9a9 56bc
00000090: 74c0 9cbc 1c2c 15bd 20c8 b9bc 9d61 a5bc
000000a0: 2c5b b4bc 0a74 f3b9 a023 f53b d61a debc
000000b0: d58e a43b e5b0 9bbc c62f 53ba 3da9 f4bc
000000c0: cf9f 8bbc a81b c53c 49ab eabc 6cd8 45bc
000000d0: d104 94bb 078c 0bbb f2e2 83bb bd7d 2abc
000000e0: c38f 97bb e305 43bc 311d 90bc 9dd3 efbc
000000f0: a733 30bb e461 a0bb 54b7 dcbb a3ee bfbc
00000100: e47e a83b be71 a0bb 7db8 84bb cc2d 07bd
00000110: 831f 8a3b 6261 cd3b a499 85bb 8137 11bc
00000120: 37ec 87bc a5a8 b0bc 3140 10bb c566 12bc
00000130: a258 753c 4d33 f93a f706 c93c 8636 1cbd
00000140: 80f2 5dbc 7ec2 ccbb c3af 17bc 7e9e 9dbb
00000150: cfdf 9dbc d614 fdba 1819 a239 b7e4 5d3c
00000160: 7090 0dbc 8b5d a63c c58a 923c c060 03bd
00000170: 2387 5dbc 53c1 21bb 23c8 bf3c cbbd aebc
00000180: 5940 893c b98e 573c d1e4 9cbc 3061 e3bc
00000190: acfb d13c bf4b 043a d25e d63b e77e 13bc
000001a0: 9356 83bc fc0c b6bb a38c 9abc 52c1 d8bb
000001b0: 8b98 98b9 b089 01bd 676c a9bb a6dd 18bc
000001c0: 500a de3c e805 50bc fdd5 bd3b 4d2f 943c
000001d0: 3338 f9bb d15f 6c3b 0000 f9bb 1d04 edbc
000001e0: 83af 3cbc 64f8 88bc 8513 8dbc c6dc 8dbc
000001f0: 7430 193d 30da 2dbc a842 1f3c 355d 4f3c
00000200: ca2c 163d 144a 913c c2b2 ad3c d80e 13bd
00000210: cc05 ffbb b883 af3b 8383 943c 5199 83bc
00000220: 1bc4 b5bc dd0a e13c f107 bdba d428 b7bb
00000230: d64a 803c f43d 0a3c c357 8d39 9ede 18bc
00000240: dc9d 203b bcce b13c 7890 ddbc 2745 7cbc
00000250: 1569 4d3c 9a89 4dbc babe 843c 1770 ddbc
00000260: d949 943b 166b e5bc f90c 0dbb 9e90 673c
00000270: af8c 8dbc a24e 07bd 5533 033d ed17 a1ba
00000280: 7874 60bc e5e8 83bc 2016 1dbc 55bf 3ebb
00000290: 184a b63c eddc 783b 6481 a23c 78fd 27bd
000002a0: 9745 a83c b936 0ebd 646b 403c f6f2 82bc
000002b0: d1d6 263c 49a6 c4ba 1057 683c af2d 90bc
000002c0: 9bc4 8b3b b332 69bc 10ee acbc e327 88bb
000002d0: 9489 73bb 54c9 a7bb 827f b13c 3100 1abd
000002e0: d366 a5bb afca 02bc 9615 6539 6112 a4bc
000002f0: 8023 9cbc fc19 7bbc 4450 e4bc 6195 02bc
00000300: c17f 713c 1a6e 05bd ee03 fdbc a9eb 17b8
00000310: 22b9 abbb 8e5a 4f3c 12d4 aa3c b06b 3dbc
00000320: 41ef fdbb 6045 d73c b3a4 8dbc 0c54 27bc
00000330: 057a 91bb 4b2c a2bc b2f6 12bd 448d a1bc
00000340: 85d2 53bb e99b 1ebb 2545 fa3c 9e5a 00bc
00000350: d5e1 8abc f2b8 4d3a b5e2 e9bc b38b c73a
00000360: 85f1 bc3b 9fae f4bc 526c 413c 8160 4abc
00000370: 73b1 e43b 6ff6 c53b 1502 283c bc13 8fbb
00000380: ca7d 46bc 93ad 49bc 7b91 203c 1893 ebbc
00000390: 7fb2 ce3b c27d bcbc 98fd 323c 1005 3ebd
000003a0: 529e d93c 9803 95bb 3606 14bb 13a0 86bc
000003b0: 8333 d13c cd8a f1bc fd5b fe39 b27c 803b
000003c0: 15ac 52bc 4efa 40bc 46cf d2bc fb99 1bbd
000003d0: e70c 39bb 76d0 87ba 7c99 153c 1f64 ce3c
000003e0: 4c20 98bb 6cdf 72bc 6584 ebbb b81d 1bbc
000003f0: 7a03 07bc 1ba2 8bbc 61f9 22bc eba9 703c
0.0029866337 -4.1772026e-05 -0.0102307005 -0.019959139 -0.0040095462 -0.00862428 -0.020805223 0.024983617
-0.016635671 0.011867227 -0.014889199 -0.0072033214 -0.024272807 0.019219065 -0.015408008 -0.048017956
-0.037433982 -0.0064667286 -0.021072427 -0.0116440635 -0.00089680206 -0.020244882 0.00087617844 0.0008753639
-0.016147025 0.024441719 -0.014359241 -0.0047559473 -0.01992502 0.030479044 -0.015538327 -0.0038100837
-0.010294609 -0.029248089 -1.4389789e-05 -0.013102003 -0.019134738 -0.03641902 -0.022678435 -0.020188147
-0.02201613 -0.00046435028 0.0074810535 -0.027112406 0.0050219097 -0.019005248 -0.000805613 -0.029865855
-0.017043976 0.02406104 -0.028646128 -0.012075525 -0.0045171757 -0.002129318 -0.0040248567 -0.010405955
-0.004625292 -0.011903259 -0.017592045 -0.02927571 -0.0026886256 -0.004894482 -0.0067357216 -0.02342922
0.0051420797 -0.0048963716 -0.004050313 -0.03300266 0.0042151823 0.0062677125 -0.0040771533 -0.008863331
-0.016592128 -0.021564791 -0.0022010917 -0.008935635 0.014974745 0.0019012481 0.024539454 -0.038137935
-0.013546586 -0.006248771 -0.009258213 -0.0048101535 -0.01927176 -0.0019308578 0.00030917744 0.013543299
-0.008640394 0.020308277 0.017888436 -0.03207469 -0.013520989 -0.002468188 0.023410862 -0.021330735
0.016754316 0.013156586 -0.019152077 -0.027756304 0.025632702 0.00050466874 0.006542065 -0.009002424
-0.016032493 -0.005555747 -0.018865889 -0.0066148425 -0.00029105353 -0.03162545 -0.0051703933 -0.009330189
0.027104527 -0.012696721 0.0057933317 0.018088961 -0.0076055764 0.0036067853 -0.007598877 -0.028932625
-0.011516455 -0.016720004 -0.017221222 -0.017317187 0.037399724 -0.010611102 0.009720482 0.0126565
0.036663808 0.017735519 0.021203402 -0.035902828 -0.0077826735 0.0053562783 0.018129116 -0.016064318
-0.022188237 0.027471 -0.0014421922 -0.005589584 0.015660685 0.008437622 0.00026959003 -0.00933042
0.0024508154 0.021705024 -0.027046427 -0.015397347 0.012537261 -0.012545014 0.016204227 -0.027030988
0.004525405 -0.028005164 -0.0021522625 0.0141336005 -0.017278997 -0.033033974 0.032031376 -0.0012290456
-0.013699643 -0.016102264 -0.009587795 -0.0029105742 0.022252128 0.003797348 0.019837089 -0.04101321
0.020540996 -0.034720156 0.011744354 -0.015984993 0.010183052 -0.001500317 0.014180914 -0.017599909
0.0042653806 -0.014233279 -0.02110961 -0.0041551455 -0.003716086 -0.0051204357 0.021667246 -0.03759784
-0.005047658 -0.007982894 0.00021847183 -0.020028295 -0.019059896 -0.015326019 -0.027870305 -0.007970185
0.014739932 -0.032575704 -0.030885663 -3.622068e-05 -0.0052405754 0.012655867 0.020853076 -0.011561319
-0.0077494686 0.026278198 -0.017290449 -0.010212909 -0.0044395947 -0.019796511 -0.0358798 -0.019720681
-0.0032321524 -0.0024201816 0.030550549 -0.007834105 -0.016953388 0.00078476884 -0.028550485 0.0015224129
0.005766096 -0.029868422 0.011805611 -0.01235211 0.0069791614 0.00604134 0.010254403 -0.004366366
-0.012114951 -0.01230945 0.00980031 -0.028756663 0.0063078995 -0.023009185 0.010924719 -0.046391547
0.02656475 -0.0045475475 -0.002258671 -0.016433751 0.025537258 -0.02948513 0.00048515192 0.003921115
-0.01285841 -0.011778427 -0.025733601 -0.037988644 -0.002823645 -0.0010361809 0.009130832 0.025194226
-0.004642522 -0.014823776 -0.0071874135 -0.009467535 -0.008240575 -0.017045071 -0.009947152 0.014688949

action_model._discrete_distribution.branches.0.weight f4 [3, 256]
00000000: f590 01bc 75e6 17bb 3475 a53b 7240 9d3c
00000010: 47af 2abc 8dad 153c 21ec 8dbc 54f3 20bd
00000020: 6e00 fe3b d6ae 61bc f0fe 45bc bdaf 193c
00000030: 8d87 02bd f9cd d53c af6e 293c 82e4 e23b
00000040: c815 0dbd 956e afbc 7dce 15bd 4179 993c
00000050: 6dc3 0cbd 5331 e73a a5d2 1fbd fa4e e7bb
00000060: a82b 77bc 926e c5bc 9765 143d c24c 68bd
00000070: a11d 9fbc 885e 20bd c4c5 a6bc 16bb 823a
00000080: 3a3d 17bd 05d5 6bbd c26e 1bbd 1f0f d43c
00000090: 7265 5c3a 67a4 d6ba 7368 bebc e8b5 68bc
000000a0: a372 8fbc bfad 2bbd d3b2 9b3c f3f3 8ebc
000000b0: f64e e23c cda0 b5bc 1de9 3abb 9846 0ebd
000000c0: 2b53 08bd 5ea9 c6bb 767e 3ebd cc80 aebc
000000d0: 0ddf afbc d2c0 e6bc 1136 c83b ba32 fbbc
000000e0: 0979 4f3d a329 d63c 8e74 ac3c 03d3 14bd
000000f0: bb93 1dbd be20 0c3d f60b e4b9 30fd f7bc
00000100: 6760 f8bc 72ab e73c a37a 9cbc a717 8abc
00000110: 0bdb 6cbd c045 8abd cba2 59bd be34 9ebc
00000120: 157b efbb 8f2c e43b a94f 10bd 9ea3 dbbc
00000130: 7470 e13c eed5 fa3c e302 0b3d 5fe1 df3a
00000140: 8d80 7a3a 0282 683c bd56 b63b 78a8 1f3b
00000150: cf62 13bd 6a82 9d3c c559 b53b 7aa4 40b9
00000160: ac5b dd3c 7c40 753c e97e 053d 237d d83a
00000170: 9865 6cbc 4b66 ec3c f3b1 e4ba e4e4 763c
00000180: 02d7 6abc fd06 2abd f6ec 71bb 2e35 1bbc
00000190: 2a15 033c 3a79 abbc 38b5 5b3c 5837 63bc
000001a0: 92a9 1c3c b92c 0d3c dcb2 04bd 0259 123b
000001b0: 40f5 a23c 93d0 36bc 6f7d 9a3c 72a8 3f3d
000001c0: bc96 d83b 1566 7dbc 1265 e1bb f763 6f3d
000001d0: 88b6 0dbd 2868 f83c 515f 253c 29ac 03bc
000001e0: ff75 dbbc 2870 873c c558 9bbd 1435 423d
000001f0: 48ab 47bc b7d7 1cbb 15e0 06bd ff74 2c3c
00000200: 6f2d e03b 53a1 863c 9ffb 053c 20ed 5abd
00000210: d8f7 013c 8f34 e838 3697 433d 72eb 25bc
00000220: 25b6 83bc 159e 3abd 66fc 9a3c 6d43 41bc
00000230: d26f f9bb 7dde d33b 5028 cdbc e309 31b9
00000240: d17e 113d 265e cfbc 679a 9ebc be4c 0039
00000250: efd2 283d f49c 053d 6129 873c 9a2f 1f3c
00000260: 3bec edbc f589 5a3b 541c a8bc febc df3c
00000270: c4fc f93b 9ac1 f5bb 8362 e63c e283 6cbd
00000280: 2189 02bd 9818 01bd 1d12 15ba ed83 10bd
00000290: 3e8d 2fbc 971d bf3c 1a8c 183b a9cd e4bc
000002a0: 1449 71bc 8767 a3bd 478b b3bb f303 2f3d
000002b0: 008b a63c 5e97 aabc b461 ed3b 5252 e4bc
000002c0: 37e2 823c 7a9d 5d3c 0db4 e1bc 2025 28bd
000002d0: f9e7 233b 4630 4c3c d3b3 30bd 2a72 84bb
000002e0: 4a28 6f3c e06a 5bbd 83c7 23bd 13e1 29bc
000002f0: a0b5 aebc f26d f03c adf3 b6bc 8e11 b43c
00000300: 8c6e b8ba 359a 4ebd a63f b8bc 70d5 44bd
00000310: 9e10 26b9 13f9 4cbd f5a1 2dbd fbb8 a3bc
00000320: 28d5 eeb9 0b62 8ebc da30 f5bb 8e67 21bd
00000330: 9251 6cbc e6c7 8b3c 72d2 98bc 9071 9d3c
00000340: e7c1 a2bc 5105 f6bc 6418 debc a536 30bd
00000350: 4d4a 8fbc 5ae4 a3bc d7fe 39bc 683d cfbc
00000360: 2743 88bc feed 33bc 7c0a 253b 63e1 7d3b
00000370: 781a 543b fb68 ddbb cd4c 93bb f96c f9bb
00000380: 97ba a8ba 9c7b f03a 9e6d 8c3c e219 b5bc
00000390: 983d 6cbc 2a3c 07bc ec5c 013d 139f d13c
000003a0: b8f7 a8bb 96ab 933c f933 95bc 080c 8a3b
000003b0: fe8b 543c 6eeb 25bc ed2b 263c 3fe8 e4bb
000003c0: 2208 e33a e9f2 3cba bad3 eabc 00aa 05bd
000003d0: 33bd 8ebb 91ec 43bc 1a90 dabc 5944 a3bc
000003e0: 509b a53b 3f7b 34bb d539 a2bb b6bd 20bc
000003f0: bc1c 05bb 0e82 b23c b107 9c3b 5a14 80bd
-0.007908096 -0.0023178135 0.005049372 0.019195769 -0.010417766 0.009135616 -0.01732451 -0.039294556
0.007751516 -0.013774594 -0.012084708 0.009380278 -0.031867553 0.026099192 0.01034133 0.006924213
-0.0344446 -0.021415034 -0.036573876 0.018734576 -0.03436606 0.0017638601 -0.039019246 -0.0070589753
-0.015086092 -0.024100576 0.036229696 -0.056713827 -0.019423308 -0.039152652 -0.020357974 0.0009973969
-0.036923625 -0.057576198 -0.037947424 0.025886117 0.00084074505 -0.00163759 -0.023243165 -0.014203526
-0.017510718 -0.041913744 0.019006168 -0.017450308 0.027625542 -0.022171402 -0.0028520294 -0.034735292
-0.03328244 -0.0060626706 -0.04650732 -0.02130165 -0.021468664 -0.028168116 0.006109961 -0.030663837
0.050652537 0.0261429 0.021051671 -0.03633405 -0.038470965 0.034210913 -0.0004349646 -0.030272096
-0.030319406 0.028279994 -0.019101446 -0.016856981 -0.057826083 -0.06751585 -0.053133767 -0.019312259
-0.0073083737 0.0069633196 -0.03523222 -0.026811417 0.027519442 0.030619588 0.0339383 0.0017080716
0.0009555899 0.0141911525 0.005564539 0.002436189 -0.035982903 0.019227225 0.005534383 -0.00018371819
0.027021252 0.014968988 0.032591734 0.0016516786 -0.014428519 0.02885737 -0.0017448053 0.01506922
-0.014333488 -0.04151057 -0.0036914921 -0.009473128 0.008000651 -0.020931829 0.013409905 -0.013868175
0.009561913 0.00861662 -0.032397136 0.0022330885 0.019892335 -0.011158126 0.01885864 0.0467915
0.006609766 -0.015466233 -0.0068785036 0.058444943 -0.034597903 0.030323103 0.010093526 -0.008036652
-0.026789663 0.016532972 -0.07585291 0.0474139 -0.012186833 -0.0023932287 -0.032928545 0.010525941
0.0068413536 0.016434347 0.008177667 -0.053448796 0.007932626 0.00011072412 0.047751628 -0.010126935
-0.016078064 -0.045560915 0.018919181 -0.011795861 -0.007612207 0.0064657317 -0.025043637 -0.00016883718
0.035521332 -0.025313448 -0.019360734 0.0001223562 0.041216787 0.032620385 0.016499223 0.009715939
-0.029043308 0.003334639 -0.02052132 0.027311798 0.007629009 -0.0074998857 0.028123146 -0.05774296
-0.031869058 -0.031517595 -0.0005686598 -0.035282064 -0.010714827 0.02332954 0.0023276866 -0.027930098
-0.014726896 -0.07978731 -0.0054792496 0.042728376 0.020329952 -0.02082413 0.007244313 -0.027871285
0.015977008 0.013526315 -0.027551675 -0.04105103 0.0025010093 0.012462681 -0.043140244 -0.0040419297
0.014597008 -0.05356872 -0.03998519 -0.010368603 -0.02132684 0.029349301 -0.02233299 0.021981027
-0.0014071031 -0.050440032 -0.022491287 -0.048055112 -0.00015837184 -0.050042223 -0.042390782 -0.019985666
-0.0004555371 -0.017380735 -0.00748263 -0.039405398 -0.014423745 0.017063092 -0.018655036 0.01921919
-0.01986785 -0.030031832 -0.02711124 -0.043020863 -0.017491484 -0.020006347 -0.011352262 -0.025297835
-0.016633583 -0.010982035 0.002518325 0.0038739077 0.003236441 -0.0067568994 -0.0044952394 -0.0076118675
-0.0012872991 0.0018347385 0.017142113 -0.022107068 -0.014418982 -0.00825409 0.031582758 0.025588548
-0.0051564835 0.018026154 -0.018213259 0.00421286 0.01297283 -0.010126932 0.010142309 -0.0069856937
0.0017321149 -0.00072078273 -0.028665412 -0.032632828 -0.0043560504 -0.011958257 -0.026680041 -0.019930052
0.005053915 -0.002753928 -0.004950742 -0.009810856 -0.0020311316 0.02179053 0.004761659 -0.06253882

action_model._discrete_distribution.branches.0.bias f4 [3]
00000000: 7ba3 243b df6b 30bc e376 0c3c
0.0025121856 -0.010767906 0.008573267

action_model._discrete_distribution.branches.1.weight f4 [3, 256]
00000000: d46d 31bc bd5b 18bc 13e9 50bc 2f1b 693d
00000010: 1767 db3b ac1f aabc 53f4 50bc 4687 633b
00000020: 21e7 1e3d 9839 2a3c 30ad 983c 4272 cf3c
00000030: 51b2 b53c de39 56bc b55b 973b fa6c bf3c
00000040: 70a0 043b 1632 373d c1a8 833c 8ae9 55bc
00000050: 8739 5f3b 6cd4 043c 723b ecbc bdc2 753c
00000060: 5211 883c 1308 6ebc d95f da3c 10c5 c5bb
00000070: 155c a1bb d946 f9ba 1484 1a3c c6d8 debb
00000080: 3afc d23a 04e9 bcbc ecd0 d0bc 5174 933b
00000090: 74d7 043d f7e0 ecbc 1412 4c3c 3c4f 9fbc
000000a0: 2610 0e3c 48fa fabc 0b4b 09bd 4c81 123d
000000b0: 4dab c4bc 9e10 90bb 61ee 113d 749b 2c3c
000000c0: f46e d63c 48e9 583c 6421 073a 0d7b 81bc
000000d0: 5632 23bd a947 3abd bd53 863c 1976 293d
000000e0: ab80 bd3c 6e7e 013d 9432 fe3c fe1c 20bc
000000f0: 9827 723c 91b9 7f3c bf41 3abc 8a45 95bb
00000100: 09d1 9d3c 4cea 89bc 3836 093c 9fb9 1b3b
00000110: fa34 97bc a91c 963c 211c 8b3b a5c5 dcbc
00000120: c725 eabb 4f14 2dbc 66fa 9f3c 705a d53c
00000130: f863 13bb 883d 1dbb 14fd 523c 9103 e23c
00000140: b195 14bc 2096 063d 0a0f c8b8 3f6d cb3c
00000150: 5d58 56bb 94d0 163c 131c 0a3d 1e1d 283c
00000160: e365 3d3d c787 813b 7e44 0f3d f577 d73b
00000170: 5f52 b3bb ff73 ef3c d4eb dabc 2432 483d
00000180: da8c 90bc 8c18 c13b d8f2 62bc 8c05 273c
00000190: 6f29 f23a 38ba 03bd 65b0 c8bb 55d5 15bb
000001a0: 7456 3ebc 3621 153d 1b03 1dbd 8262 6abb
000001b0: 936b 0b3c e980 3dba dd6d 0f3c 3ccd 103d
000001c0: cbd8 aabc e27a 323d 9ff7 80bc b781 0a3d
000001d0: aa37 b6bb 1629 31bc f0a7 c0bc 7498 653b
000001e0: adcd 9e3c a92f af3c f92d 65bc 58e4 9d3c
000001f0: 321e c93b 4d14 ae3b 90e9 92bc a792 013d
00000200: 0744 ad3c bfef adbc 66f1 973c 0e5c 33bd
00000210: 35f7 b23c 0dce 4abb b9d2 adbc 1b25 cebc
00000220: e8fb bebc 9594 b73c 1d91 3dbc 2b1e 23bc
00000230: ea37 0bbc 24c9 27bd 5dc3 773c da59 a23c
00000240: efc7 6c3c 7004 823c 3d24 b33c 8ea4 113c
00000250: c037 703c 60c9 c53b 5ad8 d23c f0bc 2e3b
00000260: 6f2c b63b af18 4fbc 13f0 b73c 20fd 87bb
00000270: b071 bfbc e3bb 433d 063e 953c 1ed4 cd3c
00000280: 363b 9d3c 63be 753b c275 abbc 4917 1f3c
00000290: f25a 6fba 0b98 283c df0b c639 550e 3cbc
000002a0: 0865 06bd 89db 86bb 86d7 dc3b ce46 1d3b
000002b0: 967f 123d 1c1c c73c 7697 863c 594a d2bc
000002c0: 301a b93c 3ba1 b03c 905c c9bc dec4 97bb
000002d0: 0c7b 66bc 95b1 ddbc 9fe9 ce3b a32a cfba
000002e0: 1307 1d3c f745 923c 717d b0bc 42c0 21bc
000002f0: 9eec 813c d8f3 863b ee94 7abb cfb7 dabc
00000300: 3b86 023d 3344 16bc 3920 40bd 031c b2bc
00000310: 5a3f ce3b e3f4 143c 1197 54bd 8264 ef3b
00000320: a8fb 053c 7cce 4b3c 7d4b 24bd 06bc 94bb
00000330: 5ef6 5d3b a94d 4f3d b4fe 803c e2c6 4b3c
00000340: 3e2d 613b 6a23 ceba f61c 2ebd 1bee 823c
00000350: ac06 3d3c 4300 88bb afe1 1c3c b2e2 5bbc
00000360: 2e5a 6e3c 3905 2b3d faa5 823c a37a 3a3d
00000370: eebc 1c39 bf6e 3bbd 29ef 2fba f5f8 9aba
00000380: 8cd8 1abc e205 c03c 0436 183b 6829 263c
00000390: 60d2 003d 5cb5 6c3c 9b8c 12bd b513 073c
000003a0: 5b0e a3bc 016e c03c 8be9 383c b02e 61bc
000003b0: ea59 0d3c e005 f63c b017 6fbb ed1b 633b
000003c0: 4dea 673c 669b ecbc 0659 5cba b8d0 0bbc
000003d0: 77fd 173d 8aa8 18bd 19f2 3e3c 2f4f 613c
000003e0: 669d a1bc d19f 433c c14f 7e3b 5c2b 0d3c
000003f0: 113a 0c3c e435 8a3c 4b78 443c 200b 0c3c
-0.010829408 -0.009299216 -0.012750882 0.05691069 0.006695639 -0.020767055 -0.012753564 0.003471808
0.03879464 0.010389708 0.01863727 0.025323037 0.022179754 -0.01307532 0.0046190866 0.023367394
0.002023723 0.0447255 0.01607168 -0.013056168 0.0034061389 0.008107286 -0.02883694 0.0150000425
0.016609821 -0.014528292 0.026657032 -0.0060354546 -0.004924307 -0.0019018307 0.009430904 -0.0068007438
0.0016096898 -0.02306033 -0.025490247 0.00449995 0.032432035 -0.028915865 0.012455482 -0.019446962
0.008670842 -0.030636922 -0.033518832 0.03576784 -0.024007464 -0.004396512 0.035627726 0.01053511
0.026175953 0.013239212 0.0005154817 -0.015805745 -0.039842926 -0.045478497 0.016397351 0.041372392
0.023132643 0.031614713 0.031029977 -0.009772537 0.014779948 0.015608207 -0.011368214 -0.004555409
0.019264715 -0.016835354 0.008374743 0.0023761762 -0.018457878 0.018324213 0.0042452966 -0.026949713
-0.0071456167 -0.010563924 0.019528579 0.0260441 -0.0022490006 -0.0023992974 0.012877721 0.027589591
-0.009068892 0.032858014 -9.5395444e-05 0.024832366 -0.0032706477 0.009205002 0.03371818 0.010260848
0.046239745 0.0039529535 0.03497743 0.0065755793 -0.005472466 0.029230116 -0.02672378 0.048875943
-0.017645288 0.005892819 -0.013851844 0.010194194 0.0018475483 -0.032160014 -0.0061245435 -0.0022862752
-0.011617292 0.036408626 -0.03833304 -0.0035764282 0.008509534 -0.0007228987 0.008754221 0.035351977
-0.020855328 0.04357422 -0.015743075 0.033815112 -0.005560835 -0.010813018 -0.023517579 0.0035033496
0.019385183 0.02138503 -0.0139880115 0.019273922 0.0061376328 0.0053124786 -0.017933637 0.031634
0.021150602 -0.021232484 0.018547725 -0.043788962 0.021846393 -0.003094557 -0.021218644 -0.025164178
-0.023313478 0.022409717 -0.011570242 -0.009955923 -0.008497218 -0.040963307 0.015122262 0.019818235
0.014451965 0.015871257 0.021867866 0.008889331 0.014661729 0.0060359687 0.02573793 0.0026662908
0.005559496 -0.012640162 0.022453343 -0.004150048 -0.02336964 0.047786605 0.018218052 0.02512556
0.019193273 0.0037497513 -0.020930175 0.009710141 -0.00091306784 0.010290156 0.00037774348 -0.011478026
-0.032811195 -0.004115526 0.0067395596 0.0023998502 0.035766207 0.024305396 0.016429644 -0.025670217
0.022595495 0.021561256 -0.02458027 -0.0046316227 -0.014067423 -0.027062217 0.006314471 -0.0015805553
0.009584206 0.017855627 -0.02154419 -0.009872498 0.015859898 0.004118424 -0.0038235742 -0.026698975
0.031866293 -0.009171533 -0.04690573 -0.021741873 0.006294173 0.009091589 -0.05190188 0.0073056826
0.008177675 0.012439366 -0.040111054 -0.0045390157 0.003386877 0.050611172 0.015746452 0.012437554
0.0034359242 -0.0015727107 -0.042508088 0.015982678 0.011537235 -0.004150422 0.009575292 -0.013420748
0.014547868 0.041753028 0.015948284 0.04552711 0.00014947701 -0.045759913 -0.0006711358 -0.0011823463
-0.009451043 0.023440305 0.0023225555 0.010141708 0.03145063 0.014447536 -0.035778623 0.008244445
-0.019904306 0.023489954 0.01128615 -0.013744041 0.008627394 0.030032098 -0.0036482625 0.0034654096
0.014154983 -0.028882693 -0.00084055995 -0.008533649 0.037106957 -0.037270106 0.0116544 0.013751789
-0.019728374 0.011939959 0.0038804861 0.008616295 0.008558766 0.0168714 0.011991571 0.008547574

action_model._discrete_distribution.branches.1.bias f4 [3]
00000000: 1873 f83a da4b a23c e607 b7bc
0.0018955199 0.01981156 -0.022342633

action_model._discrete_distribution.branches.2.weight f4 [3, 256]
00000000: 7e2e 4fba 7361 59bc b037 3f39 c670 8f3c
00000010: dd60 e0bb 4d51 e7bc ca7a 8f3b 894b 263b
00000020: 9831 e7ba 68b2 a9ba c110 b5bb 00e6 d6bb
00000030: 2235 343b 1190 4ebc a691 38bc 2587 873c
00000040: b074 db39 6eaf 103c 1691 56bc 85fd 4bbb
00000050: cdf0 bcbc 62b6 533c 2785 123b ddc5 c13c
00000060: 9aa5 28bb 018b c8ba 96a9 e33a 43ef 233c
00000070: 7ed4 263c 14c5 62bc c5b6 153a e6d5 89bc
00000080: 1c59 663c 4d92 453c 108e f13b d736 5b3d
00000090: 9015 be3c e021 40bd 67ff aa3b 132e 8c3c
000000a0: ac33 163c 18ba 4fbc 6a88 083d 0fa9 363d
000000b0: 0bc1 74bc 84fa 60bc a60f 683c 2b27 973c
000000c0: 61cf 903c 2831 043c 5a8c 913c 390e a7ba
000000d0: dcbe 68bc 0944 dcbc 070a 0d3d 6b3e 05bd
000000e0: a223 363d 334a 1bb9 68c2 bc3b 120c 3fbc
000000f0: d24e cebb 630f 9bba 65b5 08bd 3d67 95bc
00000100: 8612 373d 5e4a 31bd 8e33 b33b a472 0b3d
00000110: 15e3 bb3c 3a40 2d3b 1c30 8b3c 07ec 2fbd
00000120: 9b9a 323c e569 16ba 1130 7bbc 6b42 3fbb
00000130: b9ac 12bc bcb2 c3ba b15f fc3a 675a 2c3c
00000140: 9dd7 83bc ade6 b73c d22e e33c 0db4 2c3b
00000150: f5d0 a8bc 8a62 59bc d53c 60bc ed79 043d
00000160: de33 e03c 7656 423c 5415 303c c001 cdbb
00000170: fef2 89bc a52b 3eba 43da 9e3c 459e 3b3d
00000180: e494 a53b 648f 93bc 3aaa d2ba be89 b6bc
00000190: a54a 023c e0f9 45bb 1a21 adbc f2b3 fb3c
000001a0: e7b8 c0bc 2ca4 ce3c 2c85 c53b faec 253b
000001b0: 1984 8d3c 8dc6 a4bb d677 79bb b92e eb3c
000001c0: f4e3 c9bc 7ccd a43b c9b7 1fbd 602b 7b3b
000001d0: a586 ad3b 75ea bdbc ec4d 78bc a2bb ffbc
000001e0: 43e4 f4bc 09ce e13c 9433 283c 18b1 623c
000001f0: 8570 79bc 96fe 043d 6016 0f3c 0b50 a13c
00000200: 9931 c93c a46e d2bc 78e5 083d 7cbc 223c
00000210: 8a90 dd3c a88e c4bb baa1 e43c 1c4b cbbc
00000220: 3522 01bd 1efb 19bb 5233 1d3b ce5e 3cbd
00000230: 0fc1 313c 589a 7b3c 1ffe 33bb 32c9 bd3c
00000240: 8d09 fabb d0d6 3f3d 0d4b df3b 0352 22bc
00000250: 2997 8a3c b20a 12bc 91ad 32bc 0f42 193d
00000260: 1a6f 13ba 7ff3 1b3c 6ee2 b1bb 1c47 a63b
00000270: b990 133c b874 2b3c 63a8 993c 4a0c a43b
00000280: 7ac7 b2bb 0c0f c93c 506f 0d3c 552b 99bc
00000290: 93b7 5e3c 943b 043d 5347 653d 0620 ea38
000002a0: c5f3 d5bc d3b4 8e3c 4d50 96bb 4a74 853a
000002b0: c369 c93c a558 013b bd6a 2a3c 7f34 013a
000002c0: a253 c03b 949e 423d 9bd4 7dbc 4d26 6cbc
000002d0: 5921 f5bc 7c4a 09bc f04b d93c 0979 ea3b
000002e0: 64aa db3c cee7 0d3c eb45 3dbc b86a 17bd
000002f0: b393 08bd 878b 883c 6ba1 b3bc f055 a93b
00000300: e59d 0d3a 15c5 3d3c b652 26ba ebd1 6dbb
00000310: e3c8 77bc b55e a6bc e41b 06bc bea4 f1bc
00000320: 904a 88bc fffb 6f3c bfc9 d13c 763c 2f39
00000330: 729c 843b b682 183d 6f60 81bc 8cf2 c33c
00000340: fb16 b9bc dfbc b3bc 2fdf 1cbc 2f28 4abc
00000350: b35d b6bc 4243 2b3b 636a a13a 801d ed3b
00000360: ec19 9b38 ad1f a339 f09b 093d 291a cc3b
00000370: 4572 bcba e212 1bbb 4398 c63c 51bc dbbb
00000380: b9ef a6bc 4b53 f73c 6f4e 78bc 6a7a 353b
00000390: 95e4 6c3b 04c4 97bc 1fcb 863c 550b 3a3c
000003a0: 3c23 a1bb 877e 6e3c 1ec1 e93c 822c 75bc
000003b0: 1431 53bc 7793 4bbc 3f53 a3bc 34c9 bfbb
000003c0: 1f5c 4c3c f5fe 083b 614c faba cbd9 e23b
000003d0: 83b7 80bc e8f8 5bbc c877 c5bb 9ed8 d1bc
000003e0: d299 04bc 7043 06bd 29b2 e23b 826e 35bc
000003f0: 2edc 00bd c1dc 83bc 070f 123d 8a78 20bd
-0.0007903351 -0.013267863 0.00018235925 0.01750983 -0.0068474845 -0.02823701 0.0043786513 0.0025374612
-0.0017638681 -0.0012946846 -0.005525679 -0.00655818 0.002749749 -0.01260759 -0.011265194 0.016543934
0.00041857874 0.008830888 -0.013096115 -0.0031126451 -0.023064042 0.012921901 0.0022357197 0.023653919
-0.0025733472 -0.0015300215 0.0017369266 0.010005775 0.010182498 -0.013840932 0.00057111337 -0.016825628
0.014059331 0.012058807 0.0073716715 0.053519096 0.023203641 -0.046907306 0.0052184346 0.017111814
0.009167593 -0.012678646 0.03333322 0.04459482 -0.014938603 -0.013731603 0.014163887 0.018451294
0.017677011 0.00806836 0.01776712 -0.0012745328 -0.014205661 -0.02688791 0.03443339 -0.03253023
0.044467576 -0.00014809593 0.0057604797 -0.011660593 -0.006296017 -0.0011830147 -0.033376116 -0.018237704
0.0446954 -0.043283813 0.0054687923 0.034044877 0.02293543 0.0026435987 0.016990714 -0.042949703
0.010901119 -0.00057378254 -0.015331284 -0.0029183875 -0.008952313 -0.0014930586 0.0019254592 0.0105196005
-0.016094023 0.022448862 0.027732287 0.0026352436 -0.020607451 -0.013268122 -0.0136863785 0.03234284
0.027368482 0.011861434 0.0107472725 -0.006256312 -0.0168395 -0.00072544283 0.019391185 0.045805234
0.0050531495 -0.01801271 -0.001607246 -0.022282477 0.007952367 -0.0030208752 -0.021133948 0.030725453
-0.023525668 0.025224768 0.006027838 0.002531825 0.017274903 -0.005028552 -0.0038065813 0.028708803
-0.02464483 0.0050293785 -0.03899363 0.0038325414 0.005295592 -0.023183087 -0.015155297 -0.0312174
-0.029894 0.027564066 0.010266203 0.013836168 -0.015224581 0.032469355 0.008733362 0.019691488
0.024559783 -0.025687523 0.033421963 0.0099326335 0.02704646 -0.0059984513 0.027909148 -0.024816088
-0.031526763 -0.0023495625 0.0023986888 -0.04598885 0.010849251 0.015356623 -0.00274647 0.023167226
-0.007630533 0.04683572 0.0068143667 -0.009907248 0.016917782 -0.008913683 -0.010905639 0.037416514
-0.00056241604 0.009518503 -0.005428604 0.005074395 0.009006673 0.01046484 0.01875705 0.005006348
-0.0054559084 0.024543308 0.008632496 -0.01869742 0.013593572 0.03228338 0.055976223 0.00011163954
-0.026117215 0.017420208 -0.0045872093 0.0010181752 0.024586564 0.0019736674 0.010401425 0.0004928782
0.005869345 0.047514513 -0.015492584 -0.0144134285 -0.029923128 -0.008379575 0.026525468 0.007155542
0.026814647 0.008661224 -0.011552314 -0.03696701 -0.033343982 0.016668094 -0.021927556 0.0051677153
0.0005402251 0.011582633 -0.00063447224 -0.003628845 -0.015123579 -0.020308832 -0.008185361 -0.0294975
-0.016637117 0.014647483 0.025608895 0.00016711824 0.00404697 0.03723403 -0.015793053 0.023919366
-0.022593966 -0.021940647 -0.0095746955 -0.012338682 -0.022261476 0.0026132618 0.0012315031 0.0072361827
7.395804e-05 0.00031113383 0.03359598 0.0062287045 -0.0014377317 -0.0023662378 0.024242526 -0.0067057987
-0.02037798 0.030191084 -0.015155419 0.0027691373 0.0036146988 -0.018526085 0.016454278 0.011355241
-0.0049175303 0.014556534 0.028534468 -0.014964225 -0.012890119 -0.012425295 -0.019937156 -0.0058528427
0.012473135 0.002090392 -0.0019096249 0.0069229356 -0.015712505 -0.013426043 -0.006026242 -0.025615986
-0.008093314 -0.032779157 0.006918211 -0.01107371 -0.03145998 -0.016096475 0.035658862 -0.039177455

action_model._discrete_distribution.branches.2.bias f4 [3]
00000000: 4b06 10bc 1edd f63c 0112 b1bc
-0.008790563 0.030134734 -0.02161503
