ML-Agents/backup/results/v3.0.0/Volleyball/Volleyball-1499999.onnx (onnx, 330108 bytes, 15 tensors)

discrete_action_output_shape f4 [1, 4]
00000000: 0000 4040 0000 4040 0000 4040 0000 0040
3.0 3.0 3.0 2.0

network_body.observation_encoder.processors.0.normalizer.running_mean f4 [48]
00000000: 0693 6ebc dcfb 7d3b 2617 e53e 376c ef3e
00000010: cf8a 2841 c6c3 d1c0 0000 5faf 0000 a42e
00000020: 9847 c941 21c1 df3f 9204 b5c1 bf63 023e
00000030: b798 df3e 6571 3abe 0000 0000 00f5 3cbc
00000040: 0000 0000 9184 743f d027 c941 44db e23f
00000050: 14c4 b4c1 d4d9 003e 9bf2 f43e 014e f7bd
00000060: 0000 0000 849a 8abc 0000 0000 026b 743f
00000070: 570a c841 1c0e de3f 3cf3 15c2 9ff6 bdbd
00000080: 5d68 dc3e 8b70 e13d 0000 0000 f204 63bc
00000090: 0000 0000 f119 753f 4627 c841 97b7 e23f
000000a0: f4fd 15c2 e1f5 94bd 29dc f03e d7e6 063e
000000b0: 0000 0000 1a2e 95bc 0000 0000 70f6 733f
-0.01456142 0.0038754856 0.44744223 0.4676225 10.533889 -6.555148 -2.0281732e-10 7.4578566e-11
25.159958 1.7480813 -22.627232 0.12733363 0.436712 -0.18207319 0.0 -0.011533022
0.0 0.9551478 25.14444 1.7723165 -22.595741 0.12583095 0.47841343 -0.12075425
0.0 -0.016919382 0.0 0.9547578 25.005049 1.7348056 -37.487534 -0.09275555
0.43048373 0.11007794 0.0 -0.0138561595 0.0 0.9574271 25.019176 1.7712277
-37.498 -0.0727346 0.4704297 0.13173996 0.0 -0.01821046 0.0 0.9529791

network_body._body_endoder.seq_layers.0.weight f4 [256, 48]
00000000: d65c 0ebe f1e7 9cbe 8c98 593e e375 3fbe
00000010: 71df 813d f64a f2bd 3bd3 e73d c600 353e
00000020: 71b9 debd dd04 7dbd 77f3 ea3d 4ebf 0f3e
00000030: dc04 4c3d dd79 f5bc bdef 4ebe ec20 b03c
00000040: 80c3 733e 7633 10bd 4253 283e 9861 ffbc
00000050: 35a8 3bbd c336 4bbe 431f 94be 8494 403e
00000060: 4269 33bc 2757 553e 8bb3 f3bd 5abc 503e
00000070: 5f6c b9bd f7fd 4ebe 7020 0cbe ba4e 1abb
00000080: 0b2c 0a3e 71cd 9cbd eb5f 843e 3fe7 c93d
00000090: 7f42 6b3e fac8 843e f086 c7bd 4c3b a13d
000000a0: af89 84bd 3b0a 373e e956 b2bb 252e 4c3d
000000b0: 48d8 eabd a6c0 87bc c914 d63d 59a2 c8bd
000000c0: 3daf 183e 36ee 1b3e a0a3 46be fc15 ca3c
000000d0: 3e48 513e ec63 203b 52b8 18be ef6e 803e
000000e0: 48c6 c23d a8be 03bd 71f8 a43c 105a a43d
000000f0: 476f 82be 7292 89be ae0c ac3c db60 743d
00000100: c881 933d a2e3 d5bd 1950 32bd e6c4 a5bb
00000110: 9322 d7be 1250 863e d0fe 8cbd 2d1d 60bc
00000120: a036 80bd 7fba 273e b771 1bbe 30c5 17bc
00000130: da3b 573d f3c3 55bc f0ad 8bbd b039 13bd
00000140: 61d7 2cbc b97c 133e 0443 a73d 8c27 e53d
00000150: 83eb 6d3d eebe 94be 3521 9dbd dbef 523e
00000160: 6289 b53c 5593 aa3d 0cb7 4a3d 7e16 813e
00000170: d2c7 dbbd d321 27be efe1 a2bd 74eb 6a3e
00000180: 976e 46be a2dc 62bd 4346 59bd c027 bbbe
00000190: f95a 543c 07e0 bb3c 0ecd 58ba 9f88 0c3e
000001a0: 4adf 7dbd 8d0a 953c 170b 01be 8303 1ebe
000001b0: 1715 2d3a bf08 17be 0c22 993e 815e bfbc
000001c0: f155 93be d085 7f3e f04c 22be 7b44 eabc
000001d0: d622 8abb 07c5 943c 102e 7d3d 4e2a 8cbe
000001e0: 108f 8e3d 2adb 72bc e837 12be 4791 32be
000001f0: 7bf4 643d bcc9 e43d 4275 94bd 0b70 19bc
00000200: a297 a5bd 1b42 f5bd 9c42 903d 034d a13e
00000210: f1b1 203d 9637 1d3e 0385 d5bd 9f04 953e
00000220: 6367 06bc baad 50be c543 2cbe 3aa9 783d
00000230: 8e64 613d 50d8 4fbc 5e98 593d 3bcf ca3c
00000240: 7d80 c83d 43fd b2bb 4cbb b63d 5d2b 17be
00000250: 84db 5a3d 45a9 c5bd b2d3 ffbd 0739 93bd
00000260: f5c1 e4bd 3435 2abe 89f3 df3d 8ea9 0abd
00000270: e1e7 1d3c b6b2 b0be 8056 8a3e 7e29 3b3e
00000280: 4710 1bbe cebd b7be 8e9c 1e3d 4bb8 063e
00000290: 30c1 e93d 3ed8 8abe 3228 92bd 7cf8 0f3e
000002a0: 624f 9a3d 4426 50be 872d 0abe f640 22be
000002b0: 19e1 8bbe 7bde 17bd d283 1b3e ffda 6c3e
000002c0: 1ae6 92bc 1083 ec3d 3d97 09be c9d1 073e
000002d0: d03a 583e 32d9 05be acb1 ea3d 99d3 e239
000002e0: 9f1b 84be fe4b 143e 160a dbbd e774 bc3c
000002f0: d584 203d aa74 483d be6c a73c a260 be3c
00000300: 2a20 983d 8736 dbbd ef16 e43d 7f8b b13d
00000310: 5eec 383e 7098 0b3e 6a7a 79be 1bfa f43c
00000320: 4e04 e8bd d685 8abe 7526 0cbd 576c 37bd
00000330: da94 bcbc a6da adbc 2981 073e 5c95 ed3d
00000340: d52e b63e dfbc adbd b2b8 0f3e e71c 17be
00000350: cace 673d 6f0c 87bd 4c34 3dbe f41e 463e
00000360: af5d b0bd fe20 d23c e829 283e 5172 66be
00000370: fa32 ef3e b9b0 8d3d e4bd a2bd 127e 493e
00000380: ff4b 7c3e b6a6 ca3d 5111 373e 4a4c 193e
00000390: ba32 0fbe 065e 133e 7079 03be 8b30 a7bd
000003a0: e244 1dbd 6aad fcbd f861 7ebd c5c7 44bd
000003b0: 020d 0bbe 1f33 323c 6db2 b93c c170 78bd
000003c0: 54cf c5bc a475 4d3e 08b8 293e 5e04 ab3c
000003d0: ee10 55be 7458 d73b 77a2 113e 4e6e 13be
000003e0: 4dfc 10be 4954 3f3a 4541 b9bd c169 bc3e
000003f0: 2b56 293e a53e 803e 7320 323e 1c28 41be
-0.13902602 -0.30645707 0.21249598 -0.18697314 0.06341446 -0.11830704 0.11319586 0.17676076
-0.10875214 -0.061772216 0.114722185 0.1403782 0.04980932 -0.029965336 -0.2020864 0.021500073
0.23805046 -0.035205327 0.1643801 -0.031174466 -0.04581471 -0.19845109 -0.289301 0.18806654
-0.010950388 0.20834027 -0.118994795 0.2038435 -0.09053873 -0.20214067 -0.13684249 -0.002354546
0.13493364 -0.07656372 0.2585443 0.0985856 0.22974585 0.25934583 -0.09742534 0.07872638
-0.064715736 0.17874996 -0.0054424894 0.049848694 -0.114670336 -0.016571354 0.10453183 -0.0979659
0.14910598 0.15227589 -0.19398355 0.024668686 0.20437714 0.002447362 -0.14914063 0.25084636
0.095104754 -0.032164246 0.020137997 0.080249906 -0.25475523 -0.2686954 0.02100214 0.05966268
0.07202488 -0.10443808 -0.04353342 -0.0050588725 -0.42018566 0.26232964 -0.06884539 -0.013678831
-0.06260419 0.16379736 -0.15180098 -0.009263322 0.052547313 -0.013047206 -0.06820285 -0.035943687
-0.010549397 0.14403047 0.08167079 0.111891836 0.05808593 -0.29051918 -0.07672349 0.2059931
0.022160236 0.083288826 0.049490973 0.25212473 -0.10731472 -0.16321497 -0.0795325 0.2294138
-0.19378124 -0.055386193 -0.053045522 -0.36553764 0.012961143 0.022933973 -0.00082703016 0.13723992
-0.061980523 0.018193508 -0.12601887 -0.15431027 0.0006602569 -0.1474943 0.29908788 -0.023360493
-0.28776506 0.24953389 -0.15849662 -0.028597107 -0.0042155785 0.018160356 0.061811507 -0.27376026
0.06960881 -0.014822761 -0.14279139 -0.17438231 0.055897217 0.1117129 -0.07248928 -0.009365092
-0.08085562 -0.11975499 0.07043955 0.31504068 0.0392322 0.15353236 -0.104257606 0.29105088
-0.00820336 -0.20378771 -0.16822727 0.060708262 0.055027537 -0.01268585 0.053123824 0.024757018
0.09790132 -0.00546232 0.08922443 -0.14762636 0.053432003 -0.09651426 -0.124915496 -0.071886115
-0.11169807 -0.16621858 0.109351225 -0.033853106 0.009637804 -0.34511346 0.2701912 0.18277547
-0.15142928 -0.35886997 0.03872352 0.1315624 0.11413801 -0.27118105 -0.07136573 0.14059633
0.07534672 -0.20327097 -0.1349393 -0.15845093 -0.27320173 -0.03707741 0.15187004 0.23130415
-0.017931987 0.11548436 -0.13436599 0.1326362 0.21116185 -0.13071135 0.114596695 0.00043263732
-0.25802323 0.14482114 -0.10695283 0.023004962 0.03918918 0.048939385 0.020437595 0.023239437
0.0742801 -0.1070376 0.11137187 0.08669185 0.18058917 0.13632369 -0.24363104 0.029904416
-0.11328946 -0.27055234 -0.034216363 -0.044781055 -0.023020197 -0.021222424 0.13232864 0.11600754
0.35582605 -0.0848329 0.140353 -0.14757119 0.056593694 -0.065941684 -0.18476981 0.19347745
-0.08611619 0.025650498 0.16422236 -0.22504546 0.4671858 0.06918473 -0.07946375 0.19676998
0.24638365 0.09895079 0.178777 0.14970508 -0.13984194 0.14391336 -0.12839293 -0.08163556
-0.03839577 -0.123377636 -0.06210515 -0.048042078 -0.13579181 0.010876446 0.022668088 -0.060654406
-0.024146713 0.20064408 0.16574109 0.020876106 -0.2080724 0.0065718237 0.14222132 -0.14397547
-0.14158745 0.0007298631 -0.09045652 0.36799434 0.16536777 0.25047794 0.17395191 -0.18862957

network_body._body_endoder.seq_layers.0.bias f4 [256]
00000000: 5f0a 183d 9235 7dbb 7e8e bbbb 2997 033c
00000010: 69f5 363b 021a 443d 226a 2ebb 2ba1 403d
00000020: 8402 a1bc 03b9 453c a979 103d ef92 d93c
00000030: d9a5 6c3c 4fb1 e33b 4e07 62bb 4d50 4b3c
00000040: 5382 e23c 66b9 e73c dc20 8fbc f710 2bbc
00000050: 91f5 373c 6f85 693d c9eb 19bc b23e 633c
00000060: b019 943c 12d4 b03b 4d42 2d3c ec48 ec3c
00000070: d680 15bb eee0 4b3d 2d17 d53c 0ce7 8dbb
00000080: 4459 4b3c 5eb8 413d fa96 313d 8d21 f5bb
00000090: db98 273d 3ec0 ba3a bbfb 923c 18c2 d73c
000000a0: cac4 bd3b 4eb8 f13c 0b85 673c 9637 69ba
000000b0: b7ac 053d 5912 ce3c e22c 863c f32e 54bc
000000c0: 4740 953b e9c3 643c 15aa 213c bde0 233c
000000d0: bd6a 013d e69b e03b 59db 483c c51c b93b
000000e0: 5b1f 073d 1505 34bb d194 71bb 5148 2d3d
000000f0: a751 e63c d7fe ea3c 551a 1fbb 1f8f 6a3b
00000100: 3222 203d d3f1 a93a 7e66 c63c d606 a8bc
00000110: 5993 153d 7eef 7f3c ce74 013d 3a5a 743b
00000120: 61cc c8ba 658b 7f3b 92c8 37bc ec6c 893c
00000130: 2cc9 f43c 36b7 e73b 7fba b13c 900a 3e3c
00000140: e8a8 3f3d c585 803c 647e b73c 60d1 d33c
00000150: a893 7bbb 8d90 223d bc51 1e3c 1e0e 2d3c
00000160: a6f4 f23c 0d71 a73c ea4a 013d 82ff da3c
00000170: 18d8 563b 10ac 433c 804c da3b 9714 5abc
00000180: 7547 283b c8a0 133b be3f e53c c05d 343c
00000190: 8027 463a 58f8 203d d468 d63c 6058 973c
000001a0: c5b3 143d 0c90 48bc 108f 343d 9389 2b3c
000001b0: e4b7 b13c 6ff1 c03a 3e25 ec3b 4c9c a43c
000001c0: 91e9 ac3c f9b3 b03b 1cda a53c 86e7 97bb
000001d0: 590f 5e3d 274d 303d ae24 0a3c f539 143b
000001e0: 7f90 d3bb 3489 9c3c b6ed a83c 0b46 db3b
000001f0: 1401 b13b 76b6 313d 76e1 173d ab99 08bc
00000200: de3a 0c3c c1c6 083b 990b bd3c 1863 033c
00000210: 1422 323d 650c 2e3c 7bc0 1abc d366 a93b
00000220: df3a 4f3c 1a69 833c e45c 5b3d 6654 0e3c
00000230: 5e5b e03c 9d16 0c3d 6212 893c 054a 343b
00000240: e343 0e3d 7ada 413d 2e37 e83c b81a 273d
00000250: 9799 3abb c923 5239 3874 163d 44ef 273c
00000260: d0e3 323c becb b13c a694 483c b943 593c
00000270: 0d5f 4dbb 32ee ee3b f49e b0bc 330b 193d
00000280: 7f15 803c ee46 0d3c e003 113d 8b4b a2bc
00000290: 6816 b73c b0d0 803b 5bbf 803d 6ad7 e63c
000002a0: 460b b53c 5a87 0e3c 2070 acba bef2 b23c
000002b0: 06e3 c93c 36e0 5ebc 7c6a 25ba 7b4a cf3c
000002c0: 4749 dabb 622b adbc c9b2 c43c 3f75 613d
000002d0: cc06 603b 7697 c13c 021b d93b 6cf7 fb3c
000002e0: ddfa cf3c ef81 013d 3577 23bc b833 17bb
000002f0: 6b7a 713b 7690 f6ba a866 483d 5ad9 f93c
00000300: 2fc8 453b b707 b73c f2f6 bf3c b915 373c
00000310: f607 d43c 3cfa d1bb 8f2d 333d 060a 00bc
00000320: c5f0 583d acab b53c 775e d43c ddba f93c
00000330: ea9b e43c dbd1 e73c ffe6 1b3b 5ee5 7ebc
00000340: 0cbb b33c b634 b93c 2c54 893c b266 173d
00000350: 13a4 803b e681 93bc d6b2 0cbc c2e5 67bc
00000360: 3c9b f3bb e0f0 323d 996a 083d 6509 ee3c
00000370: f0e2 133d 754c 4e3c 5d4f fd3b e434 e83b
00000380: e34e 7d3b 0132 f53a 7dab d63c a22f 2f3d
00000390: 7e7a fe3c 74fb 013d 9e91 513c 3648 f9bc
000003a0: 947a 443a faa8 a83c 0aab 4c3b f7d7 713d
000003b0: 9425 be3c f89c c93c 3cd7 2a3d 1c11 d63c
000003c0: 0361 a0bc 3d46 9f3a 51a4 fc3c e109 d43c
000003d0: 2bf6 ae3c d89f d83c 25ad b53c 9540 443d
000003e0: 3355 833c d3d7 0e3b 8d6b fa3b 8b2d 9e3c
000003f0: c54b 3dba e51b 173c 1eb6 cb3c 38f5 233c
0.037119266 -0.0038636667 -0.0057237735 0.008031645 0.0027917272 0.047876365 -0.0026613553 0.0470287
-0.01965452 0.012068036 0.035272274 0.026559321 0.014443838 0.006948627 -0.0034489217 0.012409282
0.027650034 0.028286647 -0.017471723 -0.010441056 0.011227981 0.057012018 -0.0093945945 0.013869928
0.018078655 0.0053963745 0.010574889 0.028843366 -0.0022812388 0.049775057 0.026012028 -0.0043305214
0.012411419 0.047294967 0.043356873 -0.007480806 0.04091726 0.0014247966 0.0179423 0.026337668
0.0057912813 0.029506829 0.014130841 -0.00088965276 0.032635417 0.025155233 0.016378824 -0.012950647
0.0045547816 0.013962724 0.009867211 0.010002312 0.031595934 0.006854522 0.012259328 0.0056491815
0.032988887 -0.002746885 -0.0036862383 0.042305294 0.028115107 0.02868597 -0.002427717 0.0035790873
0.03909511 0.0012965746 0.024218794 -0.020511072 0.036517475 0.015621064 0.031605534 0.0037285225
-0.0015319699 0.0038992998 -0.011217253 0.01677557 0.029881082 0.007071401 0.021695374 0.011599198
0.04679194 0.015688786 0.022399135 0.025856674 -0.003838757 0.039688636 0.009663042 0.010562448
0.029657673 0.020439649 0.031565584 0.026733164 0.003278261 0.011942878 0.0066619515 -0.013310573
0.0025677357 0.0022526253 0.027984496 0.01100868 0.00075589865 0.03929934 0.026173033 0.018474758
0.036304254 -0.012241375 0.044081748 0.010469812 0.021694131 0.001472039 0.007206588 0.02009406
0.021107467 0.005392548 0.020245604 -0.004635754 0.054213855 0.04304233 0.008431597 0.0022617553
-0.0064564343 0.019108392 0.020621162 0.0066916994 0.00540174 0.0433869 0.03708025 -0.008337419
0.008558957 0.002087042 0.02307682 0.008019231 0.04348953 0.010623072 -0.009445305 0.0051697283
0.012648313 0.016041327 0.053555384 0.008687114 0.027387317 0.034201253 0.016732398 0.002750994
0.03473271 0.047327496 0.028346624 0.040796965 -0.0028472894 0.00020040492 0.03673193 0.010249916
0.010918573 0.021703597 0.012242472 0.013260775 -0.0031337172 0.0072915787 -0.02156017 0.037364196
0.01563525 0.008622868 0.035404086 -0.019811412 0.022349551 0.0039311275 0.06286498 0.02817889
0.022100102 0.0086992625 -0.0013155974 0.021844264 0.024644386 -0.013603261 -0.0006310118 0.02530407
-0.0066615674 -0.02113885 0.024011033 0.055043455 0.0034183739 0.023631793 0.006625534 0.030757628
0.025388176 0.031618055 -0.009977152 -0.0023071598 0.0036846648 -0.0018811363 0.048926026 0.03049915
0.0030179133 0.022342546 0.023433182 0.011174613 0.025882702 -0.006408004 0.04374462 -0.00781489
0.05296399 0.022176586 0.02592395 0.030484611 0.027906377 0.02829831 0.0023788807 -0.015557615
0.021939777 0.022608142 0.01676377 0.036963172 0.003925809 -0.018006276 -0.00858756 -0.0141539
-0.007434277 0.043686748 0.033304784 0.029057214 0.036105096 0.012591471 0.007730408 0.007086383
0.0038651756 0.0018706919 0.026204819 0.042770036 0.031064268 0.031733945 0.0127910655 -0.03042994
0.0007495072 0.020588387 0.0031229877 0.05904385 0.023211278 0.024610981 0.04170917 0.026131205
-0.019577509 0.001215167 0.03084007 0.025883617 0.021357616 0.026443407 0.022177288 0.047913153
0.016031837 0.0021796122 0.0076422156 0.019308826 -0.00072210684 0.009222959 0.024867114 0.010007195

network_body._body_endoder.seq_layers.2.weight f4 [256, 256]
00000000: ea2b a63d cfdd 80bd d721 b03c a5db 5e3d
00000010: 9ab6 193d 79a3 3fbc 3d44 833b cabc 123d
00000020: bce4 59bd bcd9 ce3d 4956 773d 5e35 cd3c
00000030: 6bb3 673c c726 283d ae18 94bc be26 e03c
00000040: cf25 8f3b 826b 313d 8a2e e23d c3e4 17bd
00000050: 9307 f23b 22a6 f0bc 131d 2bbc 3449 163e
00000060: 5c16 b63c 0767 ff3c 8c18 8abc 352f 193d
00000070: 7294 87bc 1dff 763d 6df9 f5bd d1a7 e7bd
00000080: 27aa 953d d3d8 853d e355 113d be54 223d
00000090: e5ed 2bbd d3f7 b73c b30c e7bd c212 bcbd
000000a0: c02a 903b 88b8 78bd 4b67 19bd c222 8cbd
000000b0: a304 99bc c49a 69bc efdf 7fbd d7da bf3c
000000c0: 9869 973d 6e00 08bd f055 bf3d 56c8 b93b
000000d0: c02c f83a ddac ebbc 0449 c8bc 8a1d 073e
000000e0: ac1c 883b ae20 85bd 62a1 583d ab88 12bd
000000f0: 44af 003d 6bc8 6abc f742 e0ba db88 92bc
00000100: b998 1abd 4936 213d 8cbc 0cbd 88c7 663d
00000110: 90ba adbd 7d26 ef3d e289 aebd 5f37 6bbc
00000120: bfa3 893b 4898 5dbc a4ae 0dbd 2ca3 6e3d
00000130: 74ae 5b3d 46e7 33bc 18a3 a03d e063 e0bc
00000140: 4caa 8f3c 6b77 ccbd 24dd 7c3d 1681 bd3d
00000150: 48bf f23d 4212 e5bd 6d21 673d f0ca 17bc
00000160: 3ca0 f9bd 5a08 d4bc b686 5a3d 787c 95bc
00000170: d82b 2cbc 7aaf eabd 71a4 5bbc 0bc5 bbbd
00000180: ea16 273d 3ac1 90bd 207a 5bbd 0a10 813c
00000190: 597d 9c3d 07a1 89bd 9075 ac3d eb2d 133d
000001a0: f5a6 a9bb a7a1 4bbd 8cec 5e3d 8638 633c
000001b0: 2347 05bd c546 ecbc 34b1 7a3d 92dd 2f3d
000001c0: e822 ae3c db95 943d 48c3 cb3d cae0 1abd
000001d0: 4f56 8cbb 968c 623d 8694 aebd 2a39 9bbd
000001e0: a9e9 69bd 6cb0 aa3b e51a e9bc 0ad3 3b3c
000001f0: 5ebe f5bd 3676 df3d e78a 99bd 6a4b ceba
00000200: 9515 7e3d 2437 79bc 6838 d13d 75aa 99bd
00000210: eecf 953b bbe7 f4bb 4e9d d83d c7de 663d
00000220: 27a6 a1bd cab3 2c3d 3863 adbc 5455 833c
00000230: bbd5 02bd 2cf0 50bd 37d9 d8bb d50f 6b3d
00000240: 700c 603d 1ee3 8d3d 9ffc 0cbd 5296 cb3d
00000250: 09ce 02bc d44b b0bd 38a7 b7bd 8f65 e93d
00000260: 1a7c 4b3d 85c4 93bd ace9 42bd b537 9f3d
00000270: e8c7 323d fb04 e43a 9997 473c e161 8abb
00000280: f41e ac3d f31b 41bd 4a95 f8bb f874 993c
00000290: 4f6d 4d3d 63ae f1bd 1384 f6bd aa78 d5bd
000002a0: 4ac7 3fbd 6ebd b4bd 0a23 5cbd 8ea6 a2bd
000002b0: 9d5b 2cbd 5a47 24bd 3db9 873d 2e30 92bd
000002c0: 764e b73d 7d08 5bbd 3d08 f23d f158 9c3d
000002d0: 8cdb 82bb cdde 1d3d ee63 7dbc b80e 89bc
000002e0: 6324 86bc 1f86 183d de6a af3c 70ca 1c3e
000002f0: 4c8a 523d de30 e3bc fd64 86bb a5f2 643d
00000300: 7571 823d f750 cd3d 5254 91bc 5654 54bc
00000310: 90de d5bd c6ce c93c c966 dc3c caa0 7bbd
00000320: 1b5e 78bd 5774 aabc b217 32bc 573f cdbc
00000330: 9d85 da3c 8c59 973d e8dd 873c dcd7 9cbc
00000340: 41dd 4d3d 5555 2f3d dad4 77bd 0c58 873b
00000350: eb72 7cbd 4e58 3abd 22e4 11ba b5be 923d
00000360: b64b 7c3a 16ae be3d 5133 89bd 836f d13b
00000370: 0c10 9b3c 54fe 5f3c 4a81 483d 8c06 c1bc
00000380: 98cd 15bd e8d0 813d a76b 393e e5bc bc3d
00000390: 1ee9 bebd a0e4 cb3c 2547 4fbd d1ba 723d
000003a0: bafd 2cbd fdf2 49bc 05ee 96bb 0ccb e8bc
000003b0: cd89 27be adbc 10bc f147 893a c252 6cbd
000003c0: ee66 433d a4f4 34bd 9815 c63c 661b ca3a
000003d0: 0d2d b0bd 7fb8 9e3d 6af1 93bd 56d8 c33c
000003e0: 8487 5d3d 5b30 acbc 1ad5 acbd cce3 333b
000003f0: 0ab6 51bc 654e c1bc 53b8 873d 4874 053d
0.08113845 -0.06292307 0.021500511 0.054408688 0.037527658 -0.01169669 0.0040059374 0.035824575
-0.053196654 0.10100123 0.060385022 0.025049862 0.014141898 0.041052606 -0.018078174 0.027362224
0.004368521 0.043315418 0.11044033 -0.0370834 0.007386157 -0.029376093 -0.010443944 0.14676362
0.022227459 0.031177057 -0.016857408 0.037398536 -0.016550276 0.06030189 -0.12010465 -0.11311305
0.073078446 0.065354966 0.0354823 0.039631598 -0.04197492 0.022457039 -0.11281719 -0.09183265
0.0043996274 -0.060722858 -0.037452023 -0.06842567 -0.018678969 -0.01425809 -0.06246942 0.02341978
0.07393187 -0.033203535 0.09342563 0.005669634 0.0018934235 -0.028768951 -0.024448879 0.13194862
0.0041538086 -0.06500374 0.05288828 -0.035774868 0.031417146 -0.01433001 -0.0017109801 -0.017887523
-0.037743304 0.03935841 -0.0343595 0.05634263 -0.084828496 0.11677263 -0.08522393 -0.014356463
0.0042004283 -0.013525076 -0.03459038 0.05826108 0.05363317 -0.010980433 0.07843608 -0.027391374
0.017537259 -0.09983715 0.061734334 0.09253137 0.1185289 -0.11185123 0.05642836 -0.009264693
-0.121887654 -0.025882889 0.053351127 -0.018247828 -0.0105085 -0.11459251 -0.013405905 -0.09168442
0.040793337 -0.07068105 -0.053583264 0.015754718 0.07641096 -0.06720167 0.08420861 0.035932463
-0.0051773735 -0.04971471 0.054424807 0.013868457 -0.032538544 -0.02884234 0.06120415 0.042935915
0.021256879 0.07255145 0.09949356 -0.03781203 -0.0042827497 0.055309854 -0.08524422 -0.075792626
-0.0571076 0.0052090194 -0.028455207 0.01146389 -0.119992 0.10911219 -0.07497197 -0.0015739028
0.0620323 -0.0152109 0.10215837 -0.07503215 0.0045719063 -0.0074739135 0.105768785 0.0563648
-0.07893019 0.042163648 -0.021165475 0.016031899 -0.03194211 -0.051010296 -0.006617691 0.057388145
0.05469936 0.06928085 -0.034420606 0.09940781 -0.007983693 -0.08608213 -0.08967441 0.11396324
0.0496789 -0.072152175 -0.047586128 0.07774297 0.043647677 0.0017396504 0.01218214 -0.004223094
0.08404341 -0.047145795 -0.007586156 0.018732533 0.050153073 -0.1180084 -0.1203691 -0.104234055
-0.046820916 -0.08825193 -0.053744353 -0.07941924 -0.042079557 -0.04010711 0.06627128 -0.07138096
0.08950512 -0.053474892 0.118179776 0.07634152 -0.003993457 0.038542558 -0.01546572 -0.016730651
-0.016374772 0.037237283 0.021413263 0.15311599 0.05140142 -0.027733263 -0.004101394 0.055895466
0.063692965 0.100252084 -0.017740402 -0.01295956 -0.10442841 0.02463473 0.02690448 -0.061432637
-0.06063662 -0.020807428 -0.010869907 -0.025054617 0.02667504 0.073901266 0.016585305 -0.019145899
0.050259832 0.04280599 -0.060505725 0.004130369 -0.06163303 -0.04549437 -0.00055653055 0.07165281
0.0009624319 0.09310548 -0.06699241 0.006391467 0.01892855 0.013671476 0.048951425 -0.023562692
-0.036573023 0.06338674 0.18107472 0.09215716 -0.09321807 0.02488929 -0.050604958 0.059260193
-0.04223416 -0.012325999 -0.004606011 -0.028417133 -0.1636116 -0.008834046 0.0010473711 -0.05769611
0.047705583 -0.04417862 0.024180219 0.0015419542 -0.08602343 0.077500336 -0.072237805 0.023906868
0.054084316 -0.021019151 -0.084390834 0.002744901 -0.012799749 -0.023596952 0.06626954 0.032581598

network_body._body_endoder.seq_layers.2.bias f4 [256]
00000000: 9698 a5bb e256 143c d366 ec3c bc61 9e3c
00000010: a7e1 eb3b c140 893c 613b 883c 175a 6f3b
00000020: 829b 833b 2a3d 943b 1ee6 a33b 4020 cd3c
00000030: 44ae f03c 69d2 623b 3e79 c23c 12e9 f33c
00000040: b618 f43b a2c9 793c c722 9b3c e18b 553c
00000050: cfcd e33b cadb 5f3c 7b96 c53b a3e6 dd3c
00000060: ca18 b63c 3b9c 1abc 0228 c13b 852e 8b3c
00000070: 4e1c 82bb c8bd 3b3c 4834 663c 1c76 df3b
00000080: 06e8 4139 ecb7 d13c 49ee 053d bdaa d33c
00000090: 8c39 b53b c01e 153c 394c 013c 2630 603c
000000a0: de76 58bb a5d3 503c 9dc9 d33b a453 02b9
000000b0: 8b73 683a 3fc1 70bc 4f1f 353b 23b2 cc3c
000000c0: 698b 05bc b877 8dba d84a 26bb 3a03 233c
000000d0: 37c6 113c 9e25 1c3c 69ce 2b3c f8de a13c
000000e0: 18bd 743c 3511 ed3b 12ca dd3c 4be9 843c
000000f0: 225f d93c d6ab 723c a090 dc3c 7513 87b8
00000100: 1e9d 503c 983d 343c 9105 f8bb aefa 173c
00000110: 15bb a83c de20 a8bb cf95 ad3c cb49 723c
00000120: a2b1 0abb 1c9b 893b c7c8 0dbc bf1d 74bb
00000130: 2547 de3c 4858 ac3c 9f26 cb3b e8f4 fa3a
00000140: 2fc8 9a3c 2467 b63b dbd3 c1bb bc7a 353c
00000150: 1d28 d53c a511 f53c 73fa 903c 8faa 883b
00000160: a603 07bc 1f4a b23c 957b 303c 4d25 ccbb
00000170: 1b9b 7abb c347 093c 8ed4 47bc 2d4f a9ba
00000180: 2817 9e3a 84db 4d3c 7dd1 d03b 889b c93c
00000190: f151 183b 4d58 943b 29e2 ea3c b636 e4bb
000001a0: 68b1 8f3b cee0 9c3c 7f31 9f3c b345 c73c
000001b0: 9081 a03c 6508 e4ba fdc1 7b3c 4eb7 603c
000001c0: 1888 8b3c 0584 b7bb 32dd 053c 7dc1 9a3c
000001d0: ec40 e83c 7b3f b23b 6641 d4bb b9fe 453c
000001e0: 373b a33c ee20 943b a1aa 7f3c fa39 b03c
000001f0: f67d 553b 4122 013d 3a00 4ebc fe9c a93b
00000200: a503 d5b9 47a8 8739 b254 1f3a e174 94bb
00000210: cc69 353b 88ed 3f3b c7f4 ad3c 49b3 c73b
00000220: d03c b83c 61f6 b33c 5995 3a3c f39c bcba
00000230: 4b60 8eba 4d0b 983b 3088 fa3c f510 283c
00000240: a543 3c3c cbdb c63c 2178 4cbc 150d b13c
00000250: 9d6d 863c 43ce bd3c 8dd4 a23c 17aa 753b
00000260: e54c cbbb c5c5 3a39 4117 3d3d 5bda 8e3c
00000270: 32e7 713c 9de9 563c f3a4 9e3c c2f2 b73c
00000280: e583 543c 6722 8c3c b555 e03c 2966 e4bb
00000290: 5071 a5bb a59e 903a ac97 bf3c d745 323c
000002a0: ddd4 953c 35a4 4f3c 8d3e ee3c 1e32 27bb
000002b0: 0043 6e3c 5bf6 573c 4e63 783c 0399 b43c
000002c0: 895c 21ba 66c9 4c3c 4da9 913c ce0b 20b9
000002d0: b781 053d 04ad c53b a70f e2bb 8ebd 45bb
000002e0: 3e75 633c 532f f7bb 1eb0 163c f316 183b
000002f0: 88db c63c a6fc 0d3d 9340 3b3c 0167 d0bb
00000300: aad2 68bc 3307 963c 007b debb a7b0 913c
00000310: 7901 72bb b3c8 7fba d982 453c a874 d8b8
00000320: 6d0e b43b 3ad6 533c bb82 a5bb 9a86 19bb
00000330: 5d59 f73c b858 5c3c 1e33 aa3c 4c4d 8f3c
00000340: 4e0c bf3c 5eb6 183c fad5 2a3c 067e 083c
00000350: 2022 d53c 1d72 5a3c 994a 0e3b 7241 783c
00000360: bf80 113d 5bd7 b93c 9b9c f8bb c65f 543b
00000370: 4ab2 113c bc24 2c3c 87ca a33c 6ab6 07bc
00000380: dac8 c93b a689 8a3c ba28 e93b c34b c7bb
00000390: 26c1 103c 239d 193d 1a79 ecbb 7a2c 803c
000003a0: 42b4 103c 0d68 f33b 0f5a 1d3b 404c 163b
000003b0: 2393 dc3c 080b 12bb fc95 fd3c 7fe5 cdba
000003c0: cb19 503c c6c0 543c b5a4 74bc fa7a b33b
000003d0: f04c 113c 790d 483c 65fc 47bb aa95 633b
000003e0: 6e20 bb3c fb90 0bbc 7914 f43b 7599 fa3c
000003f0: 740a e03b b58c 603c c66b c6ba b7c7 cdbb
-0.00505359 0.009053918 0.028857624 0.019333713 0.0071985307 0.01675451 0.016629877 0.0036522204
0.0040163407 0.004523893 0.0050017973 0.025039792 0.029379971 0.0034610278 0.023739453 0.029774223
0.007449235 0.015245827 0.018937482 0.013033838 0.0069520245 0.013663242 0.0060299016 0.027087515
0.022228617 -0.009436662 0.005894662 0.016989956 -0.0039706593 0.011458822 0.014050551 0.0068194997
0.0001849235 0.025600396 0.03269795 0.02583825 0.0055305418 0.00910157 0.007891708 0.0136833545
-0.0033029835 0.0127457725 0.006463243 -0.00012428925 0.0008867315 -0.014694511 0.002763707 0.024987286
-0.008150914 -0.0010793125 -0.00253742 0.0099495 0.008897356 0.009530453 0.010486224 0.01975964
0.014937662 0.0072347173 0.027073894 0.016224524 0.02653462 0.014811477 0.026924431 -6.440926e-05
0.012732772 0.011001013 -0.007569023 0.009276075 0.02059702 -0.005130871 0.021189598 0.014788101
-0.0021163006 0.0041993987 -0.008653826 -0.0037249175 0.027133534 0.02103819 0.0061996724 0.0019146474
0.018894283 0.0055664945 -0.0059151477 0.011076625 0.026020104 0.02991564 0.017697548 0.004170723
-0.008240616 0.02176386 0.010771652 -0.0062300325 -0.0038239423 0.008378926 -0.012196673 -0.0012917273
0.0012061344 0.012564544 0.006372629 0.024610296 0.00232422 0.004527128 0.028672295 -0.00696453
0.004385162 0.019150164 0.019432781 0.024325227 0.01959303 -0.0017397521 0.015366075 0.013715578
0.017032668 -0.0056004548 0.008170413 0.01889109 0.02835127 0.0054396964 -0.0064775227 0.012084656
0.019925697 0.004520527 0.015604646 0.02151202 0.00325763 0.031526808 -0.012573296 0.0051761856
-0.0004062924 0.00025874583 0.0006077989 -0.0045305346 0.0027681468 0.0029285867 0.021234883 0.0060943705
0.022489935 0.021968069 0.011388146 -0.0014390036 -0.0010862438 0.004640019 0.030582517 0.010257949
0.011490737 0.024274727 -0.012479813 0.021612683 0.01640969 0.023169642 0.019876743 0.0037485415
-0.006204235 0.00017812017 0.046164755 0.017438104 0.014764594 0.013117221 0.019365763 0.022454623
0.012970899 0.017106248 0.027384618 -0.0069701863 -0.0050489083 0.0011033608 0.023387752 0.010880909
0.018289978 0.012673427 0.02908256 -0.002551205 0.014542341 0.013181294 0.015160395 0.022045618
-0.00061554514 0.012499189 0.017780924 -0.00015263187 0.03259441 0.006032588 -0.0068988386 -0.0030172798
0.013882933 -0.0075434833 0.009197263 0.0023207038 0.024274603 0.034664772 0.01142897 -0.0063599353
-0.0142103825 0.01831398 -0.006789565 0.01778443 -0.0036927147 -0.00097573845 0.012055122 -0.000103214115
0.0054948837 0.012929494 -0.0050509847 -0.0023426176 0.030193979 0.013448887 0.020776328 0.017492913
0.023321297 0.0093208235 0.010426993 0.008330828 0.026017249 0.013332871 0.0021711944 0.015152322
0.035523172 0.022685697 -0.007587028 0.0032405718 0.008892605 0.010506805 0.019994034 -0.008283237
0.0061579766 0.016911339 0.0071154507 -0.0060820295 0.008835113 0.037503373 -0.007216585 0.015646208
0.008832039 0.0074281753 0.0024009978 0.0022933632 0.026925629 -0.0022284407 0.030955307 -0.0015708654
0.012701462 0.012985414 -0.014931847 0.0054773064 0.008868441 0.012210243 -0.003051543 0.0034726658
0.022842612 -0.008518453 0.0074487296 0.030590752 0.0068371836 0.013705422 -0.001513832 -0.0062799114

action_model._discrete_distribution.branches.0.weight f4 [3, 256]
00000000: f847 90bb 161f 1b3d 1aeb b93c f5fe 883c
00000010: 42a6 1f3c 4e8a 2bbc fc9f ad3c b0fb c6bc
00000020: 6358 0abc a0bd 643c 0bb1 ab3b 4127 f9bc
00000030: e63a 3b3d d1f8 663a ebb4 e53c 7f51 213d
00000040: 23bf 8e3c 9fe0 c1bb 6423 093d 84d7 d53c
00000050: 3db2 9cbc 1ae0 993c 859b b8bc de56 ac3c
00000060: 89af 2b3d 521b 393a cfe6 8ebc 1b09 b03c
00000070: 37b1 e0bb 2b0e daba 03da e73a 70f1 203c
00000080: 41e6 c43b 3ac9 c33c aef2 0c3d 0078 8b3b
00000090: b828 6c3c 34fe 873c 9a1a b43c f984 4d3c
000000a0: ed3a 4cbc 41f8 063b 2813 623c d1d1 ae3c
000000b0: ee70 a23b 4f12 75bb 944c 83bc c938 b83c
000000c0: 9606 02bd f0a7 043a fd9b 7b39 8053 7aba
000000d0: 373f ce3c 72ba b7bc eb0b b73c dd3c ae3c
000000e0: 5da5 c63b 0094 88bc 778e 4fbb 4a29 013d
000000f0: 5bbd 313c 28e9 f7bc b383 1d3c 90c6 96bc
00000100: d34b da3b 9502 b33b 1115 fcbc 94ec f93b
00000110: c68e 353d 45d2 9a3b 5f7b 18bb 0d87 d5bc
00000120: ac50 ccbc a82c 3ebc 17dc e93b 65c2 17bc
00000130: b6d3 503d 646b 89ba b1c5 7f3b 1a07 8cbc
00000140: 7c26 8a3c 0212 cabc bc73 29bd d078 17bc
00000150: a824 06bd f572 913c adec e0bb 97fa bdbc
00000160: 8e93 a537 57ee 833b 8e7e 29bc e205 65bc
00000170: 8e3e 063b dc12 5a3c 353d d8bc 4489 5d3c
00000180: 8ec7 27bc 6790 853c e17f 1e3c cdd4 453c
00000190: 2cff 06bd c447 e33c 042f 883b d7d5 dabc
000001a0: 7f40 45bc 1d59 203c e5de 44bb a64a fc3b
000001b0: bfee e6bb 11e8 d23b ea79 a93c abf6 d43c
000001c0: c44b a93c 7c12 0f3c 962e 81bb a0e3 9fbc
000001d0: 73d6 403d 5be5 bd3c 93fe 59bc 8518 85bc
000001e0: c47d d53c 7a2c 0b3c e31c 70bc 98b0 f0bb
000001f0: 4e35 a8bc 82f8 6c3d 9bd4 f7bc 2a41 6f3b
00000200: 0201 41bc 4351 583b 38e9 1ebc 719d 5a3c
00000210: 1584 c1bc 3ee0 5dbc d783 d13c 88c4 ffbb
00000220: 2497 4c3d 9dc4 273c 3329 fc3b bcba f6bc
00000230: 6f40 123c f65d f03b f3d8 c03c 6c20 033c
00000240: 251c aebc 4bc2 e33c 8295 89bc a6f0 b63c
00000250: ee83 103c b94f 113d 9da8 36bc 6b27 f83b
00000260: 6784 cb3b 20ba fbbc 06b5 b63c 9db6 4fba
00000270: aa51 7a3c fa5e a43a 8ecc 0d3c 1d78 c83c
00000280: fff4 763c a34a 863c 0eec 80bb 9c11 3fbd
00000290: d46c 4c3c e02c 5a3b 63d2 b43c b8d4 6c3c
000002a0: a642 c1bc 5ae6 2f3b ef44 9b39 184f ae3c
000002b0: 517a 243c 1d68 06bd 8053 cebc b33c 12bd
000002c0: 2ce8 d8ba 7be7 95bc 1c41 373d a8f6 913b
000002d0: 1c89 0e3d bede 52bc 5d04 1c3c e082 e4bc
000002e0: 0c67 90bc eb69 1dbb bd7b f03c c84d 90b9
000002f0: db3c 213c 7751 433c 9858 d03c 3dd7 1ebc
00000300: e972 d1ba 6100 a53c 979f bcb9 fad5 ed3c
00000310: 514a 1e3b a3a1 53bc e297 25bc 9fa8 5b39
00000320: 9966 03bb f2fe 4f3c c9c2 5a3c b4a0 c13b
00000330: 1432 db3c 53e0 04bc 2d11 dabc 7d97 463c
00000340: 1277 283d cb74 1a3c a95f 73bc a096 51bc
00000350: a5a3 f63c 2a3c 8abc 5c97 9dbc f49e c5bb
00000360: d413 1f3d d340 ed3c f22e 90bc 13fc aabc
00000370: 486a ed3a d91b 193c 1622 593c 037d 03bc
00000380: b3a3 7f3c 0bf2 f8bb 0d51 1f3c 82e1 993a
00000390: 0f2d 663c 5f09 2e3d 09a5 f03b de8f 33bc
000003a0: e749 11bd bed5 b23a dc94 31bc f9e5 96bc
000003b0: 7876 98bb 1a7e 8c39 daf0 6b3b cbf6 d7bc
000003c0: 109f debb 42e2 ccbc f3a7 0d3a 5466 94bc
000003d0: dcae a8bc 8d4d 6b3c fa20 22bc 7690 1dbd
000003e0: a686 8e3c 4603 893c c594 263c 8f36 bf3c
000003f0: e5e4 3ebc 2ecd d03c adfa b2ba 3c94 84bc
-0.0044031106 0.037871443 0.022695113 0.016723135 0.009744229 -0.010469986 0.02119445 -0.024289936
-0.008443925 0.013961226 0.005239611 -0.030414226 0.045710467 0.000881088 0.02804037 0.03938436
0.017425125 -0.0059166695 0.033481017 0.026103742 -0.01912796 0.018783618 -0.022535095 0.021037515
0.04191545 0.0007061261 -0.017444042 0.021488717 -0.006857063 -0.0016636302 0.0017688874 0.009823188
0.0060088937 0.023899663 0.034411125 0.0042562485 0.014414005 0.016600706 0.02198534 0.01254391
-0.012465221 0.0020594748 0.0137985125 0.021340283 0.00495731 -0.0037394946 -0.016027726 0.022488015
-0.031744562 0.0005060425 0.00023995336 -0.00095491856 0.025176628 -0.022427771 0.02234455 0.021269256
0.0060621933 -0.016672134 -0.003167061 0.031533517 0.0108483685 -0.030262545 0.009613919 -0.018405229
0.006661871 0.0054629543 -0.030771764 0.0076270793 0.044325612 0.004724773 -0.0023266894 -0.026065374
-0.024940811 -0.011607327 0.0071368325 -0.009262656 0.050983153 -0.0010484275 0.0039027745 -0.01709323
0.016864054 -0.02466679 -0.04137014 -0.009245113 -0.032749802 0.017755011 -0.0068641515 -0.02319078
1.9738243e-05 0.004026215 -0.010345114 -0.013978453 0.0020484063 0.0133101605 -0.026396373 0.013521496
-0.010240449 0.016304208 0.009674043 0.012074661 -0.032958195 0.027744181 0.0041559953 -0.026713295
-0.012039303 0.009786871 -0.0030040082 0.0076993285 -0.0070475037 0.006436356 0.020688016 0.025996527
0.02066601 0.008732434 -0.003942321 -0.01951772 0.047079515 0.023180654 -0.013305324 -0.016247043
0.026060946 0.008494491 -0.014655325 -0.0073452704 -0.02053323 0.057854183 -0.030252745 0.0036507347
-0.011780025 0.003300742 -0.009699158 0.013343201 -0.023622552 -0.013542233 0.025575561 -0.007805411
0.049948826 0.010239747 0.007695341 -0.030118339 0.008926495 0.0073354198 0.02354095 0.008003335
-0.021253655 0.027802607 -0.016794924 0.022331547 0.008820517 0.03547642 -0.011148599 0.0075730584
0.006210852 -0.0307284 0.022303116 -0.0007923635 0.015278259 0.0012540512 0.008654727 0.024471337
0.01507306 0.016393011 -0.00393439 -0.046647653 0.0124771185 0.0033290908 0.022072976 0.014455013
-0.02359135 0.002684018 0.00029615263 0.02127795 0.010038928 -0.032814134 -0.0251863 -0.03570242
-0.0016548685 -0.018298855 0.044739828 0.0044544525 0.034798726 -0.012870489 0.009522525 -0.027894437
-0.017627262 -0.002401943 0.029355878 -0.00027523772 0.009841169 0.011921278 0.02543287 -0.0096948715
-0.001597968 0.020141782 -0.00035977058 0.029032696 0.0024153183 -0.012916955 -0.010107012 0.00020948284
-0.0020050167 0.012695061 0.013352104 0.00590905 0.026757278 -0.008110124 -0.026619518 0.012121079
0.04112918 0.00942726 -0.01485435 -0.012792259 0.030107329 -0.016874392 -0.019237213 -0.0060309116
0.03883727 0.028961575 -0.01760051 -0.020872151 0.0018113339 0.009345018 0.013252756 -0.008025411
0.015602994 -0.007597213 0.009723914 0.001174018 0.014048829 0.042489406 0.0073438925 -0.010959594
-0.03547087 0.0013644022 -0.0108387135 -0.018420206 -0.0046527945 0.00026796834 0.0036001713 -0.026362797
-0.006793864 -0.025010232 0.00054037495 -0.0181152 -0.020591192 0.014361751 -0.009895558 -0.038467847
0.01739819 0.016725194 0.010167305 0.023341445 -0.011651252 0.025488462 -0.001365503 -0.016183965

action_model._discrete_distribution.branches.0.bias f4 [3]
00000000: a12c 573c aaed 4fbc 0791 23bb
0.013133199 -0.012690941 -0.002495827

action_model._discrete_distribution.branches.1.weight f4 [3, 256]
00000000: f693 73bc 4459 c6bb 68c8 d73c 0fa6 03bb
00000010: 16d4 9d3c bb3c b8bb 0fe3 ffbb 561c 763c
00000020: 0f25 313c 3b5e 80bc e0e8 37bc 3dee 03bc
00000030: 067b 92bc be88 e1ba ac16 70bc 4a04 e0bb
00000040: 8e60 debc b869 1bbd 7488 1dbc 65b3 f1bb
00000050: b947 8fbb 313d 56bc 99ad bb3c 6fa4 bd3c
00000060: 2f8b a83c d585 a639 ee86 d3bc 6ad2 3abb
00000070: ac2b 553c dbd2 3f3b 77e6 13bc 764c 27ba
00000080: 1394 6d3c 441c bb3c 00b9 00bc 1a80 41bc
00000090: 4a4a ebbc 2c50 2bba d65a 3f3c 4e4c 90bc
000000a0: 81ec ce3b 1e67 353c f257 76bc c4ae 323b
000000b0: 7faa 09bc f366 c63b 5f04 063d 1d20 f83c
000000c0: e47c b3ba ecc9 9e3c 079d 63bb 9d48 f63b
000000d0: 7dfe 0e3b f9ad 863b a372 583c 32a1 0d3c
000000e0: 555d 08bc 307f 0c3c cb46 08bd b65c 4bba
000000f0: 1297 ce3a 6660 ca3c 6a8e af3c 4127 50bc
00000100: 565c 2ebc b7e2 1cbb f1cd 43bb af4a 22bc
00000110: 4582 97bc edeb b5b9 a8ff 503c 660d 103b
00000120: 0f1f f639 33ff 8e3b cef7 af3c 92a8 bdbc
00000130: 4ae6 003c 5c84 233c 543d b73c 4d17 e73b
00000140: e771 5a3b dc3f 843c 36ba 5a3b a228 d5bb
00000150: 0547 9c3c 2b08 fa3c b49c 053c 7c20 0bbc
00000160: 97e5 4c3b 79b5 d83c 24ff 97bb 47e6 003b
00000170: 685e a83b da61 763b d8b1 4fbb bb1a 59bc
00000180: be2f 0d3c ab4c cebc a9d2 c6bb cd88 973c
00000190: 0943 f03b dfca 68bb a796 c9bb 3bab 7abc
000001a0: 8e1e cbbc 435b ee3c cfed c73a 437f 09bc
000001b0: eefe 153b 534b f6bb 026d f9bb e6a1 53b8
000001c0: 4005 b33c 13d3 d8bb aaf9 903b e035 ca3c
000001d0: 3a02 d33c 346e 25bc 0222 173c 595b 4c3c
000001e0: 0d95 343a c9aa df3b 4392 903a d4fd 083d
000001f0: 120a 54ba 0ffe 4d3c a07b 473b f450 f93b
00000200: a7a6 ad3c 18a1 253c 70b9 1939 ce4f 14bc
00000210: 8709 833c 8855 cc3b 9472 38bc 157f f13b
00000220: 3f33 0dbc 20b1 6cbc 211b 213c f396 b7bb
00000230: 6373 bbbc 07dc 2bbb 944c f5bc 80d9 8cbc
00000240: be44 0b3c 2903 6b3c 9eb4 73bc 9a88 89bc
00000250: f7d4 16bc 981c 3a3c d0ac 573c d0a0 493c
00000260: 96e1 133c 761d f3bb 4a20 c83b 09ee adbc
00000270: 4d5d a93b 6f67 4dbc 761a cdbb b4fe 363b
00000280: 681f d1b9 8c2f 96bc bb73 f2bc a241 193c
00000290: fa11 44bc 6cbe b53b 582c d43b c8bc 3fb9
000002a0: 509e 133c ea4a c03a ba0f 9b3c 8f0a 12bc
000002b0: 7cf5 293a e817 e9bb b9d0 c2bb 9509 b6b9
000002c0: 4671 743c e8cd 37bd 57c1 c93c eba1 81bb
000002d0: 7443 243c cfbb 0839 8e1a 4dbc 105b 2d3c
000002e0: 5bee 433c 2b9e f83b 7953 62bb 278d bbbb
000002f0: f271 1c3d e3f0 893b 0a52 393c c2d2 d3bc
00000300: 1a46 2dbc b693 b6b9 f8f2 993c 0909 303c
00000310: f35e 1c3c 3fb4 3d3c a7c7 1cbc 8d10 8d3b
00000320: 6ae4 98bc 96ed 87bc 1673 033b 6160 f0bc
00000330: 755b 793b 1e75 223c f144 a23c 2062 fdbc
00000340: 7eba 44bb 0a2d e4bc 2bcf 07bb 4857 e139
00000350: dccf 7cbb 012f 95bc 3c1e 823c 3bec 1cbb
00000360: 7e62 663c 1d6e 973c 9a5a 8f3b 6211 9f3b
00000370: f55a 5a3c ed90 a73b 3de1 1ebc f2f1 763c
00000380: 298e 833b 9348 84bc 171e 353c 2a93 12bb
00000390: c3ad 8f3c 325a 083d 0ba5 2a3c 4ec1 e5bc
000003a0: 2ebe 353c 31fb f13c 1bbe fc3b 4221 a43c
000003b0: 988b 0f3b abf9 af3b 18f4 67bb bc61 503c
000003c0: 8adb 103b 3864 883c 5ad6 033c e161 f53c
000003d0: bcc1 26bc d242 4f3c 2f19 a43b da4f bdb9
000003e0: 87a5 c83a 1f0c 33ba 6983 a43b 8b2d 2a3b
000003f0: 8bc5 b43c 4ed5 513b 5f7f 173a b4ac 69bc
-0.01486682 -0.0060531218 0.026340678 -0.0020087992 0.01926617 -0.005622474 -0.00780905 0.015021404
0.010812058 -0.015669933 -0.011224955 -0.008052406 -0.017880928 -0.001720689 -0.014653843 -0.006836449
-0.02714565 -0.037942618 -0.0096150525 -0.007376122 -0.0043725637 -0.013076113 0.022909926 0.023149697
0.02057418 0.000317617 -0.025821175 -0.0028506764 0.0130109005 0.0029269967 -0.009027115 -0.0006381938
0.014500636 0.022840627 -0.007856607 -0.011810327 -0.028721947 -0.0006535079 0.011679372 -0.01761451
0.0063148146 0.011071948 -0.015035616 0.0027264813 -0.008402466 0.006054753 0.032719012 0.03028875
-0.0013693837 0.019383393 -0.0034731047 0.0075159804 0.0021819167 0.0041100946 0.013210925 0.008644389
-0.008323033 0.008575246 -0.03327064 -0.00077576505 0.0015761575 0.02470417 0.021430213 -0.012704671
-0.010642132 -0.0023938844 -0.002987739 -0.009905501 -0.018494735 -0.0003469879 0.012756266 0.0021980642
0.00046943917 0.004363918 0.021480467 -0.02315167 0.007867405 0.009980287 0.02236811 0.007052338
0.0033332051 0.016143732 0.003337515 -0.006505088 0.019076834 0.030521473 0.008155037 -0.008491632
0.0031264776 0.02645372 -0.0046385694 0.0019668506 0.005138207 0.0037594945 -0.0031691696 -0.013251002
0.00861734 -0.025183043 -0.006067593 0.018497849 0.00733221 -0.0035521311 -0.0061519924 -0.015299614
-0.024794843 0.029096251 0.0015253368 -0.008392158 0.0022887546 -0.0075163036 -0.0076118717 -5.04571e-05
0.02185309 -0.006616959 0.0044242935 0.024683893 0.025757898 -0.010097075 0.009224417 0.012472951
0.00068886654 0.006825779 0.0011029918 0.033445194 -0.0008088659 0.012572779 0.0030438676 0.0076085273
0.02119763 0.0101092085 0.00014660298 -0.00905223 0.015995754 0.006235782 -0.011257786 0.0073698857
-0.008618175 -0.014446527 0.009833128 -0.0056027113 -0.02288217 -0.0026223676 -0.029943742 -0.017193556
0.008500276 0.014344015 -0.014874605 -0.01678877 -0.009206048 0.011359356 0.01316376 0.012306407
0.009025952 -0.0074192835 0.006107365 -0.021231668 0.005168593 -0.0125368675 -0.006259258 0.002792281
-0.00039886986 -0.018333219 -0.0295962 0.009354027 -0.011967177 0.0055463817 0.0064750127 -0.00018285506
0.009009913 0.0014670764 0.018928397 -0.00891365 0.00064834184 -0.0071134456 -0.005945292 -0.00034720884
0.014919585 -0.044874102 0.024628324 -0.0039560697 0.010025848 0.00013039935 -0.012518538 0.010580793
0.011958684 0.0075872145 -0.0034534617 -0.005723614 0.038194604 0.004209624 0.011311064 -0.025857333
-0.010575796 -0.00034823798 0.018792614 0.010744342 0.009544122 0.011578619 -0.009569085 0.0043049515
-0.018663604 -0.016592782 0.002005761 -0.029342832 0.0038048897 0.009915618 0.019808264 -0.030930579
-0.0030018385 -0.027853508 -0.0020722847 0.00042980374 -0.0038576042 -0.01821089 0.015883557 -0.0023944515
0.014061568 0.018485123 0.004374814 0.004854367 0.01332735 0.005113712 -0.009697256 0.015072333
0.0040147495 -0.016147887 0.011054537 -0.0022365549 0.01753891 0.033289142 0.010415326 -0.028046276
0.011092706 0.029538723 0.007713092 0.02003539 0.0021903273 0.005370339 -0.0035393294 0.012718614
0.0022103512 0.01664935 0.008046711 0.029953899 -0.010178026 0.012650209 0.005007885 -0.00036108383
0.001530812 -0.0006830114 0.005020548 0.0025967087 0.022066852 0.0032018009 0.00057791726 -0.014262367

action_model._discrete_distribution.branches.1.bias f4 [3]
00000000: 60f7 cb3b 7e60 b4bb 5c08 29ba
0.0062245578 -0.005504667 -0.0006448084

action_model._discrete_distribution.branches.2.weight f4 [3, 256]
00000000: 22c6 523c ad16 b93a 7ed0 0dbc 4de9 90bc
00000010: 8bb9 0fbb 0f23 7abc 19ed 3b3c 4533 c0ba
00000020: ee17 3bbc 2ac4 d63c 7050 e9bc 83ce 93bc
00000030: 1b2d 363c 6c59 41bc 475d fabb 861b e3bc
00000040: 3571 0e3c ba69 c9bc 18c5 09bc a2ec 303b
00000050: 7871 19bc 3ba4 e9ba 5e9a b93c 4bb0 96bc
00000060: d2e4 84bc 8ad4 0fbd f7d4 d53b 7cb6 e8ba
00000070: 55d2 15bb 7337 f13a 3dfa 3c3c b5c6 443b
00000080: c975 e3bb e0cd 063b fd0b 98bc f014 9fbc
00000090: b7cc eb3a 606f 163d e94d 96ba 0d25 093c
000000a0: 1371 fe3b c20c 263c 4859 003d 8e7f 6ebb
000000b0: 1fa6 aa3c 580d 4b3c fc9c a23c 02ee d4bc
000000c0: ff6a 863c f117 52bb 1361 39bc c418 29bc
000000d0: cc44 bd3a 063d 01bc 8fd4 5a3c 9f3b 72bc
000000e0: 9e2d e93c 78a9 02bc 4833 19bc d8a4 d83b
000000f0: 7334 14bd 10e9 4e3c 6a75 ecbc d736 103c
00000100: 028b aa3b 8bbe 193b 322c 89bc 8de9 6d3b
00000110: 54fb cd3c 479a 013c 6df3 3cbb 2375 1cbb
00000120: 1a2d bdbc 22de ffbc 06e7 53bc 58ea 903c
00000130: de7b 463b 4cd6 983a 1999 8fbb 976d 64bc
00000140: 7dd0 853b eab9 bdbb d0a3 4e3b 3f6f 3fbb
00000150: 277a 65bb e9fd febc 37fb f9bc 54f7 883b
00000160: 48d7 e13c eca7 a9bc 7efb 7d3c 06e3 203c
00000170: 012a 49bc a066 103c 5b17 3dbc df41 873a
00000180: 973a ec3b 7216 b03c 509c 873c f371 20bc
00000190: 9774 7a3c 06c2 c03c 9136 f83b cc45 80bc
000001a0: 2035 c9ba 961d b7bb 4392 88bc 071e 883c
000001b0: d3d1 47bc 0e23 87bc 2bdd b23b d536 b83b
000001c0: 96d6 103b 21ca f63b 7b39 4c3c 49ed d4bc
000001d0: 43c0 ebbb 7d4b bdbb 8498 003d 957a 9ebc
000001e0: 307f aeba b13d 973c 0981 2f3c 70d3 11bc
000001f0: ddc7 cf3c 3231 b9bc d850 f13c c1c4 54bc
00000200: 793f 423c 9dfa 573b 803f 42ba f7a5 1f3b
00000210: d333 08bd aacf f7b9 39dc 2d3c c450 73bc
00000220: ad82 3f3c 777f 9c3c d86f fdba 517a 5b3c
00000230: 13f3 763c 0ab3 453c cd5f 293b f59f 933c
00000240: d6bc afbc 90f6 70bc 226f b239 a95b f13b
00000250: 73f4 07bd d149 b2bc 1fce 3cbd 480a d23b
00000260: 01d3 9bbb da60 6ebc d021 0dbc 5dc6 5fba
00000270: a7b9 4cbb 3fb2 373d fece 77ba a6a7 90bb
00000280: 55b4 cc3c 3201 723c c741 51bc 0785 363b
00000290: 61c7 e03b 1e43 023d 058d 12bc 395d 07bd
000002a0: de41 133c 0ed5 ecbb 7c96 05bc b751 e93b
000002b0: fbe4 cabc 91e6 223c 9c1c eab8 0d91 15bd
000002c0: 47b8 3e3c aa00 6abc 6749 9dbc 8d8f 833c
000002d0: 5c43 fbbb 75e0 e7bc ee2c c23b 7335 003c
000002e0: 0216 3abc d058 f53a feb5 42bc 5783 14bb
000002f0: dca0 3fbc e309 7d3c fa49 4dbc 4369 7c3c
00000300: c55f 033c 338f aa3b 1e64 613c fa2a b2bc
00000310: 19fd 153c c03e dabb 2699 fdbb 5843 8c3c
00000320: 525d 0e3d 497c 84bc e37e 373b a8b7 e03b
00000330: 6fc7 e53b 2fcb e23a e6d3 ecbc 77ed acbb
00000340: f6f8 c03c d530 b13c 9b03 b8b9 da09 21bd
00000350: 93a2 3bbc a150 ae3c d361 e9bb 8b96 8a3b
00000360: 9658 b93b d9c4 13bb 2d5e 1d3c 76f9 ee38
00000370: 0a1f 10bc dd2e 513b 8533 df3b d34f d23b
00000380: b59f 313c 3f23 d3bb 91d2 e1b8 ba75 2a3c
00000390: c92e 6abc aaba 08bc 560f 253c cbc2 61bc
000003a0: 29a1 adbc 5bc6 2f39 6d39 f4bb cbcb 253c
000003b0: c694 70ba 83e9 d83b 98f5 26bd 4d65 963c
000003c0: 65ac c2bc 2e31 713b c98c 94ba cee5 84bb
000003d0: a3f7 bd3b 5521 903c b476 d7bc b8f9 1d3b
000003e0: 29dd 1f3a df83 083c b0fd bbbc 519d f4bb
000003f0: 584c 6f3c d54a 953c f62a 5e3b 748d bf3c
0.012864621 0.0014121138 -0.008655665 -0.017689371 -0.002193066 -0.015267148 0.011470103 -0.0014663717
-0.0114192795 0.026216585 -0.028480738 -0.018042808 0.011119152 -0.011801105 -0.007640514 -0.027723085
0.008693983 -0.024586547 -0.008408807 0.0026996513 -0.009365432 -0.0017825434 0.022656616 -0.01839461
-0.016222391 -0.035114802 0.0065256315 -0.001775458 -0.0022860963 0.0018403366 0.011534271 0.0030025665
-0.0069415313 0.0020569488 -0.018560404 -0.019419163 0.0017990087 0.03672731 -0.0011467311 0.00837065
0.0077649443 0.010134878 0.031335145 -0.0036391946 0.020831166 0.012393318 0.019850247 -0.025992397
0.016408442 -0.0032057727 -0.011314648 -0.010320846 0.0014440059 -0.007888084 0.013356342 -0.014784723
0.028464135 -0.007974975 -0.009350605 0.006611448 -0.036182832 0.012628809 -0.028864581 0.008802137
0.0052045593 0.002345952 -0.016744707 0.0036302537 0.025144257 0.007910318 -0.0028831617 -0.002387353
-0.023092795 -0.03123385 -0.012933498 0.017689869 0.0030286233 0.0011660545 -0.0043822643 -0.013942144
0.0040836916 -0.005789985 0.0031530745 -0.0029210595 -0.0035015435 -0.031126933 -0.030515296 0.0041798744
0.027568474 -0.020709954 0.015501855 0.009819752 -0.012278081 0.00881353 -0.011541213 0.0010319314
0.007209133 0.021495078 0.016554028 -0.009792793 0.015286586 0.023530018 0.007574864 -0.015658282
-0.0015350915 -0.0055882437 -0.016671306 0.01661588 -0.012196022 -0.016496208 0.005458494 0.005621771
0.002210056 0.00753142 0.012464876 -0.025992053 -0.0071945502 -0.005776821 0.03139545 -0.019345561
-0.0013313051 0.018462034 0.010711917 -0.008900508 0.025363857 -0.022606466 0.029457495 -0.012986363
0.011855953 0.0032955774 -0.0007409975 0.0024360397 -0.03325255 -0.00047266233 0.010611587 -0.014850799
0.01168887 0.019103749 -0.00193357 0.013395862 0.015072602 0.012066612 0.0025844455 0.01802061
-0.021452349 -0.014707223 0.00034033606 0.007365663 -0.03319211 -0.021763714 -0.04609501 0.006409917
-0.0047553782 -0.014549458 -0.008614019 -0.00085363333 -0.0031238587 0.044847723 -0.00094531465 -0.0044145165
0.024988333 0.014770793 -0.01277203 0.0027850287 0.0068597053 0.03180229 -0.0089447545 -0.03304789
0.008987872 -0.0072275465 -0.008153554 0.007120337 -0.02476739 0.009942667 -0.000111633184 -0.036515284
0.011640615 -0.014282385 -0.01920004 0.016059661 -0.007667942 -0.028305272 0.005925766 0.007825243
-0.011357786 0.0018718485 -0.011884211 -0.0022661292 -0.011696067 0.015444252 -0.012529844 0.015405956
0.008018439 0.005205059 0.01375678 -0.021749008 0.009154581 -0.0066603124 -0.007739204 0.017121956
0.034756966 -0.016172545 0.0027999214 0.006857831 0.0070122997 0.0017302985 -0.028909635 -0.0052773315
0.023556214 0.02162973 -0.000350979 -0.039316036 -0.011452335 0.021278681 -0.0071222573 0.004229372
0.005656312 -0.002254775 0.009604973 0.0001139519 -0.008796463 0.0031918802 0.0068115615 0.006418207
0.0108413 -0.0064434106 -0.00010768057 0.010404045 -0.014293381 -0.008345285 0.010074457 -0.013779352
-0.021195011 0.00016763194 -0.0074531347 0.010119389 -0.00091774424 0.0066196336 -0.04076156 0.01835885
-0.023763845 0.0036802995 -0.0011333461 -0.004055715 0.005797343 0.017594019 -0.02630172 0.0024105143
0.0006098324 0.008332222 -0.022948116 -0.0074650426 0.014605604 0.01822416 0.0033900118 0.02338288

action_model._discrete_distribution.branches.2.bias f4 [3]
00000000: 564e c7bb eaa6 013b 1789 ae3b
-0.0060823364 0.0019783326 0.005326401
